checkpoints/epoch=2-step=150-v10.ckpt (torch, 621663 bytes, 33 tensors)

model.param_proj.proj.0.weight f4 [1, 60]
0.0878358 -0.16541131 0.10917886 0.20903942 -0.11310787 -0.10518638 0.033921134 0.14181219
-0.02510971 -0.21547118 0.005012359 0.18866386 0.17319079 -0.23438379 0.027730463 -0.033275463
0.07957618 0.1889103 -0.21601896 -0.05043034 -0.17960244 0.16554224 0.067519635 -0.077192195
0.02602545 -0.05894285 -0.12234505 0.030484797 0.03181116 -0.19879527 0.027668217 0.061761703
-0.13815056 -0.13211344 0.19227916 -0.15339981 0.2152005 -0.100594826 0.0792747 0.11590695
0.09345476 -0.076358646 -0.18488617 -0.07725089 0.056593206 0.07375373 0.2388191 -0.19696368
0.016839858 -0.1650958 -0.17521037 -0.16192813 -0.28425062 -0.2378102 0.26166493 0.1555588
0.18474208 0.15645237 0.18281443 0.2105847
00000000: 42e3 b33d 9561 29be 2b99 df3d 6e0e 563e
00000010: 19a5 e7bd f56b d7bd e3f0 0a3d 3737 113e
00000020: e1b2 cdbc 7aa4 5cbe b73e a43b 1931 413e
00000030: ed58 313e 4e02 70be ff2a e33c da4b 08bd
00000040: d6f8 a23d b471 413e 1334 5dbe 0b90 4ebd
00000050: b4e9 37be e883 293e bc47 8a3d f116 9ebd
00000060: 5333 d53c 0f6e 71bd 0b90 fabd 41bb f93c
00000070: 6b4c 023d fd90 4bbe 75a8 e23c d7f9 7c3d
00000080: 5777 0dbe bf48 07be d4e4 443e d714 1dbe
00000090: 855d 5c3e a904 cebd c65a a23d 9f60 ed3d
000000a0: 3665 bf3d ec61 9cbd cd52 3dbe b735 9ebd
000000b0: 47ce 673d 320c 973d ff8c 743e d9b0 49be
000000c0: bef3 893c e00e 29be 596a 33be 7dd0 25be
000000d0: 4c89 91be 8484 73be f2f8 853e ce4a 1f3e
000000e0: 072d 3d3e 0d35 203e b533 3b3e 84a3 573e

model.param_proj.proj.1.weight f4 [1, 60]
-0.07456325 0.11034006 0.096727856 -0.14520444 -0.12573572 -0.031789295 -0.22562604 -0.016135177
-0.17172627 0.13501436 -0.14558452 -0.16171204 0.04400879 -0.15455307 0.137841 0.044580262
-0.0114296125 -0.008937628 0.10903755 0.13719252 -0.14535096 0.10229582 -0.20606606 0.16907232
0.14901687 0.13953272 0.077460155 -0.075200535 -0.108621635 0.1469271 0.02001072 -0.20962475
0.14932068 0.16858736 -0.129673 -0.08118105 0.07200566 0.12597258 -0.21756119 -0.01828552
-0.19392082 -0.2261031 0.01558035 -0.006447954 -0.0779821 0.11070458 0.123979606 0.15602608
0.15195286 -0.17258671 -0.08170029 -0.1273264 0.12144346 -0.098943725 0.16277647 0.040958744
-0.1911784 0.09494278 -0.11790417 -0.17282906
00000000: 9eb4 98bd f8f9 e13d 4119 c63d 79b0 14be
00000010: ddc0 00be 7e35 02bd 830a 67be eb2d 84bc
00000020: 03d9 2fbe 3441 0a3e 1c14 15be d797 25be
00000030: 9042 343d 2943 1ebe 3126 0d3e cb99 363d
00000040: 4543 3bbc 216f 12bc 144f df3d 327c 0c3e
00000050: e2d6 14be 7980 d13d fb02 53be 4b21 2d3e
00000060: e197 183e aae1 0e3e 6ea3 9e3d bd02 9abd
00000070: 0575 debd 0f74 163e 85ed a33c dfa7 56be
00000080: 85e7 183e 2aa2 2c3e 00c9 04be 4042 a6bd
00000090: b477 933d f5fe 003e 5cc8 5ebe 84cb 95bc
000000a0: 2e93 46be 9287 67be b944 7f3c 5c49 d3bb
000000b0: 14b5 9fbd 15b9 e23d 05e9 fd3d 4dc5 1f3e
000000c0: 8899 1b3e 92ba 30be 7b52 a7bd da61 02be
000000d0: 59b7 f83d 02a3 cabd e0ae 263e 5bc4 273d
000000e0: 45c4 43be 5c71 c23d be77 f1bd 1afa 30be

model.param_proj.proj.2.weight f4 [1, 60]
-0.18901028 0.051615633 0.037802454 0.07731794 -0.04500995 -0.04076447 0.033287894 0.09909618
-0.072951406 -0.05597246 -0.018451454 -0.043585557 0.057791114 -0.108091414 -0.084166415 0.017442182
-0.10237951 0.0456644 -0.07495645 0.05902418 0.05828515 0.048967108 0.027001256 0.005756859
-0.0019911036 -0.105999395 0.0075137177 0.12134996 -0.101421 -0.037783623 0.051999856 -0.06501612
0.036851756 -0.012041164 0.014668926 -0.0061218683 -0.017855305 0.038696412 -0.14848503 0.06697845
0.0045384797 -0.14855602 0.12410153 0.05474768 -0.1137174 -0.13535829 0.037473008 0.14609447
0.015694821 -0.0905384 -0.004644468 0.05034063 -0.058326464 0.004618573 0.030191302 0.070396185
-0.083441265 0.03262306 0.10055 -0.060106218
00000000: e98b 41be ea6a 533d bfd6 1a3d de58 9e3d
00000010: 5a5c 38bd a5f8 26bd e358 083d f0f2 ca3d
00000020: 8c67 95bd 6143 65bd 8127 97bc c586 32bd
00000030: 60b6 6c3d 085f ddbd 715f acbd e8e2 8e3c
00000040: 59ac d1bd 980a 3b3d c482 99bd 57c3 713d
00000050: 69bc 6e3d bc91 483d bd31 dd3c 09a4 bc3b
00000060: 2d7d 02bb 3616 d9bd a235 f63b 5486 f83d
00000070: d0b5 cfbd 00c3 1abd cdfd 543d 2c27 85bd
00000080: def1 163d 4d48 45bc ef55 703c f499 c8bb
00000090: 4a45 92bc 2180 1e3d 760c 18be ff2b 893d
000000a0: 87b7 943b 121f 18be f128 fe3d 1a3f 603d
000000b0: abe4 e8bd 5d9b 0abe 4c7d 193d ca99 153e
000000c0: 6d92 803c 326c b9bd 9f30 98bb fa31 4e3d
000000d0: bbe7 6ebd 6657 973b c053 f73c e02b 903d
000000e0: 41e3 aabd c29f 053d 29ed cd3d f031 76bd

model.rnn.weight_ih_l0 f4 [240, 24]
0.22191608 -0.057361174 -0.048356134 0.043525066 0.003967829 -0.13071509 0.03157056 0.07310731
0.06313664 0.23194322 -0.07468628 0.05944834 -0.061020486 -0.094100416 0.042697977 0.21476021
0.025631387 -0.19277135 0.0657561 0.0042919656 0.04379937 -0.047190033 0.07949723 0.11030725
0.027960928 -0.07061277 0.09887052 -0.02776016 -0.15375668 0.049224023 0.007291941 -0.07193858
-0.094529726 0.16269201 0.032948676 0.08127439 0.065266706 -0.029265821 0.0010145408 0.017469423
0.030347465 -0.10265898 0.1402877 0.02866866 -0.023592021 0.06862027 0.06151261 0.029466646
0.1769538 -0.2624802 -0.08414232 0.21849258 0.11128153 0.021752018 -0.10970403 -0.025947692
-0.13251412 0.18565777 -0.050503336 -0.11573706 -0.121068574 0.09470168 0.015560467 -0.069811136
0.17382488 -0.08567877 0.15365228 -0.017220395 0.021104254 0.15080589 0.06731153 -0.07190633
-0.09466623 0.020413151 -0.10668286 -0.0600903 -0.032041125 0.074995935 0.042443387 -0.10417618
-0.13058333 -0.080750704 0.024120271 0.013329171 0.081205025 0.08296628 -0.11374595 0.10790438
0.02708919 0.17277296 0.08805947 0.07213171 -0.14133042 0.00017858099 0.03127233 -0.020380782
0.050550435 -0.101556346 -0.10257467 -0.026122201 0.025857016 0.07665983 0.020335648 -0.09115972
0.074364945 0.098276794 -0.047331076 0.15165675 0.1041435 -0.119523026 0.027869245 0.15055908
-0.18931271 0.1911773 0.10133751 0.06022324 -0.009126062 -0.051938966 0.09129797 -0.059569463
-0.20817563 -0.14563319 -0.0064870766 -0.1384333 -0.020197364 0.02033947 -0.01882896 0.121469826
0.072381176 0.060699705 0.021085026 -0.14092195 -0.1904494 0.1307252 -0.13809982 -0.07738427
-0.043431904 -0.0038363507 -0.027554447 0.026673347 0.08973226 -0.02935084 -0.088133484 0.04658781
0.027621973 -0.062400162 0.017069958 -0.14594175 -0.009760794 0.055216283 0.097701885 0.052566025
-0.011205997 0.14431994 0.12328427 0.11003532 -0.03629568 0.049485885 0.07890354 -0.17144836
0.095600195 -0.12238104 0.08798591 0.07958285 0.04697503 0.24833713 0.029311469 0.107742995
-0.010121996 -0.083974816 -0.057945546 -0.09978346 -0.111065984 0.04739438 0.19459508 0.046050973
-0.08165143 -0.08378585 -0.01464581 -0.10203588 -0.15683861 0.20653944 -0.04071042 -0.011954627
0.027210038 0.09624644 0.09683299 -0.10991837 0.0004699274 -0.06876407 0.16903964 0.01773902
-0.072305135 0.00252455 -0.030662453 0.03490946 -0.19034705 -0.0012262141 -0.008005537 -0.048393667
0.10301852 -0.15671374 0.028064307 -0.15705149 -0.14317073 -0.020207189 -0.20405242 0.017333135
0.0904484 -0.17658393 0.13555396 0.03251432 -0.108430915 0.0957576 0.16024952 0.12111614
0.100961596 0.031155538 -0.049526967 -0.0987556 -0.060693268 -0.08422015 0.03945252 0.078874916
-0.033912953 0.051116176 0.03406456 -0.08151101 0.069326654 0.044891912 0.08234679 0.062498994
0.14418453 -0.008198435 -0.039726984 -0.07688934 -0.10092861 0.074635506 -0.06255588 0.02835355
-0.20316337 -0.12337503 -0.1617098 0.12930812 0.21896102 0.040283114 0.07583372 0.00085195614
0.15980516 0.09965755 0.11078231 0.038368072 -0.06013345 0.027516242 0.08118923 0.1867097
00000000: f83d 633e 8df3 6abd 1511 46bd 5747 323d
00000010: 9004 823b 2dda 05be 2250 013d 49b9 953d
00000020: c84d 813d 8682 6d3e 1ff5 98bd 1a80 733d
00000030: 9ef0 79bd b8b7 c0bd 13e4 2e3d 1aea 5b3e
00000040: eaf8 d13c da65 45be 22ab 863d 9ea3 8c3b
00000050: f866 333d 564a 41bd 72cf a23d c4e8 e13d
00000060: 510e e53c 6e9d 90bd a17c ca3d 4669 e3bc
00000070: 6472 1dbe 219f 493d 3cf1 ee3b 8954 93bd
00000080: cd98 c1bd bc98 263e 31f5 063d 3073 a63d
00000090: 8daa 853d e0be efbc 57fa 843a 091c 8f3c
000000a0: 3f9b f83c df3e d2bd 94a7 0f3e 8ada ea3c
000000b0: 0e44 c1bc c988 8c3d a6f4 7b3d 0964 f13c
000000c0: 6033 353e ce63 86be cf52 acbd 85bc 5f3e
000000d0: 92e7 e33d 4a31 b23c 82ac e0bd 4190 d4bc
000000e0: c8b1 07be 121d 3e3e 96dc 4ebd 8d07 edbd
000000f0: cdf2 f7bd f4f2 c13d 54f1 7e3c 24f9 8ebd
00000100: 26ff 313e 5a78 afbd 0657 1d3e c911 8dbc
00000110: d4e2 ac3c dc6c 1a3e a1da 893d a043 93bd
00000120: 5ee0 c1bd 7b39 a73c 8b7c dabd 3f21 76bd
00000130: 8e3d 03bd 7897 993d 1ed9 2d3d 525a d5bd
00000140: a3b7 05be a060 a5bd e097 c53c 9862 5a3c
00000150: d24e a63d 3aea a93d a3f3 e8bd f9fc dc3d
00000160: 26ea dd3c 65eb 303e 8658 b43d cab9 933d
00000170: ecb8 10be 7841 3b39 6a17 003d 99f5 a6bc
00000180: f90d 4f3d c6fc cfbd ab12 d2bd 3afe d5bc
00000190: 18d2 d33c d4ff 9c3d f296 a63c f3b1 babd
000001a0: a64c 983d 5845 c93d 3bde 41bd e84b 1b3e
000001b0: 3049 d53d 7dc8 f4bd 0b4e e43c 292c 1a3e
000001c0: 31db 41be fbc3 433e 0a8a cf3d a5ac 763d
000001d0: 7a85 15bc f4bd 54bd 6efa ba3d 1cff 73bd
000001e0: fe2b 55be de20 15be 8b91 d4bb 76c1 0dbe
000001f0: f174 a5bc f69e a63c 313f 9abc 2cc5 f83d
00000200: 953c 943d 41a0 783d 81ba ac3c d84d 10be
00000210: 2b05 43be d4dc 053e 0a6a 0dbe a57b 9ebd
00000220: a7e5 31bd 496b 7bbb ddb9 e1bc 1082 da3c
00000230: 8cc5 b73d 2c71 f0bc 547f b4bd dcd2 3e3d
00000240: 7a47 e23c 5097 7fbd 4cd6 8b3c c171 15be
00000250: bdeb 1fbc 782a 623d ed17 c83d 794f 573d
00000260: 5c99 37bc 9bc8 133e 777c fc3d 335a e13d
00000270: c7aa 14bd b6b1 4a3d 2e98 a13d 2990 2fbe
00000280: 09ca c33d e9a2 fabd f531 b43d 55fc a23d
00000290: e468 403d 174c 7e3e 9b1e f03c 5ca8 dc3d
000002a0: bad6 25bc fdfa abbd 4f58 6dbd 455b ccbd
000002b0: 9076 e3bd 9c20 423d ef43 473e f29f 3c3d
000002c0: dd38 a7bd ea97 abbd fbf4 6fbc 30f8 d0bd
000002d0: 4d9a 20be 137f 533e f8bf 26bd 57dd 43bc
000002e0: 96e7 de3c db1c c53d 6050 c63d e21c e1bd
000002f0: 9760 f639 2dd4 8cbd ba18 2d3e 6c51 913c
00000300: b714 94bd ec72 253b d32f fbbc 39fd 0e3d
00000310: 56ea 42be ebb8 a0ba a829 03bc 7038 46bd
00000320: 60fb d23d 9179 20be 1ee7 e53c 1bd2 20be
00000330: 599b 12be 8c89 a5bc 1ef3 50be 38fe 8d3c
00000340: 033d b93d 6bd2 34be a8ce 0a3e bc2d 053d
00000350: 0711 debd 901c c43d 7318 243e bd0b f83d
00000360: f4c4 ce3d e639 ff3c cadc 4abd 6040 cabd
00000370: 8199 78bd 9d7b acbd f798 213d 2c89 a13d
00000380: 4fe8 0abd 325f 513d 4887 0b3d 3fef a6bd
00000390: 22fb 8d3d 95e0 373d 6fa5 a83d f2fe 7f3d
000003a0: 1ca5 133e bb52 06bc c3b8 22bd 2978 9dbd
000003b0: a9b3 cebd 80da 983d 4c1d 80bd b445 e83c
000003c0: 0f0a 50be 0cac fcbd 4197 25be 5969 043e
000003d0: 5137 603e e8ff 243d b64e 9b3d cf55 5f3a
000003e0: f7a3 233e 4219 cc3d d6e1 e23d d727 1d3d
000003f0: 7e4e 76bd be69 e13c 8a46 a63d d430 3f3e

model.rnn.weight_hh_l0 f4 [240, 60]
0.12638275 0.03178458 -0.08437166 0.03291788 -0.074877776 0.06428606 -0.06425525 0.051543947
-0.0018818822 -0.048500013 -0.013921127 -0.037624158 0.11759963 0.0028027515 0.013142558 -0.09899339
-0.21611288 -0.12933083 0.025899744 -0.016760578 0.06818432 -0.05474685 -0.055849444 -0.007811801
0.062115613 0.14990628 0.14126037 0.06785848 -0.05111588 0.013508645 -0.013532617 -0.024603598
-0.03679299 -0.01473186 -0.103776924 0.07871045 -0.024314495 -0.09021288 0.07863315 -0.10344862
0.03488805 -0.05129081 -0.08992282 0.117692105 0.012533099 0.17504475 0.061044063 -0.112599604
-0.021685308 -0.053351678 0.095800266 0.036103897 0.057296842 -0.005434381 -0.09990077 0.06006728
0.0031936176 -0.12956029 0.10077286 -0.03508737 0.115458146 -0.008478296 0.06133523 -0.025956074
0.09875174 0.060221314 -0.15374862 0.027753145 -0.1201956 0.08080185 0.13312747 -0.1387333
-0.073102854 -0.07448586 0.06961452 -0.067832574 0.16387112 -0.009346066 0.071003154 0.030796774
-0.10290705 0.029305143 0.05277625 0.07908338 0.03036192 -0.17755954 0.08568354 -0.03504883
-0.049572088 0.103431 0.03313521 -0.005445699 0.102808915 0.12129508 0.10306205 0.021233637
0.07658876 0.08725278 0.009419802 0.08383969 0.011137888 0.1723082 -0.01753105 -0.03313906
-0.053484503 0.16626653 0.036708176 -0.035111982 0.15840848 -0.043288264 -0.11389737 -0.02015098
-0.043960236 -0.01139074 -0.06928203 0.05574182 0.08914267 -0.09850479 -0.044339053 0.10062395
0.091894105 -0.12342106 -0.08394238 -0.14529409 0.05934417 -0.10019859 -0.009393013 0.011891901
-0.15052563 -0.036351163 0.03459055 -0.041932914 0.068669476 -0.092247464 -0.19433263 -0.18271074
-0.12949085 0.05287762 0.031027205 0.025640488 -0.021040771 -0.103425734 0.10182285 0.085964926
-0.20033614 -0.11227726 0.039960835 -0.0050781835 -0.06748596 -0.06605804 0.14545248 -0.09789556
0.01763544 0.05599582 -0.008115296 0.08679293 0.054363135 -0.049224257 -0.049225625 -0.17117457
0.019197986 -0.053736076 -0.017480442 -0.17444797 0.05172082 0.07061684 -0.003349542 0.020287385
0.010154361 -0.03130586 0.02226996 -0.022259235 -0.07863937 -0.006122578 0.0054910653 -0.0052765193
-0.04990435 -0.13984054 -0.030628465 0.15586862 -0.055670746 0.042117495 -0.04222642 0.044290643
-0.056061376 0.063526705 0.08840346 -0.0678739 -0.08706311 -0.06967139 0.037695948 -0.084388845
-0.117029145 0.005984324 -0.031390272 0.0020352646 0.19032404 -0.14522843 0.09448265 -0.000985792
-0.11954978 -0.04734882 -0.06878439 -0.12036604 -0.06260252 -0.11240362 0.08875782 0.022401111
0.13006616 -0.00044235098 0.08451804 -0.07663443 0.091630675 0.015759036 0.12727045 0.032546263
-0.025186023 0.014875483 0.13163114 -0.02626968 0.08651666 0.1013064 -0.06547112 -0.027730495
0.01741077 0.10084256 0.036413133 0.030740347 0.01432896 0.048114937 -0.019413805 0.048867423
-0.16498058 -0.10307411 0.10204831 -0.05243361 0.08060789 -0.07512648 0.024403375 0.12690096
-0.054079227 0.0019211778 -0.065955594 0.041134372 0.0832247 -0.11098574 -0.14586668 -0.01860534
-0.19537406 0.094715446 0.09647862 -0.10824972 -0.04445744 0.15318452 0.0038541926 -0.065351196
00000000: 7b6a 013e 8c30 023d 0dcb acbd e6d4 063d
00000010: 8559 99bd 69a8 833d 4298 83bd bf1f 533d
00000020: 7da9 f6ba f3a7 46bd 7015 64bc ca1b 1abd
00000030: 13d8 f03d 5eae 373b e253 573c 0cbd cabd
00000040: b24c 5dbe 4d6f 04be b32b d43c 7b4d 89bc
00000050: 39a4 8b3d 3c3e 60bd 63c2 64bd 23fa ffbb
00000060: f16c 7e3d 0881 193e 8fa6 103e 63f9 8a3d
00000070: e35e 51bd 5d53 5d3c e9b7 5dbc 7c8d c9bc
00000080: 3fb4 16bd e65d 71bc ff88 d4bd f232 a13d
00000090: 312f c7bc 88c1 b8bd 6b0a a13d dfdc d3bd
000000a0: c6e6 0e3d 5016 52bd 7529 b8bd 8f08 f13d
000000b0: a157 4d3c ee3e 333e 5709 7a3d 9f9a e6bd
000000c0: 63a5 b1bc 4a87 5abd ee32 c43d aee1 133d
000000d0: 18b0 6a3d e412 b2bb c698 ccbd 1c09 763d
000000e0: 034c 513b 74ab 04be 0062 ce3d c6b7 0fbd
000000f0: 5275 ec3d 8de8 0abc a63a 7b3d d5a1 d4bc
00000100: 5a3e ca3d a0aa 763d 4770 1dbe 905a e33c
00000110: 1c29 f6bd 717b a53d 9152 083e 1a10 0ebe
00000120: f3b6 95bd 0b8c 98bd 0f92 8e3d ceeb 8abd
00000130: d5cd 273e 3e20 19bc 1a6a 913d 8449 fc3c
00000140: eec0 d2bd 5711 f03c e92b 583d 78f6 a13d
00000150: 90b9 f83c 2bd2 35be da7a af3d 5d8f 0fbd
00000160: 1a0c 4bbd a2d3 d33d c9b8 073d d671 b2bb
00000170: 7b8d d23d 8e69 f83d 3212 d33d 2af2 ad3c
00000180: 91da 9c3d 96b1 b23d 8355 1a3c 25b4 ab3d
00000190: b07b 363c 9071 303e 479d 8fbc d3bc 07bd
000001a0: 9112 5bbd c641 2a3e 505b 163d 95d1 0fbd
000001b0: d535 223e 094f 31bd 0643 e9bd ab13 a5bc
000001c0: a60f 34bd 3aa0 3abc bde3 8dbd 8951 643d
000001d0: 6f90 b63d e1bc c9bd de9c 35bd ee13 ce3d
000001e0: fa32 bc3d 2ec4 fcbd fce9 abbd f9c7 14be
000001f0: df12 733d eb34 cdbd 27e5 19bc 3fd6 423c
00000200: 6423 1abe f5e4 14bd d2ae 0d3d d9c1 2bbd
00000210: 95a2 8c3d 3dec bcbd 22ff 46be 8618 3bbe
00000220: 4099 04be 3496 583d c42c fe3c 000c d23c
00000230: b25d acbc dfd0 d3bd 8088 d03d 610e b03d
00000240: eb24 4dbe 9ff1 e5bd f9ad 233d e466 a6bb
00000250: 1436 8abd 7049 87bd 7ff1 143e 787d c8bd
00000260: 3378 903c df5b 653d 05f6 04bc 7ec0 b13d
00000270: e1ab 5e3d 609f 49bd cfa0 49bd 6348 2fbe
00000280: 1845 9d3c 5c1a 5cbd 2533 8fbc 7da2 32be
00000290: 36d9 533d 909f 903d fd83 5bbb bb31 a63c
000002a0: 7a5e 263c 933a 00bd 7e6f b63c 0059 b6bc
000002b0: ae0d a1bd e89f c8bb 65ee b33b a7e6 acbb
000002c0: 8168 4cbd 5c32 0fbe 8ce8 fabc 069c 1f3e
000002d0: 0207 64bd 6583 2c3d 9cf5 2cbd 1b6a 353d
000002e0: 9da0 65bd 4a1a 823d e00c b53d 7901 8bbd
000002f0: 254e b2bd e0af 8ebd 1167 1a3d 0fd4 acbd
00000300: faac efbd 2618 c43b 1693 00bd 1362 053b
00000310: 4ee4 423e c3b6 14be 1f80 c13d b135 81ba
00000320: 84d6 f4bd d6f0 41bd d5de 8cbd 7882 f6bd
00000330: c035 80bd de33 e6bd a9c6 b53d 8982 b73c
00000340: 1030 053e 58eb e7b9 cb17 ad3d 83f2 9cbd
00000350: dda8 bb3d 1819 813c 2f53 023e 3b4f 053d
00000360: eb52 cebc 4cb8 733c 50ca 063e 8333 d7bc
00000370: a62f b13d bb79 cf3d b915 86bd 102b e3bc
00000380: 08a1 8e3c 8b86 ce3d f025 153d 2ed3 fb3c
00000390: 04c4 6a3c 2b14 453d b309 9fbc 3529 483d
000003a0: abf0 28be 8518 d3bd b4fe d03d a0c4 56bd
000003b0: c015 a53d e9db 99bd 96e9 c73c 53f2 013e
000003c0: 2e82 5dbd 08d0 fb3a ba13 87bd 847c 283d
000003d0: b671 aa3d 7e4c e3bd 135e 15be 3a6a 98bc
000003e0: 2310 48be 2cfa c13d 9596 c53d 07b2 ddbd
000003f0: 0119 36bd 67dc 1c3e 9f96 7c3b d9d6 85bd

model.rnn.bias_ih_l0 f4 [240]
0.13793433 0.11188978 0.042260595 -0.06765716 0.0710225 -0.089241035 0.116929375 0.05972082
0.15544002 0.061334167 -0.005692401 -0.061816737 0.19049887 0.03167509 0.0374666 -0.035838462
0.15405957 0.08400037 0.15940286 -0.030496364 0.12697655 -0.0039167395 0.17948137 0.18073396
-0.008662341 0.17121382 0.11664733 -0.00078407273 0.1342731 -0.027371988 -0.08006004 0.09474985
-0.011182308 0.02000902 0.029610986 -0.031928282 0.07484215 -0.09103337 0.057943217 -0.0774747
0.071207725 0.15016249 0.11306301 -0.07100564 -0.04979401 0.13670248 0.11903658 0.084205896
0.12673314 0.014813485 0.080489956 -0.011046504 -0.018461728 0.0728006 0.103476554 0.002744337
-0.03508741 0.031116663 0.021377716 0.043564845 -0.058778644 0.037340894 0.09990794 0.14036094
-0.034936503 0.021391975 0.073462896 0.106776334 -0.09748756 -0.096907504 -0.015141432 -0.03522195
0.015781553 -0.03353764 0.12010655 0.15744805 -0.09686137 0.12960695 0.000345996 -0.06970773
0.054312743 0.084441796 0.10423849 -0.0074479734 0.06495093 -0.08831663 0.10165547 0.030116102
-0.056409612 0.08871973 0.14007252 -0.05004327 0.09898743 -0.015472314 -0.0760081 -0.09381353
0.060191203 -0.017452585 0.038481645 -0.08429086 -0.01866592 0.0035232843 -0.010301495 0.05331651
0.12128085 0.15189141 0.12490303 0.01592436 -0.07869043 0.13837546 -0.041184545 0.07883514
0.1246844 -0.056107778 0.04787538 0.0701482 -0.06407893 -0.07067307 0.020858807 -0.057624154
-0.047498435 -0.12826416 -0.07708518 -0.094893105 0.11171827 -0.044150468 -0.1604506 -0.04850794
0.06947671 0.10273294 0.07686711 -0.052790627 -0.02230853 -0.090285 -0.082051925 -0.107755736
0.069047846 0.051867288 -0.15805483 -0.0058693476 0.111986026 -0.10860162 -0.08660818 -0.011373116
-0.03967213 0.09950686 -0.028681403 -0.11405367 -0.0006611181 -0.12851474 0.1421407 0.06950444
-0.1173492 0.014407893 -0.071567714 -0.091567546 0.0037458944 -0.15124682 0.07075418 -0.13388892
0.098997965 -0.026481288 -0.034666896 -0.09026872 0.08406595 0.06435045 -0.09534957 -0.016184634
0.01969901 -0.012860414 -0.05587496 0.13497321 -0.036787357 -0.10659739 0.05149075 0.09349756
0.05141908 0.019828709 -0.00021783286 0.063024394 -0.023806011 0.06694232 0.0011387004 -0.053205457
0.11625845 -0.025360137 -0.10189747 0.054627318 0.12377339 0.12065644 -0.02906434 0.14265123
0.0005736359 0.06609795 0.17256352 0.16448171 0.013402951 0.00391682 0.1636185 0.011960061
0.071485475 -0.011839073 0.15287946 -0.024337977 0.16596437 -0.050506733 0.13488951 -0.08090271
0.123197995 -0.07749168 -0.04517273 0.15276681 0.1568514 0.14293727 -0.059057985 0.019073877
0.0493098 -0.020259015 0.18234013 0.11471854 0.10071663 0.075379245 0.21681798 -0.038886726
-0.056626637 -0.013468483 0.07993683 0.018685611 0.04224838 -0.04786189 0.056177676 0.07492517
0.076330975 -0.043289863 0.05484071 0.049297452 0.10759615 0.12057671 0.12081831 -0.08317295
00000000: a83e 0d3e 7826 e53d 7219 2d3d d68f 8abd
00000010: 3f74 913d 01c4 b6bd ab78 ef3d d29d 743d
00000020: ab2b 1f3e 8939 7b3d 5287 babb 8c33 7dbd
00000030: 2312 433e bdbd 013d 9476 193d 5acb 12bd
00000040: cbc1 1d3e 6308 ac3d 813a 233e 83d3 f9bc
00000050: 2406 023e fe57 80bb f7c9 373e 5312 393e
00000060: 7eec 0dbc ad52 2f3e cce4 ee3d 3b8a 4dba
00000070: e37e 093e 383b e0bc 85f6 a3bd 360c c23d
00000080: 0036 37bc f5e9 a33c bd92 f23c 3bc7 02bd
00000090: d746 993d b46f babd de55 6d3d 0eab 9ebd
000000a0: 5bd5 913d 32c4 193e 948d e73d 686b 91bd
000000b0: cef4 4bbd bcfb 0b3e 73c9 f33d 2474 ac3d
000000c0: 55c6 013e 42b4 723c ebd7 a43d 65fc 34bc
000000d0: 0d3d 97bc 7b18 953d 84eb d33d 56da 333b
000000e0: d1b7 0fbd 5fe8 fe3c 5220 af3c 0d71 323d
000000f0: e0c1 70bd c4f2 183d 899c cc3d c7ba 0f3e
00000100: 9419 0fbd 393e af3c b773 963d 8dad da3d
00000110: 8fa7 c7bd 7177 c6bd c513 78bc e444 10bd
00000120: 5148 813c c45e 09bd 6cfa f53d 103a 213e
00000130: 415f c6bd afb7 043e cc66 b539 edc2 8ebd
00000140: 0a77 5e3d d2ef ac3d fd7a d53d 210e f4bb
00000150: fe04 853d 59df b4bd be30 d03d 0bb6 f63c
00000160: c40d 67bd b1b2 b53d 2c6f 0f3e 2cfa 4cbd
00000170: ecb9 ca3d 977f 7dbc 22aa 9bbd 4f21 c0bd
00000180: 0d8b 763d b9f8 8ebc ee9e 1d3d b0a0 acbd
00000190: 45e9 98bc e7e6 663b 9ac7 28bc 6a62 5a3d
000001a0: 1862 f83d 6c89 1b3e 29cd ff3d ce73 823c
000001b0: 7328 a1bd 4cb2 0d3e 20b1 28bd 5174 a13d
000001c0: 895a ff3d 45d1 65bd f918 443d dca9 8f3d
000001d0: d03b 83bd 0bbd 90bd 17e0 aa3c 4e07 6cbd
000001e0: b88d 42bd ae57 03be d6de 9dbd 5157 c2bd
000001f0: 8ccc e43d 1fd7 34bd 294d 24be 43b0 46bd
00000200: ce49 8e3d a665 d23d 816c 9d3d fc3a 58bd
00000210: 61c0 b6bc 58e7 b8bd d70a a8bd 0aaf dcbd
00000220: f568 8d3d cb72 543d 20d9 21be a853 c0bb
00000230: ee58 e53d 876a debd a15f b1bd 4e56 3abc
00000240: 3e7f 22bd 41ca cb3d 43f5 eabc f894 e9bd
00000250: e24e 2dba 5e99 03be 558d 113e 5858 8e3d
00000260: c754 f0bd 150f 6c3c 1892 92bd c487 bbbd
00000270: ae7d 753b 72e0 1abe 91e7 903d 2d1a 09be
00000280: 72bf ca3d 49ef d8bc e0fe 0dbd cfde b8bd
00000290: c52a ac3d 2bca 833d a346 c3bd a395 84bc
000002a0: d15f a13c 7cb4 52bc 24dd 64bd 6b36 0a3e
000002b0: 57ae 16bd bb4f dabd f7e7 523d a67b bf3d
000002c0: d09c 523d d16f a23c 106a 64b9 ef12 813d
000002d0: d304 c3bc 0e19 893d 7240 953a f7ed 59bd
000002e0: e918 ee3d 10c0 cfbc 9faf d0bd e5c0 5f3d
000002f0: e77c fd3d b91a f73d 5718 eebc 2a13 123e
00000300: 0e60 163a 5d5e 873d 7eb4 303e e56d 283e
00000310: 0d98 5b3c ab58 803b 9c8b 273e 22f4 433c
00000320: fa66 923d acf8 41bc 6f8c 1c3e 7060 c7bc
00000330: 90f2 293e 26e0 4ebd 7a20 0a3e 52b0 a5bd
00000340: 3b4f fc3d f5b3 9ebd 0a07 39bd e76e 1c3e
00000350: a79d 203e 265e 123e c9e6 71bd d240 9c3c
00000360: 13f9 493d 3cf6 a5bc 5fb7 3a3e 8ef1 ea3d
00000370: 8544 ce3d 6f60 9a3d 8805 5e3e b047 1fbd
00000380: 55f1 67bd eaaa 5cbc ecb5 a33d 9112 993c
00000390: a30c 2d3d d40a 44bd 901a 663d 5e72 993d
000003a0: 6a53 9c3d b650 31bd a7a0 603d 20ec 493d
000003b0: 5f5b dc3d ecf0 f63d 976f f73d 9456 aabd

model.rnn.bias_hh_l0 f4 [240]
0.009941064 0.0070227566 0.14600271 0.05623909 -0.03643242 -0.0061892965 0.033112787 -0.061177477
0.04477508 0.09713086 -0.047010258 -0.073533826 0.15714693 0.034564722 0.058263786 0.16710809
-0.027942818 0.034985222 -0.04094355 0.023137722 -0.06562017 0.06798581 0.15048915 0.19698548
0.114784054 0.07598546 0.15334588 -0.0073061897 0.005940492 0.123350956 -0.028397555 0.038283598
0.1156922 0.0011526569 0.1482145 0.12416707 -0.02535895 -0.016027119 0.19176394 0.11229833
0.13456343 0.04501428 0.12727141 0.09946734 -0.023933752 0.17412286 0.18859129 -0.022356244
-0.0059556463 -0.05883135 0.067462794 0.14838976 0.0064110253 0.09530501 -0.056264166 0.17953469
-0.037091136 0.09719677 0.08490897 0.12265322 -0.12882303 0.15580502 -0.045681942 0.15177023
-0.060598426 -0.09875125 0.14089456 -0.02995382 0.003793759 0.045260992 0.05840933 0.0685033
0.010971733 0.08089163 0.0316954 0.09235507 -0.10923079 0.03683813 0.03134263 0.077626325
0.036758635 -0.018055549 -0.09717519 0.02232061 0.119660735 -0.10417865 0.012193993 -0.05460699
-0.10636541 0.065066375 -0.014837139 0.08457881 0.10611813 0.026982307 0.07901578 0.050785482
-0.007524536 0.123773284 -0.08048206 0.13113092 0.123487145 -0.040150877 0.06450813 -0.0741351
-0.0011664581 0.14483067 0.092890814 0.012051183 0.058463123 0.01126337 0.114469275 -0.023447784
-0.038116127 -0.11667816 0.108497046 0.037363663 0.10951746 -0.055599533 -0.047895767 0.10871346
-0.02423203 -0.026577484 -0.068550035 0.08461339 -0.014370125 0.023340074 -0.12539499 0.048900858
0.0056525883 0.005165837 0.045484845 0.04782928 -0.006356522 -0.068040594 0.08776097 0.050031025
-0.11530739 -0.10161976 0.027634395 0.04197004 -0.024083817 -0.026964862 0.038446434 -0.029833823
-0.04879704 0.0529607 -0.101607114 0.042247906 0.1320833 0.024452316 0.14233713 0.022290723
0.015382294 0.11720808 0.08421885 -0.06355162 0.035831768 -0.01002251 -0.07427956 -0.05590393
0.023940086 -0.12589079 -0.13942863 0.02516459 0.07723492 -0.023077743 0.0305574 -0.12296229
0.1425099 -0.08826754 -0.049613487 0.073594764 0.07941214 0.09400732 -0.028193707 0.015168022
0.07933371 -0.021299189 -0.001595824 0.029960603 -0.0012837567 -0.035163384 0.034314122 0.008028071
0.09497329 -0.02636433 0.09944438 0.13276698 0.0804198 0.021799823 -0.011855863 0.04062251
0.09355009 0.22093582 0.10532797 -0.06724631 -0.0015825944 -0.021755194 -0.025999418 -0.0035499362
0.15962856 0.13738641 0.10945801 -0.030446228 0.07085374 0.098727 0.16176598 -0.028947316
-0.068888456 0.0041971053 -0.04453976 0.15030496 0.02337724 0.075288735 0.17843938 0.195426
-0.025596008 -0.036697842 0.15531555 0.10226811 -0.045396492 0.19940427 0.21958944 -0.05138774
0.05029355 0.10044254 0.17003648 0.0467998 0.041250266 -0.03555122 -0.00053029787 0.04608124
-0.042669125 0.06730495 -0.026479943 0.14352863 0.02525373 0.14693421 0.06274836 0.13983281
00000000: d8df 223c 271f e63b bc81 153e f65a 663d
00000010: 293a 15bd 95cf cabb 46a1 073d 3c95 7abd
00000020: 1366 373d 8bec c63d d48d 40bd e798 96bd
00000030: 20eb 203e bd93 0d3d 02a6 6e3d 621e 2b3e
00000040: 56e8 e4bc aa4c 0f3d 6db4 27bd 528b bd3c
00000050: de63 86bd 253c 8b3d d419 1a3e 90b6 493e
00000060: e713 eb3d 449e 9b3d b406 1d3e c368 efbb
00000070: 75a8 c23b 6d9f fc3d fda1 e8bc 43cf 1c3d
00000080: 08f0 ec3d bf14 973a 8bc5 173e 4e4b fe3d
00000090: 93bd cfbc 4e4b 83bc c45d 443e abfc e53d
000000a0: ffca 093e e560 383d 7053 023e 88b5 cb3d
000000b0: b710 c4bc 434d 323e 131e 413e 7124 b7bc
000000c0: 9527 c3bb 24f9 70bd ef29 8a3d 7cf3 173e
000000d0: 9413 d23b 462f c33d 4175 66bd f1d7 373e
000000e0: e0ec 17bd 1a0f c73d c1e4 ad3d 9d31 fb3d
000000f0: 2fea 03be 5a8b 1f3e fd1c 3bbd a869 1b3e
00000100: 0e36 78bd 183e cabd aa46 103e b761 f5bc
00000110: b7a0 783b 9763 393d 9f3e 6f3d 754b 8c3d
00000120: c9c2 333c 83aa a53d 09d3 013d a824 bd3d
00000130: 64b4 dfbd 94e3 163d 2161 003d 8dfa 9e3d
00000140: 3990 163d 3be9 93bc c903 c7bd b6d9 b63c
00000150: b010 f53d 9e5b d5bd 50c9 473c 94ab 5fbd
00000160: 1cd6 d9bd 8541 853d 7917 73bc a837 ad3d
00000170: 7654 d93d 000a dd3c 06d3 a13d 7004 503d
00000180: 6290 f6bb d97c fd3d c7d3 a4bd 2f47 063e
00000190: d4e6 fc3d 3f75 24bd d71c 843d 25d4 97bd
000001a0: d7e3 98ba 7e4e 143e 8a3d be3d 5372 453c
000001b0: 0777 6f3d ff89 383c de6e ea3d 9115 c0bc
000001c0: a81f 1cbd f6f4 eebd b333 de3d a40a 193d
000001d0: b14a e03d 56bc 63bd 5a2e 44bd 2aa5 de3d
000001e0: 4082 c6bc 06b9 d9bc f663 8cbd c949 ad3d
000001f0: ac70 6bbc af33 bf3c 8b67 00be 444c 483d
00000200: 5939 b93b 2e46 a93b 514e 3a3d a3e8 433d
00000210: 5f4a d0bb de58 8bbd 06bc b33d 55ed 4c3d
00000220: 4826 ecbd 051e d0bd 8761 e23c c7e8 2b3d
00000230: 6d4b c5bc 6ae5 dcbc 027a 1d3d 1066 f4bc
00000240: 68df 47bd 52ed 583d 6417 d0bd 240c 2d3d
00000250: d840 073e 3950 c83c d3c0 113e 099b b63c
00000260: 0406 7c3c ca0a f03d ef7a ac3d 5a27 82bd
00000270: 55c4 123d 7435 24bc e21f 98bd 85fb 64bd
00000280: 001e c43c 84e9 00be 61c6 0ebe f825 ce3c
00000290: 572d 9e3d 890d bdbc 8353 fa3c a7d3 fbbd
000002a0: 1dee 113e 9dc5 b4bd 8337 4bbd dab8 963d
000002b0: d5a2 a23d e986 c03d 7df6 e6bc 4c83 783c
000002c0: b679 a23d a37b aebc f82a d1ba f06f f53c
000002d0: ba43 a8ba 7b07 10bd f78c 0c3d 2c88 033c
000002e0: 5b81 c23d 02fa d7bc 7fa9 cb3d 11f4 073e
000002f0: 23b3 a43d 8b95 b23c 183f 42bc ca63 263d
00000300: 3197 bf3d 003d 623e 31b6 d73d 6fb8 89bd
00000310: 0e6f cfba f337 b2bc bbfc d4bc 0ca6 68bb
00000320: ab75 233e 06af 0c3e 852b e03d 5e6a f9bc
00000330: c41b 913d 6231 ca3d fba5 253e ec22 edbc
00000340: 6415 8dbd df87 893b 536f 36bd 8be9 193e
00000350: a081 bf3c fb30 9a3d d0b8 363e c11d 483e
00000360: b8ae d1bc 7a50 16bd 0a0b 1f3e f171 d13d
00000370: acf1 39bd a230 4c3e 0edc 603e f37b 52bd
00000380: 9c00 4e3d d2b4 cd3d 0b1e 2e3e 26b1 3f3d
00000390: 0af6 283d 289e 11bd b003 0bba afbf 3c3d
000003a0: d2c5 2ebd 2dd7 893d 77ec d8bc 2bf9 123e
000003b0: e9e0 ce3c ec75 163e 3682 803d 5530 0f3e

model.rnn.weight_ih_l1 f4 [240, 60]
0.14544319 0.06129259 -0.07121536 -0.1341076 -0.041974634 -0.11284735 0.08140106 -0.1782193
0.014630766 0.0097665265 0.16614483 -0.08148302 0.04124093 0.04117045 -0.07022942 0.026755909
-0.082420334 -0.0592672 -0.0066990186 0.114998095 -0.07686212 0.070737414 0.09805829 0.10857931
0.064971596 -0.1297058 0.03696561 0.065346405 -0.018022338 -0.15994348 -0.025720866 -0.019063953
-0.010376231 0.10436962 0.21005608 -0.07322261 0.06623783 0.07690334 0.13654126 0.031873975
-0.030338319 -0.07045217 0.06630846 -0.14400914 0.012288458 -0.051462907 0.073387004 -0.1393495
0.058809448 0.0057165865 0.054214466 0.108623326 -0.08900596 -0.12432187 -0.044742905 -0.06409659
-0.054583296 -0.090909556 -0.059444718 0.08752966 0.09068407 0.040325176 -0.08654915 -0.15123627
0.16023843 -0.091544956 -0.17962569 -0.11394195 -0.066433296 0.06748992 -0.097898334 0.03082004
-0.03246576 -0.059768207 -0.12064848 -0.0008697193 -0.02920898 0.05490555 -0.20339034 -0.0788631
0.032219905 -0.105026014 -0.13245733 -0.1371875 0.043867525 0.020215241 -0.039738767 -0.017822562
0.20001121 -0.18026906 0.111336984 -0.18437545 0.0002613704 0.033630088 0.08509697 0.12744391
0.092749454 0.03708138 0.13471617 0.035361957 0.05208682 -0.025815006 0.026529167 -0.08596048
0.02270199 -0.071362965 -0.08723369 -0.16076182 0.16974674 -0.15178686 -0.02580128 0.15035926
0.038496323 0.032905903 -0.035054337 -0.124096826 -0.0047398675 0.009406175 -0.05192583 0.11347656
0.17438047 -0.010784729 -0.079031885 -0.02436063 0.13277777 -0.11449206 -0.001190433 0.06721644
0.061916806 0.049195945 -0.034339316 -0.12168917 0.054910522 0.03415483 0.042125884 0.0045758006
-0.07265537 0.013930673 0.009047058 0.003990398 0.0661944 -0.14696278 0.027565764 -0.028080456
-0.14839482 -0.030239055 0.045845218 -0.03626175 -0.07636839 -0.040353872 -0.036112968 -0.039216124
0.037038445 -0.02929539 0.15735859 -0.0027894117 -0.058183234 0.012465086 0.13471092 -0.047559023
0.009465278 0.0777731 -0.13389377 0.055445656 0.14589605 0.103172556 -0.12501918 -0.10725076
0.16595879 -0.0072859814 0.05477212 0.112962216 -0.014684548 0.1427686 0.044395544 0.055674605
0.074476175 -0.029279765 0.09066586 -0.0037455256 -0.056898296 -0.10963427 0.05298206 0.028662505
0.15807232 -0.010417893 -0.109632656 -0.08776872 0.052424874 0.12039656 -0.015828738 0.11964893
0.01021583 -0.0911841 0.06155091 -0.10644396 0.11693393 -0.042544197 -0.07026559 -0.1486523
0.032666393 -0.059468254 -0.12151346 0.06198628 -0.0037392331 -0.16117568 0.057267606 -0.08090351
0.026008835 -0.116870314 -0.08671578 -0.034093212 0.1623027 0.0596618 -0.050432015 0.0035153339
0.097739466 0.005900346 -0.015371284 -0.07664771 0.11910928 0.09515255 -0.018869128 -0.13325052
0.039590314 -0.07982609 0.014549244 -0.029820738 -0.04457371 0.085472085 0.00755024 -0.11037421
-0.12533735 0.13732706 0.036917627 0.017463373 -0.0897504 -0.14121918 0.082018845 0.0030857073
-0.13350987 0.026103701 0.19609885 -0.09649114 0.05856755 0.020652886 -2.7013826e-05 -0.0020814561
0.10784212 0.035657045 0.17019135 -0.13451347 -0.10386839 0.0627008 -0.014715273 -0.08364633
00000000: 0fef 143e f00d 7b3d 5cd9 91bd 8153 09be
00000010: 98ed 2bbd 831c e7bd 99b5 a63d 1f7f 36be
00000020: e1b5 6f3c c803 203c df21 2a3e 92e0 a6bd
00000030: 40ec 283d 59a2 283d 71d4 8fbd 352f db3c
00000040: fecb a8bd 2ac2 72bd 7183 dbbb 1f84 eb3d
00000050: e369 9dbd c7de 903d c9d2 c83d d45e de3d
00000060: d40f 853d 99d1 04be 4069 173d 56d4 853d
00000070: 95a3 93bc 39c8 23be 91b4 d2bc 022c 9cbc
00000080: 1101 2abc bdbf d53d f118 573e bcf5 95bd
00000090: b3a7 873d 807f 9d3d 79d1 0b3e 498e 023d
000000a0: 1188 f8bc 3a49 90bd bbcc 873d 2277 13be
000000b0: 8755 493c c5ca 52bd ed4b 963d a3b1 0ebe
000000c0: 2de2 703d 3452 bb3b fd0f 5e3d e875 de3d
000000d0: c248 b6bd 779c febd 5644 37bd 1345 83bd
000000e0: bc92 5fbd ca2e babd 4e7c 73bd c042 b33d
000000f0: 92b8 b93d 032c 253d ae40 b1bd aedd 1abe
00000100: 8b15 243e ec7b bbbd ccef 37be 665a e9bd
00000110: 2e0e 88bd 2838 8a3d ec7e c8bd 4f7a fc3c
00000120: d1fa 04bd 82cf 74bd 8d16 f7bd e0fd 63ba
00000130: ac47 efbc a4e4 603d 8f45 50be fa82 a1bd
00000140: 05f9 033d e117 d7bd e5a2 07be e17a 0cbe
00000150: 6fae 333d 6f9a a53c 1ec5 22bd 9f00 92bc
00000160: bdcf 4c3e 7498 38be a504 e43d ebcc 3cbe
00000170: 8b08 8939 b4bf 093d 5247 ae3d a880 023e
00000180: 6df3 bd3d a5e2 173d 09f3 093e b3d7 103d
00000190: fd58 553d fe79 d3bc b253 d93c 0c0c b0bd
000001a0: 86f9 b93c bf26 92bd 94a7 b2bd bf9e 24be
000001b0: 17d2 2d3e 046e 1bbe 355d d3bc c7f7 193e
000001c0: 52ae 1d3d 57c8 063d 2395 0fbd 7a26 febd
000001d0: e450 9bbb 5c1c 1a3c 2eb0 54bd 6666 e83d
000001e0: cb90 323e 6fb2 30bc 78db a1bd f28f c7bc
000001f0: e5f6 073e d07a eabd 4e08 9cba c6a8 893d
00000200: 7a9c 7d3d b081 493d 62a7 0cbd 2c38 f9bd
00000210: dbe9 603d efe5 0b3d 318c 2c3d 99f0 953b
00000220: 57cc 94bd 7a3d 643c 1d3a 143c e2c1 823b
00000230: ee90 873d 697d 16be 99d1 e13c fc08 e6bc
00000240: d0f4 17be e5b7 f7bc 32c8 3b3d 3387 14bd
00000250: 0867 9cbd 1a4a 25bd 31eb 13bd 16a1 20bd
00000260: a0b5 173d e3fc efbc 9c22 213e 90ce 36bb
00000270: 8b51 6ebd 5c3a 4c3c a9f1 093e 40cd 42bd
00000280: 4114 1b3c 8147 9f3d 731b 09be fc1a 633d
00000290: c665 153e 224c d33d 0705 00be 49a6 dbbd
000002a0: 1af1 293e 3ebf eebb bb58 603d bc58 e73d
000002b0: 7597 70bc ef31 123e 1ad8 353d 0e0b 643d
000002c0: f786 983d 1edc efbc 06af b93d 7e77 75bb
000002d0: 300e 69bd ef87 e0bd b703 593d a1cd ea3c
000002e0: b6dd 213e cfaf 2abc 1687 e0bd 16c0 b3bd
000002f0: 77bb 563d 7992 f63d 45ab 81bc 800a f53d
00000300: 4c60 273c bbbe babd cf1c 7c3d 4aff d9bd
00000310: 0e7b ef3d d342 2ebd 68e7 8fbd 4f38 18be
00000320: 32cd 053d fc94 73bd 0ddc f8bd 53e5 7d3d
00000330: ec0d 75bb 3d0b 25be 7091 6a3d bdb0 a5bd
00000340: 7b10 d53c b459 efbd 0b98 b1bd 53a5 0bbd
00000350: ae32 263e ee5f 743d cd91 4ebd 8461 663b
00000360: a12b c83d b157 c13b d7d7 7bbc 79f9 9cbd
00000370: 91ef f33d 57df c23d 6e93 9abc d372 08be
00000380: 7429 223d dc7b a3bd f45f 6e3c 9f4a f4bc
00000390: ec92 36bd fd0b af3d 0168 f73b e00b e2bd
000003a0: 6f58 00be 779f 0c3e f036 173d 590f 8f3c
000003b0: 0fcf b7bd c39b 10be 7ff9 a73d 9439 4a3b
000003c0: d0b6 08be 6ed7 d53c 23ce 483e 269d c5bd
000003d0: 87e4 6f3d 3e30 a93c c09b e2b7 0a69 08bb
000003e0: 54dc dc3d 1f0d 123d a446 2e3e e6bd 09be
000003f0: f3b8 d4bd 4769 803d 5418 71bc c44e abbd

model.rnn.weight_hh_l1 f4 [240, 60]
0.0375601 -0.16566974 0.018078445 0.1256452 -0.12955669 -0.11949913 -0.09494277 0.13431947
-0.048409745 -0.1417755 -0.070566796 -0.0230417 0.10505223 -0.05356351 -0.024139844 0.034417685
-0.031839922 0.0354151 -0.098870486 0.03352651 -0.17618108 0.11960155 0.15182503 0.04947932
-0.025907915 -0.024920253 0.0060267197 0.0047297194 -0.0017186474 0.020105721 -0.0019338303 0.07778162
-0.1606017 -0.08166186 -0.07498361 -0.12298744 -0.0052594375 -0.16160508 0.08520877 0.0775149
-0.07786788 0.044094432 -0.17120697 0.060269114 -0.063117184 0.10060604 0.15978105 -0.13691674
0.08531696 -0.16991468 -0.059627946 -0.19005454 0.07008516 -0.027300999 0.008039732 -0.01665108
0.13219877 0.021308403 0.082408786 0.077387124 -0.10455495 -0.17417872 0.06948904 0.14976963
0.059224814 -0.17179686 -0.07942208 -0.038716216 -0.050345328 -0.09604414 -0.03967612 -0.026086237
0.00316801 -0.069790475 -0.08956362 0.117477074 -0.07431238 0.07711366 0.060329564 0.11679654
0.053317342 0.041324873 0.011066134 0.09246925 0.026750484 0.038150072 -0.11397661 0.080029495
-0.140383 -0.064533845 0.038531244 -0.1398518 -0.08387495 4.9829854e-05 -0.04346811 -0.11065269
0.018313393 -0.0058683986 -0.021035057 0.11094445 0.15193051 -0.06841236 -0.0113019105 0.12750538
0.008857167 0.06837416 0.13436589 0.06089874 0.11102267 -0.13785142 -0.16114314 0.014238936
-0.14343731 0.02239891 0.03793968 -0.023280066 -0.06596393 0.15404947 0.06217436 0.100663155
-0.010075008 0.012871751 0.09932974 -0.08070943 -0.1101643 0.040117152 0.09925575 0.06893378
0.0032286153 0.015240714 -0.06655754 0.15463257 0.094763406 -0.10940799 -0.13683021 -0.026904533
-0.027107397 -0.043859076 -0.06281792 0.026238577 -0.097900026 0.1453535 0.12926033 -0.065858945
-0.059602097 -0.0028839207 0.101582065 -0.1105089 0.010279287 -0.020458745 -0.054413043 0.11036971
-0.12166245 0.012978232 0.10850834 0.036513943 0.12549438 -0.043763857 0.027084509 -0.024706526
-0.05182848 -0.12615682 -0.09652307 0.0012654685 0.025075937 0.056393772 0.13006335 -0.030606776
0.15969191 -0.102894306 0.05474202 -0.1179945 -0.06199651 -0.16335757 0.10257344 -0.09639501
0.02995217 -0.008376971 0.11541041 0.02082691 0.074611284 -0.035248034 -0.0011343636 -0.057387475
-0.066931434 -0.13604476 -0.051489312 0.07762761 -0.030914094 -0.106187865 0.08270889 0.11192258
-0.10506629 -0.13181749 -0.106784776 -0.0440635 0.098876625 0.026977833 0.0053958017 0.083554894
0.096728586 0.109566905 -0.117485896 -0.013820335 -0.066011734 0.0012466058 -0.010388323 0.10476521
-0.0606429 -0.13973923 0.13381974 0.12857656 0.06844126 -0.050344765 0.11769943 0.004846179
-0.055584297 -0.13817085 0.054134503 0.011255207 0.05638755 -0.14791909 -0.012333452 -0.116586775
0.104418896 -0.09262765 0.14422667 0.048784595 0.09141754 -0.10923345 0.0056973123 0.088816345
-0.0874308 -0.11118505 0.09664169 0.03642495 -0.025075547 -0.031432685 -0.015432345 -0.03729915
0.06636107 -0.14153592 0.049016636 -0.079185724 0.030485597 -0.06052874 -0.013466931 0.041513793
-0.029799286 0.04277282 0.06646087 0.019500174 0.09721297 0.097349845 -0.14042445 -0.11514872
00000000: 9fd8 193d 54a5 29be 3f19 943c 23a9 003e
00000010: 82aa 04be f6bb f4bd 5b71 c2bd 0b8b 093e
00000020: 4c49 46bd 992d 11be 5385 90bd f2c1 bcbc
00000030: a025 d73d 6965 5bbd ecc0 c5bc 8ff9 0c3d
00000040: 946a 02bd 6d0f 113d 9c7c cabd 1853 093d
00000050: d068 34be a8f1 f43d 0578 1b3e d4aa 4a3d
00000060: d63c d4bc 8f25 ccbc ca7b c53b c3fb 9a3b
00000070: 3d44 e1ba c1b4 a43c 9478 fdba f84b 9f3d
00000080: c674 24be 553e a7bd 0291 99bd d7e0 fbbd
00000090: 5c57 acbb cd7b 25be f081 ae3d 22c0 9e3d
000000a0: 3279 9fbd 5d9c 343d e150 2fbe bfdc 763d
000000b0: 9543 81bd 8a0a ce3d a59d 233e e733 0cbe
000000c0: a9ba ae3d 1dfe 2dbe 6f3c 74bd a89d 42be
000000d0: cf88 8f3d 58a6 dfbc 15b9 033c d967 88bc
000000e0: 1d5f 073e f68e ae3c f0c5 a83d 247d 9e3d
000000f0: e820 d6bd e85b 32be 4550 8e3d 365d 193e
00000100: b895 723d 84eb 2fbe 0ba8 a2bd e594 1ebd
00000110: e736 4ebd cab2 c4bd 6d83 22bd ceb2 d5bc
00000120: 639e 4f3b 4fee 8ebd 226d b7bd d297 f03d
00000130: 1731 98bd c4ed 9d3d 221c 773d 0633 ef3d
00000140: 4963 5a3d 4544 293d bb4e 353c 8560 bd3d
00000150: d523 db3c 4043 1c3d 926c e9bd 81e6 a33d
00000160: 90c0 0fbe 522a 84bd f0d2 1d3d 4f35 0fbe
00000170: a1c6 abbd 6600 5138 9e0b 32bd e19d e2bd
00000180: f805 963c b24b c0bb b651 acbc d836 e33d
00000190: ac93 1b3e c81b 8cbd a62b 39bc c590 023e
000001a0: a71d 113c c007 8c3d 3697 093e f570 793d
000001b0: db5f e33d ec28 0dbe b502 25be 6d4a 693c
000001c0: 3be1 12be eb7d b73c a366 1b3d d6b5 bebc
000001d0: 1918 87bd 25bf 1d3e 8baa 7e3d 7c28 ce3d
000001e0: a511 25bc 09e4 523c 646d cb3d fc4a a5bd
000001f0: d29d e1bd e251 243d 9946 cb3d 272d 8d3d
00000200: 2d97 533b 30b4 793c 524f 88bd 0058 1e3e
00000210: 5113 c23d 4c11 e0bd 381d 0cbe e566 dcbc
00000220: 5510 debc 93a5 33bd afa6 80bd 49f2 d63c
00000230: cf7f c8bd 8cd7 143e d25c 043e 0ee1 86bd
00000240: 5421 74bd 2900 3dbb 420a d03d 7d52 e2bd
00000250: 746a 283c 1999 a7bc 36e0 5ebd 8409 e23d
00000260: 2a2a f9bd a6a2 543c 9f39 de3d a58f 153d
00000270: 9981 003e bb41 33bd 55e0 dd3c 5765 cabc
00000280: 1a4a 54bd 412f 01be e3ad c5bd 14de a53a
00000290: 0d6c cd3c 28fd 663d 542f 053e 10bb fabc
000002a0: 4786 233e 40ba d2bd 2b39 603d 1aa7 f1bd
000002b0: 0df0 7dbd 3547 27be 0612 d23d bf6a c5bd
000002c0: 415e f53c 903f 09bc 4b5c ec3d 329d aa3c
000002d0: cdcd 983d 3e60 10bd edae 94ba 210f 6bbd
000002e0: 5913 89bd 514f 0bbe 75e6 52bd 39fb 9e3d
000002f0: 8e3f fdbc 0679 d9bd 4763 a93d aa37 e53d
00000300: ff2c d7bd 2afb 06be fab1 dabd ee7b 34bd
00000310: d47f ca3d 9e00 dd3c 44cf b03b d41e ab3d
00000320: a319 c63d 9d64 e03d 729c f0bd b06e 62bc
00000330: 2931 87bd 2665 a33a c933 2abc 248f d63d
00000340: b164 78bd cd17 0fbe 0b08 093e 93a9 033e
00000350: ee2a 8c3d 5036 4ebd 660c f13d b2cc 9e3b
00000360: 5cac 63bd a97c 0dbe 24bc 5d3d c267 383c
00000370: a2f6 663d 1a78 17be 3f12 4abc 0cc5 eebd
00000380: 93d9 d53d 91b3 bdbd 28b0 133e 5bd2 473d
00000390: 1f39 bb3d c9b5 dfbd 85b0 ba3b 58e5 b53d
000003a0: eb0e b3bd fdb4 e3bd 14ec c53d 5432 153d
000003b0: 3c6b cdbc 8fbf 00bd f2d7 7cbc fec6 18bd
000003c0: 50e8 873d cbee 10be abc5 483d 202c a2bd
000003d0: eebc f93c fcec 77bd 67a4 5cbc 5e0a 2a3d
000003e0: a21d f4bc 8d32 2f3d a31c 883d d4be 9f3c
000003f0: 9817 c73d 5b5f c73d 6dcb 0fbe 18d3 ebbd

model.rnn.bias_ih_l1 f4 [240]
0.13979518 0.12892891 -0.07103959 0.08375283 -0.07886697 -0.0720522 0.028021127 -0.05793081
0.089784175 0.12747404 -0.037052885 0.05204963 0.008901172 0.112258576 -0.068791345 0.14712098
-0.077945404 0.14297454 -0.059548914 -0.027082572 0.13425931 -0.029603723 0.059166294 0.14079739
-0.07642114 -0.04857086 -0.0016732449 -0.031179471 -0.07153697 0.094560675 -0.007720246 -0.00770468
-0.0156188905 0.057164427 -0.019354235 0.13541327 0.025245517 0.11112609 0.21200036 -0.10756595
-0.0010041952 -0.010555708 -0.023533825 0.10565157 -0.10777923 0.0037557986 -0.00882246 0.0859508
0.10220112 -0.043429397 0.06824304 0.15540642 -0.011527699 -0.023734549 0.17547788 0.11146688
-0.0005029021 -0.08770016 0.1322199 0.08960456 -0.058442716 -0.027934352 -0.073555194 0.04430964
0.06792297 0.11265644 0.10314454 0.038283817 0.08030139 0.102171086 0.059354175 -0.10427822
-0.052289885 -0.05184065 -0.009159386 -0.11083214 0.029850315 -0.055167913 -0.053260937 -0.11961248
0.08515288 -0.07679188 0.049452942 -0.03357143 -0.12061389 -0.01844245 -0.007131523 0.05730887
0.072722316 0.05670916 -0.04469014 0.04890441 -0.015680006 0.099419855 0.061484635 0.11402124
-0.007895048 -0.1021937 0.08121166 0.12006315 -0.11423994 0.060983032 0.035526562 0.013976139
0.053720247 0.02190053 -0.037611827 -3.673634e-05 0.034761414 -0.04485819 0.040760126 -0.07007754
-0.08144743 0.14109807 -0.1066956 0.04648907 0.08075386 0.1199373 -0.025854671 0.03926878
-0.04869758 -0.1283457 -0.0811228 0.07008511 0.04690013 -0.13151409 -0.010894447 0.021322684
-0.03780807 -0.1056334 -0.099264376 -0.08294098 0.015232695 -0.045068108 -0.07661964 0.11518
0.052635066 -0.005454332 -0.043946177 0.086824544 -0.010272674 -0.017495165 0.039493762 0.03498471
0.007143593 -0.06005481 0.07936276 0.021036498 -0.11867307 -0.014532872 0.12568612 0.030903175
-0.09371241 0.049328513 -0.037998024 -0.07076783 0.0031814578 -0.067143455 -0.036635946 0.14315766
-0.05719732 -0.030086368 -0.06019593 0.033804793 0.0693755 0.004911134 0.1253739 0.018651545
0.08988979 0.0678575 0.09676596 -0.046337772 0.027398905 -0.052751083 0.07138866 -0.037299007
0.090144716 -0.010136213 0.03381567 0.04425717 -0.03733595 0.17154837 -0.01109383 -0.09149578
0.1488599 -0.0826303 0.10090274 0.060710557 0.1252309 0.09801202 -0.07810715 0.18431522
0.109726965 0.06698972 -0.096828975 0.12790416 0.055718265 -0.058766216 0.17468224 0.03992629
0.18679348 0.14911243 -0.04376111 -0.051155053 0.034992453 0.04328602 0.15992501 -0.04560279
-0.037844174 -0.08973221 0.024482602 0.022339659 -0.008101024 0.18711083 0.112050764 -0.06681062
0.119830765 0.013175546 0.18442236 0.12871648 0.0852855 0.17265494 -0.08533122 -0.010654853
-0.04728951 -0.09794427 0.006195078 0.06595929 0.13014473 0.110698186 0.040745355 0.08620892
0.054284155 0.18170132 -0.039673567 -0.08738511 0.20557776 -0.01598295 0.11123279 0.14338322
00000000: 7826 0f3e f105 043e 347d 91bd 9b86 ab3d
00000010: 0285 a1bd 1b90 93bd 908c e53c db48 6dbd
00000020: c4e0 b73d 8e88 023e c4c4 17bd fe31 553d
00000030: 39d6 113c d3e7 e53d 7ae2 8cbd e2a6 163e
00000040: d7a1 9fbd eb67 123e 90e9 73bd 45dc ddbc
00000050: 467b 093e 8283 f2bc 5b58 723d 312d 103e
00000060: b082 9cbd 3df2 46bd c850 dbba 176c ffbc
00000070: fa81 92bd 07a9 c13d 1efa fcbb 8a77 fcbb
00000080: 60e6 7fbc 3f25 6a3d c68c 9ebc c7a9 0a3e
00000090: b0cf ce3c 1396 e33d 9f16 593e 894b dcbd
000000a0: 339f 83ba d9f1 2cbc 02ca c0bc da5f d83d
000000b0: 5bbb dcbd d823 763b 148c 10bc f906 b03d
000000c0: d24e d13d 06e3 31bd 02c3 8b3d dc22 1f3e
000000d0: adde 3cbc f56e c2bc 79b0 333e bf48 e43d
000000e0: 30d5 03ba 249c b3bd a764 073e 9882 b73d
000000f0: a161 6fbd 95d6 e4bc 1ba4 96bd 067e 353d
00000100: 331b 8b3d 6bb8 e63d 723d d33d 7ecf 1c3d
00000110: 0e75 a43d 133f d13d 5d1d 733d d28f d5bd
00000120: eb2d 56bd dd56 54bd 4011 16bc f6fb e2bd
00000130: a688 f43c c0f7 61bd 2428 5abd 63f7 f4bd
00000140: a264 ae3d 1045 9dbd 2b8f 4a3d 3282 09bd
00000150: 6a04 f7bd 9f14 97bc 8daf e9bb b5bc 6a3d
00000160: 70ef 943d dd47 683d 020d 37bd fe4f 483d
00000170: 5b73 80bc a39c cb3d 50d7 7b3d f883 e93d
00000180: 3b5a 01bc ee4a d1bd 4c52 a63d abe3 f53d
00000190: a1f6 e9bd 58c9 793d 4d84 113d 2dfc 643c
000001a0: c309 5c3d be68 b33c dc0e 1abd 5815 1ab8
000001b0: fc61 0e3d 39bd 37bd 17f4 263d d084 8fbd
000001c0: e9cd a6bd 037c 103e 3983 dabd 536b 3e3d
000001d0: 4862 a53d b0a1 f53d 2dcd d3bc 4dd8 203d
000001e0: 1d77 47bd 0e6d 03be b623 a6bd c888 8f3d
000001f0: 5a1a 403d a1ab 06be 9f7e 32bc e9ac ae3c
00000200: a3dc 1abd 5356 d8bd 1f4b cbbd f6dc a9bd
00000210: 8e92 793c 5699 38bd c2ea 9cbd 7ee3 eb3d
00000220: de97 573d 41ba b2bb e800 34bd 11d1 b13d
00000230: b84e 28bc 0552 8fbc 36c4 213d 214c 0f3d
00000240: cd14 ea3b 08fc 75bd f188 a23d bc54 ac3c
00000250: de0a f3bd 481b 6ebc ddb3 003e a828 fd3c
00000260: 4bec bfbd b20c 4a3d d1a3 1bbd b9ee 90bd
00000270: 0180 503b 8282 89bd 930f 16bd ec97 123e
00000280: bd47 6abd b077 f6bc 0290 76bd e576 0a3d
00000290: be14 8e3d 94ed a03b 0462 003e 20cb 983c
000002a0: 2318 b83d dff8 8a3d 3b2d c63d adcc 3dbd
000002b0: ab73 e03c 8511 58bd 3834 923d d8c6 18bd
000002c0: cb9d b83d 5c12 26bc 4d82 0a3d 0247 353d
000002d0: 95ed 18bd 60aa 2f3e e5c2 35bc 2462 bbbd
000002e0: bb6e 183e 133a a9bd 19a6 ce3d a2ab 783d
000002f0: 873c 003e 87ba c83d a4f6 9fbd 21bd 3c3e
00000300: 88b8 e03d e831 893d 454e c6bd 4ff9 023e
00000310: d638 643d d8b4 70bd e7df 323e c089 233d
00000320: ca46 3f3e eeb0 183e da3e 33bd f687 51bd
00000330: 3f54 0f3d af4c 313d 62c3 233e fec9 3abd
00000340: 7e02 1bbd 85c5 b7bd bd8f c83c a901 b73c
00000350: 28ba 04bc fb99 3f3e df7a e53d 02d4 88bd
00000360: d569 f53d 3fde 573c 37d9 3c3e 41ce 033e
00000370: 2aaa ae3d 75cc 303e 22c2 aebd b191 2ebc
00000380: a5b2 41bd 0197 c8bd 1500 cb3b aa15 873d
00000390: a944 053e bbb5 e23d 9ae4 263d 4d8e b03d
000003a0: 1059 5e3d e90f 3a3e c080 22bd f7f6 b2bd
000003b0: fa82 523e adee 82bc 04ce e33d 0dd3 123e
