checkpoints/epoch=1-step=100-v51.ckpt (torch, 621663 bytes, 33 tensors)

model.param_proj.proj.0.weight f4 [1, 60]
0.10965997 0.121559314 -0.22047584 -0.08641923 0.13403916 0.030537548 0.14795052 -0.11041361
-0.14132099 -0.17002322 -0.03409674 0.17034103 0.02665597 0.025128547 0.069940954 0.20681308
-0.09407307 0.11593365 0.059264008 0.19619267 0.15809943 -0.107079305 0.18471298 -0.12429051
-0.11395459 -0.19175208 0.06060755 0.11263424 -0.21413419 -0.06684352 -0.048049033 0.10013132
0.10341099 0.08359888 -0.1301622 0.10818172 0.038717605 -0.08351664 0.06656254 -0.22464477
0.18371116 -0.0032556476 -0.14479989 0.20304535 -0.11259752 0.03217918 -0.029765217 -0.11560966
-0.1981916 0.16701306 -0.23147698 -0.12991337 -0.1561035 -0.019467074 -0.2036848 0.05597396
0.11120418 -0.21654858 0.113642775 -0.07224583
00000000: 6895 e03d 17f4 f83d 6bc4 61be 91fc b0bd
00000010: 9041 093e e129 fa3c 5780 173e 8820 e2bd
00000020: 73b6 10be 911a 2ebe 06a9 0bbd e16d 2e3e
00000030: 9f5d da3c 62da cd3c 343d 8f3d cfc6 533e
00000040: 62a9 c0bd 9f6e ed3d d1be 723d bbe6 483e
00000050: d1e4 213e 654c dbbd 6625 3d3e 068c febd
00000060: 0661 e9bd a85a 44be 9f3f 783d c8ac e63d
00000070: fe45 5bbe 41e5 88bd 10cf 44bd a611 cd3d
00000080: 24c9 d33d e435 ab3d 3d49 05be 618e dd3d
00000090: 5a96 1e3d c60a abbd f151 883d 4709 66be
000000a0: c71e 3c3e b45c 55bb 6c46 14be 1feb 4f3e
000000b0: 8799 e6bd 51ce 033d 2fd6 f3bc c2c4 ecbd
000000c0: bdf2 4abe 7905 2b3e 4d08 6dbe 0308 05be
000000d0: 99d9 1fbe 6a79 9fbc c092 50be f344 653d
000000e0: 04bf e33d e9be 5dbe 8bbd e83d 9ff5 93bd

model.param_proj.proj.1.weight f4 [1, 60]
-0.13891011 0.13842262 0.042776812 -0.09508556 0.12747185 -0.07234808 -0.14715506 -0.075494446
0.19506721 0.19101441 0.09255094 -0.033476222 -0.15596968 0.009681072 -0.17345245 -0.19084659
0.075346775 0.08685726 0.058024373 -0.14354685 -0.08154004 -0.067230485 -0.104654975 -0.039037585
-0.12986377 -0.03870067 -0.1124525 0.16167054 -0.06292657 -0.11711475 0.18191351 0.11793655
-0.07138787 -0.124519125 0.009120394 -0.036338378 0.15462644 0.07196921 0.016930545 0.19160971
0.14430787 0.09206147 0.13806416 0.13762005 -0.08190976 -0.1863539 -0.17702532 -0.018107312
-0.16994016 0.18886098 -0.13388245 0.13044259 0.039410077 0.18548435 -0.11345373 0.20875883
-0.2063513 -0.10098628 0.045053344 -0.1558228
00000000: 743e 0ebe a9be 0d3e bd36 2f3d 38bc c2bd
00000010: fb87 023e 3b2b 94bd d1af 16be d59c 9abd
00000020: b3bf 473e 4899 433e 598b bd3d 5d1e 09bd
00000030: 84b6 1fbe 5c9d 1e3c 859d 31be 4a6d 43be
00000040: 694f 9a3d 38e2 b13d f7aa 6d3d f2fd 12be
00000050: 77fe a6bd 23b0 89bd 5955 d6bd e0e5 1fbd
00000060: 02fb 04be 9884 1ebd 7f4d e6bd f68c 253e
00000070: a5df 80bd dcd9 efbd 8947 3a3e b888 f13d
00000080: ce33 92bd e203 ffbd b46d 153c 8dd7 14bd
00000090: 6556 1e3e 9864 933d edb1 8a3c 5635 443e
000000a0: 71c5 133e b98a bc3d b160 0d3e 45ec 0c3e
000000b0: 4ec0 a7bd 8fd3 3ebe 2046 35be c955 94bc
000000c0: cb04 2ebe c664 413e 7b18 09be be92 053e
000000d0: 766c 213d 9cef 3d3e 6e5a e8bd e0c4 553e
000000e0: c14d 53be e5d1 cebd db89 383d 0390 1fbe

model.param_proj.proj.2.weight f4 [1, 60]
0.10202998 0.13155094 0.01210066 -0.005454062 0.11397957 -0.12203011 -0.12347604 0.09335742
-0.0335037 -0.054510042 0.054008525 0.09678773 -0.15517929 -0.12538208 -0.12074005 -0.035471536
-0.09397177 -0.0071690716 0.10271156 -0.025289705 0.11098479 -0.05992509 -0.081361294 -0.049046244
-0.07508928 -0.015887877 0.008021748 0.09767167 -0.06696054 -0.056031983 0.10837853 -0.002288972
0.010526626 0.11231203 0.052248903 0.06303061 0.050060015 0.015214241 -0.06574929 -0.007094147
0.0142773045 -0.050871227 0.013702205 -0.13303278 0.015077644 0.13453768 -0.09223693 -0.10232276
-0.10362404 0.033727918 -0.12123434 -0.09921132 -0.009102932 0.067599356 -0.03968806 0.107296415
-0.026860768 -0.06308604 0.0997579 0.118114375
00000000: 18f5 d03d 4ab5 063e d941 463c fdb7 b2bb
00000010: 1f6e e93d ecea f9bd 02e1 fcbd 2d32 bf3d
00000020: 2d3b 09bd ec45 5fbd 0b38 5d3d a538 c63d
00000030: 52e7 1ebe 2964 00be 8f46 f7bd 9a4a 11bd
00000040: 4574 c0bd 88ea eabb 705a d23d 5b2c cfbc
00000050: fe4b e33d 0374 75bd c0a0 a6bd b7e4 48bd
00000060: 69c8 99bd 4b27 82bc a66d 033c 1608 c83d
00000070: 9c22 89bd cb81 65bd 90f5 dd3d 9402 16bb
00000080: df77 2c3c d903 e63d f202 563d 3116 813d
00000090: bb0b 4d3d 2745 793c 90a7 86bd 0576 e8bb
000000a0: 5beb 693c 595e 50bd 377f 603c bf39 08be
000000b0: 3908 773c 3fc4 093e b7e6 bcbd 988e d1bd
000000c0: d738 d4bd 4926 0a3d b649 f8bd 4e2f cbbd
000000d0: 7724 15bc 8871 8a3d f28f 22bd 39be db3d
000000e0: 1d0b dcbc 4133 81bd df4d cc3d f3e5 f13d

model.rnn.weight_ih_l0 f4 [240, 24]
-0.07858002 -0.1755518 0.059443586 0.15412104 -0.037565175 0.041256875 -0.050265312 0.04222678
0.004013045 -0.0027128044 -0.14288683 0.0055061 -0.09494649 0.13174635 -0.049881794 -0.09638799
-0.09426771 -0.007582371 -0.029699411 -0.04845657 -0.17560284 0.026206495 0.08912275 0.045974176
0.09629911 -0.1769493 0.0013881744 0.065935135 0.08103149 -0.03138629 -0.111188486 0.004976792
0.0029629068 0.17969383 -0.0058181593 -0.068259194 -0.05506334 0.015214759 -0.08024484 0.1268783
0.0692757 -0.012334054 -0.1897618 -0.055226248 0.0026720783 0.17093782 0.060387485 0.018207451
-0.015026521 -0.17361209 -0.1117259 0.032525707 0.027484505 0.06827276 -0.015082895 0.0068497765
-0.15631466 -0.029960789 0.045050982 0.13528962 -0.07479315 0.15987386 -0.05050194 -0.08318231
-0.105620615 0.06823746 -0.10440459 -0.09275802 -0.103812955 0.07842862 0.13219783 0.16230185
-0.044435296 0.14322245 -0.15142009 -0.13718164 0.07442318 0.036381647 0.020236416 -0.06383563
-0.14919415 -0.04656099 0.093190566 -0.047530785 -0.17002575 0.17190447 0.067642935 0.07168375
0.10816237 -0.0076931627 0.009155747 -0.07820857 -0.06798397 0.021523742 -0.064693674 0.10990515
0.11531446 0.045732755 -0.10593056 -0.011193669 -0.043598115 0.09325334 -0.15234433 0.13240372
0.15846926 0.010252537 0.009921598 0.020138787 0.061659746 0.00879113 -0.0021314158 -0.059145473
-0.03018088 0.0645169 0.049556177 0.03811266 0.05198981 0.03284427 0.070327275 0.07475976
0.036552865 -0.047427505 -0.07635679 0.06873184 -0.18664652 0.018286055 0.16905782 0.05155357
0.11914452 0.018032322 0.03974094 0.024256712 0.0077454 0.14784503 -0.025688482 -0.04877391
-0.005100509 0.05784543 -0.112203605 -0.07090286 -0.16884866 0.030943625 0.14057252 -0.044997234
-0.21040425 -0.10324886 -0.161472 0.09296672 0.00975391 -0.019361543 0.025915662 -0.1287647
0.10880868 0.02529671 0.05345242 -0.040612105 -0.06150904 0.048440166 0.20976914 0.10404924
-0.06631444 -0.0593824 -0.13187818 -0.004010473 -0.14119686 -0.050173927 -0.09203275 -0.08713304
-0.088294595 -0.013731531 -0.10341883 -0.0101832 -0.010158366 -0.14130646 -0.09294922 0.09787108
0.09467103 0.072160386 -0.00016923819 -0.077851005 -0.121288195 0.013989237 -0.05014352 -0.11511372
-0.049201395 0.11645616 -0.022522647 0.043879174 0.07544831 -0.026349427 0.11944735 0.038721304
-0.13938378 0.08670474 -0.06968758 -0.06104205 0.0014089406 0.015239347 -0.085229985 -0.030598499
-0.18865034 -0.10742081 0.12925187 -0.03179961 -0.022446157 0.08165111 -0.13675253 0.0060695577
0.073074706 0.10469314 -0.16116121 0.0011526953 0.028192248 0.16283052 -0.104825534 -0.028745892
-0.22585854 0.077934906 -0.040425017 0.07626023 0.17471564 0.045463603 -0.062184818 -0.10923189
0.19063875 -0.022859804 0.00139743 0.113032736 -0.015643435 -0.055283576 0.13194942 0.07834663
0.030276481 -0.06764303 0.050055213 0.076625474 -0.014868333 0.046094447 -0.13260353 0.019305581
0.18935573 -0.18423642 0.019829458 -0.1561535 0.091254756 -0.11000764 -0.09366421 -0.009146722
0.053787146 -0.1091728 -0.07048308 -0.044295598 0.15498741 0.0414287 0.059073072 0.09789916
00000000: 90ee a0bd dac3 33be 1e7b 733d e8d1 1d3e
00000010: f1dd 19bd f8fc 283d 00e3 4dbd fdf5 2c3d
00000020: dd7f 833b 4ec9 31bb ed50 12be 846c b43b
00000030: 4e73 c2bd 84e8 063e da50 4cbd 1167 c5bd
00000040: 6e0f c1bd 8a75 f8bb 2e4c f3bc 657a 46bd
00000050: 3bd1 33be 01af d63c fd85 b63d 6b4f 3c3d
00000060: 7838 c53d 3332 35be 67f3 b53a 0009 873d
00000070: d6f3 a53d e98e 00bd cab6 e3bd 5b14 a33b
00000080: 542d 423b a901 383e 42a6 bebb 7acb 8bbd
00000090: 198a 61bd 5347 793c 6857 a4bd 63ec 013e
000000a0: 6be0 8d3d c614 4abc eb50 42be eb34 62bd
000000b0: 091e 2f3b 530a 2f3e de58 773d cb27 953c
000000c0: cc31 76bc 5ec7 31be 8cd0 e4bd ad39 053d
000000d0: 2f27 e13c 97d2 8b3d 3f1e 77bc 1774 e03b
000000e0: f310 20be 5470 f5bc 6187 383d 5d89 0a3e
000000f0: 272d 99bd f9b5 233e 1fdb 4ebd 7d5b aabd
00000100: 9f4f d8bd 15c0 8b3d 13d2 d5bd ebf7 bdbd
00000110: e39b d4bd 2f9f a03d de5e 073e 7532 263e
00000120: c901 36bd e8a8 123e de0d 1bbe 5879 0cbe
00000130: 2e6b 983d ec04 153d d7c6 a53c 41bc 82bd
00000140: 5ac6 18be bdb6 3ebd b2da be3d a4af 42bd
00000150: 3b1b 2ebe ba07 303e 6188 8a3d eece 923d
00000160: 3c84 dd3d ed16 fcbb fc01 163c d12b a0bd
00000170: 2e3b 8bbd 8f52 b03c 1e7e 84bd f415 e13d
00000180: fd29 ec3d 4552 3b3d 1ff2 d8bd a765 37bc
00000190: f093 32bd 9bfb be3d 2700 1cbe d794 073e
000001a0: c445 223e 42fa 273c 338e 223c 19fa a43c
000001b0: ee8e 7c3d ac08 103c 39af 0bbb 8642 72bd
000001c0: e53d f7bc 7021 843d 6bfb 4a3d 051c 1c3d
000001d0: 44f3 543d b787 063d bf07 903d a51b 993d
000001e0: 75b8 153d 5843 42bd f360 9cbd 47c3 8c3d
000001f0: 4420 3fbe a3cc 953c 7e1d 2d3e d629 533d
00000200: 0b02 f43d 85b8 933c 65c7 223d 03b6 c63c
00000210: 20cd fd3b b064 173e a770 d2bc 27c7 47bd
00000220: 2c22 a7bb 54ef 6c3d 01cb e5bd 8535 91bd
00000230: aae6 2cbe 7c7d fd3c 3ef2 0f3e 054f 38bd
00000240: 3674 57be 2374 d3bd ea58 25be 5665 be3d
00000250: ddce 1f3c 199c 9ebc 154d d43c e5da 03be
00000260: 16d7 de3d 0c3b cf3c edf0 5a3d e158 26bd
00000270: e7f0 7bbd 3269 463d b9cd 563e c517 d53d
00000280: ddcf 87bd f63a 73bd 130b 07be 496a 83bb
00000290: e995 10be 2d83 4dbd ab7b bcbd cf72 b2bd
000002a0: ccd3 b4bd 37fa 60bc 40cd d3bd 70d7 26bc
000002b0: 466f 26bc a4b2 10be 295c bebd a270 c83d
000002c0: e3e2 c13d d3c8 933d 8875 31b9 5970 9fbd
000002d0: f265 f8bd 1d33 653c 4b63 4dbd bec0 ebbd
000002e0: 6787 49bd 9180 ee3d 6a81 b8bc a6ba 333d
000002f0: a584 9a3d c1da d7bc d0a0 f43d 3b9a 1e3d
00000300: 9fba 0ebe 4192 b13d 5db8 8ebd 3b07 7abd
00000310: 34ac b83a 74ae 793c 0f8d aebd b4a9 fabc
00000320: 8e2d 41be 71ff dbbd 9a5a 043e 4f40 02bd
00000330: 01e1 b7bc b238 a73d db08 0cbe 24e3 c63b
00000340: 31a8 953d 5b69 d63d 7207 25be 0916 973a
00000350: 6ef3 e63c 0bbd 263e c5ae d6bd 817c ebbc
00000360: 7647 67be 569c 9f3d b494 25bd 532e 9c3d
00000370: a8e8 323e 0b38 3a3d 82b5 7ebd f8b4 dfbd
00000380: ce36 433e 7c44 bbbc f829 b73a b57d e73d
00000390: a926 80bc 0871 62bd c01d 073e 3374 a03d
000003a0: 6206 f83c 6e88 8abd b206 4d3d d1ed 9c3d
000003b0: 4f9a 73bc 88cd 3c3d 38c9 07be bd26 9e3c
000003c0: 78e6 413e 79a8 3cbe 6371 a23c b4e6 1fbe
000003d0: c6e3 ba3d b04b e1bd 05d3 bfbd 22dc 15bc
000003e0: e94f 5c3d fd95 dfbd 6f59 90bd 4d6f 35bd
000003f0: 05b5 1e3e 24b1 293d 9bf6 713d 5b7f c83d

model.rnn.weight_hh_l0 f4 [240, 60]
0.16488495 -0.17340732 -0.012867468 -0.14687908 -0.10769392 -0.095804825 -0.099197336 -0.022296127
-0.043303877 -0.06815272 0.1494849 0.048582405 0.03207108 0.113018066 0.046367276 0.035815135
-0.040631868 -0.13157585 -0.08732719 0.036216024 -0.019653443 0.07895562 0.070533425 0.113076456
-0.013679944 -0.05584147 0.0010275873 0.15557243 0.0023925672 -0.051048443 -0.04146385 -0.08447285
-0.17321259 0.032947365 0.051790483 0.16932757 0.053679477 0.024311446 0.06423084 -0.031516273
-0.09472459 -0.11552418 0.13051662 0.01478491 0.15059932 -0.0055799503 -0.06486468 0.024978945
0.008183876 -0.035594333 -0.064079866 -0.03598454 0.17367636 0.028852751 -0.07684182 -0.18311816
0.023977647 -0.07422584 -0.07742248 -0.11735987 0.01343705 -0.03131926 -0.027231084 0.017701743
-0.1771876 -0.17577367 -0.1788174 -0.20908865 0.1827637 -0.025944946 0.09809934 0.16861989
0.11845982 0.07776339 0.096813805 0.16318747 0.083381936 -0.15382732 -0.06402753 -0.04477133
-0.0457714 -0.17663407 -0.040980328 0.18425182 0.16793244 0.010786337 -0.09482641 0.03576225
-0.003810482 -0.0358066 0.16481155 0.035429988 -0.120112665 0.11451667 -0.04799652 -0.012760015
0.002562892 -0.0037394373 0.11763445 0.07230891 -0.1034209 -0.17209621 0.20760728 -0.035932314
0.04239072 0.19769242 0.027123576 -0.06954786 0.01462356 0.12502187 0.10347388 0.19826286
0.07795519 0.11241394 -0.1717678 -0.082342096 0.038699757 -0.19068922 -0.014390656 -0.03809788
0.11484809 -0.19838615 0.16492383 -0.09796405 -0.07088922 -0.14251466 -0.060842488 0.005716998
0.081673 0.03294181 0.16374616 -0.02578172 -0.09039135 0.16015278 0.0038139706 -0.041468445
0.13628349 0.06518154 0.008558507 -0.0882848 -0.03373816 -0.15856653 -0.037155144 -0.0006985798
-0.028312452 0.17385048 -0.01927967 0.059710294 0.12195173 -0.14006755 0.19204961 0.04182479
-0.06977388 0.08831339 0.011554983 -0.0408071 0.00029156613 -0.06423635 -0.053866476 -0.0232523
-0.005436527 -0.08113321 0.056489695 -0.09652825 0.014051849 0.17877506 -0.015662037 0.014274102
-0.0804134 0.07574831 0.05164868 -0.02082883 -0.017361829 0.050339606 -0.04734169 0.1030538
-0.062362637 -0.13624918 -0.05243171 -0.021637538 0.055646807 -0.080166206 0.09261371 -0.026989102
-0.040206373 -0.049789384 -0.13890268 -0.14756909 0.002555112 -0.08212049 0.13429631 0.17417927
0.044628598 -0.019523913 -0.026181355 0.11568103 0.005181143 -0.14560346 0.092507124 -0.0059679635
-0.040904395 0.024761843 0.039131545 0.09108729 -0.0021581089 -0.028236404 -0.109452456 -0.1007699
0.087064765 -0.010538571 0.018293612 0.048169978 0.044902094 0.13006663 -0.009860499 0.07001718
-0.06363824 -0.034239944 -0.05567761 -0.050866958 -0.0021684498 0.02382094 -0.04938093 -0.043775104
-0.063685544 -0.030025959 0.17292978 -0.1643997 -0.1329641 0.16334936 0.0045508435 -0.07257753
0.09186712 0.06877815 0.08493857 -0.102684 -0.0551018 0.06422231 -0.04733617 -0.06290936
0.10930334 -0.13269012 -0.0029782394 -0.030005947 -0.13361469 -0.13660216 -0.103596516 -0.15381166
0.097339705 0.1049477 0.026511217 -0.0097556375 0.07206618 0.13578169 -0.013420736 0.05678306
00000000: 9ad7 283e b091 31be 13d2 52bc 7867 16be
00000010: a18e dcbd 5235 c4bd f927 cbbd 5ea6 b6bc
00000020: 685f 31bd a793 8bbd 9212 193e 58fe 463d
00000030: f75c 033d 0476 e73d 9deb 3d3d e4b2 123d
00000040: 9a6d 26bd d2bb 06be 99d8 b2bd 4157 143d
00000050: 4200 a1bc 7cb3 a13d d473 903d a194 e73d
00000060: d821 60bc 06ba 64bd 1cb0 863a 614e 1f3e
00000070: 9ecc 1c3b 2c18 51bd ffd5 29bd 1a00 adbd
00000080: a45e 31be d1f3 063d 4222 543d 3564 2d3e
00000090: 03df 5b3d cc28 c73c 758b 833d 3517 01bd
000000a0: f7fe c1bd f197 ecbd 26a6 053e 683c 723c
000000b0: b536 1a3e 04d8 b6bb c6d7 84bd a5a0 cc3c
000000c0: aa15 063c 5dcb 11bd 4e3c 83bd 8664 13bd
000000d0: 37d8 313e 9b5c ec3c 3e5f 9dbd 5483 3bbe
000000e0: c56c c43c b803 98bd ad8f 9ebd 5f5a f0bd
000000f0: 1327 5c3c a048 00bd b913 dfbc 3f03 913c
00000100: ab70 35be 03fe 33be e91b 37be 561b 56be
00000110: 6826 3b3e 7f8a d4bc 4fe8 c83d b1aa 2c3e
00000120: 109b f23d 6a42 9f3d 5146 c63d 9e1a 273e
00000130: 26c4 aa3d e984 1dbe de20 83bd 2462 37bd
00000140: cb7a 3bbd 90df 34be fdda 27bd 82ac 3c3e
00000150: 7bf6 2b3e 2db9 303c 5934 c2bd 707b 123d
00000160: 48b9 79bb f1a9 12bd 5cc4 283e 091f 113d
00000170: a1fd f5bd b787 ea3d 0098 44bd 620f 51bc
00000180: 31f6 273b 5911 75bb 55ea f03d b216 943d
00000190: 56ce d3bd fd39 30be 0197 543e c32d 13bd
000001a0: e4a1 2d3d e26f 4a3e 4332 de3c 1c6f 8ebd
000001b0: a897 6f3c bc05 003e 1dea d33d 6b05 4b3e
000001c0: f8a6 9f3d 4839 e63d e6e3 2fbe f9a2 a8bd
000001d0: a383 1e3d 0944 43be c9c6 6bbc 860c 1cbd
000001e0: 7a35 eb3d bd25 4bbe cbe1 283e 60a1 c8bd
000001f0: 5e2e 91bd 5def 11be f935 79bd a855 bb3b
00000200: 2c44 a73d feed 063d 13ad 273e 3034 d3bc
00000210: 1a1f b9bd 17ff 233e cff3 793b d1da 29bd
00000220: e68d 0b3e e67d 853d fb38 0c3c a9ce b4bd
00000230: 0631 0abd 445f 22be fe2f 18bd e620 37ba
00000240: 84ef e7bc dc05 323e 66f0 9dbc c892 743d
00000250: d4c1 f93d de6d 0fbe a7a8 443e 7950 2b3d
00000260: 9ce5 8ebd a7dd b43d 1d51 3d3c 5825 27bd
00000270: 58dd 9839 598e 83bd 18a3 5cbd 9c7b bebc
00000280: e524 b2bb 2b29 a6bd bd61 673d 9ab0 c5bd
00000290: ba39 663c cf10 373e ac4d 80bc ecdd 693c
000002a0: c8af a4bd ee21 9b3d 918d 533d 39a1 aabc
000002b0: 653a 8ebc e730 4e3d 5ce9 41bd df0d d33d
000002c0: f76f 7fbd e884 0bbe a2c2 56bd 3541 b1bc
000002d0: e8ed 633d 2e2e a4bd 42ac bd3d 4018 ddbc
000002e0: 70af 24bd f4ef 4bbd 813c 0ebe 5a1c 17be
000002f0: aa73 273b ca2e a8bd f984 093e 0d5c 323e
00000300: 7acc 363d 9df0 9fbc 487a d6bc 2dea ec3d
00000310: 94c6 a93b 1319 15be 6074 bd3d e88e c3bb
00000320: 5e8b 27bd 59d9 ca3c 6648 203d f98b ba3d
00000330: 0f6f 0dbb 0850 e7bc 9c28 e0bd 7360 cebd
00000340: 034f b23d f8a9 2cbc 7cdc 953c e24d 453d
00000350: 42eb 373d 3030 053e ee8d 21bc 2b65 8f3d
00000360: c454 82bd 2f3f 0cbd 350e 64bd df59 50bd
00000370: 8d1c 0ebb 2224 c33c a843 4abd 864d 33bd
00000380: 916d 82bd 00f9 f5bc 8114 313e 6558 28be
00000390: be27 08be 0e45 273e 3e1f 953b 87a3 94bd
000003a0: d424 bc3d 8fdb 8c3d 46f4 ad3d fd4b d2bd
000003b0: 6db2 61bd fd86 833d 92e3 41bd 9fd6 80bd
000003c0: 6eda df3d ebdf 07be 912e 43bb 08cf f5bc
000003d0: 4ad2 08be 70e1 0bbe 692a d4bd ce80 1dbe
000003e0: 0a5a c73d d2ee d63d 0d2e d93c 1cd6 1fbc
000003f0: 6f97 933d 5b0a 0b3e a6e2 5bbc 5b95 683d

model.rnn.bias_ih_l0 f4 [240]
-0.047136933 0.1516394 0.12536952 0.054499116 0.02919592 0.07973887 0.12634651 -0.027229846
0.13819483 0.12198832 0.010711902 0.086595714 0.13644354 -0.0015982854 0.027508803 0.030765438
0.16991916 0.08915385 -0.0020907538 0.01678214 -0.08558106 0.049554374 0.15553683 -0.063338585
0.06060991 0.12368895 -0.11640086 0.16901548 0.13570045 0.004649723 0.16736998 -0.061656874
-0.0897918 0.15382864 0.05409096 0.06560282 0.030387696 0.05071453 -0.00729326 -0.057563636
0.0035158135 -0.008928018 0.16260149 0.14873339 0.08323615 0.15074804 0.10525728 0.04460134
0.104214735 0.14177561 -0.07194209 0.14892277 0.20077673 0.04316681 0.011352048 0.09944833
-0.08010163 0.0771814 -0.08203928 -0.022651905 -0.09388646 0.06033928 -0.033323795 -0.091161154
-0.024556752 0.16308185 -0.01791531 -0.08252985 0.0306125 -0.059203498 0.048240896 0.1670039
-0.067757495 -0.11683227 0.016326826 -0.06259039 -0.09135568 0.057380125 -0.053518638 -0.04321004
-0.10855838 -0.0697318 0.11956099 0.008046903 0.13818705 0.10567353 0.04621412 -0.06960477
-0.035180666 0.012781882 -0.11718635 0.07098476 0.13177021 0.1015244 0.12975208 -0.0983685
-0.047270495 0.052128203 0.1322327 0.1349302 0.018428734 0.13007137 -0.040331572 0.09584448
-0.004384156 0.09435616 0.086695075 0.007833433 0.13183199 0.14181897 0.052848328 -0.011726187
-0.07871466 0.013514166 -0.089912094 -0.082704335 0.042841975 0.049058553 0.104497656 0.13349117
-0.013536408 -0.11046036 0.11611758 -0.11531179 -0.03620608 -0.06658418 0.09590915 -0.06625251
0.09471885 -0.05903586 -0.097339876 0.029681567 0.13154799 0.0037265762 -0.07409084 0.11602296
-0.104017094 -0.03618949 -0.0854842 -0.03639388 0.09113322 -0.04133171 -0.07392625 0.04910399
0.073795415 0.035209432 -0.055598523 0.09575447 -0.003414531 0.060536332 0.024147876 0.052097157
-0.15621233 0.049693655 -0.04189041 0.07134039 -0.067831546 -0.13881373 0.10873299 -0.097425155
0.032137863 0.09024948 0.07059555 -0.1213382 0.12437401 0.04914506 0.083322585 -0.08051529
-0.07324715 0.04473973 0.065591656 0.022946129 -0.06322062 -0.030531991 0.06317313 -0.04131471
-0.10223316 -0.1374848 0.04539779 0.039168317 0.10163759 0.058771547 0.18606919 -0.0672495
-0.0075254063 0.13714139 -0.05373742 0.0466135 0.08033307 -0.034405008 0.08779802 0.049706288
0.17209926 0.105695985 0.091334134 0.06585554 -0.03498042 -0.011324128 0.1609065 0.11215729
0.07132279 -0.039540008 0.1327822 0.038488403 0.052852638 0.054671783 0.106631994 0.013452596
0.14384413 -0.065045886 0.08054717 0.031976074 -0.10039885 -0.049082868 0.0017960775 -0.04854349
0.10752826 -0.040979 0.11197515 0.0006696453 0.086199895 0.017554902 0.00021531514 -0.046715744
-0.037527047 0.03737311 -0.006975263 0.09399398 0.13557768 0.005478096 0.052704785 0.1287866
0.13229074 0.01806563 -0.07819592 -0.010072759 0.047109585 0.11966839 0.07171214 -0.060671866
00000000: a812 41bd 5c47 1b3e de60 003e 773a 5f3d
00000010: 482c ef3c 224e a33d fb60 013e 2011 dfbc
00000020: f282 0d3e 03d5 f93d f980 2f3c 1859 b13d
00000030: dbb7 0b3e 8f7d d1ba 245a e13c cd07 fc3c
00000040: 4aff 2d3e 4b96 b63d 0705 09bb b37a 893c
00000050: 1f45 afbd 87f9 4a3d 0c45 1f3e a9b7 81bd
00000060: 1942 783d a250 fd3d 9363 eebd 6512 2d3e
00000070: 0ff5 0a3e b45c 983b 0963 2b3e eb8b 7cbd
00000080: c3e4 b7bd 4185 1d3e 7c8e 5d3d c55a 863d
00000090: 9eef f83c 0aba 4f3d 4dfc eebb d9c7 6bbd
000000a0: 9069 663b d246 12bc 0181 263e 914d 183e
000000b0: b777 aa3d b25d 1a3e 2191 d73d e5af 363d
000000c0: 896e d53d a02d 113e 6056 93bd 367f 183e
000000d0: 6a98 4d3e aecf 303d f1fd 393c 91ab cb3d
000000e0: 530c a4bd 4811 9e3d 3604 a8bd 7d90 b9bc
000000f0: 8b47 c0bd 5226 773d 887e 08bd b3b2 babd
00000100: 3e2b c9bc eefe 263e 21c3 92bc 6905 a9bd
00000110: 11c7 fa3c 5e7f 72bd 3f98 453d 1203 2b3e
00000120: 71c4 8abd c245 efbd d6bf 853c 642f 80bd
00000130: b018 bbbd 6c07 6b3d 5c36 5bbd 03fd 30bd
00000140: db53 debd 8ccf 8ebd 64dc f43d 28d7 033c
00000150: e880 0d3e 5d6b d83d 044b 3d3d f28c 8ebd
00000160: 9a19 10bd 196b 513c 66ff efbd 7560 913d
00000170: c5ee 063e 06ec cf3d bbdd 043e 6d75 c9bd
00000180: b59e 41bd 6284 553d 0268 073e 242b 0a3e
00000190: dbf7 963c 6e31 053e b832 25bd 1c4a c43d
000001a0: f7a8 8fbb cd3d c13d 308d b13d cd57 003c
000001b0: f7fe 063e fe38 113e 7d77 583d 311f 40bc
000001c0: 2735 a1bd 856a 5d3c d523 b8bd e460 a9bd
000001d0: 117b 2f3d 9ff1 483d de02 d63d e9b1 083e
000001e0: cfc7 5dbc 0b39 e2bd 0ecf ed3d 9628 ecbd
000001f0: d44c 14bd 495d 88bd 046c c43d 65af 87bd
00000200: f5fb c13d 96cf 71bd 215a c7bd c226 f33c
00000210: 84b4 063e 9339 743b f0bc 97bd 729d ed3d
00000220: ea06 d5bd 6e3b 14bd 5712 afbd c011 15bd
00000230: 0ea4 ba3d 704b 29bd a566 97bd 4421 493d
00000240: 0d22 973d c437 103d 47bb 63bd eb1a c43d
00000250: 53c6 5fbb f2f4 773d c4d1 c53c d463 553d
00000260: 20f6 1fbe 938b 4b3d 4795 2bbd e91a 923d
00000270: 44eb 8abd 3025 0ebe 67af de3d d786 c7bd
00000280: fea2 033d b8d4 b83d 6694 903d 2a80 f8bd
00000290: cdb7 fe3d 554c 493d 08a5 aa3d 33e5 a4bd
000002a0: 9a02 96bd 0241 373d eb54 863d 85f9 bb3c
000002b0: d079 81bd 3a1e fabc ea60 813d 9d39 29bd
000002c0: 9e5f d1bd d1c8 0cbe 08f3 393d f56e 203d
000002d0: 5e27 d03d 6fba 703d ec88 3e3e 1bba 89bd
000002e0: af97 f6bb cb6e 0c3e c51b 5cbd cced 3e3d
000002f0: aa85 a43d 44ec 0cbd 73cf b33d d298 4b3d
00000300: ca3a 303e 2377 d83d 640d bb3d 45df 863d
00000310: a147 0fbd d688 39bc acc4 243e b9b2 e53d
00000320: af11 923d b4f4 21bd 0ff8 073e 04a6 1d3d
00000330: 027c 583d 85ef 5f3d e061 da3d 4768 5c3c
00000340: e04b 133e c736 85bd eaf5 a43d 58f9 023d
00000350: ea9d cdbd 1e0b 49bd 5c6a eb3a 8ad5 46bd
00000360: c737 dc3d 99d9 27bd 3a53 e53d 238b 2f3a
00000370: 9289 b03d 4ccf 8f3c 38c6 6139 0259 3fbd
00000380: f6b5 19bd 8c14 193d bf90 e4bb ea7f c03d
00000390: e0d4 0a3e 9a81 b33b f9e0 573d a2e0 033e
000003a0: 3977 073e 5ffe 933c 2f25 a0bd 3708 25bc
000003b0: fbf5 403d b314 f53d d1dd 923d 1083 78bd

model.rnn.bias_hh_l0 f4 [240]
0.07270555 0.020845188 0.16754632 0.15586507 -0.016564772 0.0116384635 -0.07613018 0.034364887
0.1242178 0.1285957 0.020387707 0.13769762 0.107425794 0.07723691 0.08131602 -0.041740697
0.18220717 -0.02961477 0.14196251 0.17216362 -0.08590267 0.13727322 0.015261786 0.14077692
0.12724662 0.16413207 -0.12694916 0.06952263 -0.024710752 -0.03941866 0.07845087 -0.057589877
-0.090997584 0.103102796 -0.0691864 0.12811713 0.09450469 0.04280451 0.14971823 -0.049035236
0.035358783 0.01156634 0.079085395 0.19336796 0.028383438 0.10554532 0.001284689 0.019479912
0.13486312 -0.023685444 -0.076897115 0.013837971 0.19148743 0.09669405 0.10884698 0.09319283
-0.062924996 -0.006699471 0.020433258 -0.0026489168 -0.03753636 0.021404505 0.119169004 0.07687286
-0.030173711 0.029334163 0.08894857 -0.06345048 -0.05545368 -0.12088993 -0.10943599 0.110823765
0.13295236 0.034845825 0.1337235 0.09514726 0.009182627 -0.07899534 0.08149734 -0.019094015
0.113085225 -0.019068368 0.06706283 -0.09727686 0.0070238113 0.08457995 0.02750669 -0.08686505
0.11994708 0.1483247 -0.10219385 -0.083355896 0.07123815 0.10855017 -0.054178048 0.07069302
-0.056476463 0.049777783 0.0009379603 -0.092720464 -0.0881431 -0.057201784 -0.052137267 0.095323175
-0.04158247 0.014206842 0.05026246 -0.095113724 0.09440413 0.13982068 0.045686625 -0.051581845
-0.10210712 0.054233816 -0.106629916 0.113106735 -0.008735271 -0.037142057 0.10355097 0.024405973
-0.03935718 0.08960468 0.019992296 -0.07512236 0.05080185 -0.069404624 -0.089667305 -0.15179329
-0.035990834 0.03655668 0.1401438 0.05448015 0.1028806 0.115647234 0.12906544 0.0041352236
0.12637226 -0.026409818 0.008118859 0.04694279 -0.025104823 -0.06472785 0.107084796 -0.0900524
0.062456466 0.14914995 0.094193295 0.09635223 -0.12737264 -0.09237517 0.030661259 -0.03642161
-0.09888488 -0.079993345 -0.05674063 -0.023708234 -0.092395894 -0.05986627 0.07880335 -0.1412797
-0.0051733237 -0.06583652 0.021684574 0.043472983 0.03211066 0.09259075 0.020015348 0.12756656
0.055078585 0.077775255 -0.090717256 0.08451018 0.021810414 -0.055093553 -0.06277425 0.09372762
-0.08525137 -0.10611049 0.05053222 -0.049765516 0.05466171 0.04547418 0.10299052 0.15655632
-0.07242977 0.12240768 0.09946486 -0.05689969 -0.0628334 -0.02509358 -0.09059124 0.053228334
-0.036944512 0.054831885 0.14530309 0.020894105 0.13576531 0.0679599 0.011696531 0.032545317
0.04181494 -0.044954214 0.12807932 0.16473514 -0.0441857 0.026308347 -0.031294942 0.16899484
0.06878881 -0.05642418 0.1222613 0.104940556 0.00056642364 0.10735803 0.14091292 -0.047942046
-0.053765867 0.13666408 0.1329411 0.15479 0.14834224 0.14816424 0.14535306 0.06604258
0.113557175 0.14275299 0.0016714036 0.04414005 0.13651034 -0.0949369 -0.026653152 0.17409185
-0.018410094 -0.04965809 -0.09640122 -0.04776049 0.039206233 0.13189663 0.0185907 -0.086176746
00000000: a6e6 943d 87c3 aa3c 4391 2b3e 189b 1f3e
00000010: d8b2 87bc 41af 3e3c 24ea 9bbd 32c2 0c3d
00000020: e765 fe3d 97ae 033e 1f04 a73c 9b00 0d3e
00000030: 0e02 dc3d 632e 9e3d 0389 a63d 4bf8 2abd
00000040: 8494 3a3e ad9a f2bc 9f5e 113e a94b 303e
00000050: bded afbd 5a91 0c3e 920c 7a3c d327 103e
00000060: f04c 023e 3d12 283e f6fe 01be e161 8e3d
00000070: 346e cabc 7675 21bd daaa a03d 5de3 6bbd
00000080: f15c babd 8f27 d33d 99b1 8dbd 2331 033e
00000090: ad8b c13d c853 2f3d bc4f 193e 2cd9 48bd
000000a0: 5fd4 103d bf80 3d3c 86f7 a13d 4002 463e
000000b0: 6284 e83c 2528 d83d 0263 a83a 5694 9f3c
000000c0: 8f19 0a3e fa07 c2bc 3c7c 9dbd a8b8 623c
000000d0: 4815 443e 8807 c63d 2aeb de3d e2db be3d
000000e0: d2de 80bd 3c87 dbbb a663 a73c 7399 2dbb
000000f0: babf 19bd 8058 af3c e10e f43d 856f 9d3d
00000100: dc2e f7bc 334e f03c ab2a b63d 53f2 81bd
00000110: 6623 63bd 2495 f7bd fa1f e0bd 92f7 e23d
00000120: aa24 083e 7fba 0e3d d0ee 083e 91dc c23d
00000130: bb72 163c 4fc8 a1bd 14e8 a63d 0d6b 9cbc
00000140: 3a99 e73d 4435 9cbc 3d58 893d 1739 c7bd
00000150: 0028 e63b 4138 ad3d b655 e13c 4ee6 b1bd
00000160: d1a6 f53d 6ee2 173e 024b d1bd 7fb6 aabd
00000170: 4fe5 913d 8d4f de3d cde9 5dbd 81c7 903d
00000180: dd53 67bd cae3 4b3d 73e1 753a 3ae4 bdbd
00000190: 5f84 b4bd 6b4c 6abd e38d 55bd cc38 c33d
000001a0: 6152 2abd d0c3 683c 02e0 4d3d fcca c2bd
000001b0: f456 c13d 272d 0f3e e621 3b3d 7c47 53bd
000001c0: 8a1d d1bd 4724 5e3d c960 dabd 81a4 e73d
000001d0: 621e 0fbc 4522 18bd 8812 d43d 09ef c73c
000001e0: ff34 21bd a982 b73d e2c6 a33c c0d9 99bd
000001f0: 9a15 503d 0324 8ebd 7ea3 b7bd b36f 1bbe
00000200: 206b 13bd 75bc 153d db81 0f3e 9426 5f3d
00000210: 10b3 d23d 75d8 ec3d bb29 043e c580 873b
00000220: bb67 013e 6759 d8bc f604 053c 1547 403d
00000230: a1a8 cdbc 0990 84bd 464f db3d 656d b8bd
00000240: 5ad2 7f3d c4ba 183e 6ae8 c03d 5154 c53d
00000250: f96d 02be 312f bdbd 522d fb3c d32e 15bd
00000260: 2884 cabd 8dd3 a3bd dd68 68bd c537 c2bc
00000270: 0f3a bdbd 5536 75bd a763 a13d a0ab 10be
00000280: fc84 a9bb 4cd5 86bd d9a3 b13c ba10 323d
00000290: 7886 033d 38a0 bd3d 3af7 a33c cfa0 023e
000002a0: 159a 613d a248 9f3d f8c9 b9bd ac13 ad3d
000002b0: c1ab b23c c7a9 61bd c98f 80bd 44f4 bf3d
000002c0: 4598 aebd 7550 d9bd e0fa 4e3d edd6 4bbd
000002d0: f5e4 5f3d 2243 3a3d b2ec d23d 4d50 203e
000002e0: 0f56 94bd e1b0 fa3d 3cb4 cb3d a60f 69bd
000002f0: ccae 80bd 0d91 cdbc e687 b9bd f405 5a3d
00000300: 2153 17bd 6697 603d 55ca 143e 1d2a ab3c
00000310: 1006 0b3e 8f2e 8b3d cfa2 3f3c 3d4e 053d
00000320: 2446 2b3d e921 38bd 3a27 033e 54b0 283e
00000330: 11fc 34bd 9a84 d73c 202f 00bd fc0c 2d3e
00000340: 26e1 8c3d 0a1d 67bd 2264 fa3d 13eb d63d
00000350: 0c7c 143a 87de db3d 7a4b 103e e15e 44bd
00000360: 9939 5cbd abf1 0b3e b621 083e 4581 1e3e
00000370: 07e7 173e 5eb8 173e 6fd7 143e 5541 873d
00000380: aa90 e83d d72d 123e 0013 db3a 32cc 343d
00000390: 5ec9 0b3e 476e c2bd b657 dabc 2245 323e
000003a0: c4d0 96bc 4866 4bbd 016e c5bd 81a0 43bd
000003b0: b796 203d e90f 073e 864b 983c 6f7d b0bd

model.rnn.weight_ih_l1 f4 [240, 60]
-0.09937206 0.09408734 -0.055948 -0.020395264 0.012873492 -0.020921716 -0.09893577 -0.18432207
0.056932393 -0.037045088 -0.05747203 -0.017777152 -0.10779917 0.030525718 0.038220767 -0.025536152
0.012428922 0.008673822 -0.0018660828 0.12071086 0.0630023 -0.0034839471 0.08860938 0.020814378
0.12865344 -0.077418014 0.063333645 -0.034854177 0.017063763 -0.09721462 0.03243108 0.1273416
-0.12762842 0.031550903 -0.007577936 -0.053278513 -0.055120565 0.013145785 -0.08232559 -0.140384
-0.03692131 -0.12538129 0.1277676 0.10807883 -0.13788112 0.0700729 -0.06715956 0.03940446
0.061530232 -0.06013609 -0.21995601 0.004906201 0.007285336 -0.025217526 -0.10908721 -0.01908353
-0.11486312 0.08990277 0.06166002 0.12436839 -0.037542522 0.017061967 0.09856865 -0.02925389
0.035339978 -0.016689561 -0.096838504 -0.17909133 0.13994856 -0.11396047 0.076857105 0.03909182
0.0981778 0.09986248 -0.07655285 0.13319626 -0.0003786882 0.04036541 -0.07194078 -0.06966296
0.046995606 -0.059587393 0.014334879 -0.038783304 0.10071168 0.0562323 -0.15266614 -0.016432747
0.06702575 -0.039977364 0.1815315 -0.19618475 0.08632435 -0.04291887 0.13681985 0.07766684
-0.08308033 -0.090307884 -0.014668308 0.004532 0.11870162 -0.16212402 -0.12379137 -0.1787829
0.03472796 -0.097729035 -0.041633252 -0.09797996 0.0676908 -0.10277304 -0.012578794 -0.04873
0.027880086 0.111956395 -0.049415734 0.010243893 -0.13101785 0.06372359 0.015440288 -0.07913693
-0.047715288 0.050413474 -0.13209878 -0.13846265 -0.07340825 -0.12377165 0.07189935 -0.12366277
0.04358773 -0.07716379 0.036385823 -0.023500819 0.115964 0.046552703 0.11634472 0.007375046
0.15962806 -0.060680296 0.0019968294 0.054964993 0.058467776 0.07797064 -0.0023886238 0.062363673
0.10941901 0.11545458 -0.09059784 0.057647537 -0.10807278 -0.01344655 -0.13156392 0.09749483
-0.092716254 0.15687248 0.156938 -0.05327896 -0.12008085 -0.1758125 0.08852063 -0.06717604
-0.13156617 0.074529774 0.066421464 0.15020305 0.15082705 0.048182473 0.12591773 -0.0040192166
0.06414798 0.12525554 -0.04300007 0.019129056 -0.08934513 -0.15963875 -0.10264108 -0.022315387
-0.1224122 0.1299236 0.007160051 -0.07441298 -0.027943138 0.05054468 0.06258022 -0.020715017
0.10622351 -0.07896273 0.052353725 0.06149648 0.12844421 0.031308133 -0.006816399 0.088225126
-0.10546935 0.11546138 -0.019899083 0.0919055 0.0017865279 -0.16547945 0.029348183 0.0138762
0.06262568 -0.07933312 -0.052588187 0.1454957 0.13287771 0.04572168 -0.19991204 -0.030224185
0.16108294 0.06264625 0.042461824 0.048077438 0.08717804 -0.047104497 0.13019943 0.07730811
-0.005470386 0.024363793 0.13071857 0.03562211 0.111721165 0.05609006 -0.047993694 -0.1565243
-0.0021264486 -0.040537395 0.10150792 0.06883693 -0.09019749 0.08103994 0.09591731 0.07929072
-0.024548814 -0.08992271 -0.0900252 0.14295655 -0.11519233 -0.0455266 0.043311402 -0.14720534
0.036690038 0.04466953 0.03632952 -0.15908995 0.056281384 -0.0741863 -0.15062495 0.055614337
0.15742752 -0.09145842 -0.035428137 0.09196085 -0.09667725 0.12760475 -0.036144897 0.15799074
00000000: 9483 cbbd ddb0 c03d bb29 65bd f813 a7bc
00000010: 57eb 523c 0564 abbc d69e cabd edbe 3cbe
00000020: f131 693d 97bc 17bd cb67 6bbd 64a1 91bc
00000030: d0c5 dcbd 1211 fa3c 618d 1c3d 3131 d1bc
00000040: ada2 4b3c a51c 0e3c 5997 f4ba 4137 f73d
00000050: 5a07 813d ef52 64bb d678 b53d ea82 aa3c
00000060: babd 033e 568d 9ebd 12b5 813d 41c3 0ebd
00000070: 4ec9 8b3c 7518 c7bd 74d6 043d d665 023e
00000080: 06b1 02be 853b 013d 5650 f8bb 923a 5abd
00000090: 1ac6 61bd 6b61 573c 529a a8bd d3c0 0fbe
000000a0: cd3a 17bd f463 00be 82d5 023e 6f58 dd3d
000000b0: b530 0dbe 6182 8f3d f48a 89bd 9266 213d
000000c0: 2007 7c3d 4351 76bd 263c 61be 32c4 a03b
000000d0: d4b9 ee3b fc94 cebc 1d69 dfbd 1055 9cbc
000000e0: 5b3d ebbd f21e b83d 388f 7c3d dbb4 fe3d
000000f0: 30c6 19bd 8ac5 8b3c 5cde c93d dba5 efbc
00000100: a7c0 103d 8cb8 88bc 4453 c6bd b863 37be
00000110: ad4e 0f3e 1b64 e9bd 4267 9d3d bf1e 203d
00000120: 7111 c93d b384 cc3d bec7 9cbd 9a64 083e
00000130: ab8a c6b9 3356 253d b055 93bd 74ab 8ebd
00000140: 777e 403d e911 74bd d7dc 6a3c 3edb 1ebd
00000150: ed41 ce3d d753 663d 8354 1cbe f89d 86bc
00000160: cc44 893d 4ebf 23bd 65e3 393e a8e4 48be
00000170: d2ca b03d b2cb 2fbd 811a 0c3e cb0f 9f3d
00000180: 0526 aabd 57f3 b8bd 5853 70bc 2c81 943b
00000190: d619 f33d d703 26be 5486 fdbd dd12 37be
000001a0: e83e 0e3d 2926 c8bd a187 2abd b8a9 c8bd
000001b0: 79a1 8a3d ac7a d2bd 4917 4ebc 1c99 47bd
000001c0: c764 e43c 6549 e53d 2768 4abd 00d6 273c
000001d0: 8b29 06be 8381 823d 43f9 7c3c 8b12 a2bd
000001e0: 1b71 43bd 5c7e 4e3d e744 07be 27c9 0dbe
000001f0: 1157 96bd fe7b fdbd f73f 933d e842 fdbd
00000200: 0c89 323d 0d08 9ebd 4d09 153d ca84 c0bc
00000210: 897e ed3d 0cae 3e3d 2446 ee3d 5faa f13b
00000220: 8a75 233e e78b 78bd 3ddd 023b f922 613d
00000230: e87b 6f3d 12af 9f3d 758a 1cbb 0d71 7f3d
00000240: 1317 e03d 7373 ec3d 5c8b b9bd d31f 6c3d
00000250: 4355 ddbd eb4e 5cbc b1b8 06be 5fab c73d
00000260: 05e2 bdbd 2ea3 203e 5bb4 203e 0a3b 5abd
00000270: f3ec f5bd 3108 34be 4e4a b53d 9793 89bd
00000280: 48b9 06be 11a3 983d fa07 883d d4ce 193e
00000290: 6872 1a3e fc5a 453d 94f0 003e a2b3 83bb
000002a0: 0460 833d fd42 003e d720 30bd 8ab4 9c3c
000002b0: 94fa b6bd 5778 23be 7d35 d2bd c2ce b6bc
000002c0: 3fb3 fabd b10a 053e dc9e ea3b d565 98bd
000002d0: 02e9 e4bc f007 4f3d 0f2a 803d 8ab2 a9bc
000002e0: b68b d93d 36b7 a1bd dc70 563d bce3 7b3d
000002f0: e186 033e f53c 003d 195c dfbb 60af b43d
00000300: 5100 d8bd 0477 ec3d 6703 a3bc f338 bc3d
00000310: ee29 ea3a 7273 29be 9a6b f03c 0059 633c
00000320: e441 803d 6779 a2bd b666 57bd d3fc 143e
00000330: 1811 083e a846 3b3d beb5 4cbe b698 f7bc
00000340: edf2 243e ad4c 803d 73ec 2d3d d9ec 443d
00000350: 668a b23d a5f0 40bd 0053 053e b753 9e3d
00000360: ec40 b3bb 9496 c73c 17db 053e 7de8 113d
00000370: 11ce e43d b1be 653d 0995 44bd e847 20be
00000380: e35b 0bbb 8a0a 26bd 62e3 cf3d 60fa 8c3d
00000390: 76b9 b8bd 45f8 a53d 4b70 c43d 2c63 a23d
000003a0: 981a c9bc 6629 b8bd 225f b8bd 3463 123e
000003b0: f5e9 ebbd 1a7a 3abd 4c67 313d ffbc 16be
000003c0: 4b48 163d 66f7 363d 43ce 143d 7ae8 22be
000003d0: 4f87 663d fdee 97bd 6d3d 1abe dccb 633d
000003e0: ae34 213e 8d4e bbbd 181d 11bd f855 bc3d
000003f0: b9fe c5bd d2aa 023e ac0c 14bd 53c8 213e

model.rnn.weight_hh_l1 f4 [240, 60]
-0.029430628 0.099564336 -0.16160277 -0.03707374 0.02575357 -0.06751281 0.014618963 0.027555635
0.07596352 0.03349107 0.07351227 -0.09433156 0.062308993 0.0029526127 -0.05487548 0.13055141
0.06417502 0.13430335 -0.027160762 0.009325704 -0.07425504 -0.0014197647 0.16226295 -0.101063944
-0.16693567 0.109329395 0.018079218 0.016071966 -0.079317965 -0.06189178 0.0044598267 -0.0704028
0.16541567 0.122695655 0.012405961 -0.07511624 -0.05562727 0.070485495 -0.07665141 -0.032160908
0.12293117 -0.068158425 -0.048409157 -0.025080582 -0.06707492 0.16979451 -0.043557175 0.09150285
-0.16267298 0.10701501 0.032515597 -0.004441429 -0.084717415 -0.0735914 -0.014007632 0.097691506
0.15763839 -0.018730892 0.13486971 -0.01873927 0.120609954 0.06134395 -0.033693153 0.06896435
-0.024396196 0.1265643 -0.002902579 -0.09976798 -0.1388619 -0.10011804 -0.014959559 -0.03084511
-0.0790916 -0.042774443 -0.03645411 0.050155625 -0.09667706 -0.11249768 0.05913355 0.0004143655
0.064481586 -0.046125304 -0.022767624 -0.061019406 -0.035447657 0.08647277 0.038704004 0.015180212
0.014711841 0.03933471 -0.06641723 0.17443691 -0.008427821 0.11908186 0.0760397 0.026061602
-0.042972706 0.091566205 0.033628546 0.022467772 0.01638562 -0.118385226 -0.1000265 0.14153059
0.08865015 -0.00015310987 0.087907545 -0.029293168 -0.069570795 -0.020832201 -0.0011012969 0.049168404
-0.008997997 0.061365295 0.016451627 0.15864399 -0.11738553 0.035103504 -0.072475776 0.10648458
0.15794839 0.14770354 -0.10685503 -0.13705829 0.048496407 0.0023597563 0.038707048 -0.1272998
-0.029343607 -0.027222393 0.04316905 0.109234184 0.07385654 0.06518195 0.023196973 0.013982424
-0.13238122 0.15933119 -0.051589422 0.025718225 -0.006298829 -0.07292405 -0.02784968 0.0670343
-0.10709598 -0.15629555 0.081521116 0.10876389 -0.08652759 -0.06332367 -0.0171682 0.051782522
-0.056273777 -0.09412168 -0.031609077 0.045032993 -0.048581146 -0.0116291335 -0.053664014 -0.15588242
0.07188367 0.04604482 -0.15582006 0.16151963 0.022209784 -0.10882362 0.040744703 -0.042527318
0.030847237 0.07093096 -0.10445031 0.035930112 0.030225424 0.05937457 0.08335364 0.036813725
-0.051666897 -0.05290915 0.04812117 -0.1005013 -0.069015436 0.04535099 0.00010096383 -0.031201513
0.14375025 0.13404289 -0.058674853 -0.07674137 -0.09894897 -0.05436312 -0.042305354 -0.06830656
-0.10757465 -0.02235031 0.04997462 0.061819617 0.049596574 -0.06317766 -0.07311743 0.14253893
-0.03312635 0.074757256 -0.0118426895 -0.021918721 -0.11034759 0.030792385 0.0040713134 -0.011758282
-0.02425055 -0.111528695 -0.11571565 -0.054490063 -0.071904704 -0.0054100407 -0.13476628 0.055190388
0.099876605 0.06348034 0.02240342 -0.035350017 0.12442539 -0.09164577 -0.028576335 0.12022031
-0.05171101 0.034021277 -0.009564985 0.081813484 -0.02512195 0.13378242 0.07555402 -0.038237568
-0.099451624 -0.008291407 -0.03473841 0.03269416 -0.08463988 -0.041301847 0.05808099 -0.06364795
-0.0028304567 0.04431392 0.090751186 -0.006012406 0.15958263 -0.015223404 -0.03618792 0.048147522
-0.058626823 0.059055068 0.085709505 -0.07640395 -0.15813471 0.07165848 0.12753107 -0.016385833
00000000: 8018 f1bc 63e8 cb3d 327b 25be a2da 17bd
00000010: 27f9 d23c 2844 8abd 6084 6f3c 5bbc e13c
00000020: c392 9b3d ef2d 093d 9a8d 963d e830 c1bd
00000030: b737 7f3d 9f80 413b 1cc5 60bd 45af 053e
00000040: 316e 833d d186 093e 3f80 debc d6ca 183c
00000050: 0713 98bd 6617 baba 4228 263e 9dfa cebd
00000060: 2ff1 2abe 17e8 df3d de1a 943c 5ba9 833c
00000070: 7571 a2bd 3c82 7dbd bd23 923b 582f 90bd
00000080: ba62 293e dc47 fb3d 5f42 4b3c 8bd6 99bd
00000090: 6cd9 63bd b35a 903d 6afb 9cbd 28bb 03bd
000000a0: 56c3 fb3d a596 8bbd ae48 46bd cb75 cdbc
000000b0: 935e 89bd 9dde 2d3e 0269 32bd d965 bb3d
000000c0: bf93 26be b02a db3d 132f 053d 6889 91bb
000000d0: 5380 adbd 17b7 96bd 4480 65bc 7c12 c83d
000000e0: f56b 213e 8771 99bc 491b 0a3e 1983 99bc
000000f0: 5a02 f73d cb43 7b3d d501 0abd 2e3d 8d3d
00000100: 88da c7bc 129a 013e 3239 3ebb 2853 ccbd
00000110: d031 0ebe b00a cdbd f018 75bc e2ae fcbc
00000120: c7fa a1bd 4134 2fbd e850 15bd fc6f 4d3d
00000130: 9ffe c5bd 2f65 e6bd 0536 723d 323f d939
00000140: ec0e 843d e3ed 3cbd 2b83 babc 7cef 79bd
00000150: 9031 11bd a318 b13d 1788 1e3d 6db6 783c
00000160: ef09 713c 6f1d 213d c205 88bd 979f 323e
00000170: d814 0abc 31e1 f33d b4ba 9b3d 247f d53c
00000180: 2604 30bd 1087 bb3d 16be 093d 550e b83c
00000190: 233b 863c f473 f2bd b2da ccbd 65ed 103e
000001a0: 368e b53d 1e8c 20b9 df08 b43d 3af8 efbc
000001b0: 227b 8ebd 4ba8 aabc 6459 90ba cf64 493d
000001c0: 566c 13bc 2d5a 7b3d 90c5 863c 9273 223e
000001d0: d367 f0bd b1c8 0f3d 2e6e 94bd 9614 da3d
000001e0: 39bd 213e 993f 173e cfd6 dabd 0259 0cbe
000001f0: 2ba4 463d 24a6 1a3b 488b 1e3d e15a 02be
00000200: 0162 f0bc 7f01 dfbc 08d2 303d 2cb6 df3d
00000210: 1942 973d 1d7e 853d 9407 be3c 8916 653c
00000220: f18e 07be b727 233e 6e4f 53bd 07af d23c
00000230: 6866 cebb 3459 95bd 0325 e4bc 4749 893d
00000240: 2355 dbbd f10b 20be 8bf4 a63d 9abf de3d
00000250: 6135 b1bd d7af 81bd 53a4 8cbc e919 543d
00000260: 557f 66bd dec2 c0bd 8578 01bd 8474 383d
00000270: 06fd 46bd 1f88 3ebc ccce 5bbd a49f 1fbe
00000280: bf37 933d 7e99 3c3d 4b8f 1fbe 6765 253e
00000290: 4bf1 b53c ebde debd ebe3 263d 2031 2ebd
000002a0: 58b3 fc3c 4044 913d 0bea d5bd 742b 133d
000002b0: 4f9b f73c c032 733d 50b5 aa3d fdc9 163d
000002c0: aba0 53bd 44b7 58bd b41a 453d a0d3 cdbd
000002d0: f757 8dbd f6c1 393d 8bbc d338 519a ffbc
000002e0: 4433 133e 8a42 093e 0b55 70bd 942a 9dbd
000002f0: c2a5 cabd ddab 5ebd 6148 2dbd 4fe4 8bbd
00000300: 1950 dcbd ff17 b7bc 30b2 4c3d 9136 7d3d
00000310: c725 4b3d 4a63 81bd 97be 95bd baf5 113e
00000320: 7faf 07bd 551a 993d d707 42bc e48e b3bc
00000330: ebfd e1bd 5040 fc3c a768 853b cfa5 40bc
00000340: 17a9 c6bc 2869 e4bd 54fc ecbd f930 5fbd
00000350: c642 93bd b646 b1bb 2c00 0abe 510f 623d
00000360: 1b8c cc3d fb01 823d 6187 b73c 2ecb 10bd
00000370: bdd2 fe3d c7b0 bbbd eb18 eabc 1136 f63d
00000380: edce 53bd e559 0b3d 74b6 1cbc d48d a73d
00000390: 8ccc cdbc 42fe 083e 11bc 9a3d ff9e 1cbd
000003a0: 4bad cbbd aed8 07bc dd49 0ebd 50ea 053d
000003b0: ac57 adbd 202c 29bd 55e6 6d3d db59 82bd
000003c0: 2f7f 39bb 8382 353d c2db b93d b803 c5bb
000003d0: a169 233e 966b 79bc c939 14bd 5636 453d
000003e0: ae22 70bd bae3 713d 7788 af3d ad79 9cbd
000003f0: 11ee 21be aec1 923d 8197 023e 953b 86bc

model.rnn.bias_ih_l1 f4 [240]
-0.04660318 0.07040349 -0.04206048 -0.0022478048 0.059851054 0.1075585 0.10008588 -0.062834
0.025646536 0.059963122 0.07384281 -0.13853024 -0.047621075 -0.058780722 -0.025589338 -0.0002809883
-0.030434337 0.027697708 0.13072176 0.14718881 -0.066660546 0.09045175 0.06250089 0.07995253
0.14034985 0.047004566 -0.06068075 -0.0051254337 0.04363799 0.1083922 0.15411666 0.15206815
-0.08813181 -0.060480345 -0.09315715 -0.07250516 0.12772302 0.11092202 -0.070481315 0.1738229
0.046168916 -0.017158743 0.084388934 3.2754033e-06 -0.037001196 0.02696311 0.16221158 0.06338572
-0.066893265 0.15299876 -0.009917869 -0.060534842 -0.030829754 0.18533407 0.14156155 0.07095764
-0.032123122 0.08206322 -0.10128689 0.09980795 0.1135974 -0.06212549 0.16820855 0.0595076
-0.0037808048 -0.046758227 -0.0654203 0.024378981 -0.053727724 0.01668443 -0.13602524 -0.050379895
-0.03094285 0.11292493 0.054651532 0.097544074 0.10330865 -0.11507988 0.009904485 0.12842561
-0.061512753 0.004878719 0.103935815 0.12228234 -0.07170393 -0.06373424 0.031533573 0.0011510891
-0.058805816 0.13137655 -0.056393843 0.06447727 0.055101976 0.028856894 0.08266707 0.0040299566
0.05360155 -0.11108265 -0.077277504 -0.06610848 0.02114371 -0.114446364 0.02501961 -0.08869025
-0.03650472 -0.007330784 0.10774016 -0.045540705 -0.03344022 -0.102389485 0.018665195 0.05803027
-0.047835905 0.029294021 0.03809603 0.07032494 -0.09242045 0.020819176 -0.030597841 0.01010032
0.05034806 -0.108897895 -0.11151767 -0.08582234 -0.07107682 0.03948497 0.12673472 0.0002493534
0.07912102 -0.08010623 -0.08928804 0.04328649 -0.111442275 -0.054243132 0.12214127 0.14847721
0.1130056 0.110579394 0.051096134 0.10598906 0.09714456 0.02300068 -0.05923533 -0.118328005
0.08250843 0.04808993 0.0063718376 0.058271833 0.016767073 0.058645602 -0.11614481 0.035259075
-0.023681283 0.071311206 -0.06436788 -0.05197282 -0.095668264 -0.05409465 0.04892366 -0.05771715
0.14375445 -0.04664133 0.029602246 0.08135581 0.0060673817 -0.007759086 0.078000054 -0.11622889
0.02816078 0.05493827 -0.11492512 0.057584237 -0.09573154 0.06316925 -0.04849755 -0.070075735
-0.091239035 0.009645041 0.016175406 0.036818467 -0.02803178 0.10556919 0.15416156 -0.07183936
-0.056628507 -0.027346501 -0.036618784 0.06889304 0.10826615 0.08414938 -0.010873071 0.060034268
-0.043969613 0.12224516 0.13569334 -0.045017555 -0.06272664 -0.047114395 0.049198247 0.07564498
0.10976438 0.03843731 0.14408751 0.116443336 0.11973961 0.02675454 0.08440566 0.12848802
0.0119305 0.07295046 0.09641159 0.15912417 -0.016128113 -0.08195213 -0.13069494 -0.016213978
0.06531818 -0.018396046 -0.062294386 0.20345242 0.050074015 0.016525904 -0.025298128 -0.02120314
-0.0006266302 0.03753368 0.07088058 -0.07066949 -0.0015364806 0.0029565806 -0.09206382 0.15801984
0.03178324 0.05856028 0.18281005 0.07111812 0.16954662 0.016112577 -0.12655513 0.03636249
00000000: fae2 3ebd b42f 903d 9c47 2cbd e84f 13bb
00000010: 6126 753d a147 dc3d d3f9 cc3d 1daf 80bd
00000020: af18 d23c e49b 753d e63a 973d dfda 0dbe
00000030: 510e 43bd 0ec4 70bd bba0 d1bc 9c51 93b9
00000040: 6e51 f9bc 4ee6 e23c eddb 053e aab8 163e
00000050: 5385 88bd c43e b93d 7700 803d 27be a33d
00000060: dfb7 0f3e dc87 403d 618c 78bd 41f3 a7bb
00000070: c0bd 323d bbfc dd3d c2d0 1d3e c1b7 1b3e
00000080: 737e b4bd 3dba 77bd 2dc9 bebd 967d 94bd
00000090: d3c9 023e 162b e33d 8258 90bd a1fe 313e
000000a0: 9e1b 3d3d 7e90 8cbc 1bd4 ac3d 00cf 5b36
000000b0: 918e 17bd bde1 dc3c cb1a 263e 5fd0 813d
000000c0: 56ff 88bd b5ab 1c3e 8f7e 22bc 62f3 77bd
000000d0: ae8e fcbc 37c8 3d3e 83f5 103e 3d52 913d
000000e0: 8993 03bd c310 a83d 806f cfbd 1c68 cc3d
000000f0: c1a5 e83d 4c77 7ebd dd3e 2c3e 3ebe 733d
00000100: 61c7 77bb 8e85 3fbd 14fb 85bd 6eb6 c73c
00000110: 9a11 5cbd c9ad 883c 334a 0bbe 265b 4ebd
00000120: dc7b fdbc 3045 e73d 49da 5f3d 30c5 c73d
00000130: 7c93 d33d 00af ebbd 6c46 223c 0182 033e
00000140: ccf4 7bbd a9dd 9f3b 4ddc d43d 2a6f fa3d
00000150: 83d9 92bd 1987 82bd 5929 013d 24e0 963a
00000160: 5ede 70bd 9387 063e 3bfd 66bd a90c 843d
00000170: 9cb2 613d 4b65 ec3c 5a4d a93d ba0d 843b
00000180: 4d8d 5b3d 4d7f e3bd ab43 9ebd e263 87bd
00000190: 9335 ad3c db62 eabd edf5 cc3c 3ca3 b5bd
000001a0: f985 15bd 1337 f0bb dfa6 dc3d e488 3abd
000001b0: 9df8 08bd 94b1 d1bd c0e7 983c 26b1 6d3d
000001c0: 95ef 43bd 04fa ef3c 950a 1c3d 8606 903d
000001d0: ef46 bdbd fa8c aa3c 53a8 fabc d07b 253c
000001e0: c439 4e3d dc05 dfbd 6063 e4bd 9fc3 afbd
000001f0: b990 91bd feba 213d bfc6 013e a6bb 8239
00000200: 340a a23d bc0e a4bd a6dc b6bd 2d4d 313d
00000210: d93b e4bd 0c2e 5ebd 3425 fa3d 690a 183e
00000220: 7b6f e73d 7377 e23d 2e4a 513d cb10 d93d
00000230: baf3 c63d ec6b bc3c bfa0 72bd f455 f2bd
00000240: 2efa a83d f2f9 443d d9ca d03b 72ae 6e3d
00000250: 1a5b 893c 5f36 703d 55dd edbd d26b 103d
00000260: 40ff c1bc 9c0b 923d 4fd3 83bd 74e1 54bd
00000270: b9ed c3bd 5a92 5dbd 2d64 483d d168 6cbd
00000280: 5e34 133e fb0a 3fbd 6980 f23c e09d a63d
00000290: e3d0 c63b ee3f febb 7ebe 9f3d 6a09 eebd
000002a0: 70b1 e63c f406 613d dc5d ebbd 73dd 6b3d
000002b0: e60e c4bd e15e 813d 5ea5 46bd de83 8fbd
000002c0: 88db babd 3c06 1e3c 4982 843c f6ce 163d
000002d0: e7a2 e5bc a934 d83d 87dc 1d3e 8420 93bd
000002e0: 4bf3 67bd c505 e0bc 94fd 15bd cb17 8d3d
000002f0: a5ba dd3d 8356 ac3d f724 32bc 7ee6 753d
00000300: 7b19 34bd ac5b fa3d 32f3 0a3e 5464 38bd
00000310: d376 80bd 06fb 40bd 1a84 493d c1eb 9a3d
00000320: 26cc e03d 7170 1d3d ad8b 133e d879 ee3d
00000330: 0a3a f53d 562c db3c e0dc ac3d 5d92 033e
00000340: 2578 433c 0d67 953d 7173 c53d 72f1 223e
00000350: 1b1f 84bc 85d6 a7bd e5d4 05be 2dd3 84bc
00000360: 8ac5 853d 4eb3 96bc 6628 7fbd d555 503e
00000370: 691a 4d3d 5561 873c 053e cfbc 35b2 adbc
00000380: 7144 24ba ebbc 193d d629 913d 2abb 90bd
00000390: bc63 c9ba 31c3 413b f58b bcbd f4cf 213e
000003a0: 252f 023d e7dc 6f3d 8f32 3b3e 60a6 913d
000003b0: a19d 2d3e 86fe 833c ab97 01be d6f0 143d
