checkpoints/epoch=1-step=100-v6.ckpt (torch, 621663 bytes, 33 tensors)

model.param_proj.proj.0.weight f4 [1, 60]
000000 63 44 14 be fb 3f 1a 3e 4e 12 4e be 14 ca ec 3d
       -0.14479212 0.15063469 -0.2012417 0.11561981
000010 4f 94 01 be 72 3b 22 be e1 20 2f be be 11 3f 3d
       -0.12654231 -0.15842989 -0.17102386 0.04664778
000020 ae 95 8f bd 4c cd c9 bd 9c f2 59 be 10 02 96 bd
       -0.07010971 -0.098536104 -0.21283954 -0.07324612
000030 7c 1c 97 bc 45 12 81 bd 36 ca a8 3d 52 3b 53 be
       -0.0184462 -0.06302313 0.08241694 -0.20628098
000040 80 35 5d 3d 0c 30 61 3d cd ed c9 bd 55 8a f3 bd
       0.0540061 0.05497746 -0.0985981 -0.11891619
000050 e8 74 06 3e 16 b0 09 be 82 a7 3e be 7e 4f f9 3d
       0.13130534 -0.13446078 -0.18618587 0.12173365
000060 3e 7d 17 3e 71 20 4c be ba 37 07 3c ec 18 91 3c
       0.1479387 -0.1993425 0.008253032 0.017712079
000070 70 31 fb bd 48 f9 b6 3d 6c a1 e1 3d 88 19 3e be
       -0.12265289 0.089342654 0.11017117 -0.18564427
000080 cf d1 52 be f3 d1 98 bd a9 96 4e be 18 bc 12 3d
       -0.20587848 -0.0746192 -0.2017466 0.03582391
000090 e1 67 90 3d 66 8f 9e bb e4 c8 23 be 08 56 3f 3e
       0.07051063 -0.004838872 -0.15994602 0.18685162
0000a0 45 f8 45 3e 50 af 35 3e b8 af 09 be 21 d6 2c be
       0.19332989 0.17742658 -0.13445938 -0.16878559
0000b0 7a 5f 6a be 14 59 59 3e fb a1 9b 3d c0 66 1c 37
       -0.22887984 0.21225387 0.07599255 9.322248e-06
0000c0 07 d8 65 3e ff b8 1e be ae 41 36 be 7a 3d c7 bd
       0.22445689 -0.15500258 -0.17798492 -0.097285226
0000d0 0b 23 c4 bd 38 e6 cb bd 3d b7 9a bd f2 47 a7 bd
       -0.095769964 -0.0995602 -0.07554481 -0.08168019
0000e0 ee 46 11 be 37 8e 7b bd 4c 65 17 bc 74 07 be bd
       -0.14187214 -0.061414924 -0.00924046 -0.09278765

model.param_proj.proj.1.weight f4 [1, 60]
000000 1d a8 15 be 69 e2 37 be 9d c0 33 be 0f 73 09 be
       -0.14614911 -0.17957462 -0.17553945 -0.13422798
000010 ae e5 10 be ee b9 3a 3d 46 6f 11 3e 79 86 0c 3e
       -0.14150116 0.045587473 0.14202604 0.13723172
000020 9c d5 0f be e6 0c 1a be ed 00 98 bd 17 ec f7 3d
       -0.1404633 -0.15043983 -0.074220516 0.121055774
000030 8a 80 59 3e 34 80 54 3e 5d 23 4c 3e c6 f6 0e 3e
       0.2124044 0.2075203 0.19935365 0.13961324
000040 d5 1c 22 3e 7f 89 a5 3c 1c 70 29 be eb 84 9e 3d
       0.15831311 0.020207165 -0.16546673 0.07740196
000050 39 5a f5 3d 2a f7 06 3e 08 40 bd 3d b4 34 e5 bc
       0.11980099 0.13180223 0.092407286 -0.027979232
000060 3b df 88 bd 00 12 d9 bd 35 05 f5 bd 8f 42 11 3e
       -0.06683203 -0.10599136 -0.11963884 0.14185546
000070 66 12 c9 bd 85 83 fc bc ae b5 a3 3d a7 e9 1e be
       -0.09817962 -0.030824432 0.07993637 -0.15518819
000080 35 1c 8b bd 46 57 c7 3d d7 2c 75 3c eb aa 53 be
       -0.067924894 0.09733443 0.014964304 -0.20670669
000090 fe f1 38 3e a7 18 95 bd 0f c0 92 bd 31 39 19 3e
       0.18061063 -0.07280093 -0.071655385 0.14963223
0000a0 15 8b ee bd 1f e0 4c 3d fa d8 2f 3e a1 66 6f bd
       -0.116476215 0.050018426 0.17172614 -0.058447484
0000b0 c9 1a a1 3d aa 68 04 3e ea 5c 3c 3e 5f 1f 20 3e
       0.07866437 0.12930551 0.18394819 0.15636967
0000c0 44 df fc bd 9e 77 3b 3e a6 ec 1a 3c 11 63 3e be
       -0.12347272 0.18307349 0.009455835 -0.18592478
0000d0 b3 44 59 3e 81 ed 2b be 8d 5c 63 bd d8 68 c1 bd
       0.21217613 -0.1678982 -0.055508185 -0.094438255
0000e0 d4 00 a0 3d 0b 0f 03 3e d8 1a db bd 85 81 f7 3d
       0.07812658 0.12798707 -0.106984794 0.12085251

model.param_proj.proj.2.weight f4 [1, 60]
000000 f4 6f f5 bb f3 9a 34 3d 59 bb 01 be 65 3a b0 3d
       -0.0074901525 0.044093084 -0.12669124 0.08604888
000010 43 4c 8e 3d 11 a9 9d bd 8e 37 89 bd 68 61 66 3d
       0.069481395 -0.076982625 -0.06700049 0.056245238
000020 70 b9 1f be 80 8f 38 3d 40 ce 9e bd b6 a6 9e bd
       -0.15598083 0.045058727 -0.07754183 -0.07746641
000030 1f 30 0d 3e ff f5 55 3c c7 02 95 3d 8e 1c a1 3d
       0.13787888 0.013059138 0.0727592 0.078667745
000040 21 c6 c4 bd 5d 04 dd bd 6d 0f f0 bd 58 cb 01 be
       -0.096081026 -0.10791848 -0.11721692 -0.12675226
000050 a8 63 c6 bc 90 b5 71 bd cd 1b c5 3d 86 80 7b bd
       -0.024217442 -0.059011042 0.09624443 -0.061401866
000060 37 bd 2a 3b ec 58 89 bd ae 8f b1 3d 97 ac fd 3d
       0.0026052722 -0.067064136 0.08669983 0.123864345
000070 4f 2c 77 3d 1e 04 e0 bd 3c 85 79 bd 8c 26 0a be
       0.06034499 -0.10938285 -0.060918078 -0.13491267
000080 0d 54 22 bd a7 f1 d2 bc 20 e2 0c bd f6 bb dd 3c
       -0.03963094 -0.025749994 -0.034395337 0.027067166
000090 b2 de 3d 3e 64 fe 06 3e cb f5 47 3d ea b2 8e 3d
       0.18541983 0.1318298 0.04881839 0.06967719
0000a0 a1 5b 8a 3c aa bd 6a bd 94 9d 51 bc 0e 04 41 bd
       0.016889395 -0.057309784 -0.012793917 -0.047123007
0000b0 9a 5f 14 bd a6 bc 67 3d 17 8a 0f 3e 86 da bd bc
       -0.036223985 0.056576394 0.14017521 -0.02317549
0000c0 bb 3f a0 3c a3 9a c3 3a d3 04 9f bd 1e 85 5c bd
       0.019561639 0.0014923405 -0.07764592 -0.053837888
0000d0 23 dd 7c 3d 57 04 f7 3c 04 3c 90 bc 4a 97 57 3d
       0.06173433 0.030153437 -0.017606743 0.052634515
0000e0 13 b1 cd bd 0c 6e c5 bd 9e 2e 5f 3d 4c 8e 52 bc
       -0.1004354 -0.096401304 0.054487817 -0.012851309

model.rnn.weight_ih_l0 f4 [240, 24]
000000 ba 26 2c be df 69 c5 3d 22 13 37 be 8d 74 99 3d
       -0.16811648 0.09639334 -0.17878392 0.074929334
000010 54 c9 0c be 9d fa 03 be 5d e1 d2 bd 6c e9 1e 3e
       -0.13748676 -0.1288857 -0.10296891 0.15518731
000020 86 08 0b be 51 28 6d bd c6 d9 91 3c da 42 46 bc
       -0.1357747 -0.057899777 0.017804038 -0.0121009
000030 aa d3 40 3c 1d a2 0d 3e d3 19 6b 3c cd 58 94 3c
       0.011769215 0.13831373 0.014349419 0.01810875
000040 9c 3d c7 3d 14 eb a8 3c 3d dd c4 bd 9f 19 da 3d
       0.09728548 0.020619906 -0.0961251 0.10649418
000050 02 62 da bd 39 32 10 bc c4 cd 10 be b3 a6 8e bd
       -0.10663225 -0.0088010365 -0.14140993 -0.06965389
000060 17 4d 58 be f5 9f 3c be 98 ad 28 bd f8 04 6a bd
       -0.21123157 -0.18420394 -0.041181177 -0.057133645
000070 28 98 f5 bd e8 06 2b be 57 32 5f bd 1c 1d bc bd
       -0.11991912 -0.16701853 -0.054491367 -0.0918524
000080 f2 5a 2e 3d 8c 80 39 3e bd 8c 88 bd a7 44 26 be
       0.0425672 0.18115443 -0.06667469 -0.16237126
000090 1d 1b 16 bd 74 e6 8e bd eb ec 9e 3d 3d ea b8 3d
       -0.03664695 -0.06977549 0.07760032 0.090290524
0000a0 c8 c1 07 3e 6e bb 90 3d f1 fa a2 bd 60 ae c3 bc
       0.13257515 0.070669994 -0.079580195 -0.02388686
0000b0 0a 50 9d b9 6c 54 f6 3d 11 b5 bc bd 1c 7f 54 bd
       -0.00030005007 0.12027821 -0.09214223 -0.051879033
0000c0 22 7b 13 bd 48 89 c3 bd e4 8a cd 3c 45 4f e8 3c
       -0.0360061 -0.09547669 0.025090642 0.028358111
0000d0 4c 7b a8 bc 13 1c 9d bc 2e a1 83 bc f3 79 c7 bd
       -0.020566605 -0.019178426 -0.016068067 -0.09740057
0000e0 36 87 5a 3d 6c ae 99 bd ca cd 17 bd ce 13 09 be
       0.053351603 -0.075039715 -0.03706149 -0.13386461
0000f0 7e 35 17 3d 18 dc 87 3d 09 62 8e 3d 00 ca 73 bd
       0.03691625 0.066337764 0.069522925 -0.059518814
000100 a2 77 78 3c 3d c7 60 be 5a c1 17 bb 3e ba 1d bc
       0.015165241 -0.21951003 -0.0023156018 -0.009626923
000110 22 fa 56 3d d8 f7 a4 bd 3b 22 5b 3d 94 f2 22 3e
       0.05248464 -0.08055085 0.05349944 0.15912849
000120 ae 0b 03 3e c7 9b de bd 1a a4 8e 3d c8 bb 17 3c
       0.12797424 -0.10869556 0.06964894 0.009261079
000130 4a ff 84 bd ff 87 e9 3c 08 5b a8 3d ae b2 d8 bd
       -0.06494005 0.02850723 0.08220488 -0.105809554
000140 4a fc 1a bc 6c 79 3f ba 34 90 e5 bd 39 42 9f bd
       -0.009459564 -0.0007304165 -0.11209145 -0.07776303
000150 0f 4b 77 bd 28 3f 34 ba 29 52 d3 3d eb ae 3a bd
       -0.060374316 -0.0006875866 0.10318405 -0.04557697
000160 fa 4f 41 be fb 9d 23 be 6c 46 f9 3b 8b d4 86 bd
       -0.18878165 -0.15978234 0.007607272 -0.06583508
000170 04 e5 20 be 30 11 ce 3d 33 97 36 3e 73 04 eb 3c
       -0.15712363 0.10061872 0.17831115 0.028688645
000180 50 e0 1a be 14 5e 03 be 35 db fd 3b 31 78 71 bd
       -0.15124631 -0.12828857 0.007747079 -0.058952514
000190 01 96 a5 3c 4b a9 b4 bd 4b 2f 25 bd dd 8b 75 3d
       0.020213129 -0.088213526 -0.040328305 0.059947837
0001a0 d1 1b 7d bd 4d df b5 3c cd af fd 3d 6a 6c 06 be
       -0.061794106 0.022201205 0.12387047 -0.13127294
0001b0 32 52 b9 bd 8f 5a e3 3d 84 50 d3 bd fd a1 f6 bb
       -0.09048881 0.11101257 -0.103180915 -0.0075266347
0001c0 5f fa 82 3c dc bf 1b be f9 43 d1 bd e0 1b 99 3d
       0.015988527 -0.15209907 -0.10218043 0.0747602
0001d0 46 73 af 3d 72 75 b9 3d 89 b7 3d bd de d8 61 3d
       0.085669085 0.09055604 -0.04631761 0.05513846
0001e0 6d bb 09 bd 96 30 dc 3d a3 b9 c6 bd 62 31 9a bd
       -0.03362601 0.107514545 -0.09703376 -0.0752895
0001f0 7c f6 2d 3d 13 c9 b4 bd b0 d1 08 3d 84 fa 4f be
       0.042471394 -0.08827414 0.0334031 -0.20310408
000200 e5 00 a9 bc 74 d4 3f bd 85 cf 67 3d f5 cf 03 be
       -0.02063031 -0.04683347 0.05659439 -0.12872298
000210 63 21 3a be 7b d9 07 bd e4 2a b1 bd 9a 07 ae 3c
       -0.18176799 -0.03316639 -0.08650759 0.02124386
000220 a2 61 fe 3d 5e b9 be bd b7 6a e4 3d 20 ee e5 3d
       0.12420966 -0.093127 0.11153167 0.11227059
000230 8b 27 78 3d a1 f6 8f 3d 52 4b 94 bd 99 4e a1 3d
       0.060584586 0.070294626 -0.07240929 0.078763194
000240 b0 0c 10 3e 06 94 d1 bd 30 25 36 bd 8c 86 07 bd
       0.1406734 -0.10233311 -0.04446906 -0.0330873
000250 34 f2 e1 3d 34 57 4d 3d 5b e1 13 3d c6 50 a7 bb
       0.11032525 0.05013199 0.036103588 -0.0051060645
000260 c8 1c 17 bd 0b 05 1b bd 24 b9 87 bd 73 25 c7 3d
       -0.036892682 -0.037846606 -0.0662711 0.0972394
000270 84 90 cd bd 9f fd 21 3e 9c 28 ea bd a8 71 84 bd
       -0.1003733 0.15819405 -0.11433527 -0.06466991
000280 37 6a ac 3c 78 40 0e bd 6e fe 10 bd cd 0c d1 bd
       0.021046741 -0.03472945 -0.035398893 -0.1020752
000290 75 27 39 3d 73 7b 9d bd 23 88 a9 3d 11 e4 69 3d
       0.045203645 -0.07689562 0.08277919 0.057102267
0002a0 5e b9 cc bc 55 01 aa bc cd 5b 5b bd c0 68 16 be
       -0.024990734 -0.020752588 -0.053554345 -0.14688396
0002b0 18 36 85 3d 76 da 28 bd cf 14 2d 3e a2 d6 69 3d
       0.06504458 -0.041223966 0.16902469 0.057089455
0002c0 2a 1e 6b 3d f8 05 29 bc 02 68 81 bd ad 7f fd 3d
       0.057401814 -0.0103163645 -0.06318666 0.12377868
0002d0 ff c9 e7 bb 9f 07 d7 bd af 03 b9 3d d5 22 14 bd
       -0.0070736404 -0.104995005 0.09033906 -0.03616603
0002e0 0b be 9e 3d 51 ca e2 bd f6 65 00 3d 12 a8 d0 bc
       0.077510916 -0.11073745 0.031347238 -0.025470767
0002f0 7c 26 99 3d 39 00 50 bd e3 70 1d 3c 46 2d 8e bd
       0.074780434 -0.050781462 0.009609434 -0.06942229
000300 c0 0f a0 bc ef a5 c9 bd e3 ea 5e be 4e 28 49 3c
       -0.01953876 -0.098461024 -0.2176929 0.012277676
000310 b7 fd ad bb b8 5b 71 3d 89 cc 31 3c 03 b7 f5 bc
       -0.005309786 0.05892536 0.010851988 -0.029994493
000320 1c a4 fb bd 14 f8 96 bd 83 8a 6a bd 34 1a a4 3d
       -0.12287161 -0.07371536 -0.057261 0.0801281
000330 96 e9 17 bd d1 1a ca 3d d1 8d d5 3d 20 d3 2b 3d
       -0.037088 0.09868396 0.1042744 0.04194939
000340 50 13 09 be e8 a7 45 bd e3 20 84 bd 22 20 a4 bd
       -0.13386273 -0.04825583 -0.06451585 -0.08013941
000350 ad 41 5b bd ba c9 00 3e 87 9e bc 3c ef e1 a4 bd
       -0.05352943 0.12576953 0.02302481 -0.08050906
000360 48 13 b9 bd b8 35 38 3d 23 b8 ae 3d 3d 36 03 be
       -0.09036881 0.044973105 0.08531215 -0.12813659
000370 95 67 b7 bd 89 f2 a6 bd 02 90 d3 3d af eb 44 bd
       -0.089553036 -0.08151729 0.10330202 -0.048076328
000380 a5 b4 77 bd c6 de e5 3c a2 a0 31 be b1 7d 99 bd
       -0.06047501 0.028060328 -0.17346433 -0.07494677
000390 3e 57 f3 3d 98 32 20 bd 3d 4f ba bd e0 e9 fe 3d
       0.118818745 -0.03911075 -0.09097145 0.12446952
0003a0 66 08 0d 3d 7d d0 da bd 1f 73 bd bd d6 af 8c bd
       0.034431837 -0.10684297 -0.09250473 -0.068694755
0003b0 ed f7 6a 3d f4 26 05 3e 59 04 a8 3c a0 25 35 3d
       0.057365347 0.1300314 0.020509886 0.044225335
0003c0 b1 48 5a bd 09 18 d1 3d b4 b0 6d bd d6 80 ef 3c
       -0.05329198 0.102096625 -0.058029845 0.029236238
0003d0 cc 9d f6 3b 55 28 fa 3d 1e 19 85 bc 46 57 9b bc
       0.007526135 0.12214724 -0.016247328 -0.018962514
0003e0 ba 2e 08 be 48 00 f5 bd 3b b2 61 bd a3 f7 0b be
       -0.13299075 -0.11962944 -0.055101614 -0.13668685
0003f0 fa d3 8e bd 53 ae 97 bc 48 39 f1 3c 95 4a ab 3d
       -0.06974025 -0.018515741 0.02944626 0.08363835

model.rnn.weight_hh_l0 f4 [240, 60]
000000 7c 8d 4e bc 30 ef 50 3d fd f7 15 3c 86 4f 22 bb
       -0.012606975 0.051009357 0.009153363 -0.0024766638
000010 9e 5d da 3d 22 40 0e be 92 62 d4 3d 81 51 29 3d
       0.10662387 -0.13891652 0.10370363 0.041337494
000020 1b a3 67 3c 9b 29 00 3e 2d d5 ed 3a 7b 35 8a 3d
       0.0141380085 0.12515871 0.0018145196 0.06748482
000030 26 a4 bd bd cf f5 e5 bd 18 fb e9 3d f7 6b b5 3d
       -0.092598245 -0.11228525 0.114248455 0.08858483
000040 05 f9 48 bd 7a a6 92 bd 67 5d d5 3c 19 db c1 bc
       -0.04906561 -0.07160659 0.026045514 -0.023664044
000050 dc 37 15 3d c6 67 c8 bd 43 d3 71 3d 35 7d 12 be
       0.036430225 -0.09785418 0.059039366 -0.14305575
000060 c2 80 6d 3c e5 1c 9e bd d2 de a5 3d 30 b0 4c 3c
       0.01449603 -0.07720355 0.0809914 0.012493178
000070 68 32 99 bd fe e7 0a be 7c f0 12 3d 93 55 ca bc
       -0.07480317 -0.1356506 0.035873875 -0.024699008
000080 d0 e9 88 3d d7 57 be bd b2 a2 8d 3c e6 84 e3 bd
       0.06685221 -0.09294098 0.017289493 -0.11109333
000090 49 91 94 bc b7 ff 8b bd be 17 ac 3d 1c fd be bc
       -0.018135684 -0.06835883 0.08402966 -0.023314051
0000a0 7b d4 b4 3d 3d 2a 98 3d bb 68 3b 3d bb 68 a6 3d
       0.0882959 0.07429931 0.045754176 0.081254445
0000b0 ff 5e 9b bd b3 0c d4 bc a9 6a 8a 3d 8f 35 a6 3d
       -0.075864784 -0.025884962 0.06758625 0.08115684
0000c0 b6 0b 81 bd fe 6e 2a bd 00 f7 8a bd 56 d5 85 bd
       -0.06301062 -0.041609757 -0.06785393 -0.06534831
0000d0 b4 4c 29 bd b5 d8 61 3d ce ca 07 be 15 c5 19 bd
       -0.041332915 0.05513831 -0.13260958 -0.037541468
0000e0 80 1d 90 3b 8f f2 6a 3c 0f 95 2a 3c 65 0d 2c 3d
       0.004398048 0.014340057 0.010411515 0.04200496
0000f0 26 76 8f 3c 8b 82 49 3d 82 f5 13 be 92 9a 64 3d
       0.017512392 0.04919676 -0.14449123 0.055811472
000100 b3 fe 78 bd 37 be 4c bd 92 ea 94 3d 69 10 9b bd
       -0.060789775 -0.04998609 0.07271303 -0.07571489
000110 8c 50 59 bd c0 7e 86 b9 a7 a9 d5 3d c7 55 8f 3d
       -0.05305533 -0.00025652908 0.10432749 0.069987826
000120 e6 fd ce bb 84 7e ab 3d 1e 9d 22 3e c9 e3 4f bd
       -0.006316888 0.0837374 0.15880248 -0.050754342
000130 88 df 1e 3c a2 62 83 bd e5 61 ed bd a0 ec 8f bc
       0.009696849 -0.06415297 -0.115909375 -0.017568886
000140 ae 54 9c 3d b0 59 10 be 83 e6 0b 3e df a0 dc 3c
       0.07633339 -0.14096713 0.13662152 0.026932178
000150 03 b1 a8 bd e5 24 9f 3d 61 6a 02 3d 69 bf ef 3d
       -0.08236887 0.07770709 0.031839732 0.117064305
000160 b7 14 9b bc 30 a3 0b bd bb c7 0d bd 1d ab 95 3d
       -0.018930776 -0.034091175 -0.034614306 0.07308028
000170 9f b2 4a bd 67 86 7a bd 90 8f 11 bd d7 41 1b be
       -0.049486753 -0.061163332 -0.035537302 -0.15161835
000180 ed 28 6e bd 41 ff 8d bc 2b af 85 bd 22 f7 11 be
       -0.0581445 -0.017333629 -0.06527551 -0.1425443
000190 08 77 97 3d e2 6f ce bd ee 72 0e be ff 6d 55 3d
       0.0739575 -0.10079934 -0.1391103 0.052106854
0001a0 6e ca 9f 3d 40 9b a1 3d a3 69 a1 bd 91 04 04 3d
       0.07802282 0.0789094 -0.07881477 0.032230917
0001b0 fb 5e a3 3c 02 5f b2 b8 a1 18 94 bd 37 0e 5e 3d
       0.019942751 -8.505398e-05 -0.0723126 0.054212775
0001c0 c0 65 dc bd 6f f3 e8 3d 5e c2 6a bd 7f 8d 66 bd
       -0.10761595 0.11374556 -0.05731427 -0.056287285
0001d0 21 d3 b9 3d 27 c2 c3 3d 66 b7 a0 3d b6 0a 33 bc
       0.09073473 0.09558516 0.078474805 -0.010927847
0001e0 53 f8 90 bd 38 ec 6f 3d ca 7d 14 bd d8 d5 84 3d
       -0.07078614 0.058574885 -0.036252774 0.064861
0001f0 dc 8a 60 3d 65 d8 26 bd 60 c8 1d 3d cd 55 66 3d
       0.054819927 -0.040733714 0.03852117 0.05623417
000200 52 12 99 3b b7 69 95 3c 8d 29 c9 3d 26 53 c2 3d
       0.0046713734 0.018238885 0.09822378 0.094885156
000210 f6 49 9a bc 7c d2 a2 bd 6b 56 24 3e 9b 8d 9e 3c
       -0.018834095 -0.07950303 0.16048591 0.019354632
000220 a7 b1 25 3d b0 35 2f bd 32 b3 ba 3d de 2c 50 3d
       0.040452626 -0.04277581 0.0911621 0.05082404
000230 af ff 66 bc f7 33 7d 3d 00 55 0b 3e 03 e5 9d bb
       -0.014099046 0.061817136 0.13606644 -0.00481856
000240 e3 d3 b7 bc b9 16 1f 3b f2 cf bc 3d 32 85 f7 3d
       -0.022439903 0.0024275018 0.0921935 0.12085952
000250 81 6e 01 be 28 86 16 be f6 0c 52 bd 9c 21 6f bc
       -0.1263981 -0.14699614 -0.05128189 -0.014595415
000260 02 fb 17 be 9a 6a 07 be 95 71 cc bd 31 86 cc bd
       -0.14841846 -0.13224259 -0.099826016 -0.099865325
000270 b0 69 98 bd 44 18 a4 3d 42 9b 18 3d e3 a4 7c bd
       -0.07442033 0.08012441 0.03725744 -0.061680686
000280 be 9b 1b 3e e0 c1 f9 3d 08 17 c6 3d e1 23 ed 3d
       0.1519613 0.12195182 0.096723616 0.11579109
000290 cb ce 81 bd ed be 4d 3d d4 40 ba bd 52 2a 45 3d
       -0.06338271 0.05023091 -0.09094396 0.048136063
0002a0 e1 fa 64 3d 4d a5 17 3d 94 3b e8 39 dc e1 c6 bc
       0.05590332 0.037022877 0.00044294877 -0.02427762
0002b0 87 86 ac bc 70 c7 19 3e e2 28 6b bd 3f e0 1d 3d
       -0.021060241 0.15017486 -0.057412036 0.038543936
0002c0 12 2d 24 be f5 00 33 bd 1f 2a 07 be d4 ec 7a 3d
       -0.16032818 -0.043702085 -0.13199662 0.061261013
0002d0 6a cc 35 3e 3f f5 46 bd 1d f1 6d 3b bb 50 24 3e
       0.17753759 -0.04857373 0.0036307045 0.16046421
0002e0 53 c3 7f 3d f7 c8 9d bc b2 48 b5 bd 6c 75 95 bd
       0.062442135 -0.019260867 -0.08851756 -0.07297787
0002f0 66 a3 85 bd d4 fa e9 bd 7f a7 37 3d 9e c4 1a bd
       -0.065253064 -0.11424795 0.04483747 -0.037785165
000300 b0 da 82 bd d9 01 44 3d df b2 8e 3c 1b fe 69 3c
       -0.063893676 0.047853325 0.017419277 0.014281775
000310 66 6f e2 3d ff 1a 5e 3c 2d 6a 0f bd 3e 0e 26 be
       0.11056404 0.013556241 -0.035013366 -0.1621637
000320 fe 31 96 bc c1 d5 27 bd c0 c2 f8 bc d9 14 17 3d
       -0.018334385 -0.040975336 -0.030366302 0.036885116
000330 66 9c 0a bd 6f 2e d2 bd 2d ba 0f 3c 24 35 3a 3e
       -0.03384056 -0.10262763 0.008772415 0.18184334
000340 59 3d a7 3d ee e1 98 3c 1d 68 3e 3d 7f 38 70 3c
       0.08165998 0.01866242 0.04648601 0.014661907
000350 d0 40 a9 bd fc 8b d5 3b 50 5c 1f bd e3 00 c2 bd
       -0.08264315 0.0065169316 -0.038906395 -0.094728254
000360 b5 4c ac 3b 4f fa 2a 3e ed cc 02 be fb 55 d4 bd
       0.0052581676 0.16697048 -0.12773485 -0.10367962
000370 2a 5c b4 3d a9 51 a7 bd 28 fc 08 be ab 1a 46 bd
       0.088066414 -0.08169872 -0.1337744 -0.048365276
000380 63 d5 40 3c 5c ee 30 bd f1 af 03 be 4b b1 95 3d
       0.011769625 -0.043196067 -0.12860085 0.073092066
000390 0e 0c 31 3e f2 30 9a 3d 73 8d 83 3c 57 9c 44 be
       0.17289755 0.07528867 0.01605866 -0.19200264
0003a0 54 25 7d 3d bf 59 a2 bd b1 71 0b be 97 f1 15 3b
       0.061803177 -0.07927274 -0.13617589 0.0022879594
0003b0 7e c9 f3 bd 2f 0a 92 3d 21 4c 92 3c 8b 97 4b 3d
       -0.11903666 0.071308486 0.017858567 0.04970507
0003c0 f1 c7 2f bd 0e 5e cf 3d f0 b0 0a be 74 54 97 bd
       -0.04291529 0.101253614 -0.13544059 -0.07389155
0003d0 f5 2a da bd 64 19 7e bd 56 1b 74 bd 40 73 55 bc
       -0.10652725 -0.062035933 -0.059596382 -0.013027966
0003e0 f4 5b 4c 3d dd 72 9f 3d d2 e5 bb 3d 38 e0 69 bd
       0.04989238 0.0778558 0.09174694 -0.057098597
0003f0 92 ab dd bd 05 e6 57 bd ac b4 0d 3e 9b b1 3f 3d
       -0.1082374 -0.052709598 0.13838452 0.046800237

model.rnn.bias_ih_l0 f4 [240]
000000 6f 02 41 3d c5 60 0e ba a9 48 a3 bd 56 96 98 3c
       0.04712146 -0.000543129 -0.07972843 0.018626373
000010 ac c1 44 3d ad e1 0d 3e 4b 38 22 bc ad 14 d8 bc
       0.048036262 0.1385562 -0.009901117 -0.026377046
000020 7c fd a1 3d f0 f5 b8 bd db 16 37 3e 68 7a bd 3c
       0.079096764 -0.09031284 0.17879812 0.023129657
000030 8c 8b 27 3a a4 8d 13 3e 41 7c a9 bd a2 63 f6 3d
       0.00063913385 0.144095 -0.08275653 0.12030722
000040 74 19 5f 3d 9b 8b 88 3d 9c bb 00 3e 57 8b 2a 3e
       0.054467633 0.06667253 0.12571567 0.16654716
000050 d4 23 92 3d f7 d5 3b 3e 48 76 10 3e ce ea 3a 3e
       0.0713574 0.1834334 0.1410762 0.18253633
000060 aa 9e 5b 3c 44 24 ae bd d3 ad 1f 3e eb 24 8c 3c
       0.013404528 -0.08503011 0.15593652 0.017107448
000070 73 b2 d9 bd 87 17 e8 bc da 38 6c 3b ee 5a 11 3e
       -0.106297396 -0.028331531 0.0036044628 0.14194843
000080 f1 5e 86 3d 2f 3b 7f 3d e4 10 f6 3c 6a cf 1f 3e
       0.065610774 0.0623123 0.030037351 0.15606466
000090 38 43 e7 3d eb 0b 62 3b 41 fd a8 3d 84 5f 4f 3d
       0.11292118 0.0034491967 0.08251429 0.0506282
0000a0 23 33 90 bd d2 91 74 bd 58 20 b5 3d e0 ac 95 bd
       -0.070410036 -0.059709378 0.0884406 -0.07308364
0000b0 05 d0 8a bd bd 6b d3 bd 2b bf 37 3e ba 9e cf 3d
       -0.06777958 -0.10323284 0.17944019 0.101376966
0000c0 eb 5f 07 3e 3e ac 5e 3c e2 29 47 bd 10 18 d3 bc
       0.13220184 0.01359087 -0.048623927 -0.02576831
0000d0 f6 dd 30 3e 90 9f 97 3d dd 01 35 3e ba 40 e9 3d
       0.17272171 0.07403481 0.17676492 0.11389299
0000e0 39 60 82 3d b0 89 64 3d cd fa 41 3e 6f 41 cc 3d
       0.06366009 0.05579537 0.18943329 0.09973418
0000f0 62 13 a7 bb 7b 32 4e 3d 2b cd 2d bd ee 98 3e 3c
       -0.005098746 0.05034111 -0.04243199 0.011633141
000100 f3 c5 d4 bd 4e 1b eb 3c 3e e2 8c bd 89 af 99 3d
       -0.10389318 0.028699543 -0.0687909 0.07504184
000110 06 03 b6 3d 06 43 c9 3d 15 6c a5 3b 77 50 97 3d
       0.088872954 0.09827237 0.005048285 0.07388394
000120 2d db 94 3d 7e fd 9b bd 5e 71 d8 bd 47 61 9f 3d
       0.07268367 -0.07616709 -0.10568498 0.07782226
000130 59 8b b9 3d 32 fc 25 bd 84 76 15 3d 63 92 a9 bd
       0.090597816 -0.040523715 0.03648998 -0.08279874
000140 cf 21 bb bd 44 83 d7 bd fc ec c7 3d bd 82 52 bd
       -0.09137308 -0.10523084 0.09761998 -0.051394213
000150 3e d2 01 3d 56 99 80 3d 4c 98 d5 3d 41 20 dc 3d
       0.031694643 0.062792465 0.10429439 0.107483394
000160 ca ca c8 3d 50 df 58 bd f4 8c 6a bd 08 ce d4 bc
       0.09804304 -0.052947342 -0.05726333 -0.02597715
000170 d5 96 b5 bc 77 5e a3 3d 66 ec d3 3d 5c 0d cb bd
       -0.022166649 0.07977002 0.10347824 -0.099146575
000180 76 3a 30 bc 42 89 f8 3d ff 55 b1 bd 4b c5 37 3d
       -0.010756126 0.12135555 -0.086589806 0.044865888
000190 68 5d fd bc 92 1b d1 3d fe c7 d8 3d a4 ba ef 3c
       -0.030928329 0.10210337 0.105850205 0.029263802
0001a0 57 c2 4c 3d ba c2 9d 3c 06 a3 72 bd 6f d7 85 3c
       0.049990024 0.019257892 -0.059237503 0.016338078
0001b0 44 4c 17 3e 95 1b 62 bd 00 67 3d bc 57 22 a7 bd
       0.14775187 -0.055202086 -0.011560202 -0.08160847
0001c0 20 1c 86 bd 5b 5b f6 bd e8 6c b4 bc 4a 3f e9 bc
       -0.06548333 -0.120291434 -0.022024587 -0.028472561
0001d0 82 a7 79 3d e9 02 6a bd e0 69 70 bd ff f3 92 bc
       0.060950764 -0.05713168 -0.05869472 -0.017938612
0001e0 78 7c 0b 3e c0 2f 72 bc 68 fe b9 3d 65 3e 8e 3d
       0.136217 -0.014781892 0.09081727 0.069454946
0001f0 55 e4 b5 3c 7f 13 b5 3d 56 73 1c 3d 36 ee 02 3e
       0.022203604 0.08841609 0.03819593 0.12786183
000200 e6 43 af 3c 81 cc 5a bd 5a fa 99 bd 5b 66 bf 3d
       0.021394681 -0.053417686 -0.07518454 0.09345695
000210 2c 65 ff bd 2a 8f b7 bd 4b a2 1b bd 50 ea 19 3d
       -0.12470469 -0.08962853 -0.03799657 0.037576973
000220 7b 91 31 bc 69 35 01 3e a5 d8 07 be 1b 29 a1 bd
       -0.010837908 0.1261803 -0.13266237 -0.07869168
000230 bd 47 d2 bc 15 53 0d bd c4 93 9e bd 57 43 e5 bd
       -0.025668973 -0.03450306 -0.07743028 -0.11194485
000240 ab 52 95 bb a1 81 f4 bc a0 56 be 3d ed cc 8f bd
       -0.004556974 -0.029846968 0.09293866 -0.07021508
000250 1b 00 c1 bd 8a 14 41 3d 2a 56 48 3d c1 b3 ae bd
       -0.09423848 0.04713873 0.048910297 -0.08530379
000260 95 87 ae bd 73 0a 08 be 0e e5 90 3d 3a 53 d6 3d
       -0.08521954 -0.13285236 0.07074939 0.10465093
000270 b9 b2 6d bb 04 7f bd bd 60 6b eb 3d 6b 47 a5 3d
       -0.0036269857 -0.09252742 0.114950895 0.080702625
000280 b7 23 4b 3d db 93 ee bb 78 22 86 3d f6 15 a1 3c
       0.049594607 -0.0072808093 0.06549543 0.019663792
000290 8f 25 c4 bd b3 52 bb bd 7b bf d7 3d 4a 78 cc 3d
       -0.09577476 -0.09146633 0.10534569 0.09983881
0002a0 0f db 3e bd c4 1d cf bd 13 e3 0a 3e bd 56 08 be
       -0.04659563 -0.10113099 0.13563184 -0.13314338
0002b0 a0 91 d0 3d d5 81 77 bd 79 61 8d 3d 82 3a b9 bd
       0.10184026 -0.06042655 0.06903357 -0.090443626
0002c0 ba d8 8a 3b a2 0a ec 3d e8 64 1b bd c9 c5 a7 bd
       0.0042372616 0.115254655 -0.03793803 -0.081920214
0002d0 62 85 8b bc 68 38 6f bc b9 4d 1c bc 81 a8 d8 3d
       -0.017031375 -0.014600851 -0.009540015 0.105790146
0002e0 02 c8 7f bd 1b 8e fe 3d ca 5f 8c 3d d0 b4 f5 3d
       -0.0624466 0.12429448 0.06854208 0.11997378
0002f0 d0 32 36 bd a3 a7 cd 3d a2 d9 4a bd 8e 49 0a bd
       -0.044482052 0.1004174 -0.049523957 -0.033761553
000300 86 b5 91 bc 99 62 aa 3d 0d 27 97 bc bf 43 da 3d
       -0.017786752 0.08319587 -0.018451238 0.10657453
000310 d6 04 65 bd cf 6a 75 bc e5 e4 67 3d 48 ee 12 3d
       -0.055912815 -0.014979078 0.056614775 0.035871774
000320 46 55 77 3d c2 84 fb 3d c3 6e ee 3d 83 07 41 3e
       0.060384057 0.12281181 0.1164222 0.18850522
000330 c0 b6 4e 3e 9e 84 a0 3b db c0 5d bd 83 d0 67 3d
       0.20186901 0.0048986217 -0.054139 0.056595337
000340 22 9b b6 3c 50 05 a3 3d a7 88 f2 3d 05 53 a6 3d
       0.02229077 0.07959998 0.118424706 0.081213035
000350 27 36 f8 3d 2c 12 cd 3d 9a 5b c6 bd b0 dc d4 3d
       0.12119704 0.10013232 -0.0968544 0.10393655
000360 8b 29 b7 3d 4e 3c 96 3d 69 45 89 3d c9 e2 8d 3d
       0.089434706 0.07335721 0.06702692 0.069280215
000370 5f ee 56 3c a3 2f d0 bb 0f 9a 6e bc 22 98 99 3d
       0.013118356 -0.006353335 -0.014563098 0.0749972
000380 f0 3d 13 bd d0 3f 5b bd 51 0c ff 3d 9b 5b 92 bd
       -0.03594774 -0.053527653 0.12453521 -0.071463786
000390 56 d9 f2 3d 26 89 6c bd 99 64 eb 3c 45 2d c1 3c
       0.1185786 -0.057747982 0.028734492 0.023581157
0003a0 7c 2b 2e bd b6 5c 17 3d 8e 93 78 bb 3e a9 51 3d
       -0.04252194 0.03695365 -0.0037929746 0.051186793
0003b0 6c 78 9e 3c 31 63 ae 3d cc 00 7b 3d 8a 63 e5 3d
       0.019344531 0.08515013 0.061280057 0.11200626

model.rnn.bias_hh_l0 f4 [240]
000000 a0 ab b2 bd e2 1f 98 bd 84 ab 0f 3e 75 8e e5 3d
       -0.08724141 -0.07427956 0.14030272 0.11208812
000010 42 6a fa 3c 62 1a 06 3e 76 b7 8d 3c e9 ae 56 3d
       0.030568246 0.13096002 0.017299395 0.0524129
000020 24 a0 c4 3d fe 6b 2c bd 18 67 23 3e 58 17 bc 3d
       0.09600857 -0.042095177 0.15957296 0.0918414
000030 98 ab 0a bd 48 7c 8c 3d 8e ad cd bd 36 5a 9e bd
       -0.03385505 0.06859642 -0.100428686 -0.0773205
000040 68 a0 1a bc 6e 47 73 bd 4c 89 8a bc ef 76 db 3d
       -0.009437658 -0.059394293 -0.016911171 0.10716044
000050 54 bb 1f 3c 86 13 f1 3d 28 16 05 3e 8f bc c9 3d
       0.009749252 0.11771302 0.12996733 0.09850418
000060 58 c4 f5 3d ec 28 82 3b 7e 93 03 3e d3 11 46 3d
       0.1200034 0.0039721634 0.12849233 0.048356842
000070 a4 ad d4 3c 54 98 f8 3c 6c f4 e9 3b 33 ab c2 bc
       0.025961705 0.030346073 0.007139733 -0.023763275
000080 24 80 54 ba 1c 57 ec bc 18 31 a6 bd cb 4d bb 3c
       -0.00081062526 -0.02885013 -0.08114833 0.022864243
000090 ad 8d ab bd 22 48 4d 3c 2f 17 b0 3d cb b1 cc 3d
       -0.08376632 0.012529405 0.08598172 0.09994849
0000a0 4f 6f c6 3d c7 4e 8d bd 18 6b 42 3d 48 28 3d 3d
       0.09689199 -0.06899791 0.047465414 0.046180993
0000b0 e9 00 90 bc ad 5b 57 3d 1f 33 ca bc 3c 81 1b bd
       -0.017578559 0.052577663 -0.02468258 -0.037965044
0000c0 ab 6e a4 bd 29 7c 2d 3e 63 22 42 3d 07 f5 19 3e
       -0.08028921 0.16941895 0.047396075 0.15034877
0000d0 39 fb 44 3e a4 e1 16 3e 83 7c 86 3c 2f 00 6b bd
       0.19236459 0.14734513 0.016416794 -0.057373222
0000e0 13 a6 0c 3e 7d dd 81 bd a9 c6 10 3e 2d 9d 13 3e
       0.13735227 -0.06341074 0.14138283 0.14415427
0000f0 6e b8 9b 3d 6b 8a 25 bd 4a 88 e0 3c 63 94 09 be
       0.076035365 -0.04041521 0.027408738 -0.13435511
000100 f2 8e 55 3c a0 1b e0 3b f8 b7 4b 3d 87 c1 b1 3d
       0.013034569 0.0068392307 0.049735993 0.086794905
000110 0e 99 f9 3d d1 11 b0 3d 09 cb 03 bd da ee 77 3d
       0.12187396 0.08597148 -0.03217605 0.06053052
000120 ea 76 90 3d 2a 0f 50 3d b8 e0 a6 3d 18 08 be bd
       0.07053931 0.05079571 0.081483305 -0.092788875
000130 c4 ce 08 3e 2f 5b 1b 3e 31 d4 ff 3d 2b cf 2e be
       0.13360125 0.15171503 0.12491644 -0.17071216
000140 78 6e 9f 3c 48 5d 1a 3e bf 38 e9 3c f5 08 78 bd
       0.019461855 0.15074646 0.028469441 -0.060555417
000150 d9 8a 55 bc e5 1a 37 bd e3 76 e1 bd 58 77 05 3e
       -0.013033592 -0.044703383 -0.11009004 0.13033807
000160 bb 35 09 bd 33 ec dc bd 57 12 d1 3d 18 4f 0c 3d
       -0.033498507 -0.10787239 0.10208576 0.034255117
000170 1d d9 65 3d de 6c df 3d d3 26 cd 3d ac 18 31 bc
       0.05611526 0.10909437 0.10017171 -0.010809105
000180 e3 50 91 bd b1 dc a6 bd 33 e3 e6 bd 00 a4 0e bd
       -0.07095506 -0.08147562 -0.112738036 -0.03482437
000190 ec ae 62 3d da e0 ef bd e9 15 97 3d 3b 9a fc 3c
       0.0553426 -0.11712809 0.07377226 0.030835262
0001a0 28 a9 f0 3d 3b 6c ca bd 00 23 0d bb 69 04 fd 3d
       0.11751014 -0.098839246 -0.0021535754 0.12354357
0001b0 ca 13 1a 3e b5 6c a8 3d ae 05 86 3d 68 08 38 3d
       0.15046611 0.08223859 0.06544052 0.04492989
0001c0 f0 57 6a bd 19 5e cc bd a1 dd f1 3d c0 bb f0 bd
       -0.05721277 -0.09978885 0.118098505 -0.117545605
0001d0 5b f2 14 3c 47 b8 1e bd e6 d4 d9 3c 49 65 f1 3d
       0.009090985 -0.03874996 0.026590776 0.11786897
0001e0 5a 02 86 3c 1e e6 79 3d 18 a2 a7 bc 03 54 d2 3d
       0.016358543 0.061010472 -0.020463035 0.1026993
0001f0 d7 7c c2 bd 1e b0 d5 bd da 72 2e bd 08 09 4a bd
       -0.094964676 -0.10433982 -0.04259 -0.04932502
000200 cf 1c dd 3b 7b a6 d2 bd 84 08 0c 3e 12 4d d9 bd
       0.006747819 -0.1028566 0.13675123 -0.10610403
000210 da 5d fc bc ff 06 10 be e3 a3 00 3e c2 f8 bd 3d
       -0.03080647 -0.14065169 0.12562518 0.092759624
000220 3c e2 12 3e 11 26 0e 3e 88 01 00 3d 4c 5d 85 3d
       0.14344114 0.13881709 0.03125146 0.065119356
000230 3b 59 d9 bd 7e 3c bd bd bb e7 5a 3d e6 3a 98 bc
       -0.106127225 -0.092400536 0.05344365 -0.018582772
000240 17 c8 22 bd 38 1f 01 be aa 09 0c 3d b9 ab 5c 3d
       -0.0397416 -0.12609565 0.034188904 0.053874705
000250 bb fa 09 bd 04 c9 f4 bd e8 75 54 bd f5 43 9f 3b
       -0.03368638 -0.11952403 -0.051870257 0.004860396
000260 76 98 69 bd 24 e3 66 3d c9 1d 70 bd 8c ce f0 3d
       -0.057030164 0.056368962 -0.058622155 0.11758146
000270 9e 02 1c 3d 10 cd 6a 3c e0 7d d6 bd c3 db 96 3c
       0.038088433 0.014331117 -0.104732275 0.018415337
000280 30 e5 7f 3d 61 d2 82 3d 2b ad ae 3d 4c 58 36 3e
       0.06247443 0.06387783 0.08529123 0.1780712
000290 23 8e 03 be 4f fe 9e 3c a8 d3 29 3d 97 b6 76 ba
       -0.1284719 0.019408373 0.041461617 -0.0009411363
0002a0 26 c0 d3 3c 38 c9 04 be 17 1e ce 3c 98 35 33 3c
       0.02584846 -0.12967384 0.025160832 0.010938071
0002b0 6e 11 cc 3d 08 25 a7 bc f1 65 1d bd e9 d4 85 3d
       0.09964262 -0.0204034 -0.038427297 0.0653475
0002c0 af 79 e2 bd 4e b0 e0 3c 8b e2 4a bd 6f 3e 09 b9
       -0.110583656 0.027427819 -0.049532454 -0.00013088596
0002d0 91 2f 55 bc 59 2c 76 bd 70 4d 73 3d 34 76 07 3e
       -0.013011829 -0.060100887 0.059400022 0.13228685
0002e0 98 78 b4 3d eb 20 d2 3d 27 2b 9c 3d 27 15 b6 bb
       0.08812064 0.10260185 0.07625418 -0.005556721
0002f0 bd 06 b2 bb 6b 56 0c be cf 63 9a 3d 87 f3 e6 bb
       -0.005432932 -0.13704841 0.07538568 -0.0070480737
000300 6b 1d e8 3d a0 31 10 3d ba c9 f4 bc 5e e1 0c 3e
       0.11333736 0.035203576 -0.029881347 0.13757846
000310 8f 0c 39 bc 6b ed 98 3d 3b a7 78 bc 5f 9c 89 bd
       -0.011294498 0.07467159 -0.01517659 -0.067192785
000320 3d 0e 21 bc 5b e7 b3 3d a3 fe 57 bd 6b 56 54 bd
       -0.009830055 0.08784362 -0.052733075 -0.051840227
000330 c3 5a 0f 3e 5d 64 a5 bd 5d 02 bc 3d 87 45 10 bd
       0.13999467 -0.080757834 0.09180138 -0.035222556
000340 67 e8 59 3c 2c 4b 91 3d 2d 26 f0 3c f4 b4 81 bd
       0.013300038 0.07094416 0.029315079 -0.06333342
000350 76 97 fd 3d 31 6d a9 ba e2 65 93 bd e7 07 b1 bd
       0.123824045 -0.0012926218 -0.07197167 -0.086440854
000360 29 b0 c9 bc f8 81 0a 3d 21 5b 2a 3e 5a 61 bd 3d
       -0.024620133 0.033815354 0.16636325 0.09247084
000370 c8 74 45 bb aa 25 a3 3d 29 a8 8d 3b 17 07 a9 bd
       -0.0030129422 0.07966168 0.004323025 -0.082533054
000380 e3 cc 57 bd d1 aa c5 bd bb 91 3d 3e 20 d6 3b 3c
       -0.05268563 -0.09651721 0.18512623 0.011464626
000390 ab 10 a9 3b 5e 35 7e bd dc 06 02 3e bd c6 00 3e
       0.0051594577 -0.062062614 0.12697929 0.12575813
0003a0 cb e9 99 3d d2 75 fb 3d 5a a9 86 3b 2c 9a c1 3d
       0.075152956 0.12278332 0.0041095437 0.09453234
0003b0 19 ab 83 bd f0 7f 9c bd 86 e8 09 3e 24 2b 8f bd
       -0.06429119 -0.0764159 0.13467607 -0.0699065

model.rnn.weight_ih_l1 f4 [240, 60]
000000 c6 9b ab 3d 16 99 3b 3e 32 9c 04 3e 5d 2e c9 3d
       0.08379321 0.18320116 0.12950209 0.09823296
000010 dd 1a 97 3d 0f b5 22 3c 2b 63 2e bd 90 f0 83 bd
       0.07378171 0.009930863 -0.042575043 -0.06442368
000020 30 b6 2f be cb 81 5c 3d 66 86 ed 3d e8 d5 2c 3e
       -0.17159343 0.053834718 0.115979 0.16878474
000030 09 78 14 bd a2 94 66 3d 7f dd 33 bd 7e cf 80 3d
       -0.036247287 0.05629409 -0.043912407 0.06289576
000040 43 41 de 3c 18 f7 11 3e 68 ff 6f 3d ff 35 d8 bd
       0.027130729 0.14254415 0.058593184 -0.10557174
000050 34 65 fe 3c 01 7f 6b bc 98 e0 31 3e f2 44 92 3c
       0.031054117 -0.014373542 0.17370832 0.017855141
000060 f7 d3 3f 3d d5 39 c8 3b 7a 5e 9a bd 37 21 fd bc
       0.046833005 0.0061104097 -0.07537551 -0.030899627
000070 b3 3f 74 bd 24 69 0d be 55 1a 32 bd bc 1d 46 bd
       -0.05963106 -0.13809639 -0.043482143 -0.0483682
000080 1a e0 22 3c 8b 09 c5 bd 78 7a 0a be 35 ff 41 be
       0.009941125 -0.09620961 -0.1352328 -0.1894501
000090 cb 07 1e 3d 3f 69 bf bd 7e ac 01 be da 4e 57 bb
       0.03858165 -0.09346246 -0.12663457 -0.0032853396
0000a0 89 de 8f 3c 58 be 3f 3c de e1 0a 3d 6d d7 17 bd
       0.017562168 0.011703096 0.03390681 -0.03707068
0000b0 21 63 0a be 2f dc e9 3c 5d 76 31 bd 31 81 35 bd
       -0.13514377 0.028547375 -0.04332577 -0.04431266
0000c0 41 11 1a 3e 70 ec 10 be 7c c1 8e 3c 51 e5 4c be
       0.15045644 -0.14152694 0.017426245 -0.20009352
0000d0 dc ba 4a be d0 22 a4 3d d9 87 48 bd f5 2f 0a be
       -0.19797844 0.080144525 -0.04895768 -0.13494857
0000e0 f7 10 24 3e 09 2b 76 3d 14 ed 0e be db df 86 3d
       0.16022097 0.060099635 -0.13957626 0.06585666
0000f0 a3 a1 df 3d f4 97 4a 3c da 61 7f 3d 23 72 c0 3d
       0.10919502 0.01236533 0.062349178 0.0939677
000100 3c 02 c8 bc ec 9d 70 bd b8 a3 12 bd db d8 77 3d
       -0.024415128 -0.058744356 -0.035800666 0.060509544
000110 9f 84 bf bd 35 38 a8 3d 62 af 93 3d b7 46 0b bc
       -0.09351467 0.08213846 0.07211186 -0.008500746
000120 4d ab 96 3b fc 96 54 3d 7b 92 f5 bd bb 62 2c bd
       0.0045980574 0.051901802 -0.119908296 -0.042086344
000130 e6 1a b4 bd 58 ce ba 3d 71 25 3c 3d 83 12 8d 3d
       -0.08794193 0.09121388 0.045934144 0.068882965
000140 f3 7f 5a 3b a2 82 d8 bc b8 7d 42 bd df 82 9f bd
       0.0033340424 -0.026429478 -0.047483176 -0.077886336
000150 9a bd 84 3d 2e 13 87 bd 07 0e f7 3d 2b 6b cf bd
       0.06481476 -0.06595455 0.120632224 -0.101278625
000160 77 ae ea bc 33 f5 23 be 60 03 26 3d ed 13 e1 bd
       -0.028647644 -0.16011505 0.040530562 -0.10990129
000170 1a 62 2a be 40 28 90 3d ac 50 a9 bd 5b 4a 38 bd
       -0.16638985 0.07038927 -0.0826734 -0.044992786
000180 68 55 20 bd 26 6e a7 3c b9 18 34 be 89 8a 8d 3d
       -0.03914395 0.020438265 -0.17587556 0.06911189
000190 78 6c 87 3d fb 75 61 3d 5a e9 f0 3d f5 22 e5 3d
       0.06612486 0.055044156 0.11763258 0.11188308
0001a0 94 6c ea bd f4 66 fd bd 86 71 4c be c5 0c b6 bc
       -0.11446491 -0.123731524 -0.19965181 -0.022222886
0001b0 a8 04 eb bd 4d 57 8c 3c b7 e6 0a bd c3 a3 b2 bd
       -0.114754975 0.017131472 -0.033911433 -0.08722641
0001c0 50 9a 03 3e d7 52 89 bd 28 b4 2b 3e 2e e7 5e 3d
       0.12851834 -0.067052536 0.16767943 0.05441969
0001d0 a4 0b b3 3c 47 fe d8 3d 05 00 31 be ee 07 b3 bd
       0.021856137 0.105953746 -0.17285164 -0.08741747
0001e0 8f 8a 0f 3d 5d c1 31 3e a9 76 a2 3c 9f 4c d6 bd
       0.03504425 0.17358918 0.019831972 -0.10463833
0001f0 34 ba 0c be 49 54 17 3e a6 bc 04 be b8 82 e4 bc
       -0.13742906 0.14778246 -0.12962589 -0.027894363
000200 5b aa bf 3c 5e fe c9 3d ac 43 87 3c a3 62 9b 3d
       0.023396662 0.0986297 0.01651176 0.07587173
000210 9a 54 6d ba 4f 41 0e be db 69 fb bd bc 9e 0e 3e
       -0.0009053439 -0.13892101 -0.1227605 0.1392774
000220 06 58 66 bd 3c 7f bc 3d 96 c7 dc bb 1e 7f d0 bd
       -0.05623629 0.092039555 -0.0067376597 -0.10180496
000230 d5 27 a4 bd e4 b8 14 be 60 3b 7e 3d 3e 1d 81 3d
       -0.0801541 -0.14523655 0.062068343 0.06304406
000240 8e bd 4d be ba 80 e2 bd db a8 3e 3c 36 a4 21 bd
       -0.2009184 -0.11059709 0.011636938 -0.039463244
000250 89 65 f5 bc 5a fe e0 bd 39 b3 8b bd 3e 0b da 3d
       -0.029955642 -0.10986014 -0.068212934 0.106466755
000260 4d 10 49 3e f8 eb e7 3b 67 f9 5f 3d da 81 18 be
       0.19635125 0.00707769 0.054681208 -0.14893284
000270 47 47 ab 3d 2f 8d 10 3d 6f 0c ee 3d d8 9b 5b bc
       0.083632044 0.035290893 0.11623465 -0.013403855
000280 8e a4 b2 bd 8a 93 3b 3d fe 30 94 bd c0 de d1 bd
       -0.087227926 0.045795 -0.07235907 -0.10247564
000290 c3 6c b2 3d d2 ed 72 ba b4 86 ac 3d 4e 20 29 bd
       0.08712151 -0.00092670054 0.0842413 -0.041290574
0002a0 a8 c5 37 3e fe ba 04 be 34 c7 85 bd cb 90 2d be
       0.17946494 -0.12961957 -0.065321356 -0.16949765
0002b0 aa f7 b2 bd 88 f1 21 3e 12 4a a4 3b 2e d7 a4 3d
       -0.087386444 0.15814793 0.0050137127 0.08048855
0002c0 20 ee 2b 3e 13 f0 69 bd 7f 3b 3b bb 50 a8 2e 3d
       0.16790056 -0.05711372 -0.0028569398 0.042640984
0002d0 5a 04 df bc f0 8d 46 3d 3e e0 e7 bc a7 a3 d2 3c
       -0.027223755 0.048475206 -0.02830517 0.025712801
0002e0 06 43 ea 3b 98 15 02 be ed ce a4 3d 7f 89 28 3e
       0.007149103 -0.1270355 0.080472805 0.164587
0002f0 e6 06 8b 3c 95 b3 b8 bd 9c 50 0b be da 5f 97 3c
       0.016971063 -0.090186276 -0.13604969 0.018478323
000300 73 dd 9d bc d1 63 ef bd 50 c5 8a 3d f4 05 64 3d
       -0.019270634 -0.1168896 0.067759156 0.05566974
000310 9c 55 7c bd 8a f9 04 3e 03 83 81 3b b0 77 75 3d
       -0.06160508 0.12985817 0.0039523854 0.059928596
000320 5c 05 7f bd 17 b9 75 3c 94 e5 d9 3d 58 08 33 3d
       -0.06226097 0.014997742 0.10639492 0.04370913
000330 bd 03 2f 3d 1e c8 b7 3c 85 33 2f 3e 00 65 aa bd
       0.042728174 0.02243429 0.17109497 -0.083200455
000340 ca 2a 2b be 27 72 f6 bd 86 68 83 3d bc 16 75 bd
       -0.16715541 -0.120334916 0.06416421 -0.059836134
000350 5a 18 2e 3d 1d 1e 3c 3d 22 55 1e 3d f1 e4 22 be
       0.042503692 0.045927156 0.038655408 -0.15907647
000360 40 80 f2 bc 5c 0e d7 bd 15 1b bd bc 16 40 0f be
       -0.02960217 -0.10500786 -0.023084203 -0.1398929
000370 36 70 1e 3d 0c f1 03 3e 96 4f 98 3d 7c 7c 96 bd
       0.03868123 0.12884921 0.07437055 -0.07347962
000380 0e 82 b9 bc 50 52 62 bb 7c ae 19 3d 1f 3d bc 3d
       -0.022645023 -0.0034533925 0.037519917 0.091913454
000390 40 20 3b 3d 0f 61 1d be 75 fe 93 3d cb 42 a6 3d
       0.045685053 -0.15369056 0.07226268 0.081182085
0003a0 ae 0d a6 bd ac f2 0b be ba e5 cd 3a 42 ec 29 bd
       -0.08108078 -0.1366679 0.0015708723 -0.04148508
0003b0 15 4c b1 bd 0c d8 8c bd 70 6a 91 3d 1f 23 04 bd
       -0.086570896 -0.06877145 0.071003795 -0.032260057
0003c0 30 5c 0b 3e c3 bd e9 3d 61 9f 9b 3d f1 46 b6 3c
       0.13609385 0.11413147 0.075987585 0.022250624
0003d0 36 82 0b be 46 24 e6 3c b1 57 1e bd d8 00 d8 3d
       -0.1362389 0.028093468 -0.038657848 0.10547036
0003e0 94 b7 78 3d 39 60 23 bc 90 09 7f bc 7f 32 20 3e
       0.06072195 -0.009971672 -0.015566245 0.15644263
0003f0 f1 d5 bd 3c 48 d5 03 bd 5d 17 ec bd 03 23 04 3e
       0.023173304 -0.032185823 -0.11527894 0.12903981

model.rnn.weight_hh_l1 f4 [240, 60]
000000 a4 97 e0 bd df 6b 95 bc 7b 83 29 be de 22 26 3e
       -0.10966423 -0.018239914 -0.16554062 0.16224238
000010 95 03 0b bd a7 a4 71 bd ac b5 1f bd ad c7 94 bd
       -0.033938963 -0.058994915 -0.038991615 -0.07264648
000020 e6 65 0c 3c 61 70 49 3d 30 bf e0 3c e7 36 8d 3c
       0.008569216 0.04917944 0.027434915 0.017238094
000030 a7 cb 23 3e 3a eb d8 3d 86 dd 8a 3d 28 ce de 3c
       0.15995656 0.10591741 0.067805335 0.027197912
000040 72 37 de bc 18 8f c6 3c 38 8d ff bd 3a ca 02 bd
       -0.027126048 0.024238154 -0.12478107 -0.03193114
000050 b0 49 3c 3e 2a 47 4c bd 92 2c af bd e8 8f 67 3d
       0.18387485 -0.049872555 -0.08553423 0.056533724
000060 40 6a aa 3d c9 92 d0 bd 50 8a c6 3d 39 9a 27 3d
       0.08321047 -0.10184247 0.0969435 0.040918563
000070 7f ff b4 bd 11 5e 23 be b1 be 05 3e db 3a 01 be
       -0.088377945 -0.15953852 0.13061024 -0.12620108
000080 98 c3 43 be d6 e5 0e be 98 e3 f4 bd 71 38 34 bd
       -0.19117582 -0.13954863 -0.119574726 -0.04399914
000090 1b 10 8e 3d 6d b2 14 3e e7 32 af 3d d4 e3 4f 3d
       0.069366656 0.14521189 0.08554631 0.050754383
0000a0 c6 19 09 3d 1e 82 5e bd 9e 1c 61 3d 15 86 5d 3d
       0.033471845 -0.05432331 0.054958932 0.05408295
0000b0 3e 22 25 be bc 2e 1e 3d 30 fa 3f 3e a3 63 e5 bd
       -0.16126344 0.038618788 0.18747783 -0.11200645
0000c0 8d 04 20 bd 64 e3 96 bd b7 1e 27 bb 6b bb 78 bd
       -0.03906684 -0.0736759 -0.0025500485 -0.06072561
0000d0 3a 2b 81 bd b2 2c dd bc ab e8 35 3d 04 81 30 bd
       -0.06307073 -0.026998851 0.044411343 -0.04309179
0000e0 bd ed 27 be 9d 6c ac 3d ba 50 f3 3c 72 e7 02 bd
       -0.16399284 0.08419154 0.02970158 -0.031959005
0000f0 5b 1d db 3c db 7e 32 bd 4a 89 30 be a4 ed 76 bd
       0.026747396 -0.04357801 -0.17239872 -0.060285226
000100 3d 3b 4d 3d 7d 72 30 bd e3 b2 ad bd 6f 1b 46 3d
       0.050105322 -0.043077935 -0.084813856 0.048366006
000110 9f 3a 11 be 5f 5a af 3d a3 68 87 bd 29 17 82 bd
       -0.14182518 0.08562159 -0.06611755 -0.06352074
000120 3a 04 b7 3d 8f 99 9c 3c 1c 74 8d 3d 14 57 9e 3d
       0.08936353 0.019116191 0.06906912 0.077314526
000130 60 16 27 bd 07 de 9c bd 0a 9b 7f 3d 15 9a ac bd
       -0.040792823 -0.07659536 0.062403716 -0.08427826
000140 7d ea b5 3d cc 1d b2 bd 9e 97 78 3b 22 80 25 bd
       0.08882616 -0.086970896 0.0037932168 -0.0404054
000150 98 d2 d3 3d 17 3a 26 3d f3 54 70 bc 02 85 ce 3d
       0.10342902 0.040582743 -0.014668691 0.10083963
000160 d7 8d 11 3d fb 98 f3 bd 35 5a 96 3d bc 16 dc 3c
       0.03553566 -0.11894413 0.073414244 0.02686631
000170 e1 1f c9 bd 87 be cc 3d ec 91 0e be b9 1b 01 3d
       -0.098205335 0.09997278 -0.13922852 0.03152058
000180 5b 9a a9 3d 1b 52 16 3e fb 57 a4 3d 9d 0b bd bb
       0.08281394 0.14679758 0.080245934 -0.0057692067
000190 42 d7 ee 3b 8b 76 3f bd c9 ef 93 bd e8 2f b2 3d
       0.0072888443 -0.04674391 -0.0722347 0.08700544
0001a0 dd 2c 94 3c ba ef 25 3e c9 94 a5 bc c1 be 06 bd
       0.018087799 0.1620473 -0.020212548 -0.03289676
0001b0 50 e1 06 3e 8b bb a5 bd b9 9f 04 3b d5 cf ab bd
       0.13171887 -0.080924116 0.0020236804 -0.0838925
0001c0 b8 bb 2f 3d 3a 31 df bd 5d 58 29 bd b1 32 f1 bc
       0.042903632 -0.10898061 -0.041344035 -0.029443117
0001d0 da 89 99 3d a2 46 0d 3d 10 f6 ea 3b ca 22 79 3d
       0.07496996 0.03449119 0.007170446 0.060824193
0001e0 25 c7 d4 bd 9d e0 f5 3d 12 28 dc 3c fb 15 c0 bc
       -0.10389546 0.12005732 0.026874576 -0.023447981
0001f0 57 a4 b5 3d 21 18 04 be 43 e5 70 3d e8 92 4f 3c
       0.08869236 -0.1289983 0.05881239 0.0126693025
000200 2f f2 42 3d 37 e4 1b be 7b 2d 0f 3d 11 6e c5 bd
       0.047594246 -0.15223776 0.034955483 -0.09640134
000210 3d a0 4d 3d 4b 50 b2 3d c5 74 3a bd f2 5f a8 3d
       0.050201643 0.08706721 -0.045521516 0.08221425
000220 14 32 ec 3d 4f 5f 93 bd 4a 0b ba bd 0f ff ad 3d
       0.11532989 -0.07195913 -0.090841845 0.08495914
000230 09 64 77 3c 3d d8 9d bd 37 cb e4 bd 62 80 e8 bc
       0.015099534 -0.0770726 -0.11171573 -0.02838153
000240 10 d2 06 3e fb 33 fc bc 65 b8 a4 bd bb 7e 0c bc
       0.1316607 -0.030786505 -0.08042983 -0.008575137
000250 e4 eb df bd d9 5a 3a bc 00 20 2d 3d bd a1 bd 3c
       -0.109336644 -0.011374199 0.042266846 0.023148412
000260 de 69 67 3d fc a8 ed 3c 97 9c 17 be b7 e4 78 bc
       0.056497447 0.029011242 -0.14805828 -0.015191249
000270 92 a3 4c bc 6b 47 95 3a 43 c4 44 bc 68 31 09 bd
       -0.01249017 0.0011389082 -0.012009683 -0.033494383
000280 36 40 ef 3d 0f 3c c5 3d 16 5e 47 3d 96 15 be bc
       0.11682169 0.09630596 0.04867371 -0.023203652
000290 11 e1 ce 3d f8 19 03 3d 66 a1 1d bc 97 11 7a bd
       0.10101522 0.032007188 -0.009621 -0.06105193
0002a0 77 c2 cb 3d 80 08 07 3e 74 c7 e4 3c 91 57 33 bd
       0.099492006 0.13186836 0.027927138 -0.04378468
0002b0 c7 de fb bd a1 99 f6 bd 17 e1 e4 3d 2c 49 b7 3b
       -0.12298351 -0.12041021 0.11175745 0.0055934396
0002c0 83 e3 4f bc e2 27 84 bc 75 6a e6 bd 96 af 16 be
       -0.01268852 -0.016132299 -0.11250774 -0.14715418
0002d0 da aa 90 3c f3 ca 45 bd 8c 61 7f 3d 45 ee e3 3c
       0.017659593 -0.04828925 0.062348887 0.027823577
0002e0 b8 91 21 3d df ac fc 3c 0c 52 e8 bd 3d 8c da 3b
       0.03944561 0.03084415 -0.11343774 0.0066695497
0002f0 60 94 14 be 47 88 40 bd c3 72 39 be dd b0 03 be
       -0.14509726 -0.047004964 -0.18110184 -0.12860437
000300 30 c7 6d 3b ce a0 f7 3d fc 85 9a 3d ad 93 bb bd
       0.0036282055 0.12091218 0.07545087 -0.09159026
000310 b0 ab 17 3e 13 89 b5 3c 28 29 8e 3d f2 d2 58 bb
       0.14811587 0.022160089 0.06941444 -0.0033084718
000320 2c 70 ca 3c 30 aa 8b 3d ad d4 0a be 1b d2 08 bd
       0.02471169 0.0681957 -0.13557692 -0.033403497
000330 82 e9 07 3e d4 2a 68 bd 15 a1 f8 bc 1b 26 11 3e
       0.1327267 -0.05668147 -0.030350247 0.14174692
000340 e4 8b 9b bc 8b aa 80 3d f5 3f c3 bc c6 aa d7 bd
       -0.018987603 0.062825285 -0.023834208 -0.10530619
000350 5d d6 9c bd 0f 2c ee bd 2b f9 84 bd 68 01 c8 3c
       -0.07658074 -0.11629497 -0.064928375 0.024414733
000360 1b fb 0b 3e 12 94 c2 b9 72 ef 10 be 42 76 d0 3d
       0.13670008 -0.00037112884 -0.14153841 0.10178806
000370 75 44 7d bd 33 36 05 3e cf 95 2f bd 84 13 b4 bd
       -0.061832864 0.13008957 -0.042867478 -0.08792785
000380 f8 ee 42 3c 01 1d 13 3e d3 47 d6 3d 4c df 11 be
       0.011897795 0.14366533 0.10462918 -0.14245337
000390 24 4d 0c bd 80 59 bb 3d e4 ab 35 bb dd d5 66 3c
       -0.034253255 0.0914793 -0.0027720863 0.014089075
0003a0 a5 a0 87 bd 8f 32 6f bc ed d5 18 bd 97 13 6b 3d
       -0.066224374 -0.014599456 -0.03731339 0.05739173
0003b0 01 e7 15 3c df 1d a0 3d df bd d0 3c 91 f0 21 be
       0.009149314 0.078181975 0.025481163 -0.15814425
0003c0 32 44 b5 3d ad 41 fb 3d ee b6 ce 3b f2 cb 50 bd
       0.08850898 0.12268386 0.006308428 -0.050975747
0003d0 3f cf a5 3d 27 6f 74 bb f2 90 09 be 5a 0b 12 bc
       0.0809617 -0.0037297697 -0.13434198 -0.008913839
0003e0 5e de b1 bd 77 71 2f be 88 77 f7 bd 87 14 08 be
       -0.08684991 -0.17133127 -0.12083346 -0.1328908
0003f0 6b d1 0e 3e d4 ef ec 3c fa 76 73 3d b7 da 87 bc
       0.13947074 0.028922953 0.059439637 -0.016583784
