checkpoints/epoch=1-step=100-v1.ckpt (torch, 621663 bytes, 33 tensors)

model.param_proj.proj.0.weight f4 [1, 60]
000000 03 88 42 3e b9 83 2f 3c 45 1b a6 3d 09 3d 1c 3e
       0.18997197 0.0107125575 0.0811067 0.15257658
000010 b4 da 3a be 83 b0 62 be 74 ff 5a 3c 35 52 04 be
       -0.18247491 -0.22137646 0.013366569 -0.12921984
000020 94 0f e4 bd 83 1f a9 3c 03 e3 00 3e 7c f7 37 be
       -0.11135784 0.020644909 0.12586598 -0.17965502
000030 9f f3 3a be b3 1e 71 3d d2 7f 35 be 82 3e cd 3d
       -0.18256997 0.058867168 -0.17724541 0.10021688
000040 a1 69 1e 3c 66 2e 04 be 3a e3 23 bd 8b 1a 38 3e
       0.009668739 -0.12908325 -0.040011622 0.17978875
000050 fc 76 0d be b5 c8 34 3b c0 fd 0f 3e 39 a8 d1 3d
       -0.1381492 0.002758545 0.14061642 0.10237164
000060 e6 fd 3a be 4f 3e 1a 3e e6 83 4d be ed eb 3d 3d
       -0.18260917 0.15062831 -0.20069847 0.046367574
000070 6c 42 65 3d 80 b3 53 be b5 4a cb 3c 13 ae c4 bd
       0.055971548 -0.20673943 0.024815897 -0.096035145
000080 93 f3 55 3e 33 4d 0d 3e ce 6d 28 3e c1 28 e2 3d
       0.20893697 0.1379898 0.16448137 0.110429294
000090 8d 6b dd 3a 17 10 29 3e ee e5 c6 3d d6 b4 52 be
       0.0016893015 0.16510044 0.09711824 -0.20576796
0000a0 bf 51 27 3e 5e 7c d7 bd e0 c9 56 bc 82 25 c2 3b
       0.16339777 -0.10521768 -0.013109654 0.0059248814
0000b0 aa 16 d3 3d 58 ab c1 3c 2a a0 db 3d b3 4a 27 be
       0.10307057 0.023641273 0.10723908 -0.16337089
0000c0 8e 9c 81 3d 69 b6 ee bd ff 67 0e 3e 78 f8 ff 3d
       0.063286886 -0.11655886 0.13906859 0.124985635
0000d0 52 24 4e 3e cc fd ce 3d a0 7e 08 3e f2 a2 22 3e
       0.20131043 0.10107002 0.13329554 0.15882471
0000e0 41 04 fc 3c cc 3b b2 bd 3e 0d 2f 3e 3d ba 3c be
       0.030763747 -0.087028116 0.17094895 -0.1843042

model.param_proj.proj.1.weight f4 [1, 60]
000000 ed 2d 0a 3e c4 53 b2 3c 15 e0 e0 bd 8a c3 95 3d
       0.13494082 0.021768458 -0.1098024 0.07312687
000010 1f bc dc b9 0c 29 f4 3d fa 09 a4 bd 3f 7f 35 be
       -0.0004210183 0.119218916 -0.080097154 -0.17724322
000020 4f 42 4c 39 78 d0 f8 3d 1b 82 dc 3d 9d 3f e5 bd
       0.00019479658 0.12149137 0.10767003 -0.11193774
000030 4b 9c bf bd 14 20 00 be 13 13 22 be 27 39 b7 bd
       -0.093559824 -0.12512237 -0.15827589 -0.08946448
000040 b9 f2 9d 3d 0e 1e c4 bd db d7 cd 3d 1c 91 50 3e
       0.07712311 -0.09576045 0.10050937 0.20367855
000050 b4 aa 03 be 03 77 ec bd 2c b5 2e be 38 7c 38 3e
       -0.12858087 -0.11546137 -0.17061299 0.18016136
000060 ad 58 b1 3d 64 fc e8 bd b6 e8 3d 3e 33 22 f8 bd
       0.08659492 -0.11376265 0.18545803 -0.12115898
000070 0b 89 52 be 62 e8 03 3e 3c 8c 2d be 29 52 3c 3e
       -0.2056009 0.12881616 -0.16948026 0.18390717
000080 6b c8 25 3e 4e e4 f1 3d 3f dc 22 3d 8f f1 2e 3e
       0.16189735 0.11811124 0.039760824 0.17084335
000090 94 9e 1b be 22 5b ba bd 10 3d de bd 56 f1 ed bc
       -0.15197212 -0.090994135 -0.108514905 -0.029045742
0000a0 e6 13 19 be 0b 30 d6 bc 58 64 30 be 76 be 48 3e
       -0.14948997 -0.026145956 -0.17225778 0.19603905
0000b0 1a 34 46 3d ed 44 ce 3d 41 3c 1f be 64 51 67 3d
       0.04838953 0.1007174 -0.15550329 0.056474105
0000c0 44 5b 39 be 3c 05 f1 3d 70 06 02 be 35 da 94 3d
       -0.18101221 0.117685765 -0.12697768 0.07268182
0000d0 46 6a 59 3d c0 d3 35 be d3 68 08 bc d7 6b 1d be
       0.053079866 -0.17756557 -0.008325773 -0.15373169
0000e0 fd 97 c5 3d 75 18 17 be 98 62 bf 3d 11 5e b9 bd
       0.0964813 -0.14755423 0.09344977 -0.09051145

model.param_proj.proj.2.weight f4 [1, 60]
000000 84 e5 b0 3d c5 97 7d 3d e5 80 a1 bd df ab 8a 3d
       0.08637527 0.061912317 -0.07885913 0.06771063
000010 c9 ed f6 bc 92 38 03 bd 47 27 bc bd 63 93 97 3b
       -0.030142682 -0.03203637 -0.09187179 0.004625724
000020 d0 0b e3 3c 61 03 c3 3d dd 9e 9d 3d e2 77 3a 3b
       0.027715594 0.09522129 0.076963164 0.0028452803
000030 4f 13 8b 3d 9e 60 56 bc 32 a5 83 bc 5a 47 bf bd
       0.06790792 -0.013084559 -0.016069982 -0.09339781
000040 ff 25 8f 3d d6 85 e3 bd d6 2f 1e bd 88 74 3c 3d
       0.06989669 -0.111095116 -0.03861984 0.04600957
000050 db 99 ea 3d bb 54 82 3d c8 e0 ab bb 30 21 d4 bd
       0.11455127 0.06363817 -0.005245302 -0.103578925
000060 c2 43 b6 3d 8f cd a6 bd 97 f1 7c bd 20 7e 0d b8
       0.088996425 -0.08144676 -0.061753836 -3.3734483e-05
000070 b2 b6 72 bd 77 68 e8 3c d4 56 b4 3c a2 b4 66 bd
       -0.059256263 0.028370125 0.02201406 -0.05632461
000080 ba 43 8d bd 55 b6 d3 3d 87 8a ee 3d f2 4c ed 3c
       -0.068976834 0.103375115 0.11647516 0.028967354
000090 e8 83 eb 3d 36 e6 60 3d 7e ac 35 3d f0 15 27 3d
       0.114997685 0.054907046 0.044353954 0.040792406
0000a0 51 9b a6 3d ef 8c 19 be fb 29 9f bd 10 e4 da 3d
       0.08135093 -0.14995168 -0.07771679 0.10688031
0000b0 8c 77 cc bd a7 a6 9d 3d 8b a7 92 3d d6 d4 d3 3c
       -0.09983739 0.07697802 0.071608625 0.025858324
0000c0 f5 29 91 bd d9 64 26 3d 60 cf ba bd 4b d2 ab 3d
       -0.07088081 0.04062352 -0.09121585 0.083897196
0000d0 bc 27 73 3d 0c 63 88 bd de b9 f5 3d c7 a7 29 3d
       0.059364066 -0.06659517 0.11998342 0.04141977
0000e0 d1 e7 76 3d 10 c7 6c 3a b2 83 ef bd 07 ac 5e 3d
       0.06027967 0.0009032348 -0.11695041 0.054363277

model.rnn.weight_ih_l0 f4 [240, 24]
000000 3a 39 81 bd 04 0b 30 be 63 4f cb 3d a1 dc 07 3c
       -0.06309743 -0.17191702 0.09927251 0.008292348
000010 6b 97 ff bd 03 78 9d bc 36 5a e1 3d e6 5e 96 bc
       -0.124800526 -0.019222265 0.110035345 -0.018355798
000020 e7 1e 1c bd b2 ca 40 bd fe c8 51 bd fb 33 94 3d
       -0.03811541 -0.047068305 -0.05121707 0.07236477
000030 68 8b 39 be 26 b0 8a 3d eb aa f3 3c 7a a8 93 bc
       -0.18119586 0.06771879 0.029744586 -0.018024672
000040 41 ca 3d 3e af cc f4 bc ad a8 95 bd c7 2b 74 bd
       0.18534185 -0.029882757 -0.07307563 -0.05961206
000050 7e ea ec bd 4b f6 d2 3d b2 42 4b bd e8 65 62 3d
       -0.11568163 0.10300883 -0.049624152 0.055272967
000060 08 17 c5 3d b4 90 c6 3a 94 f4 d9 bb 62 50 e7 bd
       0.096235335 0.0015149326 -0.0066514704 -0.11294629
000070 07 32 ff bd 6e 7d 5e bd 83 0c 29 3c c4 4f ba 3d
       -0.12460714 -0.054318838 0.010317924 0.09097245
000080 9e fc db bc 10 e4 1e bc 95 5b 1d 3e 66 d6 a9 bd
       -0.026853856 -0.009697929 0.15366967 -0.082928464
000090 41 15 49 3d 03 45 50 bd 8a f5 ac 3d 28 51 28 3c
       0.049092535 -0.050847065 0.0844527 0.010273255
0000a0 33 55 96 bd 84 ec ad 3c d9 5e 19 3e 98 62 78 3d
       -0.07340469 0.021230944 0.14977588 0.0606409
0000b0 cf 35 37 be 72 f2 77 3d d3 8e 83 bd b3 fd f5 3d
       -0.1789162 0.06053395 -0.06423726 0.1201128
0000c0 3b 38 84 3d d3 7f 71 3d 08 01 ef bd ae ed 36 3d
       0.064560376 0.058959793 -0.116701186 0.044660263
0000d0 53 eb d0 bd c9 d8 2b be ae 1b aa bd a6 6a b6 3d
       -0.102011345 -0.16781916 -0.08306061 0.0890706
0000e0 fa 2a d6 bb dd f1 dc bd a2 4d e5 bb 11 bb c7 3d
       -0.006535885 -0.10788319 -0.00699778 0.09752477
0000f0 f0 2a 02 be 25 ac 09 be c3 e6 2f 3e db dd dd bd
       -0.12711692 -0.13444574 0.17177872 -0.10833331
000100 fb ef 3f 3c 25 89 13 3e 32 e8 68 bb 40 80 de bc
       0.011714931 0.14407785 -0.003553879 -0.027160764
000110 32 50 10 be 82 e1 7c 3d 83 df 9d bd e4 f6 0f 3e
       -0.14093092 0.0617385 -0.07708647 0.14059025
000120 9b f6 c4 3c 66 10 c6 3a 12 ef 49 be 3c f7 bd bc
       0.024043372 0.0015111088 -0.19720104 -0.02318918
000130 dc 1a 8f bd 1b a2 88 3d 3c 0c 13 be 5c e2 4b 3d
       -0.06987545 0.06671544 -0.14360136 0.04977642
000140 21 0d 11 be 96 44 d2 bc 9f 8a 82 3c b9 66 dc bd
       -0.14165165 -0.02566747 0.01593524 -0.1076178
000150 59 8b e4 bd ab 97 d9 3d b7 a3 97 3d f6 1e 7e bd
       -0.11159391 0.106246315 0.07404273 -0.062041245
000160 f5 8b fd 3d 50 2d a5 3d 5c 62 9c bd e2 e6 70 3d
       0.1238021 0.08065283 -0.07635948 0.058813937
000170 59 bc 29 be c4 e2 94 3d 16 bf 27 bd da 2a 1c 3e
       -0.16575755 0.072698146 -0.040953718 0.15250722
000180 05 bb 23 bd f9 fc a8 bc b9 45 9d bd 91 9b 25 be
       -0.039973278 -0.02062844 -0.07679314 -0.16172625
000190 80 64 9e 3a 83 6d c1 bd 9b 9f 64 3d 26 2f f2 3c
       0.0012084395 -0.09444716 0.055816274 0.029563498
0001a0 cb ff 90 3d f2 d2 98 bd 84 b4 02 bc de 2f e5 3d
       0.07080039 -0.074621096 -0.007977609 0.111907706
0001b0 9b 3d 03 3e 68 ed 82 3c b7 8c 06 3d 1e f2 1f bd
       0.1281647 0.015982345 0.03284904 -0.03904926
0001c0 9d 65 49 bd 14 43 0e 3e 6f 3b 23 3b 9c c6 18 3d
       -0.04916917 0.13892776 0.0024907251 0.037298784
0001d0 08 cf 3e 3d 11 ed 91 bd 51 b9 b6 bd 6c 1d d8 3d
       0.04658416 -0.07125295 -0.08922065 0.10552487
0001e0 c0 92 4c 3e 53 68 0a be 25 d5 bd ba 46 60 34 bd
       0.19977856 -0.13516359 -0.0014483078 -0.044037126
0001f0 11 77 2b 3d 7c ea 83 bd 30 36 af bd a9 d6 43 be
       0.041861597 -0.06441209 -0.08555257 -0.19124855
000200 ee 88 a4 3b 5c ef 05 bc 15 1a 2e bc e7 1d d4 bc
       0.005021206 -0.0081747435 -0.010626336 -0.025893165
000210 7e d9 da bc 7f c2 59 bc 20 4e c5 3d 0b 63 8b bd
       -0.026715036 -0.013291 0.09634042 -0.06806
000220 a8 5e 19 3d a7 1a 9f 3d 55 bb 36 bd 9a a2 48 3d
       0.037443787 0.077687554 -0.044612247 0.048983194
000230 93 4d c2 bd 55 b7 7a bb db 71 07 3e 7f fe e2 bc
       -0.09487452 -0.0038256247 0.13227026 -0.027709244
000240 26 4b 3c be ac c8 63 3d 74 dd 2b bd e6 c1 65 3e
       -0.18388042 0.055611297 -0.04195924 0.22437248
000250 fe 37 95 bc da f6 1b be 5d e1 d3 3c 14 22 a2 bd
       -0.018215176 -0.15230885 0.025864298 -0.07916656
000260 23 35 06 be 96 e1 6c bd a4 8b c8 bd 8f 8d be bd
       -0.13106208 -0.057832323 -0.09792259 -0.09304344
000270 52 e8 94 bd 8a 0d cc 3d 76 00 8c bd 89 ba 84 bc
       -0.07270874 0.0996352 -0.068360254 -0.016202228
000280 47 e1 f3 3d da 34 4b 3d ff b6 06 3e cf 4c 5c bc
       0.119082026 0.04961095 0.13155745 -0.013446047
000290 60 c4 96 bc 81 95 e3 3d d6 7b 59 3d bb 52 e6 3d
       -0.018404186 0.111125 0.053096615 0.11246248
0002a0 4a 79 38 be 44 62 6d 3d d8 c8 99 bd 7c ae 9c 3d
       -0.18015018 0.05795504 -0.07509011 0.07650468
0002b0 47 db a3 3b e8 19 87 bd 4a d4 50 3d 8f 34 08 3d
       0.005000505 -0.06596738 0.050983705 0.03325325
0002c0 01 69 10 3d 7c 01 d2 bd 6c b6 c2 bd bb 64 a5 bd
       0.03525639 -0.10254189 -0.095074505 -0.080758534
0002d0 e8 39 81 3c f9 3d 8c bd 67 b6 dc 3d 92 41 f0 3d
       0.015774682 -0.06847758 0.10776978 0.117312565
0002e0 24 6e 87 bd d0 13 8d 3d f5 0b 80 bd de c5 35 3d
       -0.066128045 0.068885446 -0.062522806 0.044378154
0002f0 a4 be a3 bc 05 d2 7c 3c 69 b7 96 bc 14 04 cc 38
       -0.019988365 0.015430932 -0.018398004 9.728238e-05
000300 6f f9 09 3c b8 d8 c8 bc 82 e0 bc bd db 80 ae bc
       0.008421286 -0.024517402 -0.09222509 -0.021301677
000310 15 32 bf 3c 62 a6 55 3d 37 f8 09 bc 7a 44 5c be
       0.02333931 0.05216063 -0.008420995 -0.21510497
000320 c1 bc 1d be 9e 29 57 bc 6b 21 dc bd aa 2b cd 3d
       -0.15404035 -0.013132481 -0.107485615 0.10018094
000330 db 98 db bc 0a a5 d1 bd 26 37 bc 3d ca 65 2a 3d
       -0.026806286 -0.10236557 0.09190206 0.04160098
000340 89 ff 00 bd 15 4c 58 bc 6e 04 60 3d 0b ee b6 bd
       -0.031493697 -0.013201733 0.054691724 -0.08932122
000350 75 17 10 bd f8 26 2d 3d f1 f1 cb 3b 6a a2 fd 3c
       -0.03517862 0.04227349 0.00622391 0.030961234
000360 fe 41 6d 3d f2 b3 5f 3d cb 3c 32 be 36 d7 f5 bc
       0.057924263 0.05461497 -0.17406003 -0.030009847
000370 6d 48 86 bd af 33 2c 3e e7 82 b2 bc a1 79 1b be
       -0.06556783 0.1681659 -0.021790935 -0.15183116
000380 94 c5 fb 3d 93 62 80 3c 66 0e 15 3c 65 6a c1 3d
       0.122935444 0.015672004 0.009097671 0.09444121
000390 34 2f bf 3d d7 eb dd bc 0b a4 ae 3d 1d 44 67 bd
       0.09335175 -0.027089996 0.085273825 -0.056461442
0003a0 ca 74 02 3c d1 1e 59 bc 08 a0 00 3e be 7e 9f bd
       0.007962415 -0.013251976 0.12561047 -0.07787846
0003b0 7a a1 a0 bc 15 83 20 3c 3c b8 3d bd ab bd 4b 3d
       -0.019608248 0.009796877 -0.046318278 0.04974143
0003c0 55 3b 0c be dd 24 bb bd 47 85 b1 3c aa 54 ae bd
       -0.13694508 -0.091378905 0.021669997 -0.08512242
0003d0 02 97 9d 3d 80 5e 7b bd d4 bf 92 bd 9d c6 49 3d
       0.07694818 -0.06136942 -0.071654946 0.049261678
0003e0 5e 66 3f bd 63 4e 38 3e f9 11 2a 3e 40 20 0d be
       -0.046728484 0.17998652 0.16608419 -0.13781834
0003f0 13 70 4a be 0b 83 32 3e 27 c4 d4 bd dd 5d ed 3c
       -0.19769315 0.17432801 -0.103889756 0.028975422

model.rnn.weight_hh_l0 f4 [240, 60]
000000 c4 04 b8 3d 8c fe ac bd b1 6c 31 be 4a 99 6e 3d
       0.08985284 -0.084469885 -0.17326619 0.058251657
000010 1d f5 29 be 9a ea 9e 3d 8a 63 61 bd 50 44 e9 3d
       -0.1659741 0.077595904 -0.05502657 0.11389983
000020 08 97 1b 3e 46 7f ea 3d 53 18 00 3c c5 07 a8 3d
       0.15194333 0.11450057 0.007818299 0.08204607
000030 57 14 c8 3d f2 8d 21 3e 1b a6 82 bd f4 34 07 bb
       0.097695045 0.15776804 -0.06379338 -0.0020630928
000040 79 90 2d be b1 ba 12 bd d3 0e e3 bc 1e 19 75 bd
       -0.16949643 -0.035822574 -0.02771703 -0.059838407
000050 98 7c 25 bd 3b ae e1 3d ee c1 0e 3e b3 ef 37 3e
       -0.040402025 0.1101956 0.13941166 0.17962532
000060 99 ab 5b bd 10 5c b2 3c af 34 f7 bd 3c cb 96 bc
       -0.053630445 0.021772414 -0.120705955 -0.018407457
000070 06 e7 3a bd 08 ba 1f be 78 f0 90 bd c0 0f 53 bd
       -0.045630477 -0.15598309 -0.07077116 -0.051528692
000080 e2 b6 09 be d8 35 93 bc 9f 35 07 bd 90 99 e3 bd
       -0.1344867 -0.01797001 -0.03301012 -0.11113274
000090 7f e3 ba bd 40 56 ce 3d 99 be 4d bd a8 a1 f6 3b
       -0.09125423 0.10075045 -0.050230596 0.007526595
0000a0 11 75 ab bd 12 9c 29 be e8 55 18 3d 15 ea 1c 3e
       -0.08371938 -0.16563442 0.0371913 0.1532367
0000b0 ec 1d 73 3d f7 66 20 be b0 67 4d 3d 63 f8 51 3c
       0.059354708 -0.15664278 0.050147712 0.012815568
0000c0 80 42 e3 bd 4c 8a 8e 3d 4d 8f 0e bd 70 71 f0 3d
       -0.11096668 0.06959972 -0.03480463 0.117403865
0000d0 32 4a 7a bc 18 8f 25 3e 9a c5 dd bc 1f 66 04 3c
       -0.015276479 0.16167867 -0.027071763 0.008080988
0000e0 f4 0f f3 bd 0a 52 eb ba 29 4b 49 3d 5c 4c 0a 3e
       -0.11868277 -0.0017953527 0.049143944 0.13505691
0000f0 6f 21 4d 3b b5 55 43 3d a1 6b 8b 3d 84 9a b0 bb
       0.0031300446 0.04768916 0.06807638 -0.0053895134
000100 ed fc 70 bc a3 c0 04 3e 8b 94 c5 bc f9 ae 26 3d
       -0.01470874 0.1296411 -0.024118682 0.04069421
000110 e9 a1 5b 3d d6 dd a9 bd af fd a5 3d d1 ee 4e bc
       0.053621206 -0.08294265 0.08105027 -0.01263018
000120 d4 82 9f 3d 83 8b e3 3d 12 3f 93 bd ac 8b 5a bd
       0.07788625 0.11110594 -0.07189764 -0.053355858
000130 09 14 b6 3c b5 04 17 3d bd 86 27 be 86 84 de 3d
       0.02222635 0.036869723 -0.16359992 0.108651206
000140 36 67 4a 3e f5 39 a9 3d f5 e8 24 3e fb 7b 77 bb
       0.19765934 0.082630076 0.16104491 -0.0037763107
000150 2e c3 55 bd 99 a9 aa bd 6a 91 08 be 74 a6 e6 3d
       -0.05218809 -0.083331294 -0.13336721 0.11262217
000160 da 6c fc 3d 4e 35 97 bc 2b cc 0b be ad 2c 84 bd
       0.12325449 -0.018458035 -0.13652103 -0.06453834
000170 0f 51 5b be 66 84 1a 3e dc 23 9d 3d ad df 08 be
       -0.2141764 0.15089568 0.07672855 -0.13366576
000180 ed 34 44 3b c5 32 01 3e 01 3f 47 3e 46 6e 00 3e
       0.0029938773 0.12617023 0.19457628 0.12542066
000190 31 5a 47 3d d7 17 da bd 28 64 6d 3d d8 20 d3 3d
       0.048669998 -0.10649078 0.057956845 0.10308999
0001a0 b3 e1 b5 3d 0d 38 af bd 22 99 92 bc 60 fe 29 3e
       0.08880939 -0.08555613 -0.017895285 0.16600943
0001b0 69 5d 10 3d 8b ad 29 3e 52 27 b5 3d 5a 90 33 be
       0.035245333 0.16570108 0.088453904 -0.17535535
0001c0 06 db a3 3d 11 1a 04 3e 95 32 e7 3c c0 19 a6 3d
       0.0800076 0.12900569 0.028222362 0.0811038
0001d0 62 60 b2 bd 6e 9f bd bd 49 ec f6 3c b8 a4 9e 3d
       -0.0870979 -0.092589244 0.030141966 0.07746261
0001e0 09 33 15 3e 80 7f bb bc 1e d5 33 be 1b 67 39 be
       0.1457025 -0.022887945 -0.17561767 -0.18105738
0001f0 f9 e5 9a bb 91 f5 83 bd 13 53 27 bd 17 b0 8a 3d
       -0.004727122 -0.064433224 -0.04085071 0.06771868
000200 f8 9c 89 bd 19 b2 98 bc dc 3f 8a bd 8d 0e bd 3c
       -0.067193925 -0.018639611 -0.067504615 0.023078227
000210 65 bd bd 3d 7e 98 f7 3b ab 2e 89 bc 38 bc 5e 3d
       0.0926464 0.0075560203 -0.016745886 0.05437872
000220 f2 cf ba bd 2c e8 a4 bd 47 80 27 bd dd f8 47 3d
       -0.09121694 -0.08052096 -0.04089382 0.04882132
000230 51 95 29 3d 81 56 d6 ba 1c b8 17 3e 8d a6 14 3c
       0.041402165 -0.0016352684 0.14816326 0.009072912
000240 8e b2 2f bc 68 09 8c bd 10 b4 e3 bd b8 47 05 bd
       -0.010723723 -0.068377316 -0.111183286 -0.0325391
000250 02 93 1c bb be 0d bb bd 2f 35 c7 bd 2d 24 e3 3d
       -0.0023891334 -0.091334805 -0.09726941 0.11090884
000260 0a d2 24 be 56 7c 11 3e ec 21 8b bc 01 d3 60 3c
       -0.16095749 0.14207587 -0.016983949 0.013722182
000270 d5 8a bc bd 00 2b a4 3c 43 43 5f bd 84 03 cd 3d
       -0.092061676 0.020040035 -0.054507505 0.10010436
000280 ce b8 e3 3b 25 57 a6 bc 0c 5b 94 3d 94 74 33 bd
       0.0069495207 -0.020305226 0.07243928 -0.04381235
000290 df 4e 8a bd ad 13 00 bd f0 12 b7 bd e7 ed 05 3d
       -0.06753325 -0.031268764 -0.08939159 0.032697584
0002a0 05 81 bf 3c a2 bd 46 3e e5 f0 83 bd 98 40 ee 3c
       0.023376951 0.19408277 -0.06442431 0.029083535
0002b0 37 79 87 3c b0 6d 45 bd 4a 13 0d 3d f0 1a 51 3c
       0.016537292 -0.04820031 0.034442224 0.01276277
0002c0 2c 3e 15 3e 70 29 a9 3d 5b 70 aa bc 90 f3 69 3d
       0.14574498 0.08259857 -0.020805528 0.057117045
0002d0 05 17 75 3c 98 b8 eb bd 44 6c 0d be 38 51 02 3b
       0.014959102 -0.11509818 -0.13810831 0.0019884836
0002e0 d9 e2 05 be 8c 50 2b bd 50 69 24 3c 8a 51 b5 3d
       -0.13074817 -0.041824862 0.010034874 0.08853443
0002f0 1b 6d 36 3d 91 48 7b 3d b1 1f 05 be 3e eb d1 bd
       0.044537645 0.0613485 -0.1300037 -0.10249947
000300 11 67 05 3e 9e 1d 0e 3e 00 26 0c 3d 6e 47 00 3d
       0.13027598 0.13878486 0.034215927 0.03131812
000310 42 d7 4a be 76 b3 4d bd ad 76 45 3d 2c d9 b8 bd
       -0.19808677 -0.050219975 0.04820888 -0.09025797
000320 eb 9f 27 bd ab 47 d8 3d cf 61 6c 3d 29 d9 bb bb
       -0.040923994 0.105605446 0.057710465 -0.0057326746
000330 56 e2 93 3c f5 4f 00 be fa a6 5d bd e6 b0 aa bc
       0.018052261 -0.12530501 -0.05411432 -0.020836305
000340 a9 cd ce 3d c7 10 e4 39 07 bd 1b be eb 03 31 3d
       0.1009782 0.0004350005 -0.15208827 0.043216627
000350 83 73 24 bd 44 fb 17 3e 23 c0 a6 bc 61 11 9f bc
       -0.040149223 0.14841944 -0.02035529 -0.019417467
000360 fb 43 58 3c 52 0c c1 bc a5 d4 ee bc 08 ae a7 b8
       0.013199802 -0.023565445 -0.029154131 -7.9955964e-05
000370 a4 a5 5c 3d 42 cd 2f be 02 93 b5 bc 9d e5 ae bd
       0.053868905 -0.17168143 -0.022164825 -0.08539889
000380 cb 16 8d bc 15 8a 05 bd c7 4f 8b bd 92 bd 24 3e
       -0.017222783 -0.03260239 -0.06802326 0.1608794
000390 3a 3d 0d be 76 d8 13 3d b2 b2 ff 3d 3b 04 a0 bc
       -0.13792887 0.036095105 0.12485255 -0.019533267
0003a0 5f 63 1f 3d d6 ba 02 3e ea eb be 3a d0 9c 33 bd
       0.038913127 0.12766585 0.0014566157 -0.04385072
0003b0 b9 09 77 bd ec 90 e3 bd ea b9 c1 3d 68 f5 a9 3d
       -0.060312007 -0.11111626 0.094592884 0.08298761
0003c0 96 04 39 3d 2b e4 14 3e 47 47 97 bd a2 68 7e bc
       0.04517039 0.14540164 -0.07386642 -0.015527876
0003d0 8b 3d ca 3d 5d e7 02 3d a6 10 bb bd 54 c5 09 3e
       0.0987502 0.031958926 -0.09134035 0.13454181
0003e0 a5 2f c1 bc 26 e2 1e bd fb 9e a9 3d 6e 28 cc 3d
       -0.023582289 -0.03878989 0.08282276 0.09968649
0003f0 51 9f 00 3e c4 ee ce 3d 4f 7a 09 3e 07 83 0d 3b
       0.12560774 0.10104135 0.13425563 0.002159299

model.rnn.bias_ih_l0 f4 [240]
000000 a9 ea 84 3d 74 c6 13 3d f8 05 c0 bc 59 3c 84 3b
       0.064900704 0.03607793 -0.023440346 0.0040355143
000010 12 c5 04 3e af 55 be 3c 2f 20 c0 3d 43 61 bd 3d
       0.12965801 0.023234216 0.093811385 0.09247067
000020 94 16 b9 3d 16 eb 72 3c 34 70 0b 3e 24 59 db 3d
       0.090375096 0.014826557 0.13617021 0.107103616
000030 f5 f7 41 bd ac f1 93 3c 98 16 16 3e 71 b9 1a 3e
       -0.04735561 0.018059574 0.14657056 0.15109803
000040 4a 9c f8 3c f3 22 ab bd 38 6e 4b 3c f5 c1 64 3d
       0.030347962 -0.083562754 0.012416415 0.055849034
000050 a5 b4 72 3d 72 01 23 3e 51 ec 02 bc 94 56 8d 3d
       0.059254307 0.1591852 -0.0079909125 0.06901279
000060 dd cd 07 bd 7d 0f f4 3d e8 bc 73 3d 27 4c 15 3e
       -0.03315531 0.11917017 0.059506327 0.14579831
000070 24 f0 67 bc 88 10 eb 3d c4 d3 8a bd e4 9c cd 3d
       -0.014156375 0.114777625 -0.06778672 0.1003969
000080 c9 40 21 3e 33 5e 8b bd 53 da 9e 3d 6c 50 0d bd
       0.1574737 -0.068050765 0.07756486 -0.034500524
000090 1f bc af 3d 7c 91 7b 3d 45 d6 41 3d d6 ee 5e bd
       0.08580803 0.06141804 0.047323484 -0.05442699
0000a0 d1 e0 01 3e 56 51 0d bc b0 c2 ac 3c 01 e8 fe 3d
       0.12683417 -0.008625349 0.021088928 0.12446595
0000b0 49 1b 0e 3e 8c a7 7d bd d7 36 58 3c a2 76 97 3a
       0.13877596 -0.061927363 0.013196669 0.0011555741
0000c0 69 75 e1 3b 26 e8 43 3e 41 30 d5 3d ee 65 da bc
       0.0068804515 0.19131526 0.10409594 -0.026659932
0000d0 96 c8 fa 3c f5 db 06 3e 74 e7 83 bd 7f e8 e4 3c
       0.030613225 0.13169844 -0.064406306 0.027942894
0000e0 51 24 eb bc 79 b1 00 3e 15 7a af 3d 9f 8d 6c 3d
       -0.02870384 0.125677 0.08568207 0.057752248
0000f0 51 4d 71 3a 67 de ba bb 99 cc 6f 3c ee 57 24 3d
       0.00092049415 -0.005702782 0.014636182 0.04012292
000100 0f 68 20 3d 17 2f 3b bd 75 fd b4 3d 65 8e 7e bd
       0.039161738 -0.045699205 0.088374056 -0.062147517
000110 a5 fc bb 3d d6 7d 1b bd b2 a4 01 3a eb 23 0f 3d
       0.091790475 -0.037961803 0.0004945501 0.034946363
000120 cb 97 22 be e7 61 6c 3c 1a fb af 3d 9c 3f 31 3d
       -0.15878217 0.014427639 0.08592816 0.043273553
000130 43 6b 17 3c 30 37 d1 bd 18 64 26 3d 14 63 05 3e
       0.009241882 -0.10215604 0.0406228 0.13026077
000140 0f ac 09 3d fa 83 09 bc 13 0c c7 3c f2 44 e8 3c
       0.033611353 -0.008393282 0.02429775 0.028353188
000150 c0 f9 c4 3d b7 40 93 bd 2f a3 cd 3d d2 10 e8 3d
       0.096179485 -0.07190078 0.100408904 0.11331333
000160 57 d2 a2 3d e4 fb 2e 3d 4e 83 7c 3d 00 5f d1 3c
       0.079502754 0.04272069 0.06164866 0.025557995
000170 46 9e af bd 8a 56 fa bc e9 03 05 be 37 9b 83 3c
       -0.0857511 -0.030558843 -0.12989773 0.016065223
000180 fb 8e 1d bd 2f bb 44 3d 1d db 12 be c5 b5 20 bd
       -0.038466435 0.048030075 -0.14341398 -0.03923585
000190 52 ad ae bd 4d 5d 1c bd 61 43 27 3d f5 7c cd bd
       -0.08529152 -0.038174916 0.040835742 -0.10033599
0001a0 63 d4 02 3d 59 85 b2 bc 95 c3 95 bd 56 aa a4 3c
       0.03194083 -0.0217921 -0.07312695 0.020100754
0001b0 a0 ed f9 3d ed 61 d6 bd e9 00 d8 bd b6 77 30 3d
       0.122035265 -0.104678966 -0.105470486 0.043082915
0001c0 61 86 92 bc f4 a8 0c 3e 68 8d f4 bd 83 2c ad bc
       -0.017886342 0.13736326 -0.119410336 -0.021139389
0001d0 31 84 05 3e 28 e5 da bd ba 4a 03 3e b8 be fd ba
       0.13038708 -0.10688239 0.12821475 -0.0019359207
0001e0 c9 94 ae bb 9e 54 d7 3d 4c 1f 96 3d 91 48 40 3c
       -0.005327795 0.10514186 0.07330188 0.011736051
0001f0 82 1f 5f bd 95 9f bf 3d dd 75 8d bd e8 6a da bd
       -0.054473408 0.0935661 -0.06907246 -0.10664922
000200 cb 7c aa 3d 6c 2a 69 bd 8d 99 ff 3c 44 bc f1 bd
       0.083245836 -0.056925222 0.031201148 -0.11803487
000210 b5 bb a1 bc 3d 9f e8 bd 5a 10 ca 3d ed bc 95 3d
       -0.019742826 -0.11358497 0.098664 0.07311425
000220 50 48 8d bd b4 cd 01 be 6a e8 a9 3c 79 8b f2 3d
       -0.06898558 -0.12676126 0.020740706 0.118430085
000230 c6 44 e9 bd b2 95 ec bd 7f 0e f2 3d 66 91 b6 bc
       -0.113900706 -0.115519896 0.11819171 -0.022286128
000240 29 60 38 3c 9c 52 0e be 1e 59 94 3d 76 58 09 bc
       0.011253395 -0.138987 0.0724356 -0.008382907
000250 10 b9 c4 bc 7c b7 2f 3d 4e 5b 77 bd 67 e4 b9 bd
       -0.024014026 0.042899594 -0.06038981 -0.090767674
000260 ab e3 13 3d 72 10 cf bc 07 26 08 3c 10 ea 06 bc
       0.036105793 -0.025276396 0.008309848 -0.008234516
000270 ed 87 92 bc bc 13 ce bb d8 be ea bd 27 20 16 be
       -0.01788708 -0.0062889736 -0.11462182 -0.14660703
000280 de 42 bf bd 79 5d 89 3d eb 77 4b 3d 53 b5 86 3c
       -0.09338926 0.067072816 0.04967491 0.016443884
000290 7c ec df 3d 71 a5 9c 3d 9a d8 d8 bc a7 c1 f4 3d
       0.10933778 0.07648743 -0.026470471 0.11950999
0002a0 44 d7 58 bd 6b 09 22 bd f8 f5 44 3d 87 04 81 bd
       -0.05293967 -0.039559763 0.048086137 -0.06299692
0002b0 f1 34 97 3c 7d 57 07 be 64 03 df 3d ac 4a 96 3c
       0.018457862 -0.13216968 0.108893186 0.018346153
0002c0 19 cc 10 3e ec 51 ee bd 7f 2f e3 3c 6b 6f da bd
       0.14140357 -0.11636719 0.027732609 -0.106657825
0002d0 f2 30 15 bd 6b 69 82 bd 46 10 3d bd d7 4b 2a 3e
       -0.03642363 -0.06367763 -0.046158098 0.16630493
0002e0 ab b0 43 3d e4 c0 4a bd 78 56 20 3e 29 6c 17 3d
       0.047775906 -0.04950036 0.15657985 0.036968384
0002f0 b4 6d ad 3d bc fd 0b 3e 82 31 99 3d 7a 70 ad 3c
       0.0846819 0.1367101 0.07480146 0.021171797
000300 00 4c 81 bd 10 4b 8b 3c 60 39 03 3e f1 fd 59 3d
       -0.06313324 0.017003566 0.12814856 0.053220693
000310 7b 44 1d 3e 7b 67 72 3d 0b 71 de bc 68 0e 51 bb
       0.15358154 0.059180718 -0.027153512 -0.0031899456
000320 f9 0a 16 3e 05 b6 16 3e fb 4b cc 3d 73 78 22 3e
       0.14652623 0.14717872 0.099754296 0.1586626
000330 45 03 4a 3d b1 77 15 3d 42 af 01 bd 8f b6 d0 bd
       0.049319524 0.0364911 -0.03166128 -0.1019107
000340 f2 76 ec 3d f9 48 40 3e e6 51 73 3d 0b bb d6 bd
       0.115461245 0.18777837 0.059404276 -0.10484894
000350 95 6b 89 3d 99 1e 91 bd d3 75 04 3e b4 d5 11 3e
       0.06709973 -0.07085914 0.12935571 0.14241678
000360 7e 74 86 bc 15 5c 4d bd cf ce 38 3e 50 ee 2c 3d
       -0.01641297 -0.050136644 0.18047641 0.04221946
000370 ff 0e 8d 3c 71 2a 1d 3d 42 19 84 bd a0 66 bf 3b
       0.017219065 0.038370553 -0.0645013 0.0058410913
000380 aa 02 09 3e 3d 64 38 bb 47 82 8c bd 62 4e 35 3e
       0.13379923 -0.0028135919 -0.06860786 0.17705682
000390 3f 39 06 3d 7d 22 03 3e f7 79 cc 3d 7b eb 35 bd
       0.032769438 0.12806125 0.099842004 -0.044414025
0003a0 f8 4f d5 3d 7d 62 80 3d c1 2e 01 3e cf a0 45 3d
       0.104156435 0.06268785 0.12615491 0.048249062
0003b0 c4 79 2d 3e 18 a0 7d 3d 32 8a 76 3d 1a de b8 bc
       0.16940981 0.061920255 0.060190387 -0.022566844

model.rnn.bias_hh_l0 f4 [240]
000000 b2 2b 20 3e 3e 09 0b 3e 20 46 80 bd 86 0d 2f bd
       0.15641668 0.13577744 -0.06263375 -0.042737506
000010 e8 5d eb 3c 6c 7f e7 3d a6 9b d3 bc 2b 91 44 3d
       0.028731301 0.11303601 -0.025831055 0.047990005
000020 98 b0 17 3e 6b 62 14 3e 1d 0b 1d 3d 0b 65 bd bd
       0.14813459 0.14490668 0.038340677 -0.09247788
000030 d7 15 04 bd 4b 0c 27 3e ad 15 de 3d 7d ff 7a bd
       -0.03224739 0.16313283 0.10843978 -0.06127881
000040 36 96 f5 3d 16 ed c0 3d e5 77 ad bc da c6 0c 3e
       0.11991541 0.094202206 -0.021175334 0.13747731
000050 44 11 b7 3d 1c 30 c0 3a ff d5 f0 bc 1e c6 02 3e
       0.0893884 0.0014662775 -0.029398916 0.12770888
000060 6d a2 ee 3c ff 8d 1a 3e 89 c4 f8 3a 1d ca cc 3d
       0.029130185 0.1509323 0.001897947 0.099994875
000070 50 f2 b5 bb e1 9f 40 bb e6 4f 6e 3c 85 af 90 bd
       -0.0055525675 -0.002939217 0.014545416 -0.07064728
000080 29 23 0b bd e5 99 98 3d b4 db be 3d 45 ba b8 3c
       -0.03396908 0.07451228 0.09319249 0.022549758
000090 ef fa dc 3d 62 8d 8d bd 45 6a f5 bc 8b 98 e9 3d
       0.10790049 -0.06911732 -0.0299579 0.114060484
0000a0 4d e9 4e bc 77 b2 ff 3d b2 59 de 3d 31 33 28 3e
       -0.012628865 0.12485211 0.10856952 0.16425778
0000b0 45 3a 02 3e 6a ad 42 bd a0 da 7f bd 7d 48 c0 3d
       0.1271754 -0.04752866 -0.062464356 0.09388826
0000c0 3c a7 22 3d 7b 90 e6 3d 60 49 f8 3d 66 2d 7a 3c
       0.03971027 0.11258026 0.1212337 0.015269613
0000d0 f2 6e a5 bd 98 c6 bb bc f7 ec 05 3e 9d 15 46 3e
       -0.08077802 -0.022921845 0.13078676 0.19344182
0000e0 e8 f1 6e 3d 22 72 bb 3d 1c 42 28 bd d3 4d 6f bd
       0.05833617 0.091526285 -0.04107867 -0.05842383
0000f0 66 c9 02 bd 12 31 55 bd 48 cd 09 bb bc f0 9b bd
       -0.03193035 -0.05204875 -0.0021026898 -0.07614276
000100 79 bb 9a 3d 77 e6 80 3c cb 61 91 3d 26 04 94 bb
       0.07555289 0.015734894 0.07098731 -0.004517096
000110 2c 28 3e bc 79 7b 6b bd 66 e0 f7 3d a1 16 e7 3c
       -0.011606257 -0.0574908 0.121033475 0.028209032
000120 62 15 61 3d 2b ba 81 3d 8c 8f c0 bd 35 75 c3 bd
       0.054952033 0.06334337 -0.094023794 -0.0954384
000130 e3 70 66 bc 68 00 2a bd fe 0e 0a 3e 90 07 75 bd
       -0.014065 -0.041504294 0.13482282 -0.059821665
000140 8c 93 d0 3d 44 cd cf bd 4f 35 69 3b 3d 83 a7 3d
       0.10184392 -0.10146573 0.0035584753 0.081793286
000150 33 05 f3 bc 21 9b b8 3d b9 da e7 bd d4 81 53 bd
       -0.029665565 0.090139635 -0.11321015 -0.051637486
000160 20 d1 0d 3e 54 be 89 bd 83 f6 fe 3c a2 e0 e1 3d
       0.13849306 -0.06725755 0.031123405 0.110291734
000170 5c e1 69 3d a2 47 e4 3d af 50 03 be d0 ec a7 3c
       0.057099685 0.111464754 -0.12823747 0.020498663
000180 1e e7 8c 3d cf 71 13 bc f9 4b 79 3c 10 22 34 bd
       0.068800196 -0.008999302 0.015215867 -0.043977797
000190 0b 2e 3b ba 6b ba b1 bd c3 7f be ba 67 9a 5f 3c
       -0.0007140345 -0.086781345 -0.0014533926 0.013647652
0001a0 38 56 1c bd ca 2e ac bd 5f d1 e5 3d f4 be 36 3c
       -0.038168162 -0.08407362 0.11221575 0.011153925
0001b0 bb 5c 1f bd 2a 75 e0 bd cf 04 8e bd 52 6d a0 3d
       -0.038906794 -0.10959847 -0.06934511 0.07833351
0001c0 25 e0 e3 bc 09 02 22 3e 53 00 f2 bd c0 47 be bd
       -0.027816841 0.15821089 -0.11816468 -0.09291029
0001d0 5e cc 0b 3e 9a 43 74 bd 89 c7 b3 3d 94 bb 36 bc
       0.13652179 -0.059634782 0.08778293 -0.011153121
0001e0 4b 62 f2 bd 8b 05 48 bd f6 ac 10 bd bf 72 c7 bd
       -0.11835154 -0.04883341 -0.0353212 -0.09738683
0001f0 05 56 10 be d4 22 9b bb 42 f5 ed bd ae ff bc bd
       -0.14095314 -0.0047343764 -0.11619045 -0.092284545
000200 a8 90 13 bd 8d 67 90 bb 61 64 ba bd 16 8c ff 3a
       -0.036026627 -0.0044068755 -0.09101177 0.0019496705
000210 d3 20 b6 3d ba 0b ee 3d 3b 43 29 bd cf 53 86 bc
       0.088929795 0.116233304 -0.04132388 -0.016397385
000220 5a 42 a1 3d 51 ad 00 bd 8f 46 e9 3d 6e 94 0e 3e
       0.07873984 -0.031415287 0.11390411 0.13923809
000230 c6 a5 8c 3c 12 c5 19 bc 2c d9 7c bd 34 ee 08 3c
       0.01716889 -0.009385364 -0.06173055 0.008357573
000240 05 d4 d9 bd 11 66 ae bd ca 44 0a be 46 ae 0d 3e
       -0.10636143 -0.08515561 -0.13502803 0.13836011
000250 e5 46 12 3d 33 ff 31 bc da f5 4b 3d 9d 47 70 3d
       0.03571214 -0.010864067 0.04979501 0.058662046
000260 ce eb 96 3c 71 80 ea 3d 2e 7a 3b 3d 1e 1e e6 3d
       0.018422987 0.114502795 0.045770817 0.11236213
000270 97 77 5d 3d d1 b1 d3 bd 41 f9 8d 3d 25 9c 2e 3d
       0.054069128 -0.1033665 0.06932307 0.04262938
000280 d1 ec 08 bd d4 8e 6c 3c 97 7e 50 3d d4 88 8b 3d
       -0.03342897 0.01443835 0.050901975 0.06813207
000290 af 8c 9d bd d9 2a e9 bd f4 86 ab bc 00 d4 99 3d
       -0.07692849 -0.11385126 -0.020938374 0.07511139
0002a0 d8 64 94 bd 8d 98 c6 bd ba 36 77 3d 49 26 87 bd
       -0.07245797 -0.096970655 0.060354926 -0.06599099
0002b0 44 86 0a 3e 21 1a 28 3c a2 c4 a2 3c 20 c7 a8 bd
       0.13527781 0.010260136 0.019869152 -0.08241105
0002c0 fd c7 a4 bd df f4 a9 3d ef b8 94 3d ab db dd bc
       -0.08045957 0.082986586 0.07261836 -0.027082285
0002d0 81 0a df 3d 54 f0 91 3d a6 7c df 3b f8 a0 59 bd
       0.10890675 0.07125917 0.006820279 -0.053132027
0002e0 4d b9 03 3e 3c 7f b0 bd 27 3b 88 bc 16 81 7a 3d
       0.12863655 -0.08618018 -0.016629769 0.061158262
0002f0 b0 92 46 3d 72 a3 4f 3d d5 13 52 3e 71 56 65 bd
       0.048479736 0.050692983 0.20515378 -0.05599064
000300 d1 a0 0f bd 88 01 0c bd 15 72 91 3d 34 67 d0 3b
       -0.035065476 -0.034181148 0.071018375 0.006359959
000310 fd a2 89 3d f6 55 dd 3d 97 b0 ce 3c 7a 77 da bb
       0.06720541 0.108074114 0.025230689 -0.0066670747
000320 36 44 0f bd 47 8a 76 3d 7c 1e 1a 3e c1 f0 85 3c
       -0.03497716 0.060190465 0.15050691 0.016350152
000330 02 b5 4d bd d3 22 91 bd c8 e6 f6 3d 99 25 cf bc
       -0.05022145 -0.0708672 0.12055737 -0.025286483
000340 d7 a3 90 bd fb 96 cb 3d 29 14 50 3d 8b f0 e2 3c
       -0.070625 0.099409066 0.050800476 0.02770259
000350 5d 80 cb 3d 69 68 c7 3d 2f f0 6a 3c e5 c5 f0 3d
       0.09936593 0.097367115 0.014339491 0.117564954
000360 ea 28 d3 3d e6 bd 21 bd 70 47 bd 3d e8 5a 1b 3e
       0.10310538 -0.039487742 0.09242141 0.15171397
000370 0a 55 82 3b c4 54 b5 3d 43 57 51 bd 2e 1c 1c bd
       0.0039774226 0.088540584 -0.05110861 -0.03811281
000380 39 e6 db bc b1 78 bf 3c 7c 98 c3 bd bc 8d 59 3b
       -0.026843177 0.02337298 -0.095505685 0.0033196053
000390 8d 2a 8b bd 5a c4 09 3e 2c 31 1a 3d fa 5b d9 bd
       -0.06795225 0.13453808 0.03764455 -0.10613246
0003a0 28 f1 e9 3d db 1c 65 3d 40 52 5d bd f3 29 b5 3d
       0.1142295 0.05593572 -0.054033518 0.08845892
0003b0 6d c6 96 3d b6 f2 a6 bc ff f0 e5 3c 65 1b 1c 3d
       0.073620655 -0.020379405 0.028069017 0.038112063

model.rnn.weight_ih_l1 f4 [240, 60]
000000 86 64 60 bc a0 c1 2f 3e 0e 1f e6 3d 4f 93 a6 bd
       -0.013695842 0.17163706 0.11236392 -0.08133566
000010 6b e1 3f 3c 5f e3 25 bd c4 46 27 be 68 d2 2a 3e
       0.011711459 -0.04050004 -0.16335589 0.16681826
000020 fb 48 e2 3c 7e a4 5e 3c ee bf 1f bd a2 1a ca ba
       0.02762269 0.013589023 -0.039001398 -0.0015419314
000030 e9 74 8e bc 23 10 09 3e ac 88 dc bd 18 5d 37 be
       -0.017389731 0.13385062 -0.107682556 -0.17906606
000040 b7 f3 40 bd a4 99 35 be 77 4c 01 3e f7 76 94 3c
       -0.047107425 -0.1773439 0.12626825 0.018123133
000050 43 6f 61 bd de 4e c1 3d 11 21 08 3e 47 f4 87 bd
       -0.055037748 0.09438871 0.13293864 -0.06638389
000060 f3 0c ef bd 81 03 29 bd e7 fc b2 bd 8e 2d 28 bd
       -0.11672392 -0.041263107 -0.087396435 -0.04105907
000070 79 f2 54 3d bf b6 6a 3d 26 a1 f6 bd 65 c6 5d bd
       0.051989052 0.057303187 -0.120424554 -0.054144282
000080 5c fa 54 bd ee 74 ad 3d 09 3a 8a 3d 6e 48 fa bd
       -0.051996574 0.08469568 0.067493506 -0.12220846
000090 3f 00 04 be 56 e9 10 3e 3d 70 2a be 97 08 44 bd
       -0.12890719 0.1415151 -0.16644378 -0.047859754
0000a0 84 28 3a bd 43 36 f1 bd 40 f9 f4 3d cb e4 3c 3d
       -0.045448795 -0.11777928 0.11961603 0.04611663
0000b0 27 0c ea 3d 2b 71 16 3d a8 5b 22 be 78 ed bf 3d
       0.11428099 0.03672902 -0.15855277 0.093714654
0000c0 89 32 93 bd 32 9f c6 3c fe 04 a6 3d 6e a5 35 be
       -0.07187373 0.024245832 0.08106421 -0.17738888
0000d0 29 c2 ff 3d b9 2a e3 3d 38 2d 65 3d 9b e7 a2 3d
       0.12488205 0.11092133 0.055951327 0.079543315
0000e0 35 20 6a bd df d4 87 3b ee 83 b4 3d f8 4b 93 3c
       -0.05715962 0.0041452493 0.08814226 0.01798056
0000f0 f5 39 b2 bd a1 c5 aa bd c8 97 9e bd 16 3d 5f bd
       -0.08702461 -0.08338476 -0.07743794 -0.054501615
000100 cd b3 01 be 32 d4 49 3c 01 d7 ee bd d9 69 f2 3d
       -0.12666245 0.012318658 -0.116621025 0.11836595
000110 7f b5 30 3d 04 bc 26 bd 6e ea f4 bd 0a d6 7c 3d
       0.04314184 -0.04070665 -0.119587764 0.06172756
000120 5f 84 f2 3d e2 2e 24 bd 41 a0 cd bd 31 78 01 be
       0.11841654 -0.040083773 -0.10040332 -0.12643506
000130 8d 48 8b 3b cc 71 5a bd 49 53 9f bd cc 16 a8 3d
       0.004250592 -0.05333118 -0.07779557 0.08207473
000140 0e 7e d0 bd 46 dc 5f 3d ce e8 01 be 51 8c b0 bd
       -0.10180293 0.05465343 -0.12686464 -0.08620513
000150 9a 45 be 3d 6f b4 c0 3d db ff 2e bb c8 c9 48 bd
       0.09290619 0.09409415 -0.0026702795 -0.04902056
000160 6c 17 16 be b9 36 cf bd e9 3c c1 bd d5 fa 67 3d
       -0.14657372 -0.101178594 -0.09435446 0.056635696
000170 ff 6f d5 3d 9e 7c da 3b 7f 67 a3 bc ba 85 1d 3d
       0.10421752 0.0066676876 -0.019946812 0.03845761
000180 2d b3 2e 3d 42 73 8c bd 66 d3 0d bd 14 c5 51 3d
       0.042651344 -0.06857921 -0.034625433 0.05121334
000190 8d 73 eb 3d 85 ec b0 3d 78 30 a7 bc 93 1b d4 bc
       0.11496649 0.086388625 -0.020408854 -0.025892055
0001a0 1d a6 9f 3c 9b ea 1f be 8d bf 14 be 03 8d 4e 3d
       0.019488389 -0.15616839 -0.14526196 0.050427448
0001b0 5c e0 dc 3c 1f 9e 89 bb af 58 ec 3d bc 83 9f 3d
       0.026962452 -0.0041997577 0.115403526 0.07788798
0001c0 f2 d5 5f 3d 61 61 4b bc 9d 76 1c 3d 7f 2d a8 3d
       0.054647394 -0.012413354 0.038199056 0.08211803
0001d0 be 50 95 bd 7f 13 2b bc 2d 54 31 bd 60 88 be bd
       -0.07290791 -0.01044166 -0.043293167 -0.09303355
0001e0 c8 02 9a 3d b1 46 24 be 37 03 e0 bd 55 0c b3 bd
       0.07520062 -0.16042592 -0.10938113 -0.087425865
0001f0 3b 16 80 3c 96 d8 3e 3e ce ac 5a bc dc aa 95 3d
       0.0156356 0.18637308 -0.013346864 0.073079795
000200 47 fa d0 3d 7c f4 f0 3d 5f e5 bf bd 02 3b e5 3b
       0.102039866 0.11765382 -0.09369921 0.0069955597
000210 54 2e 65 3d bc 1b fe bc 46 a2 e9 3c 3a c4 8b 3d
       0.055952385 -0.031019084 0.02851976 0.068245366
000220 5e 07 0b be dd 24 58 bd e1 5e c8 3c 23 d1 39 3e
       -0.13577029 -0.05276953 0.024459304 0.18146186
000230 84 43 9b 3d 49 5c 0a 3e a5 6b 04 3d 26 2f 5b bd
       0.07581237 0.13511766 0.03232922 -0.05351176
000240 22 af f2 bd a2 ed f7 bd f1 e7 37 bd 21 d1 9a 3d
       -0.1184981 -0.12105872 -0.04489893 0.075594194
000250 82 ae 06 3e c6 01 96 3d 24 05 cf bd 43 35 1e 3d
       0.13152507 0.07324557 -0.10108402 0.038625013
000260 d7 e8 bd bd 98 21 08 bc d0 32 17 3d 34 39 24 be
       -0.09272926 -0.008308791 0.036913693 -0.16037446
000270 61 12 4a 3d 5e df f4 3d e8 32 cb 3d bc a2 4b be
       0.049333934 0.119566664 0.09921819 -0.19886297
000280 29 7d f1 3c 89 c8 cd bd a7 ec b3 3d 23 7b 33 3e
       0.029478626 -0.10048015 0.08785372 0.17527442
000290 de ed 28 3e 91 da 94 bd 00 54 b4 bd 41 92 5e 3d
       0.16496989 -0.07268251 -0.08805084 0.054338697
0002a0 3f fa 2c bd 90 09 03 be 8a 81 ce bd 95 ae 25 be
       -0.04223084 -0.12796617 -0.10083301 -0.16179879
0002b0 83 b9 ef 3d 0f fb cd 3d 78 d3 1b 3e 2b 5c 6c bd
       0.117053054 0.10057651 0.15217388 -0.057705086
0002c0 74 99 68 3c a7 0f ef bd 98 96 be 3d 04 1d 62 3d
       0.014196742 -0.11672907 0.09306067 0.055203453
0002d0 a6 36 62 bd d2 21 21 bc b0 28 3e bd de e6 07 be
       -0.055227898 -0.009834724 -0.04642552 -0.13271663
0002e0 b6 50 1b be 2e 57 d2 3d fe fa ae 3c f7 cf eb 3d
       -0.15167508 0.102705345 0.021359917 0.115142755
0002f0 3d 21 6e bd 7a 43 96 bd 23 fc 3f be dc 45 4b 3d
       -0.058137167 -0.07337089 -0.18748526 0.04962717
000300 2e f6 b5 bc 88 62 45 3e e5 dd 33 be 57 61 86 3d
       -0.022212114 0.19275868 -0.17565115 0.06561535
000310 fb 8b 47 be 08 7b 25 3c f7 0d 47 3d 00 5b 56 bd
       -0.19486992 0.010100134 0.048597302 -0.052332878
000320 5c 22 74 3c 31 d3 00 3e d2 eb 54 bc 98 e8 1c be
       0.01490077 0.12580563 -0.012995677 -0.15323102
000330 ae ea 3e 3d 15 f6 10 bd 66 1c 01 be f3 32 31 3e
       0.046610527 -0.035390932 -0.1260849 0.17304592
000340 ef 6f 8a 3d e6 74 3c be ee b7 ad 3d 20 36 04 be
       0.06759631 -0.18403968 0.084823474 -0.12911272
000350 a1 4a 24 bd 4e 94 08 3e a2 78 a7 3d 8d 1e 33 bd
       -0.040110234 0.13337824 0.08177306 -0.043730307
000360 08 ac 06 3d 5d 87 99 3d f7 6d 80 3c 90 2e 60 3c
       0.032878906 0.074965216 0.015677435 0.013682976
000370 83 9c 08 be 8d f7 16 bd 52 a8 34 3e d3 55 9e 3d
       -0.13340954 -0.036857177 0.17642334 0.077312134
000380 db f8 46 3d cf f5 90 3b 52 bd e3 bd e9 0c 42 3d
       0.04857717 0.004423834 -0.11120094 0.047375593
000390 11 67 99 bc 07 91 0f bd 5f 28 09 3d 61 a4 60 bd
       -0.018725904 -0.03505042 0.033485767 -0.054844264
0003a0 a9 3c 36 3e 59 f8 92 3c f3 94 90 bd 61 53 c7 bc
       0.17796578 0.017940687 -0.0705966 -0.02433175
0003b0 40 c7 5a 3d e3 ab 0c be 36 48 86 3d 48 b9 f8 3d
       0.053412676 -0.13737445 0.06556742 0.121447146
0003c0 ce 8e 68 3d 64 6f c1 bd 4e e6 de 3d 01 fc ab 3d
       0.056776814 -0.09445074 0.10883771 0.08397675
0003d0 5d 23 c5 bd ca c5 be 3d 2d 5d 05 3e 5e d3 ba bd
       -0.09625886 0.09315069 0.13023825 -0.09122346
0003e0 19 3f 96 bd 86 cb ab bb e8 4f cd 3b 41 df c0 bc
       -0.07336254 -0.0052427677 0.006265629 -0.023543956
0003f0 74 f8 05 3d 97 06 cc bd fb 0d 0f 3d c9 90 ff 3d
       0.032707646 -0.099621944 0.034925442 0.124787875

model.rnn.weight_hh_l1 f4 [240, 60]
000000 8c aa 0e 3e 12 6f 4b 3c 91 08 26 bd 47 c0 ac 3c
       0.13932246 0.012416618 -0.040535513 0.021087779
000010 8f 4b 6c bd 05 96 22 be 59 5f 04 bb 04 82 92 3d
       -0.057689246 -0.1587754 -0.0020198433 0.07153705
000020 9b 18 d9 3d 40 8e 3b bc 8c 80 73 3d 32 e7 8d bd
       0.10600396 -0.011447489 0.059448764 -0.06928863
000030 35 c9 1a be 85 d1 ac 3b 3b 1d 17 be 3e 51 1a 3d
       -0.15115817 0.005274 -0.14757244 0.037675135
000040 52 22 9e 3d ba 92 35 3d ca 9d 1c be 89 ad 29 bd
       0.0772139 0.044329382 -0.15294567 -0.04142526
000050 ed ef 26 3e b9 04 df 3d 4c 62 a1 3d 0e 0c 5b 3d
       0.16302462 0.10889573 0.07880077 0.053478293
000060 70 f8 9d 3d 50 b2 f4 3d 15 c6 27 be 07 ed 41 bd
       0.07713401 0.11948073 -0.16384156 -0.047345188
000070 14 80 30 3d aa c7 24 be b5 c8 38 3c 43 95 15 3d
       0.043090895 -0.16091791 0.011278321 0.0365193
000080 e7 eb 48 3e e5 d3 8f bb 4a 90 24 3e fa da 9f 3b
       0.1962124 -0.0043892735 0.16070667 0.004878399
000090 5c 1a ee 3c 34 25 ae bb 91 10 0c bd 38 41 ee bd
       0.029065304 -0.0053144936 -0.034195486 -0.11633533
0000a0 7c 05 b7 3d 9a 69 c3 ba ef 3c 5d 3d f4 a8 07 3e
       0.08936593 -0.0014908791 0.05401319 0.13248044
0000b0 de 75 d8 bd 4b 01 02 bd d4 06 56 3d 33 59 91 bd
       -0.105693564 -0.031739514 0.052252606 -0.070970915
0000c0 a7 e7 81 3d 51 fe 83 3d 20 94 e1 bd 46 2e 1e 3d
       0.06343012 0.064449914 -0.11014581 0.03861835
0000d0 5b 85 16 3c 59 15 31 3e 40 e0 d1 bc bc 6e fd bc
       0.009187068 0.172933 -0.025619626 -0.030936591
0000e0 da 83 65 3d d7 e0 ef 3a 26 b8 89 bd cc 67 05 be
       0.056033947 0.001830126 -0.06724577 -0.13027877
0000f0 88 8c 8b bc e1 83 00 3c d9 9f 0f be ed af fd 3c
       -0.017034784 0.007843942 -0.14025821 0.030967677
000100 b4 53 83 bd 50 20 32 3c f7 c6 46 3d c8 ed 2e ba
       -0.064124495 0.010871962 0.04852959 -0.00066730054
000110 bf c0 df bd 00 02 4d bd f7 8d 9c bd 60 9d b4 bd
       -0.10925435 -0.050050735 -0.07644265 -0.088190794
000120 6d 8b 37 bd 0c 76 cd bd f2 39 7e 3c 9b 4c 73 3c
       -0.0448107 -0.10032281 0.015516745 0.014849807
000130 f5 da 15 bb 8d ea fe bb 79 a7 9e 3d 96 0a 10 3d
       -0.0022866104 -0.0077794255 0.077467866 0.035166346
000140 52 36 96 bd af a4 25 bd 3a a7 c2 bd 50 e3 cb bc
       -0.073345795 -0.040440258 -0.09504552 -0.024888664
000150 93 29 af bd 74 d5 e8 3d db f5 01 bc 73 ba d5 bd
       -0.085528515 0.11368838 -0.007932152 -0.10435953
000160 6e 1e 21 3b 64 0a 76 bd 98 4f fe bd 6a ee ac bc
       0.0024584788 -0.060068503 -0.12417525 -0.021109778
000170 8b b1 d1 3d 07 4f 5a bc 14 8e 91 3d 24 4f 12 bd
       0.10238942 -0.013324506 0.071071774 -0.035720006
000180 8d bc 76 bc b1 61 21 3d e1 b8 49 bd 7e e1 f3 bd
       -0.015059602 0.039399806 -0.04924858 -0.119082436
000190 ec dd 6d 3d 23 c5 6e 3d cb 78 c7 bc 6b d4 df bd
       0.05807297 0.058293473 -0.02434959 -0.109291874
0001a0 df e8 e0 3d ad 89 11 3e 60 b8 d7 bc 72 23 a2 bd
       0.10981917 0.14212675 -0.026333034 -0.07916917
0001b0 02 85 18 3d 80 ce 75 3d 90 fb 54 3d a3 19 b8 3d
       0.03723622 0.060011387 0.05199772 0.08989265
0001c0 f3 38 8c 3d 37 c7 c7 bd 71 c5 21 bd fd 54 b0 3d
       0.068468 -0.09754794 -0.039494935 0.0860996
0001d0 dd 42 f0 bd 99 be e6 3d e4 a5 b2 bc dc be bc 3c
       -0.11731503 0.11266822 -0.021807618 0.023040228
0001e0 38 cc d5 bc a9 1c 12 3e 96 71 8f bd e3 03 94 bd
       -0.026098356 0.14268745 -0.07004087 -0.07227304
0001f0 5d 07 96 bd e1 4d 3a be 12 f5 fd bd 11 01 fa bc
       -0.07325623 -0.18193771 -0.12400259 -0.030518087
000200 58 30 87 bd f1 5e d9 39 fd 43 82 bd 1b 7f eb bd
       -0.06601018 0.00041460202 -0.06360624 -0.11498853
000210 59 46 c7 bc 85 eb 61 3d 8b 92 83 3d 7a ed db 3d
       -0.024325537 0.05515625 0.06424435 0.107386544
000220 74 3c a4 3d bd a4 0e 3d 9e ff fc bd 8a 25 07 3e
       0.08019343 0.034825075 -0.123534426 0.13197914
000230 fc ae 25 bd 1a a1 1b 3e 8c 04 1e 3d 0c c5 ae 3d
       -0.04045008 0.15198174 0.038578555 0.085336775
000240 d1 a0 c4 3d b3 37 68 bd 50 02 2c be fe 16 1e 3d
       0.09600986 -0.056693744 -0.16797757 0.038596146
000250 6b 8e bf 3d 55 65 53 bd db c8 cb 3d d5 5a 28 be
       0.09353336 -0.05161031 0.099504195 -0.164409
000260 17 5b 01 3d 57 80 9e bc 29 98 07 3e 4d c8 e3 bb
       0.03158101 -0.019348307 0.13241638 -0.006951368
000270 a1 73 e7 3d ab 58 d5 bc 1a 8d 55 bd 3a 70 51 bd
       0.11301351 -0.026043257 -0.052136518 -0.05113242
000280 50 65 a8 bc 88 48 f7 bb 25 e1 13 bd 46 5b 01 ba
       -0.020556122 -0.007546488 -0.036103386 -0.000493456
000290 6b 9c e1 bd f6 8e 1c 3e 6c c7 8b 3c b1 c8 ef 3c
       -0.110161625 0.1528891 0.017062865 0.029270502
0002a0 51 55 6d bd 42 a5 3b bd b2 3c f7 3c 4f cf 30 3d
       -0.057942692 -0.0458119 0.030180309 0.043166455
0002b0 a2 2f 89 3d 77 40 90 3d 5a fb 0e 3c 34 9f ac 3d
       0.06698538 0.07043546 0.008726919 0.08428803
0002c0 74 bf d7 3c 7e bd fb bd 5e 48 2a 3d 53 19 20 bc
       0.02633641 -0.12292002 0.04157292 -0.009771663
0002d0 fd 6b fb 3d cd 6e 13 3e fd 37 4b 3c e3 c9 29 3e
       0.122764565 0.14397736 0.012403485 0.1658092
0002e0 90 0a 28 bd 34 96 a9 3b 02 af c3 bd 10 8d 14 be
       -0.0410257 0.0051753763 -0.095548645 -0.14506936
0002f0 8f ae 0e 3e a2 8f 2c 3d dc be ac 3d cc f6 8a 3d
       0.13933776 0.042129166 0.08434841 0.06785354
000300 f8 c5 89 3c 6c cf b3 3d a4 be 9a 3d 4c 1b 5a bd
       0.016818032 0.08779797 0.07555893 -0.05324869
000310 4c 92 a0 3d f8 a1 22 be f3 34 98 3c 81 f0 c2 3c
       0.07840404 -0.15882099 0.018579936 0.023796322
000320 a8 da b9 3d f4 9d 23 bd 09 dd 07 3e 96 bb d4 3d
       0.090749085 -0.039945558 0.13267912 0.10387342
000330 28 3a 09 ba 1a 60 2b 3e e8 8d 1e be da d8 e6 bd
       -0.0005234801 0.16735879 -0.1548382 -0.1127183
000340 a6 ee 9b bb 97 67 6a 3d 26 8f 1f bc 8a 82 16 3d
       -0.0047586737 0.057227697 -0.009738719 0.036745586
000350 f6 b6 12 bd 53 33 4c bd 75 c9 d2 3d ac d2 44 3c
       -0.035819016 -0.049853634 0.10292331 0.012013119
000360 e0 ea dc 3d b3 fc 32 3c c1 d9 30 3d 85 c8 10 be
       0.10786986 0.010924506 0.043176416 -0.14138992
000370 6b 69 30 3e 23 af 65 3d 29 34 27 3e 46 3d 22 3e
       0.17227714 0.056075227 0.16328491 0.15843686
000380 76 6e f7 bd 30 6f a1 3d 4c 3f 09 3d 8b 79 94 3d
       -0.120816156 0.078825355 0.03350763 0.07249745
000390 76 5c 21 be 64 66 10 be e8 4b 72 bb 25 0f 95 bc
       -0.15757927 -0.14101559 -0.0036971513 -0.018195698
0003a0 50 1a 98 3d 26 90 93 3a 2c d5 01 3d 19 7d c7 3d
       0.07426894 0.001125817 0.031697437 0.09740657
0003b0 6f c5 a2 3c 35 1b bb bd f5 24 86 bd 05 5b ff bd
       0.019869534 -0.09136049 -0.06550018 -0.124685325
0003c0 aa c3 9f 3d 87 50 67 3d 50 ec 1a 3d 2b 13 f7 bd
       0.07800992 0.05647328 0.03782302 -0.12064203
0003d0 91 6d 1c be 48 f4 17 bb 35 5d 09 bc cf 10 67 3d
       -0.15276171 -0.0023186374 -0.008384039 0.056412514
0003e0 bc e5 c4 3c 0d 13 a3 bd 15 25 a5 ba 6e 25 c3 bd
       0.024035327 -0.07962618 -0.0012599552 -0.095286235
0003f0 f4 dc 00 bc 4d 72 b2 bc 72 41 66 3d a9 53 45 3d
       -0.007865179 -0.021783018 0.056214757 0.048175488
