checkpoints/epoch=1-step=100-v7.ckpt (torch, 621663 bytes, 33 tensors)

model.param_proj.proj.0.weight f4 [1, 60]
0	0x3e329870	0.17440963
1	0xbd8cb59d	-0.068705775
2	0x3cd54943	0.02603591
3	0xbe459b31	-0.19297482
4	0x3e4bde09	0.19908918
5	0xbd87697a	-0.06611915
6	0xbe505561	-0.2034507
7	0xbe41c231	-0.18921734
8	0xbd9050bf	-0.07046651
9	0x3e1912a5	0.14948519
10	0xbe0c9543	-0.13728814
11	0xbe3fa806	-0.1871644
12	0xbc0fee61	-0.008784861
13	0xbda07c37	-0.07836192
14	0xbe49cd81	-0.197073
15	0x3e29c44f	0.16578792
16	0xbe3a1c93	-0.18174963
17	0x3b2d36a8	0.0026430283
18	0x3ca6a674	0.020343043
19	0x3b97aa86	0.0046284823
20	0xbbd9bfcd	-0.006645179
21	0x3e655e62	0.22399285
22	0xbe082b56	-0.13297781
23	0xbdefe68c	-0.11713895
24	0xbe3dfe9d	-0.18554159
25	0x3e2637e9	0.16232266
26	0x3d446f0f	0.047957476
27	0xbd1bfd56	-0.038083397
28	0x3e06fd8b	0.13182656
29	0x3d1d8f10	0.038466513
30	0x3e1ae746	0.15127286
31	0xbbaeab66	-0.005330491
32	0x3cd2e6fe	0.025744911
33	0xbdd057e9	-0.101730175
34	0xbe05624e	-0.13025782
35	0x3e3c518b	0.18390481
36	0x3d9ac9b0	0.07558
37	0x3e07670a	0.132229
38	0xbe145b7c	-0.14488024
39	0x3da4cb33	0.0804657
40	0x3daf0ff5	0.085479654
41	0xbd955e34	-0.072933584
42	0x3e182b47	0.14860259
43	0x3d89b760	0.06724429
44	0x3d6e5990	0.058190882
45	0x3e09e4d6	0.134662
46	0x3e171eb4	0.14757806
47	0x3db62fbc	0.08895823
48	0xbd560989	-0.052255187
49	0xbe1d47f1	-0.15359475
50	0xbe5f6bcf	-0.2181847
51	0x3dcb63d8	0.09931153
52	0x3d8f5e23	0.07000377
53	0x3e7808e1	0.24222137
54	0xbd1662d6	-0.03671535
55	0x3c25bd05	0.010115867
56	0x3e039419	0.12849464
57	0x3e24f9bd	0.16110893
58	0x3d398e1d	0.045301545
59	0xbe0f093f	-0.13968371

model.param_proj.proj.1.weight f4 [1, 60]
0	0x3de84403	0.11341097
1	0x3d8d9eb1	0.069150336
2	0xbe45be7d	-0.19310947
3	0x3e3a6d65	0.18205793
4	0x3e1d35e8	0.15352595
5	0xbe4fd292	-0.2029517
6	0xbe265dd6	-0.16246733
7	0x3ad34214	0.0016117715
8	0x3c1a5c27	0.009421385
9	0x3c43dbac	0.011954229
10	0x3d4df5fb	0.050283413
11	0x3e33a1ac	0.17542142
12	0x3deaba8d	0.11461363
13	0xbdc80138	-0.097658575
14	0x3e1cec05	0.1532441
15	0xbe4065a2	-0.1878877
16	0xbe3693a5	-0.1782976
17	0x3c1acbe3	0.009448024
18	0xbd767c8b	-0.060177367
19	0x3dff450c	0.124643415
20	0x3e1cbd5b	0.15306608
21	0xbded8ae1	-0.11598755
22	0xbe0547ed	-0.13015719
23	0xbe3af9cd	-0.18259354
24	0xbcba37af	-0.02273163
25	0x3de85905	0.11345104
26	0xbe08efde	-0.13372752
27	0xbae48f2e	-0.001743769
28	0xbe04a899	-0.1295494
29	0xbd98f273	-0.074681185
30	0xbe3eefcc	-0.18646163
31	0xbe2a6a1a	-0.16642037
32	0xbe179ce7	-0.14805947
33	0x3d8e06ad	0.06934867
34	0x3e197dae	0.14989349
35	0x3c38411c	0.011245992
36	0xbc46e351	-0.012139157
37	0xbd977d83	-0.07396986
38	0xbd6de0ad	-0.058075596
39	0xbd3916a9	-0.045187626
40	0xbe34d0be	-0.17657754
41	0xbe325834	-0.1741646
42	0x3e2552af	0.16144823
43	0xbd712cfc	-0.05888079
44	0x3d4ddbaf	0.050258335
45	0x3e2ae4d5	0.16688855
46	0xbe0ad3fb	-0.13557427
47	0xbdca29d2	-0.09871258
48	0x3da07191	0.07834161
49	0xbda93abb	-0.08263155
50	0x3dd1886b	0.10231098
51	0xbd781922	-0.060570844
52	0xbe2f6520	-0.1712842
53	0x3da62424	0.08112362
54	0xbe043976	-0.12912545
55	0xbdb4d299	-0.08829231
56	0x3d40c231	0.047060195
57	0xbdd5ea66	-0.104450986
58	0x3dbb0421	0.09131647
59	0x3e204cdf	0.15654324

model.param_proj.proj.2.weight f4 [1, 60]
0	0xbde647ca	-0.112441614
1	0x3c281ed4	0.010261256
2	0x3d901646	0.07035498
3	0xbcd62d80	-0.026144743
4	0xbd428844	-0.047493234
5	0xbdc35ea1	-0.095395334
6	0xbdd14f56	-0.1022021
7	0x3baef872	0.0053396756
8	0xbe096ee6	-0.1342121
9	0x3d6c13d9	0.057636116
10	0x3dffc6d8	0.12489098
11	0x3cae27ed	0.021259272
12	0x3d5869db	0.052835327
13	0xbd876430	-0.06610906
14	0xbcf66923	-0.03007943
15	0x3c5043f8	0.0127115175
16	0x3d852f80	0.065032005
17	0x3ddb1561	0.10697437
18	0x3db15e2a	0.086605385
19	0x3d890318	0.06690043
20	0xbd96e5e0	-0.07368064
21	0xbd6916a3	-0.056906354
22	0xbce5a9f8	-0.028035149
23	0xbdcff090	-0.101533055
24	0x3d046d3b	0.032330733
25	0x3de338ab	0.11094793
26	0x3daad144	0.083406955
27	0x3cc83e68	0.02444382
28	0x3d4d6ea5	0.050154347
29	0x3d49241e	0.04910671
30	0xbd57438b	-0.05255465
31	0xbc964fcc	-0.018348597
32	0x3d670f77	0.056411233
33	0x3caabbe4	0.020841546
34	0xbcf0e563	-0.029406255
35	0xbc97a309	-0.018510358
36	0xbd6afbe2	-0.05736912
37	0x3d7d4e27	0.06184211
38	0xbd9c9d37	-0.07647174
39	0x3d4e9c06	0.050441764
40	0xbe09f07b	-0.13470642
41	0x3db04e40	0.08608675
42	0x3daa6622	0.083202615
43	0x3d0b8f81	0.034072403
44	0xbdd82d0c	-0.10555467
45	0x3d432943	0.047646772
46	0x3dc23afd	0.09483907
47	0xbc96894a	-0.018376011
48	0xbe0cd2c6	-0.13752279
49	0xbd873814	-0.06602493
50	0x3caa2f36	0.020774465
51	0xbd966c74	-0.073449045
52	0xbde68b7b	-0.112570725
53	0x3da5bf95	0.08093182
54	0xbe0638d9	-0.13107623
55	0xbdc2266e	-0.09479986
56	0x3dcab200	0.09897232
57	0x3c5a58e7	0.01332686
58	0x3d1e2a69	0.038614664
59	0xbda62e5b	-0.0811431

model.rnn.weight_ih_l0 f4 [240, 24]
0	0xbe4670b4	-0.1937893
1	0xbdecfaa2	-0.11571242
2	0xbc1e1774	-0.009649146
3	0x3d9f0dfb	0.077663384
4	0xbd45cd83	-0.048291694
5	0xbd0f81d8	-0.035035938
6	0xba9fbd1e	-0.0012187099
7	0x3dbb5524	0.09147099
8	0xbd839d5a	-0.06426497
9	0x3e33709e	0.17523429
10	0x3e1b76bf	0.15182017
11	0xbdad8615	-0.0847284
12	0xbdde3e6b	-0.10851749
13	0x3cc9e686	0.024646055
14	0x3dd87373	0.10568895
15	0xbc735504	-0.014851812
16	0x3bb03f4e	0.0053786403
17	0x3d1ac7f2	0.03778834
18	0x3e0f1f34	0.13976747
19	0xbddbc058	-0.10730046
20	0xbd939ac5	-0.07207254
21	0x3e12d97a	0.14340773
22	0x3cf30a8f	0.02966812
23	0xbbe42cac	-0.006963333
24	0xbdf3895a	-0.11891432
25	0x3c9b3ba9	0.018949347
26	0xbdc8bbed	-0.09801469
27	0x3e48c345	0.1960574
28	0x3d7963ca	0.060886182
29	0x3da14f62	0.07876469
30	0x3d4f73e5	0.050647635
31	0xbde103f0	-0.10987079
32	0xbd7e4af6	-0.062083207
33	0xbdce435d	-0.10071442
34	0x3c820769	0.015872674
35	0x3de204b3	0.110360526
36	0xbdd311e8	-0.1030615
37	0x3d55682c	0.0521013
38	0xbb9de30e	-0.004818327
39	0x3c92ae8a	0.017905492
40	0x3dcf77d3	0.101302765
41	0x3e19e6c5	0.15029438
42	0x3c13ecfc	0.009028669
43	0xbdd1537d	-0.10221002
44	0xbd3f8123	-0.046754014
45	0x3d143426	0.036182545
46	0xbe34aa0b	-0.17642991
47	0x3d63d6aa	0.05562464
48	0xbe16e2c4	-0.14734942
49	0xbccc2875	-0.024921635
50	0xbdaba5d7	-0.08381241
51	0xbdb3abef	-0.08773028
52	0x3d2278ad	0.039665867
53	0xbdc85968	-0.09782678
54	0xbe0e52fa	-0.1389884
55	0x3dd84505	0.105600394
56	0xbdb76822	-0.08955409
57	0x3dc4a13a	0.09601064
58	0xbca8fe00	-0.02062893
59	0xbd21d154	-0.03950627
60	0xbdf77446	-0.12082724
61	0xbdffdc0f	-0.12493145
62	0xbd8f88dc	-0.07008526
63	0xbdcc1e56	-0.099667236
64	0x3dca6bb5	0.09883825
65	0xbe28850a	-0.16457
66	0xbd8bfae8	-0.06834966
67	0xbd8a8a30	-0.067646384
68	0x3d1b17c0	0.037864447
69	0x3e40763e	0.18795106
70	0x3dc7953c	0.09745261
71	0xbcc04dd5	-0.023474613
72	0x3cb3ce53	0.021948969
73	0x3b82b57d	0.0039889202
74	0xbe23256b	-0.15932243
75	0xbda75819	-0.081711
76	0x3e28b9ba	0.16477099
77	0xbe0dfef2	-0.13866785
78	0x3c48d039	0.012256675
79	0xbd891e8a	-0.06695278
80	0x3db56db3	0.08858814
81	0xbd10e97d	-0.03537892
82	0xbe492887	-0.19644366
83	0xbd7ef115	-0.062241632
84	0x3c431852	0.011907654
85	0x3d9484c0	0.072518826
86	0x3cb8cb48	0.02255787
87	0x3d94a585	0.07258133
88	0xbe206e21	-0.15667011
89	0x3da638a4	0.08116272
90	0xbd8048c9	-0.06263883
91	0xbd911ee7	-0.07085972
92	0x3d107488	0.035267383
93	0xbd99d974	-0.07512179
94	0x3db293c9	0.08719594
95	0xbd93c15d	-0.072146155
96	0xbdb7349a	-0.0894558
97	0x3d93c151	0.072146066
98	0xbc9200f8	-0.017822728
99	0xba63400d	-0.0008668907
100	0xba152dca	-0.0005690722
101	0xbddb3f98	-0.10705489
102	0x3da63488	0.08115488
103	0xbdc32923	-0.095293306
104	0xbdf7a4ee	-0.12092005
105	0xbdc82995	-0.09773556
106	0x3db455cb	0.08805426
107	0xbdaa36f5	-0.083112635
108	0xbd6e10d4	-0.058121517
109	0xbc73dec4	-0.014884654
110	0x3d91fba0	0.07128072
111	0x3be5ff58	0.0070189647
112	0x3e2c78bc	0.16842932
113	0x3ddd9cb5	0.10820905
114	0xbc823875	-0.015896061
115	0x3d344c35	0.04401799
116	0xbbb442af	-0.0055011134
117	0x3c8aaa4b	0.016926905
118	0x3d4071bc	0.046983466
119	0x3e19acf1	0.15007378
120	0x3a891cd3	0.0010460861
121	0xbe124de0	-0.1428752
122	0xbe237e14	-0.15966064
123	0xbc4c1229	-0.012455502
124	0xbd2d902b	-0.042373817
125	0x3c7d2c2d	0.015452427
126	0xbe0794ef	-0.13240407
127	0xbc615d2b	-0.013755123
128	0xbd1ccc91	-0.038281027
129	0x3dd7a16c	0.10528836
130	0xbe2da5b4	-0.16957742
131	0xbd54f7a6	-0.05199399
132	0x3d86aeae	0.06576286
133	0xbe2c8dde	-0.16850993
134	0xbdbcc07d	-0.09216402
135	0x3d196af6	0.03745552
136	0xbdfab3bf	-0.12241315
137	0x3b371f4c	0.0027942238
138	0x3dfc8df4	0.12331763
139	0x3d374ff8	0.044754
140	0xbe26614c	-0.16248053
141	0xbe61cb02	-0.22050098
142	0xbc58b960	-0.013227791
143	0xbc7941ad	-0.015213412
144	0xbcac7979	-0.021054016
145	0xbd4296fc	-0.04750727
146	0xbd916781	-0.0709982
147	0x3dd0bd87	0.101923995
148	0xbd8a0d44	-0.067408115
149	0x3d33b8e3	0.043877494
150	0xbdeedaec	-0.1166285
151	0xbda7086a	-0.08155902
152	0x3daad52e	0.08341442
153	0x3d838fb4	0.064238936
154	0x3dbec36e	0.09314619
155	0xbc9b36c4	-0.018947013
156	0x3c831f84	0.016006239
157	0xbd94bc87	-0.07262521
158	0x3d688f02	0.056777008
159	0x3bf208d7	0.0073863077
160	0x3dd857b9	0.10563607
161	0x3d65ed77	0.056134667
162	0xbdb55708	-0.088544905
163	0xbd89c52d	-0.067270614
164	0xbdff91ae	-0.12478958
165	0x3ca70711	0.020389112
166	0x3af904a6	0.0018998578
167	0x3c43c518	0.011948846
168	0xbdcc0dcc	-0.09963569
169	0xbcd894f9	-0.026438223
170	0xbe00e668	-0.12587893
171	0xbda0e2b7	-0.078557424
172	0xbdb4f4a5	-0.08835725
173	0xbd7eb168	-0.062180907
174	0xbe136dc7	-0.14397345
175	0xbceb3d4c	-0.028715752
176	0xbd94fb25	-0.072744645
177	0x3ce32262	0.027726356
178	0xbd855e43	-0.065121196
179	0x3e0b4e1b	0.13604014
180	0xbc7e0663	-0.015504452
181	0xbd631fcb	-0.055450242
182	0x3bee46c3	0.007271619
183	0xbc3cf447	-0.01153285
184	0xbdb1a5cb	-0.086742006
185	0xbe5c3641	-0.21505071
186	0xbcd82e1f	-0.02638918
187	0xbded1d8a	-0.115779
188	0xbdcb5da9	-0.09929974
189	0x3d1c4fb6	0.038161956
190	0x3e448a98	0.19193494
191	0xbb078001	-0.0020675662
192	0x3cc7b817	0.024379773
193	0xbc8f8f9b	-0.017524531
194	0x3e44f9bb	0.1923589
195	0xbe036873	-0.12832813
196	0xbc485c48	-0.012229033
197	0xbc531ef5	-0.012885799
198	0x3c57d419	0.013173127
199	0x3d6a0194	0.05713041
200	0x3d926ee9	0.07150061
201	0x3e15320e	0.14569876
202	0xbd951a5b	-0.072804175
203	0x3c660aff	0.014040708
204	0x3d371c32	0.044704624
205	0xbc9e825e	-0.019349273
206	0xbe11a5c6	-0.14223394
207	0x3d11d4c5	0.035603303
208	0x3dc2ef02	0.09518243
209	0xbd929bb6	-0.07158606
210	0xbb039fcc	-0.002008426
211	0xbd8e822a	-0.069584206
212	0xbc240ef5	-0.010013332
213	0xbd92850e	-0.071542844
214	0x3d5023d7	0.05081543
215	0x3e422fd9	0.18963565
216	0x3e0c5812	0.13705471
217	0x3ccaa3ba	0.024736274
218	0xbd2e9acc	-0.042628095
219	0xbd91a8c6	-0.07112269
220	0x3dc7fd67	0.097651295
221	0x3d42306d	0.047409464
222	0xba9de0d9	-0.0012045159
223	0x3d9f1bcc	0.07768974
224	0x3d95025f	0.07275843
225	0x3e473042	0.19452003
226	0xbe0d8418	-0.13819921
227	0x3e01bc99	0.126696
228	0xbd25fed4	-0.040526226
229	0x3e0225b9	0.12709703
230	0xbe0dbd69	-0.13841785
231	0xbd4648be	-0.048409216
232	0x3d8d7157	0.069063835
233	0x3dd38c80	0.103295326
234	0x3dc6d36d	0.09708295
235	0x3b748875	0.003731278
236	0xbd5cc965	-0.053903002
237	0xbe144506	-0.14479455
238	0xbe05af40	-0.13055134
239	0xbccf85f1	-0.025332423
240	0xbccac958	-0.024754211
241	0x3d0b1adf	0.033961173
242	0x3dad7f04	0.08471492
243	0x3d6d1b06	0.0578871
244	0x3d3b8cb5	0.045788486
245	0x3d436d0a	0.04771141
246	0x3d8246a9	0.063611336
247	0x3d67ab6c	0.056559965
248	0xbd0681c8	-0.032838613
249	0x39c493ea	0.00037494238
250	0xbd877b69	-0.066153355
251	0xbcc926b3	-0.024554586
252	0xbdc3d2be	-0.0956168
253	0xbde2df6a	-0.11077769
254	0xbce97afb	-0.028501024
255	0xbd6c0896	-0.057625376

model.rnn.weight_hh_l0 f4 [240, 60]
0	0x3dd36461	0.1032188
1	0x3cfcdd3b	0.03086721
2	0xbdcdeb36	-0.100546286
3	0xbe0dd225	-0.13849695
4	0xbd547d72	-0.051877446
5	0x3db9e63f	0.09077119
6	0x3c1d3d4b	0.009597133
7	0x3d60c891	0.054878775
8	0x3e16fb19	0.14744224
9	0xbd3848f3	-0.044991445
10	0xbe01c5fe	-0.12673184
11	0x3c281f6f	0.010261401
12	0xbdf16937	-0.11787646
13	0x3d14075a	0.036139823
14	0x3de86fe5	0.11349467
15	0x3dc55345	0.09635023
16	0xbd669ed9	-0.056303833
17	0xbdc2a299	-0.09503669
18	0xbd3e752e	-0.04649847
19	0x3dfe5c5d	0.12419961
20	0xbca795c6	-0.02045716
21	0x3dca1377	0.09866994
22	0xbc964671	-0.018344136
23	0xbcf1bf52	-0.029510174
24	0xbdab7dc4	-0.08373597
25	0xbdb20e16	-0.08694093
26	0xbd07ff08	-0.0332022
27	0xbbfa9aba	-0.0076478394
28	0x3cbce58f	0.02305868
29	0x3dcc61fd	0.09979627
30	0xbd23acb4	-0.039959624
31	0x3cd7bce9	0.026335197
32	0xbda62837	-0.08113139
33	0x3e15764a	0.14595905
34	0x3d022d35	0.031781394
35	0x3d024fc1	0.03181434
36	0xba58a485	-0.00082642614
37	0xbdbda5f2	-0.09260167
38	0x3da243c4	0.079230815
39	0xbe01dbf4	-0.12681562
40	0xbd7d34d6	-0.061817966
41	0xbd8183d2	-0.06323971
42	0x3da98eff	0.082792275
43	0x3d49155f	0.049092647
44	0xbddcc71a	-0.10780163
45	0xbd32a4d9	-0.043614242
46	0x3deb9e6a	0.115048245
47	0x3dcf2c8e	0.1011592
48	0xbdd0dcaa	-0.10198338
49	0x3d341d64	0.04397334
50	0xbdb562d0	-0.088567376
51	0x3d270707	0.040778186
52	0x3d9590cf	0.07303011
53	0xbde83272	-0.11337747
54	0x3e059a08	0.1304704
55	0x3d9301c4	0.07178071
56	0x3cdf960b	0.027293226
57	0xbd5f05f7	-0.054449048
58	0x3d0f9052	0.035049744
59	0xbd4e4c01	-0.05036545
60	0xbd0fba42	-0.03508974
61	0xbd3cf33a	-0.046130396
62	0xbd1f8a2a	-0.038950123
63	0xbcc27d47	-0.023741378
64	0x3c53ae98	0.012920044
65	0xbd6e6b6f	-0.058207925
66	0x3e0c6539	0.13710488
67	0xbdba8c24	-0.09108761
68	0x3d3cb8c0	0.04607463
69	0x3d5bf42c	0.053699657
70	0x3d8bcd0f	0.06826221
71	0x3d073cde	0.03301703
72	0x3c0fdad9	0.008780205
73	0xbc821e76	-0.015883666
74	0xbdc6eeb1	-0.097134955
75	0x3ddb61f1	0.1071204
76	0x3d9e2510	0.07721913
77	0x3d6e238a	0.05813936
78	0x3c6cd5cb	0.014455269
79	0x3cec1e85	0.028823147
80	0x3da5ba0e	0.08092128
81	0xbd71b0c9	-0.059006486
82	0xbd94b2fe	-0.072607026
83	0x3d947fd1	0.072509415
84	0xbe124315	-0.14283402
85	0xbc80e104	-0.015732296
86	0x3df8bd97	0.121455364
87	0xbc226961	-0.00991282
88	0xbe209117	-0.15680347
89	0xbcb0b9d0	-0.021572977
90	0xbdb5998b	-0.088671766
91	0xbd5f6191	-0.054536406
92	0x3c78bca5	0.015181695
93	0x3e028906	0.12747583
94	0x3d0aefae	0.033919983
95	0x3dbf1490	0.09330094
96	0x3cf63515	0.030054608
97	0x3b4cd6cc	0.0031255959
98	0xbdbef220	-0.093235254
99	0xbe202c51	-0.15641905
100	0xbdc78089	-0.09741313
101	0xbe195618	-0.14974248
102	0x3dae3353	0.08505883
103	0xbdcc27c5	-0.09968523
104	0x3d47d3b1	0.04878587
105	0xbd600a05	-0.054697055
106	0xbdb94047	-0.09045463
107	0xbc5c0026	-0.01342777
108	0xbd25838f	-0.040408667
109	0x3bd831b8	0.006597724
110	0xbcc4cb50	-0.024022728
111	0xbddc8b9a	-0.107688144
112	0x3cd4b4ac	0.025965057
113	0x3dfdd9d5	0.12395064
114	0x3de35870	0.111008525
115	0xbc95d1a7	-0.018288447
116	0xbd9667db	-0.073440276
117	0xbbb4bed8	-0.0055159144
118	0x3d11c760	0.03559053
119	0xbbf36f59	-0.007429045
120	0xbd48a284	-0.048983112
121	0x3d1e4230	0.03863734
122	0xbcc53cf9	-0.024076926
123	0xbe092a78	-0.13395107
124	0xbe31afb4	-0.17352182
125	0x3d99fce6	0.0751894
126	0xbd85ec3b	-0.06539198
127	0x3d77b484	0.060474887
128	0x3e117333	0.14204101
129	0x3cd222ae	0.025651302
130	0xbdeabf7c	-0.11462304
131	0xbb523adb	-0.0032078538
132	0x3e059636	0.13045582
133	0x3d95d4b0	0.073159575
134	0xbd74284a	-0.059608735
135	0xbd57ec81	-0.052715782
136	0x3de45b5e	0.111502394
137	0xbce59f1c	-0.02802997
138	0x3cbd601d	0.02311712
139	0xbd9a1d24	-0.075250894
140	0x3d5a48e3	0.053292166
141	0x3e368de8	0.1782757
142	0xbd113e33	-0.03545971
143	0x3d3c15c1	0.045919184
144	0xbe082cd2	-0.13298348
145	0xbd45b195	-0.04826506
146	0xbe12e904	-0.14346701
147	0xbdbfd368	-0.093664944
148	0xbdfdc170	-0.12390411
149	0x3dc7098d	0.097186185
150	0xbc8f57e7	-0.01749797
151	0x3d662215	0.056184847
152	0xbdaacfe8	-0.08340436
153	0xbd2c7e30	-0.04211253
154	0x3bcc7998	0.006240081
155	0x3dfd5a12	0.12370695
156	0xbdd2cc26	-0.102928445
157	0x3d039d11	0.032132212
158	0xbd1ea3e0	-0.038730502
159	0x3bab8954	0.0052348766
160	0x3e2ee90f	0.17081092
161	0xbd3754a0	-0.04475844
162	0x3d2ae980	0.04172659
163	0xbc1415ac	-0.00903837
164	0xbd9371bf	-0.0719943
165	0xbe059cd7	-0.13048111
166	0x3d78a5dc	0.06070505
167	0x3c99e6eb	0.018786868
168	0xbbdd02cf	-0.0067447196
169	0x3dad8091	0.08471788
170	0xbbfccfc1	-0.007715196
171	0xbc0e64b0	-0.008690998
172	0xbda2849f	-0.07935452
173	0xbc782446	-0.015145367
174	0x3c871261	0.016488256
175	0x3da641e2	0.08118035
176	0xbda2927c	-0.07938096
177	0xbdc5620e	-0.09637843
178	0xbdcf3514	-0.10117546
179	0x3db52884	0.08845618
180	0x3deb8cab	0.1150144
181	0x3dc5c374	0.0965642
182	0x3ca3f65d	0.020014936
183	0x3d99eecd	0.07516251
184	0xbcf712f5	-0.030160407
185	0xbd37979c	-0.04482232
186	0x3c03c7bd	0.008043227
187	0x3d888bb3	0.066672705
188	0x3ded7e58	0.11596364
189	0xbe1eaa69	-0.15494694
190	0xbba4d343	-0.005030067
191	0xbce68eb6	-0.028144222
192	0x3db476d9	0.08811731
193	0x3d3dc90e	0.04633432
194	0xbe06a066	-0.13147125
195	0x3dded9d3	0.108813904
196	0xbc63ccf2	-0.013903843
197	0x3d07c9bc	0.033151373
198	0xbe2389f5	-0.15970595
199	0x3ab2794a	0.0013616469
200	0xbe315cef	-0.17320608
201	0x3c96a002	0.018386845
202	0x3dc02c86	0.09383492
203	0x3d97a2b6	0.074040815
204	0xbd5b749d	-0.053578008
205	0xbdc5a540	-0.096506596
206	0xbd810425	-0.06299619
207	0xbd241042	-0.040054567
208	0xbda9b1c4	-0.08285859
209	0xbda2465a	-0.07923575
210	0x3dfcae73	0.12337961
211	0xbd9b2641	-0.07575656
212	0x3d00fe11	0.031492297
213	0xbc7d9347	-0.015477008
214	0x3a33b620	0.0006855447
215	0xbcba0fd4	-0.022712626
216	0xbe17978b	-0.14803903
217	0xbc87cec0	-0.016578078
218	0xbdcce4dd	-0.1000459
219	0xbdfb63b7	-0.122748785
220	0xbb2bedf8	-0.002623437
221	0xbd5e3f68	-0.054259688
222	0xbd86ceab	-0.065823875
223	0x3d2518b4	0.04030676
224	0xbdee0750	-0.116224885
225	0x3c74647d	0.014916536
226	0x3cb73f6f	0.022369115
227	0x3d940002	0.07226564
228	0xbd930840	-0.07179308
229	0x3e35184c	0.1768505
230	0x3d1daa3b	0.038492423
231	0x3c72c6b1	0.01481788
232	0xbd94ba36	-0.072620794
233	0xbd9cfc63	-0.076653264
234	0x3d8ededb	0.069761
235	0x3dc757e7	0.09733563
236	0xbdcda632	-0.10041465
237	0xbe01280e	-0.12612936
238	0xbdb56b2d	-0.08858333
239	0xbca3027d	-0.019898647
240	0x3e1c04ff	0.15236281
241	0xbdd08390	-0.101813436
242	0xbe3ed371	-0.18635346
243	0x3d472ab2	0.0486247
244	0x3d07586f	0.03304332
245	0x3db17883	0.08665564
246	0xbd789ca3	-0.060696255
247	0x3dcc4d02	0.099756256
248	0x3de12204	0.10992816
249	0x3dd40239	0.103519864
250	0xbde931cb	-0.113864504
251	0x3dc1750f	0.09446155
252	0x3e05bbfe	0.13059995
253	0xbe0b6769	-0.13613667
254	0x3e052a1e	0.13004348
255	0x3de9895d	0.11403153

model.rnn.bias_ih_l0 f4 [240]
0	0x3e126c83	0.14299206
1	0xbd7b8944	-0.061410204
2	0xba9ecba7	-0.0012115136
3	0x3d7df8e3	0.062004935
4	0xbd712a67	-0.05887833
5	0x3da8ce3f	0.08242463
6	0x3dc9bc78	0.09850401
7	0x3e11a91a	0.14224663
8	0x3ce2d33a	0.027688611
9	0xbd90fce7	-0.07079487
10	0x3dfdb1ea	0.1238745
11	0x3e048037	0.12939535
12	0xbd281d71	-0.041043703
13	0xbc337759	-0.010953748
14	0x3e3e83b3	0.18604927
15	0xbdb5fd01	-0.08886147
16	0x3dfc9ec8	0.123349726
17	0xbd925da2	-0.07146765
18	0x3e1915e4	0.14949757
19	0x3d60d860	0.05489385
20	0x3c28f7d5	0.010312994
21	0xbb28016c	-0.0025635613
22	0x3d7d249d	0.061802495
23	0xbd2f324a	-0.04277257
24	0xbd3de42f	-0.04636019
25	0xbdf8497f	-0.12123393
26	0x3d9df4da	0.07712717
27	0x3e2a0432	0.16603163
28	0xbcd93042	-0.026512269
29	0x3e138e04	0.14409643
30	0x3e0a7609	0.1352159
31	0x3e2271ab	0.15863673
32	0x3d457163	0.048203837
33	0x3d9a1e6c	0.07525334
34	0xbce5d57f	-0.028055904
35	0xbcf79419	-0.030221986
36	0x3dae6c51	0.085167535
37	0x3d42fa6d	0.047602106
38	0x3d8396df	0.06425261
39	0xbb14d74f	-0.0022711342
40	0x3e55c7cb	0.20876996
41	0x3dfd6ed5	0.12374655
42	0x3d9ee011	0.07757581
43	0xbd57cc64	-0.052685156
44	0x3e112eaa	0.14177957
45	0x3c447642	0.0119910855
46	0x3e09eb88	0.13468754
47	0xbbb9d960	-0.005671665
48	0x3df84e9b	0.12124368
49	0x3d20cb28	0.039256245
50	0xbce917e3	-0.028453773
51	0x3e31d3df	0.17365979
52	0xbd29df6a	-0.04147283
53	0xbd20af01	-0.039229397
54	0xbc1a1c6e	-0.009406192
55	0x3c44cacb	0.01201124
56	0xbdf03e0f	-0.11730587
57	0xbd73505b	-0.059402805
58	0xbcf54d02	-0.029943947
59	0x3d73ee5c	0.05955349
60	0xbd809fd7	-0.06280487
61	0x3b32510c	0.0027208952
62	0x3d4cab16	0.049967848
63	0x3dd0d954	0.10197702
64	0x3e123c3a	0.14280787
65	0x3d3bff4a	0.04589776
66	0xbd9a3232	-0.07529105
67	0x3dd5333e	0.10410164
68	0x3d95432a	0.07288201
69	0x3e0e6bed	0.13908358
70	0xbd540c42	-0.051769502
71	0xbdd713e8	-0.10501844
72	0xbd2832b2	-0.04106397
73	0x3d9026e2	0.07038666
74	0x3d3c36b7	0.045950618
75	0x3c934acc	0.017980002
76	0x3c8a3a22	0.016873423
77	0xbd86ec72	-0.06588067
78	0x3d897b35	0.06712953
79	0x3c767c7d	0.015044329
80	0xbbee8071	-0.007278495
81	0x3d16bb7a	0.036799885
82	0xbdb0d93c	-0.08635184
83	0xbd5062ca	-0.050875463
84	0xbdb2b3bd	-0.087256886
85	0xbdbcee98	-0.09225196
86	0x3d5971b8	0.053086966
87	0xbc1d5dde	-0.009604899
88	0xbc8571f0	-0.016289681
89	0x3daab14f	0.083346
90	0xbdd55899	-0.10417289
91	0x3def0c76	0.116722986
92	0xbcf8561f	-0.030314503
93	0x3dbc555f	0.09195971
94	0x3c34707c	0.0110131465
95	0xbcaa2db7	-0.020773752
96	0x3de14db6	0.1100115
97	0x3da0a575	0.078440584
98	0xbd301ed8	-0.042998165
99	0x3dc2dc7e	0.09514712
100	0xbdabecb4	-0.08394757
101	0x3bc142e3	0.005897866
102	0xbd99694a	-0.074907854
103	0xbd8e2032	-0.069397345
104	0xbcb70725	-0.022342274
105	0xbe0d8851	-0.13821532
106	0xbda1922a	-0.07889207
107	0x3df1e4ce	0.11811219
108	0xbc00f1eb	-0.007870178
109	0x3c502404	0.012703899
110	0x3d191544	0.037373796
111	0xbd99e1bd	-0.07513759
112	0xbdd178eb	-0.102281414
113	0x3e0728ca	0.13199154
114	0xbe03e4e5	-0.12880285
115	0xbd9bffd8	-0.07617158
116	0x3dafbadb	0.08580562
117	0xbbfc6e79	-0.007703599
118	0x3d4a9a39	0.049463484
119	0x3c864f12	0.016395126
120	0x3deccb06	0.11562161
121	0xbe038c24	-0.12846428
122	0x3d8fd454	0.0702292
123	0x3df18564	0.1179302
124	0xbb18bc07	-0.0023305432
125	0x3de8a381	0.11359311
126	0xbd279f36	-0.04092332
127	0x3cdc4eea	0.026893098
128	0xbd70c97a	-0.058785893
129	0xbda53f99	-0.08068771
130	0xbe17fa31	-0.14841534
131	0x3cf1b225	0.029503891
132	0x3cf3b621	0.029749932
133	0x3cf68c29	0.03009613
134	0x3d85a16c	0.065249294
135	0x3d98d0e7	0.0746172
136	0x3ded640a	0.115913466
137	0xbd0aee0c	-0.033918425
138	0xbdc4ec8f	-0.096154325
139	0x3dc7da07	0.09758382
140	0xbe061666	-0.13094482
141	0xbddc1fc9	-0.1074825
142	0xbd6e20ea	-0.058136858
143	0xbdbf02ab	-0.09326681
144	0xbb36ca07	-0.0027891414
145	0x3ce7842f	0.028261272
146	0xbd99a825	-0.07502774
147	0xbd97e157	-0.07416027
148	0xbd402e1e	-0.04691898
149	0x3d551a94	0.0520273
150	0x3dcca7b7	0.099929266
151	0x3de1fca7	0.11034518
152	0x3d96c487	0.07361703
153	0x3bcc9ed0	0.006244518
154	0x3b9133ab	0.004431208
155	0x3a8e4c36	0.0010856453
156	0xbcb08c74	-0.021551348
157	0xbd0274e7	-0.031849768
158	0xbde374aa	-0.11106236
159	0xbde349ea	-0.11098082
160	0xbc3c10ca	-0.011478612
161	0xbd613e72	-0.054991193
162	0xbdb33eff	-0.0875225
163	0xbddb9938	-0.107225835
164	0xbdd93638	-0.106060445
165	0x3d619f0d	0.055083323
166	0xbd995ef1	-0.07488812
167	0xbdc8d7dd	-0.09806798
168	0xbd950519	-0.07276363
169	0x3d9d9c2e	0.076958045
170	0x3dd0d664	0.10197142
171	0xbdcbb8bb	-0.09947344
172	0xbc77f7f7	-0.015134803
173	0x3d9fda60	0.078053236
174	0x3dd38b13	0.10329261
175	0x3d8d23bf	0.06891584
176	0x3dd346e9	0.103162594
177	0x3da15698	0.078778446
178	0x3d881093	0.06643786
179	0xbc5e54f4	-0.013570059
180	0x3dc572bb	0.09641024
181	0x3e21b224	0.15790612
182	0x3d9a122c	0.07522997
183	0xbccf6006	-0.025314342
184	0x3daec06e	0.08532797
185	0xbd064f9a	-0.032790758
186	0x3d5009c8	0.050790578
187	0x3e24271a	0.16030541
188	0xbd5ab43a	-0.053394534
189	0x3d48ab8a	0.048991717
190	0x3df797a1	0.12089468
191	0x3d66555f	0.05623376
192	0xbd16e8a0	-0.036842942
193	0xbd262c64	-0.040569678
194	0xbd5df7e2	-0.054191478
195	0x3d7974fd	0.060902584
196	0x3e0deaf1	0.13859154
197	0x3d8f597d	0.069994904
198	0x3c9ea7b7	0.019367082
199	0x3cc532ba	0.02407204
200	0x3dd04cd8	0.10170907
201	0x3df4d284	0.11954215
202	0x3d829db7	0.06377738
203	0x3ccddebd	0.025130624
204	0x3d03ac10	0.032146513
205	0x3d019e3e	0.031645052
206	0xbd2c8582	-0.04211951
207	0x3d067ff7	0.03283688
208	0x3cd0235c	0.025407486
209	0xbdaaf520	-0.08347535
210	0xbbcf664c	-0.0063293334
211	0x3d100c07	0.03516772
212	0xbb86dabb	-0.00411543
213	0x3d45e8d4	0.048317745
214	0xbd6cd281	-0.05781794
215	0x3d3fbf81	0.04681349
216	0x3de9ae2a	0.11410172
217	0x3d875415	0.06607834
218	0xbce1a9c9	-0.02754678
219	0x3dad4ae7	0.08461552
220	0x3dd1a6a8	0.10236865
221	0x3d9b225b	0.07574912
222	0x3d9509f1	0.07277287
223	0xbd5d1280	-0.05397272
224	0xbd2e178c	-0.042502925
225	0x3d31fea8	0.04345575
226	0xbd820248	-0.06348091
227	0x3d83d1fe	0.06436537
228	0xbcaf9415	-0.021432916
229	0x3db71587	0.08939653
230	0xbcc53fc9	-0.024078267
231	0x3cd0646a	0.025438506
232	0x3d4d5abe	0.050135367
233	0xbd03ee65	-0.032209773
234	0xbcf25f89	-0.02958657
235	0xbcf37a7b	-0.02972149
236	0xbd825f78	-0.063658655
237	0x3dd3cf79	0.10342307
238	0x3e286391	0.16444232
239	0x3d5e9024	0.054336682

model.rnn.bias_hh_l0 f4 [240]
0	0xbd937ce6	-0.07201557
1	0x3e02727c	0.12738985
2	0x3d364c1b	0.044506174
3	0x3dc06082	0.093934074
4	0xbd4d21fc	-0.05008124
5	0x3dcb9152	0.09939827
6	0xbd2ae1b2	-0.041719146
7	0x3c1fccc6	0.009753412
8	0x3dd0bb14	0.10191932
9	0xbd316716	-0.0433112
10	0xbdbaa99f	-0.09114384
11	0xbdd4bf9e	-0.103881106
12	0x3e08093f	0.13284777
13	0x3ded5766	0.115889356
14	0xbd6d5994	-0.057946756
15	0xbd5d8faa	-0.054092087
16	0xbd921940	-0.07133722
17	0xbd9b0906	-0.075700805
18	0x3e141095	0.1445945
19	0x3dafd8b5	0.085862555
20	0x3dcf79d3	0.10130658
21	0x3dc7a746	0.09748702
22	0x3c347894	0.011015076
23	0x3e3e8d27	0.18608533
24	0x3c9ae5f4	0.018908478
25	0xbb81ebb7	-0.003964867
26	0xbd8afcb0	-0.067864776
27	0x3c926bca	0.017873663
28	0x3e10c06d	0.14135905
29	0x3cf9403b	0.030426135
30	0x3d0f4800	0.034980774
31	0x3ddd136d	0.10794721
32	0xbd99f1e8	-0.07516843
33	0xbdff833f	-0.12476205
34	0x3da036b5	0.078229345
35	0x3dc2bf5e	0.09509157
36	0x3c24bf32	0.01005535
37	0x3d74ffc5	0.059814233
38	0x3db9aeb2	0.090665236
39	0x3e302ab4	0.1720379
40	0xbc778727	-0.015107906
41	0x3dbe4fe9	0.092925854
42	0x3c164b03	0.009173158
43	0x3da2f060	0.07956004
44	0x3dd6008c	0.10449323
45	0x3d724d5f	0.059155818
46	0x3e0c16e5	0.13680609
47	0x3e03dc04	0.12876898
48	0xbd2761ab	-0.040864628
49	0x3d5bbe3d	0.053648222
50	0x3e13c021	0.1442876
51	0xbba84acf	-0.005135871
52	0x3df12837	0.117752485
53	0x3e2fb42f	0.17158578
54	0x3d9d47d3	0.07679715
55	0x3e028ade	0.12748286
56	0xbdc9548a	-0.09830578
57	0x3c4e96d6	0.012609204
58	0x3de7126a	0.11282809
59	0x3c602a32	0.013681935
60	0xbca17b2b	-0.019712051
61	0xbdc2ae90	-0.095059514
62	0x3c264fad	0.010150832
63	0x3db03c7b	0.08605286
64	0xbd3aa9ab	-0.045571964
65	0x3df3efc6	0.119109675
66	0x3d82757c	0.063700646
67	0xbdbff783	-0.09373381
68	0x3d8c9cde	0.068658575
69	0xbd1be7ce	-0.038062863
70	0x3dfb675b	0.12275573
71	0x3d09d906	0.033654235
72	0xbd3f2217	-0.04666337
73	0xbd1f6b88	-0.03892091
74	0x3dd583cd	0.1042553
75	0xbd638367	-0.055545237
76	0xbc1bfe3f	-0.009521066
77	0x3ddc418d	0.1075469
78	0xbcd353ff	-0.025796888
79	0xbd312cd7	-0.043255653
80	0xbd319670	-0.04335636
81	0x3c6fab6c	0.0146282725
82	0x3d6bb8a2	0.057549126
83	0xbc48181e	-0.012212781
84	0x3da40c34	0.0801014
85	0xbd54f0a2	-0.051987298
86	0x3df22924	0.11824253
87	0xbc6f8f51	-0.014621572
88	0xbd8eb3c2	-0.0696788
89	0x3d4dd4ab	0.050251644
90	0x3dd30511	0.10303701
91	0xbdbebcff	-0.09313392
92	0x3da6e7fe	0.08149718
93	0x3e039137	0.12848364
94	0xbca31150	-0.019905716
95	0x3cc82246	0.024430405
96	0x3c93bc99	0.018034266
97	0x3d201ed7	0.03909191
98	0x3d43cb45	0.047801275
99	0x3c1311f4	0.008976448
100	0xbdf44145	-0.11926512
101	0x3d96d34a	0.07364519
102	0x3e1e0dba	0.15434924
103	0x3de3e698	0.11127967
104	0x3d5e0c0f	0.05421072
105	0x3d32f99a	0.04369507
106	0x3d354453	0.044254612
107	0x3e0a12ad	0.13483687
108	0xbcef2d63	-0.029196447
109	0x3d19cf1a	0.037551023
110	0x3def8ce0	0.11696792
111	0x3df4d607	0.11954885
112	0x3b936b09	0.0044988436
113	0xbc2d14bb	-0.010564025
114	0x3db34a4c	0.087544054
115	0xbddf774e	-0.109114274
116	0x3df070d7	0.117402725
117	0xbccfd326	-0.025369238
118	0x3c6f1653	0.014592725
119	0xbcd53771	-0.026027413
120	0xbdd5a359	-0.10431547
121	0xbc66cb2c	-0.014086526
122	0xbc854b54	-0.01627127
123	0x3c62c29a	0.013840342
124	0x3dbd4e5b	0.09243461
125	0x3d91b600	0.07114792
126	0xbd9231bd	-0.07138393
127	0xbcca3176	-0.024681788
128	0xbc465ab6	-0.012106588
129	0xbccef795	-0.02526454
130	0xbcfff0c6	-0.03124274
131	0x3da2ae10	0.07943356
132	0x3d899b54	0.067190796
133	0xbc1ad1ca	-0.009449432
134	0x3cb21aec	0.021741353
135	0xbce6d617	-0.028178258
136	0xbd9eebe3	-0.077598356
137	0x3dd673aa	0.1047128
138	0xbd855955	-0.06511179
139	0x3d86861a	0.065685466
140	0xbdda022e	-0.10644947
141	0x3cb5bdea	0.022185285
142	0xbd988a6c	-0.07448277
143	0xbd410a4d	-0.047128964
144	0x3dd686b8	0.10474914
145	0x3d475275	0.04866262
146	0xbdeec68f	-0.11658966
147	0x3d033ee4	0.0320424
148	0x3dbb011f	0.09131073
149	0xbb92b191	-0.004476734
150	0x3d45cc0e	0.048290305
151	0x3d9c6d33	0.076380156
152	0xbd8e411e	-0.06946014
153	0xbd4e8857	-0.050422993
154	0x3cbc2ce5	0.022970626
155	0xbd4678f4	-0.048455194
156	0xbda70116	-0.08154504
157	0x3ca55afd	0.020184988
158	0xbe0d3d95	-0.13793023
159	0xbd8a440e	-0.06751262
160	0x3ce0294f	0.027363447
161	0xbc23d432	-0.009999322
162	0xbd3ce447	-0.04611614
163	0xbdd09a60	-0.10185695
164	0x3d64ec0b	0.05588917
165	0xbe07e263	-0.13269953
166	0xbd81a5c6	-0.06330447
167	0x3e0f2cff	0.13982008
168	0x3df41759	0.11918516
169	0x3e13a311	0.14417674
170	0x3cdfb79b	0.02730923
171	0x3d0b0e27	0.033949044
172	0x3de5cbf7	0.11220544
173	0xbe0698ab	-0.13144176
174	0xbd8acadc	-0.067769736
175	0x3d8b0533	0.06788101
176	0x3d2ff034	0.042953685
177	0x3d0f0e9e	0.03492605
178	0x3d4f7575	0.050649125
179	0x3d154f2d	0.03645246
180	0x3db63aed	0.08897958
181	0x3debfb6f	0.115225665
182	0x3d981e05	0.07427601
183	0x3c8ca0d9	0.017166542
184	0x3e1957b1	0.14974858
185	0xbd06e1fa	-0.03293035
186	0x3d7ca609	0.06168178
187	0x3db09b73	0.086233996
188	0xbc987f9a	-0.018615533
189	0x3e0d5af5	0.13804229
190	0x3ca30278	0.019898638
191	0x3dff2a3e	0.12459229
192	0x3d7b1a01	0.061304096
193	0xbb8b86ab	-0.004257997
194	0x3b45e5de	0.0030196826
195	0xbc97957a	-0.018503893
196	0x3cf844a1	0.030306162
197	0xbc44c110	-0.01200892
198	0x3d6c23c4	0.057651296
199	0x3e1dd440	0.15412998
200	0xbc486df4	-0.012233246
201	0xbc82f61a	-0.015986491
202	0x3e47a5ac	0.19496793
203	0x3b964a68	0.0045865066
204	0x3c94342c	0.018091284
205	0x3caf215d	0.021378214
206	0x3d01ad2c	0.03165929
207	0xbd5f14e5	-0.054463286
208	0xbcf59527	-0.029978348
209	0x3cadb982	0.021206621
210	0x3ba0739b	0.0048965937
211	0xbd002c32	-0.031292148
212	0x3c01a5a4	0.007913027
213	0x3dce46ae	0.10072075
214	0x3e035b9b	0.12827913
215	0xbd84141e	-0.064491495
216	0x3d95c1ed	0.07312379
217	0x3e137595	0.14400323
218	0x3dbf3d0f	0.09337818
219	0x3daefdbd	0.085444905
220	0x3d6ff882	0.058586605
221	0x3d82a891	0.06379808
222	0x3da5957b	0.08085152
223	0x3d91eb22	0.07124926
224	0x3e1f598b	0.15561502
225	0x3e0a5ee4	0.1351276
226	0x3e120e74	0.14263326
227	0x3df817d3	0.12113919
228	0x3e0c8042	0.13720801
229	0x3ddb25e0	0.107005835
230	0x3deb1238	0.11478084
231	0x3e536e26	0.20647487
232	0xbb6c24d4	-0.0036032693
233	0xbbff2e94	-0.007787535
234	0x3dbebd51	0.09313453
235	0x3e2c7dc5	0.16844852
236	0x3e06e978	0.13174999
237	0xbc42fd6e	-0.011901243
238	0x3e35ed36	0.1776627
239	0x3d4d95e0	0.05019176

model.rnn.weight_ih_l1 f4 [240, 60]
0	0x3db84239	0.08997006
1	0x3ca07b29	0.019589977
2	0xbe033c62	-0.12816003
3	0xbdda5fdc	-0.10662815
4	0x3d7dbc45	0.061947126
5	0x3e185b7c	0.14878649
6	0x3d9dbb72	0.07701768
7	0xbd088b3e	-0.033335917
8	0xbccc76ac	-0.02495893
9	0xbc98fdbc	-0.018675677
10	0xbe03540e	-0.12825033
11	0x3e1fded3	0.15612344
12	0x3e28ba5e	0.16477343
13	0xbdf6b938	-0.120470464
14	0x3b9651d9	0.0045873937
15	0x3e022c54	0.12712222
16	0x3e023dbc	0.12718862
17	0x3e3f5c90	0.18687654
18	0xbd931e03	-0.07183459
19	0x3e300161	0.17188026
20	0xbdc2482d	-0.09486423
21	0x3dd6efd0	0.10494959
22	0x3d93285e	0.07185434
23	0xbdd7f561	-0.10544849
24	0xbe01f731	-0.12691952
25	0xbd5bdfd8	-0.05368027
26	0xbe239adb	-0.15977041
27	0xbe041511	-0.12898661
28	0x3c57008d	0.01312269
29	0x3cbaaa45	0.022786269
30	0x3e199c63	0.15001063
31	0xbd93be2f	-0.07214009
32	0xbd4f926b	-0.050676744
33	0xbccda74b	-0.025104186
34	0xbd2f01f7	-0.042726483
35	0xbdc2ac75	-0.0950555
36	0x3d30a09c	0.04312192
37	0x3d601cd2	0.054714985
38	0x3d2f9baf	0.04287308
39	0x3dab0b7b	0.08351799
40	0xbd93078d	-0.071791746
41	0xbd88780c	-0.06663522
42	0x3df644bc	0.12024829
43	0xbe16e228	-0.1473471
44	0xbe311007	-0.1729127
45	0x3c6582d8	0.014008246
46	0xbabe4fc7	-0.0014519625
47	0x3c75256b	0.014962534
48	0xbdd94c54	-0.106102616
49	0x3deaf831	0.1147312
50	0x3d893e8e	0.067013845
51	0x3da7861c	0.08179876
52	0xbd3d1ba0	-0.046168923
53	0xbd400a8d	-0.046885062
54	0x3e064e12	0.13115719
55	0xbc0ca175	-0.008583416
56	0xbdbe1828	-0.09281951
57	0xbda8c18c	-0.08240041
58	0x3d6a826d	0.05725329
59	0xbc9ac0bf	-0.018890737
60	0xbdb15905	-0.08659557
61	0xbdb98953	-0.09059396
62	0x3e20c31c	0.15699428
63	0xbd835243	-0.064121746
64	0x3d672315	0.05642994
65	0x3da19701	0.0789013
66	0xbcfe0d1c	-0.03101211
67	0x3e44079f	0.19143532
68	0x3c41930e	0.011814846
69	0x3d63d40c	0.055622146
70	0x3ceea209	0.029129999
71	0x3e0062b1	0.12537648
72	0x3e267462	0.16255334
73	0xbdbe7b38	-0.09300846
74	0xbcb63da3	-0.022246188
75	0x3e05bc48	0.13060105
76	0xbd7b9c05	-0.06142809
77	0xbcdb4928	-0.026768282
78	0xbc3c71e1	-0.01150176
79	0xbce50271	-0.027955266
80	0x3da140dd	0.078737
81	0x3c6f3f10	0.014602438
82	0xbe191858	-0.14950693
83	0x3d9dfb69	0.07713968
84	0xbda3d0ef	-0.07998835
85	0x3dac4b2a	0.08412774
86	0x3d6e0eea	0.058119692
87	0xbcb5b7ce	-0.022182371
88	0x3d60008b	0.054688018
89	0xbd9b45fc	-0.07581708
90	0x3e2ed401	0.1707306
91	0xbe0351a5	-0.12824114
92	0xbd22b272	-0.03972096
93	0x3dc7554e	0.097330675
94	0xbe2e2da6	-0.17009601
95	0x3de6fd87	0.11278825
96	0xbb5926b8	-0.003313465
97	0xbc98f7dd	-0.018672878
98	0x3de75c83	0.11296942
99	0x3e21c387	0.15797244
100	0x3e26f627	0.16304837
101	0x3d9b08e3	0.075700544
102	0xbdf154c0	-0.11783743
103	0xbd9e2a5e	-0.07722925
104	0x3da5d088	0.08096415
105	0xbe1b1e59	-0.15148295
106	0x3d3aabf7	0.045574155
107	0x3bad9496	0.005297254
108	0xbd77eaa6	-0.060526513
109	0xbd966202	-0.07342912
110	0xbd27a780	-0.040931225
111	0x3cb141cb	0.021637818
112	0x3d23fde3	0.040037047
113	0xbdb8014d	-0.08984623
114	0x3cc772c9	0.024346726
115	0xbe2c4af4	-0.16825467
116	0x3d14e953	0.036355328
117	0x3ca94f9e	0.020667847
118	0xbd8431bb	-0.06454798
119	0xbd0599a3	-0.032617223
120	0x3d8e3898	0.06944388
121	0xbdbd3d60	-0.09240222
122	0xbdcf0104	-0.101076156
123	0xbe1b41cb	-0.15161817
124	0xbdc704df	-0.09717726
125	0xbd6e3e75	-0.058165032
126	0x3ab4ec5c	0.0013803351
127	0x3dc70b9c	0.09719011
128	0x3dea71a0	0.114474535
129	0xbb87202a	-0.0041237073
130	0xbe10a4d4	-0.14125377
131	0x3cd4b987	0.025967373
132	0x3d233b0c	0.039851233
133	0x3c4fa074	0.012672532
134	0xbd280dea	-0.041028894
135	0xbd142001	-0.036163334
136	0xbc9beaac	-0.019032799
137	0x3dac7e2b	0.08422502
138	0x3dcf74b2	0.1012968
139	0x3c813b8c	0.015775464
140	0xbd11fda1	-0.03564227
141	0x3c2234b2	0.009900259
142	0xbdef0aea	-0.116720036
143	0x3d7597fe	0.059959404
144	0x3db3cb06	0.08778958
145	0xbc27e2bc	-0.010246929
146	0xbd37a03b	-0.044830542
147	0xbd9ecd24	-0.07753971
148	0xbe117f63	-0.1420875
149	0xbc13d299	-0.009022378
150	0x3b5b6d05	0.0033481729
151	0xbd954472	-0.072884455
152	0x3d7b8ccf	0.061413582
153	0xbcf147a6	-0.02945311
154	0xbde33f19	-0.11096019
155	0x3db6212d	0.088930465
156	0xbe409132	-0.18805388
157	0xbdedf016	-0.116180584
158	0xbdd9834f	-0.10620748
159	0x3d754f9e	0.059890382
160	0x3dfea89c	0.124345034
161	0xbda52b75	-0.080649294
162	0x3e020e6f	0.12700818
163	0xbcd5139e	-0.02601033
164	0xbd575aea	-0.052576937
165	0xbe1462b3	-0.14490776
166	0xbd97e444	-0.07416585
167	0x3e1a4398	0.15064847
168	0xba2166a3	-0.00061569567
169	0x3e26e58c	0.16298503
170	0xbd9f727e	-0.077855095
171	0xbd723220	-0.059129834
172	0xbd8d394a	-0.06895693
173	0xbd9cd76a	-0.076582745
174	0x3d6258e9	0.055260573
175	0xbd4dad34	-0.050214007
176	0xbdecca7b	-0.115620576
177	0xbe2988d4	-0.16556102
178	0xbe1fc6ae	-0.15603134
179	0x3d962dbf	0.07332944
180	0x3d79cb94	0.060985163
181	0x395bd8ac	0.00020966184
182	0xbd5f0822	-0.054451115
183	0xbd4a8b1b	-0.049449068
184	0xbe0a946f	-0.13533185
185	0x3e4371e8	0.1908642
186	0xbd609d0e	-0.05483728
187	0xbbf57288	-0.00749046
188	0x3d188776	0.03723856
189	0xbde79610	-0.11307919
190	0xbc9d89c7	-0.019230736
191	0x3db9f9f7	0.0908088
192	0xbc9bced0	-0.019019514
193	0xbcbe1f76	-0.023208361
194	0x3da11908	0.078661025
195	0x3d81a172	0.063296214
196	0xbceea7a4	-0.029132672
197	0x3e05cecd	0.1306717
198	0xbd8c5f0e	-0.06854068
199	0x3e3b2973	0.1827753
200	0xbcc156b7	-0.02360092
201	0x3e03d691	0.1287482
202	0xbd012f32	-0.03153915
203	0x3c37858b	0.011201273
204	0xbdba36f8	-0.09092516
205	0xbcc92d65	-0.024557779
206	0xbd9f7f90	-0.077880025
207	0xbd402096	-0.046906076
208	0x3c2cd75d	0.0105493935
209	0xbd1f1184	-0.038835064
210	0x3dd4768d	0.10374174
211	0xbe1a27e6	-0.15054283
212	0x3bcd7d1a	0.006271017
213	0x3dd26f5c	0.10275146
214	0x3d0bd375	0.034137208
215	0x3df267cd	0.11836205
216	0x3c092b0b	0.008372079
217	0xbce11e6b	-0.027480325
218	0xbd5015e2	-0.05080212
219	0x3e0e3168	0.13886034
220	0x3d73804a	0.059448518
221	0xbe298798	-0.16555631
222	0xbc3fc5b8	-0.011704855
223	0xbe0c0b66	-0.13676223
224	0xbd8ebc27	-0.06969481
225	0x3d898cf2	0.06716336
226	0xbde448ff	-0.111467354
227	0x3d790855	0.06079896
228	0xbe09d7dc	-0.1346125
229	0x3d30a49f	0.043125745
230	0x3c8a28ab	0.016865095
231	0xbe062c1e	-0.13102767
232	0x3dd44ce0	0.10366225
233	0x3d1edd2d	0.03878515
234	0x3a365e64	0.00069568143
235	0x3bddb0f6	0.00676548
236	0xbe24a0f4	-0.16077024
237	0xbd64fa23	-0.05590261
238	0xbd7774a9	-0.06041399
239	0xbe05addb	-0.13054602
240	0x3be29273	0.0069144308
241	0xbd6b84fa	-0.057499863
242	0xbe367412	-0.17817715
243	0xbd56b9f6	-0.05242344
244	0xbd8f4ee7	-0.06997471
245	0xbddb4888	-0.107071936
246	0xbcd4b19f	-0.025963603
247	0xbd88a87a	-0.06672759
248	0xbc74323e	-0.014904557
249	0x3d3542b0	0.04425305
250	0xbd2c2716	-0.042029463
251	0xbc911e03	-0.017714506
252	0x3de53088	0.11190897
253	0xbddb3c74	-0.1070489
254	0xbb05abf3	-0.002039668
255	0xbd4f7db2	-0.05065698

model.rnn.weight_hh_l1 f4 [240, 60]
0	0x3b87f256	0.0041487617
1	0x3c55a4fb	0.013039823
2	0x3dd2617a	0.102724984
3	0xbdd0a885	-0.101883925
4	0xbbb4aa91	-0.005513497
5	0x3cd0358f	0.025416164
6	0xbe104944	-0.14090449
7	0xbdab34a2	-0.08359648
8	0xbd0fa8c0	-0.035073042
9	0x3e2765da	0.16347447
10	0xbe05a440	-0.13050938
11	0xbd1812ac	-0.037127182
12	0xbd77770d	-0.06041627
13	0x3d2cd910	0.042199194
14	0xbd4fa191	-0.05069119
15	0xbd1b11b1	-0.03785867
16	0xbdea695f	-0.11445879
17	0xbd2745d2	-0.04083807
18	0x3e1ba416	0.15199313
19	0xbd8951e5	-0.06705073
20	0xbd99456a	-0.07483943
21	0x3dac5341	0.08414317
22	0x3d52b874	0.05144544
23	0x3d654987	0.055978324
24	0xbddcd5ba	-0.107829526
25	0xbc497e8a	-0.012298236
26	0x3de26e1e	0.110561594
27	0xbdc2ca11	-0.09511197
28	0x3de7fd63	0.113276266
29	0xbc5df915	-0.013548155
30	0x3e4659b9	0.19370164
31	0x3e2fb594	0.1715911
32	0x3e0dc1cb	0.13843457
33	0xbdb662c9	-0.089055605
34	0xbddec81e	-0.10878013
35	0x3db4e7a3	0.08833244
36	0x3d0c2dad	0.034223247
37	0xbd116f6d	-0.035506655
38	0xbdf1ef3a	-0.11813207
39	0xbcf410ce	-0.02979317
40	0x3e1a8633	0.15090255
41	0x3df088cf	0.11744844
42	0x3e3153c3	0.17317109
43	0x3e0113e0	0.12605238
44	0xbe1b051d	-0.1513867
45	0x3e2afae1	0.16697265
46	0x3e05c5fc	0.13063806
47	0xbc990a28	-0.0186816
48	0xbae3bdfc	-0.0017375345
49	0x3d3764b7	0.044773784
50	0x3d4c8111	0.049927775
51	0xbcb6209b	-0.022232344
52	0xbdd18ce2	-0.102319494
53	0x3e22d85b	0.15902846
54	0x3d78a54f	0.060704526
55	0xbd41259c	-0.047155008
56	0x3dec669d	0.115430094
57	0x3dbe1b3f	0.092825405
58	0x3d3922ce	0.045199208
59	0xbcfb0468	-0.03064175
60	0x3d9b8207	0.0759316
61	0xbe03e9aa	-0.12882105
62	0xbde771ca	-0.113010004
63	0xbd4e0e0a	-0.050306357
64	0x3e3bb38e	0.18330213
65	0xbda2af1c	-0.07943556
66	0x3cf559f5	0.029950121
67	0xbe25ad7b	-0.16179459
68	0x3d826d1a	0.06368466
69	0x3e1cedd8	0.15325105
70	0xbe333eb3	-0.17504387
71	0xbe430e8c	-0.19048518
72	0x3de3949b	0.111123286
73	0x3db065d1	0.0861317
74	0xbdbe8040	-0.093018055
75	0x3e16b537	0.14717565
76	0xbc4aea39	-0.012384945
77	0x3df563c5	0.1198192
78	0x3d00a9eb	0.031412046
79	0x3cfd6f73	0.030936932
80	0xbd2e8b96	-0.04261359
81	0xbcec7b57	-0.028867407
82	0x3da81b22	0.082083
83	0x3c7ded11	0.015498416
84	0x3deca3d8	0.11554688
85	0x3ce2d69f	0.02769023
86	0x3dea1487	0.114296965
87	0xbdd4b430	-0.103859305
88	0x3e0a2f72	0.13494661
89	0xbd415153	-0.047196697
90	0xbc50be33	-0.0127406595
91	0x3da8993e	0.08232354
92	0x3c33384c	0.010938715
93	0xbd8bfd78	-0.06835455
94	0xbd8444c2	-0.06458427
95	0x3cd5c9da	0.026097227
96	0x3c6e0f33	0.014529991
97	0x3c82fa52	0.015988503
98	0x3d9c5d84	0.07635024
99	0xbcd9cfda	-0.02658837
100	0x3b1eb9df	0.0024219675
101	0xbd145f72	-0.036223836
102	0x3e07e210	0.1326983
103	0xbd4d73df	-0.05015933
104	0xbd3cc32a	-0.04608456
105	0xbcf29ad1	-0.029614838
106	0x3c581c2d	0.013190311
107	0x3de218eb	0.11039909
108	0x3d70c4d6	0.058781467
109	0x37de8708	2.6527341e-05
110	0xbde6fa4d	-0.1127821
111	0xb9983868	-0.00029033725
112	0xbc48e559	-0.012261712
113	0x3da1885f	0.07887339
114	0xbd11bd2a	-0.03558079
115	0x3d2074d7	0.039173927
116	0xbd8b146f	-0.06791007
117	0xbd175a32	-0.03695125
118	0xbdb2fde9	-0.08739836
119	0x3cc2bd97	0.023772044
120	0x3debd72f	0.115156524
121	0xbe0cac73	-0.13737659
122	0xbdc1c91f	-0.09462189
123	0x3cf6bfe6	0.030120801
124	0x3de6b7d4	0.11265531
125	0x3c8fd2fe	0.017556664
126	0x3a09dc4a	0.0005258961
127	0x3bb12ddd	0.0054070787
128	0x3d963312	0.0733396
129	0xbc53abda	-0.012919391
130	0xbe15dfe8	-0.14636195
131	0xbe14421b	-0.14478342
132	0x3d1685e0	0.036748767
133	0x3ba56953	0.005047956
134	0x3d99c57a	0.07508369
135	0x3df09017	0.11746233
136	0xbd4cdd73	-0.050015878
137	0x3d5905dc	0.052984104
138	0xbccddf92	-0.02513102
139	0x3d46d967	0.048547175
140	0x3dda437e	0.10657404
141	0xbc8841f8	-0.016633019
142	0xbb03ad45	-0.002009229
143	0x3d06a39e	0.03287088
144	0xbccd3361	-0.025048913
145	0x3c350d07	0.011050469
146	0x3d93ccf3	0.07216825
147	0xbde287d8	-0.110610664
148	0x3dd1cbe1	0.10243965
149	0x3a90201e	0.00109959
150	0x3db3ff63	0.087889455
151	0xbdb9a84f	-0.090653054
152	0x3d4fee0e	0.050764136
153	0xbd2dbd25	-0.04241671
154	0xbd7ee548	-0.06223038
155	0xbbc7dcd8	-0.0060993247
156	0x3d8c0edf	0.06838774
157	0xbda338f5	-0.07969848
158	0xbe21522f	-0.15754007
159	0x3bef2c9b	0.0072990186
160	0x3e20ce31	0.15703656
161	0x3d9a019a	0.07519837
162	0x3da768fe	0.081743225
163	0x3d4379e9	0.047723684
164	0xbd864f2c	-0.065580696
165	0x3d0257be	0.03182196
166	0xbc3d3e67	-0.011550522
167	0xbd529f8a	-0.05142168
168	0xbd2335a1	-0.039846066
169	0xbe22988a	-0.15878502
170	0xbdcd1969	-0.10014612
171	0xbd2725a6	-0.04080739
172	0xbdb2e24c	-0.08734569
173	0xbc959f7a	-0.01826452
174	0xbcba924b	-0.022774836
175	0xbcba1b3c	-0.022718064
176	0x3ba49ee9	0.0050238264
177	0x3c49c514	0.0123150535
178	0xbd4e9b04	-0.050440803
179	0xbdfbe599	-0.12299652
180	0xbbde7449	-0.0067887646
181	0x3d50e478	0.050999135
182	0x3c3f361a	0.011670614
183	0xbdde1549	-0.108439036
184	0x3e449e19	0.19200934
185	0x3db9b9a5	0.09068612
186	0xbb83c02e	-0.0040207123
187	0xbcc92988	-0.024555936
188	0xbe1814fb	-0.14851753
189	0x3ca48e13	0.020087278
190	0x3d933e55	0.07189623
191	0xbe323354	-0.17402393
192	0xbd416512	-0.04721553
193	0x3d9de266	0.07709198
194	0xbe31cafe	-0.17362592
195	0x3d3c1f4f	0.045928296
196	0xbd9b6980	-0.07588482
197	0x3d14edbb	0.03635953
198	0x3dc79655	0.097454704
199	0x3c8d1c64	0.017225452
200	0xbdbbc5d8	-0.09168595
201	0x3e0bfcb4	0.13670617
202	0x3c2ddda8	0.010611929
203	0xbdf8b3be	-0.12143658
204	0x3d3dc2bc	0.04632829
205	0x3d3ce803	0.0461197
206	0x3d9816cd	0.07426224
207	0x3d540ce1	0.051770095
208	0xbcfc947a	-0.030832518
209	0xbd2fe821	-0.042945985
210	0x3dcf3da2	0.101191774
211	0x3d7abab7	0.06121322
212	0x3d2e8879	0.04261062
213	0x3cd608bf	0.026127217
214	0x3d952679	0.07282729
215	0xbd056d01	-0.032574657
216	0xbd156ae5	-0.036478896
217	0x3d4c7e9d	0.049925435
218	0xbe17eca8	-0.14836371
219	0x3da8e721	0.08247209
220	0xbd92573c	-0.07145545
221	0xbdb6f951	-0.08934272
222	0x3e021506	0.12703332
223	0x3c906c3c	0.017629735
224	0x3cfaf262	0.030633155
225	0x3e32d6ff	0.17464827
226	0x3de1811c	0.11010954
227	0x3d2691ab	0.040666264
228	0xbda3e661	-0.08002926
229	0xbe276f2d	-0.16351004
230	0xbdcb55b3	-0.09928455
231	0x3d9ce013	0.07659926
232	0xbb1d63e9	-0.002401585
233	0xbd2e649a	-0.04257641
234	0xbc434057	-0.011917195
235	0xbd3cd72b	-0.046103638
236	0x3e0bbb63	0.13645701
237	0xbc956502	-0.01823664
238	0x3dbad662	0.091229215
239	0x3d9128aa	0.07087834
240	0x3dda3c7c	0.10656068
241	0xbd93d7bb	-0.07218882
242	0xbda9688f	-0.08271896
243	0xbe29852e	-0.1655471
244	0x3d90a4d5	0.07062689
245	0x3daffa7a	0.085926965
246	0x3d324a3a	0.04352782
247	0xbdc2d0b7	-0.095124654
248	0xbca3fa68	-0.020016864
249	0x3d6ca970	0.057778776
250	0x3c415176	0.011799207
251	0x3c684772	0.01417719
252	0x3dbf9153	0.0935389
253	0xbdcb5574	-0.09928408
254	0x3d4790e7	0.048722174
255	0x3d9dba2d	0.07701526
