checkpoints/epoch=1-step=100-v56.ckpt (torch, 621663 bytes, 33 tensors)

model.param_proj.proj.0.weight f4 [1, 60]
0	0xbe3158f1	-0.17319085
1	0x3e4e4192	0.201422
2	0xbdc018e5	-0.09379748
3	0x3e3f4277	0.18677698
4	0xbe320ab4	-0.17386895
5	0x3d97f4c5	0.07419733
6	0x3d94adb4	0.07259694
7	0xbe1e7924	-0.15475899
8	0x3d9d0dff	0.07668685
9	0x3ca3b0e6	0.019981813
10	0x3d161561	0.036641482
11	0x3bfbd248	0.0076849796
12	0x3ab4805d	0.0013771165
13	0x3c9b96a4	0.01899273
14	0x3c24ddfb	0.01006269
15	0xbd286b48	-0.041117936
16	0x3d142133	0.036164474
17	0x3d59e47a	0.053196408
18	0x3e408f97	0.18804775
19	0xbd78d713	-0.060751986
20	0xbe403c61	-0.18773033
21	0x3d423a88	0.0474191
22	0x3b892849	0.0041857106
23	0x3e4af238	0.19818962
24	0xbddfe731	-0.10932768
25	0x3dfaa92a	0.12239297
26	0xbe0dbc65	-0.13841398
27	0xbe197bd6	-0.14988646
28	0x3dacdfc9	0.08441121
29	0x3e52e978	0.20596874
30	0x3cea6733	0.028613662
31	0x3e352210	0.17688775
32	0x3e56745f	0.2094283
33	0x3d1f6a64	0.03891982
34	0xbded513b	-0.11587759
35	0x3d806a55	0.06270281
36	0xbd02a222	-0.031892903
37	0xbe38e9ab	-0.18057887
38	0xbdaeca15	-0.08534638
39	0x3e39bb32	0.18137816
40	0x3e35e26a	0.17762151
41	0x3c83132d	0.016000355
42	0xbdfc3923	-0.123155855
43	0x3d3d8715	0.046271402
44	0x3d9b7f8b	0.07592686
45	0x3e141234	0.14460069
46	0xbd8d2d2a	-0.0689338
47	0x3e35d3d1	0.17756583
48	0xbda25675	-0.079266466
49	0x3e4e30f8	0.20135868
50	0xbdd6c071	-0.10485924
51	0x3d0c8c30	0.03431338
52	0xbd97c151	-0.07409919
53	0x3d46fdfb	0.04858206
54	0x3e25ed32	0.16203764
55	0x3e326b4d	0.17423744
56	0xbe328696	-0.17434153
57	0xbe37126a	-0.17878118
58	0x3d4945bd	0.049138773
59	0xbe0b5e5c	-0.13610214

model.param_proj.proj.1.weight f4 [1, 60]
0	0xbd9b8bd1	-0.07595027
1	0x3de4b166	0.111666486
2	0xbb2dca85	-0.0026518416
3	0x3e20047f	0.15626715
4	0xbd8fd71d	-0.070234515
5	0x3d0b0e6d	0.033949304
6	0x3e25c7db	0.1618952
7	0xbe470c00	-0.19438171
8	0xbc6bc123	-0.014389309
9	0x3dcf8f77	0.101347856
10	0xbd2f79b9	-0.042840693
11	0x3cb60f7f	0.022224186
12	0x3e3eb269	0.18622746
13	0x3e20eabe	0.15714547
14	0x3da87151	0.082247384
15	0xbd1432e4	-0.036181346
16	0x3e06a441	0.13148595
17	0xbdcb32e1	-0.09921814
18	0xbda2f4b8	-0.07956833
19	0xbdc795fc	-0.09745404
20	0x3e17957f	0.14803122
21	0xbe0cbc23	-0.13743643
22	0xbe3cf19b	-0.1845154
23	0x3e0fe7f9	0.14053334
24	0xbe18d7ff	-0.14926146
25	0x3da0f7f7	0.078597955
26	0x3ce759a6	0.02824099
27	0x3d76d9a8	0.060266167
28	0x3de5d826	0.11222868
29	0x3d65ce03	0.05610467
30	0x3e5a57f8	0.2132262
31	0xbda2cfd8	-0.07949799
32	0x3dded011	0.10879529
33	0xbe2f8721	-0.17141391
34	0x3d5cd78f	0.05391651
35	0xbe408e36	-0.18804249
36	0x3e0aeaa9	0.13566078
37	0xbd93bdd7	-0.072139435
38	0x3e18378f	0.14864944
39	0xbe0f72c0	-0.14008617
40	0xbe1927d2	-0.14956596
41	0xbe43a149	-0.19104494
42	0x3e1ab67a	0.15108672
43	0x3dc070ea	0.09396537
44	0x3df79fa1	0.12090994
45	0xbdd0e707	-0.10200315
46	0xbd24d3ac	-0.04024093
47	0x3cc41ca2	0.023939434
48	0xbdad7687	-0.08469873
49	0xbe51378a	-0.20431343
50	0xbe0a4d1b	-0.13505976
51	0x3cdf9186	0.02729107
52	0xbe49e823	-0.1971746
53	0x3e255f2d	0.16149588
54	0x3cb4a88c	0.022053026
55	0x3db01918	0.08598536
56	0x3e097c2d	0.13426276
57	0x3e20da7e	0.15708348
58	0xbdcb3a24	-0.09923199
59	0x3c2ad02a	0.010425607

model.param_proj.proj.2.weight f4 [1, 60]
0	0xbd8ddd1e	-0.069269404
1	0xbc3fa832	-0.011697816
2	0xbce72364	-0.028215118
3	0x3d5f82de	0.054568164
4	0xbdebd98e	-0.11516105
5	0x3daa8929	0.083269425
6	0x3d82dda6	0.06389932
7	0xbba50389	-0.005035822
8	0x3c595f1a	0.013267303
9	0x3e09269a	0.13393632
10	0xbd92bac5	-0.0716453
11	0x3e060e0a	0.13091293
12	0x3def4ba4	0.11684349
13	0x3e0f9bcf	0.1402428
14	0x3dadf1d9	0.084933944
15	0xbcd3c971	-0.02585289
16	0xbc943e5f	-0.018096147
17	0xbb194712	-0.0023388308
18	0x3d95833c	0.073004216
19	0x3c11ceaa	0.00889937
20	0x3c875565	0.016520211
21	0x3da4d3cd	0.0804821
22	0xbdbcb06c	-0.09213337
23	0xbbe75e96	-0.007060836
24	0xbdf18694	-0.11793247
25	0x3dcc4a6e	0.09975134
26	0xbcd2b008	-0.025718704
27	0x3d2e7629	0.042593155
28	0x3d0dab6d	0.034587312
29	0x3d996cf6	0.07491486
30	0x3d2edad4	0.04268916
31	0x3deb6052	0.11492981
32	0xbc193384	-0.009350661
33	0xbdbada3f	-0.091236584
34	0x3d9e7ff9	0.077392526
35	0x3c539c7a	0.012915725
36	0x3cf40b55	0.02979056
37	0x3daa9ae4	0.08330324
38	0x3e1e491c	0.15457577
39	0xbc521e5b	-0.01282462
40	0x3dc0cad6	0.09413688
41	0xbcef90fb	-0.029243937
42	0xbdfa5927	-0.12224036
43	0x3dbf050e	0.09327136
44	0x3de1b80d	0.11021433
45	0xbd69f192	-0.057115145
46	0xbd37fb38	-0.044917315
47	0x3b903932	0.0044013495
48	0xbd169911	-0.03676707
49	0xbd280f06	-0.041029952
50	0xbbe968d6	-0.007123093
51	0x3d95c137	0.073122434
52	0xbc310759	-0.0108049745
53	0x3d9df412	0.07712568
54	0xbde02b57	-0.109457664
55	0x3d947ed0	0.0725075
56	0xbc9a0d32	-0.01880512
57	0x3d5a16c4	0.053244367
58	0x3de8bfca	0.11364706
59	0xbdb20486	-0.08692269

model.rnn.weight_ih_l0 f4 [240, 24]
0	0xbe169aa8	-0.14707434
1	0x3d3458ae	0.044029884
2	0xbc663b21	-0.014052183
3	0xbde2725a	-0.11056967
4	0xbdd8e733	-0.10590973
5	0x3d1a97c9	0.03774241
6	0xbe042e79	-0.12908353
7	0x3d8da494	0.069161564
8	0x3cbd04b0	0.023073524
9	0x3e13b633	0.14424972
10	0x3e245357	0.16047417
11	0x3d3c23e9	0.045932684
12	0x3c2649af	0.0101494035
13	0xbbd5f24d	-0.0065291286
14	0xbd5075fb	-0.050893765
15	0x3d2cccb3	0.042187404
16	0xbd8183a1	-0.06323934
17	0x3d86157f	0.06547069
18	0xbcc98bd9	-0.024602817
19	0xbda71fb7	-0.08160346
20	0xbd430d3d	-0.047620047
21	0x3e35683f	0.17715548
22	0x3cf261dc	0.029587679
23	0x3d33fe42	0.04394365
24	0xbd9f4bea	-0.07778151
25	0x3e1a55db	0.15071814
26	0x3d81eab9	0.06343598
27	0xbd746e79	-0.059675667
28	0xbd498acc	-0.049204633
29	0xba8fd160	-0.0010972433
30	0xbe482a07	-0.19547282
31	0x3de6a7c6	0.11262469
32	0x3d7e49aa	0.06208197
33	0xbd858ba7	-0.06520777
34	0x3d0be3e9	0.0341529
35	0xbdaf927e	-0.08572863
36	0xbd71b0b7	-0.05900642
37	0x3c9e3ba9	0.019315558
38	0x3de68e45	0.112576045
39	0x3d39c5ec	0.04535477
40	0x3ddfb192	0.10922541
41	0x3dd538c6	0.10411219
42	0xbd67af5a	-0.056563713
43	0x3c2f05b0	0.010682508
44	0xbdf7949a	-0.120888904
45	0xbd33f70a	-0.043936767
46	0xbd1dfbf7	-0.03857037
47	0xbd81f8af	-0.06346261
48	0x3dce4c7f	0.10073184
49	0x3bf153de	0.007364734
50	0xbdb181b9	-0.08667321
51	0xbd7ed052	-0.06221039
52	0xbcd681b0	-0.026184887
53	0x3cf7102f	0.030159084
54	0x3d559b59	0.052150104
55	0xbcc33506	-0.023828994
56	0x3d937f57	0.072020225
57	0xbddde2a3	-0.10834243
58	0xbd0fa0ad	-0.03506534
59	0xbdbf0a02	-0.09328081
60	0xba5ec7d3	-0.0008498404
61	0xbd1d3433	-0.03837986
62	0x3d7f6e9c	0.062361345
63	0x3dacf698	0.084454715
64	0xbd9daebb	-0.07699343
65	0xbd6117f9	-0.054954503
66	0x3dd15e44	0.10223058
67	0xbd70b912	-0.058770247
68	0xbd62f913	-0.055413317
69	0x3d92e4df	0.0717256
70	0x3e04fdd8	0.12987459
71	0x3c40d92b	0.011770527
72	0x3e14f099	0.14544906
73	0xbdd4e959	-0.1039607
74	0xbd0f2750	-0.0349496
75	0xbd86168a	-0.06547268
76	0xbd6dc5c8	-0.058049947
77	0x3c93cb55	0.018041292
78	0xbd633342	-0.055468805
79	0xbda491e5	-0.0803564
80	0xbd051112	-0.032486983
81	0x3d5b2791	0.05350453
82	0xbe2fe8d7	-0.17178665
83	0x3e4f3c10	0.20237756
84	0xbd4b2f19	-0.049605463
85	0xbd206890	-0.03916222
86	0xbce2b66c	-0.027674876
87	0xbdbb3fe1	-0.09143043
88	0xbd911cf8	-0.070856035
89	0x3ddab3ed	0.10678849
90	0xbd71de2e	-0.059049778
91	0xbcac7b51	-0.021054896
92	0xbdfbcaac	-0.12294516
93	0xbe4b7481	-0.19868661
94	0x3e002c50	0.12516904
95	0xbddeb9db	-0.10875293
96	0x3c1a0864	0.009401415
97	0x3d897c80	0.067131996
98	0xbd82d908	-0.06389052
99	0xbdc128bd	-0.09431598
100	0x3a0b4e9d	0.00053141435
101	0xbc23e3aa	-0.01000301
102	0xbda13d73	-0.07873049
103	0xbe104699	-0.14089431
104	0xbdfcca17	-0.12343233
105	0xbbebc071	-0.0071945717
106	0x3d793c4e	0.060848527
107	0x3c039301	0.008030654
108	0xbdb67d12	-0.08910574
109	0xbdd8e610	-0.10590756
110	0x3c50225b	0.0127035035
111	0x3d13de70	0.036100805
112	0x3d9fd01b	0.07803365
113	0x3d5a79f3	0.053338956
114	0xbd882050	-0.06646788
115	0x3db8538d	0.09000311
116	0xbc320906	-0.010866409
117	0xbdb3af09	-0.0877362
118	0x3e4265c2	0.1898413
119	0xbab68c58	-0.0013927324
120	0xbd66ee82	-0.056379803
121	0x3e00dcc0	0.1258421
122	0x3ca3b0bc	0.019981734
123	0xbd01f647	-0.03172901
124	0xbdacd872	-0.08439721
125	0x3b845e84	0.0040395875
126	0x3dc348a7	0.09535342
127	0xbd50e413	-0.05099876
128	0xba45e113	-0.0007548492
129	0x3e180161	0.14844276
130	0xbd255e9d	-0.040373433
131	0xbdabe412	-0.0839311
132	0xbd9aa00f	-0.0755006
133	0x3e1104f1	0.14162041
134	0x3db3f13d	0.08786247
135	0xbc79c241	-0.015244068
136	0x3deeb531	0.11655653
137	0xbc6f3824	-0.014600787
138	0xbd10d3ab	-0.035358112
139	0x3de5482c	0.11195406
140	0xbd526f29	-0.05137554
141	0xbc917316	-0.017755073
142	0x3c820375	0.015870789
143	0xbd1eb165	-0.038743395
144	0x3db75164	0.08951071
145	0xbe166dd0	-0.14690328
146	0x3da9f33d	0.08298347
147	0xbe2e9054	-0.17047244
148	0xbc14b407	-0.009076125
149	0xbd73224f	-0.05935889
150	0xbd6ee654	-0.058325127
151	0xbcfb7c5a	-0.030698944
152	0x3d12368b	0.035696547
153	0x3ba68652	0.00508193
154	0x3a8081d8	0.0009804321
155	0x3d7e1136	0.062028132
156	0xbdfeba13	-0.124378346
157	0x3dc3a7a3	0.095534585
158	0x3d847bcd	0.064689256
159	0xbd78d695	-0.060751516
160	0xbdcd5623	-0.10026195
161	0x3dc7b213	0.09750762
162	0xbdb72920	-0.08943391
163	0xbce2e285	-0.027695904
164	0xbd66bbca	-0.056331433
165	0x3db02563	0.08600881
166	0x3d56bf17	0.05242833
167	0xbd5b47b2	-0.05353517
168	0xbe22bd7e	-0.15892598
169	0xbd5e5df9	-0.054288838
170	0x3dec41b4	0.115359694
171	0x3d06ced6	0.032912098
172	0x3c682261	0.014168353
173	0x3dfb549f	0.122719996
174	0xbe0213fd	-0.12702937
175	0x3d47e14d	0.048798848
176	0xbcbdd320	-0.023171961
177	0x3cede56f	0.029040067
178	0xbd2b7e53	-0.04186852
179	0x3e046916	0.12930712
180	0xbe0c43a5	-0.1369768
181	0x3e0ecd1f	0.13945435
182	0xbe18863c	-0.14894956
183	0x3d5082cc	0.050905988
184	0xbbc45cd2	-0.0059925104
185	0xbde68396	-0.11255567
186	0x3dec6839	0.115433164
187	0x3dc3750f	0.095438115
188	0xbe452a98	-0.1925453
189	0xbdef3d81	-0.11681653
190	0xbd040d76	-0.0322394
191	0x3e244ac8	0.16044152
192	0x3c91caa5	0.017796824
193	0xbcddccf2	-0.027075265
194	0xbb9fa5ae	-0.0048720455
195	0x3d314ee9	0.043288145
196	0x3c20c2ab	0.009812037
197	0x3dd3db69	0.103445835
198	0x3d2b78aa	0.04186312
199	0xbe425ade	-0.18979976
200	0x3c93243c	0.017961614
201	0xbe2f95f0	-0.1714704
202	0xbd8bbd4b	-0.06823214
203	0xbd761c3b	-0.060085516
204	0xbe3ae6cf	-0.18252109
205	0xbe100af9	-0.14066686
206	0x3df04aed	0.11733041
207	0x3d133ce2	0.035946734
208	0x3d44e3fc	0.048068985
209	0xbd3c280b	-0.045936625
210	0xbd269f70	-0.040679395
211	0x3dc0b5c4	0.09409669
212	0xbd983651	-0.07432235
213	0x3de19919	0.11015529
214	0x3dbdcf56	0.09268062
215	0x3c614fc2	0.013751926
216	0xbe0b6f46	-0.13616666
217	0x3cc8c7e7	0.024509383
218	0xbe1bbe88	-0.152094
219	0x3dd0e170	0.10199249
220	0x3b2bde3a	0.0026224987
221	0xbdcf2a1f	-0.10115456
222	0x3dc9750a	0.098367766
223	0xbd32c663	-0.043646228
224	0x3d930c34	0.07180062
225	0xbbe5c2c8	-0.007011745
226	0x3e1c3ddd	0.15257974
227	0x3d9393ea	0.07205947
228	0xbe2a050f	-0.16603492
229	0x3d652f9e	0.055953614
230	0xbd3307f9	-0.043708775
231	0x3cc4e3d4	0.024034418
232	0x3da1e746	0.0790544
233	0x3c77632b	0.015099327
234	0x3dda3c78	0.10656065
235	0x3d8bcbbf	0.06825971
236	0x3d70d5be	0.05879759
237	0xbcd865b4	-0.026415683
238	0xbe28a4bc	-0.16469091
239	0x3e03e15b	0.12878935
240	0x3e363c16	0.17796358
241	0xbb8764aa	-0.004131873
242	0x3e24f229	0.16108002
243	0x3c8f95fb	0.017527571
244	0xbd06f854	-0.032951668
245	0xbd87283b	-0.0659947
246	0x3dc4e010	0.09613049
247	0x3dd66d5a	0.10470076
248	0xbdb614b3	-0.08890667
249	0xbd9790ae	-0.07400642
250	0x3cf4a7c2	0.02986515
251	0x3d9cd24a	0.07657297
252	0xbe3a52e6	-0.18195686
253	0xbe3d95d9	-0.18514194
254	0x3cd8c33d	0.026460284
255	0xbd9e79d4	-0.077380806

model.rnn.weight_hh_l0 f4 [240, 60]
0	0x3dff6729	0.12470848
1	0xbe1eee46	-0.15520582
2	0x3e3610c1	0.17779829
3	0xbca1d0e9	-0.019752936
4	0xbbac6d8c	-0.0052620824
5	0x3dd9c5ab	0.10633405
6	0x3d1db441	0.03850198
7	0x3d4abada	0.0494946
8	0x3cf6eb25	0.030141423
9	0x3d610258	0.054933876
10	0xbc3e63cb	-0.011620472
11	0x3ca8aa87	0.020589126
12	0xbde9f6f7	-0.11424058
13	0x3daff229	0.0859111
14	0xbddf55db	-0.109050475
15	0x3cf515e6	0.029917669
16	0x3dea2301	0.11432458
17	0x3cd5d4ac	0.026102386
18	0xbdb768d7	-0.089555435
19	0x3def0128	0.116701424
20	0x3d83eb04	0.0644131
21	0x3d82e576	0.063914225
22	0x3e02b17d	0.12763019
23	0x3dba7e13	0.09106078
24	0x3daf07dc	0.08546421
25	0x3d9d17b6	0.07670538
26	0xbd5051fc	-0.050859436
27	0xbd9b068e	-0.075696096
28	0xbca58ace	-0.020207789
29	0xbcd8446c	-0.026399814
30	0x3d5d6358	0.05404982
31	0x3dbab7d7	0.09117096
32	0xbdf6629d	-0.12030528
33	0xbda91394	-0.08255687
34	0x3e35c0f9	0.17749394
35	0x3d529e7b	0.05142067
36	0x3dc6b0cf	0.09701692
37	0x3d85490c	0.06508073
38	0x3d95ff54	0.073240906
39	0x3e0e4137	0.13892065
40	0x3c9b1222	0.018929545
41	0xbdd7767c	-0.10520646
42	0xbe164c29	-0.1467749
43	0xbd4adc61	-0.049526576
44	0xbdb9fb51	-0.09081138
45	0x3bf60cb7	0.00750884
46	0x3cd1225a	0.025529075
47	0x3d9d18df	0.076707594
48	0x3d07f722	0.03319467
49	0x3db3a98c	0.08772573
50	0x3d140d0e	0.036145262
51	0xbd9a72c2	-0.075414196
52	0x3dff8c9b	0.1247799
53	0x3d0d2f8a	0.034469165
54	0x3d84314b	0.064547144
55	0x3d60cb66	0.054881476
56	0x3de36b7b	0.11104485
57	0x3cc12893	0.023578918
58	0xbce3a8b1	-0.0277904
59	0xbde1740d	-0.11008463
60	0xbd0f22aa	-0.034945168
61	0x3e1039ca	0.14084545
62	0xbd5b40fa	-0.053528763
63	0xbd9fce0b	-0.078029715
64	0x3df5a784	0.11994842
65	0x3d8ce87a	0.06880279
66	0xbdc8fd2a	-0.09813912
67	0x3c150703	0.00909591
68	0xbc1b8796	-0.009492775
69	0x3e02ba77	0.12766443
70	0x3d4c9312	0.049944945
71	0x39c2c546	0.00037149544
72	0x3e082c13	0.13298063
73	0x3d5fc27d	0.054628838
74	0x3c82e19a	0.015976716
75	0x3dad982a	0.084762886
76	0xbd00fb98	-0.03148994
77	0x3dc9f322	0.09860827
78	0xbe26340c	-0.16230792
79	0x3c1148e4	0.008867476
80	0x3d14e78e	0.03635364
81	0xbe3ab768	-0.18234026
82	0xbd74b936	-0.059746943
83	0x3d187e25	0.037229676
84	0x3ddcf3dc	0.107887
85	0xbde10e7e	-0.10989092
86	0xbe40f063	-0.188417
87	0xbc4221d2	-0.011848884
88	0xbdcbbffe	-0.09948729
89	0xbe08d77f	-0.13363455
90	0x3d6e0624	0.058111325
91	0x3c70b35a	0.014691198
92	0xbdf65a02	-0.120288864
93	0x3e397797	0.18112026
94	0x3e3c4fa6	0.18389758
95	0x3d08a7e4	0.033363238
96	0xbe0c309f	-0.13690422
97	0x3d9b7708	0.07591063
98	0xbd3c5cac	-0.045986816
99	0x3c65f8dc	0.0140363835
100	0x3cd8013a	0.026367772
101	0x3db97aef	0.09056651
102	0xbe1051ba	-0.14093676
103	0xbdee4b39	-0.11635441
104	0xbe31bf18	-0.17358053
105	0x3cbc6357	0.022996588
106	0xbde59f6a	-0.112120464
107	0x3d985d64	0.07439688
108	0xbde26cf3	-0.11055937
109	0xbe2466b2	-0.160548
110	0x3d878086	0.06616311
111	0xbd9687be	-0.073501095
112	0x3d44ae82	0.048017986
113	0x3d30b044	0.04313685
114	0xbe3d93d6	-0.18513426
115	0xbd9a99e6	-0.07548885
116	0xbdfa2232	-0.122135535
117	0xbe2c2584	-0.16811186
118	0xbdeb242c	-0.114815086
119	0x3e1f3e54	0.1555112
120	0xbd764bdd	-0.060130943
121	0x3e205735	0.15658267
122	0xbcdbf51c	-0.026850276
123	0xbcbb64ee	-0.022875275
124	0x3cb500c2	0.022095088
125	0xbd56fe04	-0.052488342
126	0xbd955e62	-0.07293393
127	0xbd9ddb40	-0.07707834
128	0x3d35b571	0.04436249
129	0x3dc2d338	0.09512943
130	0x3cbb6d58	0.022879288
131	0xbda35fe9	-0.07977278
132	0x3dafd893	0.0858623
133	0xbd9134d1	-0.07090152
134	0x3d066892	0.03281457
135	0x3dc194dc	0.09452221
136	0x3e0ffe74	0.1406191
137	0xbd472e5a	-0.04862819
138	0xbc7d6647	-0.015466279
139	0xbda5beee	-0.080930576
140	0xbddf38ee	-0.1089953
141	0x3c3f7e8c	0.011687886
142	0xbdef64b8	-0.116891325
143	0xbd4210c0	-0.047379255
144	0x3d37e8c8	0.044899732
145	0xbe13e63e	-0.14443299
146	0xbdac354f	-0.08408605
147	0x3e1954d6	0.14973769
148	0xbd9f4385	-0.0777655
149	0xbd332414	-0.04373558
150	0x3cc2bd89	0.023772018
151	0xbd8ec17f	-0.069705
152	0x3caa1811	0.020763429
153	0xbc8a3bcb	-0.016874215
154	0x3e0481d2	0.12940148
155	0x3e012828	0.12612975
156	0x3b741f3a	0.0037250058
157	0x3dbbe948	0.09175354
158	0xbdaf8cf2	-0.08571805
159	0x3daa5fbf	0.08319043
160	0xbd0b4378	-0.03399989
161	0x3af87725	0.0018956406
162	0x3daf5ef6	0.08563034
163	0x3c5a0206	0.0133061465
164	0xbd938d34	-0.07204667
165	0x3c807645	0.015681395
166	0x3ca4e4f1	0.020128699
167	0xbda9d816	-0.08293168
168	0x3dc14fd1	0.09439052
169	0x3d022cd7	0.031781044
170	0x3e079680	0.13241005
171	0x3afe342b	0.0019394209
172	0xbbaa2d7c	-0.0051934104
173	0x3e33150e	0.174885
174	0x3bec3024	0.0072078872
175	0x3d7f0ca7	0.062267926
176	0x3da5ca6d	0.0809525
177	0xbc0ac297	-0.008469245
178	0xbdf12fe8	-0.117767155
179	0xbd4ad2c0	-0.049517393
180	0xbcf92d91	-0.030417236
181	0xbd85a577	-0.065257005
182	0x3e0bac91	0.13640048
183	0xbd8574cb	-0.06516417
184	0xbd315937	-0.043297973
185	0xbd33f051	-0.043930355
186	0xbd8236dc	-0.0635812
187	0xbd7966a0	-0.060888886
188	0xbca00550	-0.019533783
189	0x3dec01dc	0.11523792
190	0x3b1a9a25	0.0023590412
191	0xbca3f3bb	-0.02001368
192	0xbd378d07	-0.04481223
193	0xbde7dc18	-0.113212764
194	0x3d29b730	0.041434467
195	0xbd4cfdaa	-0.0500466
196	0x3d7d65c5	0.061864633
197	0x3c94c6c0	0.018161178
198	0x3d98952b	0.074503265
199	0xbd81d7a7	-0.063399605
200	0xbdbfb4a4	-0.09360626
201	0x3d8438a8	0.06456119
202	0xbc46d34f	-0.012135341
203	0x3d4c4d84	0.049878612
204	0xbc30413d	-0.0107577415
205	0x3d821ae5	0.06352786
206	0xbe0c7527	-0.13716565
207	0x3dc62f8e	0.09677039
208	0xbd1db6f2	-0.03850455
209	0xbdc4acdb	-0.09603282
210	0x3cf6cb44	0.030126221
211	0x3e521f70	0.20519805
212	0x3df19ff1	0.117980845
213	0x3c2f67a4	0.010705862
214	0x3deaf2a4	0.11472061
215	0xbc34ba6e	-0.011030776
216	0x3c977fd2	0.018493567
217	0x3df2b42e	0.11850773
218	0x3de315a4	0.11088112
219	0x3e0e9acc	0.13926238
220	0xbd206027	-0.039154198
221	0x3e17d52e	0.14827415
222	0xbbc7ae15	-0.0060937502
223	0xbe398eb3	-0.18120842
224	0x3d09a8a3	0.03360809
225	0xbd6b8963	-0.05750407
226	0x3df49da7	0.11944132
227	0x3d07ca98	0.033152193
228	0xbdf8546e	-0.12125479
229	0x3dfcf13b	0.123506986
230	0x3dd2b3aa	0.102881745
231	0x3c76d8a5	0.0150663005
232	0xbd1b0b86	-0.037852786
233	0x3e0ca2f7	0.13734041
234	0x3dc701b7	0.09717124
235	0xbd8b28ae	-0.067948684
236	0xbe0f5ea5	-0.14000948
237	0x3c9e31ad	0.019310797
238	0xbd9fdeed	-0.078061916
239	0xbdc6ebed	-0.09712968
240	0x3dd3ac77	0.103356294
241	0x3da9c610	0.082897305
242	0x3cc5d55c	0.02414959
243	0xbddd3d3b	-0.108026944
244	0xbdb47085	-0.08810524
245	0x3d364bf4	0.04450603
246	0xbe252380	-0.16126823
247	0xbe3bb30f	-0.18330024
248	0x3d895afc	0.06706807
249	0x3cffd0a1	0.031227412
250	0x3dbb95cf	0.09159433
251	0xbe384161	-0.1799369
252	0xbd547601	-0.05187035
253	0x3c8655c0	0.01639831
254	0x3d1e3afc	0.03863047
255	0xbd1c83dd	-0.038211692

model.rnn.bias_ih_l0 f4 [240]
0	0xbdca9ae0	-0.09892821
1	0xbd324e04	-0.043531433
2	0xbdb65eaa	-0.089047745
3	0xbdd36ecd	-0.10323868
4	0x3db67cba	0.089105085
5	0xbce98d41	-0.028509738
6	0xbd998a40	-0.07497072
7	0x3d9b7a2f	0.07591664
8	0x3e0862cd	0.1331894
9	0x3c331dbd	0.010932383
10	0xbcfa4462	-0.030550186
11	0xbdc90116	-0.0981466
12	0xbda33234	-0.0796856
13	0x394579ff	0.00018832831
14	0x3dd078c8	0.10179287
15	0x3da31fd7	0.07965057
16	0x3dacda4e	0.08440076
17	0x3cda3a50	0.026639134
18	0xbd906256	-0.07050006
19	0x3e2b96ee	0.16756794
20	0x3c751186	0.014957791
21	0x3da24f37	0.07925265
22	0x3e4013ce	0.18757555
23	0xbd96203d	-0.07330368
24	0x3c56d6f9	0.013112777
25	0x3d3a0978	0.045419186
26	0x3d2640a4	0.04058899
27	0x3db679ec	0.089099735
28	0x3e0a16a2	0.13485196
29	0xbd8bcc2b	-0.06826051
30	0x3c94278b	0.018085262
31	0x3d99ece7	0.07515889
32	0xbd880c2d	-0.06642947
33	0x3e12e5cd	0.14345475
34	0x3e1b1164	0.15143353
35	0xbd89745b	-0.06711646
36	0x3d8c06a5	0.06837205
37	0x3e46f433	0.19429092
38	0xbccc024d	-0.02490344
39	0x3db291b7	0.08719199
40	0x3e182b90	0.14860368
41	0x3e0ab9cb	0.13547437
42	0x3e03fc7c	0.12889284
43	0x3e0ee9a4	0.13956314
44	0xbd11f09d	-0.035629857
45	0xbc36756a	-0.011136392
46	0xbaedd561	-0.0018145257
47	0x3daef129	0.085420914
48	0x3dcd9162	0.10037495
49	0x3dcbadf2	0.09945287
50	0xbd0f3cab	-0.034969967
51	0xbb3f3408	-0.00291753
52	0xbd7d713e	-0.061875574
53	0x3dcc3b71	0.09972275
54	0xbc83b34c	-0.016076706
55	0x3e1f3a6f	0.15549634
56	0xbd4a5c6a	-0.04940454
57	0x3d542d15	0.051800806
58	0x3d1e74de	0.038685672
59	0xbcc5f72d	-0.024165714
60	0xbd217902	-0.039422043
61	0xbd94a5d7	-0.07258194
62	0x3defe1ba	0.11712976
63	0xbd83b518	-0.06431025
64	0x3c82910b	0.015938303
65	0x3da289f3	0.07936468
66	0xbd341b73	-0.04397149
67	0xbc421a62	-0.01184711
68	0xbd6f6a0a	-0.058450736
69	0xbdbbbba2	-0.091666475
70	0x3d24d9f1	0.040246908
71	0x3e06b631	0.13155438
72	0x3d4f350a	0.05058769
73	0xbd327198	-0.043565363
74	0xbdc76146	-0.0973535
75	0xbd822fc7	-0.06356769
76	0x3dc6ee2d	0.09713397
77	0x3e0d4129	0.13794388
78	0x3c1d4715	0.009599467
79	0x3da402ec	0.0800837
80	0x3dc706ca	0.09718092
81	0x3cffdf8a	0.031234521
82	0xbcee5a7a	-0.029095877
83	0x3d56b495	0.05241831
84	0x3ddf38ba	0.108994916
85	0x3d49c863	0.04926337
86	0x3d236ecf	0.039900597
87	0x3c3f0eff	0.01166129
88	0xbcc7497e	-0.024327036
89	0x3ca13d11	0.019682439
90	0x3df70329	0.120611496
91	0x3c9809ad	0.018559301
92	0xba4b1ee4	-0.00077484385
93	0xbdcadf80	-0.099059105
94	0xbdc91a6b	-0.09819492
95	0x3dd12e85	0.10213951
96	0x3cbb152a	0.02283724
97	0x3db093e4	0.08621958
98	0xbd29d5e4	-0.041463748
99	0xbdcd5566	-0.10026054
100	0x3cc83676	0.024440031
101	0x3df2c7b3	0.11854496
102	0x3da76976	0.08174412
103	0xbd8830a0	-0.066498995
104	0x3d82f082	0.063935295
105	0xbc051510	-0.0081226975
106	0xbd9b8b75	-0.07594959
107	0xbd20017e	-0.039063923
108	0x3db6d1e2	0.08926751
109	0xbcb4513d	-0.022011394
110	0xbdca6b03	-0.09883692
111	0x3cd0ff05	0.025512228
112	0xbda98436	-0.0827717
113	0xbd0a9d05	-0.03384115
114	0xbcd55819	-0.026042985
115	0x3d558304	0.0521269
116	0x3c80e884	0.015735872
117	0xbdd88dce	-0.10573922
118	0xbd8f47a0	-0.06996083
119	0xbc53627b	-0.012901898
120	0x3c309bc2	0.010779323
121	0x3dc2c638	0.095104635
122	0x3db82ef4	0.089933306
123	0xbd376c35	-0.04478093
124	0xbc9b37c5	-0.018947491
125	0xbd18951b	-0.037251573
126	0xbc03fad3	-0.008055407
127	0x3dc8afd8	0.097991645
128	0x3cb52112	0.022110496
129	0xbdab2755	-0.08357111
130	0x3d57f399	0.052722547
131	0x3da2972b	0.07938989
132	0x3df042b2	0.11731471
133	0xbc8ad541	-0.01694739
134	0x3d841345	0.06448988
135	0xbd4f9f26	-0.050688885
136	0x3e11ecec	0.14250535
137	0x3a9b4f3b	0.0011849174
138	0xbda90a8f	-0.08253967
139	0xbdaddd1b	-0.08489438
140	0x3d8c1575	0.0684003
141	0x3cba081f	0.02270895
142	0xbd2a8f8a	-0.041640796
143	0xbda07701	-0.07835198
144	0xbdb9ef49	-0.09078843
145	0xbdf79b48	-0.120901644
146	0xbd565e66	-0.05233612
147	0xbd8a323c	-0.06747863
148	0xbdb4a7f4	-0.08821097
149	0xbdfe8fcd	-0.124297716
150	0x3d905fa6	0.070494935
151	0x3e0a1e94	0.13488227
152	0x3ddbd82b	0.1073459
153	0x3d43ae69	0.047773752
154	0xbd65223a	-0.055940844
155	0x3d9647d7	0.07337921
156	0xbd12b22d	-0.035814453
157	0x3d1cbafb	0.038264256
158	0x3da16c1f	0.078819506
159	0xbd97c5f9	-0.07410807
160	0xbc3d54c9	-0.011555859
161	0x3d12e8eb	0.03586666
162	0xbda85319	-0.082189746
163	0x3dc26e8b	0.09493741
164	0xbd9accc2	-0.07558586
165	0xbdba3bc9	-0.09093434
166	0xbc3c7795	-0.01150312
167	0xbdd13fa2	-0.10217215
168	0xbd41da22	-0.04732717
169	0xbd2fd776	-0.04293009
170	0xbd3cfcc9	-0.046139512
171	0x3db143ac	0.086554855
172	0x3c746047	0.014915532
173	0xbdd0f43b	-0.10202833
174	0xbde6f5ae	-0.112773284
175	0xbdb8df62	-0.09026982
176	0xbce1f545	-0.027582774
177	0x3dc1cb7d	0.094626404
178	0xbc0b56a3	-0.0085045425
179	0xbdd58e89	-0.10427577
180	0xbc8b462f	-0.01700124
181	0x3c966908	0.01836063
182	0x3dfa53de	0.12223028
183	0x3e1aefc1	0.15130521
184	0x3d2a5813	0.0415879
185	0xbcbf3145	-0.023338923
186	0x3e07dc16	0.1326755
187	0x3ccaf817	0.024776502
188	0x3d804213	0.06262603
189	0x3e2b5e31	0.1673515
190	0xbd3c03b2	-0.04590196
191	0xbd31e9eb	-0.043435972
192	0xbd40461b	-0.046941858
193	0x3c7ec0e7	0.015548921
194	0x3dc421d3	0.09576764
195	0x3db42ad5	0.08797232
196	0x3ca951e0	0.020668924
197	0xbd9f1b1f	-0.07768845
198	0x3e3501c4	0.17676455
199	0x3d35ea46	0.044412874
200	0xbcb89422	-0.022531573
201	0x3e027e59	0.1274351
202	0x3dc1297e	0.09431742
203	0x3d91d09f	0.071198694
204	0xbcc3fd12	-0.023924384
205	0x3d969af3	0.07353773
206	0xbc2c112d	-0.010502142
207	0x3e1270aa	0.1430079
208	0x3dd6354e	0.10459386
209	0xbdafba21	-0.08580423
210	0x3e1dcc14	0.15409881
211	0xbb1e4e30	-0.002415549
212	0x3b91ba43	0.004447253
213	0x3e4ff3ea	0.2030789
214	0x3d91e246	0.07123236
215	0x3c8e3d9f	0.017363368
216	0x3d24d74d	0.04024439
217	0xbc3e137e	-0.011601327
218	0xbda02a12	-0.07820524
219	0x3df6a241	0.12042666
220	0x3dde0155	0.10840098
221	0xbdaf3697	-0.08555334
222	0x3e24a3ef	0.1607816
223	0x3e280c70	0.16410995
224	0xbc3f2d3c	-0.0116685
225	0x3e0a43a6	0.13502368
226	0x3e2baf6d	0.16766138
227	0xbda101bb	-0.07861658
228	0xbc337783	-0.010953787
229	0xbd837ebf	-0.06420659
230	0x3d8e12b0	0.06937158
231	0xbd50ae91	-0.05094773
232	0xbd9a4fbb	-0.07534739
233	0xbd775c36	-0.060390674
234	0xbd55dc09	-0.052211795
235	0x3d95aef9	0.07308764
236	0x3e1ea928	0.15494215
237	0x3dfa9651	0.12235702
238	0x3c812bbf	0.01576793
239	0xba0f353e	-0.0005462951

model.rnn.bias_hh_l0 f4 [240]
0	0x3d8b374e	0.06797658
1	0x3d7b9338	0.061419696
2	0x3d737a23	0.05944265
3	0x3e095a19	0.13413276
4	0xbd3fb08f	-0.04679924
5	0xbc07f6aa	-0.008298555
6	0xbd6d9472	-0.058002897
7	0x3e39e522	0.18153813
8	0x3e023d1c	0.12718624
9	0xbd071ee3	-0.03298844
10	0x3d45e197	0.048310842
11	0x3e0123fc	0.12611383
12	0x3d4fb8fd	0.050713528
13	0x3cb94553	0.022616064
14	0x3e1046fb	0.14089577
15	0x3e49c789	0.19705023
16	0x3d5b92de	0.05360686
17	0x3d4ec0bf	0.050476786
18	0x3a98c507	0.0011655398
19	0x3e0d2cd4	0.13786632
20	0xbcb76ec2	-0.02239168
21	0x3e34a026	0.17639217
22	0x3db79ebe	0.089658245
23	0x3d412605	0.0471554
24	0xbdbf17a3	-0.0933068
25	0x3e15ea9a	0.14640275
26	0x3dded6b6	0.108807966
27	0xbd283ff2	-0.041076608
28	0xbd215c18	-0.039394468
29	0x3de48467	0.11158066
30	0x3e0b4a5c	0.13602585
31	0x3e1ab20b	0.1510698
32	0x3e0ef78e	0.13961622
33	0xbb567233	-0.0032721877
34	0xbd91e690	-0.071240544
35	0x3e0293c5	0.12751682
36	0xbd30bb9c	-0.04314767
37	0x3e0e8d7a	0.13921157
38	0x3d97ff13	0.074216984
39	0x3d0a105e	0.033707015
40	0x3dbda5c1	0.09260131
41	0x3d96cf6b	0.073637806
42	0x3e50c6e9	0.20388378
43	0x3e43a337	0.1910523
44	0x3d2ee34a	0.04269723
45	0x3dba772f	0.09104764
46	0xbc34eba1	-0.011042506
47	0xbd52a0dc	-0.05142294
48	0x3da79143	0.08182003
49	0x3d2f48b9	0.042793963
50	0x3ddfc5f3	0.10926428
51	0x3da40f9e	0.08010791
52	0xbc87b433	-0.016565418
53	0xbc91978c	-0.017772458
54	0x3e07bd3c	0.13255781
55	0xbd28bc9f	-0.041195508
56	0x3e2314b6	0.1592587
57	0x3de649c5	0.11244539
58	0x3dd4d318	0.103918254
59	0xbd1359c9	-0.035974298
60	0xbd9435ab	-0.07236799
61	0xbb150146	-0.0022736355
62	0x3d763028	0.06010452
63	0x3b723f1a	0.003696388
64	0xbddf1797	-0.10893171
65	0x3d9bd2e1	0.07608581
66	0x3df5f55b	0.120096885
67	0x3caea685	0.021319637
68	0x3db36e37	0.08761256
69	0xba1a0cd5	-0.0005876546
70	0x3b494511	0.0030711333
71	0x3da717af	0.08158814
72	0x3dd5538a	0.104163244
73	0x3c383e88	0.011245377
74	0x3d1500b9	0.036377642
75	0xbdbaef54	-0.091276795
76	0x3d1bf4ee	0.03807538
77	0xbd00148b	-0.03126959
78	0xbcf385a4	-0.02972681
79	0x3dde9f57	0.108702354
80	0x3c42bdce	0.011886073
81	0x3def7b73	0.11693468
82	0xbd3b35a8	-0.045705467
83	0x3de0f2a5	0.10983781
84	0x3d966dcb	0.0734516
85	0xbd50b695	-0.050955374
86	0x3e3282dc	0.17432731
87	0xbe089290	-0.13337159
88	0xbc411490	-0.011784688
89	0xbdc0f6e7	-0.09422093
90	0x3c669407	0.014073378
91	0x3c5e6fcd	0.01357646
92	0x3d8fcfbc	0.07022044
93	0x3cab38b2	0.020901058
94	0xbbc1ce76	-0.0059145046
95	0x3d3ce9f8	0.046121567
96	0xbd3f4f29	-0.046706352
97	0x3bbf724b	0.005842482
98	0xbd91e01e	-0.07122825
99	0x3d2b7e40	0.04186845
100	0x3d14127f	0.03615045
101	0x3d5889fb	0.052865963
102	0xbde028b5	-0.10945264
103	0x3da5f147	0.081026606
104	0x3df9e936	0.122026846
105	0xbc9764dd	-0.018480713
106	0x3e15eea3	0.14641814
107	0x3da7e110	0.08197224
108	0xbdb5912c	-0.0886558
109	0x3c5411e0	0.012943715
110	0xbd8a0078	-0.06738371
111	0xbdb0a291	-0.08624757
112	0x3c612d7f	0.013743757
113	0x3dd0bcbf	0.101922505
114	0x3d2d7b64	0.042354003
115	0xbd69e1a6	-0.05709996
116	0x3d956e63	0.07296445
117	0x3df0659b	0.1173813
118	0x3d05c6ab	0.032660168
119	0xbd8538e9	-0.065049954
120	0x3df15fa7	0.11785822
121	0xbda1ce9f	-0.07900738
122	0x3dbf5836	0.09342997
123	0x3d903334	0.07041016
124	0x3b424afb	0.0029646743
125	0xbdad2a83	-0.08455374
126	0xbdc9b10a	-0.09848221
127	0xbda5db24	-0.080984384
128	0xbce7d7f1	-0.028301211
129	0x3baa1355	0.005190293
130	0x3d97255f	0.07380175
131	0xbd80adca	-0.06283148
132	0xbdcbc3dd	-0.09949467
133	0xbda08013	-0.07836928
134	0xbe02e151	-0.12781264
135	0xbd120fd2	-0.03565962
136	0xbd74487c	-0.05963944
137	0x3cce9a8a	0.025220174
138	0xbd916ecc	-0.07101211
139	0xbe0de8c9	-0.13858332
140	0x3dac8bbb	0.08425089
141	0x3dd3375e	0.10313295
142	0xbdd65dc2	-0.10467102
143	0xbe0bfd30	-0.13670802
144	0x3d8dd08a	0.06924541
145	0xbcc90441	-0.024538161
146	0xbd1311ce	-0.03590565
147	0x3df85cfe	0.12127112
148	0xbd28817e	-0.04113912
149	0xbe0791a0	-0.13239145
150	0xbe0126f3	-0.12612514
151	0x3da5acaf	0.080895774
152	0xbda507e2	-0.08058144
153	0xbc1701ac	-0.009216707
154	0xbdead02b	-0.11465486
155	0xbdf95214	-0.12173858
156	0xbe0dd826	-0.13851985
157	0x3d96bc8d	0.07360182
158	0x3debf0eb	0.11520561
159	0xbdce8916	-0.10084741
160	0xbd49d82c	-0.049278423
161	0x3d8e9822	0.06962611
162	0x3c556a58	0.013025843
163	0x3bcce32f	0.0062526683
164	0x3d97c18b	0.07409962
165	0xbcd8f502	-0.026484016
166	0xbdc218fe	-0.09477423
167	0xbcf7522a	-0.030190546
168	0xbd47081a	-0.04859171
169	0xbdc3d286	-0.095616385
170	0x3d88161a	0.066448405
171	0x3c380070	0.011230573
172	0x3dccc995	0.09999386
173	0xbdfa95ce	-0.12235604
174	0x3db89c16	0.09014146
175	0xbdaaf8fd	-0.08348272
176	0x3d5ab982	0.05339957
177	0x3dd416bf	0.10355901
178	0xbd93751c	-0.07200071
179	0x3e17f2f8	0.14838779
180	0xbdcf8a8c	-0.101338476
181	0xbd57a83c	-0.052650675
182	0x3ae151e8	0.0017190548
183	0xbc4d4b85	-0.012530212
184	0x3da23d7f	0.07921886
185	0x3e01e929	0.126866
186	0xbd3eade1	-0.046552543
187	0xbd0af37d	-0.033923615
188	0x3dd00834	0.101578146
189	0x3bcf8048	0.006332431
190	0xbc1bc729	-0.009507933
191	0x3de86887	0.11348062
192	0xbda20b5b	-0.07912322
193	0x3e44ce7c	0.19219393
194	0x3d8ede2b	0.06975969
195	0xbd1c41d0	-0.0381487
196	0xbd1dc622	-0.038519032
197	0xbd88e14c	-0.06683597
198	0x3e2aa2f2	0.16663721
199	0x3de25bbd	0.11052654
200	0x3d9c1b19	0.07622356
201	0xbd463948	-0.04839447
202	0x3dce6f9a	0.1007988
203	0x3dfc7faa	0.123290375
204	0x3dc2fdbf	0.095210545
205	0x3b816055	0.0039482513
206	0x3db67d08	0.089105666
207	0x3e2abf44	0.16674525
208	0x3e46b30a	0.19404235
209	0xbd493b60	-0.04912889
210	0x3d3308e7	0.04370966
211	0xbd61b905	-0.05510809
212	0x3e2dc3a2	0.16969159
213	0x3e24da15	0.16098817
214	0x3de7e9a5	0.11323861
215	0x3dced81f	0.100998156
216	0xbce8d41d	-0.028421456
217	0x3d21017b	0.039308053
218	0xbda4f74b	-0.0805498
219	0x3a543c40	0.0008096136
220	0x3c85120b	0.016243955
221	0xbd817da8	-0.06322795
222	0xbc0452b8	-0.008076362
223	0x3d9ee93e	0.07759331
224	0x3e23d841	0.16000463
225	0xbd5be5f6	-0.053686105
226	0xbb71e18a	-0.0036908113
227	0x3b8623f1	0.00409364
228	0xbbba76e9	-0.0056904447
229	0x3da47941	0.0803094
230	0x3cffc3a5	0.03122122
231	0xbd70bc88	-0.058773547
232	0xbda5f186	-0.081027076
233	0x3dfc0b82	0.123068824
234	0x3e0f3950	0.13986707
235	0x3cd325e9	0.025774913
236	0x3d1fc20f	0.039003428
237	0x3e072235	0.13196643
238	0x3c8745b2	0.016512726
239	0x3ccdbca8	0.025114372

model.rnn.weight_ih_l1 f4 [240, 60]
0	0x3da61d57	0.08111065
1	0x3e1610c2	0.1465483
2	0x3e07d8c6	0.13266286
3	0xbd396fcc	-0.045272633
4	0xbd119636	-0.035543643
5	0x3de414e9	0.11136801
6	0xbe04fa67	-0.12986146
7	0xbe0e83d4	-0.13917476
8	0x3dc6ea7f	0.09712695
9	0x3deab6f7	0.11460679
10	0x3b2d6bd4	0.0026461976
11	0xbd6b4eee	-0.05744832
12	0x3da52170	0.08063018
13	0x3d693e4b	0.056944173
14	0xbdb05a0b	-0.08610924
15	0xbe2b9ff0	-0.1676023
16	0xbd96f95b	-0.073717795
17	0x3de1f4dd	0.11033032
18	0x3d7e3e20	0.062070966
19	0xbbd77d00	-0.0065761805
20	0xbd9a1efb	-0.0752544
21	0x3cdf0432	0.02722368
22	0x3cf63e53	0.030059015
23	0xbde1572d	-0.110029556
24	0xbce4e5e2	-0.027941648
25	0xbe190496	-0.14943156
26	0xbdf4f49b	-0.11960717
27	0xbcac31bd	-0.02101981
28	0xbd8c5bda	-0.06853457
29	0xbaf3ce32	-0.001860088
30	0xbe28589f	-0.16440056
31	0x3e075073	0.13214283
32	0xbca94993	-0.020664966
33	0x3d4d8a1c	0.05018054
34	0x3d90d6be	0.07072209
35	0x3dbffa8c	0.0937396
36	0xbe07cc6e	-0.13261577
37	0x3d9d8dfc	0.07693097
38	0xbd66fe02	-0.056394584
39	0x3e28ca07	0.16483317
40	0xbc270f71	-0.010196553
41	0xbd82a5dd	-0.06379292
42	0xbdd983b2	-0.10620822
43	0x3d34d259	0.044145916
44	0x3d8463fd	0.06464384
45	0x3e133c5b	0.14378493
46	0x3cab0f55	0.020881334
47	0xbde84b15	-0.11342446
48	0x3d9cfbdc	0.07665226
49	0xbde57d19	-0.11205501
50	0x3dbfa97f	0.09358501
51	0x3dac29f7	0.08406442
52	0x3aaffc92	0.0013426712
53	0x3dd2fa17	0.10301607
54	0xbd43da58	-0.04781565
55	0x3d882baf	0.06648957
56	0x3cfaca6e	0.030614104
57	0x3d58c439	0.052921508
58	0xbe14f755	-0.14547475
59	0xbc23c1ce	-0.009994937
60	0xbbc37e16	-0.0059659583
61	0x3da45fe7	0.080261044
62	0x3d10fc69	0.035396967
63	0xbd3e5660	-0.046469092
64	0xbe0efed5	-0.13964398
65	0x3d84d0bd	0.06485126
66	0x3d4e7c05	0.050411243
67	0xbd913e60	-0.07091975
68	0x3a8a75a9	0.001056363
69	0xbd401d95	-0.04690321
70	0x3cc69850	0.02424255
71	0xbe224e6a	-0.15850225
72	0x3dbe5109	0.092928
73	0xbe0c4fe6	-0.13702354
74	0xbcbf4913	-0.023350274
75	0xbe2885ba	-0.16457263
76	0x3c9a741a	0.01885419
77	0xbd16f61f	-0.036855813
78	0x3d4505de	0.0481013
79	0xbd08b356	-0.033374153
80	0xbd0132e4	-0.031542674
81	0xbd9ceaa0	-0.07661939
82	0x3d0f0861	0.0349201
83	0xbdb25b40	-0.08708811
84	0xbd56fe8e	-0.052488856
85	0xbe35ba6a	-0.17746893
86	0xbe07042b	-0.13185184
87	0x3cbf2677	0.023333771
88	0xbc1f2bcf	-0.009715035
89	0xbdc0c628	-0.09412795
90	0x3d0f7dcc	0.03503208
91	0x3e285bdb	0.1644129
92	0x39b3c8e7	0.00034291224
93	0x3de78832	0.11305274
94	0x3d66ac53	0.056316685
95	0x3e2e5950	0.17026258
96	0xbe53e89b	-0.206942
97	0x3e3f2edf	0.18670224
98	0x3e58dffd	0.21179195
99	0x3e171bf2	0.14756754
100	0xbe38de1f	-0.18053482
101	0x3dac2134	0.084047705
102	0x3da2af34	0.079435736
103	0xbd763774	-0.060111478
104	0x3d1e763d	0.03868698
105	0x3e2b8a6f	0.16752027
106	0xbbf8951a	-0.0075861337
107	0xbe3fc994	-0.1872924
108	0x3d6396c6	0.05556371
109	0xbde5971e	-0.11210464
110	0xbd0672ee	-0.03282445
111	0xbd923031	-0.07138098
112	0x3dc7f725	0.09763936
113	0x3de19c21	0.11016107
114	0xbd48ae5a	-0.0489944
115	0xbd5ff425	-0.054676194
116	0xbcbd2fdb	-0.023094108
117	0xbdedfdc8	-0.116206706
118	0x3e0023fb	0.12513725
119	0x3d1c5609	0.038167987
120	0x3dee4367	0.1163395
121	0x3d7ce904	0.06174566
122	0xbd98b57e	-0.07456492
123	0x3d57c215	0.052675325
124	0xbd1173e2	-0.035510905
125	0x3d0f9aa5	0.03505959
126	0xbd287870	-0.041130483
127	0xbdf9c728	-0.12196189
128	0xba986c49	-0.0011628951
129	0x3dafa821	0.0857699
130	0x3d60dd39	0.054898474
131	0x3d895f30	0.06707609
132	0xbbafa660	-0.0053604096
133	0xbcde5623	-0.027140683
134	0x3dd476e2	0.103742376
135	0xbcfe3c9a	-0.031034756
136	0xbdb22ea0	-0.08700299
137	0x3d55ea11	0.052225176
138	0x3dae2359	0.08502836
139	0x3dc09e3b	0.0940518
140	0x3e077481	0.13228036
141	0xbcc1e2a0	-0.023667634
142	0x3da176f0	0.07884014
143	0x3d11e27c	0.035616383
144	0x3c25863f	0.010102808
145	0x3d949192	0.07254328
146	0xbe027d49	-0.12743105
147	0xb970fd3a	-0.00022982518
148	0x3cc96ecb	0.024588963
149	0x3b384609	0.0028117916
150	0xbe0be3d2	-0.13661125
151	0x3d281793	0.041038107
152	0x3b9b92da	0.0047477307
153	0x3d9e4489	0.07727916
154	0x3dc2ddd7	0.09514969
155	0x3d7d158e	0.061788134
156	0xbdce5912	-0.100755826
157	0xbca4f033	-0.020134067
158	0x3e068e74	0.13140279
159	0x3e049c26	0.12950191
160	0xbd8cd573	-0.0687665
161	0xbc970367	-0.01843424
162	0x3d523628	0.05132118
163	0x3d9ec92a	0.07753213
164	0xbd1a705b	-0.037704807
165	0x3d034610	0.03204924
166	0x3d6a01d3	0.057130646
167	0xbd750915	-0.059823114
168	0xbe145ed0	-0.14489293
169	0x3ddab88f	0.10679733
170	0x3c251726	0.01007632
171	0x3d7151fa	0.05891607
172	0xbdcff77c	-0.10154626
173	0x3d1ae196	0.03781279
174	0xbd21f7b5	-0.039542872
175	0x3dc7217b	0.09723183
176	0x3cbfb3df	0.023401199
177	0x3b50ab23	0.0031840287
178	0xbca29b60	-0.01984948
179	0xbd9d79db	-0.07689258
180	0x3dcc629d	0.099797465
181	0x3d6021bc	0.05471967
182	0x3e08d676	0.1336306
183	0x3de5a9a8	0.11214
184	0xbc1b50b3	-0.009479689
185	0x3e1a5046	0.15069684
186	0xbdb457d7	-0.088058166
187	0xbe1943a2	-0.14967206
188	0x3dd455d2	0.103679314
189	0x3e180439	0.14845361
190	0x3cb2b6e2	0.021815721
191	0x3dc4c5cd	0.0960804
192	0x3e16809b	0.14697497
193	0xbd6c33fe	-0.05766677
194	0xbd4c440c	-0.049869582
195	0xbe0737d4	-0.1320489
196	0xbd05c1b8	-0.032655448
197	0xbd59d000	-0.05317688
198	0xbdac858b	-0.08423909
199	0x3d5e4f3e	0.05427479
200	0x3da139c4	0.07872346
201	0x3d241110	0.040055335
202	0x3c9a42c6	0.018830668
203	0x3d6c354d	0.05766802
204	0x3d73a38a	0.059482135
205	0x3cb11da0	0.021620572
206	0xbe0d0edb	-0.13775198
207	0x3da0f95c	0.078600615
208	0x3e52704e	0.20550653
209	0x3d1665c2	0.036718138
210	0xbdffadc2	-0.124843135
211	0x3c9b19b2	0.01893315
212	0x3e1bec12	0.15226772
213	0x3d63ae6c	0.055586264
214	0xbcc9ae39	-0.024619209
215	0x3e264e7f	0.16240881
216	0x3c0459ef	0.008078082
217	0x3e59f28a	0.21283928
218	0x3ce940b8	0.028473243
219	0x3d4edafe	0.050501816
220	0xbe01836a	-0.12647787
221	0x3d88c19b	0.06677552
222	0xbd889ed3	-0.06670918
223	0x3c57458a	0.013139138
224	0x3d424517	0.04742917
225	0x3dadc50a	0.08484848
226	0x3d0702c8	0.032961637
227	0x3c9e5aa2	0.019330326
228	0x3de1d23b	0.110264264
229	0x3e0050e9	0.12530865
230	0x3d03f550	0.03221637
231	0xbdac9a74	-0.08427897
232	0xba60cfdc	-0.00085758953
233	0x3df9ae96	0.12191503
234	0x3e086766	0.13320693
235	0xbd764a2e	-0.060129337
236	0xbc5c23d2	-0.013436275
237	0x3beb298f	0.007176585
238	0xbd80f435	-0.06296579
239	0xbc29b992	-0.010359185
240	0x3cb8b287	0.022546066
241	0x3d8aa5a0	0.06769872
242	0x3e2cafa5	0.16863878
243	0x3d83da42	0.06438114
244	0x3e35e932	0.17764738
245	0xbd611948	-0.05495575
246	0x3db79c4d	0.08965359
247	0xbe0841f8	-0.13306415
248	0xbd4100e8	-0.047120005
249	0xbd744f4e	-0.059645943
250	0xbdc3397a	-0.09532447
251	0x3df61841	0.12016345
252	0x3e244a04	0.1604386
253	0xbcee56c9	-0.029094117
254	0x3d7c9eda	0.06167493
255	0x3cdefb41	0.027219417

model.rnn.weight_hh_l1 f4 [240, 60]
0	0x3d6f55ee	0.05843156
1	0xbd01d4c6	-0.031697057
2	0xbd11f3a6	-0.035632752
3	0xbc93b715	-0.018031636
4	0xbd96ef87	-0.07369905
5	0x3d897043	0.06710865
6	0x3d02cded	0.031934667
7	0xbdc1a920	-0.09456086
8	0x3d950c94	0.0727779
9	0x3dcb5df2	0.09930028
10	0xbdfa5542	-0.12223293
11	0xbdc46d48	-0.09591156
12	0x3dbf6fc1	0.09347487
13	0xbd862213	-0.06549468
14	0xbc59f44c	-0.013302874
15	0xbe047153	-0.12933855
16	0x3d4b02b2	0.049563117
17	0xbce078a9	-0.027401285
18	0xbcb59f61	-0.022170724
19	0x3e07071f	0.1318631
20	0xbd9bfc3f	-0.076164715
21	0xbd68d542	-0.056844003
22	0x3d77bf59	0.060485218
23	0x3b4f32e9	0.0031616038
24	0x3c1c364a	0.009534428
25	0xbdde84f6	-0.10865204
26	0x3d3e2d0b	0.046429675
27	0x3db1e402	0.08686067
28	0x3d29e11f	0.041474458
29	0x3d2e27b7	0.042518344
30	0xbdd667e6	-0.10469036
31	0x3de46ebe	0.11153935
32	0x3e12e4f0	0.14345145
33	0x3d8e2964	0.069414884
34	0xbd002800	-0.031288147
35	0x3d8f51ce	0.06998025
36	0x3b93f2b8	0.0045150183
37	0xbd36ccf3	-0.04462905
38	0xbc39149a	-0.011296416
39	0x3d99688b	0.07490643
40	0xbd92b7e6	-0.07163982
41	0xbd88884a	-0.0666662
42	0xbc49d23c	-0.01231819
43	0x3da4db06	0.08049588
44	0x3d291200	0.04127693
45	0x3de4e782	0.11176969
46	0x3c86f1d0	0.016472727
47	0x3d144545	0.036198873
48	0x3d5daebe	0.054121725
49	0x3c03412c	0.008011144
50	0xbe1799f1	-0.14804818
51	0x3bfa3d12	0.0076366747
52	0x3e0d4a99	0.13797988
53	0x3c0f26be	0.008737264
54	0x3de229fd	0.11043165
55	0xbd2395f1	-0.039937917
56	0xbd23e4a6	-0.040012978
57	0x3cab1d2a	0.02088793
58	0x3dbabc85	0.091179885
59	0x3cb3f399	0.021966742
60	0xbcc68b23	-0.024236267
61	0x3d149242	0.036272295
62	0xbcb97552	-0.02263895
63	0x3d3b16fa	0.04567621
64	0xbc97f36c	-0.01854869
65	0x3c80627e	0.015671965
66	0x3db47223	0.08810832
67	0x3da5aac3	0.08089211
68	0x3e09f069	0.13470615
69	0x3de7a3b7	0.11310523
70	0xbd085ee5	-0.033293623
71	0x3e077072	0.13226488
72	0xbdee0be0	-0.11623359
73	0xbd6923e0	-0.05691898
74	0xbcd43375	-0.025903443
75	0xbdd91f57	-0.10601681
76	0xbe2e297d	-0.17008014
77	0x3d0d34ef	0.03447431
78	0x3e42887d	0.18997379
79	0x3da39b3c	0.07988593
80	0xbd46ed8a	-0.04856638
81	0x3e3d590a	0.18490997
82	0xbe066bff	-0.13127135
83	0x3e489df6	0.19591507
84	0xbdc63d4e	-0.09679662
85	0xbd7a4cbf	-0.061108347
86	0xbdbfbf37	-0.09362643
87	0xbd2012a1	-0.039080266
88	0x3de7bffe	0.113159165
89	0x3e191893	0.1495078
90	0xbe0dd6a7	-0.13851415
91	0xbd485c6b	-0.04891626
92	0x3db8e285	0.0902758
93	0xbd809dcb	-0.062800966
94	0x3dabc87d	0.083878495
95	0xba128885	-0.0005589801
96	0xbe236da5	-0.15959795
97	0xbc35ce87	-0.011096603
98	0x3e0b5c38	0.13609397
99	0x3e210e5b	0.15728132
100	0x3de7c8fc	0.113176316
101	0x3e075e02	0.13219455
102	0x3d0bcde8	0.034131914
103	0x3e08715e	0.13324496
104	0x3e25501f	0.16143845
105	0x3e3a41cb	0.1818916
106	0xbcbd01c5	-0.023072133
107	0x3d343aa8	0.04400125
108	0xbd04118e	-0.032243304
109	0x3dcc9570	0.099894404
110	0xbd85edbd	-0.065394856
111	0x3e49ab64	0.19694287
112	0x3e5525fb	0.2081527
113	0xbd30514c	-0.04304628
114	0xbd1d7d69	-0.03844968
115	0x3e10a193	0.14124136
116	0xbe2b19d7	-0.16709076
117	0xbe0921aa	-0.13391748
118	0x3d124af1	0.035716
119	0x3d540ad6	0.051768146
120	0x3d861a51	0.06547988
121	0xbda52f4f	-0.08065664
122	0xbc5a9f14	-0.013343591
123	0xbdb15c50	-0.08660185
124	0xbd6928f2	-0.056923814
125	0x3e07b8a5	0.1325403
126	0xbd9c3aa9	-0.07628376
127	0xbb92c81c	-0.0044794213
128	0x3e034480	0.128191
129	0xbda206df	-0.07911467
130	0xbdabf97c	-0.08397195
131	0xbc557bfd	-0.013030049
132	0xbdcda083	-0.10040381
133	0xbda57ff6	-0.08081047
134	0x3dea8829	0.11451752
135	0x3d9b4190	0.075808644
136	0xbdf6d32e	-0.12051998
137	0xbb823770	-0.003973894
138	0x3da7e4bc	0.081979245
139	0xbd5c1cff	-0.05373859
140	0xbd5de77c	-0.05417584
141	0xbd62bb5b	-0.055354457
142	0xbcb2c4b1	-0.021822305
143	0x3c47147c	0.01215088
144	0xbc13ac4b	-0.009013246
145	0x3dc429d9	0.09578294
146	0x3d923d15	0.07140557
147	0x3dc8afb1	0.097991355
148	0xbd1fae57	-0.038984623
149	0xbd0600d3	-0.03271563
150	0xbd9c6ffa	-0.07638545
151	0x3d5fe053	0.05465729
152	0x3d9755f8	0.07389444
153	0xbda8a9e2	-0.082355276
154	0xbc713f3b	-0.014724548
155	0xbe0f1b47	-0.13975249
156	0x3d3bf716	0.045889936
157	0x3ce36e16	0.027762454
158	0x3d876668	0.06611329
159	0x3d8c4ee2	0.06850983
160	0x3e01bde1	0.1267009
161	0xbdb07c3a	-0.08617444
162	0xbc3f3e4d	-0.0116725685
163	0x3d6668f5	0.05625244
164	0xbd32b0c8	-0.043625623
165	0x3d2bc11f	0.04193222
166	0x3cdb4f74	0.026771285
167	0xbdb3852c	-0.08765635
168	0xbdc18230	-0.094486594
169	0xbcbf0137	-0.023316009
170	0xbd97e79c	-0.07417223
171	0xbd23a6d2	-0.039954014
172	0xbdb14929	-0.08656532
173	0x3d00382f	0.03130358
174	0x3dd199f1	0.1023444
175	0x3bd0394a	0.0063544856
176	0xbdcba571	-0.09943665
177	0xbd579798	-0.052634805
178	0xbd2d20f9	-0.042267773
179	0xbdf1a5d8	-0.1179921
180	0xbdc01e1c	-0.09380743
181	0x3d479c34	0.04873295
182	0xbe16d639	-0.14730157
183	0x3d19f851	0.03759033
184	0xbdfb5d9b	-0.12273713
185	0x3c0b46e6	0.00850079
186	0xbd9396e2	-0.07206513
187	0xbd8e8d4c	-0.06960544
188	0x3da6f3dc	0.08151981
189	0xbd6ee271	-0.05832142
190	0x3da01ef2	0.07818402
191	0x3dc275ac	0.094951004
192	0xbdfcb938	-0.12340015
193	0xbd091bdb	-0.03347383
194	0x3b09e7f4	0.0021042796
195	0xbdb8ae28	-0.09017593
196	0x3c128ecd	0.008945179
197	0x3dc830de	0.09774946
198	0x3e007e83	0.1254826
199	0x3db77088	0.089570105
200	0xbd73345e	-0.059376113
201	0x3baa0234	0.005188251
202	0x3dbe5906	0.092943236
203	0x3dfab695	0.12241856
204	0xbd5412ec	-0.051775858
205	0x3d6accea	0.057324328
206	0x3d27da24	0.04097952
207	0x3d81c2f2	0.06336011
208	0x3d20cd97	0.039258566
209	0xbd0263ea	-0.031833567
210	0xbda35ebd	-0.07977054
211	0x3c91ce62	0.017798606
212	0x3d04aefa	0.032393433
213	0xbd9f2070	-0.07769859
214	0xbcd89ef7	-0.026442988
215	0x3e27e9f2	0.16397837
216	0xbdbb6dec	-0.09151825
217	0xbd9875a9	-0.07444317
218	0xbcd1cffd	-0.025611872
219	0x3e11244e	0.14174005
220	0xbc26dc88	-0.010184415
221	0x3dc6ad0f	0.09700977
222	0xbd0ac6ee	-0.03388112
223	0xbd7b5858	-0.061363548
224	0x3e0f80d1	0.14013983
225	0x3d884ef9	0.06655688
226	0x3c98ed67	0.01866789
227	0x3d9275d7	0.071513824
228	0x3cf9ee5b	0.030509165
229	0x3db81fac	0.08990416
230	0xbd578a69	-0.052622233
231	0x3d189edf	0.037260886
232	0x3d2ea1c0	0.042634726
233	0xbbd77d63	-0.0065762266
234	0x3ca86bba	0.02055918
235	0x3cf88a1a	0.03033929
236	0x3da2b26f	0.0794419
237	0xbe0b6998	-0.136145
238	0xbda541d7	-0.080691986
239	0xbd22bcbc	-0.039730772
240	0x3bfd2421	0.007725254
241	0x3de13d2a	0.10997994
242	0xbd9d062c	-0.07667193
243	0x3d6da86f	0.05802196
244	0x3b284afa	0.0025679455
245	0x3caf2ab4	0.021382667
246	0x3df40cdb	0.119165145
247	0x3cf2bd71	0.029631348
248	0x3c891fba	0.016738761
249	0xbdc9f020	-0.09860253
250	0xbde84b48	-0.11342484
251	0x3cedcd9d	0.029028708
252	0x3df0159e	0.11722873
253	0x3da1a9f5	0.07893745
254	0xbdc69fea	-0.0969847
255	0xbcb7538e	-0.02237871
