checkpoints/epoch=0-step=50-v4.ckpt (torch, 621663 bytes, 33 tensors)

model.param_proj.proj.0.weight f4 [1, 60]
0.09568524 0.08327783 0.13606803 0.052279383 -0.040875815 0.14210229 -0.12079221 0.07454224
0.0144996075 -0.013858461 -0.13818409 -0.016728994 0.108166896 -0.059206586 -0.09761765 0.09965075
0.09059271 -0.08853275 0.053452294 -0.042699203 -0.07501744 0.033589575 -0.10500696 0.07463615
-0.030562429 0.01838778 -0.0036488713 -0.05385311 0.056092247 0.1676916 0.04078182 -0.034871373
0.10154321 0.15871331 0.04913057 -0.040348597 -0.03788959 -0.053544402 -0.052713003 -0.06049354
0.03794332 0.08652014 -0.1265797 -0.17759873 0.18107729 0.0063662967 0.030835565 0.03310729
0.10289917 -0.10069531 -0.008951495 0.0068550385 -0.15873513 -0.027792323 -0.06115647 -0.0548024
-0.010352429 0.097790994 -0.041660365 -0.017326511
00000000: a0f6 c33d 918d aa3d 6b55 0b3e e822 563d
00000010: 666d 27bd 4383 113e e861 f7bd 9aa9 983d
00000020: c38f 6d3c 990e 63bc 2180 0dbe 3e0b 89bc
00000030: 9b86 dd3d 9b82 72bd c3eb c7bd b115 cc3d
00000040: ac88 b93d a950 b5bd cbf0 5a3d 5ce5 2ebd
00000050: bea2 99bd 3995 093d e40d d7bd d6da 983d
00000060: 0f5e fabc f8a1 963c e721 6fbb 1495 5cbd
00000070: fcc0 653d 59b7 2b3e d60a 273d 49d5 0ebd
00000080: e3f5 cf3d be85 223e 233d 493d 9244 25bd
00000090: 1d32 1bbd 6051 5bbd 97e9 57bd 13c8 77bd
000000a0: 746a 1b3d 7931 b13d 1c9e 01be 71dc 35be
000000b0: 536c 393e 5e9c d03b de9a fc3c 829b 073d
000000c0: cdbc d23d 5839 cebd 4ba9 12bc 3ba0 e03b
000000d0: 768b 22be baac e3bc 357f 7abd 7b78 60bd
000000e0: 3c9d 29bc a546 c83d 0fa4 2abd 54f0 8dbc

model.param_proj.proj.1.weight f4 [1, 60]
0.11676913 0.051296193 -0.028353479 -0.04115808 -0.13508855 -0.14517622 0.1078289 0.13965353
-0.0943668 -0.12332327 0.09788896 -0.09500227 -0.12410715 -0.1295957 -0.14516853 0.09447755
0.024782041 0.11974929 -0.053310532 -0.13227797 -0.13560556 -0.10379054 -0.06279516 0.06887993
0.020703826 -0.091244616 0.062171225 -0.033975 0.08742202 -0.07416223 -0.12835729 0.111601755
-0.077363074 0.08773399 0.0029230106 -0.11486088 0.11255633 0.038795564 -0.100386105 0.1621996
-0.032476604 -0.014639439 -0.04649579 0.10785329 0.06540397 -0.14495093 0.092348255 0.05559335
-0.084967226 0.13561793 -0.08300704 0.14510746 -0.11449838 -0.039905466 0.09346364 -0.11858459
-0.08266985 -0.027192157 -0.09062889 0.15211928
00000000: a724 ef3d f51b 523d 8e45 e8bc 6095 28bd
00000010: a754 0abe 13a9 14be 66d5 dc3d 5601 0f3e
00000020: 6143 c1bd e990 fcbd 027a c83d 8d90 c2bd
00000030: e42b febd bcb4 04be 0fa7 14be 727d c13d
00000040: b503 cb3c 1e3f f53d 255c 5abd e073 07be
00000050: 2fdc 0abe 2290 d4bd c09a 80bd ec10 8d3d
00000060: 129b a93c 75de babd 41a7 7e3d 5f29 0bbd
00000070: 510a b33d 5ee2 97bd 1870 03be 768f e43d
00000080: 8870 9ebd e1ad b33d fb8f 3f3b 2e3c ebbd
00000090: ef83 e63d 19e8 1e3d 3b97 cdbd a717 263e
000000a0: 3006 05bd 42da 6fbc 5f72 3ebd 30e2 dc3d
000000b0: 84f2 853d 046e 14be 1521 bd3d dab5 633d
000000c0: 4c03 aebd 6ddf 0a3e 98ff a9bd 0d97 143e
000000d0: 207e eabd ea73 23bd dd69 bf3d 7adc f2bd
000000e0: cf4e a9bd 16c2 debc a49b b9bd 28c5 1b3e

model.param_proj.proj.2.weight f4 [1, 60]
0.096077435 -0.0291195 0.04506913 0.064779155 0.122294255 0.07533906 0.054903883 0.024630923
0.059469853 -0.04316692 0.028685562 -0.09989312 0.0064454167 -0.051436145 -0.122817345 0.09495237
-0.13223314 -0.088679865 0.0532866 -0.049564246 0.090201825 0.132832 -0.1286857 -0.0864269
-0.005271405 0.00985034 -0.111488946 -0.0376944 0.071721 0.07375117 0.1233031 -0.022147791
0.04346406 0.044577204 0.046887163 0.050904494 -0.05958097 0.022653893 0.07813303 0.13175885
0.033806138 0.010871069 0.028480059 -0.09243111 0.034773383 0.12374661 -0.09780903 0.045024514
-0.047336847 -0.109595135 0.115072936 -0.013976134 -0.10511202 0.11367537 -0.11366434 -0.08619713
0.07418809 -0.06763338 -0.08678498 0.039308976
00000000: 3fc4 c43d 058c eebc 689a 383d efaa 843d
00000010: 6975 fa3d 5d4b 9a3d e5e2 603d cac6 c93c
00000020: a996 733d cccf 30bd fcfd ea3c c494 ccbd
00000030: 1334 d33b b5ae 52bd a987 fbbd 6376 c23d
00000040: 2068 07be ca9d b5bd 0d43 5a3d e103 4bbd
00000050: bcbb b83d 1d05 083e 2fc6 03be 9600 b1bd
00000060: c0bb acbb 5263 213c 5154 e4bd 7165 1abd
00000070: 76e2 923d da0a 973d 5686 fc3d 496f b5bc
00000080: 5f07 323d 9696 363d c10c 403d 3b81 503d
00000090: 2d0b 74bd a894 b93c 3604 a03d cbeb 063e
000000a0: 4e78 0a3d 911c 323c 034f e93c 864c bdbd
000000b0: 896e 0e3d dd6e fd3d 1a50 c8bd a06b 383d
000000c0: 48e4 41bd 6a73 e0bd 5cab eb3d 28fc 64bc
000000d0: f944 d7bd a2ce e83d d9c8 e8bd 1f88 b0bd
000000e0: edef 973d 5f83 8abd 53bc b1bd 7302 213d

model.rnn.weight_ih_l0 f4 [240, 24]
0.14344457 -0.10006242 -0.06579463 0.09781077 0.040124122 -0.13830206 -0.036387637 0.07909963
0.0057648434 -0.027595267 0.12783344 -0.026986998 -0.005098086 -0.021613285 0.0017306475 -0.033426534
0.022066971 0.008460642 -0.09103416 0.07754995 -0.032611787 0.0012634236 0.05276225 0.09481189
0.12373843 0.055139564 -0.0952615 -0.03396867 0.022348033 0.037924107 0.030752866 0.093410805
0.11608022 0.054989573 -0.012692493 0.12535502 0.086418666 -0.009224339 -0.099582575 0.037858125
0.025019037 -0.067982435 -0.04696622 0.04876785 0.10656057 -0.11737218 -0.02756697 0.08155984
0.09065218 0.060441993 -0.046214346 -0.12399779 0.0313475 -0.1198998 -0.018449588 -0.064224064
0.015312577 0.121484414 0.0013976586 -0.04337279 -0.04586505 0.031935643 0.013444062 0.09914281
0.012083072 -0.02227114 -3.0111056e-05 0.04198998 0.0035554073 -0.078399 0.024474345 0.018848378
-0.10226362 -0.0028721802 -0.032418795 0.10340698 0.036532756 -0.10973727 -0.09650263 0.13121401
-0.07784742 -0.14282776 -0.118131295 -0.11358942 0.05281232 0.03807351 -0.11266202 -0.09974281
0.11020063 -0.09689483 0.059137188 -0.10729408 0.085644856 -0.022285389 0.05193447 0.026378062
0.05250354 -0.014015485 -0.06833161 -0.056247532 -0.096217155 0.05252652 0.09342842 -0.061601993
-0.015226494 0.0057272185 -0.076531686 -0.107456 -0.065353304 -0.025279777 0.0051539973 -0.031386152
0.063266 0.10515035 -0.11985979 -0.057882935 -0.10394613 -0.023857731 -0.11545349 0.12750149
-0.05194463 -0.10157515 0.07611695 0.08747017 -0.10814358 0.06338339 0.043744136 -0.043791756
0.079438955 -0.08581212 -0.07889414 0.09632832 -0.11066767 0.1313549 0.018845178 0.016729532
0.035885185 -0.014714638 0.09692714 0.0048716674 -0.00487299 -0.06335235 0.09635417 -0.07842867
-0.17783757 0.09053831 -0.10105806 0.08460648 0.031616945 -0.13400148 -0.03727504 -0.0961046
0.08643208 -0.059195857 0.13829069 -0.01707784 -0.112296164 0.08824487 0.043927345 -0.059366483
-0.028227901 -0.09149453 -0.028048962 -0.089444324 -0.09141526 0.14963035 -0.025783276 0.04032342
0.09658222 0.030115122 -0.0675672 -0.01940886 0.049327426 -0.0837566 -0.030346598 -0.16753545
-0.1671531 0.107779324 0.105998635 0.06373766 -0.007229888 -0.030154033 0.07816085 -0.05268058
0.043319743 0.10852087 0.03509609 -0.03867419 0.009829727 0.035550002 -0.0006738232 -0.020573767
-0.062882826 0.004978086 -0.094247095 0.047976803 -0.023441646 0.01858497 0.03321612 -0.05845528
0.10775086 0.026968861 -0.091062345 0.052354347 -0.06197014 0.07396779 0.07434863 -0.12542357
-0.10534309 -0.011017536 -0.078863434 0.063850895 0.031416494 0.00072869984 -0.092817806 0.11394113
-0.13359268 0.06114516 -0.013067096 -0.08667117 0.115588464 -0.12217633 -0.011616599 -0.111849815
0.029302606 -0.0738522 0.019086566 0.11114752 -0.13965173 -0.09487421 0.072733425 0.09753823
0.06700752 -0.022927359 0.02323995 0.12317566 0.016197514 -0.03790983 0.12788266 -0.14871965
-0.113193765 -0.10354985 -0.06554065 0.05184858 0.047406368 0.08927041 0.029741488 -0.022632284
0.09685403 0.09360747 0.069566704 -0.15472731 0.027860556 -0.13321175 0.1387609 0.018525766
00000000: 22e3 123e 87ed ccbd 56bf 86bd 0351 c83d
00000010: 3159 243d 0e9f 0dbe 340b 15bd fdfe a13d
00000020: 03e7 bc3b 780f e2bc c5e6 023e d613 ddbc
00000030: d80d a7bb 580e b1bc e5d6 e23a 43ea 08bd
00000040: cbc5 b43c 819e 0a3c 1e70 babd 82d2 9e3d
00000050: f093 05bd 7699 a53a 3b1d 583d bc2c c23d
00000060: 936a fd3d 06da 613d 7618 c3bd bb22 0bbd
00000070: 3913 b73c 4f56 1b3d 6fed fb3c 2a4e bf3d
00000080: 77bb ed3d bf3c 613d 2df4 4fbc 115d 003e
00000090: 45fc b03d af21 17bc f3f1 cbbd 1f11 1b3d
000000a0: b9f4 cc3c 603a 8bbd a75f 40bd ccc0 473d
000000b0: 6e3c da3d d360 f0bd 20d4 e1bc d808 a73d
000000c0: daa7 b93d 0692 773d 414b 3dbd 8ef2 fdbd
000000d0: 3c66 003d 078e f5bd 9723 97bc e887 83bd
000000e0: 9ae1 7a3c d2cc f83d a431 b73a aba7 31bd
000000f0: fedc 3bbd f3ce 023d 7c44 5c3c 630b cb3d
00000100: 14f8 453c f771 b6bc 0097 fcb7 affd 2b3d
00000110: d601 693b a88f a0bd 6c7e c83c ea67 9a3c
00000120: 976f d1bd 303b 3cbb 92c9 04bd 0ac7 d33d
00000130: 5fa3 153d efbd e0bd 2ca3 c5bd f75c 063e
00000140: 786e 9fbd 7141 12be d2ee f1bd 92a1 e8bd
00000150: bb51 583d f8f2 1b3d 58bb e6bd f545 ccbd
00000160: deb0 e13d cc70 c6bd d639 723d 00bd dbbd
00000170: 9266 af3d d98f b6bc 3db9 543d ce16 d83c
00000180: f40d 573d 34a1 65bc 71f1 8bbd d063 66bd
00000190: 800d c5bd 0c26 573d 6657 bf3d 5f52 7cbd
000001a0: 8b78 79bc 64ab bb3b a5bc 9cbd e411 dcbd
000001b0: f4d7 85bd 8917 cfbc dde2 a83b c48e 00bd
000001c0: 9b91 813d 1159 d73d 0d79 f5bd a816 6dbd
000001d0: b5e1 d4bd 4a71 c3bc e172 ecbd c08f 023e
000001e0: e4c3 54bd a206 d0bd 34e3 9b3d 8f23 b33d
000001f0: 627a ddbd 27cf 813d 0d2d 333d fc5e 33bd
00000200: e4b0 a23d 44be afbd 4093 a1bd c847 c53d
00000210: bba5 e2bd e681 063e 3461 9a3c 5f0c 893c
00000220: 58fc 123d aa15 71bc bd81 c63d 82a2 9f3b
00000230: 9aad 9fbb e0be 81bd 5655 c53d 369f a0bd
00000240: 0d1b 36be 266c b93d 87f7 cebd 2a46 ad3d
00000250: c580 013d af37 09be b6ad 18bd 7dd2 c4bd
00000260: 4d03 b13d 5b77 72bd 139c 0d3e d4e6 8bbc
00000270: 88fb e5bd bab9 b43d 29ed 333d 452a 73bd
00000280: 333e e7bc 7c61 bbbd f0c6 e5bc 962e b7bd
00000290: ed37 bbbd b338 193e 7337 d3bc 2c2a 253d
000002a0: e6cc c53d fdb3 f63c ac60 8abd 54ff 9ebc
000002b0: 8e0b 4a3d 9588 abbd 6e99 f8bc 6a8e 2bbe
000002c0: 2f2a 2bbe 68bb dc3d d015 d93d e488 823d
000002d0: b2e8 ecbb 9705 f7bc cc12 a03d 98c7 57bd
000002e0: 0b70 313d 3140 de3d ebc0 0f3d d468 1ebd
000002f0: dd0c 213c e19c 113d 82a3 30ba 518a a8bc
00000300: b6c8 80bd 361f a33b 9f04 c1bd 5383 443d
00000310: b208 c0bc 823f 983c a00d 083d ce6e 6fbd
00000320: 7cac dc3d cded dc3c e57e babd 8371 563d
00000330: 67d4 7dbd 6d7c 973d 1844 983d 096f 00be
00000340: 1ebe d7bd e582 34bc 2783 a1bd 42c4 823d
00000350: 95ae 003d 3806 3f3a 4317 bebd f859 e93d
00000360: 85cc 08be 5973 7a3d 5f17 56bc a880 b1bd
00000370: a5b9 ec3d 9537 fabd 8c53 3ebc 8411 e5bd
00000380: 050c f03c d23f 97bd 6e5b 9c3c 50a1 e33d
00000390: dd00 0fbe 694d c2bd 43f5 943d 20c2 c73d
000003a0: 3d3b 893d 28d2 bbbc b561 be3c 8543 fc3d
000003b0: a6b0 843c 5747 1bbd acf3 023e f749 18be
000003c0: 22d2 e7bd f211 d4bd 2d3a 86bd 2d5f 543d
000003d0: 2e2d 423d 68d3 b63d 6ca4 f33c 5767 b9bc
000003e0: 685b c63d 46b5 bf3d fd78 8e3d d670 1ebe
000003f0: d23b e43c a968 08be 5617 0e3e 59c3 973c

model.rnn.weight_hh_l0 f4 [240, 60]
-0.033698253 -0.07911556 0.042841822 -0.075938664 0.0379501 0.044800073 0.15978323 0.051381987
0.1725138 -0.07785732 -0.10843927 0.06339284 -0.12454587 -0.0072064707 0.050372947 -0.077862635
0.032118708 -0.095788516 -0.08316919 -0.12591685 0.1413111 -0.038985893 0.056175455 0.14513148
0.09379576 -0.073013104 0.0455281 -0.011074829 0.12703875 -0.044551183 0.023984415 0.073871866
-0.08245 0.06275625 0.15410012 0.027226686 -0.07688285 0.10114256 -0.12957276 -0.14109688
-0.025867451 0.017749418 0.0038453636 -0.027175296 0.04545635 -0.029433243 0.11264254 -0.05617023
-0.08391431 0.061484672 -0.070638575 0.059495777 0.085067905 0.046584435 -0.044803884 -0.14115837
-0.020005066 -0.020027496 -0.022951068 -0.0872958 0.11731969 -0.060023073 0.022986138 -0.097875625
0.13394682 0.011616006 0.019984758 -0.039537624 0.09430873 0.015342648 -0.013820374 0.13910204
0.10222871 -0.08589239 0.07355186 0.0010033479 0.0061715506 -0.01607788 0.11462304 0.030449647
-0.02638062 -0.060979676 -0.045850914 -0.09611441 -0.07380894 -0.026001971 -0.079694845 0.032687876
0.101097055 0.07072825 0.05356659 -0.07768116 0.007014232 0.07347368 -0.1099152 -0.016847841
-0.10493496 0.04197934 -0.02249723 -0.06659247 -0.009330641 0.047293395 0.018367944 0.09290226
0.032112114 0.051104106 -0.09050994 -0.031678375 0.022939067 -0.0036768722 0.088215165 -0.13100076
-0.02459912 0.09595294 0.014366719 -0.086294234 0.0146612665 -0.0853422 0.010139976 0.053284448
-0.10264426 0.086026706 -0.0064383424 -0.080026746 -0.012828721 -0.024099335 0.069757745 0.03432865
0.047394477 0.08602001 -0.011890336 -0.086798206 0.03610789 -0.049455743 0.1222342 -0.0646781
0.0334321 -0.03316893 0.045527793 -0.01690877 -0.013606178 -0.07367255 0.10487974 0.04933536
0.10462812 0.1284574 -0.029234061 0.09466711 -0.08614743 0.11034533 0.13179153 -0.12129839
0.08704285 0.013632002 0.015645944 0.078987725 0.07057204 0.09513095 -0.10626285 -0.108231656
-0.046923723 -0.12230527 0.0629927 0.13515438 0.12057583 0.096662536 0.06185023 0.010736655
-0.0909362 0.11759945 0.13292335 0.062209178 0.019450169 -0.07726566 0.069105744 -0.026242862
0.07259486 -0.032040674 0.009375183 -0.089649476 0.077975474 0.0002644636 0.050672803 0.08385047
-0.14575127 -0.026295668 0.06898179 0.11671217 0.12440257 0.10899509 -0.10769905 0.020131188
0.008087608 -0.146676 -0.026310151 -0.025275609 0.015790649 -0.023987584 -0.1297249 -0.06297046
-0.0489542 0.16119447 0.07962502 0.031036442 -0.033680364 0.07449738 -0.1243507 -0.10299923
0.1204448 0.044241726 0.061431885 0.12607326 0.082062185 -0.02408762 0.088604845 -0.10505871
0.06191061 0.038887735 0.0318628 -0.060388077 0.013048309 -0.06281349 0.095451295 -0.009877679
0.12246595 0.06524936 -0.07712546 0.07456433 -0.002588377 -0.081235036 0.009399673 -0.020566331
-0.07757285 0.054445595 -0.122582376 0.072114155 -0.06529301 0.08784943 -0.061003033 -0.12083735
0.05123897 -0.018282566 0.011453138 0.06798924 0.024654277 0.07456464 -0.02218998 -0.0030821296
0.09296702 -0.033586334 -0.039430916 0.15991555 -0.086868204 -0.10644602 -0.15649648 0.015033926
00000000: 2e07 0abd 5707 a2bd e87a 2f3d bb85 9bbd
00000010: 9071 1b3d 4880 373d 379e 233e eb75 523d
00000020: 75a7 303e a973 9fbd 6815 debd 1bd4 813d
00000030: e811 ffbd 4224 ecbb dd53 4e3d 7276 9fbd
00000040: e88e 033d c52c c4bd 9c54 aabd 59f0 00be
00000050: dbb3 103e acaf 1fbd 3c18 663d 599d 143e
00000060: fe17 c03d e587 95bd ac7b 3a3d 3373 35bc
00000070: 7216 023e 4d7b 36bd f77a c43c 224a 973d
00000080: 8cdb a8bd 5986 803d 6ccc 1d3e 800a df3c
00000090: c174 9dbd d523 cf3d b9ae 04be b37b 10be
000000a0: fae7 d3bc 3a67 913c 7f02 7c3b ba9e debc
000000b0: 7030 3a3d fc1d f1bc 22b1 e63d c112 66bd
000000c0: 44db abbd 5ad7 7b3d f5aa 90bd d8b1 733d
000000d0: 1538 ae3d 52cf 3e3d 4784 37bd d28b 10be
000000e0: aae1 a3bc b410 a4bc e103 bcbc 24c8 b2bd
000000f0: 4e45 f03d c1da 75bd 6d4d bc3c 0473 c8bd
00000100: 5b29 093e 0f51 3e3c 13b7 a33c 34f2 21bd
00000110: ef24 c13d bb5f 7b3c da6e 62bc c470 0e3e
00000120: 495d d13d 59e8 afbd 5ca2 963d c582 833a
00000130: b83a ca3b c2b5 83bc 7cbf ea3d 8a71 f93c
00000140: 2c1c d8bc d3c5 79bd 2bce 3bbd a2d7 c4bd
00000150: 2429 97bd 1602 d5bc 0d37 a3bd b9e3 053d
00000160: f90b cf3d f9d9 903d a468 5b3d 4d17 9fbd
00000170: a5d7 e53b 5e79 963d 381b e1bd 7c04 8abc
00000180: 24e8 d6bd 87f2 2b3d 1c4c b8bc a261 88bd
00000190: 8bdf 18bc b8b6 413d 5f78 963c 8a43 be3d
000001a0: fe87 033d 8a52 513d 475d b9bd 2fc1 01bd
000001b0: b6ea bb3c aef7 70bb 27aa b43d 1025 06be
000001c0: 1884 c9bc fa82 c43d 6362 6b3c 08bb b0bd
000001d0: cf35 703c e4c7 aebd 2422 263c cb40 5a3d
000001e0: 2737 d2bd c52e b03d bbf8 d2bb 10e5 a3bd
000001f0: 8e2f 52bc f86b c5bc 26dd 8e3d 339c 0c3d
00000200: b620 423d 422b b03d afcf 42bc 42c3 b1bd
00000210: dee5 133d 1b92 4abd ed55 fa3d f475 84bd
00000220: 19f0 083d 25dc 07bd 5a7b 3a3d 4384 8abc
00000230: 72ec 5ebc a2e1 96bd 30cb d63d e013 4a3d
00000240: 4547 d63d 568a 033e 457c efbc d4e0 c13d
00000250: 106e b0bd bbfc e13d 5cf4 063e 4a6b f8bd
00000260: 8643 b23d c358 5f3c ec2b 803c 51c4 a13d
00000270: 1388 903d 04d4 c23d 56a0 d9bd 8fa8 ddbd
00000280: 1733 40bd 2f7b fabd 5102 813d e965 0a3e
00000290: 76f0 f63d 02f7 c53d ab56 7d3d cce8 2f3c
000002a0: c23c babd fbd7 f03d 0f1d 083e 0dcf 7e3d
000002b0: f655 9f3c 753d 9ebd 5087 8d3d 45fb d6bc
000002c0: 9dac 943d 153d 03bd 5e9a 193c 259a b7bd
000002d0: 9bb1 9f3d b4a7 8a39 498e 4f3d ccb9 ab3d
000002e0: d23f 15be 036a d7bc 5346 8d3d ca06 ef3d
000002f0: c6c6 fe3d d138 df3d 5291 dcbd 29ea a43c
00000300: e381 043c 3c32 16be 6388 d7bc cb0e cfbc
00000310: 645b 813c 9c81 c4bc 9bd6 04be a8f6 80bd
00000320: 3384 48bd 2a10 253e 7112 a33d 2340 fe3c
00000330: 6cf4 09bd 1592 983d 94ab febd 43f1 d2bd
00000340: c3ab f63d d036 353d 00a0 7b3d 5919 013e
00000350: 3810 a83d 6753 c5bc 7576 b53d 0529 d7bd
00000360: fb95 7d3d bf48 1f3d 9182 023d 7d59 77bd
00000370: 93c8 553c 5ca4 80bd f87b c33d fdd5 21bc
00000380: 6ecf fa3d 75a1 853d f4f3 9dbd 2fb5 983d
00000390: c3a1 29bb 8e5e a6bd 1601 1a3c b97a a8bc
000003a0: 84de 9ebd 5802 5f3d 780c fbbd 96b0 933d
000003b0: 57b8 85bd 67ea b33d 51de 79bd 9379 f7bd
000003c0: f4df 513d 52c5 95bc f1a5 3b3c f13d 8b3d
000003d0: c4f7 c93c 59b5 983d c3c7 b5bc 8efd 49bb
000003e0: 7e65 be3d d391 09bd 5082 21bd e7c0 233e
000003f0: f5e7 b1bd 5f00 dabd 9d40 20be db50 763c

model.rnn.bias_ih_l0 f4 [240]
0.049110137 -0.11174987 0.04384569 -0.07714097 -0.029412055 -0.110834554 0.032517005 -0.044527832
0.107341126 -0.02442828 -0.056094445 -0.05447097 0.05747247 0.046711408 -0.06273634 -0.042190813
0.03695246 0.033362683 -0.1212206 -0.103258386 0.114115834 -0.09175162 -0.059970245 -0.06046613
0.16607782 -0.07356008 0.14260453 -0.006668254 -0.12824854 0.020366041 -0.10354097 0.12923016
0.13483672 -0.06712925 0.11939984 0.13008201 -0.104288444 -0.03231173 0.043459944 0.0898067
-0.014998951 0.0726475 0.13398997 -0.101994246 -0.026567252 -0.025650825 0.064466104 0.020692851
-0.052817363 -0.061615266 -0.029579738 0.008578002 0.004155572 0.0582949 0.032936998 0.031558044
0.067182526 -0.09607442 0.109603494 0.048827533 0.07024793 0.03115897 -0.11028477 -0.03509866
-0.056608357 0.11705439 -0.04797553 0.1035948 0.10386043 -0.053112127 0.05012136 -0.022370638
-0.023153726 0.08614135 0.10756358 -0.074707136 0.063430734 0.1183221 0.027711393 -0.12773535
0.14741494 0.04833 0.033698734 0.06198932 -0.026386546 -0.055299446 0.06389046 0.058993746
-0.06228971 0.018124271 -0.02592806 -0.010690857 -0.027676588 0.029260335 -0.018435795 0.14165272
0.043484576 0.08632237 0.056225616 0.13692582 0.09973729 0.060901012 -0.10062778 -0.106905624
0.124676846 0.050362036 -0.107342415 0.008947867 -0.050385922 -0.08762219 -0.113301516 -0.030384984
0.08961713 -0.043513548 -0.0224309 -0.03324478 -0.10897485 -0.06549912 -0.075281635 -0.06136507
0.035407618 0.08947098 0.09036618 -0.013414112 -0.033253215 0.0565399 -0.070906065 0.08422726
0.02806477 0.079806685 -0.106124945 -0.04099705 -0.017251307 0.09036946 0.013337373 0.00041300163
0.049325854 -0.11372059 -0.01704066 -0.053203087 0.08157797 0.026604645 -0.09789252 0.026921121
0.041965116 -0.08617196 -0.047050025 0.060391426 0.10687345 -0.064227186 0.066676505 0.05906662
-0.0072489935 -0.12695509 0.0718944 -0.09133571 -0.05583498 0.0013655005 -0.0272079 -0.10865959
-0.11799722 0.023203408 -0.0522502 -0.025503175 -0.041745134 0.15298423 0.05353732 -0.012583853
0.11740447 -0.06982303 -0.10254413 0.06780884 0.022060525 0.062209368 0.024770256 -0.11007655
0.08533707 -0.08002735 -0.00099204 -0.12968785 -0.07795772 -0.036188856 -0.041744962 0.05947007
0.16114557 0.01656161 0.01677445 -0.070286326 -0.009456615 -0.08730808 -0.002118936 0.0627309
0.053571247 0.099375166 -0.0702866 0.120315656 -0.0049659726 0.091330335 -0.06941257 -0.043922443
0.019541811 0.05898976 -0.046595365 -0.050727624 0.044963576 0.14242189 0.1358283 0.0072596115
-0.0799076 -0.1141731 0.11732671 0.084544785 0.03077019 0.16948977 -0.07642064 0.08923657
-0.08114237 -0.005622081 -0.035682693 0.14466575 -0.07488888 0.097661994 0.114321776 0.079681665
0.043456156 0.14679286 0.14807269 -0.050644346 -0.04902255 0.07431623 -0.02899936 0.11699744
0.08508396 0.09141495 -0.045645807 -0.087452315 -0.07861574 -0.053069256 0.029332455 0.0685757
00000000: b627 493d 1edd e4bd 8a97 333d 16fc 9dbd
00000010: 8df1 f0bc 3afd e2bd 8d30 053d d162 36bd
00000020: aad5 db3d d11d c8bc 4ac3 65bd f41c 5fbd
00000030: 4168 6b3d 7654 3f3d e97b 80bd 46d0 2cbd
00000040: 765b 173d 4fa7 083d 8242 f8bd 2279 d3bd
00000050: 90b5 e93d 46e8 bbbd 5ca3 75bd 55ab 77bd
00000060: 4e10 2a3e aba6 96bd ec06 123e 5e81 dabb
00000070: 9653 03be afd6 a63c 4a0d d4bd e954 043e
00000080: a312 0a3e 0f7b 89bd e787 f43d 3834 053e
00000090: 2e95 d5bd 4e59 04bd 0e03 323d 93ec b73d
000000a0: 29be 75bc 36c8 943d ab34 093e 5ce2 d0bd
000000b0: 91a3 d9bc ae21 d2bc ce06 843d 0e84 a93c
000000c0: 0557 58bd 4a60 7cbd 3551 f2bc c08a 0c3c
000000d0: 772b 883b a2c6 6e3d f2e8 063d 0243 013d
000000e0: fe96 893d aac2 c4bd cc77 e03d 61ff 473d
000000f0: 26de 8f3d 1941 ff3c fbdc e1bd 9dc3 0fbd
00000100: 2ade 67bd 36ba ef3d fd81 44bd 8329 d43d
00000110: c7b4 d43d 1a8c 59bd 0e4c 4d3d a142 b7bc
00000120: e2ac bdbc e06a b03d 4b4a dc3d 0e00 99bd
00000130: f9e7 813d db52 f23d 0103 e33c 0ecd 02be
00000140: f1f3 163e aef5 453d af07 0a3d 83e8 7d3d
00000150: 9928 d8bc ac81 62bd 00d9 823d 6da3 713d
00000160: 7f23 7fbd 5a79 943c 1567 d4bc b428 2fbc
00000170: 03ba e2bc 5fb3 ef3c aa06 97bc 690d 113e
00000180: e21c 323d c8c9 b03d d54c 663d 4836 0c3e
00000190: 1043 cc3d 5773 793d f015 cebd 56f1 dabd
000001a0: 9356 ff3d 6c48 4e3d 57d6 dbbd 139a 123c
000001b0: 7861 4ebd 4373 b3bd a00a e8bd eee9 f8bc
000001c0: 3089 b73d 433b 32bd 02c1 b7bc ae2b 08bd
000001d0: 352e dfbd 6724 86bd 422d 9abd f159 7bbd
000001e0: 9407 113d 903c b73d e711 b93d ddc6 5bbc
000001f0: 8634 08bd 6296 673d 3337 91bd 577f ac3d
00000200: 17e8 e53c b071 a33d 0958 d9bd 86ec 27bd
00000210: 9d52 8dbc a013 b93d ff84 5a3c 2488 d839
00000220: e809 4a3d 57e6 e8bd db98 8bbc 7beb 59bd
00000230: 5a12 a73d fcf1 d93c e07b c8bd af89 dc3c
00000240: 9de3 2b3d ed7a b0bd 87b7 40bd 005d 773d
00000250: 78e0 da3d 8b89 83bd b18d 883d d7ef 713d
00000260: f788 edbb 8400 02be 5f3d 933d 370e bbbd
00000270: 38b3 64bd 98fa b23a 1ae3 debc eb88 debd
00000280: 87a8 f1bd 1315 be3c 4e04 56bd 09ec d0bc
00000290: f2fc 2abd e6a7 1c3e f349 5b3d 812c 4ebc
000002a0: c171 f03d 60ff 8ebd a802 d2bd 5cdf 8a3d
000002b0: 46b8 b43c 40cf 7e3d feea ca3c d06f e1bd
000002c0: 34c5 ae3d 61e5 a3bd 5707 82ba e4cc 04be
000002d0: 4ca8 9fbd c43a 14bd c4fc 2abd e396 733d
000002e0: 5803 253e 37ac 873c 926a 893c 47f2 8fbd
000002f0: ebef 1abc 94ce b2bd d9dd 0abb 0f79 803d
00000300: 866d 5b3d 3585 cb3d 6cf2 8fbd 0e68 f63d
00000310: 99b9 a2bb 660b bb3d 2d28 8ebd 05e8 33bd
00000320: 2616 a03c 3f9f 713d c8da 3ebd c5c7 4fbd
00000330: ba2b 383d 0bd7 113e 9316 0b3e 09e2 ed3b
00000340: 99a6 a3bd 96d3 e9bd fc48 f03d d125 ad3d
00000350: c411 fc3c ba8e 2d3e 6d82 9cbd aac1 b63d
00000360: f92d a6bd 6f39 b8bb 0428 12bd 4223 143e
00000370: 575f 99bd 0303 c83d 8921 ea3d 2430 a33d
00000380: 15ff 313d de50 163e 5ea0 173e 7270 4fbd
00000390: dfcb 48bd 1c33 983d 1190 edbc 5b9c ef3d
000003a0: 8040 ae3d c337 bb3d 19f7 3abd 331a b3bd
000003b0: 4a01 a1bd 265f 59bd 9e4a f03c 6b71 8c3d

model.rnn.bias_hh_l0 f4 [240]
0.11094847 0.11321613 -0.08536117 0.10903129 0.07831548 0.014610003 0.01635521 0.13319997
0.14699592 -0.0038068907 -0.09018667 -0.011934464 0.0982383 -0.05446861 0.13981593 -0.056336023
0.02931056 -0.033553276 0.101537116 -0.11028304 0.041911688 0.02622856 -0.09576805 -0.0027128449
-0.009400457 -0.011004396 -0.081487715 0.068821825 -0.056239016 0.005222871 0.12552975 0.10743957
-0.08865599 0.008930212 -0.066822566 0.14665303 0.0063381367 0.14344232 0.12280874 0.08480183
-0.08518912 0.027216855 -0.026466947 0.008609853 0.07377879 -0.045558587 -0.044165444 0.06672037
0.03793478 0.10018638 -0.016460398 0.10530966 -0.03901038 -0.068127185 -0.10028458 -0.068536915
0.081954576 -0.031274524 0.07500712 0.05114949 -0.12794891 -0.059136692 -0.14190376 0.05785937
0.0022381442 4.130474e-06 -0.053295147 0.12167557 -0.018138388 -0.027244078 -0.024116138 -0.15437208
-0.07840897 -0.030274855 0.036363356 0.004004247 0.0070128078 0.13621728 0.007834577 0.06813654
-0.058785066 0.09826838 -0.038413152 0.033937775 0.121574506 -0.021219201 0.108961664 -0.10670351
0.08374447 0.061696753 0.091731265 -0.02063088 0.028298903 -0.06031794 0.021993373 0.012464432
0.005305615 0.044887334 -0.0040987264 0.11609297 -0.11188233 -0.0016188379 -0.0772979 -0.06542215
-0.06689381 0.0027745604 -0.06046492 -0.05456959 -0.116576016 0.04543384 -0.07895993 -0.08968899
-0.006362623 -0.02537337 0.088317744 -0.11063144 -0.10274838 0.1169095 -0.119409114 0.0076120496
0.10551325 -0.09541862 0.02571613 -0.07554708 0.047737114 -0.08428604 0.11830969 -0.0716344
0.06567477 -0.03040082 -0.07199118 0.04445124 0.13081932 -0.06986206 0.07798749 -0.00031923398
0.06694475 -0.12925842 -0.024312114 -0.044274744 0.07526066 0.0724958 0.05597295 -0.091551736
0.014847348 -0.060746737 0.050049778 0.027588336 0.06903082 -0.06637799 -0.05189334 -0.027114589
0.07987555 0.0023736951 0.027477572 0.029616723 -0.04972786 0.023788178 -0.056627553 -0.009259844
-0.021235958 -0.008841878 -0.097055025 -0.04900698 -0.09883684 0.12922764 -0.04267787 -0.03706287
-0.07583356 0.08070234 0.013263148 -0.07030881 -0.08839038 -0.096900046 0.04774823 -0.093504995
-0.025217177 -0.13918418 0.08750304 0.090115696 0.10974434 -0.012411944 0.039997444 0.009389246
-0.007836606 0.019074861 0.08455471 -0.023060894 0.10462885 0.056966525 0.0022178304 -0.016674735
0.07204982 0.06250078 -0.022165703 -0.010363607 0.0028141027 0.032253932 -0.10269903 0.10643364
-0.05310333 0.11418371 0.13919312 0.16024138 0.0930491 -0.006105418 0.071884274 -0.055869546
0.049721006 -0.11997119 -0.11990134 -0.08511382 -0.001168085 0.17261356 -0.009021421 0.08866145
-0.07848447 0.09084878 -0.0007789846 0.159029 -0.09019302 0.017689122 0.09302343 -0.11448514
-0.0054529137 -0.033177085 -0.05037857 -0.036327522 -0.073886015 0.0448647 0.076783895 0.13382933
-0.08885307 -0.05021915 -0.029121198 0.144954 0.04936156 0.08242534 0.09113259 -0.10525033
00000000: f438 e33d dcdd e73d d6d1 aebd cc4b df3d
00000010: de63 a03d cb5e 6f3c 5dfb 853c 9365 083e
00000020: 1986 163e 077d 79bb cab3 b8bd c588 43bc
00000030: 2931 c93d 7a1a 5fbd e82b 0f3e 9ac0 66bd
00000040: b31c f03c 296f 09bd b1f2 cf3d 13dc e1bd
00000050: 97ab 2b3d 47dd d63c 0a22 c4bd fcc9 31bb
00000060: 6004 1abc c84b 34bc 08e3 a6bd 75f2 8c3d
00000070: e25a 66bd 9e24 ab3b df8a 003e 4709 dc3d
00000080: 4691 b5bd 0650 123c 45da 88bd 362c 163e
00000090: 25b0 cf3b 8be2 123e 2683 fb3d 95ac ad3d
000000a0: a277 aebd e2f5 de3c 36d1 d8bc 5710 0d3c
000000b0: 5619 973d a49b 3abd d3e6 34bd b0a4 883d
000000c0: 8061 1b3d 842e cd3d f5d7 86bc 97ac d73d
000000d0: 59c9 1fbd 4486 8bbd 0062 cdbd 155d 8cbd
000000e0: cdd7 a73d b719 00bd 559d 993d 2182 513d
000000f0: 0a05 03be 5139 72bd 384f 11be f2fd 6c3d
00000100: d4ad 123b 8098 8a36 034c 5abd 0b31 f93d
00000110: f596 94bc f92e dfbc 358f c5bc b713 1ebe
00000120: e294 a0bd f902 f8bc bef1 143d 0f36 833b
00000130: b2cb e53b 8b7c 0b3e 995c 003c 2c8b 8b3d
00000140: 9cc8 70bd ef40 c93d 1c57 1dbd 5602 0b3d
00000150: 0efc f83d e4d3 adbc 4b27 df3d 5f87 dabd
00000160: 3882 ab3d bcb5 7c3d 9add bb3d 1702 a9bc
00000170: 1ad3 e73c f20f 77bd 722b b43c 9e37 4c3c
00000180: b9da ad3b c8db 373d 9c4e 86bb 27c2 ed3d
00000190: 9022 e5bd 302f d4ba 5d4e 9ebd 0cfc 85bd
000001a0: 9fff 88bd 66d5 353b 10aa 77bd 5d84 5fbd
000001b0: 68bf eebd d618 3a3d beb5 a1bd dcae b7bd
000001c0: 8d7d d0bb d0db cfbc efdf b43d bd92 e2bd
000001d0: be6d d2bd 3f6e ef3d c48c f4bd 806e f93b
000001e0: 5517 d83d d66a c3bd a2aa d23c 6db8 9abd
000001f0: fe87 433d 299e acbd 5a4c f23d 0eb5 92bd
00000200: 7e80 863d 240b f9bc 1d70 93bd 8112 363d
00000210: 80f5 053e d713 8fbd e8b7 9f3d dc5e a7b9
00000220: 541a 893d 525c 04be 332a c7bc 6f59 35bd
00000230: 4322 9a3d ae78 943d e443 653d 7a7f bbbd
00000240: 4b42 733c 92d1 78bd ff00 4d3d ef00 e23c
00000250: 0860 8d3d 2ff1 87bd 1c8e 54bd 6a1f debc
00000260: cb95 a33d ff8f 1b3b a518 e13c c59e f23c
00000270: 71af 4bbd 6ddf c23c 4bf2 67bd 9ab6 17bc
00000280: 08f7 adbc 86dd 10bc c9c4 c6bd 8bbb 48bd
00000290: f86a cabd 4054 043e fdce 2ebd 3ccf 17bd
000002a0: a04e 9bbd 4547 a53d ad4d 593c 11fe 8fbd
000002b0: 0406 b5bd 8873 c6bd a693 433d 8c7f bfbd
000002c0: 4194 cebc 4c86 0ebe cb34 b33d 948e b83d
000002d0: a4c1 e03d 775b 4bbc 5cd4 233d 5ad5 193c
000002e0: 1c65 00bc e242 9c3c 052b ad3d 33ea bcbc
000002f0: a747 d63d bb55 693d 0559 113b 7499 88bc
00000300: db8e 933d 6900 803d d994 b5bc 1ecc 29bc
00000310: cf6c 383b b31c 043d de53 d2bd e1f9 d93d
00000320: e182 59bd 26d9 e93d a488 0e3e 5116 243e
00000330: 8790 be3d f50f c8bb 1038 933d 77d7 64bd
00000340: 41a8 4b3d 75b3 f5bd d58e f5bd 2850 aebd
00000350: 6e1a 99ba 9cc1 303e 95ce 13bc 2294 b53d
00000360: 77bc a0bd ed0e ba3d c634 4cba 80d8 223e
00000370: 1eb7 b8bd c7e8 903c 1183 be3d 2f77 eabd
00000380: 5bae b2bb b2e4 07bd c259 4ebd 2bcc 14bd
00000390: 8d51 97bd 0cc4 373d e040 9d3d 8e0a 093e
000003a0: 99f8 b5bd 98b2 4dbd 948f eebc d26e 143e
000003b0: 592f 4a3d 9ece a83d b9a3 ba3d 7c8d d7bd

model.rnn.weight_ih_l1 f4 [240, 60]
-0.082336344 0.093599536 -0.037662756 0.0087666055 -0.13121203 -0.08771304 0.112167075 0.025483292
-0.097415544 0.041126084 0.09042755 0.09026664 -0.1299433 -0.14368774 -0.039907537 0.021642784
-0.0913085 -0.09472013 -0.021197893 0.017904714 0.0999139 -0.015748218 -0.084890835 -0.024810912
0.151633 -0.07631908 0.15712214 -0.0943821 0.08842075 0.070449196 0.09521198 0.14637327
-0.026759643 -0.0369914 0.069911815 0.06828941 -0.090989284 0.0056880107 -0.032535072 -0.09549481
-0.09721742 -0.036728512 -0.017012382 -0.055173777 -0.052982196 0.00047878467 0.0008792968 0.0010891156
-0.061418056 0.15202446 0.0831777 -0.013317143 0.020573232 -0.092506416 0.019805802 0.042186677
-0.10312647 -0.10226549 -0.057566084 -0.0874911 0.014105722 -0.15292776 -0.07363178 0.023860496
0.08243939 -0.054811742 -0.029114978 -0.05738515 0.02609166 0.12730688 0.106556386 -0.0022867103
0.09047175 0.056496058 -0.063512705 0.0028537188 0.12188984 -0.0033400482 0.069658585 0.018796127
-0.1079203 -0.13483797 -0.006537346 0.11370587 -0.09647388 -0.06686579 -0.1586546 -0.070718974
-0.12234869 -0.06929229 0.03186561 -0.085059315 0.010964071 -0.16129127 -0.067373574 -0.054112386
0.08186115 -0.084083624 0.15649368 0.06749326 0.034553148 -0.087467395 -0.090390176 -0.04502471
0.14326267 -0.02023951 0.035780344 -0.11749536 0.072357364 -0.046150293 0.061821368 -0.12747595
0.029247172 0.09000618 -0.025149161 0.074583545 0.056485433 0.116478235 -0.014244796 0.04208621
0.03978239 -0.16131957 0.023862816 -0.027155258 0.0008522828 0.11360609 0.0789891 -0.054519285
0.089192495 0.05040498 -0.0064223 -0.006640129 0.024590353 0.10291603 0.02585893 -0.056549937
-0.13437817 0.043588463 0.14230712 -0.09449789 0.093785435 0.08002951 -0.0013061218 0.057391286
-0.09632039 0.022733323 0.025970336 0.050987978 -0.11923043 -0.06714717 0.019428786 -0.05427108
0.007553936 -0.11826507 0.041354414 -0.067558385 -0.04037605 -0.001623733 0.07670811 -0.074955754
0.00592025 -0.0597915 0.030789245 0.039741147 0.07887558 0.024698328 0.11375479 -0.059963264
0.07157121 0.1302962 -0.071731955 -0.14101703 -0.10542037 -0.1173985 0.063311584 -0.078831755
-0.044179883 0.08097664 0.04333534 0.112186894 -0.00028272264 -0.10067967 0.026083732 0.05440647
-0.025132297 0.016142445 -0.10355464 0.04654423 -0.054680236 -0.112320475 0.04344583 0.026040232
-0.020447258 0.055526868 -0.16304117 -0.030401453 0.05040913 0.067925535 0.08991384 0.07088131
-0.06800009 0.079892896 0.043263346 -0.041097306 0.11971638 -0.11164781 0.02567363 -0.06395932
0.13221608 -0.012235851 -0.079035625 0.11229687 0.048150875 -0.12841497 0.02319558 -0.054320004
0.03383649 -0.0559749 -0.022400638 -0.101089954 0.02576471 -0.015655002 0.028324781 -0.010410021
-0.12165797 0.14850375 -0.12476239 0.095352784 0.05312381 -0.042303696 -0.053658187 -0.07821259
-0.12177306 0.0075791986 -0.123643756 -0.055403832 0.10503138 -0.056249805 0.009571772 -0.05341545
-0.045738924 0.011926743 -0.015109843 -0.0066099027 -0.058653813 -0.08373855 -0.09633487 0.10859998
0.12124091 -0.08833703 0.01281541 0.17067178 -0.065069966 0.14859666 0.050430164 0.0813766
00000000: f59f a8bd 1db1 bf3d 4344 1abd cfa1 0f3c
00000010: 725c 06be e5a2 b3bd dab7 e53d 56c2 d03c
00000020: cd81 c7bd d373 283d 1432 b93d b7dd b83d
00000030: db0f 05be e122 13be 1676 23bd 354c b13c
00000040: f3ff babd a1fc c1bd 34a7 adbc e8ac 923c
00000050: a99f cc3d 6802 81bc 3fdb adbd 4140 cbbc
00000060: ae45 1b3e 2e4d 9cbd a0e4 203e 674b c1bd
00000070: f015 b53d ab47 903d 80fe c23d e0e2 153e
00000080: 0a37 dbbc 4b84 17bd ed2d 8f3d 51db 8b3d
00000090: 9758 babd 7e62 ba3b 7f43 05bd c892 c3bd
000000a0: ed19 c7bd a370 16bd 8d5d 8bbc e6fd 61bd
000000b0: dc03 59bd 6405 fb39 9c80 663a a8c0 8e3a
000000c0: 8091 7bbd 4dac 1b3e 1259 aa3d 2530 5abc
000000d0: 3289 a83c 0174 bdbd c73f a23c f0cb 2c3d
000000e0: f933 d3bd 9270 d1bd 6aca 6bbd 892e b3bd
000000f0: b01b 673c 1899 1cbe 42cc 96bd 1677 c33c
00000100: fcd5 a83d 4782 60bd 8982 eebc b10c 6bbd
00000110: 2dbe d53c bc5c 023e 3c3a da3d a2dc 15bb
00000120: 4149 b93d 6968 673d f312 82bd 7505 3b3b
00000130: 61a1 f93d b6e4 5abb 29a9 8e3d 56fa 993c
00000140: 5105 ddbd f712 0abe 3c37 d6bb a0de e83d
00000150: 1994 c5bd eef0 88bd 5a76 22be 1cd5 90bd
00000160: f391 fabd 1ee9 8dbd 8485 023d 9433 aebd
00000170: a6a2 333c 8a29 25be 28fb 89bd f3a4 5dbd
00000180: d2a6 a73d 0934 acbd e13f 203e e839 8a3d
00000190: 9a87 0d3d 1b22 b3bd 7c1e b9bd d56b 38bd
000001a0: 73b3 123e 54cd a5bc 698e 123d 68a1 f0bd
000001b0: 1930 943d 1708 3dbd 6738 7d3d 0e89 02be
000001c0: c497 ef3c 2955 b83d 9d05 cebc 42bf 983d
000001d0: 455d 673d 248c ee3d 0163 69bc 9762 2c3d
000001e0: dcf2 223d f530 25be f47b c33c b474 debc
000001f0: bb6b 5f3a 4faa e83d 0ac5 a13d 9d4f 5fbd
00000200: 8eaa b63d 7475 4e3d 2872 d2bb 7095 d9bb
00000210: b571 c93c a4c5 d23d 1bd6 d33c e8a0 67bd
00000220: 6e9a 09be d189 323d f5b8 113e 1c88 c1bd
00000230: 9412 c03d 83e6 a33d 2d32 abba 2013 6b3d
00000240: a043 c5bd 3c3b ba3c bebf d43c c5d8 503d
00000250: 152f f4bd 7584 89bd 1e29 9f3c 5a4b 5ebd
00000260: 0287 f73b f534 f2bd 3f63 293d 0d5c 8abd
00000270: 5b61 25bd 70d3 d4ba 2419 9d3d 6782 99bd
00000280: a8fe c13b efe7 74bd ba39 fc3c 9dc7 223d
00000290: 8589 a13d 2654 ca3c 45f8 e83d 0a9c 75bd
000002a0: ed93 923d 5e6c 053e 34e8 92bd c566 10be
000002b0: a3e6 d7bd a06e f0bd 81a9 813d 8b72 a1bd
000002c0: f7f5 34bd 15d7 a53d 6680 313d 3ec2 e53d
000002d0: 643a 94b9 2531 cebd 8dad d53c 52d9 5e3d
000002e0: 3fe2 cdbc 293d 843c 7514 d4bd 2aa5 3e3d
000002f0: 62f8 5fbd 4708 e6bd 41f4 313d 5352 d53c
00000300: 0281 a7bc 2470 633d 44f4 26be 780c f9bc
00000310: ce79 4e3d 8b1c 8b3d bf24 b83d 382a 913d
00000320: a243 8bbd e39e a33d e834 313d a655 28bd
00000330: dd2d f53d 9ba7 e4bd 8151 d23c 1bfd 82bd
00000340: a763 073e e178 48bc 6edd a1bd e7fb e53d
00000350: da39 453d 377f 03be a804 be3c a77e 5ebd
00000360: 2298 0a3d f045 65bd 8b81 b7bc 4008 cfbd
00000370: 8310 d33c eb3e 80bc 5f09 e83c cb8e 2abc
00000380: d027 f9bd 5e11 183e 6d83 ffbd 5248 c33d
00000390: 5a98 593d a446 2dbd b0c8 5bbd ec2d a0bd
000003a0: 2764 f9bd ed5a f83b f038 fdbd 21ef 62bd
000003b0: b11a d73d 3266 66bd ecd2 1c3c 29ca 5abd
000003c0: bd58 3bbd 6368 433c 468f 77bc e297 d8bb
000003d0: fb3e 70bd 1e7f abbd 374b c5bd ab69 de3d
000003e0: 274d f83d 0bea b4bd baf7 513c 95c4 2e3e
000003f0: 6743 85bd b929 183e dc8f 4e3d c6a8 a63d

model.rnn.weight_hh_l1 f4 [240, 60]
0.13996501 -0.01620892 0.055387348 -0.005003255 0.043271437 -0.08477841 -0.122339614 0.06878829
-0.050034318 -0.011372957 0.046406787 0.065524176 0.046813052 0.027696675 0.06833598 0.07518547
-0.11336259 -0.09682969 0.021084042 0.062062662 0.14638859 -0.0040825075 0.0022729118 0.07284743
-0.005271251 0.12820545 0.003910983 0.02066814 -0.050175883 -0.09362189 0.025954101 -0.11218191
0.115120545 0.055758625 -0.08537254 -0.06133676 -0.15167955 -0.11963735 -0.1275921 -0.062321495
-0.057031743 -0.029317355 -0.051365178 -0.09871739 -0.07385822 -0.08175037 -0.09496639 0.08589216
-0.025821468 -0.06607278 -0.0049821977 -0.06591686 -0.12351945 -0.051043257 -0.15805387 -0.0128858145
0.12641047 -0.06380542 0.045268044 -0.04064149 -0.1271393 -0.004347435 -0.032647453 -0.03515319
-0.07254288 -0.091326974 0.016482 0.041431136 -0.06698221 -0.018606782 -0.067478284 0.026805054
0.0038988509 0.10433663 0.038083453 -0.030669006 -0.05862333 0.028534448 0.07969319 -0.11546037
-0.07153268 -0.114919886 -0.029681116 0.04977466 -0.04765538 0.009566132 0.10093182 -0.09595628
-0.096745014 -0.14613107 -0.029832017 0.049640223 0.037555885 0.0010972773 -0.04400485 0.085134916
0.005287293 0.13826333 -0.08614729 -0.095781535 -0.0141685605 0.015378774 0.056959275 -0.08237256
-0.116851404 0.08725593 0.06852381 0.057921786 -0.06342142 0.13046728 -0.04081408 0.1470149
0.13265981 0.029048815 0.15503311 0.073132746 0.059041698 -0.05946574 0.022296052 -0.02761223
-0.023220122 -0.12131443 -0.051634356 0.099684894 0.070575036 -0.04694148 0.09316831 0.011241141
-0.07081394 0.11976134 0.076983765 -0.0857828 0.12869099 0.08178787 -0.03242545 0.09803356
-0.03179284 0.104940906 0.0779446 -0.074039645 0.05791751 0.095948085 -0.06369097 0.027976034
0.1082673 -0.083578415 -0.11804359 0.06336828 0.012287857 0.083365515 -0.04923282 0.013098929
-0.065697424 -0.03385446 0.062218 -0.097774915 0.055957727 0.05094297 -0.1390223 -0.07541872
-0.034849536 0.12426475 0.11678856 0.11083324 -0.025224458 -0.09090294 0.024051145 0.08810389
0.048989292 -0.051781807 -0.08696625 0.11219477 0.090272255 0.09767397 0.118373625 0.021852288
0.046183456 -0.08210694 -0.003149351 0.0815402 -0.001474179 -0.042334307 -0.095961004 -0.015864534
-0.08988552 -0.026442688 -0.08287468 0.05605387 -0.10833961 0.13910775 -0.11176766 -0.07142011
-0.05605416 -0.06616168 0.05398939 -0.108591296 0.10384476 -0.06982207 -0.028677259 0.10314663
-0.007057363 0.11207097 -0.122415155 -0.055665758 0.14445727 0.011223441 0.10740979 -0.026587712
0.05507712 0.0031472365 0.016426207 0.008810276 0.11441197 -0.02908585 0.051075827 0.087021306
0.028380958 0.08033141 -0.0412411 -0.043098588 0.017187413 0.12026203 0.124667674 -0.088666186
0.10866904 -0.07334343 0.038508132 0.078394815 -0.07012693 0.08544832 0.058230456 -0.032102883
-0.04198748 -0.11971619 -0.051928796 0.115218446 -0.098540775 -0.102187864 -0.10454511 -0.035530545
-0.009768163 0.09795719 -0.08230404 -0.06847076 0.063614786 0.023094205 0.05097274 0.117387965
0.090728566 -0.045419626 -0.03934258 -0.0831175 -0.082856454 0.014479812 -0.1269309 -0.025476392
00000000: fd52 0f3e 92c8 84bc d8dd 623d 58f2 a3bb
00000010: 643d 313d 4ea0 adbd 318d fabd e0e0 8c3d
00000020: c9f0 4cbd a455 3abc 0b15 3e3d 8a31 863d
00000030: 0bbf 3f3d 23e4 e23c bcf3 8b3d d7fa 993d
00000040: a52a e8bd a54e c6bd 71b8 ac3c 6b35 7e3d
00000050: e4e6 153e 8ec6 85bb 22f5 143b 0931 953d
00000060: 75ba acbb 4a48 033e b427 803b 3b50 a93c
00000070: 3a85 4dbd d5bc bfbd b29d d43c a1bf e5bd
00000080: 52c4 eb3d 2863 643d ccd7 aebd 413c 7bbd
00000090: e251 1bbe 6d04 f5bd 81a7 02be d344 7fbd
000000a0: 1e9a 69bd f32a f0bc 4b64 52bd 582c cabd
000000b0: fa42 97bd bd6c a7bd bd7d c2bd 3be8 af3d
000000c0: 8b87 d3bc 2a51 87bd b441 a3bb 6bff 86bd
000000d0: c4f7 fcbd bc12 51bd e0d8 21be 061f 53bc
000000e0: bf71 013e 6bac 82bd fc6a 393d b177 26bd
000000f0: ce30 02be ee74 8ebb 56b9 05bd cbfc 0fbd
00000100: 5d91 94bd a309 bbbd 4205 873c b2b3 293d
00000110: f82d 89bd 406d 98bc 0e32 8abd 4696 db3c
00000120: dd83 7f3b 71ae d53d 65fd 1b3d 913d fbbc
00000130: 041f 70bd 13c1 e93c 2f36 a33d 7d76 ecbd
00000140: ba7f 92bd 1e5b ebbd d025 f3bc 84e0 4b3d
00000150: 4a32 43bd 44bb 1c3c 58b5 ce3d ba84 c4bd
00000160: 4022 c6bd 62a3 15be 4662 f4bc 8c53 4b3d
00000170: 33d4 193d 84d2 8f3a 6e3e 34bd 375b ae3d
00000180: 0741 ad3b e794 0d3e fe6d b0bd 1c29 c4bd
00000190: 4023 68bc 41f7 7b3c 214e 693d f2b2 a8bd
000001a0: ca4f efbd 3db3 b23d 3656 8c3d 653f 6d3d
000001b0: 17e3 81bd 3799 053e aa2c 27bd 138b 163e
000001c0: f9d7 073e c8f7 ed3c 00c1 1e3e 9fc6 953d
000001d0: b5d5 713d 5992 73bd 36a6 b63c 0b33 e2bc
000001e0: 2038 bebc b373 f8bd 8c7e 53bd 9827 cc3d
000001f0: a589 903d b645 40bd 07cf be3d c32c 383c
00000200: e606 91bd 6f45 f53d aaa9 9d3d e5ae afbd
00000210: 92c7 033e 6680 a73d 8cd0 04bd d2c5 c83d
00000220: 3639 02bd 42eb d63d 6ba1 9f3d 19a2 97bd
00000230: e93a 6d3d 6e80 c43d 6970 82bd ff2d e53c
00000240: 3fbb dd3d 292b abbd d6c0 f1bd 3bc7 813d
00000250: 0253 493c 8abb aa3d 5aa8 49bd e49c 563c
00000260: 5f8c 86bd f9aa 0abd 4dd8 7e3d 373e c8bd
00000270: ee33 653d 93a9 503d dd5b 0ebe 2175 9abd
00000280: 63be 0ebd 847e fe3d d72e ef3d 8afc e23d
00000290: 86a3 cebc 522b babd e806 c53c d06f b43d
000002a0: ffa8 483d 2919 54bd 5c1b b2bd 5fc6 e53d
000002b0: a9e0 b83d 4a09 c83d df6d f23d 9203 b33c
000002c0: dd2a 3d3d af27 a8bd 5865 4ebb 8cfe a63d
000002d0: 3d39 c1ba bd66 2dbd 3487 c4bd 57f6 81bc
000002e0: e615 b8bd 569e d8bc 33ba a9bd be98 653d
000002f0: 28e1 ddbd 4372 0e3e 71e6 e4bd b544 92bd
00000300: 0c99 65bd c67f 87bd fb23 5d3d 1d65 debd
00000310: 90ac d43d e0fe 8ebd 92ec eabc 8a3e d33d
00000320: 7441 e7bb 7785 e53d ccb4 fabd c701 64bd
00000330: 9bec 133e 86e2 373c aaf9 db3d 79ce d9bc
00000340: 8c98 613d de41 4e3b 4190 863c fa58 103c
00000350: d350 ea3d 7345 eebc e334 513d 3a38 b23d
00000360: 2f7f e83c cb84 a43d 6dec 28bd 2588 30bd
00000370: 9ecc 8c3c f04b f63d c451 ff3d 9e96 b5bd
00000380: e08d de3d 1535 96bd b4ba 1d3d 768d a03d
00000390: b59e 8fbd 87ff ae3d 0f83 6e3d 507e 03bd
000003a0: 10fb 2bbd c32d f5bd 4ab3 54bd a6f7 eb3d
000003b0: bfcf c9bd df47 d1bd bf1b d6bd 7a88 11bd
000003c0: a50a 20bc c79d c83d 058f a8bd 663a 8cbd
000003d0: 7848 823d 0f30 bd3c cbc8 503d 1a69 f03d
000003e0: e6cf b93d ee09 3abd af25 21bd 8239 aabd
000003f0: a5b0 a9bd bc3c 6d3c 2dfa 01be deb3 d0bc

model.rnn.bias_ih_l1 f4 [240]
0.037008714 -0.08400007 -0.026261592 0.02331294 0.024334507 0.15298033 0.14107995 0.08609547
0.14199753 -0.017169936 0.012640785 0.090729445 0.044952612 -0.07675096 0.07266168 0.099196605
-0.120485045 -0.10464762 0.103223205 0.061623823 -0.08258455 -0.018704694 -0.025574824 0.09019376
-0.028221669 -0.0071021686 0.12985182 -0.116806395 -0.08036439 0.07675775 0.014112171 0.075447746
0.140593 -0.039418355 0.039629407 -0.11029785 0.119677454 -0.034891166 0.0619013 0.11261097
0.075826846 0.065568 0.13726096 0.107649595 -0.09539871 -0.00936788 -0.042199865 -0.05994608
-0.08629646 0.11452079 -0.07017765 0.14322293 -0.029739106 0.070145845 0.04804873 0.09736409
-0.1099845 -0.032625224 0.072953254 0.18538697 -0.05656617 -0.14798571 -0.04243205 -0.016262861
-0.09871111 -0.11349672 -0.028208835 -0.011403623 0.056539804 -0.0493361 0.09251465 -0.050590936
0.10216372 0.028750528 0.029342184 0.06733823 -0.08700125 0.09898756 -0.08475227 0.086839005
-0.048552297 -0.030059652 0.13075598 0.082409516 -0.007665011 -0.020825896 0.05205076 -0.017122475
-0.106511526 -0.08725978 -0.10510557 0.09235398 -0.017536433 0.09679134 0.10518921 0.0069265906
-0.04133058 -0.09242397 -0.049167827 -0.058667067 -0.05430545 -0.049533598 0.09788873 -0.09995503
-0.03819528 0.120268464 0.06933246 -0.072724916 -0.018116234 0.061710063 0.12907529 0.015752463
0.033939503 0.03765145 0.120756365 -0.074838236 0.052405756 -0.109009795 -0.0026872533 0.030581817
0.11285257 0.039238803 -0.076772906 -0.0075710956 0.10318305 0.059439074 -0.08421612 -0.018731134
0.07048583 0.10357775 0.076836556 -0.0872287 0.13223715 -0.068090886 -0.05534493 0.020554364
-0.13362144 -0.10831023 -0.070255525 0.0074762558 -0.01107953 0.06460201 -0.04911435 0.011003644
0.011729741 0.13139504 0.033580076 0.09277852 -0.043362297 -0.09865796 0.115299724 0.030384852
-0.03527084 -0.086382955 -0.026912678 0.0029171088 -0.018835384 -0.13516034 -0.06619103 0.081771076
0.0973874 -0.00844462 -0.062579 -0.05762717 -0.085951746 0.13267264 -0.033679083 -0.06708075
0.12636015 -0.0003008885 0.0366544 -0.06094711 -0.11594717 0.03977665 -0.07779337 0.110029176
0.10637478 0.09264174 -0.03910331 0.032061916 0.051139083 0.09034554 0.0070431675 -0.07601268
0.055923406 0.017661259 -0.0751769 0.1445782 0.11134554 0.08218012 0.114205875 -0.051488765
0.051811192 -0.088430285 0.16498436 -0.06615354 -0.11866475 0.053404532 0.036734585 0.13246481
-0.037389174 0.08112393 -0.019814672 0.057574917 -0.043773618 0.09234528 0.015168651 -0.008099706
-0.007165579 -0.11791431 0.11041292 0.015381797 -0.022333425 -0.10447172 -0.010337632 0.055829998
-0.023682764 0.02151901 0.01605812 -0.044536084 0.0120772775 -0.09276713 0.043429486 -0.095465094
0.070544064 -0.09873167 -0.0066823224 -0.020175027 -0.08419764 0.042484555 0.08931707 -0.04208393
0.010621218 0.07209745 0.028413674 0.118649416 0.12552443 -0.007584243 -0.007121479 0.18405943
00000000: 7396 173d 3b08 acbd 8d22 d7bc c7fa be3c
00000010: 2959 c73c e0a6 1c3e 4377 103e d252 b03d
00000020: cd67 113e f7a7 8cbc 4c1b 4f3c 5cd0 b93d
00000030: 3b20 383d 9b2f 9dbd a6cf 943d 9727 cb3d
00000040: ddc0 f6bd 7e51 d6bd b066 d33d 4369 7c3d
00000050: 1722 a9bd 963a 99bc 4b82 d1bc 82b7 b83d
00000060: 2131 e7bc 4fb9 e8bb e0f7 043e 3138 efbd
00000070: 1696 a4bd 2b33 9d3d bc36 673c 5984 9a3d
00000080: 9df7 0f3e 2475 21bd 7252 223d d7e3 e1bd
00000090: 7419 f53d 0aea 0ebd 388c 7d3d 95a0 e63d
000000a0: 1b4b 9b3d 8448 863d 238e 0c3e 6477 dc3d
000000b0: 6660 c3bd bd7b 19bc c4d9 2cbd 058a 75bd
000000c0: 33bc b0bd e089 ea3d 4db9 8fbd 08a9 123e
000000d0: 6d9f f3bc a0a8 8f3d bfce 443d d366 c73d
000000e0: 8e3f e1bd 07a2 05bd 8468 953d 15d6 3d3e
000000f0: eeb1 67bd 9189 17be 3bcd 2dbd b139 85bc
00000100: 0d29 cabd f870 e8bd 3716 e7bc 43d6 3abc
00000110: 4896 673d a714 4abd 5278 bd3d 7138 4fbd
00000120: 363b d13d 3a86 eb3c 055f f03c a0e8 893d
00000130: b62d b2bd fdb9 ca3d 9992 adbd a6d8 b13d
00000140: c6de 46bd a93f f6bc e5e4 053e 52c6 a83d
00000150: c62a fbbb 129b aabc 2d33 553d 6f44 8cbc
00000160: b722 dabd 41b5 b2bd 9741 d7bd 1524 bd3d
00000170: 91a8 8fbc 8a3a c63d 716d d73d 74f8 e23b
00000180: 414a 29bd c748 bdbd 3464 49bd e14c 70bd
00000190: 646f 5ebd bee3 4abd e379 c83d 39b5 ccbd
000001a0: a772 1cbd 504f f63d 2dfe 8d3d cdf0 94bd
000001b0: 7f68 94bc b1c3 7c3d 502c 043e 4f0b 813c
000001c0: 2604 0b3d 6838 1a3d 1d4f f73d ca44 99bd
000001d0: 6ba7 563d 8740 dfbd a11c 30bb b886 fa3c
000001e0: 401f e73d deb8 203d 1d3b 9dbd f416 f8bb
000001f0: a351 d33d 6376 733d 8079 acbd 0972 99bc
00000200: e05a 903d 9220 d43d 7c5c 9d3d f6a4 b2bd
00000210: 2d69 073e 3c73 8bbd 5eb1 62bd a061 a83c
00000220: 0fd4 08be c1d1 ddbd 21e2 8fbd 61fb f43b
00000230: eb86 35bc 0f4e 843d 212c 49bd a148 343c
00000240: 192e 403c 6c8c 063e 438b 093d aa02 be3d
00000250: aa9c 31bd 2f0d cabd 4322 ec3d a7e9 f83c
00000260: 2878 10bd 8ce9 b0bd fa77 dcbc f72c 3f3b
00000270: aa4c 9abc 7967 0abe 2a8f 87bd 9877 a73d
00000280: 0c73 c73d 4e5b 0abc 6b29 80bd 780a 6cbd
00000290: 7807 b0bd 56db 073e 14f3 09bd a261 89bd
000002a0: 8e64 013e 92c0 9db9 ed22 163d ada3 79bd
000002b0: b675 edbd d7ec 223d 2152 9fbd fa56 e13d
000002c0: 05db d93d f4ba bd3d cb2a 20bd 5b53 033d
000002d0: 3777 513d 1507 b93d 5fca e63b 89ac 9bbd
000002e0: f10f 653d 58ae 903c 59f6 99bd 4f0c 143e
000002f0: 2109 e43d 0d4e a83d c5e4 e93d e2e5 52bd
00000300: f937 543d f01a b5bd a9f1 283e 827b 87bd
00000310: 8106 f3bd b6be 5a3d 0177 163d dba4 073e
00000320: 6425 19bd 4e24 a63d 6152 a2bc add3 6b3d
00000330: f74b 33bd 861f bd3d ef85 783c a1b4 04bc
00000340: 3ccd eabb 0f7d f1bd 2b20 e23d ef03 7c3c
00000350: 96f4 b6bc 45f5 d5bd 2c5f 29bc ffad 643d
00000360: 5b02 c2bc a348 b03c 528c 833c 786b 36bd
00000370: c6df 453c b1fc bdbd 1ee3 313d 3483 c3bd
00000380: 6879 903d d433 cabd 62f7 dabb 1946 a5bc
00000390: d06f acbd 4904 2e3d deeb b63d 3360 2cbd
000003a0: 9e04 2e3c d4a7 933d cbc3 e83c 77fe f23d
000003b0: 7a89 003e 3e85 f8bb 4c5b e9bb 137a 3c3e
