checkpoints/epoch=1-step=100-v70.ckpt (torch, 621663 bytes, 33 tensors)

model.param_proj.proj.0.weight f4 [1, 60]
000000 81 9f 77 be fc 28 70 3e 30 f6 3b 3d 12 17 4e be
       -0.2418194 0.23453134 0.04588908 -0.20125988
000010 8c f3 06 be 6c 7c 8e bd 17 a9 2f 3e 6e e1 cc bd
       -0.13178843 -0.06957325 0.17154346 -0.10003935
000020 aa c5 84 bd 39 92 68 bd a4 fe 06 be 6b 81 38 3e
       -0.06483014 -0.056780074 -0.13183075 0.18018119
000030 d6 5d 7b bd 83 b9 15 3d be 99 c5 bd ca 86 d2 3c
       -0.061368786 0.03655387 -0.096484646 0.025699038
000040 e3 2b d1 bd 31 86 1e bd 58 e8 92 3d ce a0 10 be
       -0.10213449 -0.038702194 0.07173222 -0.14123842
000050 9e 9a 32 3e fa 36 4c be ed 9d d6 3d 18 2d 96 bd
       0.17441794 -0.19942847 0.10479341 -0.0733282
000060 59 e8 75 3d 89 ec a7 3b c1 53 d1 bd 93 bd 04 3e
       0.060036037 0.0051246327 -0.10221053 0.12962942
000070 36 f8 a8 3d 6d 28 f0 bd 20 53 74 bb a7 f2 9d 3d
       0.082504675 -0.117264606 -0.0037280992 0.07712298
000080 9e 31 41 3e 32 2a a5 bd 0d c6 f1 bb a9 07 2a be
       0.18866584 -0.08064689 -0.007378346 -0.16604485
000090 4e 31 5a bd 58 9d 8d bd 9b e0 55 3e 31 5c ff bc
       -0.053269677 -0.069147766 0.20886461 -0.03117189
0000a0 e7 42 d1 bd 00 da 1c be 89 bc bb bd 59 5a 5e bd
       -0.10217839 -0.15317535 -0.091668196 -0.05428538
0000b0 97 1b 81 3d 25 e8 9f bd 10 75 d2 bc ae 98 ae bd
       0.063040905 -0.0780795 -0.025690585 -0.08525215
0000c0 5b 09 3e bd b3 47 59 3e b5 8e a3 bd dc fc 42 be
       -0.04639564 0.21218757 -0.079862036 -0.1904177
0000d0 83 f9 c3 bd b2 d5 30 3d 3e 56 7f be 10 ea e5 3d
       -0.09569075 0.043172546 -0.24935243 0.112262845
0000e0 63 52 20 be d5 1f c6 bc 9e ba f4 3c d9 df 04 bd
       -0.15656428 -0.0241851 0.029874142 -0.03244004

model.param_proj.proj.1.weight f4 [1, 60]
000000 19 29 90 bd 5e 35 3e 3e 0e c3 5c 3d 18 eb 1a 3e
       -0.07039089 0.18575045 0.053896956 0.15128744
000010 ae b1 e4 3d 48 3f 0b bd 1c 2f 2c 3e ce b4 d8 bd
       0.11166702 -0.033995897 0.16814846 -0.10581361
000020 1a 87 55 be c7 c5 56 3d 02 43 09 be 88 82 d1 3d
       -0.20852318 0.05243471 -0.13404468 0.10229975
000030 e5 9c 4d 3e c0 2c c0 3d ba c0 44 be 51 64 fa bd
       0.20079382 0.093835354 -0.19214144 -0.12226165
000040 dd 90 2d be cf 81 1c 3d fb 7c 41 3e b7 7e 2b 3e
       -0.16949792 0.038209733 0.18895333 0.16747557
000050 fd 00 ab 3d 77 9d 9c bd 63 14 54 be 89 dd 31 3e
       0.08349798 -0.076472215 -0.20710902 0.17369665
000060 61 c1 9d 3d bf bc 53 3e cc 3d 91 bd d5 23 63 3e
       0.077029 0.2067747 -0.07091865 0.22181638
000070 ce e5 e2 3d 6e 11 57 be d9 46 c0 3d e9 2f 4b 3e
       0.11078988 -0.21002743 0.09388513 0.19842495
000080 82 f8 42 3e e4 63 1d 3e 9a db 2a be 8a d5 1b bd
       0.1904011 0.15370136 -0.16685334 -0.038045444
000090 21 2a 4f bd 59 6d 07 be b3 48 a2 bd 36 ff 50 bd
       -0.050577287 -0.13225307 -0.079240225 -0.051024638
0000a0 fe e4 42 be f0 27 47 3e 5e 39 d0 3b 13 c5 18 3e
       -0.19032666 0.19448829 0.006354495 0.14918928
0000b0 de b2 4f bb c2 2d aa bd c1 35 2f be f4 bb 02 be
       -0.0031692307 -0.08309509 -0.17110349 -0.12767011
0000c0 c9 c5 cc bd 48 a0 ed bd b7 71 24 3e b1 46 02 be
       -0.09998662 -0.11602837 0.16059004 -0.12722279
0000d0 91 cd a4 bd 03 5d b8 3c 5e cc c6 bd 0b d7 ff 3d
       -0.08047021 0.022505289 -0.09706949 0.12492188
0000e0 4c fe 24 3e 10 6c 09 be 12 0c f8 bc 2b a3 0a 3e
       0.16112632 -0.13420129 -0.030279193 0.13538806

model.param_proj.proj.2.weight f4 [1, 60]
000000 b2 a4 5c bd 83 15 6d 3d 04 55 dd 3c 34 27 7d bd
       -0.053868003 0.057881843 0.027018078 -0.061804965
000010 74 d0 c6 bb 25 5a f4 3d d1 39 63 bd ce 1a e5 3d
       -0.00606733 0.11931256 -0.05547506 0.11186753
000020 62 21 cd bd 8d 29 fc bd c8 7e ca bc 18 86 46 3c
       -0.10016133 -0.12312613 -0.024718657 0.012116931
000030 a8 32 48 3c 0e 38 ef 3c 4d 02 81 bd df 49 c8 bd
       0.012219109 0.029201534 -0.06299267 -0.09779715
000040 4f e7 ab bd 3d bc ae 3d 3a 9f 1f 3d ca 61 9a bd
       -0.08393728 0.08531997 0.03897021 -0.07538183
000050 6c 70 d5 3d a0 43 14 bd ef 7b 4f 3d 25 09 7e bd
       0.104218334 -0.036197305 0.0506553 -0.06202044
000060 b2 53 d3 3d ca de 14 3e df dc 99 bd 6d 61 1c 3d
       0.10318698 0.14538112 -0.07512831 0.03817885
000070 88 5d bc 3d ff b5 2a bd 11 34 3f bd f8 a1 14 3e
       0.09197527 -0.04167747 -0.046680514 0.14514911
000080 60 e1 98 3d 78 70 f2 3d 98 a6 3d 3d 40 2b 4a bd
       0.07464862 0.11837858 0.046301454 -0.049357653
000090 49 c5 f0 bd 20 f5 00 be b7 00 b7 bd 2c 32 48 3d
       -0.11756379 -0.12593508 -0.08935683 0.048875973
0000a0 cb 34 6b bd 34 bf b4 bd df 18 86 bd b7 62 3e 3d
       -0.057423394 -0.088255316 -0.065477125 0.04648086
0000b0 58 6a 30 3d b0 ae f1 bd f4 ed 6f 3d bf 7e 96 bc
       0.043070167 -0.11800897 0.05857654 -0.018370984
0000c0 9a 77 a1 bd 27 e2 28 bd 49 a6 8f 3d c1 2e 95 bd
       -0.0788414 -0.0412313 0.07014138 -0.07284308
0000d0 87 70 c3 bd ce f6 6e bd 92 15 62 bb 3c e0 dd 3d
       -0.09542947 -0.05834084 -0.003449772 0.10833785
0000e0 3a 25 1a 3c 0f f0 3b be 1a b4 34 3d 5d 4e cc bd
       0.00940829 -0.18353294 0.04411707 -0.09975884

model.rnn.weight_ih_l0 f4 [240, 24]
000000 dc 09 23 3b 75 ca b6 bd 5e 85 6d 3d 02 c7 56 3e
       0.0024877703 -0.08925334 0.057988517 0.20974353
000010 d0 4c d1 bc 45 0d 07 be 67 d5 0d 3d f4 6b a0 bd
       -0.025549322 -0.13188656 0.034627344 -0.078330904
000020 48 4c c1 bd 29 e2 0c ba f0 8f 22 3e 61 48 10 3d
       -0.094383776 -0.00053742767 0.1587522 0.035225276
000030 cb 63 17 3d c3 b1 2e 3e a8 42 55 3d 40 76 fa bb
       0.036960404 0.17059998 0.05206552 -0.007643491
000040 1d e0 d3 3d ed 83 b0 bd b3 d6 9c 3d 3b 16 a8 3d
       0.103454806 -0.08618913 0.07658138 0.08207365
000050 c7 f3 2f be ae 80 ff ba 18 47 1f 3e 73 2c 77 bc
       -0.17182837 -0.0019493306 0.15554464 -0.015086281
000060 66 42 4e be d2 2a 80 bc f3 b7 13 be 82 97 d4 bd
       -0.20142516 -0.015645418 -0.1442564 -0.1038046
000070 e4 b6 ff bd 45 0d cc bd 8e 1c 42 3d b6 6b 6a 3d
       -0.124860555 -0.099634685 0.047390513 0.057231627
000080 f4 ad 49 3b a6 1e 2d bd d5 53 81 bd 8e 86 f6 bd
       0.003077385 -0.042265557 -0.06314818 -0.12037383
000090 cc ac 87 bd e7 f0 a9 3d 8c dd 6f bd cd 67 dc 3c
       -0.06624755 0.082979016 -0.058560893 0.026904965
0000a0 f8 1a 3a 3c 83 0c 96 3d c1 bd 80 3c 80 75 ca 3b
       0.011358969 0.07326605 0.015715482 0.006178558
0000b0 ab ee be 3d 52 82 87 3c a7 11 5f 3d 49 77 1e bb
       0.09322866 0.016541634 0.054460194 -0.0024179986
0000c0 cc 0b 79 bd 46 49 b4 bd 8c 60 8b 3d db bc c9 bd
       -0.060802266 -0.08803038 0.06805524 -0.098504744
0000d0 8c b4 57 bd 5a a4 3b 3e 53 84 05 bc a1 b6 1e 3e
       -0.052662417 0.18324414 -0.008149224 0.15499355
0000e0 a5 b2 4f bd cb 1d 22 3e 0c e8 57 be a1 62 51 bd
       -0.050707478 0.15831678 -0.21084613 -0.05111945
0000f0 ff e9 85 3d 2a 65 f0 3b bd 42 78 3c 16 0b ab bd
       0.06538772 0.0073362784 0.01515263 -0.08351724
000100 2b 8f c4 3d a1 a2 58 bd c5 3b 14 3e d7 b6 a0 bc
       0.095976196 -0.05288947 0.14475925 -0.019618435
000110 7a 9f 08 3d 11 c5 81 bc 31 41 34 3e 27 f5 83 bd
       0.033355214 -0.015841039 0.17602994 -0.064432435
000120 ff bb 83 bd 14 0b 9a 3d 6d 39 e9 3b 44 73 d5 3d
       -0.06432342 0.07521644 0.0071174414 0.10422376
000130 b8 55 9b bc 49 1a fb 3c c8 44 c7 bc 81 84 df 3c
       -0.018961772 0.030652182 -0.02432479 0.027284862
000140 ba b1 85 bc 19 8e 58 3d 45 bf 6c bd 42 1f 93 bd
       -0.016320098 0.05286989 -0.057799596 -0.07183696
000150 23 76 92 bd 6b af 86 bd 4f 29 e5 3d c5 40 e1 bd
       -0.07151439 -0.06576427 0.111895196 -0.10998682
000160 42 be c6 bd 54 17 87 3d b9 ed dd 3c 8f 58 c4 3d
       -0.097042575 0.06596246 0.027090894 0.09587204
000170 a1 7f 1b 3d 37 77 3f 3e 2e e9 af 3d 4d 9b 0c 3c
       0.037963513 0.1869782 0.08589397 0.0085819485
000180 f6 43 3f 3b 44 77 2e be b8 8a 0f 3d 37 d1 9b 3d
       0.0029184795 -0.17037684 0.035044402 0.07608264
000190 18 e5 d6 bc fd c8 81 3d f4 33 52 3d 95 a6 41 3c
       -0.026232287 0.063371636 0.051319078 0.011819501
0001a0 4a a5 03 3e 07 ab 41 3c 0e ad 07 bc fa b5 96 bd
       0.12856022 0.011820561 -0.008281006 -0.07358928
0001b0 db b3 64 3d e8 63 10 be 80 a8 0f bd cb 11 27 3d
       0.055835586 -0.14100611 -0.035072803 0.040788453
0001c0 ed fa d6 3c e6 ad e9 bd a3 63 3a bc 2a b7 b7 3d
       0.026242698 -0.114101216 -0.011376294 0.08970483
0001d0 e0 31 5b be d3 fb b1 3d 5f 2d d8 3d 13 e1 1f ba
       -0.21405745 0.0869061 0.10555529 -0.00060989073
0001e0 21 b2 56 3e a0 ad db 3c 39 43 93 bd 1f 7e 08 bc
       0.20966388 0.02681619 -0.07190556 -0.008330851
0001f0 7e 34 15 bd b9 65 97 3d eb 80 0c 3e 42 00 09 bd
       -0.036427014 0.07392449 0.13721053 -0.03344751
000200 89 c6 08 bd 9a 11 7a bd 04 76 09 be 09 5c c8 3d
       -0.033392463 -0.061051942 -0.13423926 0.09783179
000210 0f cf d6 3c 4b e5 85 bd 70 ad 7a 3c a5 a7 d4 bd
       0.02622178 -0.06537875 0.01530014 -0.10383538
000220 96 e8 b7 3d 8e 6f 54 3d a6 18 20 3e 2b f9 fa bc
       0.08979909 0.0518642 0.15634403 -0.03063639
000230 19 8c d0 bd 62 9d 3c be d5 83 be bc 66 d9 26 3e
       -0.101829715 -0.18419412 -0.023256222 0.16293868
000240 d5 d4 58 3d a6 6e 07 be bc 84 a7 3d b5 fb f3 3c
       0.052937347 -0.13225803 0.08179614 0.02978311
000250 f3 6c 32 3e d8 a3 94 bd ba fa 3b bc dc 34 f4 bd
       0.17424373 -0.07257813 -0.011473352 -0.119241446
000260 f6 51 9e bd d2 7b 11 3d f0 ce 5e bd 1e f4 97 3d
       -0.077304766 0.035518475 -0.05439657 0.074196085
000270 bc 13 f8 bb 2a 39 17 bd a8 2c 98 ba 04 33 86 bd
       -0.007570712 -0.03691975 -0.0011609988 -0.06552699
000280 01 89 22 bd 7e 2d 7f 3d 99 9f a0 3d 3d b8 ea 3d
       -0.03968144 0.062299244 0.07842941 0.11460922
000290 e1 81 ac 3d 28 9d ea 3d 2e b8 c5 3d 23 fc 02 bc
       0.0842321 0.114557564 0.0965427 -0.007994684
0002a0 d0 2c 50 bd 34 26 4a 3d a8 7d 38 bd 49 7f ad 3d
       -0.050823987 0.04935284 -0.04504171 0.08471543
0002b0 ae 50 52 3b 7d a8 fd 3d 85 17 4e 3d 95 d7 ee 3d
       0.0032091546 0.12385652 0.0503154 0.11662213
0002c0 31 36 ca bd 13 3d 5d 3d 4e b8 02 3e 85 14 dd bd
       -0.098736174 0.054013323 0.12765619 -0.107949294
0002d0 d6 06 48 bd 42 fe 07 3d a9 07 00 bd 32 b6 eb 3d
       -0.048834644 0.033201464 -0.031257305 0.115093604
0002e0 68 d7 0d 3d f1 86 da bc 8f f1 43 3e 71 81 45 3c
       0.034629256 -0.026675673 0.19135116 0.012054787
0002f0 09 82 34 bd 24 0a 06 3e 10 29 97 bd ec fb 72 3c
       -0.044069324 0.13089806 -0.07380879 0.014830571
000300 49 f3 9e bd f7 37 a6 3d ff 87 0b bc 55 38 9b bb
       -0.07761247 0.08116143 -0.008516311 -0.00473694
000310 43 b2 a6 bc de 07 2d be 16 60 33 3e 20 73 de bd
       -0.020348674 -0.16897532 0.17517123 -0.10861802
000320 4a 25 d1 3c 1b 3e 8b 3d f2 3b 30 be 68 aa a3 bd
       0.025530476 0.06798955 -0.17210367 -0.07991487
000330 4e d6 ea 3d b3 65 9d 3d 0c 05 97 bd fe 43 4a 3d
       0.114666566 0.07685413 -0.073740095 0.04938125
000340 58 94 55 bd 55 0f 62 bc 63 77 c8 bc 3c e4 ec 3d
       -0.052143425 -0.013797601 -0.02447099 0.1156697
000350 09 ea cf bd 2b a6 42 be 96 9a 62 3d 8a fe 14 3c
       -0.101520605 -0.190087 0.055323206 0.00909389
000360 a1 a9 fe 3d 4d 57 9f bc b8 62 53 3e a2 a0 bd bb
       0.12434698 -0.019450808 0.20643127 -0.005786971
000370 ab b9 df ba 0e 17 08 3e 3f fe cf 3c da 87 d1 bd
       -0.0017068883 0.13290045 0.025389789 -0.1023099
000380 fd e3 c6 bc 0e 08 5f 3e 61 c9 4d be 3d 03 08 3d
       -0.024278635 0.21780416 -0.20096351 0.033206213
000390 db a5 d2 3c 47 5f 8c bd ea e2 0e 3d a9 98 17 3d
       0.025713852 -0.0685411 0.03488437 0.037010822
0003a0 08 d5 2b bd bd 41 a9 3d 00 9b 99 3d ee 1f f5 bc
       -0.04195121 0.08264492 0.07500267 -0.029922452
0003b0 bf 8a 4f bd 9f 02 06 3d d3 a1 c7 3d 7f df 05 3e
       -0.050669428 0.032717343 0.097476624 0.13073538
0003c0 b2 8d f1 bd 6e 85 96 bd 60 3e fa 3b f7 74 5f 3d
       -0.11794604 -0.073496684 0.00763683 0.054554906
0003d0 67 ec 29 3e 9c 81 a5 3c d7 72 3c be 2e 7c a0 3d
       0.16594087 0.020203404 -0.18403183 0.078361854
0003e0 36 66 14 3d 9a 68 0d be 40 0e 3e 3e 75 cc 86 3b
       0.03623029 -0.13809434 0.18560123 0.0041137286
0003f0 eb a8 29 3e 81 10 15 be 6f 79 2d bd 4e c0 9f 3d
       0.16568343 -0.14557077 -0.042352136 0.07800351

model.rnn.weight_hh_l0 f4 [240, 60]
000000 e7 2e 28 3e d3 4f 26 bd e5 0a e7 3d 1b da e9 3c
       0.16424142 -0.04060347 0.11281375 0.028546384
000010 1f 81 20 3e be 04 2f bd 81 21 bf bd ee 68 9f 3c
       0.15674256 -0.042729132 -0.09332562 0.019459214
000020 1c 33 47 bd c7 90 bd 3d b9 f1 2a bd 92 8c 1d 3e
       -0.048632726 0.0925613 -0.04173443 0.15385655
000030 7c 35 e9 3d cc 13 1c 3a dd 43 3c bc 66 d0 b6 bc
       0.113871545 0.00059538777 -0.011490789 -0.022316169
000040 64 86 21 be 49 0e c6 3c 0c 35 05 3e 28 0c ff bd
       -0.15773922 0.024176734 0.13008517 -0.124534905
000050 e6 f8 e5 3c 1d 38 07 3d a5 2b 2d be b3 1e b9 3d
       0.028072786 0.0330125 -0.1691118 0.090390585
000060 d4 e7 ec 3c 7f 51 14 3e 8a 83 fe bd eb 3e 58 bd
       0.028919138 0.14484213 -0.12427433 -0.05279438
000070 89 c1 76 3e de 6b b0 3d ac b3 3e 3e cc 38 8d 3c
       0.24097265 0.08614324 0.18623227 0.017238997
000080 ed df 42 be a4 88 18 be 43 df f8 3d d4 05 01 be
       -0.19030733 -0.14895874 0.12151959 -0.1259988
000090 65 2e 34 3d 2f 0d 1a be 09 f6 f1 3c 33 2b 49 bd
       0.043989558 -0.15044092 0.029536264 -0.049113464
0000a0 d4 3b d1 bd 56 83 9f 3d ff 73 49 3e 1a 78 8c bd
       -0.102164894 0.07788722 0.19673155 -0.06858845
0000b0 05 ba d9 3d 81 9b 01 3e 75 fa b0 3d 99 b7 8f 3d
       0.106311835 0.12656976 0.08641521 0.0701744
0000c0 ea a4 53 bb f2 de d4 3d 62 ce 8f bb 5d e6 25 be
       -0.0032294341 0.10394086 -0.0043886164 -0.16201158
0000d0 85 6b 5a be a5 ad 5b bd 75 8e 16 3c aa b0 38 bd
       -0.21330078 -0.053632397 0.009189238 -0.045090355
0000e0 b7 e9 08 be 00 cf 52 bd 4a 96 15 be 31 4c 3c be
       -0.13370405 -0.05146694 -0.14608112 -0.1838844
0000f0 8a 04 82 3d bb 2d aa bd fe 9a 9f 3b e3 62 25 3c
       0.06348522 -0.08309504 0.0048707714 0.010094377
000100 65 25 c0 3d 33 31 03 bd 87 41 c0 3d b5 e9 9e 3c
       0.093821324 -0.032029342 0.09387498 0.01939855
000110 e6 72 d5 3c 97 a5 21 3e 87 bb a4 bd 49 94 81 bd
       0.026055764 0.15785824 -0.080435805 -0.06327111
000120 c2 f3 6e bc 38 59 c7 bd 22 31 a5 3d 2f 1f ac 3c
       -0.014584484 -0.09733814 0.08066012 0.021010963
000130 66 e6 03 be 8f 7f 2e 3d 78 38 82 3b 91 c6 2c 3c
       -0.12880859 0.042602118 0.0039740168 0.010545389
000140 71 43 2e 3d 03 7b 19 bd 82 ed f1 bd 3c c9 ce 3d
       0.042544786 -0.03747083 -0.11812879 0.10096976
000150 99 dc 2e 3d 9d e9 0b 3e 11 23 11 be ad 1f 92 3d
       0.042690847 0.13663335 -0.14173533 0.07134948
000160 a0 96 58 3b e0 4a 94 3d 46 74 19 3e eb 6a 34 3e
       0.0033048764 0.07240844 0.14985761 0.17618911
000170 3f 1d 18 bd fb 5f a0 bc 8f 78 04 3e db 44 79 bd
       -0.037137266 -0.019577017 0.12936614 -0.06085668
000180 65 15 27 bc ab 38 93 3c 47 45 08 3e 1b 53 c1 bd
       -0.010197972 0.017971357 0.13307677 -0.09439679
000190 38 1d c4 3c 41 23 54 bd 90 cd 4d bd d7 06 2b bd
       0.023939714 -0.051791433 -0.050244868 -0.04175457
0001a0 88 90 11 3c 01 4c eb 3d b8 45 d5 3d 8c c9 e4 bd
       0.008884557 0.11489106 0.104136884 -0.111712545
0001b0 71 a6 80 bb 9d 14 3d bd a4 7b ec 3d cc 69 8b bd
       -0.0039260914 -0.046162236 0.1154702 -0.068072885
0001c0 09 69 84 bc 48 6d 81 bd 58 10 14 3b 90 57 82 bd
       -0.016163366 -0.06319672 0.002259275 -0.063643575
0001d0 83 88 9f 3d 60 af fb bc fc 44 c1 bd 2d 3d d4 bd
       0.077897094 -0.030723274 -0.09436986 -0.10363231
0001e0 f7 4e f1 3d 95 f8 b3 bd 7c ab cd 3c 4e e5 a2 bd
       0.117826395 -0.08787648 0.025106184 -0.07953893
0001f0 31 89 33 3d 39 e4 3d bd ee 3f c9 3b e9 da 2d 3c
       0.043832008 -0.04636023 0.006141654 0.010611274
000200 47 e4 fa bc 17 e0 8e 3c 2d a7 8c 3d 66 36 29 bd
       -0.03062643 0.017440839 0.06867824 -0.041311644
000210 6e f7 e4 3d 82 0a a8 bd 3b e0 6a 3d 8a 4f 00 3e
       0.11180006 -0.08205129 0.05734275 0.12530342
000220 6f 9a 5f 3d e0 dd 04 be 27 5d d5 3d 6e a3 a5 bc
       0.05459064 -0.12975264 0.10418158 -0.02021953
000230 bd 55 3c 3d 80 39 2b be 19 8b 58 bd 09 9a aa bc
       0.045980204 -0.16721153 -0.05286703 -0.020825403
000240 26 3e 3b be 52 fe 11 3d 38 cf aa 3d e5 41 32 3d
       -0.18285426 0.03564293 0.08340305 0.043519873
000250 26 0c c3 3d dd 55 ca bd 20 d2 1f bb d4 80 43 bc
       0.095238015 -0.09879658 -0.002438672 -0.0119325705
000260 6e 02 e5 bd 28 bc 88 bd 17 c4 06 bd e2 e2 2f bd
       -0.11182104 -0.06676513 -0.03290185 -0.04294098
000270 74 e8 a1 ba 2a a7 34 3e 41 68 b8 3d ef 11 a0 bd
       -0.0012352602 0.17641893 0.0900426 -0.078159206
000280 f7 b0 88 3d 14 c0 e1 3d 65 cb b9 bd 36 50 8f bc
       0.06674378 0.11022964 -0.090719976 -0.017494302
000290 81 b2 23 bd 30 d5 e4 bd 1a 02 ae 3c b2 90 be 3d
       -0.039965156 -0.11173475 0.021241236 0.09304942
0002a0 45 8b 74 3d 58 4e a4 3d 7a d7 e0 3d 84 3c 8e 3d
       0.05970313 0.080227554 0.10978599 0.06945136
0002b0 e3 89 a2 bd de 26 d0 3d 1c dd b3 3d 3f 98 f4 bc
       -0.07936456 0.10163663 0.08782408 -0.029857753
0002c0 2a 14 93 3d 0d 40 a1 3d 45 f2 85 3d d3 34 d4 bd
       0.0718158 0.07873545 0.0654035 -0.10361638
0002d0 e8 06 48 3c f9 b4 1d be a1 43 20 3e 9a 5a 12 3e
       0.012208678 -0.15401067 0.15650798 0.14292374
0002e0 94 d8 70 3d 3d 85 41 bd a8 2c 07 3c b9 44 83 3d
       0.058800295 -0.047246207 0.008250393 0.06409592
0002f0 ca ac 23 3e 73 48 5f bc ac ee cf bd c9 34 b8 bd
       0.15983883 -0.013628113 -0.10152945 -0.08994443
000300 f8 38 95 bc 9b 1f c0 bd de c3 9f 3c 49 2a a5 bd
       -0.018215641 -0.09381028 0.019502576 -0.08064706
000310 98 b9 bf bd bd 28 10 be a0 ad c6 3d 81 6b 83 3d
       -0.09361571 -0.1407804 0.09701085 0.06416989
000320 f8 1c 9e bd 96 88 2a bd 4d c2 14 be de 2b 59 bd
       -0.07720369 -0.041634165 -0.14527245 -0.05302035
000330 01 54 b6 bc fb 63 0e 3e ef 0d ab bd 90 69 6c 3d
       -0.022256853 0.13905327 -0.08352267 0.05771786
000340 36 d0 04 bd 22 16 b2 bd d4 d9 a3 3c bf ee 6f 3d
       -0.032425128 -0.08695628 0.02000133 0.058577295
000350 3f 16 15 bd e8 64 82 bd c3 dc 0c 3c 60 90 b0 3d
       -0.03639817 -0.063669026 0.008597556 0.08621287
000360 97 57 12 3e fd 93 91 3c bf 65 c2 bd dc b8 bf 3c
       0.14291225 0.017770762 -0.09492063 0.023403578
000370 4b e7 ce 3d 14 72 89 bd 2a a3 fc 3d b2 14 0b 3d
       0.101027094 -0.06711212 0.123358086 0.033955283
000380 49 56 a4 3d 02 4b bc 3b 74 f6 09 bd 80 7c fe 3d
       0.0802427 0.0057462463 -0.0336823 0.1242609
000390 62 99 d2 3c 3b 33 91 39 f2 8e cc 3d a5 84 cc 3c
       0.025707904 0.00027694725 0.09988202 0.024965594
0003a0 69 33 a5 bc 79 d0 00 3e de 8b 70 3d ea 1a 03 be
       -0.020166116 0.12579526 0.058727138 -0.12803236
0003b0 9c 0b 1a be 80 56 b6 3d 22 84 84 3d bb 77 ca 3d
       -0.15043491 0.08903217 0.06470515 0.09886118
0003c0 39 b7 cb bd 7b de b5 bd fb 96 89 bc 06 ab 0d 3e
       -0.09947056 -0.088803254 -0.016795626 0.13834772
0003d0 f5 19 17 3e a3 97 39 be 2c ad 05 3b 91 96 fe bc
       0.14755996 -0.18124251 0.0020397408 -0.031077655
0003e0 ce d6 08 bd 5d 5d c0 bc 9c be 3e bd 93 fd ac bc
       -0.03340798 -0.02348202 -0.046568498 -0.021117007
0003f0 40 3b 3e 3e 67 54 64 bc 71 7a 8e bc 8a f0 bf 3c
       0.1857729 -0.013936139 -0.017392369 0.023430128

model.rnn.bias_ih_l0 f4 [240]
000000 3d cf b3 3d 01 a4 7e bd fb 96 78 bd 9c a4 69 bd
       0.08779762 -0.062168125 -0.06069086 -0.05704175
000010 43 77 52 3e 97 ae c6 bb 4b 49 ef 3d 71 bd 48 3e
       0.20553307 -0.006063293 0.116839014 0.19603516
000020 ea f9 34 3e 4e 69 61 bd 7a c0 bd 3c 51 fd b3 bd
       0.1767346 -0.055032067 0.023163069 -0.08788551
000030 26 22 86 bc 44 82 92 bd 27 9e 7a bc 3b 22 bb 3d
       -0.016373705 -0.071537524 -0.0152964955 0.09137388
000040 1c 4d 86 bd 97 af c6 bd c0 fd 57 3a 5f 8e 91 bd
       -0.06557676 -0.0970146 0.0008239411 -0.07107233
000050 30 f1 3c bd 1a 18 47 3e 68 b2 76 3b 2c 06 85 3d
       -0.04612845 0.19442788 0.003764296 0.06495318
000060 88 8b 38 bd eb 39 d1 3d 65 87 b6 3d 80 c6 74 3c
       -0.045054942 0.10216125 0.08912543 0.014939904
000070 ae 54 64 bd 0f b3 5c bd 61 86 19 bb 38 81 91 bd
       -0.05574482 -0.0538817 -0.0023426043 -0.07104725
000080 93 0f 1f 3e aa 30 64 3d ff a9 09 3d 4e e1 e2 3d
       0.15533285 0.055710472 0.033609387 0.1107813
000090 23 e8 81 bd 7f 89 20 3e 4d 0c 42 bc 49 0a b0 bd
       -0.06343105 0.1567745 -0.011843753 -0.08595712
0000a0 17 29 51 3e 2a 06 64 bd 1b 9c 17 3e b9 50 66 3d
       0.20425831 -0.05566994 0.14805643 0.056229327
0000b0 ba 13 10 3e 52 cd 3a 3e 5c c5 ab 3d ce 9f 85 bd
       0.14070025 0.18242386 0.08387253 -0.06524621
0000c0 f3 01 99 3d ee cb e5 ba 47 2d b7 3d 6a 75 d7 3d
       0.07471075 -0.0017532089 0.08944183 0.10520442
0000d0 8f ff 06 3e 08 ca d4 39 00 b2 ad 3d 1c f0 41 bd
       0.13183425 0.00040586316 0.084812164 -0.047348127
0000e0 4b 6f 12 3e 4b b7 96 3b bc 87 41 3e 14 50 e7 3d
       0.14300267 0.004599487 0.18899435 0.112945706
0000f0 b8 82 5a 3d c2 3f 58 3d 95 60 81 3c c1 5a 0e 3e
       0.05334732 0.05279518 0.015793124 0.13901807
000100 83 f4 e1 b9 7e ac 36 3d 52 d8 98 bd b5 37 4c bd
       -0.0004309752 0.044598095 -0.07463135 -0.049857814
000110 b9 77 83 bd 65 cc 02 3b fc 29 b9 3d 9c 10 d2 3d
       -0.0641932 0.0019958254 0.09041211 0.10257074
000120 16 37 b9 bd b6 14 6e 3d 74 e5 aa bc bd c8 9a bd
       -0.0904371 0.05812522 -0.020861365 -0.07557819
000130 97 65 4c 3d 2b cd 24 3d 6c a9 3f 3d 46 da 25 3d
       0.04990157 0.040234726 0.046792433 0.040491365
000140 70 f5 d8 3d 5e 8c 9a 3d 3e f2 cb 3b 49 28 22 3c
       0.105936885 0.07546304 0.006223946 0.0098973
000150 ab d2 8d bc fd 45 51 3c f2 91 83 3c 47 94 32 bd
       -0.017312368 0.012773034 0.016060803 -0.04359844
000160 10 1c 9e 3d 3f 1d 52 3d 49 0b 43 3d ac b8 d3 bd
       0.07720196 0.051297422 0.047618184 -0.10337958
000170 78 d7 a6 bd 93 73 ce 3d c6 5b ec 3c 9f 50 a4 bd
       -0.08146566 0.10080638 0.028852355 -0.0802319
000180 04 95 ae 3d fd d0 02 3d 1f 8f bf bd f4 b2 8a 3d
       0.08524516 0.031937588 -0.0935347 0.06772414
000190 e4 78 13 3c 59 b9 a3 bd 60 fd d1 bd e5 20 f3 3c
       0.009000991 -0.07994337 -0.102534056 0.029678771
0001a0 3a 30 05 be f4 c7 38 bd f2 20 e2 3d ea 69 ba 3d
       -0.13006678 -0.045112565 0.1104144 0.09102233
0001b0 ff 65 fe bd 76 f7 b4 3d 77 0f bd 3d 4c 4f 8e bd
       -0.12421798 0.08836262 0.09231465 -0.069487184
0001c0 a6 1b 7d 3c e3 1c 53 3c 41 e6 ea bd d4 46 90 bd
       0.015448486 0.012885305 -0.11469699 -0.070447594
0001d0 b0 f8 cd 3d 89 a9 83 3d b4 23 18 3d e6 84 9b bc
       0.10057199 0.06428821 0.037143424 -0.01898427
0001e0 ef 53 fb bc 61 ee f5 bd 32 ef 86 bd df 3c 88 3d
       -0.030679671 -0.12008358 -0.06588592 0.06652235
0001f0 43 c6 e8 3d 79 b3 4f bd a2 37 c5 bb ac c1 ab bd
       0.113659404 -0.050708268 -0.006018595 -0.08386549
000200 1e 44 4f bd 76 23 ac bb 83 e2 02 3d 0d da ef bc
       -0.05060207 -0.0052532507 0.0319543 -0.02927878
000210 1d 19 b2 3a de 54 0a 3c 19 75 d2 bd 8c 6a d7 bd
       0.0013587807 0.0084430855 -0.10276241 -0.10518369
000220 3e 10 cb 3d f4 67 be bd aa 56 01 be b8 cc 60 bd
       0.09915207 -0.09297171 -0.12630716 -0.054882735
000230 69 05 f1 3b 9d 82 84 bd c4 5f 78 bd 5b 54 5a bd
       0.0073553813 -0.06470225 -0.060638204 -0.053303104
000240 28 d0 37 3d 39 9b 0e 3e 06 f5 ae bd c9 6c 14 3d
       0.044876248 0.139264 -0.08542828 0.036236558
000250 05 50 a5 3d 5f 50 e6 bd 7d 98 90 bd 43 52 90 3c
       0.08071903 -0.11245798 -0.07060335 0.01761735
000260 1d 27 87 bd eb 52 19 bd fe 15 a8 bd a5 4a 8a 3b
       -0.06599257 -0.037432592 -0.0820732 0.004220324
000270 f1 e3 20 bd 40 87 a1 bd 4c 2c 71 3d 8c 28 f4 3d
       -0.039279882 -0.07887125 0.058880135 0.11921796
000280 dc 7b d7 3d eb a9 74 3d 4d 98 ef 3d b8 6f 6a 3d
       0.10521671 0.05973236 0.11698971 0.05723545
000290 5e 5c 0c bc 16 2c a3 3c 26 0b e0 bc 56 cb 5b bd
       -0.008566944 0.019918483 -0.027349066 -0.053660713
0002a0 cf 5b da bd dc 03 b2 bd f9 d9 b0 bd 74 f4 03 be
       -0.10662042 -0.08692142 -0.08635325 -0.1288622
0002b0 01 79 f1 3b 26 a3 64 bd 28 0b 0b be 6c 82 29 bd
       0.007369161 -0.055819653 -0.13578475 -0.041384146
0002c0 3a 10 0c be 74 51 11 bd 10 e6 28 bc 4f bb 40 bc
       -0.13678065 -0.03547807 -0.010308757 -0.011763408
0002d0 b8 11 4b 3e fa d9 3d bd 86 05 a9 3b 0b 8b 97 3d
       0.19830978 -0.046350457 0.005158129 0.07399567
0002e0 39 cb c8 3d 52 e7 53 bd 56 bb 8a 3b 7c 62 de bc
       0.09804387 -0.051734276 0.004233758 -0.02714657
0002f0 b9 a0 43 3e 88 e5 3a 3e ce bb e5 3d 0a a7 f1 3d
       0.1910428 0.18251622 0.112174615 0.11799438
000300 be d5 f8 3d 8b 53 23 3e 56 9b d6 3d 10 af 05 bd
       0.12150143 0.15949838 0.10478847 -0.032637656
000310 d8 cf de 3b 9b 80 2b 3d c8 7a c9 3d 94 10 26 3e
       0.0067996792 0.041870695 0.09837872 0.16217262
000320 bc 38 02 3d 2f 1c 7f bc d4 fe 0f bc 02 1b 47 bc
       0.031792387 -0.015570684 -0.008788783 -0.012152435
000330 31 f4 ba 3d fb 2a 31 3e 97 62 13 bd d2 f6 a1 bd
       0.09128607 0.17301552 -0.035982694 -0.07908405
000340 07 b4 0f 3e d7 88 fb bc da c3 14 3e a6 9c a4 3c
       0.14033519 -0.030704899 0.14527836 0.020094227
000350 2d 6f 1d bd eb 4c c6 3d 86 32 95 bc 6d 8a f1 bb
       -0.038436104 0.0968264 -0.018212568 -0.007371238
000360 07 cb 2e 3d 95 65 4a 3e eb a2 e8 bb 39 dd cf 3d
       0.04267409 0.19765313 -0.0070994995 0.10149617
000370 4e 4c 47 3d 70 eb 50 3c c7 38 fb 3d 1f 95 84 bd
       0.048656754 0.012751445 0.12266689 -0.06473755
000380 10 2b 74 3b 99 7d 01 3e 99 3d b4 3d 78 88 8a bd
       0.0037257113 0.12645568 0.08800811 -0.067643106
000390 d7 7c 00 bd d4 47 38 bd 32 2b a5 3c d2 3d 94 3d
       -0.031369057 -0.044990376 0.020162199 0.07238354
0003a0 ff 73 c1 3d 9c 72 78 3d 3f 0b 36 3e e7 a1 87 3d
       0.094459526 0.060656175 0.17777728 0.06622677
0003b0 43 0b c2 3d f8 95 a8 3d 3a 72 46 3d 8b 88 b2 3d
       0.09474804 0.08231729 0.04844878 0.0871745

model.rnn.bias_hh_l0 f4 [240]
000000 ca 8e 05 bd b9 f6 8b 3d 9e 15 c1 3d be 77 40 3d
       -0.032606877 0.06834168 0.09427951 0.046989195
000010 93 23 90 3d 7e 6c d9 3b df d5 09 3c c1 0b d0 3d
       0.07038035 0.0066352477 0.008412807 0.10158492
000020 1f 01 4a 3e 10 8a 17 3e 91 99 13 3d 45 11 91 bd
       0.1972699 0.1479876 0.036035124 -0.07083372
000030 ba be 16 bd b7 06 cd bc d5 5d 16 3e 99 16 fb 3d
       -0.036802985 -0.025027616 0.14684232 0.122601695
000040 62 52 f5 bb f1 45 c8 3d 1f 5f 62 bc 89 1d c9 3d
       -0.0074866274 0.09778965 -0.013816624 0.098200865
000050 b5 85 2e 3d dd 38 10 bd 77 32 4a 3d 27 cb 1d 3d
       0.04260798 -0.03521048 0.049364533 0.03852382
000060 23 ed 45 3d 0a b6 5b 3d 0d 90 bf 3d f1 d5 94 bd
       0.048321854 0.053640403 0.093536474 -0.072673686
000070 2f ec b0 3d 35 fe 7a bd 7e 61 99 bd 31 20 16 3e
       0.086387984 -0.061277587 -0.07489298 0.14660718
000080 cb 99 fa bc 5c b8 f1 3d 53 25 ec 3d cf 76 cb bb
       -0.030590912 0.11802742 0.115305565 -0.0062092314
000090 bd fc 64 3d 07 db 52 3d fb 7a 03 3e 4a 07 a5 3d
       0.055905093 0.051478412 0.12839882 0.08058031
0000a0 09 b2 f1 3d cd 22 ac 3d f2 3a ab 3d 40 5e cb bd
       0.11801536 0.08405075 0.08360852 -0.09930086
0000b0 9d 43 7e bd 50 a2 1e bd 8e fa 56 bd 25 49 1e 3e
       -0.0620762 -0.038729012 -0.05248504 0.1545759
0000c0 51 0e 66 bd 6c 48 bc bd 04 46 be bd 0c a9 66 3d
       -0.056165997 -0.09193501 -0.09290698 0.05631356
0000d0 15 d4 ce 3c 3c 1a 77 bd 01 d5 44 bd 05 32 60 bd
       0.025247613 -0.060327753 -0.0480547 -0.054735202
0000e0 39 89 03 3e c1 25 2d 3d 31 ac c3 bc ad be 20 3e
       0.12845315 0.042272333 -0.023885818 0.15697737
0000f0 08 45 d2 bc b1 3d 89 3d 9f 4d 15 3d 71 31 36 bd
       -0.025667682 0.0670122 0.03645098 -0.044480745
000100 38 3b ce 3c f7 5b ce bb cb ee 87 3d fb 09 2f bc
       0.025174722 -0.006297584 0.06637343 -0.010683532
000110 74 29 a7 3d ae b4 d9 bc 6a 55 4d bd d7 eb af 3d
       0.081622034 -0.026575413 -0.050130285 0.08589905
000120 5a 8f 1c bd 5d 50 3c bd 2f 75 c5 3d 41 d5 a6 3d
       -0.03822265 -0.045975078 0.096414916 0.08146144
000130 3e 1c af 3b 37 cc 96 3d 7e 38 e4 bd bb e0 11 3e
       0.005343943 0.0736317 -0.111435875 0.14245884
000140 ba 52 98 3d 3a fb bb 3d 69 6d d8 bc 24 5d 00 3d
       0.07437654 0.09178777 -0.026419358 0.031338826
000150 5d dc b2 3d cc 64 d4 bd 05 7d 91 bd b5 c6 51 3c
       0.08733437 -0.10370788 -0.07103924 0.012803723
000160 c0 9f c6 3c c6 69 c7 bd a3 2f 81 3d 41 75 71 bd
       0.024246097 -0.097369716 0.06307914 -0.058949713
000170 53 42 8d bd 1e 3e 17 3d d2 87 c8 bd a0 c5 77 3d
       -0.06897416 0.036924474 -0.09791531 0.060491204
000180 08 af ce 3a 77 f9 0f 3e d4 05 65 bd a1 11 02 bb
       0.0015768716 0.14060007 -0.05591376 -0.0019846933
000190 eb 76 10 3e 14 68 67 bc b3 ed ad bd f6 30 1b bc
       0.14107864 -0.014123935 -0.08492603 -0.009472122
0001a0 a6 11 b1 3b 31 0f ce bd b6 28 60 3d 1f fd f8 3d
       0.005403715 -0.10061491 0.054726325 0.12157654
0001b0 11 4e 69 bc 05 cf c3 3d 7b d6 fb 3d b0 d5 2f bd
       -0.014239804 0.0956097 0.12296768 -0.042928398
0001c0 3e 29 0c 3d 59 5a 9a 3d 45 eb b4 bd 2c b4 9d 3d
       0.03421902 0.07536764 -0.088339366 0.07700381
0001d0 48 36 9e bd 62 5b 46 3d 1f 63 99 3d 4b 06 ae bc
       -0.07725197 0.048426993 0.07489609 -0.021243235
0001e0 11 8c 32 bc 7b 82 d6 bd 13 9c f1 3d 1d fd 88 bd
       -0.010897652 -0.10474106 0.11797347 -0.066889025
0001f0 b6 fb c5 3c ba f1 4e 3d 09 03 aa bd c2 5d fa 3c
       0.024167877 0.050523497 -0.0830136 0.030562285
000200 8a d5 41 bd 72 bd fc bc bd a0 ea bc 35 2d 9f 3d
       -0.047322787 -0.030852053 -0.0286411 0.077722944
000210 0f 3d 0a 3b 17 78 ba 3c e0 f9 89 ba 6a fb 56 bd
       0.0021093523 0.022762341 -0.0010526739 -0.05248586
000220 6b 61 de bd e1 3d 9d bc b8 46 11 bd 2c 6e b0 bd
       -0.10858425 -0.019194545 -0.035467833 -0.086147636
000230 49 d4 d6 bc db df aa 3c cf f9 1b 3d 4d 4a 8c 3d
       -0.026224272 0.020858696 0.038080033 0.06850109
000240 62 dd df bd 97 30 bf bc a9 3c b0 bb 50 cb f8 3c
       -0.10930897 -0.0233386 -0.005378325 0.030370384
000250 55 f3 91 bd 88 1f 44 3d 5d 2e 7e 3d eb 82 c0 bd
       -0.0712649 0.047881633 0.062055934 -0.093999706
000260 f8 db af 3c 62 3b a7 bd 7f 59 ba 3d 51 e3 85 3d
       0.021467194 -0.08165623 0.09099101 0.06537498
000270 55 19 0b 3e b1 e1 84 3d ed 15 01 be 7b ad 5f 3c
       0.13583882 0.0648836 -0.1260602 0.013652201
000280 08 7b e5 3c 7b 3a a8 3d 48 85 34 3d 82 48 72 bc
       0.028012767 0.08214279 0.04407242 -0.014787795
000290 03 4f 72 3d f7 05 f3 3d 6d 56 8d 3d 3a a7 f7 3d
       0.059157383 0.11866372 0.0690125 0.12092443
0002a0 f6 86 39 3d 40 50 de 3d db bb e3 bd 40 59 07 3c
       0.045294724 0.1085515 -0.11119815 0.008261025
0002b0 30 e5 0c bd 37 90 0a be e8 ca 24 bc b2 94 46 bd
       -0.034398258 -0.13531576 -0.010058142 -0.04848165
0002c0 75 1b 07 be e4 d2 81 bd c2 6e 66 bc 1b 05 ad bd
       -0.13194068 -0.06339052 -0.014064493 -0.084482394
0002d0 87 a1 c8 3c 63 05 d7 3d 30 22 22 bd 00 95 17 bd
       0.024491085 0.10499074 -0.039583385 -0.03700733
0002e0 6f 4f 2e 3e 72 9c 80 bd 5b ea b6 3d 52 e4 ee 3c
       0.17022489 -0.062798396 0.089314185 0.029161606
0002f0 f9 64 44 3e 96 62 10 3c e5 d7 3b 3e 55 ad 13 bd
       0.19179143 0.008812567 0.18344076 -0.036053974
000300 a6 30 e0 bc 54 c5 4d 3d db de 35 3c d3 82 13 3e
       -0.027366947 0.050237015 0.011100496 0.14405374
000310 f8 18 86 3d e1 6f a3 bd 75 e5 cf 3d 98 fd 8e bd
       0.06547731 -0.079803236 0.10151187 -0.06981963
000320 ad 69 32 3c 0c f4 3a 3e 56 73 f3 3b 9b 8a 78 bd
       0.010889453 0.18257159 0.0074295206 -0.06067906
000330 c2 d7 5b 3d 37 ca 04 3c 6a 96 88 3d cd 03 05 3e
       0.05367256 0.008104852 0.06669314 0.12989731
000340 9f 15 08 3d f8 14 cc bc 49 41 8f 3d 05 aa 27 bd
       0.033223744 -0.024912342 0.06994874 -0.040933628
000350 94 73 0a bc e4 3f 5c bd 1e 31 1c 3e 1d 83 bb 3d
       -0.008450408 -0.05377187 0.15253112 0.09155867
000360 42 2c 81 bd a8 1b bb 3d 19 c4 3d 3e fa 08 ca 3b
       -0.0630727 0.091361344 0.18531837 0.006165621
000370 bf 68 29 3e bf ec ec 3c f2 b9 3b bd b4 68 95 bd
       0.16543864 0.028921483 -0.04583163 -0.07295361
000380 e3 b5 c2 bd c8 ae 5c 3d f3 0b 73 bd db 2e ff ba
       -0.095073484 0.053877622 -0.059337568 -0.001946892
000390 19 9f 79 bb 6a dc e2 3d c4 29 a5 bb 3c 95 83 bd
       -0.0038089214 0.11077197 -0.0050403792 -0.064249486
0003a0 8b 30 e4 3b 24 c4 be 3a 47 b7 91 bd 23 47 50 3d
       0.0069637946 0.0014554304 -0.071150355 0.05084909
0003b0 c5 b1 cf 3d 73 9b 90 3d 7e db 82 bd 6f 76 8e 3d
       0.10141329 0.070608996 -0.06389521 0.06956183

model.rnn.weight_ih_l1 f4 [240, 60]
000000 6f 98 25 3e ee 23 be bd 64 f3 19 3e db 9b 35 bc
       0.1617143 -0.09284197 0.15034252 -0.011084522
000010 8f 1a 8f bd e8 9f 19 be 0d e6 53 be 2f 75 e5 3d
       -0.069874875 -0.15002406 -0.20693226 0.112039916
000020 78 1b c3 3c 55 c9 86 bd 59 3c 0d be 77 6a 03 bd
       0.023816809 -0.0658137 -0.13792552 -0.032083955
000030 db 5e 36 bd b6 88 da bd 30 14 ec bd 56 de e6 3d
       -0.044524055 -0.10670607 -0.11527288 0.11272876
000040 b8 6d 2a bd 58 b0 a1 3c 8d 77 16 3e 2a fd 07 be
       -0.041608542 0.019737408 0.14694043 -0.13280168
000050 16 b2 2c 3e ab f5 2a 3e e8 b7 3f be c9 e4 0e 3e
       0.1686481 0.16695277 -0.18722498 0.13954462
000060 80 ec cb 3c 16 93 e1 3d 9b a3 54 bd e7 b1 dd bd
       0.024893045 0.110143825 -0.05191384 -0.10824948
000070 4a fc 1c 3e d3 c8 c8 3d 08 7f c7 3c 64 26 d8 3d
       0.15330616 0.09803929 0.024352565 0.105541974
000080 2b 5b 26 be 3b a6 24 be 2d 6b a7 3c 9d a3 8c bd
       -0.16245715 -0.16079037 0.020436848 -0.06867144
000090 ac 6d 0b 3e e5 90 22 bc 76 26 3b 3e 83 8f db bd
       0.13616055 -0.009922241 0.1827639 -0.10720732
0000a0 70 7d 7e 3d a3 4f 25 3d 42 bd a8 3d 0a 2b c8 bd
       0.062131345 0.04035915 0.08239223 -0.09773834
0000b0 5d a7 c8 3d dd d7 fa 3d f8 15 2c 3e b6 03 30 bd
       0.09797547 0.12248204 0.16805255 -0.04297229
0000c0 74 71 6b bd 4b 92 11 3e e4 3b 02 be 58 bd 40 be
       -0.057481244 0.14215963 -0.12718159 -0.18822229
0000d0 51 6f 52 3d 32 29 3b bd 38 e0 cc bd a0 f4 5e 3d
       0.05137569 -0.045693584 -0.10003704 0.05443251
0000e0 62 96 0f be ff f6 38 be e1 14 11 be d3 a3 e7 bd
       -0.1402221 -0.18062972 -0.14168121 -0.11310544
0000f0 87 fe f6 3c db 56 48 be 72 70 e3 bc 2a 73 ac 3c
       0.030150665 -0.19564383 -0.027763579 0.021051008
000100 3f d4 f6 3c 9e 97 4b be e2 46 e3 bc 2c 4b d7 3d
       0.030130504 -0.19882056 -0.02774376 0.10512385
000110 2c 4c 8c bd e5 70 8e 3d a2 0c 4d bd 9c e6 3f bc
       -0.06850466 0.06955127 -0.050060876 -0.011712696
000120 fb a0 82 bd 6a 51 f3 bd b2 be 11 be 84 24 f4 3c
       -0.06378361 -0.11880763 -0.142329 0.029802568
000130 85 37 f6 3c 9c b4 29 3d f1 c2 a8 3d c7 21 fa bd
       0.03005577 0.04143201 0.08240307 -0.12213474
000140 8b f1 01 3e 9b 23 10 bb 20 8d 4e be a6 c0 a8 3b
       0.12689798 -0.0021993879 -0.20171022 0.0051499186
000150 91 c5 5e 3d 73 67 0a bc 66 60 3c be 43 15 01 be
       0.054387633 -0.008447516 -0.18396148 -0.12605767
000160 6f 5d 88 3d fc da 38 3b f6 24 98 bc f1 94 05 3d
       0.06658446 0.0028206697 -0.018572312 0.032612745
000170 0f f9 2c 3d 77 49 22 bd 28 44 13 3e 0b 5d cd bc
       0.04222971 -0.039620843 0.14381468 -0.02506878
000180 98 35 3d 3e 44 27 32 bd 91 4b 25 bd 4b a8 86 3c
       0.18477476 -0.043494478 -0.04035527 0.01643767
000190 74 a7 36 3c 13 bf ec bc 44 53 49 3e 3a 87 26 be
       0.011148322 -0.028899705 0.1966067 -0.16262522
0001a0 cd 69 4c 3e 83 fe a8 3d 30 94 08 bd 34 33 3c 3d
       0.19962235 0.08251669 -0.033344448 0.04594727
0001b0 26 a0 47 be 40 ab 44 3e f0 9e 80 3d 44 5e 62 bd
       -0.19494686 0.19205952 0.06280315 -0.05526568
0001c0 c2 de 1a be 39 89 19 bb 7a 7b 3e bc 44 ae b5 bd
       -0.15124038 -0.0023427738 -0.011626119 -0.08871129
0001d0 52 3b 59 bc be 68 00 3d f7 97 08 be 43 c0 c8 bd
       -0.013258772 0.03134989 -0.1333922 -0.09802296
0001e0 70 0b a4 bc 1e f4 cd bd d3 22 aa 3d 0c 75 15 3e
       -0.020024985 -0.10056327 0.083074234 0.14595431
0001f0 44 30 c3 bd 8f 30 97 bd eb d8 a4 bc f1 ba 41 bd
       -0.0953069 -0.07382309 -0.020122966 -0.04729742
000200 ae 8a 06 bd 68 a7 13 3e 0f 9e 3d be a8 de 77 3c
       -0.0328471 0.14419329 -0.18517326 0.015128769
000210 21 66 19 bd bd ff 64 bc a1 f1 94 3c 24 7c 07 3c
       -0.037450913 -0.013976988 0.018181624 0.0082693435
000220 3c ad 3a bd 75 ff c0 3d a5 27 eb 3d 9f 60 9b 3c
       -0.045575365 0.094237246 0.11482171 0.018966971
000230 06 4e 37 3c e3 61 f6 3d 67 a2 34 3d 4d 71 ce bc
       0.011188036 0.12030389 0.04410019 -0.02520051
000240 68 c8 08 3b 6c 06 5a bd 1e 19 a2 3c 54 ae 2a be
       0.0020871405 -0.05322878 0.019787367 -0.16668063
000250 7e a1 af 38 8f d9 48 bc 11 53 2c 3d 6e ec 7c bc
       8.3747305e-05 -0.012258901 0.042071406 -0.015437229
000260 81 49 09 be 15 e4 be bc b9 79 4d 3d 0b 5e af bc
       -0.13406946 -0.023302117 0.050164912 -0.021407148
000270 54 06 d5 3d f5 e5 ca bd 93 d2 09 3d 98 16 86 bd
       0.104015976 -0.09907142 0.033648085 -0.06547278
000280 5e ab 18 3e 72 8f da 3c e5 c3 c0 3d d0 12 bc b9
       0.14909121 0.026679728 0.09412364 -0.0003587217
000290 1f 94 30 bd 1a 45 11 3e dc cb be bd 18 75 a6 3d
       -0.04311001 0.14186516 -0.09316227 0.081278026
0002a0 4e f9 40 be 9e 5f 88 bb fe 4b 9a 3d a1 ad ec bd
       -0.18845102 -0.004161789 0.075340256 -0.115565546
0002b0 40 3c 25 be 59 c2 13 be 0d 0e 33 3d 01 95 3a bc
       -0.16136265 -0.14429606 0.04371457 -0.011388064
0002c0 5b 0c 60 bd 8e ed 5f bd 98 61 62 3d e8 d7 32 3e
       -0.054699283 -0.05466991 0.055268854 0.17465174
0002d0 9d d3 90 3b 7d 86 f0 bd 73 00 95 bd 5c 24 22 bd
       0.0044197575 -0.117444016 -0.07275476 -0.039585456
0002e0 08 48 54 3b a2 f3 4d bd 2e d8 7e 3d 66 f9 b2 bc
       0.0032391567 -0.050281174 0.062217884 -0.021847438
0002f0 0c 69 12 3e ee 68 a0 bd 69 39 40 3e 91 2d 03 3d
       0.14297885 -0.07832514 0.187719 0.032025877
000300 2d c7 38 3e bd 10 39 be 24 36 b1 bd ed f4 f3 bd
       0.1804473 -0.18072791 -0.08652905 -0.1191195
000310 67 f1 0c 3d 48 40 15 bb 62 b7 f2 3d 0e a7 93 3d
       0.034409907 -0.002277391 0.11851384 0.072095975
000320 57 70 f7 3c 04 2d 8a bd b3 10 5c 3c 15 b5 17 3e
       0.030204935 -0.06746867 0.013431716 0.14815171
000330 db 6c 31 3e 01 e1 b1 bc f7 20 87 3d 40 a8 20 bc
       0.17326681 -0.021713736 0.065980844 -0.009805739
000340 d0 99 6b bd 33 42 26 3e 25 ff 12 bd d2 c8 48 bd
       -0.057519734 0.1623619 -0.035887856 -0.049019642
000350 a9 9a d3 bc e1 88 79 bd 21 49 25 3d c0 1d a5 bc
       -0.025830584 -0.060921554 0.040352944 -0.020155787
000360 ab 89 a5 bd 39 46 dd bc 4a c8 1f be 48 81 37 bd
       -0.08082899 -0.027011024 -0.15603748 -0.044801027
000370 45 97 1d 3d 0b bc 3b 3e fc 61 9e 3b e0 00 95 3d
       0.03847434 0.18333451 0.004833458 0.072755575
000380 b6 a0 0e bd 2c be 9d bc 8b f8 4f bd c2 e9 8d bc
       -0.034821235 -0.01925572 -0.05077414 -0.017323378
000390 fd 44 0f 3d 02 d0 0d bb 24 5b cd bd 3f 91 f6 bd
       0.0349779 -0.0021638875 -0.10027149 -0.12039422
0003a0 8e b9 f3 3d e0 32 2f 3e 32 ce bf 3c f7 38 18 3e
       0.11900626 0.17109251 0.023413751 0.1486548
0003b0 a4 54 ee bc 25 45 56 3d 99 f6 ab bc 19 6a 24 be
       -0.029093094 0.052312035 -0.02099161 -0.16056098
0003c0 ef 61 58 bd dc ec 1f be 23 f7 8b 3d df 82 c5 3d
       -0.05282777 -0.15617698 0.06834247 0.09644102
0003d0 90 5c 05 3e 22 33 a6 bd f2 79 90 3b e2 8b 1a bd
       0.13023591 -0.081152216 0.0044090683 -0.03773106
0003e0 54 a4 bb 3d 82 5d d3 bd bf 0f 44 3e 58 2b 1a bc
       0.091622025 -0.103205696 0.19146632 -0.009409748
0003f0 d6 61 de 3d c8 66 15 bb 5b e8 d6 bc bf 3f de bc
       0.108585045 -0.0022796858 -0.026233843 -0.027130006

model.rnn.weight_hh_l1 f4 [240, 60]
000000 f9 90 2e be 5e ab 89 3a 2d 51 1c 3e bc ad 09 be
       -0.1704749 0.0010503342 0.15265341 -0.1344518
000010 15 2e e3 bd 71 fe f1 3c a2 e8 c2 3c e3 22 4c bc
       -0.11092774 0.029540272 0.023792569 -0.0124594895
000020 67 41 26 be b5 14 87 3d b4 b3 22 be 11 d4 1c 3d
       -0.16235887 0.065957464 -0.15888864 0.03828818
000030 ce d6 7f bd bb 34 a4 3b 71 84 ef bd 90 e6 34 3c
       -0.062460713 0.005011169 -0.11695183 0.0110412985
000040 98 1d 2b bd 2f db 1a bd 99 da 5b 3c e9 5d 31 be
       -0.04177627 -0.037806686 0.013418817 -0.1732098
000050 70 cb 1d bd 8b 17 16 3d d4 ae c1 3c 7f f7 c3 bd
       -0.03852409 0.036643546 0.023642935 -0.095686905
000060 49 91 22 3e 66 41 3f bd f7 8e 1c bd fa 30 9d 3c
       0.15875734 -0.04669323 -0.03822228 0.019188393
000070 6a 1c a7 bb 8e df b9 3c 4d b4 04 bc f4 22 cd 3d
       -0.0050998228 0.022689607 -0.008099628 0.100164324
000080 9f 5e c9 3d 42 01 02 3e 6e 57 e1 3d d0 1b 01 be
       0.09832501 0.12695792 0.11003004 -0.12608266
000090 6b 40 09 be 64 b9 1d bd 2f 70 2a 3e 7a a3 35 3e
       -0.1340348 -0.03850688 0.16644357 0.17738143
0000a0 5b 88 f0 bc 40 1f 2d 3d 5c 13 ae ba ba 65 27 3e
       -0.029361894 0.04226613 -0.0013280916 0.163474
0000b0 d3 1e 57 bc f1 c5 ce 3c 04 fc 2c bd 56 2e 89 bd
       -0.013129908 0.02524087 -0.04223253 -0.06698291
0000c0 7b 3f 35 be 9c ba d8 3c 2a 9e 40 bd 6f 32 0c 3c
       -0.17699997 0.02645617 -0.047025837 0.008556946
0000d0 35 70 88 bd c9 51 b3 bc 46 3d 59 be e4 1b 80 3d
       -0.06662027 -0.021889584 -0.2121478 0.0625532
0000e0 8c 54 39 be b2 a0 d4 bd 99 2b f9 bc fe 10 16 3e
       -0.18098658 -0.10382213 -0.030416297 0.1465492
0000f0 d3 6a 37 be 6f 9f 72 3d ff ce 9d 3d c8 26 a4 bd
       -0.17911844 0.05923408 0.07705497 -0.080152094
000100 79 6f 00 be 09 09 11 3e 2d f2 2d 3e 46 cb 3a 3e
       -0.12542523 0.14163603 0.16986914 0.18241605
000110 73 01 35 be 34 ec 2e be c0 70 3e 3c e1 80 54 3d
       -0.17676334 -0.17082292 0.011623561 0.05188072
000120 20 e6 5a bc cf a7 04 be 6e 9e e0 3d 06 24 91 bd
       -0.01336053 -0.12954639 0.10967718 -0.07086949
000130 02 51 99 bd d5 de 30 bb 80 b7 c7 bc 09 95 58 be
       -0.07486154 -0.0026988287 -0.024379492 -0.21150602
000140 96 24 88 bd c6 1b 57 bd a1 9c ac 3d e7 c0 2a be
       -0.06647603 -0.05251672 0.08428312 -0.16675149
000150 fe 51 d3 3c 97 bd 65 3d 7d 99 17 3d 90 8c a7 3d
       0.025795933 0.05608901 0.037011612 0.08181107
000160 0a df 1a bc 0d 33 4d bd 6a e5 35 be ab 58 0c 3d
       -0.009452591 -0.050097514 -0.17763296 0.034264248
000170 15 c6 dc 3d 91 64 32 3e 66 ad f4 3d af 28 46 bd
       0.10779969 0.17421176 0.119471356 -0.048378643
000180 af 4d 5f bd 50 1c 77 3c 1c 2e bf bd 48 b9 ce 3d
       -0.054517444 0.015082434 -0.093349665 0.10093933
000190 1c 36 c5 bc b7 b4 d6 bd 78 e4 00 3d fa f8 55 3e
       -0.024073653 -0.10483687 0.031467885 0.20895758
0001a0 de d8 f9 3a 8d 0e 00 be dd cc 06 3e fb 7c 3b be
       0.0019061824 -0.1250555 0.13164087 -0.18309395
0001b0 1a 5b 0c be b3 11 c3 3d e8 03 97 bd 15 49 2f be
       -0.13706627 0.0952486 -0.07373792 -0.17117722
0001c0 92 86 b6 bc 55 10 20 be 6d c1 5a 3c 0f 86 56 3e
       -0.022280965 -0.1563123 0.01335178 0.20949577
0001d0 3f 9b 7f bd 94 29 fc bc a3 b2 4e 3c 87 c4 2e 3e
       -0.062403914 -0.030781545 0.0126158325 0.17067157
0001e0 37 9c ca 3d 03 01 87 3d 40 e8 0f bc 79 09 b1 bd
       0.09893077 0.0659199 -0.0087834 -0.08644385
0001f0 ee 72 92 bd a8 2e 64 bd 21 c7 45 bd 6b 12 67 bc
       -0.07150827 -0.055708557 -0.048285607 -0.014103512
000200 36 f4 86 3d 02 e7 b4 3d 83 79 a4 bd 81 c7 9f bd
       0.06589548 0.08833124 -0.08030989 -0.07801724
000210 e2 3e db 3d 7c bc 94 3b 07 7a f5 bc b7 81 93 bc
       0.10705353 0.0045390707 -0.029965414 -0.018006189
000220 fb db fc bd 81 5c f8 bd 50 03 6e bd 67 71 a0 bd
       -0.123466454 -0.12127019 -0.058108628 -0.0783413
000230 3d 41 e1 bd 1b b8 04 bd 9a 3c 93 bd 23 37 87 bd
       -0.10998771 -0.03240214 -0.07189293 -0.06602313
000240 a8 60 ab 3d 13 2b 05 3e 9b b0 b7 3d 38 30 ad 3d
       0.08368045 0.13004713 0.08969232 0.084564626
000250 50 f7 a0 3d 7c 13 89 bb 0a 16 81 3b 76 bb f2 bd
       0.07859671 -0.004183231 0.003939395 -0.118521616
000260 7a c2 ec bd f0 69 d4 bd 68 b3 be 3d c2 b5 ed 3c
       -0.11560531 -0.103717685 0.09311563 0.029017333
000270 67 33 94 bd 11 1b 1f bd 0f b7 ae bd d4 3d de bd
       -0.07236367 -0.038844172 -0.085310094 -0.108516365
000280 ff bb d0 bd 68 93 8a bd 0a 75 7d 3d 73 c4 39 3d
       -0.101921074 -0.06766397 0.061879195 0.045353364
000290 9a 25 d8 3d 38 ba 7e bd 7d 1b b8 3d d6 9c f6 bd
       0.10554047 -0.06218931 0.08989618 -0.12041633
0002a0 51 a3 d5 3d 08 0c e0 3d 37 9b 8d 3d f8 95 dc 3d
       0.10431541 0.10939795 0.069143705 0.10770792
0002b0 8a e2 76 3d 32 10 dd 3d d9 99 48 3c bd b0 c1 3d
       0.06027464 0.10794105 0.012243711 0.09457538
0002c0 38 f0 ae 3d 30 38 89 3d 2a 05 55 bd 8e 0a 3c 3d
       0.08541912 0.0670017 -0.052006878 0.045908503
0002d0 1b b5 02 be 78 d1 1c bd 40 06 2f 3d ec 34 a2 3d
       -0.12764399 -0.038285702 0.04273057 0.0792025
0002e0 82 48 74 3d 38 d5 ab bd 60 8c 40 bd 38 fc 78 3d
       0.05963946 -0.083902776 -0.047008872 0.06078741
0002f0 fa 85 50 3d 2c fa 68 3d 08 df b4 bd f4 20 f8 3d
       0.05090902 0.056879207 -0.08831602 0.1211566
000300 60 cd 09 be e6 28 1e bd 4c 78 bf bd e7 1b ea bd
       -0.1345725 -0.038613223 -0.09349117 -0.11431103
000310 7e 5d 9f 3d 80 95 7d 3d 0a 9b 85 bc d0 85 64 bb
       0.07781504 0.061910152 -0.01630928 -0.0034869798
000320 d7 84 5f 3d e0 e8 fe bd 7e 3c a0 3d ce fa 92 3d
       0.054570045 -0.12446761 0.07824038 0.071767434
000330 88 cf 7a bc 0a dc e1 3d 94 1c bf 3d ed 47 ee 3d
       -0.015308268 0.11028297 0.09331623 0.116348125
000340 5c 92 42 bc 76 6a 7a bd 7b 7c 4d 3d 4c 2d 2a 3d
       -0.011875715 -0.061136685 0.050167542 0.041547105
000350 77 c9 98 3d af 88 01 3e 14 eb fc bd 54 b4 6c 3d
       0.07460301 0.12649797 -0.12349525 0.05778916
000360 ca e0 9f 3b 59 be e7 bd 0c ef b9 bd f0 6c 0e 3e
       0.004879092 -0.11315603 -0.09078798 0.13908744
000370 43 59 a4 bd 2f 69 a1 bc f8 d1 fe bb 8c 97 11 bd
       -0.08024838 -0.019703476 -0.007776495 -0.035544917
000380 0e f1 c0 3d 6e ef 03 bc fc 98 aa bd 58 fe a8 bd
       0.094209775 -0.00805269 -0.08329961 -0.08251637
000390 c3 83 ed 3d 5f 2f cb bd b4 1a 66 bd 00 60 af 3d
       0.11597397 -0.09921145 -0.05617781 0.085632324
0003a0 e4 ca 85 bd 9c 84 fc bc ec 6a a7 bd 67 d7 30 bd
       -0.06532839 -0.030824952 -0.081746906 -0.043174174
0003b0 d5 2d e3 3c d6 c1 20 be de d1 10 3e ae 6f 1b 3d
       0.027731815 -0.15698943 0.14142558 0.037948303
0003c0 c9 74 7d 3d 79 c3 18 bd a6 c7 87 3d e0 e0 5f bb
       0.061878953 -0.037295792 0.06629877 -0.0034161136
0003d0 c0 11 3f 3d 85 72 96 bd 99 a5 0c 3e 0a 4a e1 3c
       0.046647787 -0.073460616 0.13735045 0.027501125
0003e0 48 15 ca bd 8b 84 b5 bd 47 00 ce bd 1a 72 7c bd
       -0.0986734 -0.08863171 -0.10058647 -0.061632253
0003f0 ea 9f 36 3d e1 2f 05 bd 23 0c aa bd 8a 45 ef bd
       0.0445861 -0.032516364 -0.08303096 -0.116831854
