checkpoints/epoch=1-step=100-v31.ckpt (torch, 621663 bytes, 33 tensors)

model.param_proj.proj.0.weight f4 [1, 60]
000000 e7 48 9e 3d d8 76 4d be a8 62 05 3c df 52 f9 bc
       0.07728749 -0.20064867 0.008141197 -0.030435024
000010 07 df ab bd 8a 10 86 bd 4a dd c0 bd 1c 14 c3 bd
       -0.083921485 -0.06546123 -0.094172075 -0.0952532
000020 dd 67 47 3e 0d fc f0 3d b4 a0 9b 3d b8 78 5a bc
       0.19473214 0.11766825 0.07599011 -0.013334446
000030 6f b4 14 3e 79 ca 05 bb 36 69 b8 bc 6f 20 61 3e
       0.14521955 -0.0020414873 -0.022511106 0.21985029
000040 08 83 2b b9 2d 86 4f be fd 90 3a 3e f3 31 62 3d
       -0.00016356644 -0.20266028 0.18219371 0.055223417
000050 3a cc 05 be c0 53 cb 3d b7 b5 3a 3c 13 bc 1d 3d
       -0.13066188 0.099280834 0.011395863 0.03850944
000060 61 71 ee 3c f5 9e c0 bd b6 40 f4 bd 22 74 e3 3d
       0.029106798 -0.09405319 -0.11926405 0.11106135
000070 40 5a 2b 3e 48 04 27 3e 9c 0f 14 be 4c 38 ab 3d
       0.16733646 0.16310227 -0.1445908 0.08360347
000080 9d 43 81 bd 57 49 11 3e cb 98 a8 bd 95 b6 f1 3d
       -0.06311724 0.14188133 -0.08232268 0.11802403
000090 2b f3 2c be 88 65 24 3e 0b 8c 5a 3e ef 82 30 be
       -0.16889636 0.16054356 0.21342485 -0.17237447
0000a0 c2 c7 17 be bd f2 ce 3d 93 59 c4 3c 88 51 b0 bd
       -0.14822295 0.101048924 0.023968494 -0.08609301
0000b0 06 02 88 3d 59 24 48 be dd f2 60 3e 99 e1 a8 3c
       0.06641011 -0.19545116 0.21967645 0.020615386
0000c0 82 e2 a8 3d be 55 13 3e 05 d0 d6 bd 83 e6 0d be
       0.08246328 0.14388177 -0.10488895 -0.13857464
0000d0 53 98 2e bd c8 56 90 bd 6b c8 c6 3d 5e f5 e6 bd
       -0.042625736 -0.07047802 0.097061954 -0.11277269
0000e0 7a 63 3c 3e dc 2e 6e be b3 b9 03 3e 04 14 9b 3c
       0.18397322 -0.23260063 0.12863807 0.018930443

model.param_proj.proj.1.weight f4 [1, 60]
000000 d4 f9 2f be e1 1d 06 be ed cf 6c bd ab 20 e6 bc
       -0.17185146 -0.13097335 -0.05781548 -0.02809175
000010 68 a1 9a 39 77 0b d2 bb 54 11 c2 3d 6a d1 24 3e
       0.00029493426 -0.006410058 0.09475961 0.1609551
000020 a4 4e a8 bd 89 87 19 3d 7a e9 a7 3d b3 dc 71 3d
       -0.082181245 0.037482772 0.08198829 0.059048366
000030 8e bf 95 3d 59 4d 50 3e 6f bf a9 bd a1 5e ea 3d
       0.07311927 0.20342006 -0.08288466 0.1144383
000040 d8 fb a0 3d 6f a2 97 bd 84 b1 8e bc ac 09 42 3e
       0.078605354 -0.074040286 -0.01741863 0.18949002
000050 9f 08 78 3d 86 ec 22 be 15 67 10 3e c3 ce 17 3e
       0.060555097 -0.15910539 0.14101823 0.14824967
000060 31 34 22 3e f4 50 06 be 0c 9d ed bd 38 51 d6 3d
       0.15840222 -0.13116819 -0.1160222 0.1046471
000070 fe 6e 31 be 47 73 85 3d b3 18 14 be 94 ad 20 bc
       -0.17327496 0.06516128 -0.14462547 -0.009807009
000080 b4 32 26 be c2 4f 84 bd 96 fe 3a bd 01 a4 13 be
       -0.16230279 -0.06460525 -0.04565295 -0.14418031
000090 d4 c6 d2 3c c2 7d 3e 3e c3 7e 49 bb 16 b9 88 bc
       0.025729574 0.1860266 -0.0030745722 -0.016689818
0000a0 99 71 27 be 13 06 28 be bd 8a fd bc 4a 3c 6c 3d
       -0.16351928 -0.16408567 -0.030949945 0.057674684
0000b0 a3 40 31 bb a6 21 26 be 7d c8 24 be 01 f3 21 be
       -0.0027046583 -0.16223773 -0.16092105 -0.15815355
0000c0 c6 22 31 be 08 ab b3 bd b2 88 ca 3d e1 8c 00 be
       -0.17298421 -0.08772856 0.09889354 -0.12553741
0000d0 07 96 4e 3e 03 37 07 3e e1 ff 0a 3d c3 af 42 3e
       0.20174418 0.13204579 0.03393543 0.1901236
0000e0 30 af 04 3e bf 7f 2b 3e ac ff 23 3e a2 39 2d 3e
       0.12957454 0.1674795 0.160155 0.16916516

model.param_proj.proj.2.weight f4 [1, 60]
000000 a6 d6 86 3d f7 9f c0 3c d8 18 99 3d 28 4c ff bd
       0.0658391 0.023513777 0.07475442 -0.124656975
000010 2b 53 d6 3a 24 f8 66 bd 45 dc a3 3c d8 90 d4 3d
       0.001635169 -0.05638899 0.020002494 0.10379189
000020 e4 16 80 bd d9 a9 0c bd bd 52 5f 3d 45 84 04 be
       -0.06254366 -0.034341667 0.054522265 -0.12941082
000030 2d 44 86 bd 78 c6 90 3d 9a b0 a5 bd 9e e3 79 3d
       -0.06555972 0.07069105 -0.08090325 0.06100809
000040 93 44 c1 bd 11 da 76 bd 83 16 61 bc 68 a3 93 3d
       -0.094369076 -0.060266558 -0.013738277 0.07208902
000050 51 0b b7 bd fc 50 7d bd c6 80 ae bd 62 29 86 3d
       -0.08937705 -0.06184481 -0.08520655 0.06550862
000060 80 6f 73 3c f0 8b 02 be 09 bb 93 bd 74 a5 88 3d
       0.014858127 -0.12748694 -0.072134085 0.06672183
000070 50 2c f3 bc 2b 88 08 3c dc 2a 99 bc 13 a1 af bd
       -0.029684216 0.008333246 -0.018697195 -0.08575644
000080 5d 8e 1f bd b8 23 57 3d 66 cf 66 3d e0 0e 07 3c
       -0.038954128 0.0525243 0.056350134 0.008243293
000090 f7 9a 83 bd f0 a6 9a 3c 32 d7 9e 3d 54 19 07 bd
       -0.064260416 0.01887843 0.07755889 -0.03298314
0000a0 05 cd a6 bd 3e f8 b4 bd e1 41 d7 3d 3b 0a 09 3e
       -0.08144573 -0.08836411 0.10510612 0.13382809
0000b0 a9 cd 74 3d 00 63 a4 3c 1e 1e a8 bd 19 e6 da 3d
       0.059766445 0.020066738 -0.082088694 0.10688419
0000c0 77 fc cc 3d be 2d cb 3d eb cb 9a 3b 5c 67 6a bd
       0.10009091 0.09920834 0.004724016 -0.057227477
0000d0 15 74 88 3d 8a 10 8f bd 82 16 85 3d 12 27 f5 bd
       0.06662766 -0.069855765 0.06498434 -0.11970343
0000e0 45 94 4a 3c b6 42 a0 3d 89 fe 66 3d 08 18 00 3c
       0.012364452 0.07825224 0.056395087 0.0078182295

model.rnn.weight_ih_l0 f4 [240, 24]
000000 43 81 27 bd 46 01 25 be bf 9e 85 bd 49 d3 8e bd
       -0.040894758 -0.16113767 -0.06524419 -0.06973893
000010 ab fb 4a 3c dc 84 35 3b 3d 2d f7 3d 81 fe 2b bd
       0.012389104 0.0027697599 0.120691754 -0.04199076
000020 ca 6c 81 bd 67 dc 09 3d d8 26 87 bd ea ba 4a 3d
       -0.06319578 0.033657458 -0.06599206 0.04949466
000030 cd 38 8e bd 41 6a 19 bc 1d 1f c2 3d 58 a0 73 3b
       -0.06944428 -0.009363712 0.09478591 0.003717443
000040 03 a7 9b bc 47 5c ca bd 53 05 f6 bd d8 3b b5 bd
       -0.019000536 -0.09880882 -0.12012734 -0.08849305
000050 8c 8d 79 bd be fb 82 3d df af c1 bc 58 43 1e 3e
       -0.060926005 0.06395672 -0.023643432 0.15455377
000060 c5 35 c2 3d 93 0d 73 3c 21 7b 2a bd 65 e2 57 3d
       0.09482912 0.014834779 -0.04162133 0.05270614
000070 cb 04 53 bd 90 6c ef bd ca 25 a5 bd c0 7f 8a bd
       -0.051518243 -0.116906285 -0.08063848 -0.06762648
000080 6a ec ff bd b7 b2 cf 3c 2b 10 0f bd ef cf de bc
       -0.12496264 0.025353773 -0.03492753 -0.02719876
000090 4a c5 04 be 32 e9 00 3d 28 c9 3f 3d f0 27 31 3e
       -0.12965885 0.031472392 0.046822697 0.17300391
0000a0 74 6b 72 bd 15 19 d3 bd 02 07 a8 bd a0 27 38 3d
       -0.059184507 -0.103075184 -0.08204462 0.044959664
0000b0 a8 d3 06 bd 13 80 47 3b dc 5e 98 3d 8e 69 55 bd
       -0.032916695 0.0030441328 0.07439968 -0.052102618
0000c0 67 44 ff 3d c9 e3 11 bd 4c 72 af bd 89 37 99 bd
       0.124642186 -0.035617623 -0.08566722 -0.074812956
0000d0 b0 70 80 3c 51 5c 62 3d e8 e9 18 be 24 2e a5 3c
       0.015678734 0.05526382 -0.14932978 0.020163603
0000e0 32 b4 fa bc 24 ad 1c 3d 85 5e ae bc 69 51 d9 bd
       -0.030603502 0.038251057 -0.021285305 -0.10611231
0000f0 52 3e 06 be 08 ba e4 3d 92 45 94 bd 9c c1 08 3e
       -0.13109711 0.11168295 -0.07239832 0.13355106
000100 86 5c 91 bd 5f 7b a0 bd a3 9d 0d be 74 9a 47 3c
       -0.070977256 -0.07836031 -0.13829665 0.012182821
000110 10 c4 16 bb 00 69 45 bd 2d 88 c3 3b ed 76 ec 3d
       -0.0023005046 -0.04819584 0.005967161 0.11546121
000120 5e 09 26 3e 51 e0 56 be f0 7b 39 3e ab df 6f bd
       0.16214511 -0.20984007 0.18113685 -0.058562916
000130 9e 02 c9 3c 44 50 1f bd fa b5 f8 bc a1 7a 10 3d
       0.02453738 -0.038894907 -0.03036021 0.035273198
000140 b5 3d 29 be 1a ff 23 3e 03 95 d5 3c 11 a5 06 3e
       -0.16527446 0.16015282 0.02607203 0.13148905
000150 6c 98 80 3d 2c ab c2 ba d2 3b bf 3c bf 81 f4 bd
       0.06279072 -0.0014852039 0.023343954 -0.119388096
000160 43 a3 6b bd dd 01 e1 3d 9e ab 19 3d 83 80 7f bd
       -0.057528745 0.109866835 0.037517183 -0.062378418
000170 08 88 c6 bd 6d de 4b bd 4f cc 89 3c 1c b5 b7 bd
       -0.09693915 -0.04977267 0.016821055 -0.08970091
000180 27 68 77 3d 3b 96 5f bd 3b 12 d1 bd eb 7c 4b bd
       0.06040206 -0.05458663 -0.10208555 -0.049679678
000190 a6 d6 50 3d 24 35 18 bc 45 07 89 3d dc 54 ad bb
       0.050985955 -0.009290013 0.0669084 -0.005289657
0001a0 af 7f ec bc a8 e3 83 bc 36 8a 8f 3d f8 e0 a0 bc
       -0.028869478 -0.016099766 0.070087835 -0.019638523
0001b0 57 3d 48 3d 40 40 dc bd 9d 91 2a 3e a0 1c c4 3d
       0.048886623 -0.10754442 0.1665711 0.09575772
0001c0 95 12 37 bd d6 88 c3 bd 52 2c b5 bb dd c7 e1 3d
       -0.044695456 -0.09547584 -0.005528965 0.11024449
0001d0 d1 12 f1 bd 19 e0 59 bd e7 ea 4a 3d 3b 90 f1 bd
       -0.11771167 -0.05319223 0.049540427 -0.11795088
0001e0 d3 de 34 bd 1c 00 1e 3d 64 44 c3 3c 84 24 98 bd
       -0.044157814 0.038574323 0.023836322 -0.0742884
0001f0 6e f6 1c be 0b 07 b9 3d 35 d2 1f 3e 4c f3 c9 bd
       -0.1532838 0.090345465 0.15607531 -0.09860858
000200 99 5c 1d be 70 be f4 bd 6b 44 a3 bd 3f 01 64 bc
       -0.15367354 -0.119503856 -0.07972034 -0.013916313
000210 0f 50 2c be e7 04 1e bd c5 7c ac bc 47 fa 4b bd
       -0.16827415 -0.038578894 -0.021055588 -0.04979923
000220 f5 5d cf 3d da 86 44 3d a8 4d 83 bd 88 25 23 bd
       0.10125343 0.047980167 -0.06411296 -0.039830714
000230 89 c6 33 3d bc b8 13 3e 15 46 82 bd 01 18 62 3b
       0.04389051 0.1442594 -0.06361023 0.003449917
000240 70 3f c3 3d ea cf 44 bd 56 90 9f 3d 4c 4f 14 3e
       0.09533584 -0.048049845 0.07791202 0.14483374
000250 a8 0e d0 bd 86 3e 03 be 23 2e 00 be c2 d7 a1 3d
       -0.101590455 -0.1281682 -0.125176 0.07902481
000260 a2 25 45 bd ab 21 10 bd 27 cc ef bd 0d 72 0e be
       -0.048131593 -0.03518836 -0.11708861 -0.13910694
000270 13 73 ff bd 62 0d a8 bd c8 c1 c5 3d 3b 0c 37 3e
       -0.124731205 -0.082056776 0.096561015 0.1787576
000280 f6 6b b4 3d cd b9 f5 bc 77 d7 07 be 60 35 85 3c
       0.088096544 -0.029995823 -0.13265787 0.016260803
000290 27 ab 89 bd e4 56 cc 3d 62 96 30 3d d0 e3 1f bd
       -0.06722098 0.099775106 0.043112166 -0.03903562
0002a0 36 ba a8 bd d3 db 99 3d 1f ea 90 bc 03 4a 4e 3c
       -0.08238642 0.07512631 -0.017689763 0.012590888
0002b0 8f 47 12 bd 1a b1 92 3d 2e 71 f3 bd d8 e1 d8 3d
       -0.035712775 0.07162686 -0.11886822 0.10589951
0002c0 12 95 66 3d 86 54 22 3d 23 11 89 3d 65 69 1a be
       0.05629451 0.03963139 0.06692722 -0.15079267
0002d0 ee 9e 14 3e b9 19 14 3d 6a 2c 26 bd 11 0e d7 3b
       0.14513752 0.036157344 -0.0405697 0.006562956
0002e0 85 cd 13 3e 0d ba 5c bd 27 e0 af bd 06 ce 15 3d
       0.14433868 -0.05388837 -0.085876755 0.036573432
0002f0 7c 29 10 3d b3 92 75 3c 55 01 e4 bd 6b f9 b3 bd
       0.035195813 0.014988589 -0.111330666 -0.08787807
000300 1d cd 2b 3d 55 a8 45 bd 12 5d 7e 3d 23 02 cf 3d
       0.04194366 -0.048256237 0.062100478 0.101078294
000310 1c 7c 83 bd 4d c5 32 3d 60 83 53 38 c7 7a 10 3e
       -0.06420156 0.043645192 5.0428673e-05 0.14109336
000320 d3 6a 54 3c b3 35 97 3d c4 f0 66 be 29 6c dc bd
       0.012964922 0.07383289 -0.22552782 -0.107628174
000330 1f 55 0f be 85 7c 32 3d 75 77 89 bd 22 0d 28 bc
       -0.13997315 0.043575782 -0.06712238 -0.010257037
000340 0a 43 84 3d de 7f 9f 3c d8 b8 15 be 7d d3 c1 bc
       0.06458099 0.019470152 -0.14621294 -0.023660416
000350 41 5a f9 bd 2c 4c 10 3e ad d8 fd 3d b5 92 66 3d
       -0.12175418 0.14091557 0.12394843 0.056292254
000360 2b 39 d6 3d d1 d0 26 be 32 d9 a0 3c 40 25 7e bd
       0.10460123 -0.16290595 0.019634817 -0.062047243
000370 b0 6d e1 3c 28 49 a8 bc 46 98 50 be d9 ab 5b bd
       0.027518123 -0.020542696 -0.20370588 -0.053630684
000380 66 ba 82 3c 6f b4 58 3d 04 b2 ee 3a 55 85 7f bd
       0.015958022 0.05290645 0.0018211012 -0.062383015
000390 05 a3 e3 bd 44 a4 54 bd 50 16 8a 3c 12 0d 4e 3d
       -0.11115078 -0.05191447 0.016856343 0.050305434
0003a0 b6 30 6e bc cd 21 14 3e a1 73 51 3d 58 00 e6 bd
       -0.014537981 0.14466019 0.051135663 -0.11230534
0003b0 55 2b 8d bd b0 8f 1f be c7 54 16 3e 48 08 bb 3c
       -0.068930306 -0.15582156 0.14680777 0.022831097
0003c0 51 9d bd bd 95 e3 a7 bd 9e f4 2f be ab af 58 bb
       -0.09258521 -0.08197705 -0.17183158 -0.003306369
0003d0 8d 0d a9 3c fe 86 71 3c 0f 1c 18 bd b4 be 90 bd
       0.020636344 0.014741657 -0.037136134 -0.07067624
0003e0 4b 93 97 3d eb 5c 0b be f8 2d dc 3c 47 2b 64 bc
       0.07401141 -0.13609664 0.026877388 -0.013926334
0003f0 9f 25 70 3d e8 92 00 be f8 a0 b9 3d 67 6b 83 3c
       0.05862963 -0.1255604 0.090639055 0.016042424

model.rnn.weight_hh_l0 f4 [240, 60]
000000 74 9e a1 bd f4 52 ff 3c 38 0d a8 bd 1c be a9 3d
       -0.07891551 0.031167485 -0.08205646 0.082882136
000010 26 98 ae bd cc b0 65 bc e4 fe 99 bd 98 e7 ca 3d
       -0.08525114 -0.014019202 -0.0751932 0.09907454
000020 51 cc 07 3e 02 b8 81 3d 7c 63 2d bd fb 5e 34 bc
       0.13261534 0.06333925 -0.042331204 -0.011008973
000030 08 a6 c3 bd fb 1f 89 3c c9 6e 56 bd fb 51 a9 bd
       -0.09553152 0.016738882 -0.052351747 -0.0826759
000040 7a c6 5d bd 6e 83 c2 3c 52 84 a8 bd 6c ff 4d 3c
       -0.05414436 0.023744311 -0.08228363 0.012573104
000050 bb 3f 79 bc f0 b7 f7 bc 3e d9 82 3d e2 9b da 3c
       -0.015212948 -0.030239075 0.06389092 0.026685659
000060 37 c0 a9 3b 24 22 c7 bd 4a 10 c9 bd 17 cd 8d 3c
       0.0051803845 -0.09723309 -0.0981756 0.017309709
000070 e2 17 1a be a3 eb bf bd b3 0a a8 bd 9c 58 01 3e
       -0.15048173 -0.09371116 -0.08205166 0.12631458
000080 c6 a0 13 bd 0a 22 7f bd af 50 d9 bd ea 3b 5a 3d
       -0.036041997 -0.06228832 -0.10611092 0.053279795
000090 b1 12 85 3d 03 42 c4 3c 7d f8 18 3e 11 4d 17 be
       0.06497706 0.023957258 0.14938541 -0.14775492
0000a0 80 22 f1 bd 34 89 bf 3c 7f 19 80 bb 20 a6 b6 bd
       -0.117741585 0.023380853 -0.0039092894 -0.089184046
0000b0 d8 3f 07 3d 8c b7 4d bb 7f eb 07 3e ef 2e b5 bd
       0.03301987 -0.003138992 0.13273428 -0.088468425
0000c0 1d 00 09 3e 12 2f 01 3d 32 56 f1 bd 9f bf f8 3d
       0.1337895 0.03153903 -0.117840186 0.12145924
0000d0 ab 1f 28 3e bd ba b8 bb 83 03 a7 bc 33 41 3e bd
       0.1641833 -0.0056374953 -0.020387417 -0.046448898
0000e0 dc bc 9b bd 17 cb 3b bd d1 c5 67 bd 8e 89 5a bd
       -0.076043814 -0.04584798 -0.056585137 -0.05335384
0000f0 33 21 0e bd 17 65 34 bd 62 34 2b 3d 88 19 6b bd
       -0.03469963 -0.04404172 0.041798003 -0.057397395
000100 d1 01 1e bd b6 92 a0 bc 7e 31 96 3d 1b a4 8a 3d
       -0.03857595 -0.019601207 0.07333659 0.06769582
000110 8f 4c be bd 97 e2 b2 3c 67 62 c4 3b 41 71 0b 3e
       -0.09291946 0.021836562 0.005993176 0.13617422
000120 7d a1 96 bd db e3 ba bc 5c 6b c5 bc 37 24 af bd
       -0.0735502 -0.022813728 -0.024099045 -0.08551829
000130 ea 4c 1b 3d 2b 54 9f bd a8 d8 ff 3c 35 7b 6d bb
       0.037915148 -0.07779726 0.03123124 -0.0036236767
000140 15 5f 08 3d f8 23 48 3d ef 03 a8 3d e3 2f 51 bd
       0.033293802 0.048862427 0.08203875 -0.05107106
000150 5c 0e 08 be d4 ba c5 3d 69 35 8f 3d 6d d8 7c bd
       -0.13286728 0.09654775 0.06992609 -0.061729837
000160 58 3a bf 3b da a9 b8 3d fa c3 85 bd 4f 07 5b 3d
       0.0058358125 0.090167716 -0.0653152 0.053473767
000170 77 88 ee bc 80 ad d5 bd aa 4a 31 bd c4 22 ca bd
       -0.029117806 -0.10433483 -0.043284096 -0.09869912
000180 b2 76 79 3c 81 97 6d bd 0d 89 e0 bd 19 e5 00 3e
       0.015226053 -0.058005814 -0.1096364 0.12587394
000190 8c cb ec bd 5f 94 4c 3d e6 91 c4 3b 56 ee 83 3d
       -0.11562261 0.049946185 0.0059988378 0.06441943
0001a0 70 b3 59 bd 07 b4 fb 3d ca df 2c 3d 0c 00 52 3d
       -0.05314964 0.12290197 0.04220561 0.051269576
0001b0 12 94 9a 3d 1a cf 74 3d 4d 5d 92 3d eb 66 c2 bc
       0.075477734 0.05976782 0.07146702 -0.023730716
0001c0 3d 21 48 3d 1a d0 0c 3d 25 0f 2c bd 46 b8 cf 3c
       0.048859823 0.03437815 -0.04200663 0.025356423
0001d0 5e 92 8d bb 41 45 9f 3d b0 be 8a bd 72 da 19 3d
       -0.004320427 0.07776881 -0.06774652 0.03756184
0001e0 78 3b b0 bb 01 ff 9b bd 0b 44 89 3d 26 02 1d 3d
       -0.005378183 -0.076169975 0.06702431 0.038332127
0001f0 2f db e3 3c a5 5e 4b bd e8 97 87 bd 1f 66 f7 3b
       0.027814476 -0.049650807 -0.06620771 0.0075500156
000200 b1 b6 2e 3d 4d f3 13 3e 16 ed c7 bd 6c 30 33 3e
       0.042654697 0.1444828 -0.097620174 0.1749894
000210 a9 e2 f3 bd 72 19 43 3d f9 ac 05 3e b1 d3 89 bc
       -0.11908466 0.04763169 0.13054265 -0.016824575
000220 21 eb 92 3d d2 1d c2 3c e2 8a f8 3d 23 c5 bf bc
       0.071737535 0.02369586 0.12135865 -0.023409432
000230 f2 4f 79 3d be 89 43 be 3d d0 94 bd f1 2d e7 bc
       0.060867257 -0.19095513 -0.07266281 -0.028220149
000240 6c 73 1d 3e ea 4a 16 bd 29 ec 32 3d a0 6d 13 3c
       0.15376061 -0.036692537 0.04368225 0.008998305
000250 12 64 ea bc 7e b7 e7 3c d5 a8 19 3d 75 6c c8 bb
       -0.02861217 0.028285738 0.037514526 -0.0061164447
000260 61 16 c8 bd c4 0a 88 bd 07 5d c9 3c 74 2d 54 3d
       -0.097698934 -0.066426784 0.024580492 0.05180116
000270 3f 8e 88 3d 6a ad ec bb 7a 9c 02 3e 6d 35 a6 bd
       0.06667756 -0.007222821 0.12755004 -0.08115659
000280 48 ec 15 3d 17 25 5e 3d 80 0b f9 3d 71 9e 3a 3e
       0.03660229 0.05423459 0.121603966 0.18224503
000290 b6 54 1f 3e 90 b0 8e 3d 8d bb 34 3e 0f 27 c6 bd
       0.15559658 0.069672704 0.1764967 -0.096754186
0002a0 69 bd 16 3e e4 e4 bc bd 4c 82 3b 3d 07 c9 1d bd
       0.14720692 -0.09223345 0.045778558 -0.038521793
0002b0 43 d1 41 3e fd c7 71 bc e0 91 9c 3d 65 5a c4 3d
       0.18927483 -0.014757154 0.07645011 0.09587554
0002c0 16 f1 df bd 23 70 d4 3c 55 e0 28 bd 56 38 53 3d
       -0.10934655 0.025932377 -0.041229565 0.051567398
0002d0 d4 08 02 be 3e 29 db 3d 82 c2 43 bd 82 10 a8 bd
       -0.1269868 0.10701226 -0.04779292 -0.082062736
0002e0 f0 2e e9 bd 8b c9 3e 3e 4c ef 3d 3d 36 b3 bf b9
       -0.11385906 0.1863157 0.04637079 -0.0003656388
0002f0 c1 67 09 be 7d ed d7 3d e4 d4 2e bd d0 11 6b 3d
       -0.13418485 0.10543344 -0.042683497 0.057390034
000300 7d a5 6a 3d 14 50 97 bc b5 8b e7 3c 47 3d 2d 3c
       0.05728673 -0.018470801 0.02826486 0.010573692
000310 d7 8c e7 bd cf 93 55 3c e5 3b b6 bd 9f 84 3b 3d
       -0.1130616 0.013035729 -0.08898143 0.045780774
000320 8a 97 36 bb df 28 2d 3d 65 ad 5f 3c 68 63 81 bd
       -0.002786132 0.042275306 0.01365218 -0.06317788
000330 d0 16 e0 bd 64 28 d3 bb 48 81 ed 3d ce ae 76 3d
       -0.10941851 -0.006444024 0.11596924 0.0602253
000340 03 c4 37 bd 51 c8 96 bc 06 8c 9f 3d 20 04 4d bd
       -0.044864666 -0.018406065 0.07790379 -0.050052762
000350 70 a7 9d bd 6e fb b5 3d 83 a8 84 3c 27 86 26 be
       -0.07697952 0.08885847 0.016193634 -0.16262113
000360 2c 8a 0c 3e 60 8f b3 bd d2 2e 46 3d 85 a5 13 be
       0.13724583 -0.08767581 0.048384495 -0.1441861
000370 ea 2e 1f be a1 4f aa 3d ac 11 ad bd a0 3a d6 3d
       -0.1554524 0.08315969 -0.08450636 0.104604006
000380 41 6c c8 3c 30 bf 0a be df 90 fa 3d 55 3f 94 3d
       0.024465682 -0.13549495 0.12234663 0.07238642
000390 20 17 c5 bc 66 94 16 bd 6f 4f f6 bc 61 45 0c 3e
       -0.024058878 -0.036762618 -0.030067174 0.13698341
0003a0 e1 03 c0 bc 57 4e 6f bd d9 e6 de bd ef 6a a2 bc
       -0.02343935 -0.05842432 -0.108838744 -0.01982638
0003b0 fe b5 2a bd 18 02 01 3d 0d 67 a2 bd ca a1 13 be
       -0.041677468 0.031496137 -0.079298116 -0.14417186
0003c0 7d bc c8 3c 09 06 ab bc d3 b2 71 3a cd a0 bf 3d
       0.02450394 -0.020876901 0.00092200673 0.09356842
0003d0 7a 93 d8 3d 5b 38 ca bc 44 61 f1 bb 4a 7d 3f 3d
       0.10575004 -0.024685076 -0.0073663313 0.046750344
0003e0 db 3b 07 bd 0e 63 b8 3d eb 9d a2 bc 94 8a 95 3c
       -0.033016067 0.09003268 -0.019850692 0.018254556
0003f0 74 62 cf bd b9 80 03 be a4 36 1d 3d 5a 69 bc bd
       -0.101262 -0.12842073 0.038382187 -0.09199782

model.rnn.bias_ih_l0 f4 [240]
000000 5f 66 8f bd b2 04 bf bd c2 9e d5 3d cb eb 45 bc
       -0.070019476 -0.093270674 0.10430671 -0.012080143
000010 4a 11 0a 3e 99 52 59 bd 86 ee 44 bb bd f2 48 bd
       0.13483158 -0.053057287 -0.0030049398 -0.04905962
000020 5a 15 77 3d 84 83 a1 bc b6 ab ed 3d 09 f9 a1 3d
       0.060323097 -0.019716032 0.11605017 0.07908828
000030 47 ae 02 3e 9d f9 a1 3c b3 c4 2a 3d 78 0b 9b 3d
       0.12761794 0.019772345 0.041691493 0.07570547
000040 49 47 08 3e 33 a1 76 3d bd 89 5c bd 80 f8 e8 3d
       0.13308443 0.060212325 -0.053842295 0.113755226
000050 07 97 31 3e cb d2 37 bc 5b b7 20 3e c1 97 3a bd
       0.17342769 -0.011219691 0.15694945 -0.04555488
000060 a4 e3 b1 3c d7 b7 e5 3d 6f 1c b3 3b e6 65 0c 3e
       0.021714993 0.11216705 0.005466036 0.13710746
000070 d6 eb ed bc 3a 37 96 bd 37 96 9a 3c af 67 12 3e
       -0.02904312 -0.073347524 0.018870456 0.14297365
000080 db 0b 87 bc 3f c0 84 bd 6e 25 5c 3d f6 66 33 3e
       -0.016485145 -0.064819805 0.053746633 0.17519745
000090 96 8d 82 3d bc bd bd bd d4 cb dd bb f5 3e 8a 3d
       0.063746616 -0.092647046 -0.006768683 0.06750289
0000a0 14 bc 62 bd 6a b9 65 bd 25 a9 67 bc c5 15 ce 3d
       -0.055355147 -0.056085028 -0.014139448 0.10062746
0000b0 df 19 0e 3e 7e 5d ac 3c 52 9a 18 3e 34 a7 4c 3d
       0.13877057 0.021040674 0.14902619 0.049964145
0000c0 a1 62 ac bd db 02 95 3d dc 1a 4b 39 05 5c 48 bd
       -0.084172495 0.07275935 0.00019369595 -0.04891588
0000d0 1f 24 3b 3e 1b 8b 60 bd 8b 88 2f 3e 27 d8 d1 3d
       0.18275498 -0.05482016 0.17141931 0.10246306
0000e0 03 14 be 3c 6e a7 c6 bd 04 4e 3c 3e 5b 99 84 3d
       0.023202902 -0.096999034 0.18389136 0.06474563
0000f0 b9 29 b4 bc 7e e5 24 bd c0 6b 05 3d 41 68 bc 3d
       -0.021992551 -0.040257923 0.03257346 0.09199572
000100 2c b5 cd bd d1 89 ad bd fc 8a f7 3d d8 0c 0b be
       -0.100443214 -0.08473552 0.12087056 -0.13579118
000110 45 9f 8f 3c cb c5 b0 bd 90 ca 91 3d d2 9b 3d 3d
       0.017532 -0.08631476 0.07118714 0.04629118
000120 25 41 81 3d e8 30 4f bd 8c 49 a2 3d bd 89 07 bd
       0.063112535 -0.05058375 0.07924184 -0.03309034
000130 46 e7 03 bb ea 07 8c 3d 60 94 71 3d c3 7f 34 3d
       -0.0020126863 0.06837447 0.058979392 0.044067156
000140 44 53 ef 3d 9e 51 ce bd 0b 5e fe 3d f3 2e 82 3d
       0.116858035 -0.10074161 0.12420281 0.06356611
000150 17 d9 ae bc 45 86 de 3c f6 e4 4f 3d 30 06 7c bc
       -0.02134375 0.027163634 0.050755464 -0.015382335
000160 fe 50 3b 3c a0 bd 68 bd c5 28 45 bc ad 21 14 bc
       0.011432884 -0.056821465 -0.012033646 -0.009041232
000170 4b 5e c8 bc f7 8a 5e 3d 01 9f ce bd eb 7e f5 3d
       -0.024459025 0.054331746 -0.10088921 0.11987098
000180 d7 75 91 3d 6e 4c 90 3b d5 83 cd bd a4 6d 1a 3d
       0.07102554 0.0044036424 -0.100349106 0.037702218
000190 27 5d fb 3d 63 17 08 bd f6 c2 bf bd d4 ad a7 3d
       0.12273627 -0.03322543 -0.09363358 0.08187452
0001a0 28 18 8e 3d 3e 25 0e bb 37 8b a2 3b 95 ba 83 bd
       0.06938201 -0.0021689679 0.0049604434 -0.06432072
0001b0 c1 69 33 bd 71 ec a8 3d 79 bb 3f bd 79 ee 81 bb
       -0.043802027 0.082482226 -0.046809647 -0.0039651957
0001c0 3a 9c b8 3d 7a 99 da bd a1 55 96 3d 06 28 0e bd
       0.09014173 -0.106738046 0.07340551 -0.034706138
0001d0 e0 2f 05 3e e8 e0 b8 3d c2 18 71 3d 6b 0a ca bd
       0.13006544 0.090272725 0.0588615 -0.09865268
0001e0 38 21 76 3c 5f 32 b1 bd 98 d9 a1 bd 9a 71 97 bd
       0.015022568 -0.08652186 -0.07902831 -0.07394715
0001f0 12 9c ff bd 23 77 cf 3d e9 ca 73 bd 44 91 1c 3d
       -0.1248094 0.101301454 -0.059519682 0.038224474
000200 0a a3 1d bd 7f 9f 87 bd 4c 80 3b 3d 6c 7f fe b8
       -0.038485564 -0.06622218 0.04577665 -0.00012135398
000210 42 be cb 3d 7e 8a d9 3c 2d ce 5b bd aa 40 c9 3d
       0.09948398 0.026555296 -0.05366342 0.09826787
000220 16 7e 64 bd e6 7c 0b bd f2 bb 80 bd 8e 9c 04 bc
       -0.055784307 -0.03405466 -0.06285848 -0.008093966
000230 bd 8e cb 3d d9 16 ac bd 4f f1 1b be 54 45 be 3d
       0.099393345 -0.08402795 -0.1522877 0.09290567
000240 0a 35 e3 3d 27 8e 58 3c ce 2a a2 3d a1 b4 52 bc
       0.11094101 0.0132174855 0.079183206 -0.012860448
000250 39 b1 59 bd f4 a2 d7 3c 6a 74 ce bc 1c 6f d4 3d
       -0.05314753 0.02632282 -0.025201995 0.10372755
000260 20 35 d1 3c a2 10 8f 3d 08 a2 9e bd 6c 19 7f 3d
       0.025538027 0.06985594 -0.07745749 0.062280104
000270 a1 8b 73 3d 4d a4 1a 3d 9f ab 16 bd 3e ca de 3c
       0.059459332 0.037754346 -0.036784764 0.027196046
000280 2e ed a4 bd ed 3f d0 3d bf 3f 13 3d 74 70 d8 3d
       -0.08053051 0.10168443 0.035949465 0.10568324
000290 b7 0c 8f bd d9 fa ca 3c 9f 0e 14 3d ae 0d d7 bd
       -0.06984847 0.024777817 0.036146756 -0.10500656
0002a0 3a ac a6 3c c4 49 3d bd b8 68 f7 bd d2 72 39 3d
       0.020345796 -0.046212927 -0.120805204 0.045275517
0002b0 0d d4 b9 bd 1a 2b c0 bd 65 4d 3d 3d 7a fb c6 3d
       -0.090736486 -0.09383221 0.046216387 0.09715934
0002c0 85 71 ce bd b7 e2 b2 3d 89 85 04 3e c4 2a f2 bc
       -0.10080246 0.08734649 0.12941565 -0.029561408
0002d0 51 18 c2 3d 95 53 ec bd 20 40 41 3e 88 6a 91 bd
       0.09477294 -0.115393795 0.18872118 -0.07100397
0002e0 99 a8 fc 3d 8c cc 10 bc 34 a2 f0 bc c2 41 f3 3d
       0.12336845 -0.00883783 -0.02937422 0.11877777
0002f0 f7 eb 13 bc 3f c9 94 3c 6b 66 06 bd 96 fd 52 3d
       -0.009028426 0.018162368 -0.032812517 0.05151137
000300 80 9a 4a bd 1b 03 87 3d c1 ca 81 3d 04 bd 51 3e
       -0.04946375 0.06592389 0.063375 0.2048226
000310 a0 14 7c bd df c1 0f 3e 38 4f ed bd 6f d0 bb 3c
       -0.061543107 0.140388 -0.115873754 0.022926537
000320 6c cc 6d bd 29 b1 17 3e 7d fa d7 3d d2 80 f0 3d
       -0.05805628 0.14813675 0.10545824 0.117433205
000330 fc 19 11 bd 1d e7 34 3d 6e ab 84 3d ef ad c7 3d
       -0.03542517 0.04416572 0.0647801 0.09749972
000340 ce 4c dd 3c 95 6d c2 3d 84 60 e2 bc 60 0e 00 3e
       0.027014162 0.09493557 -0.027633913 0.12505484
000350 c7 d8 31 3e 72 6d 7b bd 20 1a 43 bc ec 57 19 3e
       0.1736785 -0.061383672 -0.011908084 0.14974946
000360 4b 4b 97 3d a0 3d 1a 3e f6 64 1e 3e c3 58 ee 3d
       0.07387408 0.1506257 0.15468201 0.11638024
000370 0f 7a b2 3d 89 8e aa 3d 91 87 53 3d 1f 47 e0 3d
       0.08714687 0.08327968 0.051642958 0.10951065
000380 2a 8d 3b 3e 92 e4 4d bd cd db f6 3d 5d 27 8b 3c
       0.18315569 -0.05026681 0.120536424 0.016986543
000390 b3 b7 a8 3d e4 c3 ae 3d fe d6 8a b9 43 bd 1d 3e
       0.08238163 0.08533457 -0.00026481593 0.15404229
0003a0 99 21 3f 3e af ce 7b 3d f8 f5 08 3c c9 36 96 bb
       0.1866516 0.061476406 0.008359425 -0.0045841676
0003b0 c4 c9 98 bd 1f 26 05 3e d9 3b 2a 3e fb a0 95 3c
       -0.07460359 0.13002823 0.16624393 0.018265238

model.rnn.bias_hh_l0 f4 [240]
000000 1b 1e 48 bd 52 b6 d5 3d 7a c1 fc 3d b2 15 01 3a
       -0.048856836 0.104351655 0.1234159 0.00049241923
000010 44 cb bd 3d 68 9d c5 3c 68 bd 16 3e 9d 05 0d 3e
       0.092672855 0.024122909 0.1472069 0.13771673
000020 10 d2 5a 3d 8e 52 73 3d 2b 9f d7 3d 02 01 31 3e
       0.053422987 0.059404902 0.10528406 0.1728554
000030 ad ab 80 bd df f4 f2 3d 3f 46 ba bd b6 a8 d8 3d
       -0.062827446 0.11863112 -0.0909543 0.10579054
000040 77 24 6a bb 8e 6c 4a bd a3 75 a0 bd ce 21 a2 3d
       -0.00357273 -0.049419932 -0.078349374 0.07916604
000050 10 ee 90 3a a9 54 c1 3d a2 65 2e bd a4 f5 b2 3d
       0.0011057276 0.09439976 -0.042577393 0.087382585
000060 7b 98 1b 3e 55 8f 40 bd 06 dd 02 3e 39 8e c0 3d
       0.15194885 -0.047011692 0.12779626 0.09402127
000070 68 b1 2f 3d 91 5e c5 3d 35 12 ca 3d c1 97 42 bd
       0.042893797 0.09637178 0.09866754 -0.047508005
000080 14 78 19 3e 7f f0 79 3c 24 3e 7c bd 1f 8f ad bb
       0.14987212 0.015255093 -0.0615827 -0.0052966024
000090 44 bc 83 3d e9 af 29 bd a7 3c 16 3e b0 24 4c 3d
       0.06432393 -0.041427527 0.14671575 0.049839675
0000a0 1b 5f 9f 3d 06 2b d7 3d e5 04 90 3d d3 d7 82 bd
       0.07781812 0.10506253 0.070321836 -0.063888215
0000b0 19 0d bc 3d 60 92 bb bb bc 96 9e 3d 1e ec e3 3d
       0.09182186 -0.0057242364 0.07743594 0.1112902
0000c0 73 8d a7 3d 32 56 a3 3d 5d b2 8a bd c2 35 26 bd
       0.08181276 0.07975425 -0.06772301 -0.04057861
0000d0 f9 cb 02 3e cb 76 bb 3b 49 a0 06 3e 07 42 e5 3d
       0.12773122 0.0057209483 0.13147081 0.11194234
0000e0 5b 08 82 bd b0 ba c8 3d b0 bd f5 3d 8c e9 cf 3d
       -0.0634925 0.09801233 0.11999071 0.101519674
0000f0 2a 72 dd 3d 2b b9 b1 bc a9 76 af 3d 45 9c 9c 3c
       0.10812791 -0.02169474 0.085675545 0.019117484
000100 65 2c fd 3b ec 44 a4 3d 87 d9 da 3d e7 4a 07 bd
       0.0077262395 0.08020958 0.10686021 -0.033030417
000110 fc 74 3c 3d 0a c5 8e 3c e4 b8 93 3d 6b 6e c1 bc
       0.046010002 0.01742794 0.072129995 -0.023612222
000120 da 63 cd bd ff ce 80 bc e6 45 e0 3c be 41 b8 bd
       -0.10028811 -0.015723703 0.02737708 -0.08996914
000130 32 4c 1b bd 90 f3 d4 bd 6b ae 98 3d d6 c4 2b bd
       -0.037914462 -0.10398018 0.074551426 -0.041935764
000140 a4 0c d6 3d 89 7a 07 bc e3 b1 a5 bd 7b 4b 50 bd
       0.1045163 -0.008268961 -0.0809057 -0.050853234
000150 25 f8 c6 3d 74 e4 96 3d e6 30 15 be d9 2d d9 bd
       0.097152986 0.07367793 -0.14569435 -0.10604448
000160 61 03 b3 3d ce 23 d3 bd 6e 33 2f 3c b6 bd fb bd
       0.08740879 -0.103095636 0.010693414 -0.12292044
000170 19 8f 15 be 65 dc 8b bd c2 a6 ed bd 67 51 fb 3d
       -0.14605369 -0.06829146 -0.11604072 0.12271386
000180 a1 7e 78 bd 74 fd 17 3d e9 41 90 3d 53 2c fc 3c
       -0.060667638 0.037106946 0.07043821 0.030782854
000190 08 85 04 3e 8a e6 fe bc 18 2a 30 bd 17 4a cc bd
       0.12941372 -0.031115789 -0.043008894 -0.09975069
0001a0 5d 89 7b 3d 5b 04 a6 bb e9 bb d5 bd 62 5d 03 3d
       0.061410297 -0.005066437 -0.10436232 0.03207148
0001b0 01 0e 83 3d 3d ea b2 3c 08 f7 e4 3d f9 f8 a5 bc
       0.063991554 0.02184021 0.1117993 -0.020260321
0001c0 49 31 59 3c d7 6d 5a 3d c1 25 bf 3d b1 1f a1 bd
       0.013256379 0.053327408 0.09333373 -0.07867373
0001d0 8c 3e eb 3d 63 70 d0 3d cf f0 b9 3d 47 ec a9 3d
       0.11486539 0.10177686 0.09079134 0.082970195
0001e0 13 92 23 3a 55 95 8e bd ff d1 2f 3d 35 0d b5 bd
       0.00062397233 -0.069620766 0.042924877 -0.0884041
0001f0 5d 99 f1 bd 0c ce db bc 10 91 8a 3c e7 04 d7 bd
       -0.1179683 -0.02683165 0.016914874 -0.10498982
000200 31 34 c1 bd 75 5a 8a bd 5b ea d4 bd ec aa 12 3e
       -0.09433783 -0.067555346 -0.10396262 0.14323014
000210 ae cc 0c 3d e3 02 ea bd e2 81 03 3d 3d 2d 9b bd
       0.034374885 -0.11426332 0.032106288 -0.07576988
000220 26 aa b9 3c fe e4 e4 bd de 67 2f 3e 43 32 09 3e
       0.02266414 -0.11176489 0.17129466 0.1339808
000230 0a 8c f7 bd a0 e5 9e bd 27 b3 e7 bd 0d 79 03 be
       -0.12087257 -0.07758641 -0.113134675 -0.12839146
000240 a0 80 8b bd 99 27 b4 bc e0 83 87 bd 3b a5 52 3d
       -0.06811643 -0.021991538 -0.0661695 0.051427107
000250 8c 0b c9 3d a5 6e e0 3d 7d 8f b3 3c d0 72 f0 3d
       0.098166555 0.10958604 0.021919006 0.11740649
000260 10 45 51 bd a7 30 a1 bd 7f f9 c4 3d 11 fc d5 3d
       -0.051091254 -0.07870608 0.096179 0.104484685
000270 71 a5 1c bd 8e be 41 bd 0b a3 bf 3c 8c 42 1a bc
       -0.038243715 -0.047300868 0.023393175 -0.00941528
000280 a4 fc fe bc ea 00 06 3e e4 63 bc bc 21 d0 79 bc
       -0.031126328 0.13086286 -0.02299685 -0.015247376
000290 77 34 e2 3d 55 3b 66 bd 9d 89 99 bd 16 c0 9a 3d
       0.11045163 -0.056208927 -0.07496951 0.07556169
0002a0 17 d0 b1 3d 83 4e 94 bc 05 07 c4 bd 06 67 1c 3c
       0.08682268 -0.018103844 -0.09571651 0.009546047
0002b0 5f 49 09 bc 93 b6 bd bc ae 58 f0 3d e5 1f b9 bd
       -0.008379309 -0.023158347 0.11735664 -0.090392865
0002c0 5c 83 8a bd c1 8e d4 3d c9 57 a9 bd 7e dd fc bb
       -0.06763336 0.10378791 -0.08268697 -0.0077168336
0002d0 93 c2 fa 3d 3f 2d a6 bd 78 76 e8 3d 3a 78 4b bd
       0.12244143 -0.08114099 0.11350721 -0.049675204
0002e0 88 41 d2 3d a1 ac b7 3d a5 db 1a 3e 4f bf 0c 3e
       0.10266405 0.08968473 0.1512285 0.13744853
0002f0 82 1c ea 3d ec 31 89 3d a4 7c 0a 3e 77 44 88 3d
       0.11431219 0.06698975 0.13524109 0.06653684
000300 54 4a 0d 3e 7b 7c 75 3c a2 4e ee 3d b9 35 3f 3c
       0.13797885 0.014983292 0.11636092 0.011670523
000310 1d 18 90 3d d8 87 41 bc 42 f5 07 bd 4e 73 39 3e
       0.07035849 -0.011812173 -0.03319288 0.18110391
000320 cb 69 2b 3e e6 c7 eb 3d ce 5d ba bc 9f 48 ce 3c
       0.16739576 0.11512737 -0.022749808 0.025181113
000330 1a ba 2d 3e cc d5 90 3d 49 89 0a 3e 0c 6e bd bd
       0.16965523 0.070720285 0.13528933 -0.092495054
000340 a8 c2 66 3d b9 76 2b 3e 53 8d 3f bd c4 76 48 bc
       0.056337982 0.16744508 -0.046765637 -0.012235347
000350 13 81 b0 bb c2 eb 28 bd ae 89 80 3d 70 a5 45 bd
       -0.0053864806 -0.04124046 0.0627626 -0.048253477
000360 ab f9 e6 bc 28 33 b2 bd 95 a0 59 bd 38 35 0d 3e
       -0.028195223 -0.087011635 -0.05313166 0.13789833
000370 ac fb 73 3d 5f 70 11 3d fe 61 6e 3c c8 be 80 bd
       0.059566185 0.035507556 0.01454973 -0.06286389
000380 7d 16 c6 3d 3c 28 21 3e 0c 09 35 3e a6 3c 05 3e
       0.09672258 0.15738004 0.17679232 0.13011417
000390 86 61 87 bb 1a 22 56 3d 9d 4d 2f 3e 4a 81 f4 3d
       -0.0041314987 0.052278616 0.17119451 0.119387224
0003a0 ce b7 02 3e 53 49 ca 3c e2 6f 13 3e df 3a 88 bd
       0.12765428 0.024693167 0.14398149 -0.06651854
0003b0 55 7f b4 bd c5 14 ed bc 2d e4 02 bd 88 b5 bd bd
       -0.08813349 -0.028940568 -0.031955887 -0.0926314

model.rnn.weight_ih_l1 f4 [240, 60]
000000 22 80 ea bd 49 48 30 3c 40 6a 3c 3e b7 b6 29 3e
       -0.11450221 0.010759422 0.18399906 0.16573606
000010 d9 f8 30 be d8 60 c9 bd 2b 17 86 bd 6b 77 b7 bd
       -0.17282428 -0.098329246 -0.06547388 -0.08958324
000020 3a ad 8f bc 90 ca 9f bd f2 68 8e 3d fd ed 54 bd
       -0.017538656 -0.078023076 0.069536105 -0.051984776
000030 a4 4b 83 bc 3a 23 a8 3c 9e a7 10 3e a6 0c 5f 3d
       -0.01602728 0.02052461 0.14126441 0.054455422
000040 a3 f5 58 bd 90 46 8d bc 5b 24 01 3e 9a 37 3a be
       -0.052968632 -0.01724556 0.12611525 -0.18185273
000050 03 40 65 3d 7b 9b 2c be d6 4b 5e bd 78 89 2e be
       0.05596925 -0.16856186 -0.05427154 -0.17044628
000060 69 96 2c 3d 4d f2 33 3e 82 5c 7f 3d 23 02 f0 3c
       0.04213563 0.17572899 0.06234408 0.029297894
000070 4b 96 23 3c c3 da 9d 3c 18 7b 01 3e e5 11 a8 bd
       0.009984563 0.019269353 0.12644613 -0.08206538
000080 35 c2 cb bd 2a 32 02 3b 70 e9 ef 3c c6 56 3d bd
       -0.099491514 0.0019866326 0.029286116 -0.04622533
000090 0d ef aa 3d 3b d2 27 be 96 4e 06 3e b5 e2 c1 bd
       0.083463766 -0.1638879 0.13115916 -0.09467069
0000a0 7f 35 22 be 47 14 5a 3c d1 a8 59 bb 39 77 17 3e
       -0.1584072 0.013310499 -0.0033212195 0.14791574
0000b0 9a cf 1e bd 71 a3 ce 3d d5 97 33 3d ac a8 b8 3d
       -0.038772203 0.10089768 0.04384597 0.090165466
0000c0 36 f7 1c 3d 65 82 8a 3d 43 e5 f3 3a 6d b3 25 3d
       0.038321696 0.06763152 0.0018607754 0.040454317
0000d0 9b 55 a5 bd 49 8a ff 3d ef 54 81 3d 10 c5 93 3d
       -0.080729686 0.12477548 0.06315028 0.07215321
0000e0 2f c8 69 bd 71 23 9d 3d f4 70 94 bd 3e c3 b2 bd
       -0.057075676 0.076727755 -0.072481066 -0.08728646
0000f0 17 54 31 be 0f da fc bd f7 13 c9 3d 92 f9 e8 3c
       -0.17317234 -0.12346279 0.09818261 0.028439317
000100 e5 03 89 bd c9 65 31 bc 2a ea c6 bd 90 77 0b 3b
       -0.06690196 -0.01082749 -0.09712632 0.0021280982
000110 ef c0 e1 3d 83 c8 07 3d 11 0d 21 3d 9c f7 ab 3d
       0.11023127 0.033150207 0.0393191 0.08396837
000120 ee ca 70 3c 48 16 02 be b3 ba c1 3d 9a 31 6c bd
       0.01469682 -0.12703812 0.09459438 -0.05766449
000130 22 64 a2 bd 9f 76 71 3d fe 92 be 3d 28 07 02 3e
       -0.07929255 0.058951017 0.0930538 0.12698042
000140 cb ce 3e 3d 45 2b 5a bb e1 e4 6d bd 2c de 79 bd
       0.046583932 -0.003328995 -0.058079604 -0.061002895
000150 35 a7 9f bd e6 8b 12 3e 03 04 62 3d 64 7b 6f 3d
       -0.07795564 0.1431118 0.055179607 0.058467284
000160 4a 2f 2c 3c 4d 8d 4b 3d 71 23 af 3d 9f 8f dc 3d
       0.0105093215 0.0496953 0.08551682 0.10769581
000170 b8 45 75 3d 61 a2 6f bd 38 15 df bd 93 d0 6e 3d
       0.059880942 -0.058504466 -0.10892719 0.05830438
000180 da e9 9c bd 4a f7 5d ba 32 7e 32 3c d1 4a 80 bc
       -0.07661791 -0.000846733 0.010894345 -0.015660675
000190 ee 8a c3 bc f2 4f 9f bd 16 62 a4 bd b2 df 28 3d
       -0.023869958 -0.0777892 -0.08026521 0.041228957
0001a0 04 53 5d 3c f8 8a 24 be 35 f3 ac bd 44 75 a8 bc
       0.013508562 -0.16068637 -0.084448256 -0.02056373
0001b0 a8 59 f3 bc 8c de e4 bc ee 9b c7 3d bc f1 12 bd
       -0.029705837 -0.02793815 0.09746538 -0.035875067
0001c0 90 57 23 3e d2 5f 54 bd a9 d2 44 3c 24 1f eb 3c
       0.15951371 -0.051849194 0.012013116 0.028701372
0001d0 5f 55 c4 3d 1a 41 13 3e a4 81 19 3e aa e6 ac 3c
       0.09586596 0.14380303 0.1499086 0.021106083
0001e0 32 2e 09 bd 88 2f d6 bc 73 4d cc 3d 56 44 06 3d
       -0.03349132 -0.026145712 0.0997571 0.032780014
0001f0 d6 98 f1 bd d2 e1 db bd 19 90 8e 3c 3d ae c6 3d
       -0.11796729 -0.10736431 0.017402695 0.09701202
000200 ac 98 2e bd e8 fc e5 bc c6 14 26 bd 2c 6e b3 3d
       -0.042626068 -0.028074697 -0.040547155 0.08761248
000210 56 e3 5b bd b4 f3 bc 39 2b f4 12 bd 07 d4 92 3d
       -0.0536836 0.00036039727 -0.035877388 0.07169347
000220 eb d7 19 3b 01 c6 6a bd fb 0c 9c 3d f9 15 33 be
       0.0023474644 -0.057317737 0.07619663 -0.1748885
000230 0f 74 69 bd 00 32 65 3d 3d 76 78 3d e0 d9 18 bd
       -0.056995448 0.055955887 0.060659636 -0.037317157
000240 ea 0d 3f 3d 8d 5e 00 3b f4 ba 1b 3d fe e3 2f bd
       0.04664413 0.0019587607 0.03802009 -0.04294204
000250 bd 10 6e bd e5 89 c9 bd 23 47 9d bd 1b 09 2c bd
       -0.05812143 -0.098407544 -0.07679584 -0.04200087
000260 80 ab 13 be 3c e2 82 3d 7f da 0e 3e 9c c0 8b bc
       -0.14420891 0.06390807 0.13950537 -0.017059617
000270 6e ac 0e 3e ff b0 27 bd 4b f4 9d 3d c1 6e fa 3c
       0.13932964 -0.04094028 0.07712611 0.03057039
000280 b5 cc fa 3c 92 a9 0e 3b f6 ab 8f bd 37 03 2e bc
       0.03061519 0.0021768552 -0.07015221 -0.010620884
000290 97 23 cf 3d 7b b3 d2 3c 61 62 84 bd 5d 79 4f bd
       0.1011421 0.025720349 -0.06464077 -0.05065285
0002a0 5a 76 37 bd 96 ae 46 3d a2 08 49 3a 09 54 0f 3e
       -0.044790603 0.048506342 0.0007668828 0.139969
0002b0 87 be 87 bd 44 44 d6 bc c8 16 86 bc f6 b3 91 bd
       -0.06628137 -0.026155598 -0.016368285 -0.07114403
0002c0 d7 2e 5b bd af 9c c4 3d 49 db 4c 3d 20 c3 a7 3c
       -0.053511467 0.096001975 0.050013814 0.020478785
0002d0 81 e6 2e 3d 37 9f 95 bd 72 96 3c bd 16 3b f7 3d
       0.042700294 -0.073057584 -0.046041913 0.120718166
0002e0 30 44 1b bb c9 00 74 bc 57 6d 08 3e 40 3a 22 3d
       -0.0023691766 -0.014892765 0.1332296 0.039606333
0002f0 5f 41 e1 3d 55 5f 6f 3d d9 bc dc 3d 2c 71 12 bd
       0.10998797 0.058440525 0.10778207 -0.03575246
000300 1d 65 44 bd d9 15 c5 bd 6c 58 74 ba 18 1c 81 3d
       -0.04794799 -0.09623308 -0.0009321037 0.063041866
000310 22 ab 17 be 1f dc 0d 3e 90 f4 07 3e 87 cf 45 3d
       -0.14811376 0.13853501 0.13276887 0.048293617
000320 dd c6 65 3d ad 66 54 bd ce 48 56 bd d5 e4 9a bd
       0.056097854 -0.05185573 -0.052315526 -0.075631775
000330 39 dd bc 3d 20 07 16 3d 5a 0a 86 bd f0 54 11 bd
       0.092218824 0.03662789 -0.06544943 -0.035481393
000340 a9 d7 95 3d c8 5d 50 bd 14 16 e5 3d a9 d0 0f 3e
       0.073165245 -0.050870687 0.11185852 0.14044441
000350 5b eb 68 3d 4c 64 bd 3d ba dc 1d 3e 0c 5d 6a bc
       0.056865077 0.09247646 0.15416232 -0.014304411
000360 8e c7 69 bc 6f 89 91 3d d0 9d a1 bd e8 ec 47 bc
       -0.014268769 0.071062915 -0.078914285 -0.012202479
000370 d0 eb a5 bd c9 c9 76 3d 1e 91 8e 3d e7 0b 84 3c
       -0.08101618 0.06025103 0.06961273 0.016118957
000380 00 08 99 bd e1 ea ca bd 58 05 66 3d e4 ae a5 3d
       -0.07472229 -0.09908081 0.05615744 0.08089998
000390 fb 2b 06 3c b1 8f a2 3d 1f e4 1f 3b be 38 b5 bd
       0.008189197 0.07937563 0.0024397445 -0.08848713
0003a0 5c 0c 26 bd ed 3c 04 3e c6 cb a9 bd a7 f6 ef bd
       -0.04053913 0.12913866 -0.0829082 -0.11716967
0003b0 a3 f2 14 3d d4 3a e4 37 10 c6 6f bd 7d 07 6a bd
       0.03636421 2.7207112e-05 -0.058538496 -0.057136048
0003c0 ac cc eb bd 4a fa 49 bd 59 4e f1 3d 3a ef 8e bc
       -0.115136474 -0.04931096 0.11782522 -0.017448056
0003d0 56 c0 82 bd 19 40 2e bd 1c b9 e4 3d b2 43 c7 3d
       -0.063843414 -0.042541597 0.11168119 0.09729709
0003e0 0d 41 88 3d e8 53 28 bd 7a 1f f2 bd e5 1a 81 3c
       0.066530325 -0.041095644 -0.1182241 0.015759895
0003f0 57 b3 ea 3d ad 5e 37 3d 60 dc 47 3d 8e a4 5c 3d
       0.114599876 0.044768024 0.04879415 0.05386787

model.rnn.weight_hh_l1 f4 [240, 60]
000000 76 ab a4 bd 9c 4f b0 bd 8c ae a6 3d 97 8f 08 be
       -0.08040516 -0.08608934 0.08138761 -0.13336025
000010 7c 45 28 3c 1a 0a 71 3c 3c f4 20 bd 1e 1f c9 bd
       0.010270473 0.014711881 -0.03929542 -0.09820388
000020 0b 6d b7 3d 1f 87 39 3d d5 47 f4 3d f5 8c aa 3d
       0.08956345 0.045294877 0.119277634 0.08327667
000030 06 23 b0 3d ff 25 3b 3c fc e0 c3 bc 7a 70 a6 bc
       0.0860043 0.011422633 -0.023910992 -0.020317305
000040 42 d4 87 3d f0 7d b0 3c 79 ba bf bd 09 39 02 bd
       0.06632282 0.021544427 -0.09361739 -0.031792674
000050 7c 41 78 3b bb 08 56 bd ea eb 4a 3d 1a d7 20 bb
       0.0037880829 -0.05225442 0.04954139 -0.0024542273
000060 d3 1c 5f bd ca 46 06 be be d8 f3 bd f2 ae a8 bd
       -0.05447085 -0.13112941 -0.11906575 -0.08236493
000070 5c 06 99 bd 94 47 44 bc 7f 39 f8 bd b5 42 6e bd
       -0.07471916 -0.011979956 -0.121203415 -0.058169086
000080 45 b4 bc 3d f8 fc 78 3d 44 a6 f9 3c 2c 5e b0 bd
       0.09214071 0.060788125 0.03047479 -0.08611712
000090 17 48 af bc b2 24 11 3d 53 99 78 bd 21 3a d1 bd
       -0.02139668 0.035435386 -0.060693096 -0.10216165
0000a0 19 67 11 bd 68 87 a1 bd 43 cc e7 ba 97 63 46 bd
       -0.035498712 -0.07887155 -0.0017684776 -0.04843482
0000b0 7e 37 1a 3e 72 9e 46 3c ee 65 1e 3d 15 55 a0 3d
       0.15060231 0.012122737 0.038671426 0.07828728
0000c0 46 16 06 3e be ae d6 bc 83 b1 fb 3b 9a 2c a5 bd
       0.13094434 -0.02620637 0.007681073 -0.08065148
0000d0 2d 17 e4 3d b4 ba 67 3d 04 46 b0 bd f0 d8 d0 bd
       0.11137233 0.05657454 -0.086071044 -0.101976275
0000e0 d9 f5 1f bc 31 0f bd bd c9 58 25 3e 86 de d1 bc
       -0.0097632045 -0.09231413 0.1614715 -0.025618803
0000f0 ee 17 27 3d 50 57 06 3d 0c 12 e4 bd 23 b9 40 3d
       0.040794306 0.03279811 -0.11136255 0.04705156
000100 9f 58 0a be 61 dc 79 3b e7 be 20 bd c5 a6 47 3c
       -0.13510369 0.003812574 -0.03924456 0.012185757
000110 a2 db a5 3d 29 27 8a 3d ed 0e c9 bd cb f7 a2 3b
       0.08098532 0.067457505 -0.098173 0.004973387
000120 3f 14 9b 3d 41 5c 6d bd e0 f2 05 be b6 bf 0c 3e
       0.07572221 -0.05794931 -0.1308093 0.13745007
000130 da c4 02 be cd 61 bc bd 74 26 43 bd 4d 61 23 be
       -0.12770405 -0.091983415 -0.047644094 -0.15955086
000140 a6 71 96 3b 0f 15 9e 3c 02 77 bd bd 93 51 51 bd
       0.0045911847 0.01929715 -0.092512146 -0.051103186
000150 9b 9d e7 3d 96 de 7c bc c4 8a ee bd d0 48 97 3d
       0.11309358 -0.015433928 -0.11647561 0.07386935
000160 a2 cb 14 bc 36 73 b9 bc cc be fb bd 60 aa 57 3c
       -0.009081753 -0.022637945 -0.12292251 0.013163179
000170 97 61 8e 3d 4f 56 36 bd f0 ed 9b 3d e1 d1 8e 3d
       0.069522075 -0.044515904 0.07613742 0.06973625
000180 87 a8 3a be a1 94 14 3c 65 2f fc 3d 8f 72 cf bd
       -0.1822835 0.009068639 0.12313727 -0.10129272
000190 6f f1 d5 bd 75 7c 12 3e d8 9e df 3d ac ef 0c 3c
       -0.104464404 0.14305289 0.10918969 0.008602064
0001a0 ee 7c b3 3c b5 2f 8e 3d 1b 00 91 bd 51 88 1e 3d
       0.021910157 0.06942693 -0.07080098 0.03870422
0001b0 d9 df 31 bd c4 ba e5 bb bb 53 2e ba e0 fd d1 bd
       -0.04342637 -0.0070107896 -0.000665005 -0.10253501
0001c0 a2 f8 c0 bd 45 b0 8b bd 1a ee 01 3c c7 ae c8 bc
       -0.09422423 -0.0682073 0.007930303 -0.024497403
0001d0 f9 89 cf 3c e8 46 13 bd 19 30 47 3e 24 e5 fd bd
       0.025334345 -0.035956293 0.19451942 -0.12397221
0001e0 03 68 83 bd dc 04 69 3c 33 f5 b8 3d 5e a9 06 3d
       -0.06416323 0.01422235 0.09031143 0.032876365
0001f0 27 ea 73 3d b7 2e d3 bd 7f ea ee bd e5 68 d0 bd
       0.059549477 -0.103116445 -0.1166582 -0.10176257
000200 b0 de 98 bd 3b 8b 82 bc 68 fc bf 3c 2e 0b 48 bd
       -0.07464349 -0.01593553 0.023435786 -0.048838787
000210 f8 75 d2 3d 09 f5 62 3d b4 56 e6 3d 5d be 11 3e
       0.10276407 0.055409465 0.11247006 0.14232774
000220 fc 63 69 3d d6 c1 60 bc c9 45 a2 3d 00 74 d2 3c
       0.05698012 -0.013718089 0.07923467 0.025690079
000230 f0 04 cc 3c 2d 7a f1 bd 93 2a 69 bd 82 cf 2e bd
       0.024904698 -0.11790881 -0.056925368 -0.042678364
000240 8e eb cb bd fe 39 4e bd 8c 2c de bd f8 93 61 bd
       -0.09957038 -0.050348274 -0.108483404 -0.055072755
000250 86 ac fc bd 4e 02 4f bd 13 77 0f 3d cb 84 55 3d
       -0.12337594 -0.050539307 0.035025667 0.052128594
000260 38 c5 c1 3d 05 f0 b6 bd 48 a1 0c 3c 26 5d 63 bb
       0.094614446 -0.08932499 0.008583374 -0.0034692972
000270 d6 6f b0 3d f0 c3 01 3e 0b 15 bd bd ad 75 bf bd
       0.08615081 0.126724 -0.09232529 -0.09348617
000280 9e 8a 2b bd 8d fc 42 3d 76 44 f1 3c d0 12 2b 3b
       -0.041880243 0.047604132 0.02945159 0.0026103742
000290 0a e6 d5 bd 35 a8 28 be f5 b6 b9 bd 59 41 c7 3d
       -0.10444267 -0.16470416 -0.090680994 0.09729261
0002a0 1b 67 89 3b 0e 7b ed bd 06 53 48 bd 6d d4 da 3c
       0.0041931993 -0.115957364 -0.048907302 0.02671262
0002b0 e2 84 85 bd 34 7f c7 3d 64 90 35 3d bc f4 31 bd
       -0.06519486 0.09741059 0.044327155 -0.043446288
0002c0 16 c3 f0 3c b5 49 b0 3d e0 ce 30 bd c0 36 03 be
       0.0293899 0.086078085 -0.04316604 -0.12813854
0002d0 5b 56 df bd d6 fa 8d 3c 3a 0c 88 3d 84 1a b9 3d
       -0.10905143 0.017331522 0.06642957 0.090382606
0002e0 b2 6c b7 bd 0d ed eb 3d c5 e6 b1 3d ae 48 8c bd
       -0.08956279 0.11519823 0.08686594 -0.068498
0002f0 7f 57 d8 bc 97 65 fe bd da 3e 97 3d 6c d0 81 3d
       -0.026408909 -0.124217205 0.07385035 0.063385814
000300 65 f0 10 3d 5a 6c 12 be f5 5e 8b bd 4e 03 14 3b
       0.035385508 -0.14299145 -0.06805221 0.0022584978
000310 91 61 23 3d ea 9b 0e 3e 2d b2 e6 3c 6f ad d3 bd
       0.03988797 0.13926664 0.028161133 -0.10335814
000320 54 33 c2 bd 92 c4 70 bc 51 3e a0 bd 30 d2 39 bd
       -0.09482446 -0.0146953035 -0.07824386 -0.045366466
000330 da 95 01 bc 75 25 a0 3c 0a 15 14 bc 25 2c ee bc
       -0.007909263 0.01954911 -0.009038219 -0.029073784
000340 a2 63 b2 3a 7a 0d 5a 3d 61 00 83 bb a5 f2 22 bd
       0.0013610015 0.05323551 -0.003997848 -0.039782185
000350 9a 90 7e bd d2 3d 92 3a e9 90 ec 3c 74 f1 91 3d
       -0.06214962 0.001115734 0.028877692 0.07126132
000360 99 cd a9 3d cf 32 79 3c 82 29 e2 bd 7d 7b a4 3d
       0.08291168 0.015209868 -0.11043073 0.08031366
000370 01 1b 8f 3d 65 11 8f 3d 0a d8 e0 bd 9a a4 39 bd
       0.069875725 0.069857396 -0.10978706 -0.045322992
000380 9c 74 53 bd 67 16 58 3d 25 dd 65 bd 01 9b d8 bc
       -0.05162488 0.05275574 -0.056119103 -0.0264411
000390 c3 03 47 3d f4 25 88 bd dd f3 87 3d c0 85 cc 3d
       0.04858757 -0.06647864 0.0663831 0.09986448
0003a0 4a ee 0e 3d 10 9f c1 bd 51 5e 06 3d 9e 6f b1 bd
       0.03489522 -0.09454167 0.03280479 -0.086638674
0003b0 18 cf cf bd 6b e1 40 3c 12 7a 29 bd 08 cb d4 3d
       -0.10146922 0.011772494 -0.04137618 0.10390288
0003c0 24 18 15 3c c3 85 2c 3d 22 ed b8 bd fa e0 b8 3c
       0.009099994 0.042119753 -0.090296045 0.022568215
0003d0 f8 ba 2d 3b 7b 86 a4 3c 3c 85 46 3d 41 ee 45 bd
       0.0026509147 0.020083657 0.048466906 -0.04832292
0003e0 7e 1f e0 3c ae 5f bb bb a3 32 17 3b 94 b8 db 3c
       0.027358767 -0.005718193 0.0023070953 0.026821412
0003f0 0b ea 71 3d d0 84 3e 3d e9 e5 e2 3d 28 da 4b 3d
       0.05906109 0.04651338 0.11079008 0.049768597
