checkpoints/epoch=1-step=100-v32.ckpt (torch, 621663 bytes, 33 tensors)

model.param_proj.proj.0.weight f4 [1, 60]
000000 a2 94 51 3e 46 cf 18 bc 11 87 10 3e cf 6b 33 3e
       0.20466855 -0.009326762 0.14114024 0.17521594
000010 4c 92 f5 3d e7 61 3d 3e 9c 6e 4b 3e 49 0c ec bd
       0.119907945 0.18494378 0.19866413 -0.11525781
000020 51 30 23 be 6d 87 91 bd 4a ab 5d 3e d5 4a a3 bd
       -0.159364 -0.071059085 0.21647373 -0.079732575
000030 60 1a e7 bd c3 14 43 3c e1 36 af bd 15 c3 96 bc
       -0.112843275 0.011906805 -0.08555389 -0.01840357
000040 7b 8f 29 be d6 e2 e8 bc f6 8f 05 3e 7d 04 12 3d
       -0.1655864 -0.028428476 0.13043198 0.03564881
000050 71 e3 35 3d 2f 59 51 be 25 ef 6d bc a1 a8 3f be
       0.04440636 -0.20444177 -0.0145223485 -0.1871667
000060 3b 05 32 be 3a 04 27 3e 47 10 7a be 88 03 8d bd
       -0.17384808 0.16310206 -0.24420272 -0.06885439
000070 c9 4c 41 bd 7b 6f 55 be 8f 82 93 bd 9d 20 60 be
       -0.04719237 -0.20843308 -0.072026365 -0.21887441
000080 8e a9 26 3e 0f eb 24 3d f0 6b 08 be 4d 3c fd bd
       0.16275617 0.04026323 -0.13322425 -0.12365017
000090 57 fc 57 3e d4 f3 d3 bd cc bc 0c be f2 3d 76 3d
       0.21092354 -0.10349241 -0.13743895 0.06011767
0000a0 fd 99 b0 3d 78 0a 7d 3c 30 78 34 be 0b 91 1f be
       0.08623121 0.0154443905 -0.17623973 -0.15582673
0000b0 d5 47 5e 3e f6 04 92 3b 1c 06 3e 3b cb 35 d3 3d
       0.21707089 0.004456158 0.002899534 0.103129946
0000c0 22 7f be bb c1 74 72 3d d4 3a 4c 3d c6 f6 65 be
       -0.0058134953 0.059193376 0.04986079 -0.22457418
0000d0 c4 40 cf bb a5 b4 6c 3d f2 78 34 bd 29 4f 05 bd
       -0.0063248593 0.057789464 -0.044060655 -0.032546196
0000e0 50 74 a4 3d 6e 71 1f bd e1 10 5a 3e 0b cb c6 3d
       0.08029997 -0.038926534 0.21295501 0.09706696

model.param_proj.proj.1.weight f4 [1, 60]
000000 32 d0 31 bd a8 59 42 bd 14 ec 8b 3d 5c e0 c8 3c
       -0.04341144 -0.047448784 0.06832138 0.024521045
000010 c3 b0 3d 3d 1f 59 47 3e 2a 52 9d bd 28 ac a9 bb
       0.04631115 0.19467591 -0.07681687 -0.0051779933
000020 67 75 e4 3d e7 8c 3d 3e 1d 10 45 3e 62 f9 76 3d
       0.11155205 0.18510781 0.19244428 0.060296424
000030 fa 20 4f 3d b2 2f ed 3d 87 5b 1f be 9a 67 1f be
       0.05056856 0.11581363 -0.15562259 -0.15566865
000040 4b 5d 09 3e 32 58 20 3e b4 e2 3d be dc 41 0e bd
       0.13414495 0.15658644 -0.18543512 -0.034730777
000050 a2 40 03 3d 37 77 2a bb 43 af 7b bd 78 ef d5 bc
       0.03204406 -0.0026011 -0.06144644 -0.026115164
000060 3c 28 26 be 3a 71 03 be 98 2d c5 bc 2b 94 32 be
       -0.16226286 -0.12836161 -0.024069592 -0.17439334
000070 87 41 f6 3d 40 46 3e 3e bf 0c 8b 3d eb d0 06 be
       0.12024217 0.18581486 0.067895405 -0.13165633
000080 76 95 24 be d2 e3 a3 3d b8 0a bd 3d 49 89 1f be
       -0.1607264 0.08002438 0.0923056 -0.15579714
000090 49 04 6b 3d 45 a5 62 3d 54 25 39 be 34 ff 40 bd
       0.057377134 0.055333395 -0.18080646 -0.04711838
0000a0 21 e6 5f bd 78 ae 22 3e 46 38 2b bc 9d 83 d7 bd
       -0.054662827 0.15886867 -0.010450428 -0.1052315
0000b0 05 62 41 3e 1f c9 51 be 2c 60 1b 3e ab ad 05 3e
       0.18885048 -0.20486878 0.15173405 0.1305453
0000c0 29 2a 19 3e 8a c2 00 3e 04 03 27 bd d0 e3 ac bd
       0.14957489 0.12574211 -0.04077436 -0.08441889
0000d0 2a 98 66 3d 95 cc c3 bd 98 75 c0 3c fe 17 83 3d
       0.05629746 -0.09560505 0.023493573 0.064010605
0000e0 66 64 27 3e e7 bc 19 3e 26 79 8d bc ef 73 ad bd
       0.16346893 0.15013467 -0.017269682 -0.08469378

model.param_proj.proj.2.weight f4 [1, 60]
000000 e5 a7 be 3d fa 73 08 3e f5 45 8c 3d a5 7c ab bd
       0.09309367 0.13325492 0.06849281 -0.083733834
000010 26 5d 79 bd a5 bf 96 3d 3d 93 20 3d 78 e8 dc bd
       -0.06087985 0.07360772 0.039202917 -0.107865274
000020 38 29 d9 bc 24 09 45 bb d9 e6 d6 3d e0 c0 5f 3d
       -0.026508912 -0.0030065263 0.104932494 0.0546273
000030 65 dc e3 bd db c5 86 3d ac 4c b9 bd c4 d2 a4 3d
       -0.11126021 0.06580707 -0.09047827 0.08048013
000040 77 4c 2a 3d a3 02 18 3d b0 2c b4 3c 3a f4 b9 bd
       0.04157683 0.03711189 0.021993965 -0.09079786
000050 26 62 fb 3d 8a 43 62 3d 33 2e 6a 3d 10 4b a7 bd
       0.1227458 0.05524019 0.057172965 -0.08168614
000060 4e 66 cc bc 02 0b 8b bc 10 4c 9b bd c4 6c ae bb
       -0.024951126 -0.016973022 -0.07582867 -0.0053230245
000070 28 a8 ae 3c 32 b2 6f bb 9d 85 15 3b 5b d6 73 bc
       0.021320418 -0.0036574719 0.0022815235 -0.014882649
000080 2c 54 1d 3d 35 b1 e8 3c b7 8d fc bd fe a1 b3 bd
       0.03841035 0.028404811 -0.123317175 -0.08771132
000090 3d 94 2c bd 41 25 38 bd c6 b3 b2 bd 78 27 ed 3d
       -0.04213356 -0.044957403 -0.08725695 0.11579794
0000a0 65 4a f2 3c 97 8b c0 bd 2c e7 de bd cf 02 13 bd
       0.02957649 -0.09401625 -0.10883936 -0.03589135
0000b0 3a 20 2e 3d e6 cf bc bd 28 ac 1b 3e bc c9 a6 3d
       0.042511202 -0.09219341 0.15202391 0.081439465
0000c0 64 74 c9 3d 65 28 ca bd e5 67 09 3d 3f be 12 bd
       0.09836653 -0.09870986 0.033546347 -0.035825964
0000d0 20 71 b7 bd 48 ca fd 3d 06 52 67 bd 5d 7a c6 bb
       -0.08957124 0.12392098 -0.056474708 -0.0060570673
0000e0 4d 0c b2 3d 57 9d 44 bd f8 5e a4 bd f1 5a 7e bd
       0.086937524 -0.048001613 -0.08025926 -0.062098447

model.rnn.weight_ih_l0 f4 [240, 24]
000000 7d b0 96 3c cb 91 8f bc a6 18 03 3c 09 98 f1 bb
       0.018394703 -0.017525574 0.008001482 -0.0073728603
000010 14 77 ce bc 98 11 03 3d 31 8a d6 3d 7e d8 6d 3d
       -0.025203265 0.0319992 0.10475577 0.05806779
000020 69 d1 05 3e e6 fd aa 3c c3 fd 6a 3d 34 9f fe 3b
       0.13068165 0.020873021 0.057370912 0.0077704433
000030 d3 1b 30 be d5 b1 4d 3e 48 87 41 bd 08 7b 14 3d
       -0.17198114 0.20087369 -0.047248155 0.036250144
000040 a3 c3 4f bd ef 31 d8 bd af 5e c0 bd a2 5e 8c 3d
       -0.050723683 -0.10556399 -0.093930595 0.06853987
000050 51 4d 2b bd 02 83 0f 3e 18 07 57 3d 1b 82 88 bb
       -0.04182178 0.1401482 0.052497 -0.0041659004
000060 94 12 00 be 57 d0 e3 bd 3a c4 36 be 26 32 9a 3d
       -0.12507087 -0.11123722 -0.17848292 0.07529096
000070 ed 19 3a 3c 89 19 eb 3c b6 40 cc bd e7 16 df 3d
       0.01135872 0.0286987 -0.0997328 0.1089304
000080 a5 b2 b1 bc 6b 41 bc 3d 00 e2 b8 bc c9 f4 0c 3d
       -0.02169163 0.09192165 -0.022568703 0.034413133
000090 23 99 80 bd 9e 0e 78 3d ca 5b 84 3d e2 4c e9 bd
       -0.062792085 0.060560815 0.0646282 -0.11391617
0000a0 c8 07 e7 3d 31 9f 9b 3d a1 1f 9e bc 77 3f 89 bd
       0.11280781 0.07598723 -0.019302191 -0.06701558
0000b0 ed 88 c3 bb 09 d2 9d bd 7f 1c a6 bd db 1c ad 3d
       -0.0059672506 -0.07706077 -0.08110904 0.08452769
0000c0 4e 94 37 be 41 33 9d 3d ce 8c b5 3c b7 f3 03 bb
       -0.17927667 0.076757915 0.022161867 -0.002013428
0000d0 8c 61 d4 bd 65 13 ce bd 42 ec 26 be a5 ac a8 3d
       -0.10370168 -0.10062293 -0.16301063 0.08236054
0000e0 e5 f9 13 be 51 72 86 bc be c4 4e 3c 4c af 64 3d
       -0.14450796 -0.016411932 0.012620149 0.05583124
0000f0 37 78 b7 bd 82 45 e4 3b 23 ab 78 3c 51 34 74 3d
       -0.08958476 0.006966294 0.015177521 0.059620205
000100 f7 dd 84 3d 58 47 37 bc 94 1d a6 bd e4 c2 64 3d
       0.06487649 -0.011186443 -0.0811111 0.055849925
000110 10 e2 b1 bd df 55 cb 3b 78 f3 d7 bd ee 9d 05 3c
       -0.08685696 0.006205305 -0.10544485 0.008155329
000120 d0 05 4c be 54 3f d2 3d 6f 8f af bc b4 a6 f1 3d
       -0.19924092 0.10265985 -0.0214307 0.11799374
000130 1f a3 23 bd e2 e1 69 bd 6c 8b 0f 3e 56 d3 6b 3d
       -0.039950486 -0.057100184 0.14018029 0.057574593
000140 cd d0 28 bd c1 1c 39 3e df 52 95 bd 74 84 33 be
       -0.041214753 0.18077375 -0.07291197 -0.17530996
000150 15 ef aa bd 42 d0 c4 3d 66 7d 7f 3d c4 1a 8b bd
       -0.083463825 0.096100345 0.06237545 -0.067922145
000160 25 9a 9a 3d 14 28 4a 3d ba 4a 99 bd 5f 0a cd 3b
       0.07548932 0.049354628 -0.07484956 0.00625734
000170 fc d9 60 bd a0 07 34 3e eb ac d9 bc 0c d3 b1 3c
       -0.054895386 0.17581034 -0.026571712 0.02170708
000180 fd 38 d0 3d 68 34 84 3d 09 b9 7a bc b9 88 02 be
       0.1016712 0.06455308 -0.015302905 -0.12747468
000190 75 fd a3 3d 89 43 ca bd 21 72 c2 bd e8 fd 2c 3d
       0.080073275 -0.098761626 -0.094944246 0.04223433
0001a0 24 a8 d7 bd c9 85 c5 bd 5f d6 fd bc 8d e3 9e 3d
       -0.10530117 -0.09644658 -0.03098601 0.077582456
0001b0 e5 61 8a 3d f9 d3 2c be e6 d1 45 bc aa 68 45 3d
       0.06756953 -0.16877736 -0.0120739695 0.04819552
0001c0 a8 01 0b be fd 62 6f 3d 4c ba 86 3d cd c3 cc bc
       -0.1357485 0.058444012 0.06578502 -0.024995709
0001d0 6f 7f 85 3d 66 52 e6 bd 5a 1e 3f 3d a5 9e a3 3d
       0.06518447 -0.11246185 0.046659805 0.079892434
0001e0 11 15 68 3e 60 0c 64 bd 74 54 4e 3c 91 a8 9d bd
       0.22664286 -0.055675864 0.012593377 -0.07698167
0001f0 80 13 a6 bd 68 0e 47 bd a6 7e c6 3d 4c 2e 8b 3d
       -0.08109188 -0.048597723 0.09692125 0.0679594
000200 f9 73 48 3d 3e 98 e2 bc 93 de 24 be 5d 52 40 bd
       0.048938725 -0.027660485 -0.1610053 -0.046953548
000210 3b 06 a9 3d a0 24 28 3e a1 54 2d 3d 95 d2 bf 3c
       0.082531415 0.16420221 0.042317037 0.023415843
000220 22 9c 94 3c cf 95 0c be 5f 5d 1f be a5 20 4e 3d
       0.018140856 -0.13729022 -0.15562962 0.0503241
000230 c2 e5 e5 3b ac 3e 30 3d cb 2b 09 bc 7a de 7c bd
       0.0070159147 0.04302852 -0.008372257 -0.061735608
000240 f1 6a 16 be d4 ed a7 39 f7 39 03 be ef d4 dd bc
       -0.14689232 0.00032029918 -0.1281508 -0.027079074
000250 29 3d 57 3d 06 55 e1 3d 94 b9 23 bd 63 5a 9a bd
       0.05254856 0.11002545 -0.039971903 -0.07536771
000260 96 bb a6 bd 69 3d cf bd 64 15 7f 3d 69 a4 ad 3d
       -0.08141248 -0.10119135 0.06227626 0.084786244
000270 42 8f ae 3c 68 9b ae bd 50 37 e3 bd e5 42 41 3d
       0.021308545 -0.08525735 -0.110945344 0.047182936
000280 aa 0c e8 3c b8 ed 89 3d 8c 42 f9 bd e4 96 28 bd
       0.028326351 0.067347944 -0.12170896 -0.041159526
000290 dd 2f b2 bd f8 fd 03 3d f8 65 85 3d 55 9d e0 3d
       -0.087005354 0.032224625 0.065135896 0.10967509
0002a0 3f 1f 6f bc 0f 95 21 3e 2a c1 e1 3d 68 27 75 3d
       -0.014594852 0.15779518 0.11023171 0.059852034
0002b0 69 cb 89 bd 23 16 8d bd f5 66 85 bd 98 94 35 bc
       -0.067282505 -0.06888988 -0.06513778 -0.011082791
0002c0 5f 2d cb 3d 6d dc 9f bd d5 b2 fc bd 86 60 1f 3e
       0.09920763 -0.07805715 -0.12338797 0.15564165
0002d0 dd fb c9 bd 4f 5e e7 3d d8 d3 8c bd 84 8b a1 bc
       -0.09862492 0.11297285 -0.068763435 -0.019719847
0002e0 73 4b 0b be a4 87 8c bd b7 54 09 be 0d aa 9b 3d
       -0.13603 -0.06861809 -0.13411222 0.07600794
0002f0 ce 3a 25 be 6c 7e 1d 3b 88 25 37 3e 3d 5b 08 3e
       -0.16135713 0.0024031652 0.17885411 0.13316055
000300 7c 2f 2b 3d d8 9c 0a be 89 66 96 bc 7d ab ff 3d
       0.04179333 -0.13536394 -0.01835944 0.12483881
000310 66 6d 2c be c9 41 a8 3d 25 e7 88 3d 55 e2 25 be
       -0.16838607 0.082156725 0.06684712 -0.1619962
000320 22 b1 60 bc 47 fb 0a b9 a4 b0 98 3b e2 b7 42 bc
       -0.013714107 -0.00013254314 0.004659729 -0.011884661
000330 30 45 60 3d 63 25 aa bd a7 48 63 bd 9f b4 90 3d
       0.054753482 -0.08307912 -0.05548921 0.07065701
000340 5f 45 b7 3d d6 4b 2a bd 9a de 5d bd c5 75 e2 bb
       0.08948778 -0.04157623 -0.054167368 -0.006911012
000350 dd 3d ed bd 77 d8 70 3c 11 93 69 3d 72 ad 2c 3d
       -0.11584065 0.014700047 0.05702502 0.042157598
000360 6d 8e 1d 3d 09 3c 35 3d 66 47 07 3d 83 66 c8 3d
       0.038465906 0.044246707 0.033027075 0.097851776
000370 49 97 26 3c ab e7 7a 3d 2e ba e2 bd 0c 69 55 3d
       0.010167905 0.061256092 -0.11070667 0.052102134
000380 b1 fc 9e 3d 80 44 af 3d e5 b0 00 be c3 a1 02 bd
       0.07763041 0.08557987 -0.1256748 -0.03189255
000390 61 ed 6a bc b1 dd cb 3c 75 4f d8 bb c6 99 9f 3c
       -0.014338822 0.024885984 -0.006601269 0.019482505
0003a0 f3 1a 70 bd 9c 5a 5a 3b fc aa 08 be 65 bf ac bc
       -0.05861945 0.0033318168 -0.13346475 -0.021087358
0003b0 8a 30 0a be dd 0a 3b 3e 43 49 dc bd 89 0a df 3d
       -0.13495079 0.18265863 -0.10756161 0.10890681
0003c0 52 e3 2d 3e 80 12 c1 bd 0f d6 49 3d 2a 17 0b bc
       0.16981247 -0.09427357 0.049276408 -0.008489409
0003d0 e6 86 8f 3d 60 c4 71 3c 06 d8 13 3e 5a 15 51 bc
       0.07008152 0.014756292 0.14437875 -0.012761438
0003e0 1f 94 87 3d eb 82 95 3d 5e 7d 45 be 0d 7b 12 3e
       0.06620049 0.07300361 -0.19286105 0.14304753
0003f0 d6 f9 c0 ba 20 fd a8 bd 53 13 52 3d 17 50 1c 3d
       -0.0014722894 -0.08251405 0.05128796 0.038162317

model.rnn.weight_hh_l0 f4 [240, 60]
000000 21 ab c2 3d 74 81 42 39 03 fc 04 be f4 c0 f6 bd
       0.095052965 0.00018549507 -0.1298676 -0.12048522
000010 e2 7d 1c 3d 78 88 e6 bd 77 4a df 3d 09 9d 83 3d
       0.03820599 -0.11256498 0.10902875 0.064264365
000020 78 a4 85 3d f7 c3 f4 3d ed 02 be 3b 7e cc be bd
       0.065255105 0.1195144 0.0057986886 -0.093163475
000030 dd 5e b4 3d 96 44 04 be 4a f5 67 3d be 76 98 3d
       0.08807156 -0.12916788 0.05663041 0.07444523
000040 ed 62 9f bd 33 28 1f 3d 67 3f 41 bd 7a ef 30 3c
       -0.077825405 0.038856696 -0.047179606 0.010799283
000050 28 93 4a 3d 3e 26 ab bd b6 35 c5 bd e7 33 01 3d
       0.049456745 -0.083569035 -0.09629385 0.03154364
000060 08 af ba bd b1 db e3 bb 00 40 77 bd 1b 8a d2 bd
       -0.09115416 -0.0069536795 -0.06036377 -0.10280248
000070 e6 9c f8 3d 2c 9c f6 3d 27 c7 e2 3b 6b 6b fc 3d
       0.12139301 0.12041506 0.0069207135 0.12325176
000080 da 91 0b bd ad 6b ac 3d 5a 99 50 bd 6c 12 d3 bd
       -0.03407464 0.08418975 -0.050927497 -0.10306248
000090 6e 3c 8b 3d 27 06 15 bd c0 94 fc bd 78 77 f4 bd
       0.067986354 -0.03638282 -0.12333059 -0.11936849
0000a0 3a 16 90 3d 8a 49 00 3e 8b a2 14 bd 02 9d aa bc
       0.070354894 0.12528053 -0.036287826 -0.02082682
0000b0 3a 5c 91 bd 31 2c f6 3d e1 43 c0 bd d8 4c bc 39
       -0.07097669 0.120201476 -0.09387947 0.00035915407
0000c0 1e 47 8d bd ec 0e 5d bd 1a 96 21 bc 25 98 9f 3d
       -0.0689833 -0.05396931 -0.009862447 0.07792691
0000d0 dd 0a 91 3d a3 ef fb bd ae be 79 3d d8 c6 66 bd
       0.0708215 -0.123015665 0.060972862 -0.056341976
0000e0 c6 b8 c1 3d 05 fa be 3d 98 b6 84 bc 1a 1e 33 3d
       0.09459071 0.09325031 -0.016200349 0.04372988
0000f0 25 05 ac 3d f2 c5 e1 3d 3d 1f bc bd af 7d 0e 3c
       0.08399419 0.11024083 -0.09185646 0.0086969575
000100 c2 e6 3b bd e6 c6 da bd 80 59 fb bd 13 b1 8a 3d
       -0.045874365 -0.10682468 -0.1227293 0.067720555
000110 15 8a 46 bd 10 89 9d 3d ab 1b b7 bd da 64 1b be
       -0.04847153 0.07692158 -0.08940824 -0.1517519
000120 1f a8 c5 3c 53 be 0f be b4 90 46 bc 13 71 01 3b
       0.024128018 -0.14037447 -0.012119461 0.0019751235
000130 31 a2 aa 3d 4f 0a ef 3d e7 c0 d0 3d 73 0d 0b be
       0.08331717 0.11671888 0.10193043 -0.13579349
000140 4d 11 2a bd fc a0 c0 3d e1 d2 ff bd 51 cb fd bd
       -0.041520406 0.09405705 -0.12491394 -0.12392295
000150 04 a6 99 bb 22 36 47 3a cf 26 0e be 0c b8 d3 3d
       -0.00468898 0.0007599314 -0.13881992 0.103378385
000160 47 10 ea bc 1a 71 b5 3b 80 41 1c 3e 6d 09 56 bb
       -0.028572215 0.0055371644 0.15259361 -0.0032659427
000170 66 1e 83 bc 95 9e 49 bd 43 b3 cf bd 81 30 fb bd
       -0.016005706 -0.0492235 -0.10141613 -0.12265111
000180 c9 9c 03 3c 95 4f 62 3d 72 d1 a2 bd 89 c9 1e 3e
       0.008032986 0.055251677 -0.07950105 0.15506567
000190 a5 52 46 bd 64 2b 9d 3c 86 52 e4 3d 30 91 62 3d
       -0.04841866 0.01918573 0.111485526 0.055314243
0001a0 f0 bc c6 3d 73 5d 6e bd 29 e0 59 3d 03 71 b5 bc
       0.09704006 -0.05819459 0.05319229 -0.022148615
0001b0 81 73 de bd 3d 92 89 bd d8 76 ed 3d 9f ef 21 be
       -0.10861874 -0.06717346 0.11594933 -0.15814064
0001c0 29 64 50 bd a2 3b 95 bd 19 ad 05 3c 97 69 a3 bc
       -0.05087677 -0.07286765 0.0081589455 -0.01994781
0001d0 79 ea 7b bd 32 02 51 bd e6 8e d8 3d bf 48 3b 3e
       -0.061502907 -0.051027484 0.10574131 0.18289469
0001e0 24 2b 6d bc 46 cd b1 bb d8 ab 0c 3e 1b bb ad bb
       -0.014475618 -0.005426082 0.13737428 -0.0053018457
0001f0 3d bf d7 bc f7 3f 39 3d 19 27 07 bc 23 1c ea bd
       -0.026336307 0.045227017 -0.008249068 -0.11431148
000200 59 6f b3 bd 06 4b 1a bd f2 67 96 bd c9 a6 cd 3d
       -0.08761472 -0.037669204 -0.07344045 0.10041577
000210 b6 21 65 3d 82 0e a9 bc 2c ad 02 3d ba 1d 49 bb
       0.055940352 -0.0206368 0.03190343 -0.0030687884
000220 dc bc 73 3d d2 fe c4 3d 71 bb 8a bc f9 7b f6 3d
       0.059506282 0.096189156 -0.016935082 0.12035365
000230 b4 81 92 3d b6 8a 10 3e ac 6f b3 bd 97 e1 52 bd
       0.07153645 0.14115414 -0.08761534 -0.05148467
000240 29 bd f2 bd 6e a9 72 bd ba 42 eb 3c 1d 2b b8 bd
       -0.11852486 -0.059243612 0.028718341 -0.08992598
000250 f4 a5 07 bb 82 e2 d3 3c 0c 84 03 be 3e 3a 50 3d
       -0.002069828 0.025864843 -0.1284334 0.050836794
000260 ea b2 08 be fd 69 20 3e ce 4a bd 3d 04 35 8d bb
       -0.133495 0.15665431 0.092427835 -0.0043092985
000270 4f 5a a3 3d 16 61 60 3c 0a 29 c9 3c 09 97 90 bd
       0.07976209 0.013695022 0.024555702 -0.07060058
000280 c5 0f 0f 3e 9a d6 c1 bd ac ee 97 3d 61 14 e9 3d
       0.1397086 -0.0946476 0.0741857 0.1138084
000290 24 cc dd 3b d1 a1 9e bd 75 98 a1 bd 0a fc d5 bd
       0.00676872 -0.07745708 -0.07890407 -0.10448463
0002a0 4f 58 dc bd 00 c4 1d bd 4d 4a 6c 3d 99 72 ad 3c
       -0.10759031 -0.038517 0.057688046 0.021172808
0002b0 38 de 96 bd 5a c1 84 3d e0 6e 1c bd d5 e5 32 bb
       -0.073666036 0.064821914 -0.038191676 -0.0027297635
0002c0 65 07 06 3e 2a 3d 8a 3c 39 69 ea 3d d3 b8 7b 3c
       0.13088758 0.016874868 0.11445851 0.01536389
0002d0 91 68 b4 bc ed 95 60 3d 3b 36 de bd c9 46 a7 3d
       -0.022022517 0.05483048 -0.108501874 0.08167798
0002e0 bb 34 9a 3d 89 7d 15 3c ce 98 41 3c 67 75 98 3d
       0.07529589 0.009124168 0.011816217 0.07444268
0002f0 aa d0 d4 3d b4 09 00 3e f4 97 9e 3d 87 ed ce 3d
       0.10391362 0.12503701 0.077438265 0.101038985
000300 34 9f b4 3c 6d b8 35 bd 48 9f 03 3d c7 aa 33 3d
       0.02204857 -0.044365335 0.032134324 0.043864038
000310 b9 68 03 be b3 b6 9b 3d bb 44 a4 3d 7b 2c b8 bd
       -0.12832917 0.076032065 0.08020922 -0.08992859
000320 fe 1b 71 bc 1c c6 1a bd 70 45 20 bd ea bb 00 3d
       -0.0147161465 -0.037786588 -0.03912872 0.03142921
000330 7f d2 29 bd f2 ae d9 3d df aa 3e bc c3 93 58 bd
       -0.04146051 0.10629071 -0.0116374185 -0.05287529
000340 3e fa 3c 3d ca d0 c7 3d b0 72 a0 3d 81 c8 ac bc
       0.046137087 0.0975662 0.07834375 -0.021091701
000350 8c 0b ba bd 43 1b b7 3c df a4 02 3d e7 d5 da bd
       -0.09084234 0.022351867 0.031895515 -0.1068533
000360 f8 81 4e bd 37 f6 1b 3e ae c6 82 bd a2 75 92 3d
       -0.050416917 0.15230642 -0.063855514 0.07151343
000370 52 75 a6 3d 04 54 cf bd 6a a8 b6 3d 5f 24 f0 3c
       0.08127846 -0.101234466 0.08918841 0.029314218
000380 f7 86 56 bd 46 84 fe 3d 37 dc b6 3d 19 e1 88 bd
       -0.052374806 0.12427573 0.089287214 -0.06683559
000390 d0 03 ae 3d fd 13 1c bd 2f 7c 21 3d c0 73 57 3d
       0.08496821 -0.038105 0.03942507 0.052600622
0003a0 e0 00 6b 3d bb 8e ab 3d 3e 1b 10 bb 59 65 d8 3d
       0.05737388 0.08376833 -0.0021988894 0.105662055
0003b0 30 4b c8 3d 2f 6b e2 3d db d2 c3 3d ee 3b 48 3c
       0.09779966 0.110556 0.09561702 0.01222132
0003c0 cb 05 7a bd 60 d6 97 3c eb 19 9b bd 64 b7 bd bd
       -0.06104068 0.01853484 -0.07573303 -0.092634946
0003d0 b1 09 0f 3d 4e ed 36 bd 50 c3 9c 3d 47 d1 e2 3d
       0.03492135 -0.044659905 0.076544404 0.11075073
0003e0 49 af a0 bb 6c 3f cf bb 7a e4 b6 3d 1b 36 4e bd
       -0.004903708 -0.006324699 0.08930297 -0.050344568
0003f0 88 17 07 3d 16 4c 82 3d 01 0f 6a 3d 3e c2 13 bd
       0.032981426 0.063621685 0.057143215 -0.036073916

model.rnn.bias_ih_l0 f4 [240]
000000 e4 e3 a4 bd fb 33 0e 3e d5 b5 f9 bd b2 12 8e 3d
       -0.08051279 0.13887016 -0.12192885 0.069371596
000010 69 75 78 bd 78 e2 52 3d 9f aa 38 bd b6 b5 43 3e
       -0.060658846 0.05148551 -0.045084592 0.19112286
000020 4e 18 53 3e 3d f4 d4 3d 2d 42 62 3d 69 7a e3 3d
       0.2061474 0.10398147 0.05523889 0.11107332
000030 94 fe 1d 3d 71 08 e3 3d 1e d9 c7 bd 74 48 49 3d
       0.038572863 0.110855944 -0.09758209 0.049141362
000040 6e 2b 56 bd 74 4d a8 3d 1d 6f 41 3d 14 e6 b9 3d
       -0.05228751 0.08217898 0.047225107 0.09077087
000050 41 18 ff bc 8a 1e e2 3b 72 c9 8d bd 8c fa 3c 3c
       -0.031139495 0.006900613 -0.06923188 0.011534344
000060 6c 58 14 3e 42 88 f6 3d 94 ef 4b 3d 59 d7 20 3e
       0.14486855 0.12037708 0.049789026 0.15707149
000070 cf 69 77 3d ab 72 07 3e d5 80 65 3d 2c 12 cb 3d
       0.06040364 0.13227336 0.056031067 0.099155754
000080 ac bf 6e bc 2c 0d df 3c 21 f9 2a 3e da bc 02 3d
       -0.014572065 0.02722796 0.16696598 0.031918384
000090 3e 97 3b 3e ed 21 27 bd 02 03 87 3c 15 3d ed 3b
       0.18319413 -0.04080384 0.016480926 0.0072399476
0000a0 c7 6f d3 bc 65 15 96 bd e4 bb 67 3d a0 79 ac bc
       -0.025810136 -0.073282994 0.05657567 -0.02105409
0000b0 f2 5c 0a 3e 85 45 b7 3d c9 22 05 3e b2 b4 93 bc
       0.13512018 0.08948807 0.1300155 -0.018030498
0000c0 ce f8 97 3d b9 01 29 3e 63 ea 55 bd aa 44 bc 3d
       0.074205026 0.16504563 -0.05222548 0.09192784
0000d0 aa fa 84 bd 75 93 af bd 7d a8 59 3d f5 32 39 bd
       -0.06493123 -0.08573047 0.0531392 -0.045214612
0000e0 2b 6a e3 3d c1 c8 e8 3d 07 35 8e bd 37 6a a7 bd
       0.11104234 0.11366416 -0.06943708 -0.08174556
0000f0 ae 50 bc 3d f2 d2 eb bc 1d 1d 70 3d d2 ff 08 3d
       0.09195076 -0.02878711 0.058621515 0.033447094
000100 4f 4f 22 3d 0f 3f 24 3e 86 c8 62 bd c2 4f bd bd
       0.039626416 0.1603968 -0.055367015 -0.09243728
000110 b6 38 8a 3d b9 57 13 3d c5 84 75 bd e6 89 e4 3d
       0.06749098 0.03597233 -0.059941072 0.111591145
000120 49 f4 c3 bd 64 05 70 3b 29 c6 e3 bd a8 d2 44 ba
       -0.09568078 0.0036624307 -0.111217804 -0.0007508197
000130 65 d0 23 bd 7a 8a aa bd 1c f3 9f bd 91 c3 4c bd
       -0.039993662 -0.083271936 -0.07810041 -0.049991194
000140 48 87 ed 3d 7c 26 7f bb c9 ec bb bd 02 aa 07 3d
       0.115980685 -0.003893285 -0.091760226 0.033121116
000150 48 b7 57 bd e8 b8 6e 3c c3 fe a6 bc a7 10 71 3d
       -0.052665025 0.014570452 -0.020385152 0.05885377
000160 56 d5 73 3d 87 a8 9b 3c ee c3 12 3d fb 4a 32 3d
       0.059529625 0.019001259 0.035831384 0.04352854
000170 b5 a9 96 bd 56 20 a7 3d a6 7c dd bd 9d a8 f8 3c
       -0.07356588 0.081604645 -0.108147904 0.030353839
000180 51 4d 55 3c 43 c6 b9 3d d1 26 ef bd 35 63 05 3d
       0.013018922 0.090710185 -0.116773255 0.032565314
000190 f5 a8 be 3c dc 87 13 3e 65 a8 dc 3d 5c 21 4c bd
       0.023273924 0.14407295 0.10774306 -0.0498365
0001a0 80 ce cd 3d 78 af 0e bd e4 21 c2 bd 4a b5 a7 bd
       0.100491524 -0.03483531 -0.094791204 -0.08188875
0001b0 81 b0 b6 bd 5c 87 ff bd 0a 73 f1 3c 1a 2e 93 bc
       -0.08920384 -0.124769896 0.0294738 -0.017966319
0001c0 93 da 0a 3c 6c a3 26 3d dd 51 e2 bc 79 26 69 bd
       0.008474964 0.040683195 -0.027626926 -0.056921456
0001d0 b9 36 62 3c 1d da 32 bc e5 f7 dd bd 4f 7e 80 3d
       0.013806992 -0.01091626 -0.10838298 0.062740915
0001e0 9c 9e 44 3d 62 97 0d 3e bc 53 f0 bb a8 1e e4 bd
       0.048002824 0.13827279 -0.0073342007 -0.1113866
0001f0 36 55 18 be 75 1f cb bd df 30 ef 3c 20 5c 15 bd
       -0.14876255 -0.09918109 0.029198108 -0.03646481
000200 6d f8 c8 3d 40 01 a2 3d 33 1b 87 bd 7f a5 ae 3d
       0.098130085 0.07910395 -0.06596985 0.085276596
000210 64 0c dd 3d 1b 3f f2 3d 06 82 07 be c9 fe d4 3d
       0.10793379 0.11828443 -0.13233194 0.10400159
000220 34 49 ea bc 63 b3 37 bc 7f c4 ba 3d f2 b3 84 bd
       -0.02859936 -0.011212203 0.0911951 -0.06479634
000230 96 ca bd 3d ed 39 14 be ed c7 bc 3c 11 7d 9c 3d
       0.09267156 -0.14475222 0.02304455 0.07641042
000240 e2 f7 9d 3c 07 2c 06 3d b5 26 a1 bd 16 6b f7 3c
       0.019283239 0.03275683 -0.07868711 0.03020243
000250 e5 d9 bf bd 39 9c d7 bc a5 7c f6 3b a5 eb c9 3d
       -0.09367732 -0.02631961 0.007522183 0.09859399
000260 b8 1e fc bc 66 05 72 3d f9 6e 0b bc f5 dc 17 bd
       -0.030776367 0.05908718 -0.008510345 -0.037075955
000270 4d 3a 80 3c 64 df 60 bd a1 25 ae bd c9 4d c7 3b
       0.0156528 -0.054900542 -0.08503271 0.0060822708
000280 7b 5c 86 3d d4 f4 bd bd a3 07 d8 3d b0 e2 49 3d
       0.06560608 -0.09275213 0.105483316 0.04928845
000290 ea 32 cd bc 02 5f f2 3c 09 ba a4 3d 2a b2 f1 bd
       -0.025048692 0.029586319 0.08043296 -0.1180156
0002a0 49 de 99 bd aa be ec 3b d6 35 27 bd c1 14 66 3d
       -0.07513101 0.0072248774 -0.040822826 0.056172136
0002b0 a4 72 7b bd 52 6b ae bd 65 ec a5 3d 6c 18 72 3d
       -0.061388627 -0.085165635 0.08101729 0.05910532
0002c0 98 09 de bd 36 a8 fe bd 00 cf fe 3d 84 1d 4e bc
       -0.108416736 -0.124344274 0.12441826 -0.012580279
0002d0 0c a5 b5 bd 3b 9a 40 3d e9 1f 69 3d 2d 83 b0 bd
       -0.08869371 0.047022086 0.056915198 -0.0861877
0002e0 bb 29 ca bc c5 61 83 3d 13 e1 31 3e 3c 5d a2 3d
       -0.024678102 0.064151324 0.17371015 0.07927939
0002f0 6b b2 eb 3d 1a 36 09 3e 56 66 af b9 bd 58 c1 3d
       0.1150864 0.13399544 -0.00033454847 0.094407536
000300 72 60 64 3c e3 94 26 3e 93 fd eb 3a df 54 61 bd
       0.01393901 0.16267733 0.0018004648 -0.05501258
000310 86 3d 3b 3c c2 2e 30 3d 3e b1 06 3d 57 8e ac bc
       0.011428243 0.04301334 0.032883875 -0.021063967
000320 f3 dd 86 bd 7c 9c 90 bd 9f 72 be 3c 77 55 c0 bd
       -0.06585302 -0.07061097 0.023248015 -0.09391301
000330 92 90 a6 3d 8c d8 f5 3d d1 c3 a2 3d 00 5a 54 3e
       0.08133043 0.12004194 0.07947505 0.20737457
000340 a6 5d f4 bc ef a9 32 bc 86 2c 07 3e e6 77 1b 3e
       -0.029829811 -0.010904773 0.13200578 0.15182456
000350 e7 48 9b 3d f5 d8 32 3e 4f 7e 9c 3b ce 36 38 bd
       0.075822644 0.17465575 0.0047757993 -0.04497414
000360 78 fa e5 bc a9 80 56 bd f4 c4 f5 3d 66 a4 02 3e
       -0.028073534 -0.052368794 0.120004565 0.12758026
000370 8e 28 ac bd ab 83 45 3d cd d5 3d bd c2 b0 14 3e
       -0.08406173 0.04822127 -0.046346474 0.14520553
000380 7a f8 40 bd 75 6c 77 3d a1 b1 c6 3d 4f 31 1d 3e
       -0.047111966 0.060406167 0.09701849 0.15350841
000390 60 b9 a2 3c 41 28 dc bc 8a d3 24 3e 17 e1 d0 3d
       0.019863784 -0.026874663 0.16096321 0.101991825
0003a0 f9 8b ee 3d 05 92 92 bd e1 34 81 3d 5d 7b 2c bb
       0.116477914 -0.07156757 0.06308914 -0.0026318647
0003b0 05 df 03 bd 45 95 4a 3e fb 57 5f bd 1e 5b b2 3d
       -0.03219511 0.19783504 -0.054527264 0.087087855

model.rnn.bias_hh_l0 f4 [240]
000000 b8 d9 c4 3c e4 e2 be 3c 74 07 a7 3c 29 3f be bd
       0.024029598 0.02330155 0.020389296 -0.092893906
000010 fa 68 58 bc fa ba 09 3e 43 4a 49 bd 6f 25 2a 3e
       -0.013208622 0.13450232 -0.049143087 0.16615842
000020 0c ce fe 3c b0 e2 10 3e 83 cf 74 3d 1f 2b f9 3d
       0.03110411 0.14148974 0.05976821 0.12166428
000030 d6 70 3a 3e 53 c1 1a 3e b7 06 cd bd 74 99 d8 bd
       0.18207106 0.1511281 -0.100110464 -0.10576144
000040 80 a8 2f bd 87 da 2e 3e 19 22 3f 3d cb f7 a6 bb
       -0.042885303 0.17075549 0.046663377 -0.005095457
000050 7a a3 9c bd 39 d4 37 3e 09 89 12 bc 9b ea aa bd
       -0.07648368 0.1795205 -0.008943805 -0.08345529
000060 87 75 3a bd ce be a0 bd 41 4f 90 3d 2f d7 a7 3d
       -0.04552224 -0.07848893 0.070463665 0.0819534
000070 08 82 01 bd 46 09 6c bb dd af 56 3c 30 28 39 3e
       -0.031618148 -0.003601627 0.0131034525 0.18081737
000080 8d 22 93 bc 6b e6 20 bd 76 f6 1f 3e f7 2b b3 3d
       -0.017960811 -0.039282244 0.15621361 0.0874862
000090 fe 7b ce bc e1 15 1d 3d 95 ce c4 bd bd 5d d9 3d
       -0.025205608 0.038350943 -0.09609715 0.10613582
0000a0 ed ac 77 bd 72 35 c8 3c 30 3a 3b bd 87 64 97 bd
       -0.06046765 0.024439547 -0.04570979 -0.07392221
0000b0 c8 ae eb 3c 47 72 37 bd 97 03 1a 3d 28 25 2b bd
       0.028769866 -0.044786718 0.03760108 -0.04178348
0000c0 2d 10 33 3c e3 88 be 3d e7 27 7e 3d c0 bb 4b bd
       0.01092915 0.09303453 0.062049773 -0.0497396
0000d0 56 5c 3a bd ec 21 93 bd 3a 2a 19 3e 8b b1 ca bd
       -0.045498215 -0.071842045 0.14957514 -0.09897145
0000e0 90 37 35 3d 1e 8e ff 3d b4 cb 40 bd aa f2 b0 3d
       0.04424244 0.124782786 -0.047069266 0.086400345
0000f0 b4 50 98 bd dc 37 d6 3d 96 71 b5 3d 23 c4 00 be
       -0.07437268 0.10459873 0.088595554 -0.1257482
000100 c4 32 6d 3d 9c 8f ee b9 61 8c 88 bc e8 91 9d bd
       0.057909742 -0.00045501895 -0.0166685 -0.07693845
000110 4a 65 56 bc 62 28 fd bb 23 b9 a1 bd fd c9 b9 bd
       -0.013085673 -0.0077257613 -0.0789664 -0.09071729
000120 01 8e ab bd 13 f6 e7 bc b8 6a 9d bc 9b 60 fa 3c
       -0.083766945 -0.02831558 -0.019215927 0.030563643
000130 56 06 8f bd 50 3e 97 3d 7f 56 e6 3b 19 88 99 bd
       -0.0698363 0.07384932 0.007029354 -0.07496662
000140 7e db ca bd f8 9e 5d 3d 19 3e 4a bd ab 0e 74 bd
       -0.09905146 0.054106683 -0.049375627 -0.0595843
000150 13 20 c7 3d cc 08 f8 3d 9c 25 b7 bd 67 cc 8f 3d
       0.097229145 0.12111053 -0.0894272 0.070214085
000160 96 e7 06 3e 01 f1 93 bd 86 29 9a bd 84 3c 86 bd
       0.1317428 -0.07223702 -0.07527451 -0.06554511
000170 37 c5 87 bd 78 01 ea 3d ff a2 c6 3d 8b 09 e2 bc
       -0.066294126 0.114260614 0.09699058 -0.027592441
000180 ac 54 ac bd 4d d6 8a bd 1a b1 10 3d f4 0a 4f bd
       -0.084145874 -0.06779156 0.035325147 -0.050547555
000190 5f 78 58 3c d5 75 d4 bd 6f 2e c0 3d a1 70 e6 3d
       0.013212292 -0.10374037 0.093838565 0.11251951
0001a0 a5 94 29 3d 0d 12 aa b9 de 9f e2 bd 9b e2 d7 bd
       0.041401524 -0.00032438376 -0.110656485 -0.105412684
0001b0 44 69 87 3c 6c b8 5f bd b2 e0 a6 bd 28 e7 89 3d
       0.016529687 -0.054619238 -0.08148326 0.06733543
0001c0 28 b6 cd 3d 18 4b 5f bd 6f 7a e4 39 bb f2 91 bd
       0.10044509 -0.054514974 0.0004357877 -0.07126375
0001d0 20 a0 a2 bd 36 28 2c bd 6a d2 ec 3d 9c 17 2a bd
       -0.07940698 -0.042030536 0.11563571 -0.041526422
0001e0 c4 8a bb bd 7e 50 32 3c 9a eb 01 be 6a 97 04 be
       -0.09157327 0.010883449 -0.12687531 -0.12948385
0001f0 1c 5f ff bd a3 e8 47 3d 75 9c 7d 3c 19 cf 0c bc
       -0.124693125 0.048805844 0.015479197 -0.008594298
000200 42 c0 b3 3b e2 a4 f4 bd bf de bf 3d 4e 81 05 bb
       0.0054855654 -0.119455114 0.09368657 -0.002037126
000210 d8 12 e4 bd 5f 56 8e 3d de bb 67 3d 57 dd 02 3e
       -0.11136407 0.06950068 0.05657565 0.12779747
000220 7b 0c 5c bd b2 38 5d bd 5e d6 b6 3d 2d ed b4 bd
       -0.05372284 -0.054009147 0.08927606 -0.088343
000230 ff fa ba bc e7 93 37 bd ea 39 53 bc 9d 16 97 3d
       -0.022824762 -0.044818785 -0.012892226 0.0737736
000240 f2 a6 70 3c 12 86 b0 3c df 00 fb bc 64 75 8e bd
       0.01468824 0.021548305 -0.030640064 -0.06955984
000250 19 3b a4 bd 86 23 9b bc a9 07 8d 3d 09 ac 51 3d
       -0.080190845 -0.018937837 0.06886227 0.051189456
000260 d9 f6 cc bd 22 23 ce 3d 4e c2 b1 3b e4 1f 87 3d
       -0.1000802 0.10065295 0.0054247743 0.065978795
000270 21 42 87 bd 46 74 db 3d 43 7a 32 3d f5 70 a8 bd
       -0.0660441 0.10715537 0.04357363 -0.0822467
000280 75 f7 98 3d 4b 87 c7 3d a3 de 9d bc c9 38 3e bc
       0.07469074 0.09742602 -0.0192712 -0.011610218
000290 6c b8 b1 bd 13 49 05 be a4 0f dd 3d a2 01 bb 3d
       -0.08677754 -0.13016157 0.10793999 0.09131171
0002a0 d1 00 9f 3c c3 2a 9d 3c e6 c2 6b 3d f3 ae 40 3c
       0.019409569 0.01918543 0.057558917 0.011760461
0002b0 c2 83 db bd ff ad 01 3c ae 76 fd 3d d1 e3 17 3e
       -0.1071849 0.007915019 0.12376152 0.14832999
0002c0 0f 4b b8 3d 94 c9 c3 bb 96 fd 83 bc 6f b3 8b 3d
       0.08998691 -0.0059749577 -0.01611213 0.068213336
0002d0 78 80 30 bb e8 a1 5a bd d0 72 db 3d f4 c7 de bd
       -0.0026932042 -0.053377062 0.10715258 -0.10877982
0002e0 42 c0 07 3e f8 4b 95 3d dd 88 29 3d 52 6d d9 bc
       0.13256934 0.072898805 0.04139029 -0.026541386
0002f0 8d f2 14 3e 2f f4 06 3e 17 53 f1 3c 01 57 90 bd
       0.14545651 0.13179086 0.029458566 -0.07047845
000300 66 62 07 3e 86 bd 17 bd ee 8f 1a bd 1e 01 14 3e
       0.1322113 -0.037045978 -0.03773492 0.14453551
000310 fa 78 fb 3d 75 8c 64 bd d2 69 de 3d ff 27 1b bb
       0.12278934 -0.055798013 0.108600274 -0.0023674963
000320 46 96 55 bd d6 eb 8a bd e8 09 af bd 12 1d fb 3d
       -0.052145265 -0.067832634 -0.08546811 0.12261404
000330 3d 33 26 3d 1d 12 0a 3d 88 62 c3 bb f7 fb 3b 3e
       0.04057621 0.03370868 -0.0059626736 0.18357836
000340 13 0b 72 bd 04 8b c7 3d 7f 91 7a 3d 78 96 96 bd
       -0.059092592 0.09743312 0.061173912 -0.073529184
000350 ff 7e e4 3c af bf e5 bb 37 b6 29 bc d2 6f 06 3e
       0.027892588 -0.007011376 -0.010358385 0.13128594
000360 f4 af 59 3d e2 11 8c bc 31 a0 8d 3c c2 72 64 bc
       0.053146318 -0.017098371 0.0172883 -0.013943376
000370 36 58 f3 3c 7a 9f d8 3d bd e1 bf bd 73 81 14 bd
       0.029705148 0.10577293 -0.09369228 -0.036256265
000380 70 85 08 ba fd 12 57 3d b6 5f c4 bc f2 3e ff 3d
       -0.0005207872 0.052508343 -0.02397142 0.12463178
000390 9e aa 86 3d af c8 62 3d 20 ce a4 bd 6c 29 4b 3d
       0.065755114 0.055367168 -0.08047128 0.04960005
0003a0 80 b9 08 3e d1 0b 4f bd 7d 7c 66 3d 56 69 7c 3d
       0.13352013 -0.05054838 0.056271065 0.061623894
0003b0 fb f0 bc 3d 70 05 37 3e f8 8d 75 bc f1 6a a2 3c
       0.09225651 0.17873168 -0.014987461 0.019826384

model.rnn.weight_ih_l1 f4 [240, 60]
000000 0e 97 a6 bd 99 7d c3 3d 30 5b e4 3d 01 5a c2 bd
       -0.0813428 0.0954544 0.11150205 -0.09489823
000010 03 50 e9 3d 8f 29 ce bd 32 c1 a0 bd bc 52 ae 3d
       0.11392214 -0.100665204 -0.07849349 0.08511874
000020 cb ce a1 bd e9 21 84 bc 50 05 06 be b6 f0 b4 3d
       -0.07900771 -0.01612945 -0.13087964 0.088349745
000030 68 75 47 3d 1c 16 bc 3d de 10 d3 bd 40 27 05 bc
       0.04869595 0.091839045 -0.103059515 -0.008127034
000040 b6 32 85 bd 66 ba 1e be 51 cf ce bd df e4 d1 3d
       -0.06503813 -0.15500793 -0.10098136 0.10248732
000050 a2 b6 32 3d 3a b9 85 bc 63 68 82 bd a7 9d 0f be
       0.043631203 -0.016323674 -0.063675664 -0.14024983
000060 4a 4c 15 3d f2 f5 73 bd 93 b8 d7 3c fd 6c 20 3e
       0.036449708 -0.059560724 0.026333129 0.15666576
000070 36 fc 97 bd 94 dc 95 bd ce 0c e9 bd b3 68 2b 3d
       -0.07421152 -0.073174626 -0.113793954 0.041847896
000080 fa d4 3b 3d 42 67 b8 bd 42 25 26 3d 95 7e 0f bc
       0.045857407 -0.0900407 0.040562876 -0.008758207
000090 e4 bf de 3d 0a f8 0a 3e 39 c8 5f bd 08 aa 9a bc
       0.10876444 0.13571182 -0.054634307 -0.018879905
0000a0 c9 27 d3 bd 31 52 f8 3d 7e 44 9f 3d 81 cf 80 bd
       -0.10310323 0.12125052 0.07776736 -0.06289578
0000b0 cc 38 66 3b 83 ad c2 3d 91 f8 e9 bc dc 4f b3 3d
       0.0035129068 0.09505751 -0.028560909 0.08755466
0000c0 7c d1 39 bd 7b 72 c2 bd 0c 88 c5 3c 0d 64 f3 3d
       -0.045365795 -0.09494492 0.024112724 0.118843175
0000d0 91 3b aa 3d c1 df 4c 3d 76 b9 05 3d 01 77 c7 bd
       0.08312143 0.050018076 0.032647572 -0.09739495
0000e0 58 a2 a5 3d 38 0c 5c 3d 6e d3 35 3d 08 f5 ce 3d
       0.08087605 0.05372259 0.04439109 0.1010533
0000f0 d0 81 a4 3d 74 32 4b 3a 40 cd 67 3d 38 bd a7 3d
       0.08032572 0.00077513536 0.056592226 0.081903875
000100 92 30 db bc 6c 9d a0 3d 81 ff 69 3d d2 c6 51 bd
       -0.026756559 0.07842526 0.057128433 -0.051215
000110 54 00 d6 bd 49 f1 84 3c d7 61 b6 3d 09 6c 0b 3d
       -0.10449281 0.016228335 0.0890538 0.034038577
000120 6d e9 12 be 5e 56 b1 bd 44 ce a5 bd 2d bd 9d bd
       -0.14346857 -0.08659051 -0.08095983 -0.07702098
000130 18 4b 96 3c 6b 14 8a bd 0b 31 12 bd f8 27 e1 bd
       0.018346354 -0.06742176 -0.035691302 -0.109939516
000140 fc 48 b4 bd 1f 75 dc bd 8d 7c d5 bd ba 77 65 3d
       -0.08802983 -0.107645266 -0.10424147 0.056022383
000150 8a ea d1 bc 6e 3b 85 bd b4 27 13 be 58 74 8b bd
       -0.025624532 -0.06505476 -0.14370614 -0.068093
000160 5f df 52 3d 4f 44 e0 3d 9f b3 89 bc 2e a2 42 bc
       0.051482555 0.10950529 -0.016809283 -0.011879487
000170 bf 50 f4 3d 01 4d 18 3e f1 7e 64 3d 8d 53 eb 3d
       0.119294636 0.14873125 0.055785123 0.114905454
000180 2e d2 4b bc c1 b1 98 3d 33 6b d8 bc d3 9d e0 bd
       -0.012440247 0.07455779 -0.026418304 -0.109676026
000190 1e d2 35 bd c7 d9 c8 bd 4a 07 08 3e ac 4d 1c bd
       -0.044389836 -0.09807163 0.1328403 -0.03816001
0001a0 db 2c 54 3d f4 ba f0 bd c9 41 8b 3d f9 ab 25 bd
       0.05180059 -0.117544085 0.06799657 -0.04044721
0001b0 c4 c8 ca 3c a7 c9 59 bd 59 fb 97 3d f9 30 1e 3d
       0.024753936 -0.053170826 0.07420988 0.038620923
0001c0 0b 5d 51 bc 9f cd e1 3d ff 2c 62 bd 2c bc aa bd
       -0.012778531 0.11025547 -0.055218693 -0.08336672
0001d0 cb 86 3d bc d4 ac 92 3c 2f 68 7f bc c8 09 bb 3d
       -0.011567782 0.017904676 -0.015588804 0.09132725
0001e0 12 ca a0 bc be 7c e9 3d d2 4c 64 bc 73 1c a1 3d
       -0.019627605 0.11400746 -0.013934331 0.078667544
0001f0 25 bb c0 bd 86 b7 e9 3d 49 8d 73 bc a0 5e c7 bd
       -0.09410695 0.114119574 -0.014865228 -0.09734845
000200 7a 4c f4 3c 50 93 0f bd b5 aa 59 3d a9 f3 a6 bc
       0.029821623 -0.035052598 0.053141315 -0.020379858
000210 16 7b 1b bd 60 74 2c 3e e8 9d 5f 3d 3d 08 b2 3d
       -0.03795918 0.16841269 0.05459395 0.086929776
000220 85 74 a9 3c 45 08 2e 3e c8 6b b6 bd cd 75 a8 3b
       0.020685444 0.16995342 -0.089072764 0.005140996
000230 8e d6 ff 3d 3d 07 12 bb be 10 90 3b 30 0e 49 bd
       0.12492095 -0.0022282146 0.004396527 -0.049085796
000240 a8 98 ee bd 23 03 04 3e bd 04 03 be 1b 10 97 3d
       -0.116502106 0.12891822 -0.12794776 0.07376119
000250 12 17 67 3d 32 1f 56 3c 66 09 fb 3b 2e 10 24 bb
       0.056418486 0.013068961 0.0076610325 -0.0025034058
000260 92 5e 87 bd 33 7a 22 3e fc 7f b1 bd f7 c2 5a 3d
       -0.06609835 0.15866928 -0.08666989 0.05340859
000270 fd 39 19 3c 3d 6e a9 3c b2 67 d0 3d f3 53 bd 3d
       0.009352204 0.020682449 0.10176028 0.09244528
000280 08 b8 e7 bc a1 52 8a bc 8e 95 d1 3d 47 48 bc 3d
       -0.028285995 -0.016885104 0.102336034 0.09193473
000290 59 e4 8c 3c 22 5a 0d bc 2a 6d 70 3d 5a f1 e4 bd
       0.017198728 -0.008627446 0.058697857 -0.11178847
0002a0 13 f7 97 bd c7 61 02 3e 1b 75 1a 3e a2 02 4c 3c
       -0.074201725 0.12732612 0.15083735 0.0124518
0002b0 c7 b0 ab bd 62 97 0f be de 62 36 3e 1f f5 9a 3d
       -0.08383327 -0.14022592 0.17811152 0.075662844
0002c0 9e fb 91 bd cd ed 06 bd 0f a0 1c 3d 7a 74 61 bb
       -0.0712807 -0.03294163 0.03823858 -0.00344017
0002d0 3f c3 ad bb 88 7f 09 bd dd 26 14 be b1 fa fe 3b
       -0.005302816 -0.03356889 -0.1446795 0.0077813496
0002e0 64 42 eb bd e1 73 7b bd 41 91 10 3d 9c 7f 10 bd
       -0.114872724 -0.061389808 0.035294775 -0.035277948
0002f0 90 ba 15 3e cb 20 80 3d 5d 2f 09 3d 14 a8 02 bc
       0.14621949 0.06256255 0.033492435 -0.007974643
000300 b1 a7 a8 bd e1 0c b2 bd 22 53 fc 3c 95 54 95 3d
       -0.082351096 -0.08693863 0.03080136 0.07291523
000310 40 7a 8b bd 57 70 7a 3d c1 82 85 bd 43 13 92 bd
       -0.06810427 0.061142292 -0.0651908 -0.0713258
000320 95 97 0a 3d 8a ed f8 bd 19 dd 94 bd 7f af 5f bd
       0.033835966 -0.12154682 -0.072687335 -0.054610725
000330 b6 73 a3 bb c8 33 a3 bd 6e e6 a5 bd 5d 15 dc 3d
       -0.004988159 -0.07968861 -0.081005916 0.10746262
000340 81 50 a3 bc 90 6b d0 3d 1f 59 45 bd d2 06 3d 3d
       -0.019935848 0.10176766 -0.048180696 0.046149082
000350 7a c7 67 3b d0 a2 81 bc 69 0c 9c 3d 04 26 fb 3d
       0.00353667 -0.015824705 0.076195545 0.1226311
000360 6b 48 8f 3d 83 d0 2e 3c 50 df 4b 3d 19 2f a4 bd
       0.069962345 0.01066983 0.049773514 -0.08016796
000370 70 80 d2 3c 21 66 15 3e a8 cf 28 3e 86 2d fc 3d
       0.02569601 0.1458974 0.16485465 0.123133704
000380 0e a2 bd bd eb 56 6b 3c 15 6d b9 ba 50 47 07 3d
       -0.09259425 0.014363985 -0.0014146889 0.033026993
000390 0b c9 2c bc e7 15 5e bd 49 24 a0 bd fe 85 25 3e
       -0.010545979 -0.054220106 -0.07819421 0.16164395
0003a0 e7 f9 8d bd a8 fa 5f bc e8 c9 b0 3b 44 4d 10 3e
       -0.06932431 -0.013670601 0.005395163 0.14091974
0003b0 8f fa cc bd 7d cd 5c bd dd 02 8b 3d 03 55 47 3d
       -0.10008728 -0.053906906 0.067876555 0.048665058
0003c0 f4 f9 cb 3d 76 81 83 bd dc 24 e2 bd c6 d4 21 bd
       0.09959784 -0.06421177 -0.110421866 -0.039509557
0003d0 0d 91 f4 bd 42 83 8b bd ae c0 a0 3a 77 72 b0 3d
       -0.11941729 -0.06812145 0.0012264454 0.086155824
0003e0 30 3a db 3d 8d 4a 73 bb 30 47 b0 3d 3b ba b6 bc
       0.10704458 -0.0037123293 0.08607328 -0.022305598
0003f0 a2 30 cf 3d aa bf d3 bd 06 64 05 be 81 e3 ee bd
       0.10116698 -0.103392914 -0.13026437 -0.11664487

model.rnn.weight_hh_l1 f4 [240, 60]
000000 a7 ce d6 3c c8 f9 84 3c e5 24 e0 bd 84 46 5a bd
       0.026221586 0.016232386 -0.10944537 -0.053289905
000010 d3 31 b3 3d 69 85 aa 3c c8 85 0d 3e a6 b8 1f 3d
       0.087497376 0.020815568 0.13820565 0.038994454
000020 d8 e6 ec 3c a8 ea f4 bd b9 29 70 3d 0d 4d 51 bd
       0.028918669 -0.1195882 0.05863354 -0.051098872
000030 de 66 eb 3c 26 b7 03 3e 57 e6 7c bd 11 a9 fa 3d
       0.028735574 0.12862834 -0.061743107 0.12239278
000040 8f a2 f2 bd 1d d5 82 3d a6 35 f0 bb 1a 76 51 3d
       -0.11847412 0.063883044 -0.007330614 0.05113802
000050 37 84 1a 3d 19 a9 a4 bd 2e 91 78 bd 12 13 63 3c
       0.037723746 -0.08040065 -0.06068533 0.013859527
000060 99 ed 69 3d 8e 28 8f 3c 8d 0e 22 3d 7d ae df bc
       0.057111356 0.017475393 0.039564658 -0.027304882
000070 47 27 a9 3d 53 0e 9d bd 69 c9 e3 3b f3 d6 c6 bd
       0.08259445 -0.07668748 0.0069515 -0.09708967
000080 81 64 07 3e 6a 2b c6 3c f3 c5 9d 3c d3 db 80 3d
       0.13221933 0.024190623 0.019259429 0.06291928
000090 db 9e 16 bd 92 3b 7b 3c 86 aa 28 bd 71 40 29 3d
       -0.03677259 0.015334027 -0.04117825 0.04132122
0000a0 6d 9c 0b 3e 8b 42 bb 3d 9b 5c 8e bd 78 06 cb bc
       0.1363389 0.091435514 -0.06951257 -0.024783358
0000b0 00 8b 2b 3e 26 12 9a 3d fe 2f 17 bd 87 63 e4 3d
       0.16752243 0.07522993 -0.036911003 0.11151796
0000c0 dc cc ed bc 46 2a 6e bd 9f 1b de 3d 37 02 63 bd
       -0.029028349 -0.058145784 0.10845112 -0.055422034
0000d0 cf dc 15 bd 67 64 06 3e dc b4 67 3d c2 6a 8f 3d
       -0.036587533 0.13124238 0.056568965 0.07002784
0000e0 07 9e 57 3d 93 f5 d8 bd d4 c5 58 3d 60 20 05 bd
       0.05264094 -0.105937146 0.05292304 -0.03250158
0000f0 65 8d 47 bd d3 d4 07 3d 4a d2 ae bd ea e7 7a 3d
       -0.04871883 0.03316195 -0.08536203 0.061256327
000100 fb 8f 19 3c 9a 72 89 bd 55 e4 8c bc 2c a8 02 be
       0.0093727065 -0.06711312 -0.017198721 -0.12759465
000110 57 a7 a5 bc 66 ab ae 3a 29 c6 c9 3c 31 d3 e6 bd
       -0.020221395 0.0013326227 0.024630623 -0.1127075
000120 3c 2b ce bc ef 74 17 be 3b e7 98 bd 62 1b 83 bc
       -0.0251671 -0.147907 -0.07465979 -0.016004268
000130 4a e9 63 bd d7 13 b7 3c f5 53 3d 3d 05 d5 d8 3d
       -0.055642404 0.022348328 0.046222646 0.10587505
000140 f5 ce 12 3d 17 de 59 3d 25 0b b3 3d 82 94 7e bd
       0.0358419 0.053190317 0.0874236 -0.062153347
000150 e7 57 88 3d 1e ab bc bd 5c 4e d2 3d 5f b5 b3 3d
       0.06657391 -0.092123255 0.10268852 0.08774828
000160 19 98 35 3d 9b 0e 12 bd df b3 ff bd 1f 23 d9 3d
       0.044334505 -0.03565846 -0.124854796 0.10602402
000170 cf b6 da 3d b5 f7 c4 bd 45 23 e0 3d 57 30 d2 bd
       0.10679399 -0.09617559 0.10944227 -0.10263126
000180 e3 46 98 bd 1a 2b 9f bd 55 00 2b 3d c1 9e 71 bd
       -0.074353956 -0.07771893 0.041748364 -0.05898929
000190 b9 cd 39 3d 89 80 bd bd 97 20 97 bd 07 9d ec bd
       0.045362208 -0.09253032 -0.07379263 -0.11553388
0001a0 b7 f2 d0 3d 28 fc c6 bc 3d af bb bd 79 9e 49 3d
       0.10202544 -0.02429016 -0.091642834 0.049223397
0001b0 f9 e8 1d bd 6c 2a be bd 79 b0 c4 3c b2 ca 21 bd
       -0.03855226 -0.09285435 0.02400993 -0.039499946
0001c0 ab 86 18 3d ca 7c d5 bd aa ed b8 bd b0 4f a5 3d
       0.037237804 -0.10424192 -0.09029706 0.0807184
0001d0 48 f7 33 3b 06 bd 17 bc e6 6b b4 bd 2c 4e 99 bd
       0.0027460624 -0.009261375 -0.088096425 -0.07485613
0001e0 87 17 39 bc 39 8c 46 bc 3d d0 ca bd c0 0b af bd
       -0.011297113 -0.012118393 -0.099029996 -0.08547163
0001f0 ee 18 26 bc ed 7b d5 bd ba ec de bd 0e e0 2e bd
       -0.01013778 -0.104240276 -0.10884996 -0.042694144
000200 24 a4 69 3b 74 47 2e bd 43 a3 90 bc b6 95 1b bd
       0.0035650814 -0.04254861 -0.017655974 -0.037984572
000210 b3 9a c0 3d 29 fd fc 3c 7e 36 c3 bd c5 de 1d 3c
       0.094045065 0.030882435 -0.09531878 0.009635632
000220 c8 8a 53 bd 24 d8 04 be 59 27 2a 3d 97 65 ed 3b
       -0.051646024 -0.12973076 0.04154143 0.0072447765
000230 91 74 81 bd 06 4e eb 3d 15 c3 a1 bc cd a4 d5 3d
       -0.063210614 0.11489491 -0.019746343 0.10431824
000240 63 36 1a 3d 91 34 42 3d 1c 55 93 3d 8f b4 df 3b
       0.037649523 0.047413412 0.07193968 0.006826944
000250 3a f8 51 3c 7c a9 04 3c a6 39 f3 3c 2e 3e f9 bd
       0.0128155295 0.008097049 0.029690575 -0.12170063
000260 de 37 48 3d c5 52 8e 3d 05 77 0e bd 2c 65 e0 3d
       0.048881404 0.06949381 -0.034781475 0.10956797
000270 6b 79 f7 3c ee 55 14 bd 11 f7 95 bd ed 31 02 bb
       0.030209264 -0.03621476 -0.07322515 -0.0019866184
000280 34 d3 d5 bb c9 2a de bd fd 4e 05 be 19 5d 9d 3c
       -0.0065254215 -0.10848004 -0.13018413 0.019209431
000290 9e ad d8 3d db af ab 3d 24 c9 30 bd fd 0a 81 bd
       0.1057999 0.08383151 -0.043160573 -0.06300924
0002a0 e9 3b 4d 3d 39 b9 2a bd 59 90 c6 bd b7 77 96 bd
       0.050105963 -0.04168055 -0.09695501 -0.073470525
0002b0 8f 7a 95 bd 22 95 e0 3d 0d b4 ba bd 4a 77 df 3d
       -0.07298767 0.10965945 -0.09116373 0.109114245
0002c0 ba df ea bd 27 d7 9b bd ca 98 c2 3d 72 b6 42 bd
       -0.11468454 -0.076093964 0.095017985 -0.047537275
0002d0 f9 65 0d 3e c0 52 ca 3d 7e c4 10 bc c2 48 11 3e
       0.1380843 0.098790646 -0.00883591 0.14187911
0002e0 e9 e8 ed 3c dc 76 fe bc ad ce 8f 3d 81 5f a0 3d
       0.029041724 -0.031062536 0.07021842 0.07830716
0002f0 99 b1 1e be aa 60 41 be 40 71 98 3c a7 b3 21 bd
       -0.15497436 -0.1888453 0.01860869 -0.03947797
000300 fa 8f 24 be 28 1b e1 bd 46 b7 ec 3d 3c a7 da bd
       -0.16070548 -0.10991508 0.11558394 -0.10676429
000310 02 d7 8b 3d 60 90 cf 3c c3 7e 89 b9 5b af 85 bd
       0.06828119 0.025337398 -0.0002622512 -0.06527587
000320 22 48 ad 3d 01 73 48 bd a1 32 05 be c5 86 6f 3d
       0.08461024 -0.0489378 -0.13007595 0.058478136
000330 71 0d 96 3d f6 9e 16 3e e9 6f e0 bd 31 9c 74 bc
       0.073267825 0.14709076 -0.10958845 -0.014929817
000340 c0 16 0f bd bf 71 a4 bd c5 f3 b5 3d a7 0d 0d bb
       -0.034933805 -0.08029508 0.08884386 -0.002152303
000350 21 6e 45 3d 41 b4 18 be 62 97 19 bc 8e 4c 44 3d
       0.04820073 -0.14912511 -0.009374471 0.04792457
000360 9f ad 80 3d a6 48 67 3c 88 2c 3a 3d c8 30 cb 3d
       0.062831156 0.014116442 0.045452625 0.09921414
000370 37 c6 58 bd 0f e5 1f bd 11 6f 96 bd 1e 4a f5 3c
       -0.052923407 -0.039036807 -0.07345403 0.029942568
000380 4e 99 31 3e 8e 53 aa ba 7b ab 0e 3d df ae 36 3d
       0.17343637 -0.0012994872 0.034831505 0.044600364
000390 85 26 52 bc ea d3 24 3c f9 bf 36 3d 68 ee 92 3d
       -0.012826567 0.01006029 0.044616673 0.07174379
0003a0 99 fb c6 3d b4 33 71 bd 2b cf c2 bc 0e a5 9d 3d
       0.09715957 -0.0588872 -0.023780426 0.07697497
0003b0 70 94 e0 3d f7 ae ec bd 82 e1 92 bc 0f 0b 9d bd
       0.10965812 -0.115568094 -0.017929796 -0.07668125
0003c0 77 31 cf bc 3b bc 76 3d 4f 00 a5 bd 26 00 a0 3d
       -0.025292141 0.060238104 -0.080566995 0.07812528
0003d0 08 38 00 bd e9 12 01 be 62 52 0a bc c5 2b 43 bd
       -0.031303436 -0.1260487 -0.008442493 -0.047649164
0003e0 95 77 d0 3d 40 fa 84 3d 88 14 8e 3c b2 63 aa 3d
       0.101790585 0.06493044 0.017343774 0.083197966
0003f0 a1 cd cb 3d ef 4b 01 be c3 e8 71 bc ff 96 cb bc
       0.0995133 -0.12626623 -0.014764967 -0.024852274
