checkpoints/epoch=1-step=100-v40.ckpt (torch, 621663 bytes, 33 tensors)

model.param_proj.proj.0.weight f4 [1, 60]
000000 ed 28 32 be a1 5d ec bc f9 a3 e2 3b 33 d9 ad bd
       -0.17398424 -0.02885324 0.0069165197 -0.08488693
000010 e8 f4 5e bd 73 38 ba bd e6 89 92 bd 07 d8 b3 3d
       -0.05443278 -0.09092798 -0.07155208 0.08781438
000020 82 1f 39 3e f9 69 18 3e ae 0d 27 be 84 eb 79 bd
       0.18078426 0.14884175 -0.16313812 -0.06101562
000030 7f 8e 08 be 0b 6d 00 3e 22 3b c7 3d b9 1e 6c be
       -0.13335608 0.12541597 0.097280756 -0.23058595
000040 c1 33 ee 3d 36 fd 75 3d 54 88 66 3e 45 6e 5d 3d
       0.11630965 0.060055934 0.22512943 0.05406024
000050 53 68 d9 3d 17 cd 2e 3e 92 27 47 3e 34 54 38 3c
       0.106156014 0.17070423 0.19448689 0.011250544
000060 9e 4d d2 bd 35 e8 06 3e 3a 39 56 3d 14 f7 3a 3c
       -0.102687106 0.13174517 0.05230067 0.011411447
000070 cd 1e ce bd 2b 97 8b 3c a0 9d ee bd aa 0f 23 be
       -0.100644685 0.017039856 -0.11651158 -0.15923944
000080 05 5e 10 3d 81 cd 10 be 42 be 84 bd b4 49 97 3d
       0.035245914 -0.14140894 -0.06481601 0.07387105
000090 44 63 a3 bd ea f6 28 3e 87 cd 7f bd 70 93 09 be
       -0.07977918 0.1650044 -0.062451866 -0.13435149
0000a0 c0 06 dd bc 71 41 39 3d 4b dd 1a be d1 a3 02 3c
       -0.026980758 0.045228425 -0.15123479 0.007973627
0000b0 e5 d2 6a be 42 84 50 3e 2b 4a 37 3d b5 fe 40 3c
       -0.22932012 0.20362952 0.044748466 0.011779477
0000c0 69 4b 9b 3d 62 22 1b 3d 03 5b e5 bd a3 34 92 3d
       0.07582743 0.037874587 -0.11199 0.07138946
0000d0 29 45 00 bc c6 69 80 3e 09 75 64 3d cd 67 37 be
       -0.007828989 0.250807 0.055775676 -0.1791069
0000e0 9d 9f 3a be 8e 92 26 ba 3d e5 90 3c c2 b3 7a 3e
       -0.1822495 -0.0006354236 0.017687434 0.24482635

model.param_proj.proj.1.weight f4 [1, 60]
000000 24 7a ab bd 3f 66 fc 3d 2d 4b 28 3e a4 e7 40 3e
       -0.08372906 0.123241894 0.16434927 0.18838364
000010 96 f5 4f bd b6 d7 d7 3d d6 70 4e bd e2 4b cf bd
       -0.05077132 0.105391905 -0.050400577 -0.101218954
000020 bc 81 22 3e 21 37 e8 3d b6 fa 15 3e d4 f3 ed 3d
       0.15869802 0.1133864 0.1464642 0.11618772
000030 5d 60 41 3e cd 19 04 be c9 9c e7 3d 68 69 a8 3c
       0.18884416 -0.12900467 0.11309201 0.020558074
000040 b8 9f bf 3c be be 2e 3e 7c b5 c6 3c a2 0c 8a 3d
       0.02339159 0.1706495 0.02425646 0.06740691
000050 0f e8 7c bd e3 58 0f be 16 3d 7b 3d 0c 73 23 be
       -0.061744746 -0.13998751 0.061337553 -0.15961856
000060 c2 47 13 3e 80 04 11 3e df 55 4a be 5a 8b 23 3e
       0.14382842 0.14161873 -0.1975932 0.15971127
000070 4b 9b 51 3e a2 ec 9d 3c c5 55 30 3e e6 ec 41 be
       0.20469396 0.019277874 0.17220218 -0.18938026
000080 7a 20 bd 3d 7a b1 cb bd da 3a 20 be 44 0c 7e 3d
       0.0923471 -0.0994596 -0.1564745 0.062023416
000090 fb ca b6 3c 3f 7d e5 3d 1d 7b 1b be e9 f2 ed bd
       0.022313586 0.112055294 -0.15183683 -0.11618597
0000a0 0f 29 2f be 51 37 39 3e 69 6b c4 bd 18 87 a3 3d
       -0.17105506 0.18087508 -0.09590799 0.079847515
0000b0 fc 94 f4 3b 8e cf f5 bd 4d 5c 0c be 7d 5a 19 3e
       0.0074640494 -0.120024785 -0.13707085 0.14975925
0000c0 eb 30 e4 bd 36 a6 35 bd e1 85 b1 bc 3e ff 24 be
       -0.11142143 -0.044347964 -0.021670284 -0.16112992
0000d0 0e cc 17 bd e4 4c cb 3c 12 37 a4 3b 3a 28 d7 b9
       -0.037059836 0.024816938 0.0050114477 -0.00041037967
0000e0 63 d2 ff bd 83 bf 18 3e b4 bb 0a 3e 55 23 07 3e
       -0.124913 0.14916806 0.13548166 0.13197072

model.param_proj.proj.2.weight f4 [1, 60]
000000 c1 0c 68 bd 07 e3 92 3d c2 c9 ac 3c 08 19 ca 3d
       -0.056652788 0.07172208 0.0210923 0.098680556
000010 96 fb c8 bd 93 43 3d 3d 26 79 fb bd b9 fd af 3d
       -0.09813611 0.046207022 -0.122789666 0.08593316
000020 80 48 da bd 22 7a 7a 3d a5 e6 85 bd 43 af 9e bd
       -0.106583595 0.06115163 -0.065381326 -0.07748272
000030 49 e4 09 3d d1 ae 8b bd 48 96 9d bd 09 95 89 3d
       0.033664975 -0.06820453 -0.076946795 0.06717879
000040 1b 64 b1 3d 13 23 02 3b 2c cf 66 bc 07 e1 e5 3d
       0.08661672 0.0019857332 -0.01408748 0.11224561
000050 f2 02 34 3d ac 26 f2 3c 33 a0 81 3d 72 6f 01 bb
       0.04394812 0.029559456 0.06329384 -0.0019750264
000060 3f 18 c9 3c 15 34 9a 3d 18 5e 0d be 30 4b b0 bb
       0.024547694 0.07529465 -0.13805425 -0.005380057
000070 26 d9 21 3e 9f 85 ed 3c 24 3e e3 3d 49 42 f8 bc
       0.15805492 0.02899438 0.11095837 -0.030305045
000080 bd e0 b8 3c c5 d0 7e 3c 1e 71 a2 3d 18 d2 06 3e
       0.022568101 0.015552704 0.07931732 0.13166082
000090 6a 96 1f 3e df 42 b4 bc 0a 12 db 3d 8d 4b 06 bd
       0.15584722 -0.022004543 0.106968 -0.032786895
0000a0 34 1f ab bd fa 55 16 bd cd 46 77 bd 07 46 8b 3d
       -0.08355561 -0.036703087 -0.060370255 0.06800466
0000b0 f8 62 87 3d 2c a4 48 3d 5e 13 bc bd f1 f8 e5 3d
       0.06610674 0.04898469 -0.091833815 0.112291224
0000c0 bc d9 9b 3d d6 f2 70 3b c1 94 05 be 8b 8c df 3d
       0.07609889 0.0036765835 -0.13045026 0.10915478
0000d0 ec a2 01 be 00 a2 10 bc 54 06 73 3c 9a c0 ac 3d
       -0.12659806 -0.008827686 0.014833052 0.08435173
0000e0 98 aa de bd d7 90 d1 bc c5 1a 3f 3b 69 38 a0 3d
       -0.10872382 -0.02558176 0.0029160243 0.078232594

model.rnn.weight_ih_l0 f4 [240, 24]
000000 61 6f 2a be bf d2 11 bd df 8f 09 bd c8 2c 22 bc
       -0.1664405 -0.035601374 -0.03358447 -0.009898372
000010 f5 3a 98 bd dd 4b 0f be bc d7 2e bc 26 84 11 3c
       -0.0743312 -0.13993783 -0.010671552 0.008881604
000020 7f 46 a2 bd 24 7e d6 3d d6 40 0a bd af e7 d6 bd
       -0.07923602 0.10473278 -0.03375324 -0.10493409
000030 e5 45 29 be c9 9d c3 bd b7 fb ff 3c 28 d1 4d 3d
       -0.16530569 -0.095515795 0.031247957 0.050248295
000040 dd b5 cb 3d 46 20 05 be d1 38 26 be 53 14 d9 bd
       0.09946797 -0.13000593 -0.16232611 -0.1059958
000050 8d ae 2e 3d 6e 50 5c bc bd 68 02 be 62 8b 98 3d
       0.042646933 -0.01344691 -0.12735267 0.0744846
000060 4b c6 1f bd 14 98 38 be de 54 b7 bd 9f 7a 65 3d
       -0.039007466 -0.18026763 -0.08951734 0.056025144
000070 fd 65 97 bc 1e ff 86 3d 6a 8c 7e be 77 f4 00 be
       -0.018481249 0.065916285 -0.24858251 -0.12593256
000080 4d 4c c3 3d a4 f7 f7 ba a9 42 54 3c 68 bb b4 3c
       0.095360376 -0.0018918407 0.012955346 0.022062019
000090 24 93 f1 bd 5c 59 dd 3d 59 cb b2 3d ea f1 44 3e
       -0.11795643 0.108080596 0.08730192 0.19232908
0000a0 15 14 d1 bc ab 2a 60 3c 0d 43 98 bd f1 a3 71 3d
       -0.025522271 0.013682048 -0.07434664 0.058994237
0000b0 5e cc 08 be 9d 13 be bd f1 12 b2 3c 8c d0 8d 3b
       -0.1335921 -0.09281085 0.021737548 0.0043278392
0000c0 6a 7f 0d ba 9e 61 c6 3c ab c3 3b be 52 7b e7 bd
       -0.00053977093 0.02421647 -0.1833636 -0.11302818
0000d0 dd e4 a5 3d 5f 34 cd 3d 1d a8 56 be ef 61 f5 3d
       0.08100293 0.100197546 -0.20962568 0.1198157
0000e0 17 5a 9e 3d 48 0b ef bd 47 f3 0a 3d a4 ee 23 bc
       0.07732027 -0.116720736 0.033923414 -0.010005627
0000f0 f5 bb 1b 3d 7c f4 71 bb 0c f8 44 3d 6f 67 2e bd
       0.038021047 -0.0036919406 0.04808812 -0.04257911
000100 95 e1 9a 3d 5a 8e b2 bd 0c 32 a8 bd 63 bf 8c 3d
       0.075625576 -0.08718558 -0.08212671 0.068724416
000110 d1 13 d4 bc bd c9 52 3d 07 1d db 3d f5 29 dc 3d
       -0.025888355 0.051461924 0.10698896 0.1075019
000120 e3 ae cc bd 88 94 aa bd e6 02 52 bd 15 32 00 3d
       -0.099942945 -0.08329111 -0.051272295 0.031297762
000130 7c e4 49 bc 4b 11 05 3e ea eb 17 be 2e 7f 97 bd
       -0.012322541 0.12994878 -0.14836088 -0.073973045
000140 1a 36 72 be d6 70 11 bd ae 7e 02 3e a8 c1 93 bd
       -0.2365345 -0.035508 0.12743637 -0.072146714
000150 94 65 0b be 64 ba 32 3e e1 87 02 3e 97 fc e3 bd
       -0.13612968 0.17453915 0.12747146 -0.11132162
000160 84 56 ce 3d 49 6e 1a 3d 23 46 55 3c d1 e8 d5 3d
       0.10075095 0.037702832 0.01301721 0.10444797
000170 b7 a8 77 bd db 7a e3 3c 2d 18 37 bd 1d da 3e 3e
       -0.060463633 0.027768543 -0.04470079 0.18637891
000180 30 96 6c bd 4e c2 1b 3c 48 79 12 3e 26 d9 a1 bd
       -0.057760417 0.009506775 0.14304078 -0.07902746
000190 02 c9 2a be e2 11 23 bd 17 03 bd 3d e3 ff 8d 3d
       -0.16678241 -0.039811976 0.09229105 0.06933572
0001a0 c0 f5 c3 3d 13 cb cc 3c 37 77 dc 3d 58 a3 29 bd
       0.095683575 0.024999177 0.10764926 -0.041415542
0001b0 1d cd 6f bd dc 58 57 3e 8e 91 56 be 7b 6c 9e 3d
       -0.05854522 0.21029991 -0.20953962 0.07735535
0001c0 47 86 90 bd 81 f5 96 bd 62 b2 b6 3d 7b 78 70 3c
       -0.07056861 -0.07371045 0.089207426 0.014677162
0001d0 22 29 19 be 98 67 97 bd 44 f0 99 3d 03 e5 ef 3d
       -0.14957097 -0.07392806 0.0751653 0.117136024
0001e0 ed 96 f7 3a 82 99 ef 3b 56 47 bb bd 4c 5e d2 3d
       0.0018889584 0.0073120007 -0.091444656 0.10271892
0001f0 a8 ff ce 3d e6 7c d4 3d 7a c0 57 3c c2 48 de 3d
       0.10107356 0.10375385 0.013168449 0.10853721
000200 93 d4 99 bd 33 ce 41 be 90 6e 6c 3c f4 82 b0 bd
       -0.075112484 -0.18926315 0.014430657 -0.08618727
000210 eb b8 39 3d 8d a1 3d bc 0c b9 32 bd 4c 1a ba 3d
       0.045342367 -0.011574161 -0.043633506 0.09087047
000220 56 18 15 3d 12 7f 31 bd d2 ec 01 be 02 05 8d 3c
       0.03640016 -0.043334074 -0.12687996 0.017214302
000230 64 b1 41 3d 23 57 49 3d f6 24 12 3e c1 40 97 bd
       0.047288314 0.049155366 0.14271912 -0.07385398
000240 d0 ab 2e be d1 88 44 3d 77 2c ce bc 63 e7 8a bd
       -0.17057729 0.04798204 -0.025167687 -0.06782415
000250 b9 da 91 3c da ad 16 bd eb 21 ee 3d 56 f9 01 be
       0.01780449 -0.03678689 0.11627563 -0.1269277
000260 7b f2 cd bd 9c ad 94 bd 38 f9 e1 3d 14 45 66 3b
       -0.10056015 -0.07259676 0.11033863 0.0035136389
000270 86 e1 25 3d af c3 06 bd b9 7e 09 3d 0c 70 e6 bd
       0.04049828 -0.032901462 0.033568118 -0.1125184
000280 8a 94 d8 3d 72 26 be bd 23 7b 7e bd d2 75 d9 bd
       0.105752066 -0.092846766 -0.06212915 -0.106181756
000290 69 02 e7 3c 41 e2 8c 3d 97 32 f1 bd 17 90 84 3d
       0.028199391 0.06879092 -0.11777227 0.064727955
0002a0 4f 2b 04 be de 2f b6 3a d8 70 b5 bd 1b a5 6b bb
       -0.12907146 0.0013899764 -0.08859414 -0.0035956565
0002b0 de 37 30 3d dc 4f 55 bd 8e f8 eb bd 0f 9a e7 3d
       0.04302203 -0.052078113 -0.115220174 0.11308681
0002c0 d6 e3 07 3d 6d a0 16 be 63 4e f6 3d 24 5f d9 bd
       0.033176266 -0.14709635 0.1202667 -0.1061385
0002d0 20 b4 19 bc dd c9 cb 3d 6b a3 8b bd f6 87 94 3d
       -0.009381324 0.09950612 -0.06818279 0.07252495
0002e0 65 3b b0 3d 66 3b c8 3c 48 de fa bc 24 86 1c 3d
       0.086050786 0.024442386 -0.03062357 0.038213864
0002f0 95 ec 8c bd 51 ca 55 3e 90 6e a5 bd 5b 91 98 3d
       -0.06881062 0.20877959 -0.08077729 0.07449599
000300 95 da c2 bd 38 58 b9 bd 3b e9 fa 3d a1 01 e3 3b
       -0.095143475 -0.090500295 0.122515164 0.0069276844
000310 9a e4 e3 bd 64 56 16 bd ff b7 5d bb 0f 6c 78 bd
       -0.11127587 -0.036703482 -0.0033831594 -0.060649928
000320 55 26 69 3d 8e 67 32 3e ab b8 e9 3d ef cd 6d 3d
       0.056921322 0.17422315 0.11412176 0.05805772
000330 58 46 cb bd c0 f0 58 3d dc 64 9f 3c ae 35 37 bb
       -0.099255264 0.052963972 0.019457273 -0.002795558
000340 53 48 95 bd 93 b7 c3 3c 3b 05 1b be 0b ab a3 bd
       -0.072891854 0.023891246 -0.15138714 -0.07991608
000350 5a 07 7d 3d 0d b2 c3 bc ad 4e d3 bd f8 74 7b 3c
       0.06177459 -0.023888612 -0.103177406 0.015347712
000360 9c 68 36 3d f3 7a 30 be db b6 f9 bd 97 bf d8 bd
       0.044533357 -0.17234401 -0.1219308 -0.10583418
000370 ed ae a7 bd 4a 7a 19 3d 8d 69 c4 bd f3 01 55 bd
       -0.08187661 0.03747014 -0.09590445 -0.052003812
000380 e3 2d db 3d 21 5b 81 3d 6f 47 36 be 2a 58 29 bd
       0.107021116 0.063162096 -0.17800687 -0.041343845
000390 84 88 4f 3d 81 28 73 3d 10 3b 4c 3b 79 71 29 3e
       0.0506673 0.0593648 0.0031163134 0.16547193
0003a0 10 06 80 3d 43 80 5c bb a5 fe 6a bd 8e 91 81 bc
       0.06251156 -0.0033645786 -0.057371754 -0.015816476
0003b0 a7 ed f7 bd 39 8d 33 3c ee 61 99 3d ec 10 23 3d
       -0.121058755 0.010958963 0.07489382 0.03981106
0003c0 40 1c 13 be cc 43 0d be 1f 0b 3b 3d 51 db 45 bd
       -0.14366245 -0.13795394 0.045664903 -0.04830486
0003d0 11 db 35 bc e7 a5 76 bd 14 f6 c0 3d e6 c5 91 3c
       -0.011099593 -0.06021681 0.09421936 0.01779456
0003e0 b2 27 24 3b 7c bf 2f 3d 44 10 23 3d a4 6f ff 3c
       0.0025048074 0.042907223 0.039810434 0.031181164
0003f0 4d 57 38 bd 46 b0 a5 bc fe b6 43 bd 88 09 28 bd
       -0.04500513 -0.020225655 -0.047781937 -0.041024715

model.rnn.weight_hh_l0 f4 [240, 60]
000000 5e 02 1a bb 69 4e a0 3d 90 20 00 bc 3a 3a a7 3d
       -0.0023499946 0.078274556 -0.0078202635 0.08165403
000010 c9 7b 4e 3d dd ee c3 3b ef 83 92 3d 21 81 b7 bc
       0.05041102 0.0059794025 0.071540706 -0.02240044
000020 69 d6 27 be 5f 5d ac 3c 40 84 3f 3d ba c2 6c 3d
       -0.16390385 0.021040617 0.046756983 0.057802893
000030 81 0e 13 3e 5a a4 14 bd 2b b0 aa 3d 4c e3 b7 3c
       0.14361002 -0.03628955 0.083343826 0.02244725
000040 e9 44 0c bd 94 13 fe bd 31 fd e2 3a 74 ac bf 3c
       -0.034245405 -0.12406078 0.0017317889 0.023397662
000050 7b f3 bc 3d e5 be 15 bc af 46 0b 3d 26 02 1a 3d
       0.09226128 -0.009139751 0.034002956 0.037599705
000060 5f 6a 5e 3d 17 2a 35 3d 2d 7c 95 bd db 3b 0f bd
       0.054300662 0.044229593 -0.07299075 -0.034969192
000070 14 12 7a bd 98 c9 10 be 7b 0e 76 3d 08 0b 0f be
       -0.061052397 -0.14139402 0.060072403 -0.13969052
000080 42 34 dc 3d 07 75 09 3d 62 81 d6 3d af 1f 61 3d
       0.10752155 0.03355887 0.104738966 0.054961856
000090 f6 17 c1 3c 32 26 9f bc 15 9a 48 bd d2 78 35 bd
       0.023570996 -0.019427393 -0.04897507 -0.044304676
0000a0 13 ca b4 bd 5a 3b 31 bd 4e 90 12 bd c1 82 8e bc
       -0.08827605 -0.043269493 -0.03578215 -0.017396333
0000b0 e2 08 28 bd fc 33 b7 3d ca cd eb 3d b1 11 0e 3e
       -0.041024096 0.08945462 0.115138605 0.13873936
0000c0 ea 14 80 bd 2a 86 5b bd d7 b5 a1 bd 06 b6 cd 3d
       -0.06253989 -0.053594746 -0.07896011 0.10044484
0000d0 e8 df ec 3d ac e9 ec 3d ee c5 bf 3d d1 78 89 3d
       0.11566144 0.11568007 0.09363924 0.06712497
0000e0 1c 43 49 3c cf 51 47 bc 69 53 dd bd 3f 5d ac bd
       0.0122840665 -0.012165501 -0.10806925 -0.08416223
0000f0 ec 6d 1a 3e 97 e0 d8 bd a6 32 9e bc 6d 6d e6 bb
       0.15080994 -0.10589712 -0.01931126 -0.0070320875
000100 33 81 97 bd 7d 82 23 3e 96 60 e8 3d e0 bb d6 3c
       -0.0739769 0.15967746 0.11346547 0.026212633
000110 15 1c ff bc 21 fe 00 be 9c 11 cb 3d db 16 3d bd
       -0.03114132 -0.12596942 0.09915468 -0.046164375
000120 3f 80 d9 3c 2d 62 25 3e 3b de aa 3d 28 ef 8a 3c
       0.02655041 0.16150732 0.08343168 0.016959742
000130 bf 89 41 3b 9d a5 52 be 08 30 10 be d2 ee 2b bb
       0.0029531566 -0.20570989 -0.14080822 -0.0026234877
000140 d4 df 08 3e d4 eb 9a bd f7 68 9c 3c b7 30 0d be
       0.13366634 -0.07564512 0.01909302 -0.13788114
000150 91 e2 90 3d ac 97 3b 3c 79 ae 04 be 35 8c 3a 3e
       0.07074464 0.011449736 -0.12957181 0.18217547
000160 89 60 85 3c d4 35 34 be ac f2 d3 bd 57 7c 51 bd
       0.016281383 -0.17598659 -0.1034902 -0.05114397
000170 97 4a 45 3d 34 73 3a be 7f 6c 3b 3e 33 0f 17 be
       0.048166838 -0.18208009 0.18303107 -0.14751892
000180 9d a7 55 3d 75 3e 0a 3e 99 6a fb bd bd 4c 41 3b
       0.0521618 0.13500388 -0.12276191 0.0029495202
000190 aa 22 4e 3c fd 71 66 3e 6b c5 22 3e 99 c5 de bd
       0.012581507 0.2250442 0.15895621 -0.108775325
0001a0 31 e6 50 bc b4 71 dc 3d 5d 54 0e 3e f7 6b 0d 3d
       -0.012750194 0.10763875 0.1389937 0.03452679
0001b0 05 e0 0c 3d 90 cf c8 3d 4d f8 48 be 8c a8 ff 3d
       0.03439333 0.098052144 -0.19625969 0.1248332
0001c0 d8 63 e2 3c 0d 57 31 bd de b1 14 be f7 46 37 3e
       0.0276355 -0.04329591 -0.14520976 0.17898165
0001d0 31 f9 f7 bd f5 71 35 3e 71 af 39 be 7a 6b 55 3c
       -0.12108076 0.17719252 -0.18133332 0.013026113
0001e0 49 38 5c 3d 95 44 cf bc 1c 97 42 3d 33 7b cb bd
       0.053764615 -0.025301257 0.04750739 -0.09935608
0001f0 3a 82 4f 3c c1 56 3a bd 4b 2e cc 3d 8c 52 0b 3e
       0.012665326 -0.04549289 0.09969767 0.13605708
000200 a8 70 0c bd e2 3e db bc a6 00 88 3d 95 cf 97 bd
       -0.034287125 -0.026763383 0.06640749 -0.0741264
000210 e8 1a dc 3c 20 83 10 3e 3c 75 e4 3d 3a ee 0c be
       0.026868299 0.1411252 0.11155173 -0.13762751
000220 47 21 89 3d 0b c3 b6 bd af 57 fa bd 2a 31 93 3d
       0.066958 -0.0892392 -0.122237556 0.07187112
000230 7a 8b d4 3d a3 87 87 bd f7 5e ce bd e2 23 19 bd
       0.103781655 -0.066176675 -0.10076707 -0.037387736
000240 51 42 0e be c3 cd a4 bc ca 7f 01 be e3 5b 4f 3d
       -0.13892485 -0.020117646 -0.12646404 0.05062474
000250 b0 99 3b be 86 63 46 3d 35 98 a9 bd e0 3f 1a 3d
       -0.18320346 0.048434757 -0.08280984 0.037658572
000260 e4 87 cd bb 04 a8 e6 bc b4 ea 11 3e da fb c0 bc
       -0.006272303 -0.028156288 0.14249688 -0.023557592
000270 52 9c 31 be 5d 26 4c 3d b0 71 4a 3d 71 4a 0b 3c
       -0.17344788 0.049841274 0.049424827 0.008501635
000280 7d 9e b2 3d 95 ae ec 3d 59 9c b4 3d 6f ed 36 bd
       0.087216355 0.115567364 0.088188834 -0.044660028
000290 14 e9 0d be 1f cf e3 3c 7b 13 d9 3d 14 0e 8f bd
       -0.13858443 0.027808724 0.10599419 -0.06985107
0002a0 a2 4a 76 3d 0e 98 89 bd 35 03 d3 3d b1 4c 96 3d
       0.06012977 -0.06718455 0.10303346 0.073388465
0002b0 de d2 12 3e cf 66 07 be 67 38 7e bc ae c9 d4 bc
       0.14338252 -0.13222812 -0.015516377 -0.025975075
0002c0 a1 88 5f bd a9 4d 4f bd a2 e9 1d be 95 ef fb 3d
       -0.05457366 -0.050611172 -0.15421155 0.12301556
0002d0 ea d8 b4 3c f5 5c 12 3c 8b e1 a6 3b e3 7e c6 3d
       0.022076089 0.0089332955 0.005092805 0.096921705
0002e0 d0 68 2f be 46 ec 40 3e 01 8c 5e bd f1 09 3a 3e
       -0.17129827 0.18840131 -0.054332737 0.18167855
0002f0 37 ef 19 3c e3 32 51 be dd ca d3 3c 4a aa 42 3e
       0.009395412 -0.20429568 0.025853569 0.19010273
000300 d0 81 37 bc 90 41 5b 3e 57 99 a5 3d e7 c5 df 3c
       -0.011200383 0.21411729 0.08085888 0.027316047
000310 4f 2f 68 3d 85 0f 64 bc 50 d8 10 be b2 6a c8 3b
       0.056685742 -0.013919716 -0.14145017 0.0061162347
000320 fa 81 e5 3b 5b 18 c8 bd 4f 37 1a be 61 4d 2d be
       0.00700402 -0.097702704 -0.15060161 -0.16924049
000330 70 0f 06 be 05 1b 76 bd 8f 27 39 3a 1c 22 69 3d
       -0.13091826 -0.06008436 0.00070630846 0.056917295
000340 6c f4 f9 bd 0f c7 a9 bc a5 dd 94 bd 31 c2 64 be
       -0.12204823 -0.020724801 -0.07268838 -0.22339703
000350 7b fd 05 3e 7f 93 06 be 3e cf 4f 3e 12 57 39 be
       0.13084976 -0.13142203 0.202939 -0.18099621
000360 2a 78 77 bd d7 97 b3 3c de 34 6a be 3b 6b ab 3d
       -0.06041733 0.021922989 -0.2287173 0.08370062
000370 d5 38 ef 3d d5 64 13 3e a1 84 0b 3e 23 19 d9 3c
       0.11680762 0.14393933 0.13624813 0.026501244
000380 30 a4 14 3e 14 58 d3 3d 56 dd 64 3d ab 9a 4f 3e
       0.14515758 0.10319534 0.055875145 0.20273845
000390 33 70 00 3e 86 06 a7 3d 4f 9f 32 be 7f ff 10 3e
       0.125428 0.08155541 -0.17443584 0.14159964
0003a0 63 d6 be bc 43 10 85 3d c1 b9 26 be bb 6e f1 3d
       -0.023295587 0.06497242 -0.16281797 0.11788698
0003b0 fe d9 33 3d 3a 8b de bc fd 93 20 be 22 bb 06 3e
       0.043909065 -0.027165998 -0.15681453 0.13157323
0003c0 27 12 81 bd cf 5b 8b bc e1 fa 0d be 67 ac 26 3e
       -0.063022904 -0.017011551 -0.13865234 0.16276704
0003d0 fd cf 0f 3d e9 44 be bd 56 63 88 3d 92 e5 e4 3d
       0.035110462 -0.09290487 0.06659572 0.111765996
0003e0 f3 96 46 3d 91 df 32 bd de 9c de 3d 96 4d c3 bd
       0.0484838 -0.04367024 0.10869764 -0.09536283
0003f0 b1 d7 23 3d 53 3d 1f 3c ac 97 0a 3e 30 3e d2 bd
       0.04000062 0.009719211 0.1353442 -0.102657676

model.rnn.bias_ih_l0 f4 [240]
000000 78 17 f2 3d 62 63 ee 3d b4 75 be 3d fe 8c 06 3e
       0.118208826 0.116400495 0.09299794 0.13139722
000010 f2 f9 b2 3d 28 78 8f 3d 91 c8 81 bd 09 18 4c 3d
       0.087390795 0.0700534 -0.06337083 0.04982761
000020 ae 92 20 bd e0 de 4e bc 24 48 08 3d b8 3e 25 3e
       -0.039202385 -0.01262638 0.033271924 0.16137207
000030 10 b2 b2 39 51 75 c2 bc 2a bc 85 bd af 6b f2 3d
       0.00034083473 -0.023737581 -0.0653003 0.11836945
000040 8b 4a 87 3d db 32 cf 3d f0 7c 8e bd ae 01 1a 3e
       0.06606015 0.10117122 -0.06957424 0.15039703
000050 3c 7b 14 3e 9a c9 16 3e e7 c9 07 3e f7 9c 33 3d
       0.14500135 0.14725342 0.13260613 0.043850865
000060 c8 53 72 bd 35 0e 4f bd 6f 55 04 3e bc 24 d1 3d
       -0.05916193 -0.05055066 0.12923215 0.10212085
000070 de 23 84 3d 25 44 7a bd 6d dd ea 3c dd 62 38 3d
       0.064521536 -0.061100144 0.028670037 0.04501616
000080 1d 7f 0b 3e 7e 8b 12 3d 63 d0 84 bd ae 71 f9 bc
       0.13622709 0.03577756 -0.06485059 -0.030449715
000090 7f b9 df 3c e1 4b 1d 3e af 4d 4a bd 5f 26 fe 3d
       0.027310131 0.15360977 -0.04939049 0.124096625
0000a0 df 93 11 3e 93 7d d6 bd 22 87 e4 3d 59 73 ab bd
       0.14216565 -0.1047317 0.11158587 -0.0837161
0000b0 e8 24 f4 3d d6 4d 13 3e 0a 88 0d bd 1f cc 0f 3d
       0.11921102 0.14385161 -0.034553565 0.035106774
0000c0 c8 a4 29 bd 88 e2 f7 3d 29 53 c5 3d 73 65 02 3b
       -0.041416913 0.12103754 0.09635002 0.0019896894
0000d0 d6 58 18 3e 2e ab f8 3d a0 32 2b bd d9 bf 29 3e
       0.14877638 0.12142025 -0.041796327 0.1657709
0000e0 6b 77 dc 3d 7f f4 f8 3d 62 cd 02 ba ee 17 f8 3d
       0.10764965 0.12156009 -0.0004989711 0.12113939
0000f0 6f d8 bd 3d ab 9b 8f 3c 0c 12 b3 bd 05 24 c9 bd
       0.09269797 0.017530283 -0.087436765 -0.09821323
000100 92 fb d4 bd 32 1d f1 3d f0 a3 93 bd 0b 66 c3 bc
       -0.10399546 0.11773147 -0.07209003 -0.023852369
000110 58 74 82 bd 27 07 f4 3c 83 57 26 bd 0a 01 b3 3d
       -0.06369847 0.029788567 -0.0406108 0.087404326
000120 02 5d b9 bd 39 84 18 3c 45 44 d9 3b 36 8c ce 3d
       -0.09050943 0.009308868 0.006630453 0.10085337
000130 52 66 ed 3d f0 99 12 bd f1 2b 18 3d a6 78 77 3d
       0.11591782 -0.035791337 0.03715128 0.060417794
000140 7c 0d 84 bd b3 e3 8d bc a3 c4 e3 3d 1f 32 de bd
       -0.064478844 -0.01732049 0.1112149 -0.108494036
000150 37 b3 08 be 22 8b c5 3d ca 99 ac bc 30 8e 3b 3d
       -0.13349615 0.09645678 -0.021069426 0.045789897
000160 4e 8d 39 3c 4e fe ac bb e3 bb b7 bb ba 49 08 3e
       0.011325194 -0.005279339 -0.0056071146 0.13309374
000170 f5 3f e5 bd 8c 48 df 3d cd 64 2a bb f4 df 28 3c
       -0.111938395 0.10902509 -0.0026000023 0.010307301
000180 98 46 a6 3d 19 b7 b8 3b 21 fd 51 bd 53 0a 81 bd
       0.081189334 0.0056370613 -0.051266793 -0.06300797
000190 6f b1 09 3e 0b e1 4b 3d f7 e2 f9 3d f3 4e 96 3d
       0.13446592 0.049775165 0.12201493 0.07339277
0001a0 cb a4 01 3e 3e 15 38 bd 20 04 50 bd c6 71 c5 bd
       0.1266052 -0.044942133 -0.050785184 -0.09640841
0001b0 4c c7 01 3e 5b 7b 3d bd 0e d1 87 bc d3 1d 09 3e
       0.12673682 -0.04626022 -0.016579177 0.13390283
0001c0 49 af fa 3d 0a 04 c0 3c 47 3e a1 3b 2a 91 89 ba
       0.12240464 0.023439426 0.004920754 -0.0010495533
0001d0 4c d2 fa 3d d3 e6 0a bd 4f e5 88 3d b4 53 ce 3d
       0.12247142 -0.033911537 0.06684362 0.10074559
0001e0 5c 50 8a bd 85 35 b7 bd 3f 91 82 bd 57 21 9d 3d
       -0.067536086 -0.08945755 -0.0637536 0.07672375
0001f0 93 b7 00 bd 71 10 80 bd 53 bd b0 3d d3 fd b9 bd
       -0.03142507 -0.06253136 0.08629861 -0.09081616
000200 38 f9 8e bd 64 c5 84 3d 77 f7 88 3d a1 26 dc bd
       -0.069811285 0.06482962 0.06687825 -0.107495554
000210 e8 e2 2d 3d 10 83 9f 3d ad 19 e8 3d c5 5b 06 be
       0.042452723 0.0778867 0.11333022 -0.13120945
000220 70 a5 ae bd 35 2e 88 bd 14 78 8f bd 57 76 8c bd
       -0.085276484 -0.06649438 -0.07005325 -0.06858509
000230 69 17 c9 bd f1 11 9c bc 9a 67 a4 bd d6 c1 02 3e
       -0.09818918 -0.019051524 -0.08027573 0.12769255
000240 61 e7 42 bd c9 d2 c2 3d cf 3e 84 3c d1 98 e2 3c
       -0.04758394 0.0951286 0.01614323 0.02766076
000250 90 7b 33 3c 93 9e 71 3d 87 8d 2d bb 3a e8 9f 3d
       0.010954753 0.05898912 -0.0026482062 0.078079656
000260 72 c6 b6 3d 9a 3b 1f bc 3e ad 1f 3d 9e 40 01 bd
       0.08924569 -0.0097188 0.038983576 -0.031555764
000270 a2 e9 95 3d 83 f7 db bc e9 b1 40 bd 45 8d 5d bd
       0.073199525 -0.026851421 -0.04704467 -0.054089803
000280 7d 61 0d 3d 66 42 ea ba a2 ca a6 bd c4 7c bd bd
       0.0345168 -0.0017872571 -0.08144118 -0.09252313
000290 6b 0f 41 3c a1 3f 19 3e b5 25 d3 bd 12 64 d3 bc
       0.011783461 0.14965679 -0.103099264 -0.025804553
0002a0 fb c9 09 3e 5a a6 be 3c de fb 65 bd b6 ae d7 3c
       0.13455956 0.023272682 -0.056148402 0.026328426
0002b0 c4 f5 b1 3c f6 06 31 bd 40 e4 6a bd 7f e7 82 3d
       0.021723635 -0.04321953 -0.057346582 0.063918106
0002c0 58 3e 02 bd 3e 62 4a 3d 91 5c e2 bd 33 a1 9f bd
       -0.031797737 0.049410097 -0.11052812 -0.07794418
0002d0 08 fe 99 bc 37 51 60 3e f9 cd 76 bd f5 9f 8d 3d
       -0.01879789 0.21905981 -0.060255025 0.06915275
0002e0 fb 72 94 3c 5c fa c0 39 f5 d8 af bd fc 94 ce 3d
       0.018121233 0.00036807626 -0.08586303 0.1008701
0002f0 ab 1e ae 3d 41 af eb 3d 51 fc ab 3d c0 7f 83 3c
       0.08501943 0.115080364 0.08397735 0.016052127
000300 5c 10 22 3d 3d c4 72 3d f9 44 06 3e 46 02 0a bd
       0.039566383 0.05926918 0.13112248 -0.033693574
000310 38 68 c4 bd a3 fd 9a 3d d2 db eb bd fc 20 b2 3c
       -0.09590191 0.075679086 -0.11516537 0.021744244
000320 4b 6a 41 3c 61 c6 32 3e d1 3f b3 bd 79 df 29 3c
       0.011805127 0.17458488 -0.087524064 0.010368221
000330 ef ae af 3d e4 b5 10 3d 14 ed e4 bc 45 96 d6 bb
       0.08578288 0.035329714 -0.027945079 -0.0065486752
000340 1d 61 33 bd 29 e8 f3 3d aa 2f 4a 3c 37 d5 31 3d
       -0.043793786 0.119095154 0.012340466 0.04341623
000350 b2 0a 4b bc d8 fe 8e 3d ff 98 0b 3e ec 0b 72 3d
       -0.012392687 0.06982201 0.13632582 0.0590934
000360 94 22 f2 3d 64 a8 b6 3c fc 34 a4 3d 31 59 b2 bd
       0.118230015 0.022297092 0.080179185 -0.08708418
000370 65 6a 0c 3e e7 eb c0 bd 85 e0 bd bd 5d bc f8 3d
       0.13712461 -0.09419995 -0.09271339 0.121453024
000380 de 19 40 bd d9 87 63 bd ba 2d da 3d 6a f2 8e 3a
       -0.04689967 -0.055549476 0.10653253 0.0010905985
000390 d0 f8 a2 3d 0f a2 6e bb cc 5c 9c bd 3f 0b 94 3d
       0.079576135 -0.0036412512 -0.07634887 0.072287075
0003a0 59 96 dd 3d 99 a8 fb bb 1b 4c 6b bc 02 c0 b4 bd
       0.10819692 -0.0076800105 -0.014361407 -0.08825685
0003b0 c7 4d e0 3b f6 81 82 bc 31 50 bf 3d cf 8c 88 bd
       0.0068452093 -0.01593111 0.09341467 -0.06667482

model.rnn.bias_hh_l0 f4 [240]
000000 cd 77 2d 3d 9e 9c 18 3d 1d 41 e6 3d 5c e9 8b 3d
       0.04235058 0.037258737 0.11242888 0.06831619
000010 b2 f5 14 bd 67 79 d0 3d 41 66 0a 3e db 87 9b 3d
       -0.036367126 0.10179406 0.1351557 0.07594272
000020 4a b7 89 bd 7b 59 81 bd 1b 6f 0e 3d 2d 28 b1 3d
       -0.06724413 -0.06315895 0.034773927 0.08650241
000030 c4 81 cf 3d cd e9 84 bc 69 a9 8c 3a 5b 69 cb bd
       0.10132173 -0.016224766 0.001073164 -0.09932204
000040 0b 6f 8a 3c e4 b8 a0 bd 25 ab b6 3a 38 48 0e 3e
       0.016898653 -0.07847765 0.0013936503 0.13894737
000050 31 fc 08 bd a3 c1 81 bd 5b 77 7f bd c0 31 10 36
       -0.033443633 -0.063357614 -0.062369686 2.148663e-06
000060 4e d5 2f 3e e0 57 bd 3d c0 df b1 3d e3 13 29 3e
       0.17171213 0.092452765 0.08685255 0.16511492
000070 68 5f 9b 3d f3 53 2c bd 90 f1 ee bc a7 31 53 3d
       0.07586557 -0.042072248 -0.02916792 0.051561024
000080 10 d0 33 3e cc cd e8 bd 70 88 f4 3c 4b e9 ac 3d
       0.17559838 -0.11367378 0.029850215 0.084429346
000090 dc 08 4d 3d 7f 59 e3 3d 0b 1d 5e 3c b3 74 27 3d
       0.050057277 0.111010544 0.013556729 0.040882777
0000a0 b2 ea f3 3d 22 93 4d bd 79 bb 0f 3d ef de 73 3d
       0.11909999 -0.050189145 0.035090897 0.059538778
0000b0 c1 42 3f 3e 0f 06 55 3d f3 6d 12 bd d7 d7 c9 bc
       0.18677808 0.05200773 -0.035749387 -0.024639053
0000c0 bf 3e 53 bd 3f a7 31 bd a3 44 d8 bd d8 82 79 3d
       -0.05157351 -0.04337239 -0.105599664 0.060915798
0000d0 47 52 a6 3d 6c 76 c8 3c 53 c3 24 3e 03 2d e9 bb
       0.08121162 0.02447053 0.16090135 -0.0071159615
0000e0 77 a4 32 3a 43 83 c5 3d 54 c4 e1 3d 6c 8d 0c 3e
       0.00068146683 0.09644177 0.11023775 0.13725823
0000f0 77 57 9d 3d a8 ca 31 bd 29 11 b2 bd c4 09 f2 ba
       0.07682698 -0.04340616 -0.08694679 -0.0018466045
000100 85 a5 30 bc b7 c0 cd bd 2a 7a 03 3d dd 1a e3 bd
       -0.01078165 -0.10046523 0.032098927 -0.11089108
000110 85 0c 86 3d d6 8c 62 bd b7 be fa 3d 5a 6c 01 be
       0.06545357 -0.055310093 0.12243407 -0.12638989
000120 6b a5 fc bd 8f 7d ee bc a7 12 59 bd 45 c1 50 3d
       -0.123362385 -0.029112605 -0.052996304 0.050965566
000130 c2 ed 25 3d c5 d2 89 3d 19 c5 64 3c a4 5e 1f 3d
       0.040509947 0.06729654 0.013963007 0.038908616
000140 3f 5d e7 bc 71 20 be 3c 11 11 d9 3d 91 a9 f7 bd
       -0.028242705 0.023208829 0.10598958 -0.12092889
000150 2f e2 6d bd c9 af 6f bd 17 b4 b5 bd d9 15 bc bd
       -0.058077034 -0.05851725 -0.0887224 -0.091838546
000160 4c 1a a1 3d 44 2e be bd d2 cd a9 3c c5 3d 1d 3d
       0.07866344 -0.09286168 0.020728026 0.038388986
000170 89 c9 3b bd 7b c6 8a 3d ad 65 94 bd 2a 4a 0d 3c
       -0.045846496 0.067761384 -0.072459556 0.008623639
000180 7a 2d 08 3e 5e f4 ab bc e4 62 a1 bc 70 2e 03 3e
       0.13298598 -0.020990547 -0.019700475 0.12810683
000190 f7 26 46 3c 56 56 1f bd 1c 0c 85 3d 6c db 93 bd
       0.012094251 -0.038900696 0.0649645 -0.07219586
0001a0 c9 73 b7 3d 97 12 ff 3c 95 a3 24 3d 51 f5 dd 3b
       0.08957631 0.031136794 0.040195066 0.0067736288
0001b0 9b 95 5a bd fb 0e 76 bd fe 41 84 3d 0a 35 51 bd
       -0.05336533 -0.06007288 0.064578995 -0.051075973
0001c0 49 96 da bd 34 1a 19 bd f9 a7 00 be fb a1 4e bd
       -0.10673196 -0.037378505 -0.12564076 -0.050447445
0001d0 1d 6d 16 3c d1 d0 c1 bc ca 94 db bd 06 b4 81 3d
       0.009181288 -0.023659142 -0.10721739 0.06333165
0001e0 02 73 4b 3d 78 16 eb 3d 56 5e ac bb b1 40 83 bd
       0.049670227 0.11478895 -0.005260269 -0.06408823
0001f0 f1 b8 08 3e 94 66 c8 3d bf b8 80 bd 08 4b 6c bb
       0.133518 0.0978519 -0.062852375 -0.0036055464
000200 ca 8c e3 bc 4f 0a a5 3b 2d 96 04 bd d9 03 ce 3b
       -0.027777094 0.0050366293 -0.03236978 0.00628708
000210 25 3d 5d 3b 7d 2b d5 bd 84 67 ec 3d 71 94 92 bd
       0.0033758369 -0.10408685 0.115431815 -0.07157219
000220 4d 7b b3 bd 4c ab 14 be 06 e7 cc bd 5e 9e 12 3e
       -0.08763752 -0.1451847 -0.10005002 0.14318225
000230 8f 56 07 bd 03 87 e0 3c 4b e9 9b bd 11 55 9d bd
       -0.033041533 0.027408129 -0.076128565 -0.07682241
000240 d1 9a 47 bd 1d 0e 5b bd 6e d8 ed bc df 97 f8 bc
       -0.04873163 -0.053480256 -0.029033866 -0.030345855
000250 2c 9d e0 3d 49 73 a7 bd 50 56 a1 bd 99 c2 0c bd
       0.10967478 -0.08176286 -0.07877791 -0.03436527
000260 d5 a0 3e 3d 31 d3 d8 3d 73 3e 8c bd 37 c5 e1 bd
       0.0465401 0.105871566 -0.06847849 -0.11023944
000270 92 ed df bd 0c 40 11 bc 92 01 85 3d 31 26 41 bd
       -0.10933985 -0.008865368 0.0649444 -0.047155563
000280 02 6f 29 3d 4f 36 b1 3d 6c d4 01 3e d2 b5 24 3d
       0.04136563 0.08652937 0.12678689 0.04021246
000290 84 b6 bb 3d 60 a8 d5 bd 9a 50 34 bd fa 5f 31 bd
       0.091656715 -0.104325056 -0.04402218 -0.04330442
0002a0 98 5d b5 bd bc fe 09 3e 6d 77 8e 3d 26 af d6 bd
       -0.08855742 0.1347608 0.069563724 -0.10482626
0002b0 e3 1f bb 3d 3c 2c 83 3b e7 26 cf bd 75 04 f3 3d
       0.09136941 0.004003076 -0.10114842 0.118660845
0002c0 4b 0a c7 3a 44 c7 ae bd e3 59 90 bd 44 e6 d0 bc
       0.0015185563 -0.08534101 -0.070483945 -0.025500424
0002d0 00 29 25 3e d6 5e 34 3d ef f3 93 3d 29 30 47 3e
       0.16128922 0.044035755 0.07224261 0.19451965
0002e0 17 df 07 3c bd f4 00 bd c8 28 7e 3d 4f ae 9c 3d
       0.008292935 -0.0314834 0.06205061 0.07650434
0002f0 bb ca c3 bc 9a 1e 07 3d cb e2 43 3c 69 b8 13 bd
       -0.02390038 0.03298817 0.011955927 -0.03606454
000300 fd e5 a8 bd 67 5a 95 bd 64 94 ca 3d 8e 45 a8 bd
       -0.08246992 -0.072926335 0.098915845 -0.082163915
000310 f2 fe 84 bd 78 25 4b 3d 72 ac 16 3d b1 5e 19 3e
       -0.064939395 0.04959628 0.03678555 0.14977528
000320 48 ee a8 3d 44 42 27 bd 53 af 09 3d 0d 53 a7 3d
       0.082485735 -0.04083468 0.033614468 0.081701376
000330 78 72 1d 3e 64 4c 09 bd 09 c9 4a bd f1 8d d2 bc
       0.15375698 -0.033520117 -0.04950813 -0.025702449
000340 0e 09 0f 3e 64 ad 2f bc 6a 4f eb 3d 3a 9e f6 3c
       0.13968298 -0.010722492 0.114897564 0.030104745
000350 f3 9c ae 3d 83 88 1d 3d 62 1c 63 3d f8 59 43 3d
       0.085260294 0.038460266 0.05544699 0.047693223
000360 5c 62 0f 3e 30 89 0c 3e d0 3e 71 3c 2d 39 46 3d
       0.14002365 0.13724208 0.014724448 0.04839437
000370 66 2e a7 3d 08 7a e7 3d 9b f9 77 3d 10 3b 83 bc
       0.08163147 0.113025725 0.060540777 -0.016019374
000380 6d 7e bd bb d7 6a 56 bd 0a 1d 84 bd 14 fe 38 3e
       -0.0057828934 -0.052347984 -0.06450851 0.18065673
000390 52 7d a3 3d 9c d9 f6 3b 34 81 a4 3d c4 dc b0 3d
       0.07982887 0.0075332653 0.08032456 0.08635858
0003a0 34 ec ed 3d 1f b6 9d 3d 36 43 ad bd 59 f5 9e bd
       0.11617318 0.077007525 -0.08460085 -0.0776164
0003b0 66 88 61 bc c8 c6 23 bd 65 72 53 3a 7c 8d 08 bc
       -0.01376543 -0.039984494 0.00080660573 -0.008334514

model.rnn.weight_ih_l1 f4 [240, 60]
000000 46 17 ba 3d 78 bf ac 3d 6e 41 cb 3d cd e5 52 3d
       0.0908647 0.08434957 0.09924589 0.051488686
000010 6b 45 09 3d 4e 94 14 3e 05 5f a3 3d b0 e0 03 3d
       0.033513468 0.14509699 0.07977108 0.0321967
000020 cf 16 26 be 67 96 e1 3d 97 63 e0 3d f2 6b 59 3d
       -0.16219638 0.11015015 0.10956495 0.05308146
000030 df 98 25 3e 4e 1e 8c 3d bd 78 c6 bd 6c 19 11 be
       0.16171597 0.06841718 -0.09690998 -0.14169854
000040 cb 18 06 be 29 b6 2d be 43 30 d7 3c 53 5b 4a 3c
       -0.13095395 -0.1696402 0.02626813 0.012350875
000050 66 99 a3 3d 04 e9 20 3d b1 0b 5a 3d 82 ad f1 3c
       0.07988243 0.03928472 0.053233806 0.02950168
000060 99 56 b3 bd c9 87 db 3d 6a 3a 6d 3d 66 8e 04 3e
       -0.087567516 0.10719258 0.057917036 0.12944946
000070 0f 21 55 be 46 c6 0a 3d b3 4b b0 bd eb b6 9d bd
       -0.20813392 0.033880495 -0.086081885 -0.077009045
000080 e9 e5 a8 bc f2 e9 dd bb 0b 66 0c 3e 30 65 10 be
       -0.020617442 -0.006772273 0.13710801 -0.141011
000090 ad 7e cd 3d 08 45 06 3e f8 e0 0a be 39 3e 34 3e
       0.10033927 0.13112271 -0.13562381 0.17601861
0000a0 a6 ff fb 3d f6 82 9a 3b eb 93 d4 bd 01 cd 97 3b
       0.123046204 0.004715319 -0.103797756 0.0046325927
0000b0 01 85 43 bd dc 1f ce bd b7 67 58 3d 85 be cc 3b
       -0.047734264 -0.100646704 0.052833285 0.0062482976
0000c0 d2 40 6a 3d ef ee 05 3e b8 ab 85 3d 58 2f e8 3c
       0.057190724 0.13079427 0.065268934 0.028342888
0000d0 71 b8 bb bd 4b 73 ca 3a 94 5b 12 be c0 8f 11 3d
       -0.09166039 0.0015445737 -0.14292747 0.03553748
0000e0 65 0d 7e 3d 6a 2a 87 bb d8 57 92 3d 37 30 e4 3c
       0.062024493 -0.004124929 0.07145661 0.027855022
0000f0 a6 9f 97 3d bd 04 05 bc 4f 95 a5 3d c0 24 42 3e
       0.074034974 -0.0081188055 0.08085119 0.18959332
000100 cd 6d f2 bc b2 f8 59 3e 56 24 39 3d e2 50 9c 3d
       -0.029593373 0.21286276 0.04520067 0.07632615
000110 89 60 e3 bd b3 e6 ac bd e6 f6 84 bc 2b 13 41 3e
       -0.11102397 -0.0844244 -0.016231012 0.18854968
000120 2e 27 c3 3d 76 9c 00 3e 81 5a 9c bc e8 a9 95 3d
       0.09528957 0.12559685 -0.019086124 0.07307798
000130 3c 5b 20 3d e7 d8 19 3c 9b 52 2a bd 58 55 39 3e
       0.039149508 0.009390092 -0.041582685 0.18098962
000140 59 c7 01 3d 7f d4 57 3d 74 b6 e5 bc 18 3e 24 be
       0.031684253 0.052692886 -0.028041102 -0.16039312
000150 40 89 cd 3d 23 85 97 3b 77 f8 d0 bd 2a 6e 0d 3e
       0.10035944 0.0046240254 -0.10203641 0.13811556
000160 c4 27 1b 3d 24 70 ac bc 89 0c ab bd e7 8e 93 bd
       0.03787972 -0.021049567 -0.08352 -0.07204991
000170 28 11 93 3d 88 62 41 3d 4d 9b c7 3d b8 fa 01 3d
       0.07181007 0.047213107 0.09746418 0.031733245
000180 31 97 3a 3e b0 ae 47 3d 8e 46 bf 3b 8e 99 78 bd
       0.18221737 0.04875058 0.005837268 -0.060693316
000190 24 1c 4c 3c cb 50 df 3d 6c 0d 80 3c 48 4f 8d bd
       0.012457881 0.10904082 0.0156314 -0.06899887
0001a0 d3 89 e0 3d d8 90 60 be cb d8 a2 bb d4 7a 13 3e
       0.10963788 -0.21930254 -0.0049696914 0.14402324
0001b0 ac bd da bc 92 a6 10 3e b2 13 2d 3c ce 95 08 bd
       -0.02670177 0.14126042 0.010563778 -0.03334599
0001c0 e8 a6 10 bd 6b 1a cc 3b a7 45 85 bd b1 36 fa 3c
       -0.035315424 0.006228735 -0.06507426 0.030543657
0001d0 38 0b 37 be 12 d1 4a 3e 42 17 2b be ed aa b4 bb
       -0.17875373 0.19806316 -0.16708091 -0.00551354
0001e0 2f e2 05 bd 23 77 85 3c ea 53 c3 3b e9 eb 40 3e
       -0.03268641 0.01629216 0.005960931 0.18839993
0001f0 2b 30 e2 3d 18 1f b2 3d 55 95 e0 3b 6b d1 9f 3d
       0.110443436 0.08697337 0.0068537393 0.07803615
000200 f7 b9 13 3d 14 9e 6d bd 51 01 21 3e 91 43 d2 3d
       0.03606602 -0.058012083 0.15723158 0.102667935
000210 c8 a3 54 3c f5 77 26 bd 25 43 39 3e c9 cb 34 bd
       0.012978502 -0.040641744 0.1809202 -0.044139657
000220 60 7f 02 bd bb d8 85 bd 76 82 39 be 9b 62 29 bd
       -0.031859756 -0.06535479 -0.18116173 -0.041353803
000230 27 02 a0 3d 10 24 41 be 76 a9 12 bd f8 c2 b2 bb
       0.078129105 -0.18861413 -0.03580614 -0.005455371
000240 94 21 a1 3d 03 59 47 3d 37 35 2c be 72 2d fd 3d
       0.07867733 0.048668873 -0.16817175 0.12362184
000250 bf cb 0c 3d 00 30 98 b5 a4 11 2a 3d d5 4a 86 bd
       0.034373995 -1.1338852e-06 0.04152073 -0.06557242
000260 35 d5 8b bd c6 84 b5 bd 5d c2 78 3d aa 44 33 be
       -0.068277754 -0.08863215 0.060732234 -0.17506662
000270 61 1d b9 3d e5 69 bc 3d eb b7 96 bd 58 ea ef 3d
       0.09038807 0.09199885 -0.07359298 0.117146194
000280 f9 81 60 3d 02 cf d9 3d 01 69 f2 3a 94 cd 12 be
       0.05481145 0.10635187 0.0018494428 -0.14336234
000290 25 7e 1b bd 2d ef 2c bc 69 17 65 3e ca 2d 2c be
       -0.037962098 -0.010555071 0.22372212 -0.16814342
0002a0 90 2f 7c bd 94 7d 4d 3c b7 2a da bd 7b 8b 14 3e
       -0.061568797 0.012542147 -0.106526785 0.14506333
0002b0 1a 2d 9d 3d da 87 ba 3b 87 2a a9 bd fe 96 6b bc
       0.07674618 0.0056924643 -0.082600646 -0.014379261
0002c0 c5 03 89 3d 7a a6 c6 bd b6 3b 53 bd 7d 6f 4e 3e
       0.06690172 -0.09699722 -0.051570617 0.20159717
0002d0 4f 2b 01 3e d5 a5 09 be 87 fe 98 bd 01 36 f1 ba
       0.12614177 -0.13442166 -0.07470422 -0.0018402935
0002e0 b4 9d 61 bd a3 90 66 bd c4 55 28 3e cc 4a 00 bd
       -0.055082038 -0.05629028 0.16438967 -0.03132133
0002f0 08 19 d6 bd b4 d6 3d be 11 7a b7 bc 4d b9 88 3d
       -0.10453993 -0.18538934 -0.022397073 0.06675968
000300 04 75 82 bd f3 4c 3c 3c 2a cb 99 bc 6c e3 1b be
       -0.06369975 0.0114929555 -0.018773634 -0.15223473
000310 6d a6 59 3c f7 d1 19 be 15 9a 16 be a8 66 8c 3b
       0.013284308 -0.15021501 -0.14707215 0.0042846985
000320 4a 39 40 bd 60 97 12 bd de e8 e3 bd 94 81 24 3c
       -0.046929635 -0.035788894 -0.111284 0.010040659
000330 2f 20 16 3e 1e 2c b1 3c d0 85 cc bb 0e bb 2f 3e
       0.14660715 0.021627482 -0.0062415376 0.171612
000340 80 01 f3 3c b7 3f 7e 3d 3a d4 a8 bd 73 de 01 be
       0.029663801 0.062072482 -0.08243604 -0.12682514
000350 d4 e2 e5 3d 11 40 32 be d1 5b 21 3d 9f ff 26 bc
       0.11224905 -0.17407252 0.039394204 -0.010192781
000360 1e d2 7f bd 5e db c9 bd 36 a7 a0 bc 76 42 a7 3c
       -0.062456243 -0.09856294 -0.019610982 0.020417433
000370 fe 19 00 bd 2f 06 83 3c 13 5b 5c bd c6 5b 4d bd
       -0.031274788 0.01599416 -0.053797793 -0.05013635
000380 d3 54 d6 3b 86 b4 2c 3e b7 59 08 3c 3b d3 f4 bd
       0.0065408736 0.16865739 0.008322171 -0.119543515
000390 e8 bf fc 3c e1 91 27 3d 1c 21 fe bd 4c 52 9b bd
       0.030853227 0.040910605 -0.12408659 -0.07584056
0003a0 1e b6 16 3d 34 ef 9b 3c 0b 6e d7 bd af c1 a7 3d
       0.036794774 0.01903496 -0.10519036 0.08191239
0003b0 de de ef bb 8d 45 26 be f1 df 64 3c e6 e5 0d 3d
       -0.007320269 -0.16237469 0.013969407 0.034643076
0003c0 b8 2d d7 bd dd 6c aa bd 10 11 fd bc 5f 4f 15 3e
       -0.10506767 -0.08321545 -0.030891925 0.14581059
0003d0 5d 00 72 3d 98 b7 0a bc 10 a8 b8 3d d0 3b 7d 3d
       0.059082378 -0.008466624 0.090164304 0.06182462
0003e0 e8 47 17 be bd 18 10 bd 48 ec 1b 3e dd 46 ee 3d
       -0.14773524 -0.035179842 0.15226853 0.1163461
0003f0 c5 17 22 bc 44 de 8d 3d 21 56 fd 3d bf 1f 70 bd
       -0.009893362 0.069271594 0.123699434 -0.058624025

model.rnn.weight_hh_l1 f4 [240, 60]
000000 7e ac d5 bd f3 99 be bd 3c 2e 69 bd ce f1 9d 3d
       -0.10433291 -0.09306707 -0.05692886 0.07712136
000010 54 b0 35 3d e6 70 32 3d da 64 ab 3d 07 92 a1 3d
       0.044357613 0.0435647 0.08368845 0.07889181
000020 6f e4 7c bc f8 ff 9b bd 72 bb f7 bd e5 9f 82 3c
       -0.015435322 -0.076171815 -0.12096299 0.015945384
000030 4b 34 af bc a0 c3 e7 bb d4 41 b0 bc 3b e9 f3 3c
       -0.02138724 -0.007072881 -0.021515764 0.029774299
000040 2f 4c d7 3c 77 b2 7c bd c6 b4 5e 3d 6e 88 46 bd
       0.026281444 -0.061693635 0.054371618 -0.048469953
000050 cf cf 98 3c 90 84 68 3d 1f 38 f1 3d a2 ce bc bd
       0.018653778 0.056767046 0.117782824 -0.092190996
000060 b3 73 dd 3c 15 79 11 3e e8 52 d1 bd f4 60 24 bc
       0.027032709 0.14206345 -0.10220891 -0.010032881
000070 4e f2 c7 3d 18 88 c7 3d 9e d0 12 3d a1 19 a8 bc
       0.09763013 0.09742755 0.035843484 -0.020520033
000080 4d 4e 1f bc f2 04 39 bd 13 89 e0 bc df 90 bb 3d
       -0.009723258 -0.04517073 -0.027409112 0.09158491
000090 06 25 26 bd 7e 29 c8 3c ba cb 1b 3d 6c c4 24 3c
       -0.040562652 0.024433848 0.038036086 0.010056596
0000a0 bf 6d 6e bd 59 eb b4 bd a7 22 28 3b aa 10 0d 3e
       -0.05821013 -0.088339515 0.002565542 0.13775888
0000b0 cc e5 af 3d 74 31 62 bd 32 36 f3 3c 81 20 d8 bc
       0.08588752 -0.055222943 0.029688928 -0.026382687
0000c0 47 78 19 3e dd e9 13 3e 32 bd a5 3b 87 4a 06 3e
       0.14987288 0.1444468 0.005057954 0.13114367
0000d0 22 71 0f be 09 9b 8a bd 2a fb 8e bd 20 4b 45 bc
       -0.14008 -0.06767852 -0.069814995 -0.012041837
0000e0 7e d7 6e 3d 45 1a cc 3c 1c 82 4d 3d 60 16 d4 bd
       0.058310978 0.02491487 0.05017291 -0.1035583
0000f0 53 c8 0e bb f2 29 19 3e da c3 e0 bd e0 3e 2f be
       -0.0021786883 0.14957407 -0.10974856 -0.17113829
000100 21 47 1b 3d 18 44 a9 3c ab 4b 9e 3c eb 24 5b 3d
       0.03790963 0.020662352 0.01932319 0.053502005
000110 95 2b 1a 3e f3 ca 12 3d 96 5c 2b be 98 e0 17 be
       0.15055688 0.03583808 -0.16734537 -0.1483177
000120 5f ff ff bd a8 a4 52 bb 80 ab 21 3e 4b b6 1f be
       -0.1249988 -0.00321416 0.15788078 -0.15596883
000130 21 02 1b bd 87 e6 03 3d 2f 05 6c 3d 1b 4a ad bd
       -0.037843827 0.03220227 0.05762213 -0.084614
000140 d9 44 58 bc ce cc 29 3e 60 bc 17 bc f4 f5 f3 3d
       -0.013200008 0.16582033 -0.009261221 0.11912146
000150 47 70 79 bd d5 0e 97 bc 31 b9 cc 3d 3e 32 48 ba
       -0.06089809 -0.01843969 0.0999626 -0.0007636881
000160 e5 e5 9d 3d 6f d1 00 be b6 fa fc bd 78 7f 31 be
       0.077098645 -0.12579893 -0.12352507 -0.17333782
000170 0a c5 f6 bc a8 17 f7 bc 29 6c 1f 3e c6 1e c1 bc
       -0.030123252 -0.030162647 0.15568604 -0.023574244
000180 30 e5 a4 bc 5a 2f 22 3e 66 77 06 bd 82 c7 cf bd
       -0.020128816 0.15838376 -0.03282871 -0.10145475
000190 e9 cc 94 3d 6b 74 dd bc 40 a5 ab bd 98 ba 47 bd
       0.07265646 -0.027033051 -0.08381128 -0.048761934
0001a0 46 0d 2a be 79 61 f8 ba d2 16 5d 3d 86 b7 db 3c
       -0.16606626 -0.0018949948 0.05397684 0.02682091
0001b0 de 51 bb 3d 70 2d d7 3c 0a 0b 6f bd f8 f6 5e 3d
       0.09146474 0.026266783 -0.058360137 0.054434747
0001c0 bf f7 a9 3d d9 44 96 bd 9e e0 8c bd 67 83 5e 3d
       0.08299207 -0.073373504 -0.0687878 0.054324534
0001d0 08 0b d8 bd 8a 33 ce bd e0 b8 18 bd 1c 89 73 3d
       -0.10548979 -0.10068424 -0.037285686 0.05945693
0001e0 30 61 36 3d e9 7d 8e 3c 12 da 75 3d 6d d9 a3 bd
       0.04452628 0.017394023 0.06002242 -0.08000455
0001f0 af 55 52 3d 61 ac 67 bd 61 57 20 be c7 3a e3 3c
       0.051351245 -0.056560878 -0.15658332 0.027737988
000200 df 7c 17 3d 56 e4 8e bd 35 57 4a be 78 28 03 be
       0.03698432 -0.069771454 -0.1975983 -0.12808406
000210 fa 04 23 bd f8 6e f3 3d 79 f6 fa 3d 2a 90 76 bc
       -0.039799668 0.118864 0.12254042 -0.01504902
000220 6f 38 5d 3d 02 4e e8 bc 7e f9 95 3d b7 11 b6 3d
       0.054008897 -0.02835751 0.073229775 0.088900976
000230 97 2d 48 bb 94 3e ae 3d db 27 37 3d 5e 3e c5 3d
       -0.0030544752 0.085080296 0.044715744 0.09631036
000240 2c fe f4 bd 28 c4 b7 bc bb fd a3 bd 6d 36 6c bd
       -0.11962542 -0.022432402 -0.080073796 -0.057669092
000250 3b d8 a9 3d 13 ea 16 be de e9 12 3c 7e a6 16 be
       0.08293196 -0.1473773 0.008966891 -0.14711949
000260 7f 35 dd bd 13 00 25 3d 5b 20 41 3d 02 3a a0 bc
       -0.10801219 0.040283274 0.047149997 -0.01955891
000270 85 91 ce bd 12 99 c2 3d bf 28 d8 bd 81 fa 82 bd
       -0.100863494 0.09501852 -0.10554647 -0.06395436
000280 cf ec 82 3c ea 2d 22 be f0 99 c2 bc 8f f1 e0 bc
       0.01598206 -0.15837827 -0.023755044 -0.027458934
000290 b6 14 35 be 63 79 0f 3e 12 b8 3f be c4 d2 24 bd
       -0.17683682 0.14011149 -0.18722561 -0.040240064
0002a0 46 ef 2b 3e 1f 4d 8d bb 5c c1 6f bc 04 5f ae 3a
       0.16790494 -0.004312172 -0.014633503 0.0013303463
0002b0 bc 42 0b be fd 17 40 bc 2f 6e 5e bd 6e d4 02 3c
       -0.13599676 -0.011724469 -0.054304298 0.0079852175
0002c0 bd 3e 90 bd d1 90 6a bc fd c9 0b bd de 8f 15 3e
       -0.070432164 -0.0143167535 -0.034128178 0.14605662
0002d0 1e fb 52 bd 79 88 f1 3d da b1 44 3c 16 64 7c 3d
       -0.051509015 0.11793608 0.012005294 0.061618887
0002e0 2e 01 07 3d 08 c5 41 3d 51 00 dd bc ed cb 87 3d
       0.03296011 0.047307044 -0.02697769 0.06630693
0002f0 1e 9e 3a 3d d9 14 ab 3d ea 50 21 bd dc 6a d3 bd
       0.04556095 0.08353586 -0.039383806 -0.10323116
000300 a1 03 a3 bd 1d 2b b9 3c d5 90 9b bd b5 7c 0a bd
       -0.079596765 0.022603566 -0.07595984 -0.033810336
000310 57 8d 79 bd 54 4e 4b be 31 11 90 3d 46 11 02 bd
       -0.060925808 -0.19854099 0.07034529 -0.031754754
000320 13 2e 2c 3e 7f 50 16 3c 52 65 56 3e 85 b5 00 3e
       0.16814451 0.009174465 0.20937088 0.12569244
000330 46 e4 35 be 4d 31 e8 3d 04 c9 dd bd 1b db d7 bd
       -0.1776286 0.113375284 -0.10829356 -0.10539838
000340 2e 66 35 3d b8 34 5b 3d 3c f8 e1 bd b1 f2 23 be
       0.0442869 0.053517073 -0.11033675 -0.16010548
000350 26 59 ad 3c 52 13 15 be b3 2b 00 3e 31 8a 30 3d
       0.021160673 -0.14558151 0.1251667 0.04310054
000360 e3 bc bf 3c 9e ac e2 3d 23 ab c1 bd 5d d4 46 be
       0.023405498 0.1106808 -0.0945647 -0.19416948
000370 a2 5d 6d bc a9 96 67 bd fa 1e 46 be 3e 5f 89 3d
       -0.014487656 -0.056540165 -0.19347754 0.06707619
000380 c6 ee 20 be 74 26 aa bc 52 68 66 3d e9 6b 43 3c
       -0.15716085 -0.020770289 0.05625183 0.011927583
000390 e9 f4 40 3e 5f 09 5c 3d 92 7e 09 be 3e f8 fd 3b
       0.18843426 0.053719874 -0.13427189 0.00775054
0003a0 46 95 a9 bc fa a3 da 3d 9e 63 4b bd 6b 2a 20 bd
       -0.020701062 0.10675807 -0.04965555 -0.039102953
0003b0 c1 fe d0 bd a7 ae 43 3d c4 03 36 be ac d9 c0 3d
       -0.102048405 0.047773983 -0.17774874 0.094165176
0003c0 3d 3e 9e bd 5c bd 07 3e 60 63 21 3e a9 b6 cd 3d
       -0.07726715 0.13255829 0.15760565 0.10044605
0003d0 2e 3d 9b bb e3 54 a8 bd f8 66 4e 3d 6e 62 d5 bd
       -0.004737518 -0.08219316 0.050391167 -0.104191646
0003e0 30 58 eb 3c 33 2c 8e 3d af 59 1b 3d ef 59 c7 bd
       0.028728575 0.06942024 0.037927326 -0.0973395
0003f0 2b 41 8a bb 35 a2 43 bc d5 a1 dd 3d 70 57 26 bd
       -0.0042191944 -0.011940529 0.10821883 -0.04061073
