checkpoints/epoch=1-step=100-v13.ckpt (torch, 621663 bytes, 33 tensors)

model.param_proj.proj.0.weight f4 [1, 60]
00000000: c486 173e 1df2 2ebd 1559 c73d c6ab 2d3d
00000010: ac7c ec3c 832e 6bbe 2f3e a33c c4bd d0bc
00000020: 5f24 3a3e bda2 623b 53a7 35be ff3e 5dbd
00000030: 8191 5dbe 46cd e33d d8f7 40bd 9777 cdbb
00000040: e928 21be 6aba 293e 19d2 b8bc cf5f ae3d
00000050: 84a8 bc3d 165e cebd f5c2 54bd 1b23 543e
00000060: ef13 2b3e b640 1ebe ed0c c8bd dcaf 23be
00000070: 2a9a bf3d 7d23 20bd 7b15 453e 86f6 be3c
00000080: 662d 2f3d 9fb5 673e f126 1a3e 0cc8 783d
00000090: fd17 c6bd 4e84 79be f461 4d3e 90b6 41be
000000a0: f977 b1bd d07d 363e 2949 f9bd 7d71 1f3d
000000b0: 7282 f3bd 6e77 51bd 087b 23be 33af eebd
000000c0: f8c9 453d 8d18 89bd 9ece 58bd 7830 683e
000000d0: ea3d b1bd 1d3e f83d bde8 31be 1cd6 d33d
000000e0: f587 44be cde1 41be 4665 58be 18b7 5f3d
0.14797503 -0.042711366 0.09733788 0.042400144 0.028868042 -0.22966962 0.019927112 -0.025481112
0.18177937 0.0034581863 -0.1773961 -0.054015156 -0.21637537 0.11123137 -0.047111362 -0.0062703597
-0.15738262 0.16575018 -0.02256112 0.08514368 0.09211829 -0.10076539 -0.051943738 0.20716517
0.16706823 -0.15454373 -0.097680904 -0.15985054 0.09355576 -0.039096344 0.19246475 0.02331091
0.042767905 0.22627877 0.15053917 0.060737655 -0.09672544 -0.24366876 0.20056897 -0.18917298
-0.08665461 0.17821431 -0.12172157 0.03892659 -0.11890115 -0.051139288 -0.15964901 -0.1165451
0.048288316 -0.06694136 -0.05293142 0.2267474 -0.08654387 0.12121222 -0.17373939 0.103435725
-0.19192488 -0.18933792 -0.21132383 0.05461797

model.param_proj.proj.1.weight f4 [1, 60]
00000000: ee91 04be f39f 0dbe 575e bd3d 57be 253e
00000010: ebc7 19bd fc85 10be 4492 5a3e 1eff b8bd
00000020: d3cb f4bd 31a2 48be f6ff b63c 5af2 013d
00000030: fcca 113d b9ab dfbd a3a0 2d3e 396e ef3d
00000040: b84f d53c 3238 87bd 2113 30be 1d75 343c
00000050: c44f 22be 43aa e83d 83c5 173e 4591 9f3d
00000060: 3884 953b 0528 033e 65fc 1ebe e650 3a3e
00000070: b95c 0dbe f771 1bbe b94b 2c3d ebb5 1dbd
00000080: 5188 423e b1cb bf3d 5d86 ac3d 65c2 263e
00000090: 7c99 b33d 78fe ca3c 58f5 103e 1997 303e
000000a0: f246 07be 4e41 54bd 3a2a 21be 3869 403e
000000b0: 409e ffbd c5b8 383e b65a e8bc fa76 8b3d
000000c0: 003f 343e 27ec f93d e26a 123e efc3 303e
000000d0: 25a1 643d c3c5 173e 7537 54bc fcaf 22be
000000e0: 0dd1 7ebd 130a 113e 4721 f4bd 5e0f 213e
-0.12946293 -0.13830547 0.092465095 0.1618589 -0.037544172 -0.14113611 0.21344858 -0.09033035
-0.11952939 -0.19593121 0.022338849 0.031725265 0.03559397 -0.10921425 0.1695581 0.11690945
0.02603899 -0.06602515 -0.17194797 0.01101425 -0.1585074 0.113606 0.14821438 0.0779138
0.004562881 0.12808235 -0.15525968 0.18194923 -0.13804902 -0.15180193 0.042064402 -0.03850357
0.18997313 0.09365023 0.08424065 0.16285093 0.08769509 0.024779543 0.14156091 0.17245139
-0.13210657 -0.051820092 -0.15738764 0.18790138 -0.12481356 0.18039234 -0.028363567 0.06809802
0.17602158 0.122032456 0.14298585 0.17262243 0.055817742 0.14821534 -0.012952675 -0.15887445
-0.062211085 0.14164 -0.1192041 0.15728518

model.param_proj.proj.2.weight f4 [1, 60]
00000000: d834 d7bd cb70 b23d 111a 1c3e fc56 243c
00000010: ea5e 65bd b659 49bd cf16 da3c 5972 943d
00000020: 1715 7ebc 26c2 7cbd ce52 223c 3d2a 033e
00000030: 6006 83bd 6760 183d 1fa6 abbd 97f8 163e
00000040: 0093 033e 5c87 913d ca50 e73d 0ae9 f9bd
00000050: 52b0 9d3d d791 503d 58be 9b3c c237 f3bd
00000060: 80cf 0abd cc25 6f3d 615a 89bc 5b6c 423d
00000070: c7cc 9f3d 5a12 8cbd a8d5 b03d 05c1 1abe
00000080: 2e11 063e 52a5 323c c942 f63d effc e23d
00000090: 1079 d2bd c526 adbd 1212 7abd 0736 3cbb
000000a0: d622 093e 2514 183d 863c b6bd 9508 613d
000000b0: d664 19bd 0eee 94bc 0fa1 81bc 13f7 b53d
000000c0: c570 be3d a319 e2bd 6e0f 1cbd 120e d93d
000000d0: af88 7d3d d50e a53d b6ce e0bd c42f 433d
000000e0: c5e4 813d 209a 32bd ad7e 66bd e82e bb3c
-0.10508126 0.0871292 0.15244319 0.010030504 -0.05599872 -0.04915782 0.026622204 0.072483726
-0.015507958 -0.061708592 0.0099074375 0.12809081 -0.063977 0.03720131 -0.083812945 0.14743267
0.12849045 0.07105896 0.11294706 -0.12202652 0.07699646 0.050920334 0.019011661 -0.11875869
-0.033889294 0.058385655 -0.016766729 0.047466617 0.0780273 -0.06839438 0.08634502 -0.15112694
0.13092491 0.010903673 0.12024457 0.110833995 -0.10276997 -0.0845466 -0.06105239 -0.0028718726
0.13392195 0.037128586 -0.08898263 0.054939825 -0.03744968 -0.01817992 -0.015823869 0.08885016
0.09298853 -0.11040046 -0.038100652 0.10598387 0.06189793 0.080594696 -0.10976927 0.047652975
0.063424625 -0.043604016 -0.05627315 0.022849515

model.rnn.weight_ih_l0 f4 [240, 24]
00000000: 212f f33c 0787 44be ddcc a33d 9ba9 203d
00000010: 7aec 10bd 64e6 7bbd 0fef e73d 2f9b 71bd
00000020: 153a 163e 49da a03c 5eca 8cb9 c9a7 50bc
00000030: fb7e 45bd c79c 063e be64 9f3d e902 733d
00000040: 43eb e03d 006d 18be b941 06be d2a0 c73c
00000050: 781c 6f3a 4a42 cabc 601a 7abd 21f1 bbbd
00000060: f53c 123e d23f 20be b580 c9bc 2048 393c
00000070: 508f 823d 0501 593d 968f 36bb 6c7b ac3d
00000080: 50c1 c1bd a4c6 393d 3801 6abd 4beb d6bd
00000090: e975 c93d b1e7 d9bd 6642 8c3c a48a 013c
000000a0: 4fe4 e43d 9a0e 11be 9b87 e03c d3a3 cc3b
000000b0: 9754 38be 95b0 483d ce6c 673e cecd c4bc
000000c0: 980d dfbd d511 abbd f58f e53d 4afd 653c
000000d0: 8b05 36bd 113e debc daf1 883c 90ef 593d
000000e0: 58bf c4bd afe0 063e e9f1 f2bd 6776 efbd
000000f0: a74c ff3c b1f3 90bd fcef f03d f5b7 3dbd
00000100: 0705 84bd 3b2e 87bd 0f3e d63c 959a 22bd
00000110: b346 d8bd c0e1 8abd 72aa 803c 4169 4b3c
00000120: 42fb 833c f304 0e3d a6c9 423d 3f7d 25be
00000130: 9294 a1bd 8f82 fd3d bff3 7f3d ece6 a4bd
00000140: b8d1 c0bd 1104 ae3d 4050 09be 63cb 243d
00000150: 2313 20be a07d 143c 9316 08bd dd41 5dbd
00000160: 7a25 013e 5129 00bd 2fe8 9bbd d75c 2ebd
00000170: f1d8 b7bd e99e c83c f5dc 483d 7b28 c639
00000180: ac6c c3bd cb15 423d 6764 cabd a0bb ee3d
00000190: 85a0 07bd 29df d83d a0d5 3b3d 6a36 5ebd
000001a0: df2d dfbd d2ba d0bd d23f c53d 92cd 6a3c
000001b0: 72c8 4cbc e92d 943c 088f c63d f392 69bb
000001c0: 5822 88bd 524a 563d 08b0 d0bd 8ef6 943c
000001d0: eb5c 5e3d fa79 c5bc dfb2 e23d beba a63d
000001e0: 43e3 45bd a378 a5bd 7d25 aabc 9e3a 0d3e
000001f0: 52df 9ebd d8c5 e9bd 966e 043d 0573 04be
00000200: 3a7a 2d3c 6ea3 a6bc 0075 99bd d613 e73c
00000210: b095 25bd a1a9 ea3d ab43 d13d 1749 12bc
00000220: ff03 3abe da5f 0cba c440 a4bd 637b d43d
00000230: 1dde 17be c83e e13c 7634 14be 52ad 443b
00000240: 4bc0 15be fe69 173d 7927 5bbe a9de 323e
00000250: 23b9 ea3b 27e3 43bd 72eb c4bc 33c8 2bbe
00000260: f007 d73c 4cec e93d 2d8b bfbd 9d63 de3d
00000270: bff1 4bbd 6bac 1ebd 1898 8bbc 2e45 413d
00000280: bda3 283e 1eee 633d 7170 c3bd 0220 fe3c
00000290: 9da9 38bd 4d73 cc3b fa68 a4bd 61ab debc
000002a0: e789 ffbd 8b32 fe3c c46c 08be 055f fdbc
000002b0: ca58 4cbd 4d8b a6bc c4f8 edb9 812d 5abd
000002c0: 6998 2bbe 84a3 1bbe 9f03 7bbc 9254 12be
000002d0: 37f7 d7bd 1b4a 1a3d 44d9 11bd a006 eabd
000002e0: b0e3 f7bb 9519 363d afb3 81bd 2c84 243d
000002f0: 1233 3cbd 444a ab3d f0e7 f33d d157 2ebd
00000300: b76a e63d 9b18 d4bc 5e5f b83d 5267 bebd
00000310: a9d0 60bd d518 dbbd ff7a 953d 2712 6c3c
00000320: 9ebb c9bc dfdc 52bd 507c ca3d 7477 cfbd
00000330: 3d10 c7bd 4435 6c3c 85f3 56bd 925b 193e
00000340: 6f80 51bd cab5 a6bd eaf5 f13d b464 db3d
00000350: c232 5cbc 1408 333d 7b36 0abd af6d ad3d
00000360: 9645 b33c 4169 f7bd 6972 1dbd 66c4 6ebd
00000370: eb4b 3dbd bd77 16bc d87a e2bc 710a 343e
00000380: 919b f53d 43f6 1cbe b15d 1e3d e603 2bbe
00000390: 3112 b2bd b466 20be 2e56 91bd e1dd c3bd
000003a0: a930 83bc 0255 17be 6098 a3bd 65b6 8c3d
000003b0: d3af a3bd 0a8c c13d 6201 64bd c6a9 c13c
000003c0: 88d7 35bd 7bc7 00be e8d3 ea3d 80dc 37be
000003d0: 2cc4 ce3c ea3f 963d e75b 69bc a698 cdbd
000003e0: 31b1 8e3d 029e ef3d 16fd 5a3d f1c4 2dbe
000003f0: bbbf 82bc 0a3f 97bd 6b63 1c3d 5bc9 c9bd
0.029685559 -0.19192134 0.07998059 0.03922425 -0.03538177 -0.061499014 0.11324894 -0.058985885
0.14670594 0.019635336 -0.00026853656 -0.012735316 -0.0482168 0.13145743 0.07782887 0.059328947
0.109823726 -0.1488533 -0.13111009 0.024368677 0.00091213686 -0.024689812 -0.06106031 -0.09176851
0.14281066 -0.15649346 -0.024597505 0.0113087 0.06374991 0.052979488 -0.002785658 0.08421978
-0.094606996 0.045355454 -0.05713007 -0.10494097 0.09836943 -0.10639895 0.017121505 0.00790659
0.11176359 -0.14165726 0.027408412 0.0062451153 -0.18001018 0.048996527 0.226001 -0.024023917
-0.10891265 -0.083530106 0.11209098 0.01403744 -0.04443888 -0.027129205 0.016716886 0.05320698
-0.096068084 0.13171647 -0.11862547 -0.11692505 0.03116448 -0.070777304 0.117645234 -0.046318013
-0.064462714 -0.06600615 0.026152639 -0.039698202 -0.1056036 -0.0678134 0.015706275 0.012415231
0.01611102 0.03467269 0.04755559 -0.16161059 -0.07889666 0.12378418 0.062488314 -0.08051857
-0.09415001 0.08496869 -0.13409519 0.040233027 -0.156323 0.009063154 -0.033224653 -0.05401789
0.12611952 -0.031289402 -0.07612645 -0.042569008 -0.08976925 0.024489837 0.049038846 0.00037795663
-0.09542212 0.047384065 -0.098824315 0.116568804 -0.033112068 0.105894394 0.045858026 -0.054251112
-0.10897421 -0.10191883 0.096313134 0.014331238 -0.012498962 0.018088298 0.0969525 -0.0035640567
-0.066471756 0.05231697 -0.10189825 0.018183973 0.054287832 -0.024106015 0.11069273 0.08141087
-0.048312437 -0.0807965 -0.020769829 0.13791892 -0.07757439 -0.11414689 0.032332025 -0.12934501
0.010588223 -0.020341601 -0.07493019 0.0282077 -0.040425956 0.114581354 0.10217985 -0.008928559
-0.18165587 -0.0005354859 -0.080201656 0.10375097 -0.14830823 0.027495757 -0.14473137 0.0030010534
-0.14624135 0.036966316 -0.21401776 0.1746775 0.0071631833 -0.04782405 -0.02403805 -0.16775589
0.026248902 0.11422023 -0.093527175 0.108588435 -0.049791094 -0.03873865 -0.017040297 0.047185116
0.16468711 0.055647008 -0.09542931 0.031021122 -0.04508363 0.006239331 -0.08027835 -0.02718133
-0.12477475 0.03102996 -0.13322741 -0.030929098 -0.049889363 -0.020330096 -0.00045389507 -0.053266052
-0.16757359 -0.15199095 -0.015320688 -0.14290074 -0.10545199 0.03766833 -0.03560759 -0.11427045
-0.0075649843 0.04445799 -0.063331 0.04016511 -0.045947142 0.083637744 0.11909473 -0.042564217
0.11250823 -0.025890639 0.09002565 -0.092970505 -0.054886494 -0.10698096 0.0729885 0.014408625
-0.024625596 -0.05148017 0.09886992 -0.10130206 -0.09719894 0.014416996 -0.052478332 0.14976338
-0.051147874 -0.08140142 0.118144825 0.10712567 -0.013439836 0.043708876 -0.033743363 0.08468186
0.021883767 -0.120806225 -0.03843919 -0.05829277 -0.04621498 -0.009183821 -0.027646467 0.17582108
0.119925626 -0.15328316 0.03866357 -0.16700706 -0.08694876 -0.15664178 -0.070965156 -0.095638044
-0.016014414 -0.14778522 -0.079880476 0.068707265 -0.0799252 0.094505385 -0.05566538 0.023640525
-0.044395 -0.12576096 0.11466199 -0.17955208 0.025240026 0.073364094 -0.014243103 -0.10038881
0.0696739 0.117000595 0.053464018 -0.16969658 -0.015960565 -0.073850706 0.03818075 -0.09852859

model.rnn.weight_hh_l0 f4 [240, 60]
00000000: fe6e b33d f652 87bd 765a d1bd 9602 dabd
00000010: a474 c63b dc9e 3c3d 45b2 acbd c2f5 0f3e
00000020: 58d7 09bd be78 8dbb b891 0fbe 6190 483d
00000030: 231d a83d ad61 f23b 2f1e 283e 6c45 ee3c
00000040: 7033 ea3c 1b01 9dbd c4ad e13d c22f 193d
00000050: 72f5 98bd 6921 163e f764 34bd ca3c 003d
00000060: aed1 f9bd 8995 eb3d bf4a c83d 490e d73c
00000070: 92eb ba3d af80 c6bd 98ab 0dbe 6008 093e
00000080: 3c30 f6bd 8454 00be c137 20bc e57d 0bbb
00000090: 5f5e 7c3d 5eaa 9ebd c38d 003c e55d 0c3d
000000a0: fb13 813d 1057 0b3e 52b6 033d 703b d03d
000000b0: c18f 6dbd de9d 40bd 24d4 1dbe 2e46 8fbd
000000c0: 2e72 5dbd 0d4d 0dbe 7f42 a13b 7974 af3d
000000d0: 52c7 f3bd dead 113d 0794 e7bc c549 87bd
000000e0: 6340 09be 46b1 203d 2676 15be 0e9d 013e
000000f0: f181 503e 84b1 b9bc f7ad e8bc 94a5 eb3c
00000100: 5944 b63b 2c83 143e 69db 39bd 7cef 16bd
00000110: 5521 e03c a603 53bd 9e71 b53c 694f c5bd
00000120: 3a62 b3bd 3968 e93d 5f2c 2bbd 6d2d 14be
00000130: c86b 05be 21a3 f53c be73 ca3d f77e 33bd
00000140: c9a8 1fbe f055 7dbd 4dff 063e 7185 3abe
00000150: 6043 18bd 0116 9fbb b75e 47be 9586 29be
00000160: fa6e 083d 9cee 03be 6e4d 5dbc 1fcd 11be
00000170: 51ca 5bbc 619f fe3d 5fd5 34bd 5bed 933c
00000180: bf51 b5bc e378 0f3e e87d 8dbd d1d1 da3d
00000190: 0c6a 9cbd fb94 b43d 7068 28bd 8b42 9c3b
000001a0: d211 3abe 7642 833c 450b 873d cb1f 263e
000001b0: 454c 36be a647 41bd 5845 b33d 307c 143e
000001c0: 35ec 023c a334 253d 8025 afbb 9c89 2dbe
000001d0: 8173 d4bd 0fe0 283c a2bf 4dbe ac87 babc
000001e0: fe0e 1ebd 45d8 cdbb 3f9a 5e3d 0d8d d83d
000001f0: 722f 0d3d 2c4c f33d 0c66 223e f27a 1c3d
00000200: 8635 80bd e36e 783d b619 92bd 8f13 003e
00000210: a29a 45bd 789d 84b9 46b8 54bd c7c0 963b
00000220: 00f2 0bbd a05a f2bd d16c a23a e0f2 d9bd
00000230: 7601 9e3d 7a49 a93a 91d0 85bb 391e 953d
00000240: fae0 cd3d 63f9 a3bd d4df 02bd a60f 02be
00000250: b5b7 223c 8e6c cfbc 4252 5abd 3628 e2bd
00000260: e791 a63d a419 efbd 4b3b 873d b57b 9dbd
00000270: e28c 9e3d d6b6 ddbd 945c b23d 19df 273e
00000280: 67bc 963c dc20 2bbc 71b8 a93d 53f3 d93c
00000290: d709 833c dceb 1b3e b3f2 3dbd dbfb 273d
000002a0: d711 e0bd 8c16 e53d 65fb 4d3d e12b b63d
000002b0: ccff 9a3d 2765 913c 3170 743c 393c f73d
000002c0: 847a 01be 0f30 9d3b 80bc 4abd 737f da3d
000002d0: 8eaa be3d 8d7c 3d3e 6f89 3d3d bd98 6abe
000002e0: 89ec efbc dd6a babd 5dd9 cfbd 8ebe ee3d
000002f0: 5a2b bcbd 12c4 073e 0adc 1e3d 69bd 13be
00000300: 2866 2cbe f7ae 0a3e 643f de3d 1a54 d73d
00000310: b492 2bbd 46e0 e8bd c9b5 fd3d 20c4 9a3d
00000320: af4b 963d c1e7 22bd 540a 503e 3d71 e6bd
00000330: 9201 14bc 3512 b83c 9ed6 3cbe 6005 7b3d
00000340: a5a2 c6bd 3a2d a83b 376b 53bd 8108 bd3b
00000350: bdde fcbd 8d6d 4a3d 6f4e 7ebd 269c 063e
00000360: 7bf3 013e 08fa a83d dce9 25be b903 133e
00000370: 2cfb 2bbc 588b cc3d 2962 103e 583d 59be
00000380: f064 0abd b176 073e 9ccb b8bd e61a 803d
00000390: 2edc 14be bb8b 2f3d f485 9e3d 0b51 3c3e
000003a0: 3640 e1bc 6b18 5a3e 5ef8 c1bd 7850 f3bd
000003b0: e339 dabc 50c5 3b3c e671 babd 1c57 3c3e
000003c0: f70e 443e 076d 303e e036 41bd 96ad 85bd
000003d0: 5901 9bbd e85f 32bd eeaa 833d c421 293e
000003e0: 63d6 32bd f4df 10bd 720f 2fbe 5878 88bd
000003f0: 0445 56bd d511 613e 62c2 f23c 6859 3ebe
0.087614045 -0.066076204 -0.10222332 -0.106450245 0.006056385 0.046049938 -0.0843244 0.14058593
-0.033652633 -0.004317372 -0.14020431 0.048965815 0.082086824 0.0073968978 0.16417764 0.029085837
0.02858898 -0.076662265 0.11019471 0.03739906 -0.0746869 0.14661182 -0.0440416 0.031307973
-0.12198196 0.11503131 0.09779882 0.026251929 0.09126963 -0.09692513 -0.13834989 0.13382101
-0.12020919 -0.1253224 -0.009778918 -0.0021284756 0.061613437 -0.07747339 0.007846299 0.034269232
0.06302639 0.1360743 0.032156296 0.10167587 -0.057998423 -0.047025554 -0.15412956 -0.069958076
-0.05406397 -0.13798924 0.004921257 0.08567137 -0.11903252 0.035566203 -0.028268827 -0.06605867
-0.13403468 0.03923156 -0.14595851 0.12657568 0.20362069 -0.022667654 -0.028403265 0.028765477
0.005562347 0.14503163 -0.04537526 -0.036849484 0.027359644 -0.05151715 0.022148903 -0.09634287
-0.087589696 0.11396832 -0.041790362 -0.14470454 -0.13029397 0.029985012 0.09885357 -0.043822255
-0.1559173 -0.061849535 0.13183327 -0.18214966 -0.03717363 -0.004854918 -0.19469725 -0.16555245
0.03330896 -0.12883991 -0.01350723 -0.14238404 -0.013414935 0.12432743 -0.0441488 0.018057516
-0.022133706 0.14010958 -0.0690878 0.106845506 -0.07637414 0.08817478 -0.041115224 0.0047686747
-0.1817086 0.016022902 0.06593946 0.16223066 -0.17802532 -0.04718747 0.08753461 0.14500499
0.007990886 0.0403334 -0.0053450465 -0.16947025 -0.10373593 0.010307326 -0.20092633 -0.022769772
-0.038588516 -0.006281885 0.05434632 0.10573778 0.034469076 0.11879763 0.1585924 0.038203187
-0.06260209 0.060652625 -0.0713381 0.12507461 -0.048243172 -0.00025294325 -0.05193355 0.0046006176
-0.034166336 -0.118336916 0.0012392049 -0.10642028 0.077151224 0.0012915574 -0.004083701 0.07281155
0.100526765 -0.08006551 -0.03195174 -0.12701282 0.0099314945 -0.025320318 -0.053301103 -0.11042826
0.081332974 -0.116748124 0.06603106 -0.07689611 0.07741715 -0.10825889 0.08709064 0.16393699
0.018400384 -0.010444846 0.082871325 0.026605284 0.015995903 0.15226692 -0.046374034 0.041011672
-0.10940903 0.11185941 0.050288577 0.08895088 0.07568321 0.017748429 0.014919327 0.120720334
-0.12644392 0.004796989 -0.049496174 0.1066884 0.093098745 0.18504544 0.046273645 -0.22909828
-0.029287593 -0.09102414 -0.10148881 0.11657439 -0.09187956 0.13258389 0.038784064 -0.14427723
-0.16835845 0.13543306 0.108519346 0.10514088 -0.041887954 -0.11370902 0.123881884 0.07556939
0.07338654 -0.0397718 0.2031644 -0.11252067 -0.0090335775 0.02246962 -0.18441245 0.061284423
-0.09698991 0.0051323446 -0.05161592 0.005768836 -0.123471715 0.049420882 -0.06208652 0.13145503
0.12690537 0.08250815 -0.16202492 0.14356889 -0.010496896 0.09987515 0.14099945 -0.21214807
-0.033787668 0.13228871 -0.090232104 0.062551305 -0.14537117 0.042857867 0.07740393 0.1839029
-0.027496438 0.21298377 -0.094712004 -0.118805826 -0.02663893 0.011460617 -0.09103756 0.18392605
0.19146334 0.1722909 -0.047171474 -0.065272495 -0.075686164 -0.043548495 0.064290866 0.16516787
-0.043661486 -0.03536983 -0.17095736 -0.06663579 -0.052311912 0.21979459 0.029633705 -0.18588793

model.rnn.bias_ih_l0 f4 [240]
00000000: 703a 813d 048d a83d 00d6 093e 667f 133e
00000010: 480d e03c b93f 0c3e e931 8e3d 7b75 4dbd
00000020: b3df 983d 93e8 473b 725b a93d a109 063e
00000030: af3d c43d 4e9a c63d 0b4a a1bd 7d6e f23d
00000040: a2e4 f2bc 0fc0 043d 553a 743d 3b5e b93c
00000050: 0369 263e b3af e1bd a382 e23c 4686 f63d
00000060: 1286 5cbb fe9c 06bd 5265 bdbd bba9 313e
00000070: 8893 b2bc 51fd 88bd 9d7a 7d3d e880 6d3d
00000080: 3d97 a43d 73c8 313e 510a e73d 6e51 fc3d
00000090: 0a4f 223e 3ea2 b03c 1d02 80bd baf2 90bd
000000a0: 64d0 8d3c 8b15 4f3d 07ac 77bd 664b 8f3d
000000b0: 3ece 2e3c 0b85 063e 72ac 243c 006d 093e
000000c0: 9e5d 77bd 1d51 bf3d 8cb3 df3d 3980 053e
000000d0: 3c6c 343e f305 95bd 931a 043b de3a debb
000000e0: eb0c 003e d658 b03d 2d80 b83c 96af dd3d
000000f0: 4133 053d 4485 b7bd 8400 e9bc 3bc2 4a3d
00000100: ebe3 163e 4e66 aa3d d922 d33d f573 183d
00000110: fbb0 103d 7389 bcbd 00e3 2cbc 6e0d a43d
00000120: 5836 043e 88c9 b3bd 2312 d13d 9458 19bc
00000130: ae96 dd3c f00d 193e ce58 2d3d ac95 b53b
00000140: 5b14 823d d514 c93d 4a2c 0f3c 59b9 293d
00000150: 1bc2 923a 6d7a 01be 2c3e 923c f667 bb3d
00000160: 0984 173e 7f6b dcbc fb58 0a3e 7a8f a63d
00000170: 38d8 bbbd a324 8fbd e93e cf3d 7a29 a33d
00000180: 4705 703d a9fe 253d c415 35bd ec65 b63d
00000190: f4a4 143d 497b f53d 0d5e e03d 99b1 08bc
000001a0: cc2a d6bd 5756 083d d77c d13d 1e15 e23d
000001b0: e8b1 ab3c fa2b b93d 0d3d 0d3b 5508 5dbd
000001c0: 8e9c 0f3d c6ce c13d df92 07be 4e82 d4bd
000001d0: 1e96 2fbd 31bc d8bb 4a94 aabc 295c e1bd
000001e0: be95 f83d b8e2 b2bd d74a 7e3b 7fa6 6bbb
000001f0: 5d18 d63d 59d3 993d 7f57 8c3d 9cd5 8bbd
00000200: 3b1c 12bd ca77 063e e38e b1bd f2fc 403d
00000210: 426d a23d de80 2abc 34c2 213e ff32 d5bd
00000220: 9dfb e63d e27d be3d c8e4 5dbd 3624 ed3d
00000230: fb4b 3ebd afb0 9b3d 92f0 9dbc 36cf 3e3d
00000240: 9e21 623d 81bd fbbd 3675 91bd 86e7 c8bd
00000250: fa78 bcbd ac74 29bd 2fc4 01be 2062 f73d
00000260: 7be2 d8bd b70b 893d 9583 bf3c 30b9 c2ba
00000270: 607c df3d b32e c23d acf5 843c cc37 f83d
00000280: aa3c 87bc beaa a73d 6e85 043e a8ba 8bbd
00000290: c14d 5cbd 06c5 cb3c 8d95 e1bd dbf8 94bd
000002a0: 8be5 acbd c642 b3bd fb4e 953b e012 153e
000002b0: bd49 bfbd a454 d33d 4285 01be c354 f03c
000002c0: 1b63 e0bd c9ec 843d 8624 c33c 309c 7abb
000002d0: ea77 a93d a342 4d3d 40dd 1abd 10c4 453e
000002e0: 6d27 1fbd 6e42 2d3e 5068 8f3d dd3f 1e3e
000002f0: d59b 93bd e954 b6bd af8f d8bd 8d26 3c3b
00000300: 25a4 cf3d 7166 853d 28c7 f13d 656f 553d
00000310: 6d6c 383e 92d0 553b a54f bebc dc22 983b
00000320: 057d 44bd f3c0 a2bd 3171 90bd 5daa 4d3d
00000330: e438 143d d408 ea3c ce0a 773d 3bdb ed3c
00000340: 520b 7f3d fd73 0b3e d44d ecbc f90f 793d
00000350: d13b c33c 13b0 3d3e 2b33 4b3d 5464 76bd
00000360: f347 bbbd ef5e 073e 795d 9d3d 76a5 8abd
00000370: 24c1 843c 7af2 62bd 746e 0e3e 23f6 363e
00000380: d6ba 453d e687 1e3e be51 113e a830 7c3d
00000390: 0518 0a3e a838 13bd 19f6 a53d f17b 143e
000003a0: b560 3b3e 0a08 8fbb 218f 70bd 6c22 8dbd
000003b0: a76e c53d d553 ba3d a858 2a3d bcdc cc3d
0.06309974 0.082300216 0.13460541 0.14404067 0.027350083 0.13696183 0.06943113 -0.050160866
0.07464542 0.0030503615 0.08269395 0.1308961 0.09582078 0.096974 -0.07875451 0.1183748
-0.029650036 0.032409724 0.059625942 0.02262794 0.16250996 -0.1101984 0.027650183 0.120373294
-0.0033649248 -0.032864563 -0.09247841 0.17349903 -0.021798864 -0.06688941 0.06188451 0.057984263
0.08036659 0.17361622 0.112812646 0.12320219 0.15850464 0.021561738 -0.06250403 -0.070775464
0.017311282 0.050557654 -0.060466792 0.06996803 0.010669289 0.1313669 0.01005088 0.13420486
-0.060392015 0.09341643 0.10922918 0.13037194 0.17619413 -0.07276525 0.002015744 -0.00678192
0.12504928 0.08610694 0.022522056 0.10824506 0.032519583 -0.08960965 -0.028442629 0.04950164
0.14735381 0.08320294 0.10309381 0.03721996 0.03532503 -0.09205904 -0.010552168 0.08010374
0.12911355 -0.087786734 0.102085374 -0.009359498 0.027049389 0.14946723 0.04232102 0.005541524
0.06351539 0.098184265 0.008738587 0.041436527 0.0011196764 -0.12644358 0.017851911 0.09150688
0.14796461 -0.026906727 0.13510506 0.08132835 -0.091721 -0.0698941 0.10119421 0.079668954
0.058598783 0.040526066 -0.04421021 0.08906159 0.036290124 0.119864054 0.10955439 -0.008343124
-0.104573816 0.033285465 0.102288894 0.11039184 0.020958856 0.09041591 0.0021551282 -0.053963024
0.03506141 0.09463267 -0.1323962 -0.10376416 -0.042867772 -0.006614231 -0.020822663 -0.11003906
0.12137936 -0.087346494 0.0038801932 -0.0035957394 0.10453866 0.075110145 0.06852626 -0.06827852
-0.035671454 0.13131633 -0.086698316 0.047116227 0.079309955 -0.010406701 0.15796739 -0.10410117
0.1127846 0.09301354 -0.05417326 0.11579172 -0.04645918 0.07602059 -0.019279752 0.04658433
0.05520784 -0.122920044 -0.07102434 -0.098097846 -0.09202762 -0.041371033 -0.12672494 0.12079263
-0.10590073 0.066916876 0.023378173 -0.0014856216 0.109123945 0.094815634 0.016230427 0.121200174
-0.016508419 0.08186863 0.12941524 -0.06822711 -0.05378509 0.024874222 -0.11014853 -0.07274028
-0.08442219 -0.087529704 0.0045565343 0.14557981 -0.09340236 0.10318878 -0.1264849 0.029337293
-0.10956403 0.06490476 0.023821127 -0.0038240068 0.08274825 0.050112378 -0.037808657 0.19313073
-0.03885596 0.16919872 0.07002318 0.1545405 -0.07207457 -0.08902914 -0.105742805 0.0028709501
0.1013873 0.0651368 0.11805564 0.052108187 0.18010111 0.0032625538 -0.023231337 0.0046428274
-0.04797079 -0.079469584 -0.070528395 0.0502113 0.036187068 0.028568663 0.06031304 0.029035201
0.062266655 0.13618465 -0.028845705 0.06080625 0.023832234 0.18524198 0.049609344 -0.060154274
-0.091445826 0.13219808 0.07683844 -0.067698404 0.016205378 -0.055407025 0.13909322 0.17867331
0.048273884 0.15481529 0.14191338 0.06156984 0.13485725 -0.035942703 0.0810358 0.14500405
0.1829861 -0.004364972 -0.05873025 -0.06891331 0.09640246 0.09098021 0.041588455 0.10003039

model.rnn.bias_hh_l0 f4 [240]
00000000: eb16 bbbd a806 203e 7d10 b1bd f5fe 293e
00000010: 3fd7 8b3d aa52 1d3e 61c4 a1bb 91ce 99bc
00000020: d94f 70bb 5486 adbc f352 51bd af97 8c3d
00000030: 6bf2 7e3c 4aed 453d 595f 1dbd 5027 22bd
00000040: 6f5b 003d 5b31 f6bc c582 e83c 4fdf 1bbd
00000050: 4f1a a1bb 7587 f3bb c0b0 bebb 3b86 ed3d
00000060: 43d3 073e 5ed8 573e e019 b83d 78c5 d93d
00000070: 262e 61bd 01c5 71bd 3793 0dbd 1738 bfbd
00000080: e7ca 583d 9df9 7abc afa4 e63d 71fd 783d
00000090: 6ea9 7cbc 683f fb3d 0b7d 7f3d 607c b1bd
000000a0: 3642 b03d 0d97 fabd fcc3 f0bd 7ace 093e
000000b0: f802 b7bd a039 143e c3c6 b3bc 7c22 1d3e
000000c0: 4967 cd3d a7eb d7bc 3cbc 093e 9cfb ac3b
000000d0: f749 7b3c e48f 773d 8272 62bd 7e99 133d
000000e0: 56ba ce3d fe86 46bb 3ca4 91bc 04e1 04bd
000000f0: c683 f23d 2171 043d 4c06 76bd 04f1 953d
00000100: eadc 203d dc39 833c f21f cb3d 4ef3 1dbd
00000110: 021c a1bc 3a50 1dbd a54e e93b eeda 1ebd
00000120: fa17 c43c b27d 853d 6e8b cdbd 8d0b 79bd
00000130: 58f1 e43c 9c14 5ebd eddd 603d 0b8e 6ebd
00000140: 07fd cf3c 98e8 f4b7 1d5a f13b 3e21 52bd
00000150: 96e1 203e bfeb 1b3d 97c4 c53d 4ffa 343a
00000160: c40c 98bd fd2f e93d 9370 97bd c17e 583c
00000170: d226 8b3d d935 9ebc 3842 babd 8b17 c1bd
00000180: a553 043e e0e1 0cbd 386f 2a3d 4c7c 4fbb
00000190: 008c e1bd e8a5 df3d f132 6fbd efa2 9a3d
000001a0: 965a 863c e991 063e da24 4d3d a0a2 873d
000001b0: 395a f23d 79d1 a33d 693c 05be 6136 e93d
000001c0: ca54 8c3d 04b4 14bd f36a 5e3d f768 fb3d
000001d0: 3bb7 d3bd e146 9f3b 1acd d6bd a85b 3dbd
000001e0: a977 c93c 7e59 cdbd a840 d63d 5930 86bd
000001f0: 1e95 b23d 1091 15bd cc87 8bbd b76b a6bc
00000200: cc27 9fbd 38c8 753d 7418 8bbd dff9 5bbc
00000210: 5af5 1f3d cd83 86bd a77d d63d 1832 8a3c
00000220: 0ebd b93c 6bfd b73d 9fd2 113e 916b f63d
00000230: 55c2 343c 5ce1 eb3d bb43 cc3d feb3 8f3d
00000240: 875f d93d 3fa3 a43d ce30 8fbd 4ee1 ed3d
00000250: a920 16be ee75 a2bd b4b4 a6bd 89b8 0c3d
00000260: 4628 e0bb af2b 843d 004c c23d f17e f33d
00000270: 1076 343b c85a 043d 7dfc 2fbc 8194 633d
00000280: ce4c 0f3c a377 213e ed80 c73d c8f9 44bc
00000290: f600 bebd 6d99 ec3d 2b43 d7bd 3be6 eb3d
000002a0: f579 97bb d6c3 7bbd ccce 3b3d 2f18 a6bd
000002b0: 42cc bfbd ebc9 cf3c 8847 26bd 800a 653b
000002c0: e12f a3bd 5ec4 a7bd 7bee cb3d b8b1 8dbb
000002d0: a5f9 89bd 19e5 4b3e fab9 f63d f33a 183d
000002e0: 1e61 ef3d 6849 573d 261a 0ebd 5e49 903d
000002f0: f4b6 893d 9633 023e 6b45 cbbd a981 3bbd
00000300: 3337 183c 830b 443d c19a ccbd b266 093e
00000310: adc6 e83d 70e6 f13c f955 febc 6c56 123e
00000320: 6f47 04bd d35e b53b 4e46 ce3c 3a9a 2f3e
00000330: 0ee4 93bb e8f7 403e 5969 bc3d 22a5 043d
00000340: b866 2b3c d8ee 3b3d f32b f03d 4d09 713c
00000350: eaf6 313e 91af dbbc f876 163e 859b 8b3c
00000360: afbf 0b3e 1629 e93d 5b76 b73d b0b6 ed3d
00000370: 5c8c 203d 6e15 c33d 1a7b c8bd 12be 093d
00000380: b894 083d cab9 403d b254 30bd 414c 4ebd
00000390: ce92 a2bd e72d d5bc 7b46 fb3d c4b7 05bd
000003a0: 0a78 c13d 8b63 babc 001a 91bd c7bb a9bd
000003b0: 8252 533d acff c93c 7556 943c 49b2 1abb
-0.09135231 0.15627539 -0.08645723 0.16601165 0.06828164 0.15363565 -0.0049367403 -0.018775256
-0.0036668687 -0.021182217 -0.051104497 0.06864869 0.015560727 0.048322 -0.03842101 -0.039588273
0.031337198 -0.030052831 0.028382668 -0.03805476 -0.0049164663 -0.007431919 -0.00581941 0.11597868
0.13264184 0.21078631 0.0898931 0.10633367 -0.05497565 -0.05902577 -0.034564223 -0.0933687
0.052927878 -0.0153183015 0.1126188 0.060788576 -0.015421255 0.12267953 0.06237511 -0.08666301
0.08606379 -0.12235842 -0.11756131 0.13457671 -0.08936113 0.14475107 -0.021945363 0.15345186
0.10029466 -0.026357485 0.13450712 0.0052790176 0.015337459 0.06043996 -0.055284984 0.036035053
0.100941345 -0.0030292864 -0.017778508 -0.032441154 0.1184154 0.03233445 -0.0600646 0.07321361
0.03927318 0.0160188 0.099182025 -0.03856211 -0.019666675 -0.038406588 0.007119971 -0.038783006
0.023937214 0.06518115 -0.1003636 -0.06080203 0.027947113 -0.054218873 0.054899145 -0.05824093
0.025389208 -2.9195377e-05 0.0073654787 -0.051301233 0.15711054 0.038066622 0.09656637 0.0006903754
-0.0742431 0.11386106 -0.07394519 0.013213814 0.06794514 -0.019312786 -0.090946615 -0.094283186
0.12922533 -0.0343951 0.041609973 -0.003165978 -0.11013031 0.10920316 -0.05839819 0.07550608
0.016400617 0.13141598 0.050083973 0.06622815 0.11833615 0.07998938 -0.13011326 0.11387325
0.0685211 -0.03630449 0.054301213 0.1227588 -0.10337683 0.0048607443 -0.10488339 -0.04622999
0.024593191 -0.10026835 0.10461551 -0.0655219 0.08719848 -0.036515296 -0.068130106 -0.020315034
-0.077712625 0.060005397 -0.067917734 -0.013426273 0.039052345 -0.06568108 0.10473185 0.01686959
0.022673156 0.089838825 0.14240502 0.120322354 0.0110326605 0.11517593 0.09973856 0.07016753
0.106139235 0.08038949 -0.06991731 0.11615239 -0.14660896 -0.079326496 -0.08139935 0.034355674
-0.0068407385 0.064536445 0.09487152 0.118894465 0.002753619 0.03231314 -0.01074135 0.055561546
0.008746339 0.15768294 0.097413875 -0.012022443 -0.09277527 0.11552701 -0.10510858 0.11518522
-0.0046226927 -0.06146606 0.045851514 -0.081100814 -0.09365131 0.025364837 -0.04059556 0.0034948885
-0.079681166 -0.08191751 0.09957596 -0.0043241642 -0.06737069 0.19911613 0.12047191 0.037165593
0.116884455 0.05256024 -0.034692906 0.07045244 0.06724349 0.12714991 -0.0992535 -0.04577795
0.009290504 0.04786254 -0.099904545 0.13418081 0.113660194 0.029528826 -0.031046854 0.1429078
-0.032294687 0.0055349856 0.025180008 0.17148677 -0.00451327 0.18844569 0.09199781 0.032384045
0.010461502 0.045882076 0.11727133 0.01471169 0.17379346 -0.026817115 0.1469382 0.01704193
0.1364734 0.1138479 0.089581214 0.116071105 0.039196357 0.09525572 -0.09789105 0.03362853
0.033344954 0.047052182 -0.04304952 -0.05036569 -0.07938157 -0.026022865 0.122693025 -0.032645956
0.09446724 -0.022752544 -0.07085037 -0.08287769 0.051592357 0.024658047 0.018107632 -0.0023604801

model.rnn.weight_ih_l1 f4 [240, 60]
00000000: 5c43 1a3e e023 ab3d 1359 fbbd 596e 6d3d
00000010: 7f32 513e 0b73 60bc 3c6b ddba 96df 3f3e
00000020: 7314 c43d 5a45 493e 761b 2dbd dc88 623d
00000030: 1466 bc3b d77f dd3c d912 9a3d b568 2f3d
00000040: c2ca ccbd 9eab 32be 3f8f f13d 1ad0 063e
00000050: ce8a fabc 925e 09be aaea 793d 6cf0 f9bd
00000060: adcf 4dbe b062 2c3e b27a 70bb 14ad c83c
00000070: b027 103d 78c3 fdbd 3868 f93c b268 0dbe
00000080: f794 e4bd 8c34 11be 2b61 42bb 5c06 d33d
00000090: b4b9 093d 5499 473e b646 bfbd 7e2e bf3d
000000a0: 3bdb d53c b5e2 13bd 6ad1 8e3d 9a4f 8f3d
000000b0: 9234 3bbe c6b4 3a3e 19bb 893d 8236 5f3d
000000c0: f412 14bd 1bed 10bd 988f 28be 3d20 6a3d
000000d0: 20e6 6abd 36de 15bd 7f66 53bd 91bf 24bd
000000e0: 6ed3 01be 51ad 29be a848 a2bd 584c 0d3c
000000f0: 6f4f 70bd 15be 873c 12ee 033c 74b3 0a3c
00000100: 02e4 9c3d bcfc 04be c284 8fbd aeda 983d
00000110: d21c c7bd 2edc 453d 42ae 91bd 29bf c03d
00000120: 9c9e 03be adef c73d 3e61 b3bd af9a a8bd
00000130: e334 383d 837a c0bd 45ea 5fbd 661a d63c
00000140: 6f8f 01bd 1a16 633d 549a a8bc 5b83 b1bb
00000150: edcc 85bd a403 97bc 8cb3 f33a 045c 72bd
00000160: d9b2 9a3c 9a8f febd a1a0 87bd 776b bebd
00000170: a390 a6bd d57f 8ebd f702 f93d 2294 623d
00000180: c851 9fbd 4341 0b3d 45bb 91bd efb3 9a3c
00000190: 3b90 92bd e2b2 b0bb baa5 083e 6fec 12be
000001a0: 46b7 f03c 428c 88bd 72ae 6abd f451 d63d
000001b0: 7a3c 20be 6f3a cbbc b790 07bd f39b b63c
000001c0: dc6a 91bd 1933 e33c e5b4 963d 1dfe 35bd
000001d0: 2a39 00bd c314 253c 8d75 32bd 4cfc c3bc
000001e0: 5de8 27bd 4f36 b2bd 8f0d a7bd 75f7 ae3c
000001f0: ef86 093e 9c37 d43d b01f 343e 483a 9c3c
00000200: 281b 17bd b404 d33d 44b5 9f3c beaa d0bd
00000210: 5ca5 44be 3708 04bd 5fbc fc3c f649 efbd
00000220: 8648 43ba 9d79 04be d188 44bb 848e 87bd
00000230: 328b 24bc d506 a6bd 5e72 b13d e713 56bd
00000240: afa3 e6bd 2cdd a7bd 4af9 84bc 2c0e 093c
00000250: 9cde 703d 5047 cabd 9032 fcbd aa6d 52bd
00000260: eefe 47be 8e24 43bd 7eea 97bc 9c35 aebb
00000270: 0ebb 10bd 2e7e 323e cf03 24be d0a1 c03d
00000280: 6d6e f8bd 5bba 203e a90b 8d3d 181f 66bd
00000290: 478b 883c d8c3 09bd 4014 8ebc 235c 48bc
000002a0: 3ee5 33be 006d cfbd f042 643d 4a6f 133d
000002b0: ca39 5c3d c148 eb3b 0b93 823d b61c 92bd
000002c0: 46bb 2abe e46e 6c3d d342 dabc 6eae a73d
000002d0: 835b 083e fed2 2dbd 5f00 2fbe 66c2 0b3e
000002e0: 6f01 933d e807 a83d 5a01 a63d 7c5f 053e
000002f0: 0e5a 783d af1a 2ebd b3f6 663d 3fed c43d
00000300: 4813 87bd 08bc 1dbd 3daa a3bd 0663 5ebd
00000310: b3c9 213d 2f51 433d 7cb6 3b3d c4fa adbd
00000320: 3565 72bc 23a3 37bd 2003 07bd a590 13be
00000330: f7a0 5b3d d593 cebd d860 bc3b 2cae 08be
00000340: 6596 54bd 51c6 003e aae1 c43d a3f2 3abe
00000350: dc84 54b9 f517 09be e4cf 22be b038 07bd
00000360: 583a 223e 0582 ab3d 1b5d 013d 8ad0 0b3e
00000370: f8b3 96bc 2e35 cb3d a552 46bd 0ce7 6c3d
00000380: 28d8 53bd 3e37 203e c708 183e e8ce df3b
00000390: feec 073d 92c7 33be 6193 16bd 86b0 0dbe
000003a0: 3091 c63c 87b9 9ebd 5ca2 1dbe 35bb f3bb
000003b0: 5ce7 833d a655 b9bb f392 00be 3114 d13d
000003c0: a8d2 ee3d 7079 7e3c ac5a a43d a0b4 593c
000003d0: a101 293e ce35 f83c a569 a73d 4475 bcb9
000003e0: d148 39be 7cb3 cd3d 0206 03be 6ee0 d4bd
000003f0: eeff aebd bd0b ad3d fa17 17bd fd33 c0bc
0.15064758 0.08356452 -0.12272849 0.057966564 0.20429419 -0.013699303 -0.001689292 0.18737635
0.09574213 0.19655362 -0.042262517 0.0553063 0.0057494733 0.027038498 0.07523126 0.042824466
-0.099996105 -0.1744828 0.117949 0.13165322 -0.030583765 -0.13414982 0.06101481 -0.1220406
-0.20098753 0.16834521 -0.0036694226 0.024496593 0.0351941 -0.12390798 0.030445203 -0.1380947
-0.11161225 -0.14180201 -0.0029659967 0.10303947 0.033624366 0.19492084 -0.09339659 0.093350396
0.026105514 -0.036104877 0.06973536 0.06997605 -0.18281773 0.18233022 0.06725139 0.054495342
-0.036150888 -0.03538237 -0.16461027 0.05715965 -0.05734837 -0.03658887 -0.05161142 -0.040221754
-0.1267831 -0.16570021 -0.07924014 0.008624159 -0.058669504 0.01657013 0.008052366 0.0084656365
0.076606765 -0.12987036 -0.070077434 0.07463585 -0.09722294 0.048305683 -0.07113315 0.09411461
-0.12853473 0.097625114 -0.08758782 -0.082326286 0.04497231 -0.09398367 -0.054666776 0.026135635
-0.03163093 0.055441 -0.020581402 -0.00541727 -0.06533227 -0.018434353 0.0018592938 -0.059169784
0.01888411 -0.124297336 -0.066224344 -0.09297841 -0.08133056 -0.06957976 0.121587686 0.05531705
-0.077792704 0.033997785 -0.07115797 0.018884627 -0.07156416 -0.0053924182 0.1334447 -0.14348005
0.029384267 -0.06667377 -0.05729527 0.1046485 -0.1564807 -0.024808137 -0.033096995 0.02229116
-0.0710046 0.027734326 0.07358722 -0.044431794 -0.031304516 0.010075751 -0.043569136 -0.023924015
-0.040993083 -0.08701765 -0.08156883 0.021358231 0.1343038 0.10362169 0.17590213 0.01907076
-0.036891133 0.103036314 0.019495614 -0.101888165 -0.19203705 -0.032234397 0.030851541 -0.11684029
-0.00074494665 -0.12937017 -0.0029988775 -0.066189796 -0.010042952 -0.08106772 0.08664392 -0.052265074
-0.11261689 -0.08196482 -0.016232152 0.008365195 0.058806047 -0.09876883 -0.123143315 -0.051374115
-0.19530842 -0.047642283 -0.018544432 -0.0053164493 -0.03533464 0.17430946 -0.16017078 0.09405863
-0.12130437 0.15696089 0.068869896 -0.056181997 0.016667975 -0.033634037 -0.01734364 -0.012228998
-0.17567918 -0.10128212 0.0557279 0.035994805 0.05376605 0.007180304 0.063757025 -0.071343824
-0.16673002 0.05772294 -0.026643192 0.08187567 0.13316159 -0.042437546 -0.17089985 0.13648376
0.07178008 0.08204633 0.081057265 0.13024706 0.060632758 -0.042505916 0.056387614 0.096155636
-0.065954745 -0.0385094 -0.07991455 -0.054293655 0.039498996 0.047684845 0.045828328 -0.08495095
-0.014794637 -0.044833314 -0.032961965 -0.14410646 0.053620305 -0.100867905 0.0057488494 -0.13347691
-0.05190124 0.12575652 0.096133545 -0.18256621 -0.0002026739 -0.13388045 -0.15899616 -0.033013046
0.15842569 0.08374409 0.031582933 0.1365377 -0.018396363 0.099222526 -0.04841866 0.05783753
-0.051719815 0.15646073 0.14847098 0.006830085 0.033184998 -0.17556599 -0.036761645 -0.1383687
0.024239153 -0.0775023 -0.15393966 -0.0074380883 0.06440613 -0.005655962 -0.12556057 0.10208929
0.11661273 0.015531883 0.08025107 0.013287693 0.16504528 0.030299094 0.08174447 -0.00035945524
-0.18094184 0.100439996 -0.1279526 -0.10394369 -0.085449085 0.084495045 -0.0368881 -0.02346229

model.rnn.weight_hh_l1 f4 [240, 60]
00000000: 272d f83b be6d 153c 3314 133c 6099 63bc
00000010: e384 803d e4dc 833a 2012 063e a4ad 1bbd
00000020: ebfd 4bba 914b ab3c 14af a6bd 5b8b b43d
00000030: 2ff2 d13c dc66 213e 901c fcbd f9e3 b93d
00000040: 501c 9dbc 4088 9fbd 2a61 d73d bac4 84bc
00000050: 254b 1b3e 7252 bebd dcd7 363e 6644 e63d
00000060: ee3c 6d3d abd3 1fbe d5eb a6bd 01b8 bbbd
00000070: 1de4 85bd 83a8 1e3d 6910 d83d ce6f c4bd
00000080: c8fe bb3c 88da 0f3e 983f 803c 2acf c4bc
00000090: e872 27be 1474 8b3c 453d 823d 5a14 213c
000000a0: 516a e4bc ceb2 233e d992 ebbd 4efa 2e3e
000000b0: 43d8 35be 359c 103e 2e89 9fbd 4ab6 1fbc
000000c0: 9618 f23d 31bc 35bc 11e2 34bd 8c49 7fbd
000000d0: bbee 82bc ffbf 773d 61c3 e8bd d3e7 143e
000000e0: e96a 42be 8027 35be 1b90 6fbd 6ccc ae3d
000000f0: 317a ff3c d134 4dbc 7bf4 383d 7a4e a7bd
00000100: b745 01bb 7f74 5abd e97b a63c 59d9 c0bd
00000110: 5029 ebbd 66cc e13d 319f 8abc ec19 f23c
00000120: 78a6 f43c 7d80 00bd 80c9 ae3d 83c8 093d
00000130: 89aa 0ebe 525b 0c3d 45b1 fc3c 854c 8bbb
00000140: fdc3 043d 9f08 44bd 6cd6 e13d fadd 803d
00000150: 421b 2dbd cfad 17be 587b d8bc 4d61 cc3d
00000160: 3454 cf3d bd4e 293d 4e92 713d ed80 3f3d
00000170: 36a1 7ebd 4ef6 7c3d 8b67 82bb 8535 213d
00000180: a388 edbc 954c 863d b34b d5bd 2812 aebd
00000190: 9b3c 303b 9342 8ebd d10a 4f3d 443e b3bd
000001a0: 3393 80bd 84d8 a7bb c2f8 e43c 1b50 4ebd
000001b0: bab4 f83b e427 b9bd f0fd afbd 6553 a3bd
000001c0: bb3d 953c 8375 9a3d 53ba b9bc b7b1 b13d
000001d0: 3dc8 a63d e719 14be bb92 e43b 857f 483d
000001e0: 121c 0ebe b894 893d bd53 a13d 8428 2a3e
000001f0: 6ef4 b23d 9e12 a13c 2bc8 823d 320b a9bc
00000200: 02fc dc3d 9b6f cabc 2daa a43d 0b65 863d
00000210: 16ae 27be f5ea ec3d d165 f43c 7a2b fd3d
00000220: cca0 803d 3f26 f13c 81ce bcbd 6ce0 1cbd
00000230: 5914 f83d 2de4 8d3c 02a4 f1bc d5c0 d73d
00000240: c54b 1e3e f88d 94bd eb51 e1bb b776 c1bd
00000250: 285b 373d c734 46bd 4964 ecbc bb6b 12bc
00000260: fb25 6b3d 23d3 7f3d 1a4d 353e 3578 e53c
00000270: e0df c4bd d055 583d 7bd1 433c c941 fc3c
00000280: 0739 5c3d 2f3d 84bd 21b7 9abd aaec 083e
00000290: ea6d b5bd 46ed 1bbd 9eae c43c e81f a5bc
000002a0: d9bb 5bbb 5ac3 d7bc 114c fcbd 83c0 0c3e
000002b0: 3c86 62bc 4302 34bd 7223 62bd 9458 b53b
000002c0: ec8b 94ba 5ecd b03d 77ff 2fbd c610 333e
000002d0: 8220 003e 1742 6c3c 50bf cf3d f2db a7bd
000002e0: 2b68 94bd 0230 12bc 6953 8e3d 3808 343d
000002f0: e081 363d 35dc 083e 1469 e1bd c754 fd3d
00000300: abc8 423d bad2 48bd f130 593d 04fe 1e3d
00000310: b1f4 1abe cbff eb3d 1664 863b 1d17 623d
00000320: e37f 44bd 792d 22bd f392 a83d 8b97 e03c
00000330: e771 d1bd cc92 a9bc 1017 18bd e0c1 e3bd
00000340: 26f2 25bd a5d9 0dbd f3aa 4ebd 4f5c c33d
00000350: 2f69 8d3d 3e74 263d e802 f53b 7322 bcbc
00000360: 8fca fb3c 2ab6 08bd 80b5 de3d 71bb acbd
00000370: 6eb5 073e 8ae6 263e fb43 c13d 5b63 123e
00000380: 6d2e 09be db87 c23c dcbe 80bb bd6c ecbd
00000390: f85a cf3d 5d82 db3d cc9f 9e3d 5e30 423c
000003a0: 619b dc3d 74b8 13bd a79c 03be b939 0a3e
000003b0: c124 19be 51a0 a63d d5e0 b9bc 29a4 e6bc
000003c0: 9bcc eabc eacc aa3d 4553 88ba 1d5d 323d
000003d0: d894 913d d705 0c3e 6ba2 5c3c 5fe1 4dbc
000003e0: 6d59 28bd 5476 22b9 0eae 2c3c e356 e93d
000003f0: ae80 afbc 2835 1abe 9f8e 0a3e b94f cebd
0.007573742 0.009120403 0.008976984 -0.013891548 0.06275346 0.0010060337 0.13092852 -0.038007393
-0.0007781672 0.020910056 -0.08138862 0.088156424 0.025628177 0.15761894 -0.12310135 0.090766855
-0.01917854 -0.077896595 0.105165794 -0.016207088 0.15165384 -0.09293069 0.17855781 0.11243515
0.057919435 -0.15608089 -0.0815045 -0.09165955 -0.0653765 0.038734924 0.10550005 -0.095916376
0.022948638 0.14048207 0.015655324 -0.024024565 -0.16352427 0.017023124 0.063593425 0.009831512
-0.027882727 0.15986177 -0.11502618 0.17087671 -0.17758279 0.14122088 -0.07789837 -0.009748051
0.11821096 -0.011092232 -0.044160906 -0.062326 -0.015982976 0.060485836 -0.113653906 0.14541559
-0.18986095 -0.1769085 -0.05848704 0.08535084 0.031186195 -0.012524799 0.04515503 -0.08169265
-0.0019725391 -0.053333756 0.020322757 -0.09416456 -0.11482489 0.11025314 -0.016921612 0.029553376
0.029864535 -0.031372536 0.08534527 0.03363849 -0.13932241 0.034266777 0.030846247 -0.004251065
0.03241347 -0.047859784 0.11027226 0.06292339 -0.042262323 -0.14812396 -0.026426002 0.09979496
0.10123482 0.041334856 0.058977418 0.046753813 -0.06216546 0.061758332 -0.0039796284 0.03935768
-0.028995818 0.065575756 -0.10414829 -0.08499557 0.0026891592 -0.06946292 0.050547425 -0.087521106
-0.06278076 -0.005122246 0.027950648 -0.050369363 0.0075899037 -0.09040812 -0.085933566 -0.079748906
0.018217912 0.07541945 -0.022671854 0.086764745 0.08143661 -0.14463006 0.0069754994 0.048949737
-0.13877895 0.06717819 0.078773 0.16617018 0.087380275 0.019662198 0.06385835 -0.020635221
0.10790254 -0.02471142 0.08040271 0.06562241 -0.16375002 0.11568252 0.029833706 0.12361808
0.062806696 0.029437182 -0.09219075 -0.038299963 0.12113256 0.017320717 -0.02949715 0.10534827
0.15458591 -0.07253641 -0.0068762205 -0.09446471 0.044764668 -0.048390176 -0.028856413 -0.008936818
0.057409268 0.062457215 0.17705193 0.02801142 -0.09613013 0.052816212 0.0119517995 0.030793088
0.053765323 -0.06456982 -0.0755446 0.1337153 -0.08858855 -0.03806808 0.024009045 -0.020156816
-0.0033528714 -0.026338268 -0.12319196 0.13745312 -0.013825949 -0.04394747 -0.055209585 0.005534241
-0.0011333204 0.08632921 -0.04296824 0.17486867 0.12512401 0.014420054 0.10143912 -0.08196248
-0.07246431 -0.008922579 0.06949503 0.04395315 0.044557452 0.13365252 -0.1100637 0.123696856
0.047554653 -0.04902909 0.05302519 0.038816467 -0.15132405 0.11523398 0.0041012866 0.055197824
-0.047973525 -0.039594147 0.08231153 0.027416011 -0.10226803 -0.020699881 -0.03713137 -0.11120963
-0.040514134 -0.03463139 -0.050456 0.09539091 0.06904828 0.0406382 0.007477153 -0.022965645
0.030736236 -0.03337685 0.10874462 -0.08434189 0.13252804 0.16298881 0.09436794 0.14295714
-0.13396616 0.023746422 -0.003929002 -0.11544178 0.10124773 0.10718224 0.077453226 0.011852352
0.10771824 -0.03606458 -0.12852727 0.13498582 -0.14955427 0.08136047 -0.022690216 -0.02815445
-0.028662017 0.083398655 -0.0010400793 0.04354583 0.07108468 0.13674103 0.013466458 -0.01256594
-0.041100908 -0.00015493605 0.010539545 0.113935255 -0.021423664 -0.1505934 0.13530968 -0.100738

model.rnn.bias_ih_l1 f4 [240]
00000000: 1398 a13d ccb3 88bc 0800 82bd 36ec 113e
00000010: f215 903d c756 61bd ba4a 083e ce69 2abb
00000020: 9185 763d 23e7 073e c3be 233e 6721 b0bd
00000030: 059e 273c ca1d 193e 5c34 bfbc 9893 e23d
00000040: 1162 f23d 212c 573d c649 f23d 1352 143d
00000050: 4f35 f73d b355 0d3e 708b 9d3d aebd 3ebd
00000060: 28a2 993d 817b b03c c7bd 423d 0378 313e
00000070: b599 9dbd 12f7 81bd c3c9 1c3e 3534 613d
00000080: 82ec e6bc 1e3c 333d f2da 863d 03cf 4b3d
00000090: 464b 77bc ff31 f73d defe 123d 5cb3 163e
000000a0: dd89 33bd 96f9 563d 1e49 36bd 6aab 043e
000000b0: e47a 21bd 562d 113e 4a0d 89bc 077b 89bc
000000c0: 3fa8 6c3d e226 913b bb46 0a3e 6c2c 143e
000000d0: 49cb 48bd 2d1f a53d c9eb 33bd e50a 353e
000000e0: c938 9d3d baec 1e3d fae7 083e fe7d 0f3e
000000f0: d3cb 973d 0e6a 953d 0667 93bd 962b a8bc
00000100: f85a 1cbd 4b15 4dbd 04d3 22be 4067 91bd
00000110: eff2 64bd 0d26 53bd d573 8ebd aa51 3abd
00000120: d601 c5bd acfb 49bd 34ee 79bd 5b75 aebd
00000130: 2ea6 d73d df7a 57bd 9d31 633d 8a66 e0bd
00000140: c428 8bbd 9713 54bd ae03 9fbd 8014 b2bb
00000150: 4856 8c3d cc3d 833d 6c8f 84bd 9d8c c43c
00000160: 40c2 d0bd e176 0dbd 900e d0bd a7dc f83d
00000170: 9854 6b3d 553e 253d 7a9c 973d 9076 c03d
00000180: b667 f2bb f9b3 fd3a ebf0 0e3e 852c 9d3d
00000190: 093a f1bd e578 a03c 4ff5 bcbd d174 cf3d
000001a0: 7b8e ae3d faab 07be cfec 1a3d 56c0 82bd
000001b0: bc68 e4bd 13cf 043c 5254 c23d b2dd 913c
000001c0: 05c4 983d 82e8 dfbc 4e33 6f39 e7e2 bd3d
000001d0: a00e 1c3d 8f47 c6bd 965d fe3d f4e8 c9bd
000001e0: 3c82 1cbd 855c ba3c 5853 9bbd 3835 133e
000001f0: 4716 f3bd 6657 e63c b3b5 02be fc20 ac3c
00000200: 82b5 153e b0d5 d0b9 b7dd 1abe 84bb 2abd
00000210: 6b70 16be 2d98 e83c a37f c6bd 78f5 c9bd
00000220: bf08 333c 9b9d 8f3c 7dfd 5a3c 4539 51bd
00000230: aecd de3d cf4d 85bd 0d28 c13d 2695 1a3e
00000240: 0e36 983d 7397 eabd da43 71bd d606 113c
00000250: e13e f0bd f27d a7bd 8a0f ca3d 219a f93c
00000260: d7b8 d53d caed 643d 8d44 f03d 3cb8 acbc
00000270: 5063 36bd 6bb5 e1bb 02a2 173e 0742 893d
00000280: 6bbd b23d ef87 103d a7dc 753d e7a2 e23c
00000290: 8eb4 08be 5c8a fb3c 6b56 0ebd 0d8d c7bd
000002a0: afef 023e ab03 903d d29e 5dbd 7543 243b
000002b0: 2d4f a8bd f6e3 493b 1223 50bd c2cc 303d
000002c0: 8ea2 75bd 2287 a63d 4e47 cebd 2a56 8a3d
000002d0: b165 033e 21f3 9c3d 641b 3c3c 808e 50bd
000002e0: 4bb9 50bd ce33 cc3c 8de9 b73c 370b c3bd
000002f0: 6973 4a3c e4cd 10bc 31a1 1dbd af28 c03c
00000300: d529 b7bd a4d5 003e b5a6 2e3c d391 133e
00000310: b36d 203d a7ab e8bc d8a2 35bd 4905 f8bc
00000320: 2e55 813d 4645 cc3d 60b5 ab3d ce29 dd3d
00000330: 5208 d73d 1377 213e a4d8 3b3d ae33 053e
00000340: ec95 f23d ef87 a13d 6b1d 63bd ad82 123e
00000350: 0fd6 56bc b9e2 a13d bace 89bd 3e95 2c3d
00000360: e6d7 afbd ea34 c13b b841 053e 8c17 0d3e
00000370: 4c62 c13d 62db a5bd 1933 f53d daf9 97bc
00000380: 76fa 333d 4f79 063d 4b89 a33d aa7f 22bd
00000390: 4625 0b3d ed94 14bd 6388 1e3e 2c19 87bd
000003a0: 3489 0f3a c42b 143d fb2e f6bc cb39 1b3d
000003b0: 1657 533d 8d9c 96bc 6daa e83d 1f49 d0bc
0.07890334 -0.016687296 -0.06347662 0.14250264 0.07035436 -0.055014398 0.13309756 -0.0026003006
0.060185973 0.13271765 0.15990739 -0.08600121 0.010230546 0.1495277 -0.023340397 0.110633075
0.11835111 0.05253232 0.118304774 0.036211085 0.12070715 0.13802223 0.07692611 -0.04656761
0.07501632 0.021543266 0.047544267 0.17330937 -0.07695333 -0.06345953 0.15311341 0.05498143
-0.028188948 0.043758504 0.06584729 0.04975797 -0.01509363 0.12070083 0.03588759 0.14716858
-0.04383265 0.052484117 -0.044503324 0.12956014 -0.03942384 0.1417745 -0.01672997 -0.016782297
0.05777764 0.004429684 0.13503544 0.1447007 -0.049021993 0.08062587 -0.043926034 0.17679937
0.076768465 0.03879998 0.13369742 0.14012906 0.07411923 0.07295619 -0.071973845 -0.020528596
-0.038172692 -0.050069135 -0.15900809 -0.070997715 -0.055895742 -0.05154996 -0.06955687 -0.045488037
-0.09619491 -0.04931228 -0.061018184 -0.085184775 0.10529743 -0.052607413 0.055467237 -0.10957058
-0.06794885 -0.051776495 -0.07764374 -0.0054345727 0.06852394 0.06408271 -0.06472668 0.02399283
-0.101933 -0.0345372 -0.101590276 0.12151461 0.05745372 0.040342648 0.074028924 0.09397614
-0.007397617 0.0019356004 0.1395909 0.07674507 -0.117786475 0.019588897 -0.092264764 0.10129703
0.0852327 -0.13249198 0.037823495 -0.063843414 -0.11152789 0.008106011 0.09488739 0.017805908
0.07459263 -0.027332548 0.00022811929 0.09271794 0.038099885 -0.096816175 0.12420194 -0.098588854
-0.03821014 0.022749195 -0.07584256 0.1437577 -0.118694834 0.028117847 -0.12764625 0.021011822
0.14620021 -0.0003983206 -0.1512364 -0.041682735 -0.14691322 0.028392876 -0.096923135 -0.098612726
0.010927378 0.017531207 0.0133661 -0.051080007 0.10879074 -0.065089814 0.09431467 0.15095958
0.07432185 -0.11454668 -0.0589026 0.0088517275 -0.11730743 -0.08178319 0.09866245 0.030469002
0.10435646 0.055890836 0.11731825 -0.021083944 -0.044528306 -0.006888082 0.14807895 0.06702047
0.08727535 0.035285886 0.060024884 0.027665569 -0.13350126 0.030705623 -0.034750383 -0.097437
0.12786745 0.070319496 -0.05410654 0.0025064622 -0.082182266 0.0030806041 -0.050814696 0.043164022
-0.059969477 0.08131243 -0.10072194 0.06754716 0.12831761 0.07663561 0.01148114 -0.05091715
-0.05095796 0.024927046 0.022450233 -0.095236234 0.0123566175 -0.008838151 -0.038483802 0.0234569
-0.08943526 0.12581497 0.010659863 0.14411096 0.039167117 -0.028402163 -0.044344753 -0.030275958
0.06315075 0.0997415 0.08384204 0.10798989 0.10499634 0.1576808 0.0458609 0.13007995
0.118450016 0.078872554 -0.055447977 0.14307661 -0.013112559 0.07904572 -0.06728883 0.042134516
-0.08586101 0.0058962004 0.13013351 0.13778514 0.09442577 -0.080984846 0.11972637 -0.018551756
0.04394003 0.032830533 0.07985171 -0.03967253 0.033971094 -0.03627484 0.15481715 -0.06596598
0.0005475462 0.03617455 -0.030051699 0.037896913 0.051596723 -0.018385196 0.11360631 -0.025425492
