checkpoints/epoch=2-step=150-v19.ckpt (torch, 621663 bytes, 33 tensors)

model.param_proj.proj.0.weight f4 [1, 60]
00000000: 4b5b 23be cc77 4bbd 5bda 663e dda7 1fbe
00000010: a3b4 3b3e 7cc6 7dbd 5001 713e 27ce 2ebd
00000020: 5aa8 2bbe 0552 74be cf52 54be 0667 2bbe
00000030: 626b 17be 83ab 933d 52c1 63bd 833a 3ebe
00000040: 83c1 a1bd b852 c03d 2171 0cbe 7363 723c
00000050: 9920 7a3e 162f 113c 462d 683e 5fc0 88bd
00000060: 89fe 14bc 51fc 973d 9d1f 393e afcd 31be
00000070: 1c6b 59bd caf2 7b3e 26e9 a93d d942 ccbd
00000080: cd70 ea3c 42ea 4fbe 8325 e6bd 5261 afbd
00000090: 8fb4 78bd 85f4 27be 8a83 763d 7631 353d
000000a0: a4b7 09be b09f 153b 3aeb 4abe 13aa 74be
000000b0: c6d5 6a3e b6bf 49be cea1 4e3d f8b3 d53a
000000c0: ff62 05be c52c 733e 8afb 97bd 43a5 3fbe
000000d0: 128f 243e 3482 9ebd d571 debd 6361 5b3e
000000e0: a4cd 18bd 5bf6 e73c ceaa 47be 737f 393e
-0.15952794 -0.049674794 0.22544234 -0.15591379 0.18330626 -0.061956868 0.23535657 -0.04267707
-0.1676344 -0.23859413 -0.20734714 -0.16738519 -0.14787057 0.07210448 -0.055604286 -0.18577008
-0.078982376 0.09390777 -0.1371503 0.014794218 0.24426498 0.008861324 0.2267352 -0.06677317
-0.009093889 0.074211724 0.18078466 -0.17363618 -0.053080663 0.24604335 0.08296423 -0.09973688
0.02861824 -0.20304206 -0.112376235 -0.08563484 -0.06071907 -0.1640187 0.06018404 0.044236623
-0.1344896 0.0022830777 -0.19816294 -0.23893003 0.2293311 -0.19702038 0.050447278 0.0016304245
-0.13026045 0.23747547 -0.07421024 -0.18715386 0.16070202 -0.07739678 -0.108615555 0.21423869
-0.03730549 0.028315714 -0.1949875 0.18115024

model.param_proj.proj.1.weight f4 [1, 60]
00000000: 4e13 153e 6fe9 573d 889c 0e3c 9fe4 0abe
00000010: b96b ce3d 22dd bcbd 2110 55bd 262b 153e
00000020: c90a 84bd 6d99 cdbd 0f88 fb3d 7908 4abe
00000030: b2ab 40be dce9 963c 327e 023e 4b0f e53d
00000040: e402 073e f436 3ebd 0483 9c3d edfc 2d3e
00000050: b443 113e a272 9f3c 1131 ac3d 008e 413e
00000060: e77d 4b3e 7ecc 05be c8e0 49be 9091 963d
00000070: 20d5 bf3d df81 8abc 5d62 433e 8e9f 9c3d
00000080: aa56 523e 49d1 5c3e 90f6 38be 834c 1fbe
00000090: 46da dabd c05b 173e 1699 16be 38f3 5dbd
000000a0: 402d 85bd 48cd 6d3d 651d dabd e552 9abd
000000b0: 46a7 023d b9a7 9cbd f812 1abe fb91 c6bd
000000c0: 2d07 ec3c 53a8 4abe cf7e 33be 2b90 18be
000000d0: c8ca 0abe fb24 34be ff5a 173e 1623 70bc
000000e0: 2f62 473e 8a83 49be bc7a 11be 6739 093e
0.14558145 0.052712854 0.008704312 -0.13563775 0.1007914 -0.09221865 -0.052017335 0.14567241
-0.064473696 -0.10039029 0.122818105 -0.19729795 -0.18815497 0.01842206 0.12743452 0.111845575
0.13184696 -0.046439126 0.07642177 0.16991015 0.14185983 0.01946384 0.08407796 0.18901825
0.19872247 -0.13066289 -0.19714653 0.073519826 0.09366822 -0.01690763 0.19080491 0.0764762
0.20540872 0.21564211 -0.18062806 -0.1555653 -0.106861636 0.14781094 -0.14706835 -0.05418703
-0.065027714 0.0580571 -0.10650138 -0.07535342 0.031897806 -0.07649178 -0.15046299 -0.09695812
0.028812015 -0.19790773 -0.17528842 -0.14898746 -0.13553917 -0.17592232 0.14780806 -0.014656803
0.19471048 -0.19679084 -0.14206976 0.13400804

model.param_proj.proj.2.weight f4 [1, 60]
00000000: c1fc 4cbc ef1f f33d bb07 303d 8b01 8fbd
00000010: 622b 1abd d1d3 323d 7832 eabc 008c e63d
00000020: ebab 5abb 989b ddbd 9245 c5bc 6ba2 1a3d
00000030: 57d8 14be ff2f 583d dec9 583d 6661 a8bd
00000040: f077 c4bd 84a9 673d c514 f2bc 3d91 7b3d
00000050: 0f85 3e3d 7b5f af3d 41e4 44bc 0a53 f03d
00000060: 9639 5e3d 2531 08be 84c6 653b 2ef4 5abd
00000070: c43c 80bd c673 acbd c244 ac3c 8ad2 f83d
00000080: 3f7f 91bd fc4e c53d 8867 e2bc cb4d c93d
00000090: 2934 13be 7cd6 303d e40f 1bbd a483 a03d
000000a0: 5094 a4bc 0ef1 84bd 7464 a5bc dd0e babd
000000b0: b81b 9d3d 6d33 f2bc d094 08bc 8ccf 5c3d
000000c0: 9ca3 06be 7410 11be fcd3 72bd a6ca 6d3d
000000d0: dd36 963d 7400 a8bd 5f7a 3dbd 1594 56bc
000000e0: 8110 5dbd 6998 043e 0f14 8abd f3b2 3f39
-0.012511433 0.11871325 0.042976122 -0.06982716 -0.03763903 0.043659035 -0.028588519 0.11257172
-0.0033366631 -0.10820693 -0.024081025 0.03775255 -0.14535652 0.052780148 0.05292689 -0.08221702
-0.09593189 0.056558147 -0.02955092 0.061417807 0.046513613 0.08563133 -0.012017311 0.117345884
0.054254137 -0.13299997 0.0035060951 -0.053455524 -0.0626159 -0.084205195 0.02102888 0.12149532
-0.071043484 0.09634206 -0.027637258 0.09829291 -0.14375366 0.0431733 -0.03785695 0.078376085
-0.020090252 -0.0649129 -0.020189501 -0.09084866 0.076713026 -0.029565537 -0.008336261 0.05390887
-0.1314835 -0.14166433 -0.059284195 0.05805459 0.07334683 -0.082032114 -0.04625928 -0.013096829
-0.053970817 0.12948765 -0.06742107 0.00018281843

model.rnn.weight_ih_l0 f4 [240, 24]
00000000: f5c7 9ebd c779 43be 967f 3c3b 1fdc d13c
00000010: 30fa 1bbe 9743 90bd c9a7 06bb e8bf 0cbe
00000020: 7f71 6fbe f0d3 f8bc ba60 85bd b3fc 7c3d
00000030: 5843 16be 4f5d 83bd 6c61 bc3d a9fb d33d
00000040: 088f 31be ffea e9bd 7435 833c c1c0 923d
00000050: 6c48 adbd 9ed4 be3d 876c 463d 91ad fe3d
00000060: c982 5ebc b54e 093e a5a1 cebd 3355 dfbd
00000070: 054d 793e efc0 07bc a892 8cbd 12c3 793c
00000080: 77a8 973d 1826 ac3c 66cf f7bd f68d e4bd
00000090: c0a3 fcbd db53 fbbd 36fc 0ebe 575e 4b3e
000000a0: 5d5e 213d a329 7d3b ae8f 293e ea79 c63d
000000b0: f647 23bd 1e1a 443e 6c6c a33d 4b95 143d
000000c0: aed7 f6bc b73a c63d 99d6 0f3d d484 08bc
000000d0: 6c27 2ebe 23c1 0c3e 7ee0 54be 746a eb3d
000000e0: ef21 50bd 95ae 603d 4329 443e b62d 8abe
000000f0: 6353 d73d b2c3 7a3d af96 85be 11b0 0d3d
00000100: dfe6 9e3c feb6 2d3d de25 30bd c14d ad3d
00000110: 80e6 6c3c fc39 9e3d e0ac 043e 8de1 993d
00000120: 755a bebd 31e7 a33d 43ee e5bb 330b c1bd
00000130: 11fd 26bd 9bbf 8a3d 285f a23d 9b68 ca38
00000140: 1e82 40be 96ff a63d 9614 6b3d 0c61 7ebe
00000150: 5499 f0bd 4cc8 ba3b dc04 07bc 08bf bcbc
00000160: 0f18 d1bd cfbf 7bbd 2b65 a93d 140c 5d3d
00000170: 011a 09be fe62 c93d ed58 aebd 61a0 bbbd
00000180: 72d0 31be b9df fabc 1b2f 093e 0982 f03d
00000190: 1f21 cebd 27e6 8fbd 32fa a33d aa82 b23a
000001a0: e170 ebbc b19b 7c3e a623 1e3e 331e 2bbe
000001b0: 53b6 03bd 80f1 d83d b17c 2a3c 3375 adbb
000001c0: 5ce2 373e 2c90 123c 38c3 463e 9625 8cbd
000001d0: 48a4 32bd afbc 4a3c 59d4 583e d4d4 9e3b
000001e0: 6273 f1bc 5160 083d 0c43 dbbd 3af8 453d
000001f0: fd48 403e f69d a1bd 0d7f a13d c966 10be
00000200: d51f 663d b490 183d 81d2 79bd c839 5d3e
00000210: ff3c 4fbd bbdd 4f3e 5815 cb3d 47b6 03bd
00000220: 10ec 0dbe bda2 68bd 4ad3 0b3e 75e4 2c3d
00000230: 4092 9b3d aec5 28be f8ee 383d 4072 07bc
00000240: bac2 873d 585c 0f3d ad54 273e 0def 6cbd
00000250: 26fa e1bd 1ea9 80bd 148a a8bd ff0e a13c
00000260: 6863 d23c d7a4 aabb 6f23 3cbe 5298 d33d
00000270: 43a7 ed3b d20d 313e a34c 5ebe 1f7c 09bd
00000280: 6700 0c3e ef66 17be f714 f53d f2fd de3c
00000290: bafb 8cbd e4f0 4b3b 7f9b 803d 2d66 963c
000002a0: 2c39 32bd 49ab 0fbe 9619 4abd e62c 513d
000002b0: 27c8 8e3d bc9e cdbd c5e6 3bbe 8b15 b5bc
000002c0: 9c83 5cbe 8a38 e6bd 0261 103c fc90 39bd
000002d0: a197 7bbe 0270 ab3d 19d9 02be 833a df3d
000002e0: 55a4 2dbc ec1e 863d 4430 72bc c499 313d
000002f0: f88e 09bd 3261 0cbe 1ca0 b63d 1950 5f3d
00000300: 04f0 0cbd 0f6b eb3c 8efc cc3d 31ed e4bc
00000310: e13a 59bc 695c 91bd 6b17 1cbe 6867 1f3d
00000320: 7970 8ebe 37aa 3c3d 1e94 253e 88ea 3cbe
00000330: 0387 273d d6e5 12be dc51 373d 7e2f 873d
00000340: c195 a7bd 3d51 edbc 8ebc 2d3e cf1d 4fbd
00000350: c6eb 893d 2c3b 8bbd 6231 393e 3952 ee3d
00000360: 7c80 14be 90c0 2ebe 8959 b23d 0d80 60bb
00000370: c850 973d 8769 cf3b 5a7d 87bd 40dd cf3d
00000380: 32f2 cd3c d44a 93bd da1d c53c 83d0 49bd
00000390: 70a1 44be 3bd2 abbd 12f9 e9bb 622e a43c
000003a0: 97d7 e3ba 5c6d 433e 4322 c53d b208 29bd
000003b0: 34e2 15be dd34 223e f69a 97bc dbb2 e1bc
000003c0: b401 f4bd b71c 40be ebb5 903d 85bf 1e3e
000003d0: b53b 42bd 3d41 463d 40d8 80bd dcee 203e
000003e0: 51fe 82bd d0ab eb3d 6b55 5f3d 0073 d13d
000003f0: d1b3 30be 29bc 613e d367 03be 6ab3 873d
-0.077529825 -0.19089423 0.002876257 0.025617657 -0.15232158 -0.07044142 -0.0020546785 -0.13745081
-0.23383139 -0.030374497 -0.0651259 0.06176443 -0.14674127 -0.064142816 0.09198269 0.10350735
-0.17339718 -0.11421775 0.0160167 0.07165671 -0.08461079 0.09317897 0.048443343 0.12435449
-0.013580986 0.1340893 -0.10089425 -0.10904922 0.24345787 -0.008285745 -0.0686391 0.015244262
0.07405179 0.021014258 -0.12100105 -0.111598894 -0.1233592 -0.122718535 -0.13963398 0.19860207
0.039396632 0.0038629554 0.16558716 0.09691222 -0.03986355 0.19150588 0.07979664 0.03627519
-0.030132141 0.09679168 0.035116766 -0.00833245 -0.17007226 0.13745551 -0.20788762 0.11494914
-0.05081361 0.054853994 0.19156365 -0.26988 0.10513952 0.061221786 -0.26091525 0.034591738
0.019397197 0.042410843 -0.043004863 0.08462096 0.014459252 0.077259034 0.12956572 0.075137235
-0.09294597 0.08003081 -0.0070169284 -0.09425964 -0.040768687 0.06774827 0.07928306 9.651595e-05
-0.18799636 0.08154218 0.05739268 -0.24841708 -0.11747995 0.005700147 -0.008240905 -0.02304031
-0.10209667 -0.06146222 0.082712494 0.053966597 -0.13388826 0.098333344 -0.08513055 -0.09161449
-0.17364672 -0.030624257 0.13396876 0.11743552 -0.10064911 -0.0702632 0.08006705 0.0013619263
-0.028740348 0.24668767 0.15443286 -0.16710739 -0.0321563 0.105929375 0.010405705 -0.0052935123
0.17957443 0.008945506 0.19410408 -0.068431064 -0.043613702 0.012374087 0.21174754 0.0048471484
-0.029473964 0.03329498 -0.107061476 0.04833243 0.18777843 -0.07891457 0.07885561 -0.1410171
0.0561827 0.037247375 -0.060991768 0.21604073 -0.05059528 0.20299427 0.0991618 -0.032156255
-0.13859582 -0.056795824 0.13654819 0.04221006 0.07596254 -0.16481659 0.045149773 -0.008266985
0.06628938 0.035000175 0.16340895 -0.057845164 -0.1103404 -0.062822565 -0.08229461 0.019660471
0.025682166 -0.0052076387 -0.18372892 0.10331787 0.007252605 0.17290428 -0.21708922 -0.033565637
0.13672028 -0.1478536 0.11966889 0.0272207 -0.068839505 0.0031118924 0.062796585 0.018359268
-0.043511555 -0.14030184 -0.049340807 0.05106821 0.0697177 -0.10040042 -0.1834975 -0.022104999
-0.2153458 -0.11241253 0.008812191 -0.045304283 -0.2456956 0.08370973 -0.12778129 0.10899832
-0.010598262 0.06548867 -0.014782015 0.043359533 -0.03358361 -0.13708952 0.08917257 0.054519746
-0.034408584 0.028737573 0.100091085 -0.027945133 -0.013258667 -0.07097704 -0.15243308 0.038916975
-0.27820185 0.046060767 0.16169783 -0.18448842 0.04090024 -0.14345488 0.0447558 0.06600855
-0.0818286 -0.028969401 0.16966459 -0.050565537 0.06734423 -0.067983955 0.18085244 0.116367765
-0.14502138 -0.17065644 0.08708484 -0.0034256012 0.07388455 0.0063297185 -0.06615706 0.10149622
0.025139902 -0.07192007 0.024062086 -0.049271118 -0.19202209 -0.08389708 -0.007140287 0.020041648
-0.0017382976 0.19084686 0.096256755 -0.041268058 -0.14637071 0.15840478 -0.018506508 -0.027551105
-0.11914387 -0.18760954 0.07065948 0.15502746 -0.047420222 0.04840206 -0.062912464 0.15716118
-0.06396163 0.1150738 0.05452482 0.10227013 -0.17256095 0.22044434 -0.12832575 0.066260174

model.rnn.weight_hh_l0 f4 [240, 60]
00000000: be62 81bc 9b45 b9bd 3783 d43c 156e 0dbe
00000010: bbae 3a3e fd61 983c e752 b3bc 14cb 023e
00000020: 315a 74bd 278d 5bbe edfe dd3d e50d 093d
00000030: b8a1 a13c bdb8 90bd 5938 d0bd 41b4 a4bd
00000040: 8044 4dbd 1118 2c3e 459f 093e 5195 16bb
00000050: 0d6b 8e3d f652 b93d 3f21 e73d 4928 08be
00000060: c81a ec3d 5f1a 3f3e cf1d d4bd 9a74 4bbe
00000070: 4197 b3bd 333c 023e 73a4 31be 60da 04be
00000080: 25fb e73c cd66 0abd d541 203e 7e1c 96bd
00000090: 6032 40bb 12ce b83d b0ec 46be ae3a 1a3e
000000a0: 92bd 0a3d 226e 1a3e f629 81bd 2bbb 4c3e
000000b0: 4b1a e3bd 02a5 4bbe ed2c 7fbe 3e29 c8bd
000000c0: 9c8e a43d 8e47 2b3c 3048 103d 886b c5bd
000000d0: 6a02 96bc 8519 1e3e 0519 35be 9bb9 14be
000000e0: 600f 823d 84ee 103e 137f 30bd b5b0 873d
000000f0: 5564 f83d 8f47 54be cedf de3d 9e7a 9d3c
00000100: 5537 593e 5f7c 26be 3229 2bbc 5842 84bc
00000110: 4ff3 323d f2c6 bcbd 2bf9 5a3e 0e5b 38be
00000120: cfea 2b3e 2e51 0dbe 5067 053e f856 e5bc
00000130: 2f19 5a3d abba 853c 6623 8d3d db7f dbbb
00000140: 13f2 0ebe 416b da3d 7365 c93b fb30 413e
00000150: ffb6 b63d 71f3 093e f8fd b4bd 9d60 de3d
00000160: dcbe edbd d5bc 6e3d dc13 39bd aa96 813d
00000170: 718d 2dbe 9169 0abe 5127 33bd da61 36bd
00000180: 40b5 973d a77b 243e 37ea f5bd 0f6b 303e
00000190: d6e2 ccbd d803 16be aded 34bd 8210 82bd
000001a0: 4004 41bd e099 2f3d cd04 18bd 1d2c 80bd
000001b0: 6b88 4bbd 1253 5a3c b089 dabd 3de1 53be
000001c0: 6e56 29be d835 0b3d 7aeb f2bd a20d cd3c
000001d0: 2dbb 32bc 49ed d0bc b4ed 303d 7f92 363d
000001e0: 7435 22bc 10c2 51bd b8e7 f13c 7439 4cbd
000001f0: a04d 8637 a3b0 8dbb d2a1 a53c 8d70 edbd
00000200: 2d11 373d baac ec3d 4624 92bd 231e 59bd
00000210: 8ce9 8b3d f26f 01bd 4dc0 96bd f110 f6bd
00000220: fb44 d43d 2f7d 3abd 5c08 02be e343 033e
00000230: 1987 9cbd d460 abbd f881 b2bd 2032 e03d
00000240: 4b07 e7bb f588 123d cfbc e4bd d43e 853d
00000250: 5fa1 b4bd d8b0 373d a66c 02be 1a0c 1abd
00000260: 5b85 b23d 04a3 8c3d 4426 ce3c a340 2f3d
00000270: 4156 dc3d 00f2 68bd d921 bb3c 7c23 ed3d
00000280: 58cc 30be 39de ee3b 9f66 12bd a444 6b3a
00000290: 7843 df3b 7ec0 bf3c 8dc7 a9bd 9a27 a239
000002a0: 6316 203e ad49 e23d 11b5 fc3c 2465 e6bd
000002b0: d564 a23c e30a 8dbc 7ef1 e83d 8c85 433d
000002c0: 9a2d 00be 396f 5b3d f92c d6bd b93e 093e
000002d0: 4504 b2bc 211c e6bb 98b5 d43d cb90 96bd
000002e0: bb2a b63d b3d4 0e3e a883 d8bc 9a75 2d3d
000002f0: 35a4 9bbd 38c9 203d cd7d 0f3e 8760 903d
00000300: 4b7b 693d 8e33 063d 6257 45be 3074 4dbd
00000310: 3621 0a3d 2c27 9c3b 9c89 453e bbd6 9d3d
00000320: ebd8 513e a6da e93d e4fa 8fbc 864b cf3d
00000330: a544 a13d 9c6e d23b a371 7abc d817 38be
00000340: 3614 14be 7698 193e 55d2 99bd a953 12be
00000350: 7c65 e9bb bd17 d1bd cb9b 123e d89a e9bd
00000360: 6c14 2dbe 700d 2d3d 35c6 0bbd f181 1a3e
00000370: 1068 f93d b4df e93d 1d96 5fbd eff9 c03d
00000380: 39d0 6f3c 2f87 07be a25a 28bc 26dd d8bd
00000390: dfe7 df3d 5ffe 0c3d c2c5 8f3d 891f 9c3d
000003a0: 5ccf e3bd 40b0 6a3b 2b42 493d b1da 61bd
000003b0: 7514 81bc e772 c33d bce1 72bd 4ef0 00bc
000003c0: 0847 953d 6fed ac3d afc2 ae3b 7ae1 43bd
000003d0: 2cdf 32bd 4efd 85be b53d ebbd ab95 6f3c
000003e0: 61ff d9bc 862c e43c 4485 1a3e bd0f e23b
000003f0: e8b2 23bd 4369 fabd 0dec 013e 019a 363e
-0.015794154 -0.09046479 0.025941474 -0.13811524 0.18230717 0.018601412 -0.021890117 0.1277278
-0.059656326 -0.21440564 0.10839639 0.033460516 0.019730434 -0.07066486 -0.101669975 -0.08042193
-0.050114155 0.16806056 0.13439663 -0.0022977183 0.06954012 0.09049027 0.11285638 -0.13296618
0.115285456 0.18662404 -0.10357248 -0.19868699 -0.08769084 0.12718277 -0.17347889 -0.12973928
0.028317997 -0.033789445 0.15650113 -0.07329653 -0.00293269 0.0902368 -0.19426227 0.15061447
0.033872195 0.15081075 -0.063068315 0.19993274 -0.11088999 -0.19887164 -0.24919482 -0.09773491
0.08035013 0.010454072 0.035225093 -0.096396506 -0.018311698 0.15439422 -0.17685325 -0.14523928
0.06350589 0.14153486 -0.043089937 0.06625501 0.12128512 -0.20730422 0.10882531 0.019223507
0.21212514 -0.16258381 -0.010446833 -0.016144916 0.04368907 -0.09217633 0.21384113 -0.18003485
0.16788791 -0.13800499 0.13027692 -0.027995571 0.053246673 0.016324362 0.06891517 -0.006698591
-0.13959531 0.10664988 0.006146127 0.18866341 0.089216225 0.13471772 -0.08837503 0.10858271
-0.11608669 0.058285553 -0.045184955 0.06327565 -0.16948487 -0.13516833 -0.043738667 -0.044526912
0.074076176 0.16062795 -0.120075636 0.1722834 -0.10004203 -0.14649904 -0.044171978 -0.06350805
-0.047123194 0.042871356 -0.037113953 -0.06258414 -0.049690645 0.01332547 -0.10670793 -0.2069139
-0.16536877 0.033986896 -0.1186132 0.025030915 -0.010908884 -0.025503771 0.04319544 0.044573303
-0.0099004395 -0.051210463 0.029529437 -0.04985948 1.6010192e-05 -0.0043240353 0.020218764 -0.11593733
0.044694114 0.115563825 -0.07135825 -0.053007256 0.06831655 -0.0316009 -0.07360897 -0.1201495
0.103647195 -0.04552954 -0.12698501 0.12818865 -0.07642955 -0.08368078 -0.08716196 0.109470606
-0.00705043 0.035775144 -0.11168825 0.06506124 -0.088198416 0.044846386 -0.12736759 -0.037609197
0.08716842 0.0686703 0.02516473 0.04278625 0.10758639 -0.056871414 0.022843288 0.11579034
-0.17265451 0.0072896746 -0.0357424 0.0008974767 0.006813463 0.023407217 -0.082900144 0.00030928553
0.1563354 0.11049209 0.030848058 -0.1124976 0.019823471 -0.017217105 0.11374186 0.047734782
-0.12517396 0.053572867 -0.104577966 0.13402833 -0.021730551 -0.007022396 0.10386199 -0.07351836
0.08894869 0.13948326 -0.026429966 0.04234848 -0.075996794 0.039254397 0.14012833 0.07049661
0.057002347 0.03276401 -0.19271615 -0.050159633 0.03372308 0.004765412 0.19290775 0.07706972
0.20492904 0.11418657 -0.017575689 0.10121827 0.07874421 0.006421877 -0.015285882 -0.17977846
-0.14460835 0.14999565 -0.07510821 -0.14289726 -0.0071226936 -0.10209606 0.14317243 -0.11406487
-0.16902322 0.042249143 -0.03412457 0.15088631 0.121780515 0.11419621 -0.05458652 0.09422671
0.0146370465 -0.13235162 -0.010275515 -0.10589056 0.10932898 0.034422275 0.07020141 0.07623202
-0.11123535 0.003581062 0.04913537 -0.0551402 -0.015756825 0.095434 -0.05929731 -0.007869793
0.07288939 0.08443724 0.0053332667 -0.047822453 -0.043669865 -0.2616982 -0.11486379 0.014623086
-0.026611032 0.027853262 0.150899 0.006898849 -0.03996554 -0.12227108 0.12687702 0.17832185

model.rnn.bias_ih_l0 f4 [240]
00000000: 2acf e93d 81a6 a33d 170f 453b 6358 683d
00000010: dc50 c1bc 96d1 853b 3773 21bd 22fb ac3d
00000020: 3c48 32bd 32ba 183e 384d 57bd bc92 913d
00000030: 1f6c 2a3d 8251 083d 96fc 473e 4b8f 2c3e
00000040: ebee 743d b9f4 1b3c 8935 ca3d 755a 3bbd
00000050: ed15 0f3d 662d de3b 857b f13d c994 e23d
00000060: d033 5fbd 0bdd 2f3d 7210 24bd 578d 073e
00000070: 8ddb a5bc 93f7 983d 9b87 083d bb81 b9bd
00000080: a631 423e fe25 003e 27a4 ac3d 7834 003d
00000090: 5864 7c3d 44d4 9c3b 524a 8f3d 609d e63d
000000a0: 8816 473d 0029 cb3d 50d3 5cbd e8de 193d
000000b0: 4c9b 203e fcb2 863b c6b5 203e 3f4d 1abd
000000c0: 207b f3b9 589f 8d3c 633c 1c3d 3805 303e
000000d0: cc2f a6bd 0d80 4b3e ddb6 e23d ccb4 203e
000000e0: e020 193e f0a8 b43d 4c3b f4bc 618e 133e
000000f0: b2ab 08bd 9d0d 19bd 6ea9 b8bd 665d 51bd
00000100: 92e3 653d c07e 96bd aeb5 0e3d 5954 333d
00000110: 51d4 183d 4702 8abd ba4f aabd bfe2 e33d
00000120: 6828 2bbd 255b b5bd 8149 203e 40a5 c23d
00000130: 8604 f4bc 911f 223d 3f1b 33be 87a5 cc3d
00000140: 830f db3c fe2f 923d d301 1f3b 5ff6 84bd
00000150: b6bb 203e 76ea 6cbd 5ddc c23d b84b 933d
00000160: 7937 b3bd c85c 033e fba8 073e fee4 f73d
00000170: 18da 233d ac7f c53d b65f b4bd c45b d93d
00000180: 14bd 47bd 1908 86bc ffee 9bbc 310a 87bd
00000190: 0d8b a5bd b476 0abe 1986 8dbc d779 173e
000001a0: d16f 523d 8f5a 713d 1bd6 87bc dea3 053e
000001b0: 0886 e83b d2ae 173d 81c5 3e3d df73 9c3c
000001c0: 1e7c 94bc 933e 9fbd 117b a4bd f337 07bd
000001d0: 5fa0 c93c a3f6 f7bd 82a0 3e3d 164c 9d3b
000001e0: a34e 3d3d 6a96 b6bd 6252 243d 25dc 13bc
000001f0: 0f21 a3bc 999e 5b3d 4cf2 88bd 4130 c3bd
00000200: e177 83bb ed08 9a3d bd9b 013e e1e6 08bd
00000210: 8e57 b7bd 6697 16be a3d9 93bd e8be e53b
00000220: c253 2e3d e647 ca3c dc0b e2bc 9237 c7bd
00000230: c06b 093e d692 e63d a8b9 63bd 7f2e 493d
00000240: 14d3 2bbd 61db dcbc d303 343c fdab 7fbd
00000250: 20e8 ffbd e8e2 8a3d 46f5 ae3d 14ed f4bd
00000260: 0ca9 a13b 4d90 cd3d 0df1 ecbb b839 0a3d
00000270: dd83 903a cdf7 033e b16e 02be fdf6 033e
00000280: 3d91 c33c 88f8 1c3d 2896 e9bb 74d4 95bd
00000290: 2976 a73b 76ca 18bc e625 31bc 4ae1 e0bd
000002a0: 7378 003e 0745 8ebd 6a62 9a3d f969 db3c
000002b0: 0add 95bd b8a8 1ebb 093c f83c c1a4 9b3c
000002c0: d089 22bb 7999 c53d 790b e0bd fc86 e83b
000002d0: 7ea6 5ebd 8dfe f7bb 635f 95bd 8353 5dbd
000002e0: 7cca e93c 8150 42bc b015 a43d a6cf 1e3d
000002f0: d6c8 f8bc 31f9 2abc e315 75bb 7465 1e3e
00000300: 1f22 073c 86c6 b93d e949 443e 006a 4b3e
00000310: 44ef 8dbd b1b8 343d 3a97 2d3d 5e7e 563d
00000320: 2e15 98bb 7f1b 713c 459b 1b3e ee08 0c3e
00000330: 8967 8f3d 1da6 4e3c f2ab b13d 7dc3 3e3e
00000340: ac02 62bd 3d9e 163e b787 31bd 51dc 9e3d
00000350: 2e4d 47bd 193c 80bb 0463 1e3e c6c3 383d
00000360: 46b4 e43d 4456 73bc 6548 063e 4789 b83d
00000370: 9e75 56bd 6efe 9f3d a335 5abd 1656 a33b
00000380: 71f8 293e 1240 56bd 2111 3d3e 4aaa 893d
00000390: 0277 e43c 8fb4 0a3e e1ed bc3d 34ae 1cbd
000003a0: 149d 093e de9a 0d3e e52c 1e3d 36d9 dbbc
000003b0: a9a2 1f3e 9ae7 093d c3b8 063e 9223 8fbd
0.114164665 0.079907425 0.0030068809 0.056724917 -0.023598127 0.0040838225 -0.039416518 0.08446337
-0.04352592 0.14914778 -0.052563876 0.071080655 0.04160702 0.033280857 0.19529948 0.16851537
0.059798162 0.009518796 0.09873492 -0.045740563 0.03493302 0.0067803143 0.117911376 0.11063535
-0.05449277 0.042935412 -0.040054746 0.1323751 -0.020246292 0.07469096 0.03333245 -0.09057947
0.18964252 0.12514493 0.08429747 0.031300038 0.061619133 0.004786046 0.06996597 0.11260486
0.04860547 0.099199295 -0.05391246 0.037566096 0.15684241 0.004110692 0.15694341 -0.037671324
-0.00046440307 0.017287895 0.038143527 0.17189491 -0.08114585 0.19873066 0.11070035 0.15693969
0.14953947 0.08821285 -0.029813431 0.14409782 -0.033366866 -0.0373665 -0.09016691 -0.051114462
0.05612523 -0.073483944 0.034841232 0.043781612 0.037311856 -0.067387156 -0.08315988 0.11127233
-0.04178658 -0.08855275 0.1565304 0.09504175 -0.029787313 0.039580885 -0.17490862 0.09992509
0.026740795 0.0713806 0.0024262562 -0.06492304 0.15696606 -0.057840787 0.09514687 0.071921766
-0.08750815 0.12828362 0.13248055 0.12104224 0.040002912 0.09643492 -0.08807318 0.10613206
-0.048764303 -0.016361283 -0.01903486 -0.06593741 -0.080831625 -0.13521844 -0.017275857 0.14792572
0.051376168 0.058924254 -0.016581586 0.13050792 0.007096056 0.037031956 0.046575073 0.01909822
-0.01812559 -0.07775607 -0.080312856 -0.03301234 0.024612604 -0.12107589 0.04653979 0.00480033
0.046217572 -0.08915408 0.04011763 -0.0090246545 -0.019913225 0.053618047 -0.066868395 -0.09530688
-0.0040120934 0.07521234 0.12657066 -0.03342331 -0.089522466 -0.14706191 -0.07219245 0.007011283
0.042560346 0.024692487 -0.027593546 -0.09727396 0.1342001 0.112584755 -0.055596977 0.049116608
-0.041949347 -0.026960077 0.01098724 -0.06241988 -0.12495446 0.0678156 0.08542876 -0.119592816
0.004933482 0.10037289 -0.007230884 0.03374645 0.0011025626 0.12887497 -0.12737538 0.12887187
0.023872966 0.038322955 -0.0071284957 -0.07315913 0.0051105213 -0.009325614 -0.010812258 -0.109804705
0.12545948 -0.0694676 0.07538302 0.02678393 -0.073175505 -0.002420945 0.030302064 0.01899946
-0.002480138 0.09648413 -0.10939688 0.0070961695 -0.054357998 -0.0075681866 -0.07293584 -0.05403472
0.028538935 -0.011860014 0.08011949 0.038772248 -0.030369204 -0.010435388 -0.0037397079 0.15468389
0.008247881 0.090710685 0.1916882 0.19864655 -0.06930402 0.044121448 0.04238055 0.052366607
-0.0046411967 0.014716028 0.1519595 0.13675281 0.0700217 0.012612847 0.08675374 0.1862926
-0.05517833 0.147088 -0.04334232 0.07756866 -0.04865759 -0.003913414 0.15467459 0.04510858
0.11167197 -0.01485211 0.13113554 0.090105586 -0.052358262 0.078122005 -0.05327381 0.0049846275
0.16598679 -0.052307196 0.18463565 0.06721933 0.027888779 0.1354544 0.09225059 -0.03825207
0.13438827 0.13828608 0.038617034 -0.026836973 0.15589394 0.033668138 0.13156419 -0.069892064

model.rnn.bias_hh_l0 f4 [240]
00000000: 2b03 c1bd 0404 983d 4ae6 093e 37ed 11bd
00000010: 2f94 053e aaec e8bb 1c91 c43d 31e5 b63c
00000020: ba84 833d d4bc d13d ab5d c23d 6c51 babd
00000030: b32f 8b3c e484 173e 6755 333e 7fc3 42bd
00000040: a432 e73c b38b 413e 03f9 6a3d 7d01 d23d
00000050: 16f3 3b3d 07a3 ea3c 1bcc 1d3d 721b eb3d
00000060: 748c 1f3d e997 573d d1be 033d 59ad 6e3c
00000070: 095a 4f3c e120 4b3d 14a5 573c 91bc 54bd
00000080: b592 0a3e 3c79 183d 9a6d cc3d ed57 5bbd
00000090: 16ff a43d 9342 1cbb 5a55 35bc 5c09 b13d
000000a0: 671e 913b cff2 8dbd 5648 dc3d 1780 f83d
000000b0: 88f3 dcbb 5aec 193e 50c2 10ba b606 8a3d
000000c0: 1884 2d3e b180 2e3d e693 553d 023f 3f3e
000000d0: c942 95bd e0dc f13d d2c2 843d 17db a33d
000000e0: 3e2e b93c d400 3bbd b3fc 233c 3a72 0b3e
000000f0: 716e 5bbd fd63 d2bd b52e 6a3d e438 c9bd
00000100: 9265 09be b701 3b3d 3b97 323d 4ae3 963d
00000110: ba04 14bc 6c95 353d d4b8 ee3c 2fd0 53bd
00000120: ccee b1bd 631b 0f3e fd18 063e 6a36 acbd
00000130: ff08 0e3d 55e2 873d a751 eabd 725d a53d
00000140: 5edc d93d 5f0b 4d3d fd61 a03d cafc 6a3d
00000150: 03d3 a0bd 0d84 893d 7b31 c13d 2fbe 363d
00000160: c215 cfba 61fc c43d 765c edba 71f6 23ba
00000170: 05bb e4ba b4b6 993d eb8c aebc cb7b 39bd
00000180: 01cb dbbb 3427 1bbd 7778 e83d 8157 f63d
00000190: f402 c03d a340 c3bd c08e 0b3d db22 babc
000001a0: 73ea 9b3d 168b 99bd 8b35 c7bc 2764 593d
000001b0: 941d 0ebd 2be0 943c 544a 25bd 1f28 41bc
000001c0: 9fee 90bd c7f4 eb3a 3c0e 523b 04e3 083e
000001d0: 3f5a 62bc 2267 c43d a549 c5bd fa90 c2bc
000001e0: 450f 913d 5024 b9bd f8d0 043e 3a54 7fbd
000001f0: f378 8dbd 6681 44bd dbfd 503c e524 b43d
00000200: dec5 303c 5999 11bd 71a0 833d 9e30 e9bd
00000210: cfef 833d a321 d53d 6a0b 85bc d831 5abb
00000220: 1a8a 323d 7245 6b3d e4bd 71bd 4e73 ad3d
00000230: 4014 2fbd 56a3 933b a284 033d 9424 2bbc
00000240: 4cb7 a63d c730 d8bd 9d9a ec3c 7cca debd
00000250: 4f73 41bd 625f 2fbd f499 c83c df49 9cbd
00000260: ad7a 52bd e64d 51bd 3772 fc3b 2e9f bdbd
00000270: 2e2b dd3d f686 703c 168b dcbd 38b1 5bbd
00000280: c7f9 cebd f854 c2bd 9932 6f3d e91a 92bc
00000290: 1afe 2f3b aa26 bdbd 8a7b f23c 9b88 ac3d
000002a0: 4375 4fbd c496 a7bd ead0 18be 1555 a03d
000002b0: 73b9 c5bd 21f8 d8bd 1ed2 b0bd 59d7 08be
000002c0: 777b 6bbd 4b8e efba 98b4 26bb e89b a4bd
000002d0: 7670 533d 6afb f83d 3d9c 0a3e 7381 50bd
000002e0: f6b2 02bd 25f7 253d 4e83 b93d 1f77 a13d
000002f0: 68e7 eebc 06b0 c3bd 83df 57bd af57 97bd
00000300: 00d3 d43d 6c8e fd3c 7a56 113d c5dc 903d
00000310: fdc2 acbb 719d b03d a7d8 d4bc 390f c03d
00000320: a8b1 123e 1074 debc e752 953c 44e0 4f3e
00000330: 433d 533c df42 3bbd 1f1a 083d 7996 fbbc
00000340: 5fcb cf3d c2e0 f8ba cf57 723d 260b 043d
00000350: f557 b83d 0e02 223d 16e3 473e 1889 b5bb
00000360: 0486 34ba 4572 8abd 6477 a6bd 686e 49bd
00000370: 4694 09bd bf5b 20bc c7dc 233d a542 42bd
00000380: ddea 963d 80e6 5bbd 1628 ee3d 80c9 20bd
00000390: 59a1 fc3d 3631 96bd f9e4 79bd db95 cf3d
000003a0: d14d 043e 630c 2dbd 7bbc 233e 0003 80bd
000003b0: 16ff ef3c 1fa8 fa3c a7e4 123e 6cb9 b03d
-0.09424432 0.07422641 0.13466755 -0.035626616 0.13044809 -0.0071082907 0.0959799 0.022326084
0.064218 0.10241094 0.09490522 -0.09097561 0.016990518 0.14796788 0.17513047 -0.04754972
0.02822239 0.18900947 0.057366382 0.1025419 0.04588612 0.02864219 0.03852473 0.11479844
0.038952306 0.052635107 0.0321644 0.0145676965 0.012655743 0.049591903 0.013161916 -0.051937643
0.13532527 0.037224993 0.09981842 -0.05355065 0.08056466 -0.0023843392 -0.011067713 0.08644363
0.004428673 -0.06931078 0.107559845 0.12133806 -0.0067428984 0.15031567 -0.0005522119 0.06739561
0.16944921 0.0426032 0.052143 0.1867638 -0.07288129 0.11809707 0.064824715 0.080007724
0.022605058 -0.045655087 0.010008979 0.13617793 -0.053572122 -0.102729775 0.05717345 -0.09825304
-0.13417652 0.045655932 0.043601256 0.07367571 -0.00903433 0.044331953 0.029140867 -0.05171221
-0.08688125 0.13975291 0.1309547 -0.08408816 0.034676548 0.06634966 -0.11441355 0.08074464
0.10637735 0.050059672 0.0783119 0.057369985 -0.07852747 0.0671464 0.09433266 0.044614967
-0.0015799331 0.0961845 -0.001810922 -0.0006254679 -0.0017450756 0.07505551 -0.02130743 -0.045284074
-0.0067075496 -0.037879184 0.11351102 0.12028409 0.09375563 -0.09533813 0.034071684 -0.022721699
0.07613077 -0.07497232 -0.024317523 0.05307403 -0.034696177 0.018173298 -0.040354088 -0.011789351
-0.07076763 0.0018002026 0.0032051941 0.1336785 -0.013815462 0.095899835 -0.09633187 -0.02375077
0.070829906 -0.09040129 0.1297034 -0.062336184 -0.06907835 -0.047974966 0.012755836 0.087960996
0.010789363 -0.035546634 0.06427086 -0.11386226 0.06442224 0.10406806 -0.016240794 -0.003329387
0.043588735 0.057439275 -0.059018984 0.08469258 -0.04274392 0.004505555 0.03210891 -0.010445733
0.0814043 -0.105561785 0.02888232 -0.108784646 -0.047229107 -0.042815574 0.024487473 -0.07631277
-0.051386524 -0.05109968 0.007704045 -0.09258877 0.107992515 0.014680615 -0.10768716 -0.053635806
-0.10106235 -0.09488863 0.058397863 -0.017835097 0.0026854337 -0.0923589 0.029599924 0.08424493
-0.05064894 -0.08183053 -0.14923444 0.07828728 -0.09654512 -0.10594202 -0.08633827 -0.13363399
-0.057490792 -0.001827666 -0.0025437232 -0.08037549 0.051620923 0.121573284 0.13536163 -0.050904702
-0.03190895 0.0405189 0.090582475 0.07884049 -0.029163077 -0.09555058 -0.05270339 -0.07389771
0.103918076 0.030951701 0.03548286 0.070733584 -0.005272268 0.086237796 -0.025982214 0.093779035
0.14325583 -0.027154952 0.018228007 0.20300394 0.012893024 -0.04571807 0.033228036 -0.0307114
0.10146212 -0.0018987881 0.059165772 0.032237194 0.090011515 0.03955274 0.1952022 -0.0055400245
-0.0006886425 -0.067600764 -0.08128241 -0.049177557 -0.03358867 -0.009787499 0.04000547 -0.04742684
0.07369015 -0.05368662 0.116287395 -0.039254665 0.12335462 -0.07333605 -0.06100938 0.101360045
0.1292031 -0.04224814 0.15989868 -0.06250572 0.02929644 0.030597745 0.14345036 0.086291164

model.rnn.weight_ih_l1 f4 [240, 60]
00000000: 2895 f93d 79f6 043d 2e39 c23d bd72 74bd
00000010: 76a2 09ba 5732 43bd fe2a fcbd c8e2 263e
00000020: f406 84bd 0ee0 4dbe 8f6b d7bb 4256 b9bd
00000030: a33a 153e 6c95 533d b230 09bc c113 c93d
00000040: 7a45 a63d 1986 003d a1ca a43d ec3b 67bd
00000050: 6e3d 973c 36ee 243d 6057 573d d963 3d3e
00000060: c20c 383e 1953 573b 6550 e8bc c5cd 0bbb
00000070: 618e 00be a40e 443e 8214 54be 18b4 c53b
00000080: 0481 be3d d0d3 63be 21c1 4fbd fd9d b8bd
00000090: 91f6 cc3b e328 933c 0db5 0cbc 4d04 aa3d
000000a0: bf3a 13be f0a1 993d aa8a d1bc 0ce6 2e3e
000000b0: bf61 15be 8cad 3fbe 9f32 163d bfc3 3abe
000000c0: 6300 993c cac2 95bc 7b76 6cbd 6a8e efbd
000000d0: 2c34 98bc 774e b7bd eafc bd3c 8e6c 8ebd
000000e0: 3a6f 083e 3a29 bdbd 343b dbbd 4a90 e13d
000000f0: 967a 253e dbd1 f53d 0091 0a3e 2635 ae3d
00000100: b269 7b3c b9ef 813d 1bd5 263b dedd 683c
00000110: 5a8e 4cbd fe52 3f3c fa5f 26bc 9380 e83c
00000120: 0812 043e b524 a83c 20f5 31be f5e8 edbd
00000130: 7080 6c3d 57a5 8b3d 9a15 4dbc afa7 92bd
00000140: 4be8 eebc 0eb5 aebd 89a5 273c fd33 c1bd
00000150: 2e7d c13d fba7 0abe 0207 f73c 6041 a8bd
00000160: eb74 fbbd d510 a0bd 1e8f 46be 7b4b f2bd
00000170: 4ba5 893d e289 f4bd c0ad c0bd 8256 04bb
00000180: c2ec 0c3b ace1 f8bc b189 13bd 42bc 13be
00000190: d167 da3d b878 fdba c1d1 c03b c93c bb3c
000001a0: a53a 8c3d 9e16 e8bd 4392 33bb e079 20be
000001b0: ef61 04be a34f 01bd 4f2a 153e 5fac 833d
000001c0: 6689 683d fcff 273c 7314 2a3d 567b ac3d
000001d0: 76ea af3d 850c e43d 063e b7bd f223 e13d
000001e0: b05b 37bd 5f77 f73d 9a25 183e f565 7abd
000001f0: a90b b53d 00dc dbbd 899a bfbd 86b3 00bc
00000200: 8c2f 25be 145b 1abe 7335 bb3d afe0 21bd
00000210: 3a84 783d d9b7 893d 3417 193a e79e dcbc
00000220: d035 153e baf8 103e fc46 013e d330 26bd
00000230: 98d6 0f3e 3c89 a33d af56 13bd 20e9 cd3c
00000240: 7b03 82bd 0eee f73c 6d15 3abd 463c b1bd
00000250: 3daa e9bd 5c71 5c3d 9cf3 e03d 1eed 773d
00000260: 87eb fd3d e5a5 dfbd 152f ffbd 77bf 10be
00000270: 13e3 c1bd 7a1d 163e 9be9 b73d ac7a 31bd
00000280: 4623 233c c129 efbb b1e4 ad3c a3cd 063e
00000290: 3045 30ba fa8d 94bd ea58 073d 463f 28be
000002a0: 1de2 a33c 15ca 9e3d c47d b5bd ee9e 213d
000002b0: 5b26 5f3d 4afb bbbd 97d2 a3bc 4dc1 eebd
000002c0: f4f2 cc3d d727 c73d 595f 983d fb48 2e3d
000002d0: fd8f 313e 7c1f 833d 6f44 263e d6ab 35bd
000002e0: f67e 4c3e 4c63 47be 89e6 3f3d e9aa 16bd
000002f0: 3f91 383d e101 14be f986 d53d ec4e 17be
00000300: a21c 0d3e 1307 d33c f1b6 8ebc 6ed6 53bd
00000310: 7eac 133e 68d4 643d e1de 873b d91e d1bd
00000320: 48b1 903d 2041 e63d 5116 113e 56d7 61bd
00000330: d1a0 903c 40ef 083d c089 ffbd d510 3cbe
00000340: 2226 bebd 7a58 18bc 54b4 29bd ce17 47be
00000350: 1786 26be d715 2fbe 39ab b83d f388 4abe
00000360: 98a0 77bc 70e6 313d 0f4d eebc 99f1 0e3e
00000370: cbdd 09bd bbf1 1c3e faa6 d6bd 8ff0 a43d
00000380: be6c 89bd d104 82bc 9ac0 cfbd 3bf3 3fbd
00000390: 3603 0c3d 96ad 19be e6be e5bd 443f e03d
000003a0: b135 45be 9ac8 e23c bc25 3ebe 9b29 bbbc
000003b0: d76b b33d b744 00bd b44a 6c3c 282c 3f3e
000003c0: 0850 463e 3eb5 153e 9f0c c13d 54c2 a6ba
000003d0: 788c 313e 1903 15be 3e5d ae3c 5a70 233e
000003e0: 9730 cc3c 5df8 d6bd 32e3 c33d a05e 49bd
000003f0: 3827 2d3e 1d3c 4e3d 94f9 8a3d 2bc2 693d
0.121866524 0.032461617 0.094835624 -0.059679735 -0.0005250344 -0.04765543 -0.123128876 0.16297448
-0.06446639 -0.20105001 -0.0065741013 -0.090496555 0.1457315 0.05165617 -0.008373426 0.09818221
0.0811872 0.031377885 0.08046461 -0.05645363 0.01846191 0.04026624 0.05257356 0.1849512
0.17973617 0.0032855927 -0.028358648 -0.0021332365 -0.12554313 0.1914621 -0.20710948 0.0060334317
0.093019515 -0.22248769 -0.05072129 -0.09014509 0.006254979 0.017963832 -0.008588088 0.083016016
-0.14377879 0.0750159 -0.025578815 0.17079943 -0.14588068 -0.18718547 0.03666937 -0.18238734
0.018676942 -0.01828136 -0.05773018 -0.11697085 -0.018579565 -0.08950513 0.023191888 -0.06954299
0.1332368 -0.09236379 -0.107046515 0.11013849 0.16160044 0.120029174 0.13531876 0.08506231
0.015345024 0.063445516 0.002545661 0.0142130535 -0.049940445 0.011677502 -0.0101547185 0.028381621
0.12897503 0.020525316 -0.17378664 -0.11616699 0.057739675 0.068186454 -0.012517357 -0.07160889
-0.0291635 -0.08530627 0.010232338 -0.09433744 0.09447704 -0.13540642 0.030154709 -0.08215594
-0.1227816 -0.078157105 -0.19390532 -0.11830803 0.0672098 -0.119403616 -0.0940814 -0.0020193164
0.0021503423 -0.030381046 -0.036019985 -0.14427283 0.10664333 -0.0019338345 0.0058843796 0.022856133
0.06847123 -0.11332439 -0.0027400411 -0.15671492 -0.12927984 -0.031570088 0.1456692 0.064293616
0.05677166 0.0102539025 0.04152341 0.08421962 0.08589642 0.111352004 -0.08947377 0.10993184
-0.044765174 0.12083315 0.14858094 -0.06113239 0.088401146 -0.10735321 -0.09355647 -0.007855302
-0.16131419 -0.15073806 0.09141054 -0.039520916 0.060672976 0.06724519 0.00058399444 -0.02693124
0.14571309 0.14157382 0.12624735 -0.040573906 0.14046705 0.0798516 -0.03597134 0.025135577
-0.0634832 0.03026488 -0.04543059 -0.08654074 -0.114094235 0.053819045 0.10983965 0.060528867
0.12398439 -0.10920314 -0.12460152 -0.14135538 -0.09467139 0.14659682 0.089801036 -0.04332988
0.00995714 -0.0072986786 0.021227213 0.13164382 -0.0006724177 -0.072536424 0.03304378 -0.16430387
0.02000528 0.07753388 -0.088618785 0.039458208 0.054479938 -0.09178789 -0.019997878 -0.11657963
0.10007277 0.09724396 0.07440061 0.04255007 0.17340083 0.064024895 0.16237043 -0.04435333
0.19970307 -0.19471473 0.046850715 -0.036784086 0.045060392 -0.14453842 0.104261346 -0.147762
0.13780454 0.02576021 -0.017421218 -0.051718168 0.1442127 0.05586663 0.0041464423 -0.10210962
0.07065064 0.1124289 0.1416867 -0.055137 0.017654808 0.03343129 -0.124774456 -0.18365796
-0.09284617 -0.009298438 -0.04143174 -0.19442675 -0.16262089 -0.17098175 0.09017033 -0.19778804
-0.015113972 0.043432653 -0.029089479 0.1395935 -0.033658784 0.15326588 -0.10481067 0.080536954
-0.06710194 -0.015871437 -0.10144158 -0.046862822 0.03418275 -0.15007624 -0.112180516 0.10949567
-0.19258763 0.027683545 -0.18569082 -0.022846987 0.08760803 -0.03131553 0.0144221075 0.18669188
0.19366467 0.1461992 0.094262354 -0.0012722709 0.17338741 -0.14551963 0.021284696 0.15960827
0.024925513 -0.1049659 0.095648184 -0.049162507 0.16909492 0.050350297 0.067858845 0.05706994

model.rnn.weight_hh_l1 f4 [240, 60]
00000000: 9a92 25be d0f3 11bc 50f4 873d 64cc cdbb
00000010: 6155 943d 0e38 7f3c 2a5f 383e 29fa 2e3e
00000020: 3b39 87bb 237f c5bd e3d6 4cbd 62d0 6ebd
00000030: cb49 bb3b 9a28 123e 6d34 0a3d c78b 683d
00000040: 83e5 f0bd 64d6 333e 7a4a 17be 6cdb 873d
00000050: ce4e 503d cf68 823c e793 4c3e 5ef1 033e
00000060: eeae 213d e353 143d 2e84 0abd 67a4 d83c
00000070: d31c 5bbd 54f8 d23b 8d44 3b3d 62b8 1f3e
00000080: 8e9a 343d ff79 92bd 1312 043d 6bc1 013e
00000090: 298d 103d 41fd 7cbd bb2a 603d b9c7 b23d
000000a0: d1a2 013e abad 34be fedb 273d e96d 2fbd
000000b0: a57b 653d 03c8 2dbe 3806 0cbe d823 d438
000000c0: efae 28bc 3111 fd3d 50cf 81bd 6dc8 97bd
000000d0: 79d0 0a3e 494c ecbd ede6 f3bc 75ae f03d
000000e0: 51f5 483d 354b 203d a234 4e3d ee7c 1a3e
000000f0: acab f43d 0f65 01bd 227e bb3c f68b 87bd
00000100: d166 b9bd 0bc2 85bd ab59 40bd 8e4f a9bc
00000110: d683 e63d 6c73 5fbd 1076 aabd e10d cabd
00000120: 9ab0 4e3d bb21 8037 c00b 153d 8112 fb3d
00000130: caf0 e63d f4d4 c3bd 215e 33bd 4384 9e3d
00000140: 79f2 e8bd ba14 c73b 2ffa 21be 5bf4 50bc
00000150: 4317 f8bd 6e6f efbc 1a35 cabd 1b53 dd3d
00000160: 7d4c 6c3a b6cb 7b3d 9e88 a7bc 9df8 933d
00000170: 2c8c d1bd 3e85 5ebd abdd b53d fd9c 82ba
00000180: c7ce 423c 829a 77bc f99e 06be a5f6 f1bd
00000190: 87af 123d 40e8 ce3d 1796 8ebd fdff 9e3d
000001a0: 94a8 933d 289a 77bd 8456 843b 8fb7 aebc
000001b0: bc54 a03d cfbe 393d 06ed 813d bff4 ddba
000001c0: ce3c d7bd f5dd a73d 1cde d23c c411 5e3d
000001d0: 1293 e8bd c6ee 8fbd 5500 853d edf8 ab3d
000001e0: de44 9d3d 205f b63d 550d c83d e8ae 8a3d
000001f0: dc5f 83bd 818b b0bc fcc9 c93d 75bb 56bc
00000200: 6aeb 06be 0a76 aa3d ef4e 883d 374d ac3d
00000210: 7f83 c53d 7a84 80bd 095e 983d f6de d83a
00000220: e495 613d 55cb 8e3c 1c7d bb3d 9b8d 41bc
00000230: 67da 0c3e 90d2 f83c c3ac f73d d14f 11bc
00000240: 51fc 94bc 8325 4dba 46ad ca3d 9226 6f3d
00000250: f635 4f3b 7b0e 92bd 331a bbbd a911 8f3d
00000260: 81f4 ce3c 3d3d b4bd 93a1 16be f768 f6bc
00000270: a1bd c6bd 8a23 663c e795 853c 2ec5 c2bd
00000280: fb1f 923d a925 993d 66ba b03d 4da1 0bbe
00000290: ca2e 0b3e 0ef6 08be cb3b 2dbd ed3d bdbd
000002a0: 6b96 a43d b535 1cbd fd50 babd eeb8 c53d
000002b0: 7ba4 cc3c d0c4 a03d db85 8c3d 57d6 d33c
000002c0: 5eef fcbd 1862 f9bd e708 17be 815c f73d
000002d0: d06f 64bd 5ee1 c73c 48e3 213e 30d9 46be
000002e0: 7eea dabc 3ab1 22be 1573 0c3e d7cf 1d3e
000002f0: a5b1 783c 5890 1bbe 9332 f3bd 28cd e0bd
00000300: 5c33 5e3d 67ea d23d d2aa 17bd 5449 863d
00000310: 7322 073c 5d4f 243e 7b38 19bc 8b93 133e
00000320: cad4 bf3d 0627 a03d 45e6 813d 8480 343e
00000330: 6077 98ba 77fc e4bc 4d69 cc3d c0a7 d6bd
00000340: cc56 613d b1ce 2e3d 8418 2abd 24ba 0e3d
00000350: 6034 583d 5963 f3bd 93a7 ecbd ff4d 28bc
00000360: e14d cd3c bb5e 023d c8e1 f3bc 48d1 0b3e
00000370: f2ac 7e3c f029 14be e41a 8f3c 29a7 46bd
00000380: 7b3e 0d3e dc74 19be 6b7f a13c 03ce 323e
00000390: d83b 5b3d 7954 813c fb2a 13be 4c7f adbd
000003a0: 8b90 7bbd 558f c9bd 9c1d 323d 7b28 0ebd
000003b0: 773f 953d f43f 86bd 1295 21bd fda3 253d
000003c0: c818 75bc 4cb3 61bd 6b4a 57bc 6f5c f23d
000003d0: e509 0f3e 6d49 713d 4c5a 933d 0994 0c3e
000003e0: 2904 84bd 7412 0fbe 6220 413d aa17 c23d
000003f0: e43f ac3d 5449 d43d d171 403d 1d77 57bc
-0.16169205 -0.008908227 0.06638396 -0.006280469 0.07242847 0.015577329 0.18005052 0.17087616
-0.0041266955 -0.0964339 -0.05000962 -0.058304198 0.005715584 0.14273301 0.033741403 0.056773927
-0.11762526 0.17562252 -0.14774504 0.06633648 0.050856404 0.015919117 0.19978295 0.12885043
0.039473467 0.036212813 -0.033817463 0.02644558 -0.053494286 0.0064382944 0.045719672 0.1559768
0.044092707 -0.07152175 0.0322438 0.1267144 0.03529087 -0.06176496 0.05472825 0.087295
0.12659766 -0.17644374 0.040981285 -0.042829428 0.05602612 -0.1697083 -0.13674247 0.00010115624
-0.010295614 0.123567946 -0.0633837 -0.07411275 0.13556089 -0.11537988 -0.0297732 0.11752025
0.049062077 0.039134223 0.050343163 0.1508672 0.11946806 -0.031590518 0.022887293 -0.06618492
-0.09052814 -0.065311514 -0.046960514 -0.020667817 0.112556145 -0.054553434 -0.083233 -0.098659284
0.05046139 1.5274496e-05 0.03638816 0.12259389 0.112763956 -0.09562102 -0.04379094 0.07740071
-0.11374373 0.006075469 -0.15818094 -0.012753571 -0.12113812 -0.029227939 -0.098734096 0.10806867
0.0009014083 0.06147357 -0.020450886 0.072251536 -0.10231814 -0.05432629 0.088801704 -0.0009964999
0.01189012 -0.015112521 -0.13146581 -0.11814622 0.035811927 0.10102892 -0.06962221 0.0776367
0.07209888 -0.06044975 0.004038634 -0.021327762 0.07828662 0.045347985 0.06344037 -0.0016933902
-0.105096444 0.08196632 0.025740676 0.05421616 -0.113561764 -0.07027964 0.06494204 0.08397088
0.07679151 0.089048624 0.09768168 0.06771642 -0.06414768 -0.021550896 0.098529786 -0.013106217
-0.13175741 0.083232954 0.066556804 0.08413165 0.096442215 -0.06275268 0.07439811 0.001654594
0.055074587 0.01743094 0.09154722 -0.0118135465 0.13755189 0.030373842 0.120934986 -0.008869127
-0.01818672 -0.0007825719 0.098963305 0.058386393 0.0031617857 -0.07131668 -0.091358565 0.0698579
0.025263073 -0.08800743 -0.14710073 -0.030079348 -0.097041376 0.014046559 0.01630683 -0.09510265
0.07135006 0.07477886 0.08629303 -0.1363575 0.13592067 -0.13375112 -0.04229335 -0.09240327
0.080365025 -0.038137157 -0.090974785 0.09654413 0.024980774 0.07850039 0.068614684 0.025859041
-0.12350343 -0.12176913 -0.1474949 0.120781906 -0.055770695 0.024399456 0.15809357 -0.19418788
-0.026723143 -0.15887919 0.13715775 0.15411316 0.0151790725 -0.15191782 -0.11874881 -0.109766304
0.0542482 0.10298615 -0.03702814 0.06556955 0.008247959 0.160459 -0.009351845 0.14411752
0.09366758 0.07819943 0.063427486 0.1762715 -0.0011632256 -0.027952416 0.09981022 -0.104812145
0.055014417 0.042677585 -0.041527286 0.034845486 0.052784324 -0.118841834 -0.115554 -0.010272502
0.02506155 0.031828623 -0.029770747 0.13654053 0.015544163 -0.14469123 0.017468877 -0.04849926
0.13793366 -0.14985985 0.019714078 0.174614 0.05352387 0.01578735 -0.14371864 -0.084715456
-0.061417144 -0.098417915 0.04348527 -0.034706574 0.072874956 -0.06555167 -0.039448805 0.040439595
-0.014959522 -0.05510263 -0.013140301 0.118340366 0.13968618 0.058907915 0.07194957 0.13728346
-0.06446106 -0.13971883 0.047150023 0.0947717 0.08410624 0.10365549 0.046983544 -0.013150957

model.rnn.bias_ih_l1 f4 [240]
00000000: dbbb 1d3e 223a df3d 8fc5 083e 06ce c7bc
00000010: 1922 10bd d4ca c53c dbec ec3d dd2f b83c
00000020: 047c 8a3c b00b 93bd d630 313e 8a2b d43c
00000030: 31b3 1d3d d181 c7bc 69e7 74bd 96b8 a1bd
00000040: d5b2 9cbd 273d 6abd bde8 06bd df03 433e
00000050: 3553 82bc 06d3 0e3c af45 d93d bb16 523a
00000060: 931c 123e ae4c ffbb 7fb9 513e be65 013e
00000070: 7ae0 da3d 886c 073e cd3c 1bbc 765b 12bd
00000080: d74b 033d 357e b63b d355 4e3d 5263 da3d
00000090: 3c33 6e3d 3666 463d a1c9 52bc e1ce 48bd
000000a0: acc1 093e dc6b 0abd 887a 87bc a146 0d3e
000000b0: 80de 0a3e a2b0 bd3d 3b81 e33d 8482 c7bb
000000c0: 3455 ac3d 0ff2 84bd 1368 c1bc 6f85 913b
000000d0: 42ba d5bb be3e 273e e8a7 cdbb 0b99 283e
000000e0: eb4d 103e 7767 313d 57f7 743d 4f54 083e
000000f0: 9343 99bd eb20 ae3d 758c 20bd dae4 413d
00000100: a0ed 8ebd 3980 0b3b 7329 be3d 011c 5ebd
00000110: 7a6f 5e3c 7206 b63d 5213 9a3c 1c24 ff3c
00000120: 7bdb ebbd 193d c7bd 462d c5bd c77b a7bd
00000130: 6af7 45bb 4a80 7cbd 211d dc3d 6df6 8d3c
00000140: 38c6 ca3d 72ce 9e3d a550 01bd 0c2c bfbd
00000150: d819 d0bd 7a26 073e dd49 803d 2253 cdbc
00000160: f25f af3d 3b4e b13d d3cb fdbd 2c89 d6bd
00000170: 5145 aa3d c8e2 0e3d 4248 873d 8f01 e53d
00000180: 6ab7 b2bc 80d0 c2bb 8cf5 a23d 8e82 f23d
00000190: d22e 7bbd e1d8 92bc c2b0 84bb d102 153e
000001a0: 1f6f 22bd af0f 33bc 9570 613d de5e bebc
000001b0: 0f5e e3bc 8d3b 81bd c539 a93d 1e47 4dbd
000001c0: ae88 083e b3c5 b4bd f667 94bd dea0 003e
000001d0: f402 afbc 373a d83d c385 87bd f0ed 35bd
000001e0: d226 0f3d 524f d8bc fd79 ab3d 398c 50bd
000001f0: c23f adbd da1e 54bd 719e 953d 35f9 5bbc
00000200: 8d1c 6a3d 1400 1ebe 87a7 7ebd 50a6 f33c
00000210: 3ab4 16bc 688e 643d 16b0 0d3e 771b 5bbb
00000220: 9751 d8bd fffd b73d 1186 4c3c ee40 e23d
00000230: 395f f63d 57e9 c33c 37c3 b93b fded 483d
00000240: 1566 543d eef4 8a3d eba5 763d d301 40bb
00000250: 9900 9fbd 47a4 6a3c dfc9 043e e7b2 9bbc
00000260: 04ca c03d f8e0 c6bd 3818 efbd 5831 e8bd
00000270: 244e c4bd 8c7c b53d e0d3 a9bd 8430 b73c
00000280: 348b cfbd 3b59 753d 3ad9 9e3d b54e b73d
00000290: cd4c ed3d 36e0 333d 905b 3f3b 6549 cdbc
000002a0: d9ca e2bd 3d9a d43d 82b0 b3bd 0dca 6f3b
000002b0: 7c74 33bd 8843 1ebd b983 493d 10d4 e0bb
000002c0: 9820 063d 4b51 02bd 5259 f9bd 1cde 8a3d
000002d0: 3cb4 9b3c f6d1 223c 5a7e 903d 8bff a93c
000002e0: c889 423d cbe5 a43d ea82 5f3e 10e9 033e
000002f0: d9a1 2b3e b766 713d 5183 1d3d 864f cdbc
00000300: e418 063e 05c4 94bd 8b0c 04bd 0a0c 053e
00000310: b3e0 57bd e6d0 a3bd a26c 1c3d 9994 d83d
00000320: 4cec 283e 3476 c1bd c2fe 0e3e c0fe 2f3e
00000330: 2c6c 4ebb bd20 5c3d bee2 a43d 39e4 94bd
00000340: b48b 823d f8a3 973d 22e1 0cbd 1a92 b63d
00000350: 6654 df3d 54cb 3bbc d1a3 653d c2ea 823d
00000360: 06b2 183e b72c fb3d a4b1 da3d 5a60 65bc
00000370: cbef e23d e739 b2bd ca04 433d c30b 0d3e
00000380: edeb 1b3e 5748 19bd 5e3f 553d 3442 9bbd
00000390: 315e 19bd 1d2c 293e c0c2 cd3d dae0 293e
000003a0: e6b2 053e c599 ac3d b1cc a8bd ed8c 5e3d
000003b0: 5a72 063e e21f 6dbd bb49 64bd 3f69 15bd
0.15403692 0.1089976 0.13356613 -0.024390232 -0.035188768 0.024144568 0.11568614 0.02248376
0.016904838 -0.071799636 0.17303786 0.025899667 0.03850097 -0.024353893 -0.059791002 -0.07896535
-0.07651297 -0.057187226 -0.0329368 0.19044445 -0.015908817 0.008717304 0.10608994 0.00080142514
0.14268713 -0.0077911234 0.20480917 0.12636468 0.10687347 0.13224995 -0.009474945 -0.035731755
0.03205475 0.0055692443 0.050374817 0.10663475 0.05815433 0.04843732 -0.012865455 -0.04902542
0.13452786 -0.03379427 -0.01653792 0.13796474 0.1356144 0.09262206 0.11108633 -0.0060885567
0.08414689 -0.064914815 -0.023609197 0.0044409554 -0.006522448 0.16332528 -0.0062761195 0.16464631
0.14092223 0.043311562 0.059806194 0.13313411 -0.07483592 0.08502372 -0.03919645 0.04733739
-0.06978917 0.0021286143 0.092852496 -0.054225925 0.013576383 0.08887948 0.01880804 0.031145148
-0.11516472 -0.0972845 -0.09627776 -0.081779055 -0.0030207285 -0.061645783 0.107477434 0.017329419
0.099010885 0.0775422 -0.03157105 -0.09334573 -0.10161179 0.13198271 0.06264088 -0.025064055
0.08563222 0.086574994 -0.12392392 -0.10475382 0.08314002 0.034884244 0.06605579 0.11181938
-0.021815974 -0.0059452653 0.079569906 0.118413076 -0.06132395 -0.017925682 -0.0040493915 0.14551856
-0.039656755 -0.010929032 0.055039007 -0.023238596 -0.027754812 -0.063101865 0.08262972 -0.05011665
0.13333389 -0.08826771 -0.072463915 0.12561366 -0.021363713 0.105579786 -0.0661731 -0.044416368
0.03494913 -0.02640501 0.08372877 -0.050914977 -0.084594265 -0.051787235 0.07305611 -0.013426115
0.057156134 -0.15429717 -0.062171485 0.02974239 -0.009198243 0.05579987 0.13836703 -0.0033433118
-0.10562437 0.08983993 0.012483136 0.110475406 0.12029881 0.023914976 0.0056690234 0.04905509
0.051855166 0.06784998 0.060216825 -0.0029297962 -0.07763786 0.014321393 0.12967633 -0.019006206
0.094135314 -0.09710878 -0.11674541 -0.113375366 -0.09585217 0.08861646 -0.08292365 0.022362001
-0.10133973 0.05989955 0.077562764 0.08950559 0.11586914 0.043914996 0.0029198863 -0.025059411
-0.11073846 0.10380981 -0.087739006 0.0036588938 -0.04381226 -0.03863862 0.049197886 -0.0068612173
0.032745928 -0.03181581 -0.121752396 0.06780645 0.01900684 0.009937754 0.0705535 0.020751735
0.04749468 0.08051642 0.21827284 0.12881875 0.16760959 0.058935847 0.03845531 -0.025062334
0.13095433 -0.0726395 -0.032238524 0.12992874 -0.052704524 -0.079988286 0.038189538 0.10575218
0.1649639 -0.094463736 0.1396437 0.17187023 -0.003149758 0.05374216 0.0805106 -0.072700925
0.063743025 0.074043214 -0.03439439 0.089145854 0.109047696 -0.011462051 0.05606443 0.06392433
0.1491166 0.12264388 0.106784135 -0.014000023 0.11080893 -0.0870245 0.04761199 0.13774018
0.15226717 -0.037422504 0.052062385 -0.075809866 -0.037443344 0.16520734 0.10046911 0.1658968
0.13056526 0.08427767 -0.08242167 0.054333616 0.13129559 -0.057891734 -0.055734377 -0.036477324
