checkpoints/epoch=1-step=100-v9.ckpt (torch, 621663 bytes, 33 tensors)

model.param_proj.proj.0.weight f4 [1, 60]
0	0x3dfbb60f	0.12290584
1	0xbdc288fe	-0.094987854
2	0x3e488988	0.19583714
3	0xbde3a17a	-0.111147836
4	0x3e6751f9	0.22589864
5	0x3de04a20	0.10951638
6	0x3dd18e28	0.10232192
7	0xbd5bdeee	-0.0536794
8	0x3d997f83	0.07495024
9	0xbe016b1d	-0.12638517
10	0x3e2d4022	0.16918996
11	0xbcb995ea	-0.022654492
12	0x3dd4ee9c	0.103970736
13	0xbce45ec3	-0.027877217
14	0xbd4c84b9	-0.04993126
15	0xbc50134b	-0.012699912
16	0x3d8f0cd5	0.069848694
17	0x3e54b2f7	0.20771395
18	0xbdb5ed8b	-0.08883198
19	0xbe5892c1	-0.21149732
20	0x3e377b30	0.17918086
21	0x3e62d4ae	0.22151443
22	0x3d859a27	0.06523543
23	0xbe2fc8cf	-0.17166446
24	0xbe4f3d1f	-0.2023816
25	0xbe32c3b0	-0.17457461
26	0x3e138c3c	0.14408964
27	0xbe0bad11	-0.13640238
28	0x3d9acb52	0.075583115
29	0x3d999028	0.07498199
30	0x3dcaedd4	0.09908643
31	0x3da4e947	0.080523066
32	0x3e0e417d	0.1389217
33	0xbdbfdc07	-0.09368139
34	0xbe48f232	-0.1962364
35	0xbd4511b1	-0.048112575
36	0x3e0bfb05	0.13669975
37	0xbc4f56f2	-0.012655007
38	0x3d9f0332	0.07764281
39	0xbdd5f5bf	-0.10447263
40	0xbe17368c	-0.14766902
41	0xbe32bc9c	-0.17454761
42	0x3d203702	0.03911496
43	0xbe09ecc9	-0.13469233
44	0x3e339ca8	0.17540228
45	0xbe3f545a	-0.18684521
46	0x3c4c5a72	0.012472736
47	0xbe1d8a58	-0.15384805
48	0x3dc160b4	0.09442273
49	0x3e145282	0.14484599
50	0x3d3abebc	0.045592055
51	0x3d7c8e1d	0.061658967
52	0x3c53c863	0.012926194
53	0x3d862316	0.06549661
54	0x3e195592	0.14974049
55	0x3e16a935	0.14712985
56	0x3e170516	0.14748034
57	0xbdd0d489	-0.10196788
58	0x3e47f702	0.1952782
59	0x3d55a710	0.052161276

model.param_proj.proj.1.weight f4 [1, 60]
0	0xbda02411	-0.07819379
1	0x3e00b59f	0.12569283
2	0x3dae8e26	0.085232064
3	0xbdaaf312	-0.08347143
4	0x3d530e6f	0.051527437
5	0x3d884adb	0.066549025
6	0x3d93116f	0.071810596
7	0x3e08ca66	0.13358459
8	0xbe5ff2ef	-0.21870016
9	0xbe05143b	-0.12995999
10	0x3d7b3c4f	0.06133681
11	0xbdb8b70f	-0.09019291
12	0x3e04968a	0.12948051
13	0x3e38e73c	0.18056959
14	0xbe25f8dc	-0.16208214
15	0xbdf6b740	-0.12046671
16	0xbe1083f2	-0.14112833
17	0x3df32f5a	0.11874266
18	0x3e30e59e	0.17275092
19	0x3e200053	0.15625124
20	0x3e3d3757	0.18478142
21	0xbd845d1d	-0.064630724
22	0xbe37a9d4	-0.17935878
23	0x3e16120a	0.14655319
24	0x3d9447fd	0.07240293
25	0xbc5f57e8	-0.013631798
26	0xbc8387e5	-0.01605601
27	0x3e544934	0.2073105
28	0xbb353280	-0.0027648509
29	0xbe10e7f2	-0.1415098
30	0xbe3daac2	-0.1852217
31	0xbdc4cf1c	-0.096098155
32	0xbd761d7d	-0.060086716
33	0x3e0eb826	0.13937435
34	0xbdf9bca8	-0.121941864
35	0x3e035ecc	0.12829131
36	0xbbf51755	-0.007479588
37	0xbe08bdf5	-0.13353713
38	0x3e17d326	0.1482664
39	0xbe1fcf06	-0.15606317
40	0xbca25004	-0.019813545
41	0x3ce911ca	0.028450865
42	0x3e00b8ed	0.12570544
43	0xbdd05eba	-0.10174318
44	0xbd71fe5c	-0.059080467
45	0x3b07cec9	0.0020722619
46	0xbe44df0e	-0.19225714
47	0x3dcb2673	0.09919443
48	0xbe146166	-0.1449028
49	0x3d9cbd56	0.076533005
50	0xbe365c5d	-0.17808671
51	0xbd01591e	-0.03157913
52	0xbddbea9f	-0.1073811
53	0xbd4b4eb2	-0.049635597
54	0xbda3f822	-0.08006312
55	0x3e1c2637	0.15248953
56	0x3b3cf95e	0.0028835158
57	0xbd9c395b	-0.07628127
58	0x3e0526b7	0.1300305
59	0x3ddab027	0.1067813

model.param_proj.proj.2.weight f4 [1, 60]
0	0xbdb3a00b	-0.0877076
1	0x3d1afac2	0.037836798
2	0x3db45bde	0.08806585
3	0x3d09feef	0.03369039
4	0x3d56504b	0.052322667
5	0x3d313193	0.04326017
6	0xbdee9600	-0.11649704
7	0x3d8dbb4f	0.06920492
8	0x3cdd9a5f	0.027051149
9	0x3cfab51f	0.030603943
10	0x3cface99	0.030616092
11	0x3e057711	0.13033701
12	0x3da2e256	0.079533264
13	0xbc5223e4	-0.01282594
14	0xbd9e34e5	-0.077249326
15	0x3ceda451	0.029009016
16	0xbde20b53	-0.11037316
17	0x3dceb405	0.1009293
18	0x3d2a9010	0.041641295
19	0x3d4ad598	0.049520105
20	0x3c65e8d9	0.014032566
21	0x3c903b11	0.01760629
22	0xbd4b9935	-0.049706656
23	0x3dd7d5aa	0.105388
24	0xbde66dc0	-0.11251402
25	0x3dd6b381	0.104834564
26	0x3dff9257	0.12479084
27	0x3e05d3fe	0.1306915
28	0xbdacec2b	-0.08443483
29	0xbe11ab08	-0.142254
30	0xbd8b437a	-0.067999795
31	0xbe091bc7	-0.13389502
32	0x3d869e89	0.06573207
33	0xbd319546	-0.04335525
34	0xbdc856e2	-0.097821966
35	0xbdeed87e	-0.11662386
36	0x3dc301a4	0.09521797
37	0x3e214465	0.15748747
38	0x3d38e450	0.04513961
39	0xbdd37e14	-0.10326782
40	0x3df42448	0.119209826
41	0xbdecc79c	-0.1156151
42	0xbdb8baff	-0.09020042
43	0xbcd7c491	-0.026338847
44	0x3d8fbee6	0.07018833
45	0xbd57c59c	-0.05267869
46	0xbd1657bd	-0.036704767
47	0xbcbb29b1	-0.022847028
48	0x3d90588f	0.07048141
49	0x3cdaaf5c	0.026694946
50	0xbd02af93	-0.031905722
51	0xbde11d83	-0.10991957
52	0x3c4b45c2	0.012406768
53	0x3d7506b1	0.059820835
54	0x3db007e4	0.08595255
55	0x3df4ae3b	0.11947294
56	0x3d49da7d	0.049280632
57	0xbdb12cf6	-0.08651154
58	0x3de89c71	0.11357964
59	0xbe0ae5f9	-0.1356429

model.rnn.weight_ih_l0 f4 [240, 24]
0	0xbd738db1	-0.0594613
1	0x3db91164	0.0903652
2	0xbc001eb0	-0.0078198165
3	0xbd994b99	-0.07485122
4	0xbd90bf1c	-0.07067701
5	0x3e3f1a20	0.1866231
6	0xbe00a29d	-0.12562032
7	0x3d59a18c	0.05313258
8	0x3d9ab98d	0.07554922
9	0x3c8ab92d	0.016934002
10	0xbcfc83cb	-0.030824563
11	0x3d52878d	0.051398803
12	0x3db353f2	0.08756246
13	0xbdfed4e8	-0.124429524
14	0x3de29da8	0.11065227
15	0x3d996855	0.07490603
16	0x3ce57e2a	0.028014261
17	0xbe3d22ec	-0.18470353
18	0xbd641a55	-0.055689175
19	0xbdb69c57	-0.08916538
20	0xbdb1ea4a	-0.08687265
21	0x3d33df0c	0.043913886
22	0xbd4b7c41	-0.049679045
23	0x3e2d1eab	0.1690623
24	0x3b9c3910	0.0047675446
25	0xbde245e7	-0.11048489
26	0xbdb12bbd	-0.086509205
27	0xbb1d1187	-0.0023966746
28	0x3ccc7e2f	0.024962513
29	0xbb979366	-0.0046257256
30	0x3dba073a	0.090834096
31	0xbd9beeab	-0.07613882
32	0xbd1b6038	-0.03793356
33	0xbdb520ec	-0.0884417
34	0x3e007dcb	0.12547986
35	0xbdf34b83	-0.11879637
36	0xbc44c1c3	-0.012009087
37	0xbbb1c4a9	-0.005425055
38	0xbc29dd83	-0.010367754
39	0xbe3306d1	-0.17483069
40	0xbd9e54fc	-0.07731053
41	0xbdd457c3	-0.10368302
42	0x3df11985	0.117724456
43	0xbc30b75b	-0.010785903
44	0xbd813d1c	-0.06310484
45	0x3e2ceae5	0.1688648
46	0xbd7fc4f7	-0.0624437
47	0x3d27783a	0.04088614
48	0x3da82d69	0.08211786
49	0xbe3a240d	-0.18177815
50	0x3ba861f9	0.0051386324
51	0x3da027fd	0.07820127
52	0x3d6d8426	0.057987355
53	0x3e02729e	0.12739035
54	0xbe0d32b4	-0.13788873
55	0x3d7d992d	0.061913658
56	0xbd1cacd0	-0.038250744
57	0x3c9ef3d7	0.019403381
58	0xbd0594c6	-0.032612585
59	0x3e27fd01	0.16405107
60	0x3e169a0e	0.14707205
61	0x3dc7482d	0.09730563
62	0xbd8abf60	-0.06774783
63	0x3cd604e4	0.026125379
64	0xbd8a9692	-0.06767
65	0xbe14c712	-0.14529064
66	0x3d828eb7	0.06374877
67	0x3d957294	0.07297245
68	0xbd3f8a49	-0.04676274
69	0x3d88ca3b	0.066791974
70	0x3e096723	0.1341825
71	0x3de3481b	0.110977374
72	0x3e2e1453	0.1699994
73	0xbd8ff471	-0.070290454
74	0x3e0dd55d	0.13850923
75	0x3d83c8b4	0.064347655
76	0x3db70d60	0.08938098
77	0xbd250316	-0.040286146
78	0x3e07f85b	0.13278334
79	0xbda354fd	-0.079751946
80	0xbdb04114	-0.08606163
81	0xbd51c920	-0.0512172
82	0xbd017696	-0.031607233
83	0xbe3353ab	-0.17512386
84	0x3dc0d455	0.09415499
85	0x3dfa4e8c	0.12222013
86	0x3d43908b	0.04774527
87	0x3de2a3b1	0.11066378
88	0x3ab65640	0.0013911203
89	0xbd926e6b	-0.07149967
90	0xbd774460	-0.06036794
91	0x3b367fcc	0.002784717
92	0xbe05c3a4	-0.13062912
93	0x3c34aca6	0.011027491
94	0x3d2c942e	0.042133503
95	0x3e09e917	0.13467823
96	0x3d537caf	0.05163258
97	0xbd2e1c96	-0.04250773
98	0xbdd758b8	-0.10514969
99	0xbd31a413	-0.043369364
100	0x3a1a7fec	0.00058936956
101	0xbdfc88c1	-0.12330771
102	0x3dda66b7	0.106641226
103	0xbd8d4470	-0.06897819
104	0x3d91a6dc	0.07111904
105	0x3b9da443	0.0048108413
106	0xbc9d04eb	-0.019167384
107	0xbdae7046	-0.08517508
108	0xbdf58623	-0.11988475
109	0xbd907936	-0.07054369
110	0xbd773501	-0.060353283
111	0xbd3e9789	-0.046531234
112	0x3d4d6561	0.05014551
113	0x3df43461	0.11924053
114	0xbb8039d5	-0.003913144
115	0x3d901d95	0.07036892
116	0x3d282a06	0.0410557
117	0x3db2f448	0.08737999
118	0xbd270f8b	-0.040786307
119	0xbcf8fa7d	-0.03039288
120	0x3c934cc5	0.017980943
121	0xbe37ef1b	-0.17962305
122	0xbc89cf70	-0.016822547
123	0xbd8c38fa	-0.06846805
124	0x3e0ac24d	0.13550682
125	0x3d17c156	0.037049614
126	0x3dc30f08	0.09524351
127	0xbdbe53b3	-0.09293308
128	0xbbf708eb	-0.007538905
129	0x3e540d98	0.2070831
130	0xbe349eb9	-0.17638673
131	0xbd33aab6	-0.043863975
132	0x3d17b8cd	0.037041474
133	0xbdae7379	-0.085181184
134	0xbb955734	-0.0045575146
135	0xbddce9e3	-0.10786798
136	0xbc450917	-0.012026093
137	0xbd80b866	-0.06285171
138	0x3caa2b3c	0.020772569
139	0x3d2a4bb1	0.04157609
140	0x3c3794be	0.0112048965
141	0xbceddfe7	-0.029037429
142	0xba8a0b28	-0.0010531889
143	0x3d55bec4	0.05218388
144	0xbdb9d642	-0.090740696
145	0xbb982e1f	-0.00464417
146	0xbcbea143	-0.023270255
147	0x3df9e326	0.12201528
148	0x3aa550ed	0.0012612619
149	0x3d6ab660	0.057302833
150	0x3dc20b1e	0.09474777
151	0xbe294603	-0.16530614
152	0x3cb1baf7	0.021695597
153	0x3df0edaa	0.11764081
154	0xbd3c93f7	-0.046039548
155	0x3da7b09a	0.08187981
156	0xbdfb5668	-0.1227234
157	0xbdf83664	-0.12119749
158	0xbd0ef50c	-0.034901664
159	0xbd9bf1da	-0.07614489
160	0x3e5033cf	0.20332263
161	0x3ca2da55	0.0198795
162	0x3d83cbc0	0.064353466
163	0x3c4cdf5e	0.012504427
164	0xbcc72b8f	-0.024312763
165	0x3dae7ee1	0.08520294
166	0x3cefe6ce	0.029284861
167	0x3de0d4d3	0.10978093
168	0x3e48e291	0.19617678
169	0x3cf6a795	0.030109206
170	0xbda5981e	-0.08085655
171	0xbdccb847	-0.099960856
172	0xbc945a9c	-0.018109612
173	0xbc851b89	-0.016248481
174	0x3d32b15e	0.04362618
175	0x3d9e47d9	0.077285476
176	0x3bd76c65	0.006574201
177	0x3da34732	0.07972564
178	0xbe0078ac	-0.12546033
179	0xbd00b6b8	-0.031424254
180	0x3d9a4078	0.07531828
181	0x3c1cd881	0.009573103
182	0xbd11b110	-0.03556925
183	0xbe1a4e5b	-0.15068953
184	0xbdb7399c	-0.08946535
185	0xbcbc0691	-0.02295235
186	0xbc1b65b8	-0.009484701
187	0x3da23542	0.07920314
188	0xbcd0b108	-0.02547504
189	0x3bba5e82	0.0056875357
190	0xbd0982c8	-0.03357199
191	0xbd07aef2	-0.033125825
192	0xbe1d3baa	-0.15354791
193	0xbd399629	-0.04530922
194	0xbcff1c56	-0.031141441
195	0x3dd21b8a	0.10259159
196	0xbe1a8ed9	-0.15093555
197	0x3de78d11	0.11306203
198	0x3de56347	0.11200576
199	0x3d820f1c	0.06350538
200	0x3e1ff808	0.1562196
201	0x3d0d5330	0.034503162
202	0xbe0aa8d7	-0.1354097
203	0x3c20254b	0.009774516
204	0xbe14327f	-0.14472388
205	0x3d8ed5bc	0.0697436
206	0xbd7a8906	-0.061165832
207	0xbcdb607e	-0.02677941
208	0x3da73864	0.081650525
209	0xbdf78505	-0.12085918
210	0x3e210917	0.15726124
211	0xbd413385	-0.047168273
212	0xbe0893f9	-0.13337697
213	0x3e4ffe15	0.20311768
214	0xbc6d6c81	-0.014491201
215	0xbd0fa941	-0.035073522
216	0xbd4164a6	-0.047215126
217	0x3dda8318	0.106695354
218	0xbd8f9973	-0.0701169
219	0xbcf6eac0	-0.030141234
220	0xbe0e7912	-0.13913372
221	0xbd36d145	-0.04463317
222	0xbcc6cba8	-0.024267033
223	0x3d9ece02	0.077541366
224	0xbd9eeb0e	-0.07759677
225	0x3d047071	0.032333795
226	0xbcbb66bc	-0.022876136
227	0x3d42ed9a	0.047589876
228	0x3d97886c	0.07399067
229	0xbdaf5cfd	-0.08562658
230	0x3da5040a	0.08057411
231	0xbda685a5	-0.081309594
232	0xbcb640d8	-0.022247717
233	0x3e0bd4da	0.13655415
234	0x3e16e656	0.14736304
235	0xbd0a8abf	-0.033823725
236	0x3d37d302	0.044878967
237	0x3e19c0c9	0.15014948
238	0xbdd4123d	-0.10355041
239	0x3cadf27e	0.021233793
240	0x3cd61371	0.026132317
241	0xbc700170	-0.01464878
242	0xbde5e800	-0.11225891
243	0x3d892915	0.06697289
244	0x3b112ac4	0.0022150734
245	0xbdce228c	-0.10065183
246	0x3d16bf81	0.036803726
247	0xbd280bdc	-0.041026935
248	0x3ddfe622	0.10932566
249	0xbda3b1b1	-0.07992876
250	0x3d7c8431	0.061649505
251	0x3d44dbeb	0.048061293
252	0xbe262036	-0.16223225
253	0x3ce81230	0.028328985
254	0x3d792c62	0.060833342
255	0xbe048b9e	-0.12943885

model.rnn.weight_hh_l0 f4 [240, 60]
0	0xbcacbd2d	-0.0210863
1	0xbd6dfda6	-0.058103226
2	0x3d34da6b	0.044153612
3	0xbe37b0a9	-0.17938484
4	0x3c95f4f8	0.018305287
5	0x3d1e17a7	0.038596775
6	0x3d8e08fd	0.06935308
7	0xbe0abb5f	-0.13548039
8	0x3d93b5a3	0.07212379
9	0xbd4922be	-0.0491054
10	0xbd182dbe	-0.037153
11	0x3d83e5ba	0.06440301
12	0xbd699d10	-0.057034552
13	0xbde8f02e	-0.11373936
14	0x3d9e9b16	0.07744424
15	0xbda452e7	-0.08023625
16	0x3d11b055	0.035568554
17	0x3c0171f6	0.007900706
18	0xbd928fea	-0.07156356
19	0xbd8f7972	-0.07005586
20	0xbc17a366	-0.009255266
21	0xbe1fab2a	-0.15592638
22	0xbd6428fb	-0.055703145
23	0xbc79dcda	-0.015250409
24	0xbde77d32	-0.11303176
25	0xbc0456a8	-0.008077301
26	0xbddc5859	-0.107590385
27	0xbde0389d	-0.10948298
28	0xbc761497	-0.015019557
29	0x3df1cc3e	0.11806534
30	0x3d003b5a	0.031306602
31	0xbde5dbb2	-0.11223544
32	0xbddd2461	-0.10797954
33	0xbd3f05e7	-0.04663649
34	0x3cc00610	0.02344039
35	0xbe15a68e	-0.14614317
36	0x3dc36d2a	0.09542306
37	0x3d2e9c18	0.04262933
38	0xbd162989	-0.036660705
39	0xbdb0cfc0	-0.08633375
40	0xbd51286f	-0.05106395
41	0xbdd82334	-0.105535895
42	0x3d96008a	0.073243216
43	0xbcf72a5d	-0.030171568
44	0xbcc4fe1c	-0.02404695
45	0xbe497082	-0.19671825
46	0x3d8ecb1b	0.06972333
47	0x3b638bdc	0.0034720814
48	0x3e21412a	0.15747514
49	0xbd35bee7	-0.04437151
50	0x3de799c7	0.113086276
51	0xbdf7243a	-0.120674565
52	0xbc9ffe16	-0.019530337
53	0xbc9601c4	-0.018311389
54	0xbb9aa010	-0.004718788
55	0x3de63778	0.112410486
56	0xbde01d5b	-0.10943099
57	0xbdea272c	-0.11433253
58	0x3dc1ea73	0.09468546
59	0x3c344c0f	0.011004462
60	0x3bb8cf90	0.0056399778
61	0xbdad58f4	-0.08464232
62	0xbc1e919a	-0.009678269
63	0xbc1bf90b	-0.009519826
64	0xbd5f9a2d	-0.054590393
65	0x3c31e54e	0.010857893
66	0x3d7f6b2b	0.062358063
67	0x3c915f30	0.017745584
68	0xbc1bb2b6	-0.009503057
69	0xbdb97c55	-0.090569176
70	0xbda3d8c1	-0.08000327
71	0xbdcf9b14	-0.10137001
72	0xbd405e67	-0.04696503
73	0x3dbb9968	0.09160119
74	0xbdc13831	-0.09434546
75	0x3cad06ca	0.021121401
76	0xbd7c3438	-0.061573237
77	0xbd3e2ece	-0.046431355
78	0xbd68d1c1	-0.056840662
79	0x3d94ad08	0.072595656
80	0xbe012874	-0.12613088
81	0x3dda67b4	0.10664311
82	0xbd841efb	-0.064512216
83	0xbd3ca7cf	-0.046058472
84	0xbdf422af	-0.11920678
85	0x3cd09112	0.0254598
86	0xbd5bcf51	-0.05366451
87	0x3d9acafc	0.075582474
88	0x38d433d2	0.000101186
89	0xbd9df02c	-0.07711825
90	0xbd8ccf7e	-0.068755135
91	0x3d0012ab	0.031267803
92	0xbc8d6aec	-0.017262898
93	0xbe1022f2	-0.1407583
94	0xbc811b45	-0.015760073
95	0xbd317c92	-0.04333169
96	0xbadc2852	-0.0016796684
97	0xbd642c15	-0.055706102
98	0x3df4a321	0.11945177
99	0x3b55447a	0.0032542036
100	0x3b02705a	0.0019903393
101	0x3dc26c41	0.09493304
102	0x3b171977	0.002305595
103	0x3e1a47b8	0.15066421
104	0x3ddf6034	0.10907021
105	0x3d05a18a	0.03262476
106	0x3dec46bc	0.11536929
107	0xbdfadab5	-0.12248746
108	0x3dca5ab4	0.098805815
109	0x3d8d9460	0.06913066
110	0xbdf63453	-0.12021699
111	0x3e123de3	0.1428142
112	0x3e052e95	0.13006051
113	0xbdd0394d	-0.10167179
114	0xbe017465	-0.12642057
115	0x3e0df759	0.13863887
116	0xbe0beba6	-0.13664111
117	0xbb72eac2	-0.0037066196
118	0xbdc49c17	-0.09600084
119	0xbcd4f1a6	-0.025994133
120	0xbd286ca8	-0.041119248
121	0xbe09e368	-0.13465655
122	0x3dbef276	0.093235895
123	0xbd859a1d	-0.065235354
124	0xbda3723a	-0.07980771
125	0x3b081d8a	0.002076956
126	0x3d07b28d	0.033129264
127	0xbd0cccb8	-0.034374923
128	0xbd179943	-0.037011396
129	0xbd0dfdfe	-0.034666054
130	0x3b0706b4	0.002060336
131	0x3dee4a8f	0.11635315
132	0xbda95f4b	-0.08270129
133	0x3ce8a0fa	0.028397072
134	0x3dd6948a	0.1047755
135	0x3d244673	0.040106248
136	0xbd85b41e	-0.06528495
137	0xbdb7ca88	-0.08974177
138	0xbd778c0d	-0.060436297
139	0xbe20acbd	-0.15690894
140	0xbc250ba1	-0.010073573
141	0xbddc5003	-0.107574485
142	0x3d192f20	0.037398458
143	0x3e239cbb	0.15977757
144	0xbd8baa37	-0.06819575
145	0x3da6e62d	0.08149371
146	0x3dbdf194	0.09274593
147	0xbce1a9ba	-0.027546752
148	0x3e23e27f	0.1600437
149	0x3d8489db	0.06471606
150	0xbe3b7199	-0.18305053
151	0xbe2b4fbb	-0.16729634
152	0xbd1990b2	-0.037491508
153	0xbdadf873	-0.084946536
154	0x3e28b837	0.16476522
155	0xbd9cd998	-0.0765869
156	0xbd8344c9	-0.06409604
157	0x3ca97d6f	0.020689694
158	0x3d541293	0.051775526
159	0x3c646d13	0.013942021
160	0x3e1f59a0	0.15561533
161	0x3c171ca2	0.009223135
162	0xbc895460	-0.016763866
163	0xbd77a43f	-0.06045937
164	0xbd4af2f6	-0.04954811
165	0xbe2cb106	-0.16864404
166	0x3de457b4	0.111495405
167	0xbda08c1f	-0.07839226
168	0xbd1edbaf	-0.038783725
169	0xbcf31df7	-0.029677374
170	0x3c3e625a	0.0116201285
171	0xbdbb92ab	-0.09158834
172	0x3d473571	0.04863495
173	0xbabd370e	-0.0014435963
174	0xbca0e65c	-0.019641094
175	0x3d312dae	0.043256454
176	0x3d2c25c8	0.04202822
177	0xbd4aa72b	-0.04947583
178	0x3cd0e911	0.02550176
179	0xbd650c94	-0.0559202
180	0x3d8378f7	0.064195566
181	0xbd579f4e	-0.05264216
182	0x3d9f492a	0.07777627
183	0xbe169178	-0.1470393
184	0x3cf0616a	0.029343326
185	0xbdf60147	-0.120119624
186	0x3cda18eb	0.02662321
187	0xbd712248	-0.058870584
188	0xbdbf1a22	-0.09331156
189	0xbcbc7d49	-0.02300896
190	0xbd2e045b	-0.042484622
191	0xbdaee1b5	-0.08539144
192	0xbdabfed3	-0.08398213
193	0xbd066564	-0.032811537
194	0x3dbc5f73	0.09197893
195	0x3e1400ed	0.14453478
196	0x3da54c23	0.080711626
197	0x3d6a795c	0.057244644
198	0xba51a731	-0.0007997631
199	0xbdf4c38e	-0.119513616
200	0xbdbe2f7d	-0.092864014
201	0xbc06e368	-0.008232929
202	0xbb33f90f	-0.0027461683
203	0xbc5b34ac	-0.013379257
204	0x3dc0a590	0.094065785
205	0xbd90ef20	-0.070768595
206	0xbe127cef	-0.14305471
207	0xbe0f8ba8	-0.14018118
208	0x3dadbfb0	0.08483827
209	0xbba1e718	-0.0049408786
210	0xbd9b110a	-0.07571609
211	0xbd80bdd3	-0.06286206
212	0xbcf50b9b	-0.02991276
213	0xbd15ddf0	-0.03658861
214	0x3d793a88	0.060846835
215	0xbdd6823b	-0.10474058
216	0xbe057aa6	-0.13035068
217	0x3d361a6f	0.044458803
218	0xbd7629f8	-0.06009862
219	0x3c763672	0.015027629
220	0x3e0237cb	0.12716596
221	0x3da7ff9e	0.08203052
222	0xbe14776c	-0.14498681
223	0xbdc40080	-0.09570408
224	0x3dec7499	0.11545677
225	0xbd0ece8f	-0.03486496
226	0xbd7c22be	-0.06155657
227	0xbdd4484a	-0.103653505
228	0x3d75e361	0.0600313
229	0xbcc3d784	-0.023906477
230	0x3d2686fe	0.040656082
231	0x3e12b5de	0.1432719
232	0x3dbda8b7	0.092606954
233	0x3d807c55	0.062737145
234	0xbe1d6475	-0.15370353
235	0xbdcd756c	-0.10032162
236	0x3ccbf14b	0.02489533
237	0xbcd3b308	-0.025842205
238	0xbd8fd17e	-0.07022379
239	0x3cd10cf7	0.025518877
240	0xbe168359	-0.14698543
241	0xbe09b27a	-0.1344699
242	0x3dfbd53e	0.12296532
243	0xbdbc808f	-0.09204208
244	0xbe04ba05	-0.12961586
245	0x3cfb7dde	0.030699667
246	0x3dd34674	0.10316172
247	0xbb8684ca	-0.004105185
248	0x3e117fe3	0.14208941
249	0x3dbbd375	0.091711916
250	0x3e19e0ec	0.15027207
251	0xbdd4bf98	-0.10388106
252	0x3df8c9ea	0.12147887
253	0xbe110daa	-0.14165369
254	0xbdcec91e	-0.10096954
255	0x3dc6ef01	0.09713555

model.rnn.bias_ih_l0 f4 [240]
0	0x3e1a45b4	0.15065652
1	0x3b0aba04	0.0021168003
2	0x3dfd4aca	0.123677805
3	0x3c1230c6	0.008922761
4	0xbd018cc2	-0.031628378
5	0x3df6bd6f	0.1204785
6	0x3cc28c26	0.023748469
7	0x3e072619	0.13198127
8	0x3d488d48	0.04896286
9	0x3d1c1f56	0.03811582
10	0xbbce8076	-0.006301935
11	0xbd88ee02	-0.066860214
12	0xbd17fc13	-0.03710563
13	0x3e4137e0	0.18868971
14	0x3d11e5fa	0.035619713
15	0xbcd50a4c	-0.026005886
16	0x3db22490	0.0869838
17	0xbd524714	-0.051337317
18	0xbdc3b612	-0.095562115
19	0xbac7da20	-0.0015247501
20	0xbcf1897a	-0.0294845
21	0x3e036f72	0.12835482
22	0x3c93dd3e	0.018049832
23	0xbd32c13c	-0.043641314
24	0x3d659a43	0.05605532
25	0x3d66efa6	0.05638089
26	0xbd4b19b9	-0.049585078
27	0x3de434fa	0.11142917
28	0x3e003361	0.125196
29	0x3e2ec4b8	0.1706723
30	0x3e0ec686	0.13942918
31	0xbd278632	-0.040899463
32	0x3e234270	0.15943313
33	0x3e198a0a	0.14994064
34	0x3dc158cc	0.09440765
35	0xbc58ed7c	-0.013240214
36	0xbc67274d	-0.014108491
37	0xbb945f22	-0.0045279423
38	0xbd847a27	-0.06468611
39	0x3e05af87	0.1305524
40	0x3ddc4b30	0.107565284
41	0x3d472d16	0.04862698
42	0xbd7d8daf	-0.061902698
43	0x3e04a4cd	0.12953492
44	0xbcf35bb9	-0.029706823
45	0x3baa7287	0.005201641
46	0x3dfcc64a	0.12342508
47	0x3d999e8f	0.07500946
48	0x3d3b0a71	0.045664255
49	0xbc921d09	-0.01783611
50	0x3d93c7cc	0.072158426
51	0xbd1340ee	-0.035950594
52	0x3e10db95	0.14146264
53	0x3dd59b24	0.10429981
54	0x3ba425e2	0.005009399
55	0x3e059e8c	0.13048762
56	0x3d788958	0.060677856
57	0x3e0d1b7b	0.13780014
58	0xbd0e0c94	-0.034679964
59	0x3d90a747	0.070631556
60	0x3b3a7ec3	0.0028456904
61	0x3da24733	0.079237364
62	0x3ca32901	0.019917013
63	0xbc7afa9a	-0.015318537
64	0xbe090a05	-0.13382728
65	0xbdeae3c3	-0.11469223
66	0x3dab1c2d	0.083549835
67	0x3df7aa83	0.120930694
68	0x3e0873a4	0.13325363
69	0xbdb9f97b	-0.09080788
70	0x3c97a8af	0.018513052
71	0xbc9260fe	-0.017868515
72	0x3d151c58	0.036403984
73	0x3ca77c3f	0.020444987
74	0x3ddd71f4	0.108127505
75	0x3e182630	0.14858317
76	0x3dd4edd0	0.10396922
77	0x3db92a65	0.09041289
78	0xbd93de22	-0.07220103
79	0x3d26b3eb	0.040698927
80	0xbe11573d	-0.14193435
81	0xbd897282	-0.06711294
82	0x3b11534c	0.0022174893
83	0x3df96007	0.12176519
84	0xbda1b43b	-0.07895704
85	0xbd7a31c1	-0.061082605
86	0x3dd8e6b7	0.1059088
87	0x3ccd297a	0.025044192
88	0xbceb5cbd	-0.028730744
89	0x3df4233a	0.119207814
90	0xbce6315a	-0.028099705
91	0xbd572fe5	-0.05253591
92	0xbe249a1b	-0.16074412
93	0x3d431354	0.047625855
94	0x3d4930fe	0.04911899
95	0xbcfe7274	-0.031060435
96	0x3d2e9c12	0.04262931
97	0x3a0ea0fd	0.0005440859
98	0xbcd370d3	-0.025810635
99	0xbd756b61	-0.059916858
100	0xbdba0d14	-0.09084526
101	0xbd97e19b	-0.07416078
102	0x3d9b9e61	0.07598568
103	0x3c503bc9	0.012709566
104	0xbc96012f	-0.018311111
105	0x3e22db5f	0.15903996
106	0x3ddc372d	0.107527114
107	0xbdc47ffa	-0.09594722
108	0x3d5ce173	0.053925943
109	0xbd833ab4	-0.06407681
110	0xbcf733e4	-0.03017611
111	0xbcd9db99	-0.02659397
112	0x3dccf5ed	0.10007844
113	0xbd9c2018	-0.07623309
114	0x3c7897f7	0.01517295
115	0x3d35351d	0.044240106
116	0x3dbd209d	0.09234736
117	0xbd382a5d	-0.044962276
118	0x3d1b4950	0.037911713
119	0x3c584226	0.013199365
120	0x3d68baaa	0.05681864
121	0x3cc5bd79	0.0241382
122	0x3dd6f4bd	0.10495899
123	0x3c2bedea	0.010493735
124	0xbd96615f	-0.07342791
125	0xbd49e416	-0.049289785
126	0x3da66bbe	0.08126019
127	0xbce5a861	-0.02803439
128	0x3db8e0aa	0.09027226
129	0x3d299db2	0.041410156
130	0xbd525510	-0.051350653
131	0xbd2a9d2c	-0.041653797
132	0xbdbb2496	-0.091378376
133	0xbde5d8ac	-0.112229675
134	0x3dbe41b8	0.092898786
135	0x3e01f197	0.12689815
136	0xbd513fd4	-0.051086262
137	0x3c18711f	0.009304314
138	0xbc94888f	-0.018131522
139	0xbe008936	-0.12552342
140	0x3ce5a073	0.02803061
141	0xbafa4931	-0.0019095299
142	0x3d13522d	0.03596704
143	0x3d28e3fc	0.041233048
144	0x3c9910d4	0.018684782
145	0x3d7dc95e	0.061959617
146	0xbdff8263	-0.12476041
147	0xbda82c9f	-0.08211636
148	0x3d8efcfd	0.069818474
149	0x3da83622	0.0821345
150	0xbde01281	-0.10941029
151	0xbd9d9437	-0.07694285
152	0x3d780134	0.060548022
153	0xbd885160	-0.06656146
154	0x3cdb7d6e	0.026793208
155	0x3b62bf8e	0.0034599039
156	0xbdd54379	-0.1041326
157	0x3c66ea57	0.014093957
158	0xbd56ead6	-0.05247005
159	0xbd805dd0	-0.06267893
160	0xbd3b4630	-0.045721233
161	0x3d9d1248	0.076695025
162	0x3db60e60	0.088894606
163	0x3e0148b7	0.12625395
164	0x3e00df96	0.12585291
165	0x3d44a603	0.048009884
166	0xbbccc04f	-0.006248511
167	0xbdd148e3	-0.1021898
168	0x3ca65a1c	0.02030664
169	0x3caa2512	0.02076963
170	0xbd787177	-0.060655084
171	0xbd7d7420	-0.061878324
172	0xbd882b45	-0.06648878
173	0x3c5b5361	0.013386578
174	0xbde4f918	-0.11180323
175	0xbe071b7b	-0.13194077
176	0x3cb2f9c1	0.021847608
177	0xbd0d15f3	-0.03444476
178	0xbcd4723a	-0.025933374
179	0x3d1bae06	0.03800776
180	0xbd97ab98	-0.07405776
181	0x3de24f95	0.11050335
182	0xbc285eae	-0.01027648
183	0x3ddc5796	0.10758893
184	0x3d2307cf	0.03980237
185	0x3dfaa22a	0.122379616
186	0x3e0fa665	0.14028318
187	0xbd247617	-0.04015168
188	0x3e144b94	0.14481956
189	0x3e20608d	0.15661831
190	0xbaa1a15a	-0.0012331412
191	0x3e2d7914	0.16940719
192	0x3e18d47f	0.14924811
193	0x3dc86ed4	0.09786764
194	0x3d7e4c18	0.062084287
195	0x3b56c8a9	0.0032773411
196	0x3dd494ea	0.103799656
197	0xbd58a5c8	-0.052892476
198	0xbd31f828	-0.04344955
199	0x3c01023c	0.007874068
200	0x3d32ac63	0.043621432
201	0xbbef9191	-0.007311054
202	0x3c3c2ff1	0.0114860395
203	0x3e1642ca	0.14673916
204	0x3e1abc6e	0.15110943
205	0x3dd754cd	0.10514221
206	0xbd666ad6	-0.05625423
207	0x3c9cb4a5	0.019129107
208	0x3ddc27d2	0.107497826
209	0x3db0cf2a	0.086332634
210	0x3e0ef6e3	0.13961367
211	0x3dac40c7	0.08410793
212	0xbd19a47c	-0.03751038
213	0xbc87538b	-0.016519329
214	0x3e1c561c	0.15267223
215	0x3d589fd5	0.052886803
216	0xbc4609b4	-0.012087274
217	0x3d98a148	0.07452637
218	0x3d976a30	0.073933005
219	0xbc8d9bf5	-0.01728628
220	0x3e01dca1	0.1268182
221	0x3de664a6	0.11249666
222	0x3ddb407a	0.10705657
223	0x3d2a9dca	0.041654386
224	0x3d85df6b	0.06536754
225	0x3e2a008f	0.16601776
226	0x3cd47ee5	0.025939414
227	0xbd85d33a	-0.06534429
228	0xbd5d17db	-0.05397783
229	0x3e0116ca	0.1260635
230	0x3e1c7d43	0.15282159
231	0xbd3bb782	-0.045829304
232	0x3da36ed4	0.07980123
233	0x3dd74f95	0.10513226
234	0x3df5655a	0.11982222
235	0xbc917f9d	-0.017761046
236	0x3e2631b7	0.16229902
237	0x3e0e85f9	0.13918294
238	0x3d6ebb7c	0.058284268
239	0x3e05ed23	0.13078742

model.rnn.bias_hh_l0 f4 [240]
0	0x3ce48685	0.027896175
1	0xbda47dfc	-0.08031842
2	0x3e0307a7	0.12795888
3	0xbd90007a	-0.07031341
4	0x3e14d57d	0.14534564
5	0xbca16257	-0.019700212
6	0x3bfbdbae	0.0076861
7	0xbd6b32cf	-0.0574215
8	0xbc54a486	-0.012978679
9	0xbc50b252	-0.012737827
10	0xbcccc125	-0.024994442
11	0x3db421b7	0.08795493
12	0xbcd8db7e	-0.02647185
13	0x3daa5da4	0.08318642
14	0x3d36aeb9	0.044600222
15	0x3e21ece3	0.15813021
16	0xbc96cbc4	-0.01840771
17	0x3df12604	0.11774829
18	0x3daa1de3	0.08306482
19	0x3c2b8340	0.010468304
20	0x3e07995e	0.13242099
21	0x3e04c239	0.12964715
22	0x3ddc1429	0.10746033
23	0x3d03eb43	0.032206785
24	0x3dd7a996	0.10530393
25	0x3d4e46fe	0.050360672
26	0xbbb55a33	-0.005534434
27	0xbd646432	-0.055759616
28	0x3e277595	0.16353448
29	0x3e4f7fb9	0.20263566
30	0xbd8f987e	-0.070115075
31	0xbd996f0a	-0.07491882
32	0x3d50ef00	0.05100918
33	0x3d674d1b	0.056470018
34	0x3e14ce1f	0.14531754
35	0xbb39879c	-0.002830959
36	0x3e4cf016	0.2001346
37	0x3de2ecbd	0.110803105
38	0x3ce20656	0.027590912
39	0x3af20a6e	0.0018466243
40	0x3d567060	0.052353263
41	0x3c939dc9	0.018019574
42	0x3e112ad6	0.14176497
43	0x3d7d3df4	0.06182666
44	0xbcd6f179	-0.02623819
45	0x3ce19f2c	0.02754172
46	0x3bc5cecd	0.0060366155
47	0x3e0c9386	0.1372815
48	0x3de9ff41	0.11425639
49	0x3dc893ef	0.09793841
50	0x3dc950de	0.09829877
51	0x3c697e0a	0.014251241
52	0x3db47458	0.08811253
53	0x3e066bf7	0.13127123
54	0xbd74ef0e	-0.059798293
55	0x3d664b99	0.05622444
56	0xbdb26d92	-0.08712305
57	0x3d9b7a89	0.07591731
58	0x3c8544ee	0.01626822
59	0xbd42a22f	-0.04751795
60	0x3d9daa4f	0.076984994
61	0x3d6c9052	0.057754822
62	0x3c98b7df	0.018642364
63	0x3ab075c4	0.0013462831
64	0xbd968de8	-0.07351285
65	0x3c9e80ec	0.019348584
66	0x3d3c7201	0.04600716
67	0x3e1b2e5c	0.15154403
68	0x3d8238b0	0.063584685
69	0x3dd38ace	0.10329209
70	0xbda7669e	-0.081738696
71	0x3d08238e	0.033237033
72	0x3ca74ad9	0.020421432
73	0x3d1f2703	0.038855564
74	0xbdeb17d6	-0.11479156
75	0xbce3d936	-0.027813535
76	0xbd8b77d0	-0.06809962
77	0x3e0f7560	0.14009619
78	0x3a2b52e4	0.0006535484
79	0xbdba5146	-0.09097533
80	0x3cab45b4	0.02090726
81	0x3db433a4	0.08798912
82	0x3d4d452c	0.050114796
83	0x3ad3212b	0.0016107907
84	0x3e0328a9	0.1280848
85	0xbd0ab36b	-0.033862513
86	0x3d91dc94	0.0712215
87	0x3c88c951	0.016697558
88	0xbdcca045	-0.099915065
89	0xbd1a14a9	-0.03761736
90	0x3da54547	0.08069854
91	0x3d8609ae	0.06544815
92	0xbd5ac053	-0.05340607
93	0x3dfabac8	0.12242657
94	0x3e06f042	0.13177589
95	0xbd9c2778	-0.076247156
96	0x3d6a97c1	0.05727363
97	0x3cf46fc3	0.029838448
98	0x3db3702d	0.0876163
99	0xbdeaf31e	-0.11472152
100	0x3dbc934c	0.09207782
101	0xbd993a63	-0.074818395
102	0x3da4dfed	0.08050523
103	0xbdb002d1	-0.08594287
104	0x3c95661b	0.018237164
105	0x3d13f4a5	0.036121983
106	0x3d005abe	0.03133654
107	0xbd6218ce	-0.055199437
108	0x3cc88363	0.024476713
109	0x3e0ccd47	0.13750182
110	0x3ddd9b2b	0.108206116
111	0xbd4d7558	-0.050160736
112	0xbc8635e7	-0.016383125
113	0x3d37459b	0.044744115
114	0x3da9eae0	0.08296752
115	0x3daf50ec	0.085603565
116	0x3dfa8a94	0.12233463
117	0x3c4cb713	0.01249482
118	0x3d89ddba	0.06731744
119	0x3bab4673	0.005226904
120	0xbddcc4b1	-0.107797034
121	0xbdbb9d1d	-0.09160826
122	0x3d7f4a8e	0.06232696
123	0xbd85c725	-0.065321244
124	0x3d1db57e	0.038503163
125	0x3beb34ca	0.007177924
126	0xbd949799	-0.072554775
127	0xbe117bf7	-0.14207445
128	0xbd43aa3b	-0.047769766
129	0x3e05f706	0.13082513
130	0x3d8f112f	0.069856994
131	0xbd81dfb4	-0.06341496
132	0x3d035b92	0.03206975
133	0xbd5c7b90	-0.053828776
134	0x3c4a7029	0.012355843
135	0xbd3cb770	-0.046073377
136	0x3c851cb3	0.016249036
137	0xbd5c274d	-0.053748418
138	0xbccfff99	-0.025390433
139	0x3d5f7d0e	0.05456262
140	0xbc6f6ce8	-0.014613368
141	0xbe063837	-0.13107382
142	0xbd2dba98	-0.042414278
143	0x3e06a2dd	0.13148065
144	0x3df5effb	0.12008663
145	0x3e0b21c2	0.13587096
146	0xbd48a2a6	-0.04898324
147	0x3d95ce85	0.07314781
148	0xbb960c04	-0.004579069
149	0xbbc16e98	-0.0059030764
150	0x3df45fde	0.11932348
151	0xbdcc085a	-0.099625304
152	0xbd75f17f	-0.06004476
153	0xbe04e9f7	-0.12979876
154	0x3a8855e8	0.0010401579
155	0xbdc8f9fb	-0.09813305
156	0xbce6cd63	-0.028174108
157	0x3d98b1f7	0.07455819
158	0xbd159cea	-0.036526598
159	0x3d6ceef2	0.057845064
160	0xbd96c0b6	-0.073609754
161	0x3d8c5080	0.06851292
162	0x3c50264f	0.012704446
163	0x3c03c40b	0.008042346
164	0xbddba45a	-0.10724707
165	0xbe08a728	-0.13345015
166	0x3abb5a5a	0.0014293895
167	0xbe0f3148	-0.13983643
168	0x3e03e9f1	0.1288221
169	0xbd13652d	-0.03598516
170	0xbd4d589b	-0.05013333
171	0xbd0cb735	-0.034354407
172	0x3de8b696	0.113629505
173	0xbc73b881	-0.014875532
174	0x3d990a6b	0.0747269
175	0x3da8fea8	0.08251697
176	0xbdfd7f50	-0.123777986
177	0x3d5c766b	0.05382387
178	0x3c883fc7	0.016631974
179	0xbd7ff050	-0.06248504
180	0xbd0075f8	-0.031362504
181	0x3e172892	0.1476157
182	0x3cf80107	0.030273927
183	0xbd6a2acf	-0.05716973
184	0xbd744a03	-0.059640896
185	0x3dfc4617	0.12318056
186	0x3d42aa27	0.04752555
187	0x3e0a21a0	0.1348939
188	0x3d63abc2	0.055583723
189	0x3d87996d	0.066210605
190	0xbda99939	-0.08281178
191	0x3c3075da	0.0107702855
192	0x3e19655d	0.14980073
193	0x3e213389	0.15742315
194	0x3e0a6b78	0.13517559
195	0x3cbb4c23	0.022863453
196	0x3d8327c9	0.06404073
197	0x3dce8a01	0.10084916
198	0x3e268eef	0.16265462
199	0x3e2c5803	0.16830449
200	0x3cfb714d	0.030693674
201	0x3c26bb38	0.010176472
202	0x3dbbff1f	0.0917952
203	0x3b0be8fb	0.0021348584
204	0xbc99409b	-0.018707564
205	0x3d55780c	0.05211644
206	0x3dc2aa66	0.09505157
207	0x3c60be2e	0.013717217
208	0x3dadef82	0.08492948
209	0xbd2a62d8	-0.04159817
210	0x3e152ab9	0.14567079
211	0x3c09eb49	0.008417913
212	0x3af70e38	0.0018848842
213	0xbd8ef145	-0.06979612
214	0xbd30efa5	-0.043197293
215	0x3e2122e8	0.15735972
216	0x3e345a11	0.17612483
217	0x3c1416f3	0.009038675
218	0x3d8d6fc4	0.06906083
219	0xbd10f51c	-0.035390005
220	0xbc998933	-0.01874218
221	0x3c6f1a5f	0.01459369
222	0x3b18003a	0.0023193494
223	0x3da3f0c2	0.08004905
224	0xbd0c4ec4	-0.034254804
225	0x3e15f22a	0.1464316
226	0xbcb872ce	-0.02251568
227	0x3da946cb	0.08265456
228	0x3debeb0a	0.115194395
229	0x3d0e1ff8	0.034698457
230	0x3d87d477	0.06632321
231	0x3da8d335	0.082434095
232	0x3e25c39a	0.16187897
233	0x3d9df07a	0.07711883
234	0x3da856f6	0.082197115
235	0x3afe323a	0.0019393631
236	0x3c105b45	0.008810823
237	0x3d715d64	0.058926955
238	0x3d9690fa	0.07351871
239	0x3e10bd50	0.14134717

model.rnn.weight_ih_l1 f4 [240, 60]
0	0x3d66376d	0.056205202
1	0xbdffe9f5	-0.12495796
2	0x3cabaa75	0.020955304
3	0x3ad248be	0.0016043407
4	0xbd80bffe	-0.062866196
5	0xbca3ae12	-0.019980464
6	0xbdaced7b	-0.08443733
7	0x3cdd5cf4	0.027021863
8	0xbcdc6e5a	-0.026908088
9	0xbc8c94f9	-0.01716088
10	0xbc8600c3	-0.016357785
11	0x3d880fd9	0.06643648
12	0xbd1a9ab8	-0.037745208
13	0xbd9eadf2	-0.07748021
14	0x3d2c8bba	0.04212544
15	0x3ce7f71a	0.02831607
16	0xbdc32db2	-0.095302
17	0xbd5db3da	-0.054126598
18	0x3d7ef25a	0.062242843
19	0xbb218765	-0.0024647352
20	0xbdb9f905	-0.090807
21	0xbe41a7d9	-0.18911685
22	0x3e44a2aa	0.19202676
23	0x3df59beb	0.119926296
24	0x3d8c5f92	0.06854166
25	0x3dde158a	0.10843952
26	0xba8541e3	-0.001016673
27	0xbd608e32	-0.054823108
28	0xba7cd048	-0.00096440734
29	0xbd646a2c	-0.055765316
30	0xbd721923	-0.059106003
31	0xbe3b54e7	-0.18294106
32	0xbd37a6c4	-0.044836774
33	0xbe31b0ee	-0.1735265
34	0x3d8667d2	0.06562771
35	0xbc926e8b	-0.017874977
36	0xbd824b20	-0.06361985
37	0xbcc7d3d6	-0.024393003
38	0x3d9c0fe0	0.076202154
39	0xba0c6251	-0.00053552265
40	0x3df35d6c	0.11883053
41	0xbd105d23	-0.035245072
42	0xbc3dd205	-0.011585717
43	0x3d11fd05	0.03564169
44	0xbaa009ce	-0.0012209953
45	0xbe0e4725	-0.13894327
46	0x3d43129c	0.04762517
47	0xbe09a4ae	-0.13441727
48	0x3de687bc	0.11256358
49	0x3e3677d0	0.17819142
50	0x3d9371a8	0.071994126
51	0xbd72cc27	-0.059276726
52	0x3e1c318f	0.1525328
53	0x3a368ad2	0.0006963435
54	0xbd80de33	-0.06292381
55	0x3dcca31d	0.09992049
56	0xbd4bac33	-0.04972477
57	0x3ddcd607	0.1078301
58	0x3e0dea4d	0.1385891
59	0x3d886950	0.06660712
60	0xbd8805f9	-0.06641764
61	0xbe3e8723	-0.18606238
62	0x3d8083e8	0.06275159
63	0x3b2184e1	0.0024645852
64	0x3cc3a203	0.023880964
65	0xbba5506a	-0.0050449865
66	0x3c3284db	0.010895933
67	0xbdbc1f5b	-0.09185668
68	0x3e2237f0	0.15841651
69	0xbcbed875	-0.023296574
70	0x3d365a09	0.044519458
71	0x3ced8bc1	0.028997304
72	0xbd8b7fbd	-0.068114735
73	0xbe115616	-0.14192995
74	0xbae794ba	-0.0017668225
75	0xbc529b02	-0.01285434
76	0xbda817bc	-0.08207652
77	0xbc9ae440	-0.018907666
78	0x3d4632b0	0.048388183
79	0xbe1463f4	-0.14491254
80	0xbde3c842	-0.111221805
81	0xbdc38753	-0.095472954
82	0x3e0578fc	0.13034433
83	0xbc95a68e	-0.018267896
84	0xbe2088bb	-0.15677159
85	0xbe1f9175	-0.15582831
86	0xbe2fb7b1	-0.17159916
87	0x3c0d86ad	0.008638066
88	0xbc21d2b6	-0.009876898
89	0x3d4dcaed	0.050242353
90	0xbdd0804a	-0.10180719
91	0x3cc9ceac	0.024634682
92	0x3e207066	0.15667877
93	0xbceefcba	-0.029173244
94	0xbd502ee4	-0.05082597
95	0xbb33b1ce	-0.0027419212
96	0xbd19f3eb	-0.037586134
97	0x3dffc205	0.12488178
98	0xbc8ca294	-0.017167367
99	0xbdd5bea8	-0.104367554
100	0x3e2240a2	0.15844968
101	0x3d8483e6	0.0647047
102	0x3d05023f	0.032472845
103	0x3bcc3ed4	0.0062330756
104	0xbd4f326f	-0.050585207
105	0xbe098176	-0.13428292
106	0x3db8cf29	0.09023888
107	0xbe07dc85	-0.13267715
108	0x3c9b1e77	0.018935425
109	0x3dea9ecc	0.11456069
110	0x3ceea3cd	0.02913084
111	0xbd312405	-0.04324724
112	0x3d7a7f4c	0.061156556
113	0xbc90501c	-0.017616324
114	0xbdea906a	-0.11453326
115	0x3c6cf0d1	0.014461712
116	0xbdfdd99e	-0.12395023
117	0xbd3b3aaa	-0.045710243
118	0xbd9aecc9	-0.075646944
119	0xbddf2d67	-0.10897332
120	0x3d84bd7e	0.06481455
121	0xbd682c64	-0.05668296
122	0x3dbaf5f8	0.09128946
123	0xbdb4c399	-0.0882637
124	0xbddc6c23	-0.10762813
125	0xbd9892c8	-0.07449871
126	0x3e272096	0.16321024
127	0xbe1df682	-0.15426067
128	0xbd7113d0	-0.058856785
129	0x3dff93c4	0.12479356
130	0xbcdf9064	-0.02729053
131	0xbdec69a7	-0.11543589
132	0x3dc344b6	0.0953459
133	0xbd05e363	-0.032687556
134	0x3be0ee5f	0.0068643535
135	0x3dccc10b	0.099977575
136	0xbcbdfcc5	-0.023191819
137	0xbe14efe1	-0.14544632
138	0xba43237c	-0.0007443947
139	0xbdc8746a	-0.09787829
140	0xbcbffa78	-0.023434862
141	0xbe2aafd3	-0.16668634
142	0x3df7c221	0.12097574
143	0x3df12e27	0.11776381
144	0xbdd72ce2	-0.105066076
145	0x3ba7ee0a	0.005124812
146	0xbe06048e	-0.13087675
147	0xbd8810ae	-0.066438064
148	0xbe07645b	-0.13221876
149	0xbbf9f805	-0.007628443
150	0xbd7f7b51	-0.062373463
151	0xbdd36467	-0.103218846
152	0x3e0d42cc	0.13795012
153	0xbe137323	-0.1439939
154	0x3d042965	0.03226604
155	0xbe1ce4b9	-0.15321626
156	0xbd508c02	-0.05091477
157	0xbc4576fd	-0.012052295
158	0xbd9894a6	-0.074502274
159	0xbe090def	-0.13384221
160	0x3e017260	0.12641287
161	0x3c875dc9	0.016524212
162	0x3d4edf31	0.05050582
163	0xbc6bd901	-0.0143949995
164	0xbdc471ac	-0.09591994
165	0xbdba6bd8	-0.09102601
166	0x3d36c212	0.044618674
167	0xbce2692a	-0.027638037
168	0x3dcc8f8a	0.099883154
169	0x3c47d769	0.012197354
170	0x3e23d52f	0.15999292
171	0x3e16b935	0.14719088
172	0x3e0ba31d	0.13636442
173	0xbcad07d0	-0.02112189
174	0xbcb7ff45	-0.02246059
175	0xbdd11bbb	-0.10210367
176	0xbe0409fa	-0.12894431
177	0x3a3a5578	0.0007108073
178	0x3d63a001	0.055572513
179	0xbd91c8b6	-0.07118361
180	0xbd631c57	-0.05544695
181	0xbd6d6a8a	-0.05796293
182	0x3d7100c1	0.05883861
183	0xbda56ada	-0.08077021
184	0x3dc478ad	0.095933296
185	0xbc5cc17c	-0.013473865
186	0x3cf9cad2	0.03049222
187	0xbd7005d2	-0.0585993
188	0xbd5e5ad1	-0.054285828
189	0x3dec37ff	0.11534118
190	0x3a160df2	0.0005724124
191	0x3d819ea1	0.06329084
192	0x3c5b2401	0.013375283
193	0xbc923e2f	-0.017851917
194	0xbce6cdc0	-0.028174281
195	0x3de46b98	0.111533344
196	0x3d5006aa	0.050787605
197	0xbe02dc52	-0.12779358
198	0xbd949fe3	-0.072570585
199	0x3d59f3a3	0.053210866
200	0xbd16f5f0	-0.036855638
201	0xbdd06568	-0.10175592
202	0x3e3c194a	0.18369022
203	0xbd8eb274	-0.06967631
204	0xbdc81c1e	-0.09770988
205	0xbdddaa63	-0.10823514
206	0xbe1f4feb	-0.1555783
207	0xbe046238	-0.12928092
208	0x3d9d6998	0.07686156
209	0xbe488380	-0.19581413
210	0xbe2426b4	-0.16030389
211	0xbde77e3e	-0.11303376
212	0x3d15c417	0.03656396
213	0x3d8677e2	0.065658346
214	0xbd82c8fc	-0.06385991
215	0x3b7e930d	0.0038844973
216	0xbe4fdc19	-0.20298804
217	0x3da179fd	0.078845955
218	0xbddbd189	-0.10733325
219	0x3d807d00	0.06273842
220	0x3db83d80	0.08996105
221	0x3dd0d14c	0.1019617
222	0x3db5084b	0.088394724
223	0x3dddb9bb	0.10826441
224	0x3d814579	0.06312079
225	0xbdbe5cac	-0.092950195
226	0x3de1cad5	0.11025015
227	0xbdf6ceeb	-0.12051185
228	0xbd550ba7	-0.052013066
229	0xbd601ecf	-0.05471688
230	0xbccff627	-0.02538593
231	0x3d0cd8bd	0.034386385
232	0x3d89aa41	0.067219265
233	0xbe15ac62	-0.1461654
234	0x3c1d1bce	0.009589149
235	0xbd952fdc	-0.07284519
236	0xbe216d2f	-0.15764306
237	0xbd7bd096	-0.06147822
238	0x3cc1f06f	0.023674218
239	0xbbe97827	-0.007124919
240	0x3dbe7f07	0.09301572
241	0x3d3b7974	0.045770124
242	0x3cad265c	0.021136455
243	0xbd264606	-0.040594123
244	0xbdbf777c	-0.09348962
245	0xbe205084	-0.15655714
246	0x3e21ad41	0.15788747
247	0xbe2d1b22	-0.16904882
248	0x3de0e90a	0.10981949
249	0xbcfbe9d3	-0.030751145
250	0x3cf83776	0.030299883
251	0x3d9df3e6	0.077125356
252	0x3dd7c404	0.10535434
253	0xbbee2865	-0.007267999
254	0x3b283de8	0.0025671665
255	0xbd85c1ca	-0.06531103

model.rnn.weight_hh_l1 f4 [240, 60]
0	0x3be769d9	0.0070621786
1	0x3dcaf809	0.0991059
2	0x3d858f17	0.06521433
3	0xbc98c87c	-0.018650286
4	0x3df518d6	0.11967628
5	0x3e309257	0.17243324
6	0xbdb067ed	-0.08613572
7	0x3d53a19c	0.051667795
8	0x3dda9db1	0.106746085
9	0x3d873748	0.06602341
10	0xbd09d236	-0.03364774
11	0xbdfc684a	-0.12324579
12	0x3de36a0d	0.11104212
13	0x3d2729d7	0.040811386
14	0xbb029af0	-0.0019928776
15	0x3d920820	0.07130456
16	0xbd42a0a3	-0.047516476
17	0x3e49b9f9	0.19699849
18	0xbe0f01a3	-0.13965468
19	0xbd834c1b	-0.06411
20	0x3e51ab70	0.20475554
21	0x3d63d13c	0.055619463
22	0xbd5992ed	-0.053118635
23	0xbc1f8750	-0.009736851
24	0x3d0f22b9	0.034945223
25	0x3d91beb0	0.07116449
26	0x3d265fb2	0.040618606
27	0x3db3bd8a	0.08776386
28	0xbd977771	-0.073958285
29	0xbdfb65ee	-0.12275301
30	0xbdc60ec4	-0.09670785
31	0x3dc92c4e	0.098229036
32	0x3cd84b7f	0.026403187
33	0xbb3154ce	-0.0027058604
34	0xbcb85aec	-0.022504292
35	0xbdad2681	-0.0845461
36	0x3d7bd897	0.061485853
37	0x3d3dc5c6	0.04633119
38	0xbc9d2f9f	-0.019187747
39	0xbe13a2a6	-0.14417514
40	0xbe026911	-0.12735392
41	0xbd751205	-0.059831638
42	0xbd394d66	-0.04523983
43	0x3d17dac9	0.037073884
44	0x3ded0b4f	0.115744226
45	0xbdd85a5c	-0.1056411
46	0x3d29a421	0.04141629
47	0x3db4f0eb	0.08835014
48	0x3dd5a9d9	0.104327865
49	0x3d1fba4c	0.038996026
50	0xbd949d59	-0.07256574
51	0x3e050741	0.12991048
52	0xbcaa93cb	-0.020822426
53	0xbd7efb81	-0.06225157
54	0xbd063789	-0.032767806
55	0x3e1b47d5	0.1516412
56	0x3dca7111	0.09884847
57	0xbda55b22	-0.08074023
58	0xbd34bcd0	-0.044125378
59	0x3c1ff1b4	0.009762216
60	0x3c80e8a2	0.015735928
61	0xbdc23c97	-0.09484213
62	0x3e4a3132	0.19745329
63	0xbd4003b4	-0.04687853
64	0xbd5bf2a4	-0.053698197
65	0x3dfee758	0.12446469
66	0xbd92431a	-0.07141705
67	0xbd2e37fd	-0.042533863
68	0x3e380e16	0.17974123
69	0x3d21be4b	0.03948812
70	0x3de50dd2	0.11184277
71	0x3dddb519	0.10825557
72	0x3e4f9845	0.2027293
73	0xbd7f231f	-0.062289353
74	0xbe2ddbfc	-0.16978449
75	0xbc2a925b	-0.01041087
76	0x3d8997e6	0.067184255
77	0x3dc36e5f	0.09542536
78	0xbc895e37	-0.016768558
79	0x3d824f77	0.06362813
80	0x3d6ce6f1	0.05783743
81	0xbb1a2fad	-0.0023526952
82	0x3e0cfba0	0.13767862
83	0x3cee413b	0.029083839
84	0xbd5a178a	-0.053245105
85	0xbdcd0de0	-0.10012412
86	0x3e32102c	0.17388982
87	0x3d1d8e66	0.03846588
88	0xbc2f947f	-0.010716557
89	0xbd0a9e78	-0.033842534
90	0x3dcafdb5	0.09911672
91	0x3e1a0d0e	0.15044042
92	0x3cf1885f	0.029483972
93	0xbde32da3	-0.11092689
94	0x3d263451	0.040577237
95	0x3d112366	0.03543415
96	0xbd378bf1	-0.044811193
97	0x3d0e1244	0.03468539
98	0xbd217877	-0.039421525
99	0xbe20a40b	-0.15687577
100	0xbd81f2fd	-0.063451745
101	0xbe269906	-0.16269311
102	0x3de21b49	0.110403605
103	0xbd58b847	-0.052910116
104	0xbd14e8f4	-0.036354974
105	0xbd093986	-0.033502124
106	0xbd886d73	-0.06661501
107	0xbdd33bcc	-0.1031414
108	0x3d32ba8b	0.043634932
109	0x3e22be89	0.15892996
110	0x3dcf2208	0.10113913
111	0x3d5cb946	0.053887628
112	0x3e0e0b9a	0.13871613
113	0x3dae4b06	0.08510403
114	0x3e233f91	0.15942217
115	0xbd7de1e8	-0.06198302
116	0x3dfbbb7f	0.122916214
117	0xbdf5bb48	-0.11998612
118	0x3e26e07f	0.16296576
119	0x3d299927	0.041405823
120	0x3dcb68d3	0.09932103
121	0x3c8e3060	0.017357051
122	0x3d6a7c89	0.057247672
123	0xbe08bc02	-0.1335297
124	0xbcf41894	-0.029796876
125	0x3dbac5d5	0.09119765
126	0x3c4b4ed3	0.01240893
127	0xbc855422	-0.01627547
128	0xbd4bd2d1	-0.049761597
129	0xbda3608a	-0.07977398
130	0x3e1d560d	0.15364857
131	0x3d40ffd7	0.047118988
132	0x3d1f0fef	0.038833555
133	0xbcbb30c5	-0.022850404
134	0xbe0e4b36	-0.13895878
135	0x3da7fd7a	0.08202644
136	0x3e19e9c4	0.15030581
137	0x3d5a81dd	0.053346504
138	0x3c1fd991	0.009756462
139	0xbc07f4b0	-0.008298084
140	0x3d9c8122	0.07641818
141	0x3e1943ae	0.14967224
142	0xbca671fe	-0.020318028
143	0xbda395c4	-0.0798755
144	0x3b1a9ade	0.0023590843
145	0xbdff138c	-0.124549
146	0xbd44b4bd	-0.048023928
147	0xbcee60eb	-0.029098948
148	0xbde9811c	-0.11401579
149	0x3c29bbbb	0.0103597
150	0x3df41f8a	0.11920078
151	0xbdff0757	-0.12452572
152	0xbd286aca	-0.041117467
153	0xbe35c377	-0.17750345
154	0xbdd81984	-0.10551742
155	0x3d6814a6	0.056660317
156	0x3e27ca4e	0.16385767
157	0xbd4ae215	-0.049532015
158	0x3d855e51	0.0651213
159	0xbe03773d	-0.12838455
160	0xbd363d58	-0.044492096
161	0xbe247e80	-0.16063881
162	0x3d33261d	0.04373752
163	0xbdeff65a	-0.1171691
164	0xbd7f0d4f	-0.06226855
165	0x3d42d4e4	0.04756631
166	0x3dc313e7	0.095252804
167	0xbd66c4fa	-0.056340195
168	0xbc44ae71	-0.012004481
169	0x3dc83de0	0.09777427
170	0x3e22b6d4	0.15890056
171	0xbdcf4898	-0.10121268
172	0x3d317f27	0.043334153
173	0x3e14c117	0.14526783
174	0x3e37ea8a	0.17960563
175	0xbd63bb37	-0.055598464
176	0x3dbf1c11	0.09331525
177	0xbe1d8a07	-0.15384685
178	0x3e1c9add	0.1529345
179	0x3d050bfd	0.032482136
180	0x3d8d2790	0.068923116
181	0xbd0c4f87	-0.03425553
182	0x3e0a5c8e	0.1351187
183	0xbd5c183e	-0.053734057
184	0x3e0eba00	0.13938141
185	0x3db0d16a	0.086336926
186	0xbd505321	-0.050860528
187	0xbe01d4cd	-0.12678833
188	0x3dfe3087	0.124115996
189	0xbd943821	-0.07237268
190	0x3d75e6fc	0.060034737
191	0x3df57727	0.11985617
192	0x3de55050	0.11196959
193	0xbda9f1ce	-0.08298074
194	0xbe19b106	-0.15008935
195	0x3d973c07	0.07384496
196	0x3e332efc	0.17498392
197	0xbc791342	-0.015202345
198	0xbe1b6cf6	-0.15178284
199	0xbddd0b8a	-0.107932165
200	0xbd348219	-0.044069383
201	0x3dad322d	0.08456836
202	0x3e274b8d	0.16337414
203	0x3ccf221d	0.025284821
204	0xbe1f64e8	-0.15565836
205	0xbdf23ce5	-0.11828021
206	0x3de712c1	0.11282874
207	0xbe117b36	-0.14207157
208	0xbdb1f3e8	-0.086890996
209	0xbdf04ef5	-0.1173381
210	0xbd080fe8	-0.033218294
211	0x3e2ac50f	0.16676734
212	0x3c8b3425	0.016992638
213	0x3cc06426	0.023485254
214	0xbe0dfd3f	-0.13866137
215	0x3d91d1dc	0.071201056
216	0x3d698079	0.057007287
217	0x3d2acca0	0.04169905
218	0x3c547ef7	0.012969724
219	0xbe08d9ae	-0.13364288
220	0x3ca67955	0.020321527
221	0xbd66eb8f	-0.05637699
222	0x3d858ae7	0.06520634
223	0x3d4af2cc	0.049547955
224	0x3d28ca86	0.041208766
225	0x3d14645c	0.036228523
226	0x3daf453c	0.08558127
227	0x3d044c29	0.032299194
228	0xbca67dab	-0.020323595
229	0x3dc33436	0.09531443
230	0x3e0b93d4	0.1363061
231	0x3d9e9079	0.077424
232	0x3d9e697e	0.07734965
233	0xbd2fd07c	-0.042923436
234	0xb70d6048	-8.426672e-06
235	0x3d847f0d	0.064695455
236	0xbc50967f	-0.012731194
237	0xbd87ea41	-0.06636477
238	0x3d880612	0.06641783
239	0x3e03c3d2	0.12867668
240	0x3cf26208	0.02958776
241	0x3dd6b413	0.10483565
242	0xbd392b51	-0.045207325
243	0x3bf5ea77	0.007504757
244	0x3dfeedd7	0.12447708
245	0x3d6660de	0.056244723
246	0x3d8d2068	0.068909466
247	0xbe29b468	-0.16572726
248	0x3de44a59	0.11146993
249	0x3dc8b4c5	0.09800104
250	0x3d860acf	0.0654503
251	0xbda509b8	-0.08058494
252	0xbc5c4087	-0.013443119
253	0x3d8dd5e5	0.06925563
254	0xbe1cb486	-0.15303239
255	0x3e1159aa	0.1419436
