checkpoints/epoch=1-step=100-v22.ckpt (torch, 621663 bytes, 33 tensors)

model.param_proj.proj.0.weight f4 [1, 60]
0.15388203 0.10135159 -0.09641482 0.1734714 -0.027665837 -0.08031475 -0.115329295 -0.1051653
0.03867274 0.026355762 0.009099977 -0.08773235 0.13058701 0.2169219 -0.09428515 -0.015312612
-0.23064683 -0.15062848 -0.18048279 -0.19863316 0.13383125 -0.034121264 0.022504942 0.22711813
0.045200627 -0.008527381 0.07958344 0.17723976 0.013298737 -0.16935992 -0.0011609796 -0.20092878
0.17425233 -0.10473439 0.15934063 0.029581329 0.18418112 0.050302405 -0.04074391 -0.24457997
0.059687518 0.019859295 0.07306317 0.07496638 -0.1297408 0.0024072705 -0.102552004 -0.13056006
-0.1890709 -0.029256217 0.004427908 0.108146064 0.010422574 -0.19098112 0.098790675 0.06770716
0.10998416 0.044956006 0.05952384 -0.053410534
00000000: 4093 1d3e 6c91 cf3d 2275 c5bd 7da2 313e
00000010: 77a3 e2bc 0f7c a4bd c431 ecbd e860 d7bd
00000020: 4f67 1e3d 0ae8 d73c 1218 153c 05ad b3bd
00000030: 9ab8 053e c620 5e3e 9318 c1bd c0e1 7abc
00000040: af2e 6cbe 5a3e 1abe 7bd0 38be 7e66 4bbe
00000050: 0f0b 093e bdc2 0bbd 495c b83c a891 683e
00000060: 4b24 393d 6eb6 0bbc a5fc a23d 577e 353e
00000070: f2e2 593c b06c 2dbe 032c 98ba 46c0 4dbe
00000080: 346f 323e fc7e d6bd 312a 233e 8b54 f23c
00000090: fa99 3c3e e509 4e3d 16e3 26bd 2c73 7abe
000000a0: e67a 743d f6af a23c 25a2 953d f987 993d
000000b0: c6da 04be 4cc3 1d3b c906 d2bd 89b1 05be
000000c0: cd9b 41be bcaa efbc fc17 913b af7b dd3d
000000d0: 72c3 2a3c 8e90 43be c452 ca3d 0daa 8a3d
000000e0: 603f e13d ca23 383d 45cf 733d 01c5 5abd

model.param_proj.proj.1.weight f4 [1, 60]
0.14558722 0.14612086 0.122451305 0.13235223 -0.12977974 0.17187501 0.08566484 0.10272047
-0.16499604 -0.12151729 0.0769281 0.14204003 0.0951743 -0.093290076 -0.18696849 -0.10749211
-0.122410186 -0.10072768 -0.1618494 0.08177765 0.09733461 -0.07684418 0.034862958 -0.10545489
0.09219195 0.08541557 -0.10887096 -0.09990891 0.203881 -0.19296812 -0.104174465 0.12845524
0.14441572 0.09544878 -0.21555004 -0.19718657 -0.1468988 0.15522246 0.11068787 -0.04881762
0.12116193 -0.1280029 -0.183972 0.11956912 -0.19109833 0.1766683 -0.17196509 0.06322416
0.075611375 0.021808341 0.053563263 0.06635784 -0.17243432 0.0629336 -0.07146486 -0.055189278
0.17571208 0.058687475 -0.024825789 0.18613352
00000000: d114 153e b5a0 153e c0c7 fa3d 5887 073e
00000010: fbe4 04be 0100 303e 0c71 af3d 1c5f d23d
00000020: b9f4 28be 0fde f8bd 7b8c 9d3d f172 113e
00000030: beea c23d de0e bfbd ab74 3fbe d324 dcbd
00000040: 31b2 fabd 504a cebd d9bb 25be 0a7b a73d
00000050: 5e57 c73d 7b60 9dbd 76cc 0e3d bcf8 d7bd
00000060: 22cf bc3d 5cee ae3d bdf7 debd 0b9d ccbd
00000070: 2ec6 503e 6f99 45be 6c59 d5bd c589 033e
00000080: b7e1 133e a67a c33d 26b9 5cbe 47eb 49be
00000090: a46c 16be a3f2 1e3e 52b0 e23d fcf4 47bd
000000a0: bf23 f83d 3113 03be 2863 3cbe a8e0 f43d
000000b0: 48af 43be 89e8 343e 9e17 30be ab7b 813d
000000c0: 23da 9a3d 68a7 b23c 2765 5b3d 9fe6 873d
000000d0: 9f92 30be 55e3 803d 2b5c 92bd 270e 62bd
000000e0: deed 333e 4762 703d 745f cbbc c999 3e3e

model.param_proj.proj.2.weight f4 [1, 60]
-0.007963414 -0.06310452 -0.06833742 -0.004716765 0.10462534 -0.011731954 0.0051713185 -0.09660406
0.07091771 0.051301375 0.028013967 -0.083758704 0.096502624 0.07978615 0.055695947 -0.10417041
-0.033416122 0.013909061 -0.11103784 -0.059419543 0.08779661 -0.06887176 -0.12946235 -0.022638677
-0.11813903 0.0661923 0.042357367 0.011080128 0.15190487 -0.09958462 -0.12332181 0.09046014
0.10749902 0.025277657 0.053431857 -0.107813865 0.004854267 0.02267624 0.14101538 0.07258409
0.042094227 0.09513909 -0.07524652 0.09827696 0.08739372 -0.07366883 -0.062007353 0.059679277
0.004950785 0.12426981 0.12132976 -0.076754555 0.035452735 -0.09066786 -0.10488612 -0.12715766
0.0018662278 -0.0895252 -0.080006845 0.07567169
00000000: fb78 02bc f13c 81bd 7df4 8bbd 188f 9abb
00000010: cf45 d63d 6237 40bc 2a74 a93b 59d8 c5bd
00000020: 4e3d 913d 6421 523d 8c7d e53c af89 abbd
00000030: 2ba3 c53d ec66 a33d 6f21 643d 4c57 d5bd
00000040: 58df 08bd d5e2 633c cf67 e3bd e861 73bd
00000050: b6ce b33d a30c 8dbd c791 04be bf74 b9bc
00000060: e0f2 f1bd d48f 873d eb7e 2d3d 6d89 353c
00000070: f38c 1b3e 05f3 cbbd 2590 fcbd 2a43 b93d
00000080: 7228 dc3d 1713 cf3c 5ddb 5a3d 84cd dcbd
00000090: 8b10 9f3b 86c3 b93c 5666 103e f8a6 943d
000000a0: ff6a 2c3d 49d8 c23d d91a 9abd 6e45 c93d
000000b0: 7bfb b23d afdf 96bd 6cfb 7dbd 4272 743d
000000c0: 323a a23b 2c81 fe3d bd7b f83d 7e31 9dbd
000000d0: e336 113d 12b0 b9bd 89ce d6bd 9e35 02be
000000e0: 379c f43a fd58 b7bd a1da a3bd c2f9 9a3d

model.rnn.weight_ih_l0 f4 [240, 24]
0.042365793 -0.007320866 0.067395434 -0.08437175 0.060257558 0.10418133 0.029959196 0.06670375
0.14391617 0.014334486 -0.17577127 0.1300217 0.059304617 0.009664112 0.113193326 0.108385175
-0.11814973 -0.12195433 0.018449359 0.06592152 0.014330801 -0.005502764 -0.0801687 0.12866908
-0.18003048 0.089467175 -0.15544401 -0.07391098 -0.0528485 0.070201114 0.00663702 0.100222796
-0.119681366 0.038733963 0.12039665 0.032283988 0.0007062731 -0.020556431 0.12893873 0.0849654
0.00600956 0.018523483 -0.009170476 -0.06901353 0.02457011 0.16461061 -0.14509311 0.0003127741
0.17649585 -0.02339139 -0.14235172 0.1259506 -0.12824015 -0.029234009 -0.084778085 -0.13841707
-0.16855134 0.07453498 0.04691115 0.06740288 0.013790654 0.00037991878 0.064475656 -0.036791947
-0.15453161 -0.113221444 -0.04063702 0.07649835 -0.031984314 0.045284737 0.0902172 0.13459161
-0.15148063 0.06357358 -0.15376925 0.15554278 0.07688124 -0.08829752 -0.02634616 -0.09495605
0.011644939 0.085094675 -0.11580885 0.13602085 -0.13205409 0.012557902 0.049588695 -0.05775446
0.020605758 -0.04238558 0.077765875 -0.0071185566 -0.08965886 0.03513138 -0.119607925 -0.013098334
0.0545676 -0.11362929 0.13156033 -0.060193315 -0.0034077598 0.103072844 0.042291086 0.05059985
0.00561097 -0.081003204 0.034805704 -0.05365159 -0.07707334 0.035292823 -0.0047330293 0.060100604
0.026863936 -0.13277322 0.07962462 -0.030989012 -0.1891957 -0.045047734 0.20519167 0.1818857
-0.00470104 0.057154257 -0.116532125 0.079460375 0.080201015 0.077650264 -0.18200126 0.034921825
-0.14079645 0.056588504 -0.019244371 0.0706165 0.0035180135 -0.0072445925 -0.006457354 -0.10862885
-0.15101337 -0.016814593 -0.020227814 -0.009378532 -0.13976556 -0.06254707 0.041094467 0.13701263
-0.10335588 -0.092263944 0.043929536 0.11967324 -0.10511626 0.025140772 0.014791276 -0.04855528
0.068128936 -0.05629193 -0.070018016 0.042058874 -0.03493867 0.031910866 -0.0029176793 -0.048522476
-0.04199776 0.011573412 0.13982752 -0.115939036 0.06321593 -0.16064523 0.037372995 0.066462755
0.11769861 -0.17485794 0.05433303 -0.081458814 -0.059733514 -0.018254144 0.13323149 0.10169305
-0.06645907 0.04511691 0.12316989 -0.10743834 -0.13561532 0.07087722 -0.02620789 0.01999168
-0.052586533 -0.09035644 0.052826006 0.0961816 0.06786652 -0.00013293023 0.134244 0.012733225
-0.04654093 -0.1299962 -0.121158354 0.0626147 -0.08545982 -0.021309024 -0.045311514 0.10852472
-0.10599595 0.102398716 -0.14051874 -0.044202346 -0.13459349 -0.070619315 0.16532265 0.070707224
-0.05384217 -0.042721286 -0.0017834508 -0.0765587 -0.08227955 -0.06448269 0.0792726 0.0586434
0.008793181 0.017759413 0.0018495107 -0.04283354 -0.014992453 -0.15769193 -0.08723384 0.1632871
0.20249048 0.03282644 0.09590241 0.03280332 0.05227462 0.08759775 0.035842314 0.020036886
-0.041823883 -0.16052489 0.12811208 -0.05939565 -0.09079607 0.13430673 0.14286579 0.12331634
-0.010656092 0.030233435 -0.044072334 0.048636254 -0.0062951637 -0.053468578 -0.07499462 -0.16158724
-0.015256548 0.07662402 0.08390033 0.055866953 0.08874538 0.01269945 0.052551426 -0.06457857
00000000: c187 2d3d e0e3 efbb 9e06 8a3d 19cb acbd
00000010: a1d0 763d 055d d53d fd6c f53c fa9b 883d
00000020: c35e 133e 31db 6a3c 62fd 33be 6924 053e
00000030: 66e9 723d 3956 1e3c e7d1 e73d 0cf9 dd3d
00000040: 7cf8 f1bd 31c3 f9bd 1c23 973c dd01 873d
00000050: bccb 6a3c 8850 b4bb 7d2f a4bd d4c1 033e
00000060: e959 38be 913a b73d b72c 1fbe a45e 97bd
00000070: ab77 58bd 9ac5 8f3d 5c7b d93b 9c41 cd3d
00000080: 811b f5bd 81a7 1e3d 8592 f63d 373c 043d
00000090: 2f25 393a f665 a8bc 8408 043e 5702 ae3d
000000a0: d8eb c43b 8fbe 973c c43f 16bc f756 8dbd
000000b0: 4147 c93c af8f 283e 4a93 14be d4fb a339
000000c0: 54bb 343e 4d9f bfbc a6c4 11be 32f9 003e
000000d0: 6351 03be 297c efbc 22a0 adbd 34bd 0dbe
000000e0: b998 2cbe cca5 983d e825 403d 850a 8a3d
000000f0: 32f2 613c d62f c739 d00b 843d 27b3 16bd
00000100: 893d 1ebe a5e0 e7bd 0173 26bd 2bab 9c3d
00000110: fc01 03bd 7d7c 393d ccc3 b83d 62d2 093e
00000120: bd1d 1bbe dd32 823d b075 1dbe 9b46 1f3e
00000130: e973 9d3d 55d5 b4bd e7d3 d7bc 5178 c2bd
00000140: 6aca 3e3c 1e46 ae3d 312d edbd 0d49 0b3e
00000150: 3039 07be a9bf 4d3c 841d 4b3d f18f 6cbd
00000160: 68cd a83c 809c 2dbd b743 9f3d c842 e9bb
00000170: 109f b7bd ece5 0f3d 00f5 f4bd 659a 56bc
00000180: 4782 5f3d 79b6 e8bd c0b7 063e 448d 76bd
00000190: b954 5fbb db17 d33d 6b39 2d3d ca41 4f3d
000001a0: 3adc b73b 02e5 a5bd 6d90 0e3d c5c1 5bbd
000001b0: a1d8 9dbd 358f 103d 8717 9bbb 0d2c 763d
000001c0: c211 dc3c b4f5 07be 3c12 a33d abdc fdbc
000001d0: 85bc 41be f983 38bd c41d 523e 3f40 3a3e
000001e0: 2f0b 9abb 951a 6a3d 65a8 eebd 1fbc a23d
000001f0: 6e40 a43d 1a07 9f3d 8a5e 3abe 300a 0f3d
00000200: f22c 10be 59c9 673d 5fa6 9dbc 629f 903d
00000210: 798e 663b 0c64 edbb 3698 d3bb cd78 debd
00000220: 40a3 1abe c2be 89bc cdb4 a5bc 6aa8 19bc
00000230: b41e 0fbe ae18 80bd ac52 283d 0a4d 0c3e
00000240: 3fac d3bd e1f4 bcbd 75ef 333d 3e17 f53d
00000250: 3247 d7bd 05f4 cd3c 1c57 723c e7e1 46bd
00000260: 2f87 8b3d 5e92 66bd 9b65 8fbd ed45 2c3d
00000270: da1b 0fbd f8b4 023d 8936 3fbb 81bf 46bd
00000280: d805 2cbd 699e 3d3c f22e 0f3e 7271 edbd
00000290: 5a77 813d 2f80 24be 6d14 193d a01d 883d
000002a0: f80b f13d f60d 33be 508c 5e3d e1d3 a6bd
000002b0: 21ab 74bd b789 95bc d66d 083e 7244 d03d
000002c0: b11b 88bd 82cc 383d 7f40 fc3d a208 dcbd
000002d0: bede 0abe 1328 913d eeb1 d6bc 97c5 a33c
000002e0: fa64 57bd cc0c b9bd 1560 583d dcfa c43d
000002f0: 9afd 8a3d 3063 0bb9 4277 093e 049f 503c
00000300: b4a1 3ebd b91d 05be df21 f8bd 233c 803d
00000310: 8f05 afbd 4390 aebc 9198 39bd 3542 de3d
00000320: 6814 d9bd 6bb6 d13d 25e4 0fbe 850d 35bd
00000330: e0d2 09be dca0 90bd 574a 293e f3ce 903d
00000340: 9b89 5cbd 84fc 2ebd aec2 e9ba cfca 9cbd
00000350: 2e82 a8bd 800f 84bd ac59 a23d 1034 703d
00000360: 4611 103c 307c 913c 486b f23a 3972 2fbd
00000370: e8a2 75bc fe79 21be a8a7 b2bd bc34 273e
00000380: aa59 4f3e 0475 063d 7c68 c43d c65c 063d
00000390: e91d 563d 7366 b33d 64cf 123d 6524 a43c
000003a0: 854f 2bbd a360 24be d02f 033e da48 73bd
000003b0: 4af3 b9bd b487 093e 694b 123e 478d fc3d
000003c0: e496 2ebc 1cac f73c 3185 34bd cf36 473d
000003d0: a947 cebb de01 5bbd c896 99bd 2077 25be
000003e0: 9af6 79bc 0eed 9c3d f0d3 ab3d bfd4 643d
000003f0: 23c0 b53d 5b11 503c 2a40 573d c541 84bd

model.rnn.weight_hh_l0 f4 [240, 60]
-0.059399836 -0.020196714 0.02395284 0.11313449 0.09193271 0.08251243 0.023811415 -0.08850291
0.09598343 0.030629715 0.1307503 0.084635146 0.0365795 -0.060948182 -0.022360275 -0.018165568
-0.093986005 0.06131192 0.07581187 0.06819617 0.07198396 0.08384243 -0.04552679 -0.039335296
-0.09323802 -0.09073632 -0.018813973 -0.058008995 -0.0062521137 0.06855528 0.13854922 -0.0043105762
-0.052483976 0.0072552147 0.06202209 0.023236085 -0.11093087 0.008747934 -0.016802574 0.037870992
0.0070524453 0.0904067 0.10525794 0.034670584 -0.037101414 0.07009898 0.09436747 0.0048303483
0.038841132 -0.03227727 -0.010934554 -0.041682675 0.151855 0.06111152 -0.07502609 0.14566956
-0.03249041 0.09647045 -0.0747559 0.13845064 0.13671589 -0.025711738 0.17820427 0.14282124
-0.053638466 -0.05748785 0.10509162 0.009285853 0.0020799479 0.037091225 0.026894204 0.06377826
0.114975624 -0.076733716 -0.05802844 -0.11849326 -0.054461747 0.112709425 0.008909837 0.06862317
0.016920062 0.10200103 -0.015725492 -0.049424507 -0.004215183 0.15645415 -0.0009471422 -0.0040913895
-0.028526887 -0.022821968 0.15275313 -0.13828048 0.097044855 -0.038140714 -0.09322914 -0.1594215
0.01847345 -0.17085104 -0.11617175 -0.07764379 0.17045952 -0.052493017 0.08621536 0.083363324
0.058256205 -0.104466505 -0.020790543 0.10976337 -0.1658468 0.03420353 -0.097849436 -0.04075301
0.05621886 -0.04155443 -0.13710682 -0.0014895037 0.0044516944 -0.08837858 0.08415875 0.07093436
0.06273239 0.03552694 -0.07570415 -0.009872089 -0.13883574 -0.0131939575 -0.011658826 0.044999097
0.031321175 -0.07120574 0.0057945857 0.08429366 0.042657893 -0.103604674 -0.109574415 -0.10735992
-0.08198643 -0.019267073 -0.037801683 -0.02985064 0.034038797 -0.04928483 0.16560814 0.11415455
-0.065107994 0.1391286 0.032621812 -0.026988901 -0.031349882 0.1644274 -0.00075833837 -0.15669775
0.0044571264 -0.05363279 0.018100569 -0.15162559 -0.00075354904 -0.0059132534 0.050347526 -0.1386142
-0.09896156 -0.07397282 0.11555611 0.12852363 0.109007984 -0.0862325 0.06823233 -0.081025146
0.06457681 0.07372471 -0.015061956 0.021398472 0.17473689 0.017411342 -0.14091238 -0.12913261
0.07296664 0.087213784 -0.09812296 -0.045905434 -0.0637169 -0.06142611 -0.07993849 0.044731785
0.049140103 -0.032113396 0.06843803 -0.029220317 0.06275392 -0.0965654 0.037857424 0.048979092
-0.06005574 -0.16189909 0.06315449 0.018958135 0.1112838 -0.15438417 0.09476175 0.06944574
0.04236976 0.035039652 0.16592261 0.05814418 -0.071881495 0.07453869 0.13125108 -0.058105886
0.010018056 -0.02741221 0.11697238 -0.027234059 -0.02579683 0.104982734 -0.11671849 -0.046645686
0.024866372 -0.11915473 0.009153577 0.014727946 -0.06914651 -0.081436 0.09109295 -0.07295962
-0.076838486 0.13646184 0.14121825 0.1399145 -0.085932545 0.014720979 -0.045244284 -0.18856168
0.07402205 -0.04940206 0.07772803 0.1483014 0.15901081 -0.11894367 -0.15095818 0.06743848
0.012300303 -0.07545119 -0.00054968306 0.039645623 0.006682322 0.10560229 0.07539029 -0.04160513
-0.120918244 0.047593538 -0.06654471 -0.0065915617 0.017206406 0.036298826 0.0750366 -0.07966939
00000000: 3e4d 73bd 9473 a5bc bf38 c43c 0eb3 e73d
00000010: 3747 bc3d 47fc a83d 2810 c33c 0441 b5bd
00000020: f692 c43d 2beb fa3c 68e3 053e 3155 ad3d
00000030: 63d4 153d cda4 79bd e52c b7bc f5cf 94bc
00000040: bc7b c0bd 3522 7b3d 4143 9b3d 6faa 8b3d
00000050: 546c 933d 94b5 ab3d 4d7a 3abd 0c1e 21bd
00000060: 93f3 bebd f7d3 b9bd c31f 9abc d79a 6dbd
00000070: 88de ccbb b666 8c3d d9df 0d3e bc3f 8dbb
00000080: 70f9 56bd 27bd ed3b e00a 7e3d 9a59 be3c
00000090: b92f e3bd 7f53 0f3c 8da5 89bc 9d1e 1b3d
000000a0: 3318 e73b 2627 b93d 7a91 d73d be02 0e3d
000000b0: a7f7 17bd 0e90 8f3d bb43 c13d e647 9e3b
000000c0: e117 1f3d 2c35 04bd d826 33bc 74bb 2abd
000000d0: e17f 1b3e 1350 7a3d 47a7 99bd 672a 153e
000000e0: aa14 05bd 4d92 c53d 9f19 99bd 01c6 0d3e
000000f0: 40ff 0b3e 6ca1 d2bc 2e7b 363e bb3f 123e
00000100: 02b4 5bbd 6178 6bbd 463a d73d b123 183c
00000110: bc4f 083b f8ec 173d 3c51 dc3c 2d9e 823d
00000120: 5778 eb3d 9126 9dbd 3baf 6dbd 98ac f2bd
00000130: 4813 5fbd 33d4 e63d 91fa 113c 4e8a 8c3d
00000140: f19b 8a3c ebe5 d03d bfd2 80bc 5a71 4abd
00000150: 851f 8abb 8435 203e a349 78ba 1011 86bb
00000160: 38b1 e9bc 23f5 babc 516b 1c3e 6699 0dbe
00000170: 74bf c63d 7039 1cbd ebee bebd 643f 23be
00000180: a255 973c 93f3 2ebe 74eb edbd b503 9fbd
00000190: f18c 2e3e eb02 57bd ae91 b03d 64ba aa3d
000001a0: 0f9e 6e3d 89f2 d5bd ee50 aabc 9ecb e03d
000001b0: bed3 29be 0019 0c3d 4965 c8bd a1ec 26bd
000001c0: bf45 663d fa34 2abd bb65 0cbe 733b c3ba
000001d0: 85df 913b d4ff b4bd 6c5b ac3d 0946 913d
000001e0: d779 803d b284 113d c70a 9bbd 8bbe 21bc
000001f0: f52a 0ebe 782b 58bc a904 3fbc f950 383d
00000200: a24a 003d 51d4 91bd 82e0 bd3b 28a2 ac3d
00000210: 0bba 2e3d b02e d4bd 8d68 e0bd 85df dbbd
00000220: 80e8 a7bd fbd5 9dbc f0d5 1abd 5489 f4bc
00000230: 446c 0b3d e4de 49bd 2e95 293e dcc9 e93d
00000240: 5757 85bd ba77 0e3e 739e 053d d417 ddbc
00000250: bc68 00bd a85f 283e 3acb 46ba 6075 20be
00000260: 160d 923b 0eae 5bbd a547 943c bd43 1bbe
00000270: d289 45ba f7c3 c1bb 3539 4e3d e1f0 0dbe
00000280: 5cac cabd 107f 97bd afa8 ec3d b39b 033e
00000290: 943f df3d aa9a b0bd 64bd 8b3d 83f0 a5bd
000002a0: d940 843d fbfc 963d 6cc6 76bc d94b af3c
000002b0: 3aee 323e 3ba2 8e3c 564b 10be 573b 04be
000002c0: 896f 953d 249d b23d b1f4 c8bd 5607 3cbd
000002d0: 027e 82bd f299 7bbd cbb6 a3bd ad38 373d
000002e0: 2247 493d 5689 03bd 3d29 8c3d 725f efbc
000002f0: 2185 803d 15c4 c5bd 6310 1b3d 4d9e 483d
00000300: 02fd 75bd e0c8 25be 2457 813d 174e 9b3c
00000310: c3e8 e33d e216 1ebe 7312 c23d 9139 8e3d
00000320: ea8b 2d3d bd85 0f3d 9ee7 293e 9728 6e3d
00000330: 9b36 93bd bea7 983d af66 063e 7000 6ebd
00000340: c622 243c 928f e0bc 378f ef3d f619 dfbc
00000350: e053 d3bc 3001 d73d 1b0a efbd 8c0f 3fbd
00000360: 90b4 cb3c 6507 f4bd e2f8 153c 7c4d 713c
00000370: af9c 8dbd ebc7 a6bd f18e ba3d da6b 95bd
00000380: 7f5d 9dbd a7bc 0b3e 849b 103e bf45 0f3e
00000390: 67fd afbd 4330 713c 1252 39bd 5016 41be
000003a0: df98 973d d159 4abd e02f 9f3d 52dc 173e
000003b0: bbd3 223e bd98 f3bd c894 1abe 301d 8a3d
000003c0: 3687 493c 2786 9abd 9b18 10ba 7363 223d
000003d0: 61f7 da3b 0346 d83d 3966 9a3d 246a 2abd
000003e0: fca3 f7bd 71f1 423d 9848 88bd 07fe d7bb
000003f0: 73f4 8c3c 14ae 143d caac 993d b529 a3bd

model.rnn.bias_ih_l0 f4 [240]
0.08876602 -0.024703214 0.061103553 0.02302566 0.16239536 0.120814905 0.03127322 -0.10188821
0.17601895 -0.016453795 -0.074361354 -0.027181543 -0.02214009 -0.022949468 0.013247297 -0.03451582
-0.0073095993 0.06828413 -0.04196735 0.035683513 -0.10075852 0.09673231 0.014086791 -0.078716144
0.010099965 0.045612935 0.0765234 -0.0078134695 0.08139539 0.1902698 0.14657798 0.115365684
0.009942293 0.07191035 0.13118796 0.07627871 -0.0755433 0.13235044 -0.07925956 0.09448097
0.08377052 0.06540791 0.094084896 0.022433264 0.108842835 0.032578204 0.08736059 -0.041405946
0.066985026 0.16567716 -0.0011205352 -0.025597325 -0.030509949 0.05808697 0.01829227 -0.09368731
-0.06254855 0.20257702 0.034782585 0.08452545 -0.023197645 -0.039732136 0.048428215 -0.052468147
-0.04445636 0.065884255 0.021901831 0.018086439 -0.12389379 -0.032267384 0.030001806 0.14065434
0.05392396 0.10929328 0.07958068 0.11747802 0.035497222 0.023495266 0.015246587 -0.021602878
-0.011052452 0.048068665 -0.09607228 -0.10207213 0.11237721 0.10114491 -0.012181884 0.14689158
-0.03569809 0.10449399 -0.03295473 0.030675763 -0.038960483 0.039224856 0.12573645 -0.08166997
0.12982427 0.05438449 -0.026715362 -0.0050576855 -0.03699831 -0.0019228254 0.09551976 0.07549576
0.085173845 -0.07694176 0.03883295 0.043415613 -0.06839277 -0.076061435 0.13817665 -0.0031691198
0.016469376 -0.102646716 0.0034346539 -0.025185643 0.017350754 0.083381146 0.06716419 0.113593996
0.024016542 -0.06574269 -0.04286347 0.053315885 0.044910494 0.011014358 0.08940555 0.050604966
-0.054525338 -0.10431361 0.076287046 0.025736615 -0.083220884 -0.03902349 0.019195374 -0.06732192
-0.06847758 0.055434555 -0.06190404 0.05084551 0.12555513 0.015927048 -0.09342235 0.005338746
-0.112317204 0.056991532 0.043276858 0.117914245 -0.07533046 0.052227188 -0.030060202 -0.0034932971
-0.0863074 -0.032239724 -0.11595591 -0.010207982 0.10718721 -0.10136492 0.061423026 0.11834172
0.10262865 0.024516799 0.04362788 -0.11914931 -0.061064847 -0.09931108 -0.045699548 0.10840606
-0.03421976 0.094200045 0.09529828 -0.05988037 0.11133528 -0.0903146 -0.074034445 -0.058087315
0.004431917 -0.11179514 0.11197835 0.044236153 0.121820726 0.086411305 0.0758478 0.11519762
0.14195877 -0.045624524 0.1527028 -0.042029854 -0.007247191 0.14056315 0.023965282 0.009501539
-0.03216099 -0.008068004 0.13621312 0.047672175 -0.010358326 0.1707507 -0.015134554 -0.06464593
-0.12531044 -0.0339089 0.023603361 -0.035492174 0.060482875 -0.01087127 -0.086748786 0.06653053
-0.08847204 0.06316458 -0.010883362 0.045369014 0.14472124 0.0031723352 0.007973168 0.0475513
0.09969141 0.15019956 0.020991147 0.011931422 -0.03831708 0.06818995 0.015526886 0.0020431115
-0.043745182 0.081073545 0.134458 -0.025344329 -0.056980237 -0.06560251 -0.073322445 0.045659456
0.117441475 0.053972628 0.014796963 0.12084349 0.085507445 0.20625046 0.13151711 0.11058828
00000000: f6ca b53d 655e cabc b847 7a3d 4fa0 bc3c
00000010: f84a 263e ce6d f73d 5918 003d c4aa d0bd
00000020: 503e 343e 1cca 86bc c44a 98bd d4ab debc
00000030: 225f b5bc 8600 bcbc 310b 593c 7660 0dbd
00000040: 5d85 efbb 8dd8 8b3d f5e5 2bbd e028 123d
00000050: 7c5a cebd 971b c63d 49cc 663c ee35 a1bd
00000060: 537a 253c a1d4 3a3d 4db8 9c3d 1104 00bc
00000070: a0b2 a63d 16d6 423e 8a18 163e d844 ec3d
00000080: 00e5 223c bc45 933d 2356 063e 0338 9c3d
00000090: 72b6 9abd e086 073e d652 a2bd 3d7f c13d
000000a0: e18f ab3d 95f4 853d 95af c03d f7c5 b73c
000000b0: fee8 de3d b970 053d 1cea b23d 4899 29bd
000000c0: 722f 893d 46a7 293e ecde 92ba 7bb1 d1bc
000000d0: 00f0 f9bc 9aec 6d3d acd9 953c 22df bfbd
000000e0: 7419 80bd 5a70 4f3e 2f78 0e3d ae1b ad3d
000000f0: fd08 bebc 2abe 22bd aa5c 463d d7e8 56bd
00000100: df17 36bd 53ee 863d 786b b33c 032a 943c
00000110: 07bc fdbd ce2a 04bd 59c6 f53c b107 103e
00000120: 5fdf 5c3d 28d5 df3d 32fb a23d 5198 f03d
00000130: 8965 113d 2579 c03c d2cc 793c 85f8 b0bc
00000140: 5815 35bc a6e3 443d 8bc1 c4bd 310b d1bd
00000150: 0626 e63d 1025 cf3d 8696 47bc bf6a 163e
00000160: 2938 12bd f200 d63d 8afb 06bd bd4b fb3c
00000170: 0795 1fbd 3eaa 203d 0ec1 003e 9642 a7bd
00000180: a7f0 043e 45c2 5e3d 2dda dabc f1ba a5bb
00000190: 8a8b 17bd 5007 fcba dd9f c33d 859d 9a3d
000001a0: a06f ae3d a493 9dbd 4d0f 1f3d 92d4 313d
000001b0: 8211 8cbd 19c6 9bbd 2e7e 0d3e 02b1 4fbb
000001c0: c9ea 863c 7138 d2bd ee17 613b 1f52 cebc
000001d0: 2b23 8e3c bcc3 aa3d 618d 893d f8a3 e83d
000001e0: 57be c43c 1aa4 86bd 9b91 2fbd c261 5a3d
000001f0: 11f4 373d 9175 343c 421a b73d 2747 4f3d
00000200: f655 5fbd 60a2 d5bd 623c 9c3d 98d5 d23c
00000210: b66f aabd 18d7 1fbd 9e3f 9d3c 13e0 89bd
00000220: f93d 8cbd 580f 633d 178f 7dbd 6243 503d
00000230: 8691 003e 7179 823c 3854 bfbd a6f0 ae3b
00000240: 9006 e6bd f46f 693d 1343 313d 067d f13d
00000250: db46 9abd 2dec 553d d040 f6bc cdef 64bb
00000260: efc1 b0bd cd0d 04bd 4b7a edbd 613f 27bc
00000270: f884 db3d 6998 cfbd b696 7b3d 255d f23d
00000280: f82e d23d 74d7 c83c 26b3 323d 8e04 f4bd
00000290: 221f 7abd 9c63 cbbd 732f 3bbd ff03 de3d
000002a0: 052a 0cbd f4eb c03d bf2b c33d 1e45 75bd
000002b0: c003 e43d dcf6 b8bd 5f9f 97bd f7ec 6dbd
000002c0: 9d39 913b daf4 e4bd e854 e53d f830 353d
000002d0: 257d f93d 69f8 b03d 1756 9b3d bbec eb3d
000002e0: a45d 113e c8e0 3abd 1f5e 1c3e 7f27 2cbd
000002f0: d879 edbb c9ef 0f3e d752 c43c 58ac 1b3c
00000300: 3ebb 03bd a92f 04bc 747b 0b3e e643 433d
00000310: f8b5 29bc 46d9 2e3e ecf6 77bc 1665 84bd
00000320: 6151 00be 0fe4 0abd d65b c13c 3e60 11bd
00000330: e4bc 773d 691d 32bc 59a9 b1bd 2941 883d
00000340: d430 b5bd 6e5c 813d 2150 32bc dcd4 393d
00000350: ce31 143e f4e6 4f3b e4a1 023c 27c5 423d
00000360: 032b cc3d eacd 193e a0f5 ab3c 037c 433c
00000370: 5ff2 1cbd 2ca7 8b3d 7b64 7e3c b9e5 053b
00000380: 262e 33bd e309 a63d 5caf 093e e99e cfbc
00000390: 1c64 69bd 9c5a 86bd 142a 96bd 6905 3b3d
000003a0: 2885 f03d 6712 5d3d f66e 723c cb7c f73d
000003b0: 871e af3d 5233 533e 6cac 063e 1c7c e23d

model.rnn.bias_hh_l0 f4 [240]
0.0019034642 0.13899529 0.03411551 -0.031833995 0.06651909 0.007804816 0.18553945 0.05429825
0.024756856 -0.056593124 0.0743203 0.05646204 0.09985342 0.11812381 -0.02593396 -0.035083875
0.040900055 0.13688968 -0.037585538 0.16272503 -0.07615063 0.05599334 0.12431054 0.1264174
-0.09646582 -0.008191466 0.12548658 -0.06278335 -0.023707522 0.047943212 0.014854439 0.12563854
-0.01856934 0.18882184 -0.03408278 0.026029121 0.10997209 -0.059510145 0.10054422 0.20857409
0.014626066 0.14056031 0.025802374 0.058398128 0.14103922 0.059900932 -0.00027845026 0.04826036
0.05545738 -0.01163727 0.0216199 0.15325421 0.087940656 0.07642602 -0.037817094 -0.043331426
-0.03190658 0.12272576 0.08600062 0.06984722 -0.046899784 -0.043346822 -0.05315642 -0.050382927
-0.019937381 0.004593863 0.1456717 -0.10417194 0.0555322 -0.11449532 0.056862935 0.09225405
-0.06312239 0.020650012 -0.014088795 -0.030317105 -0.06863036 0.11680521 -0.029053682 0.15919085
-0.037296377 -0.027390115 -0.092295736 -0.015605206 0.10744611 0.15156573 0.028073372 0.07625041
0.10387429 0.07904235 0.079239994 -0.068252996 -0.0073265354 -0.0028919484 -0.028831631 -0.0014194949
-0.03978993 0.07617611 -0.1212314 -0.16164923 -0.072833024 -0.023725357 0.14907931 0.0313692
0.042786557 -0.049777746 0.084858224 0.015715322 0.07361486 0.043237504 0.10490443 0.014065895
-0.06061072 0.06166178 0.062920846 -0.028058853 -0.10052876 -0.022573054 -0.033740666 -0.08511016
0.04950581 -0.07866218 0.07262839 0.086248375 -0.11691596 0.07637804 0.035722483 -0.04499975
0.099104814 -0.10495476 0.07474968 -0.09501876 -0.06153064 0.09951014 -0.0018555247 0.06646161
0.13054998 0.12269007 -0.10091749 0.020861873 0.012933934 -0.0016386318 0.028273322 0.12742332
-0.09745572 0.13372067 0.08059284 -0.076998144 0.11822492 0.025921235 0.062111214 0.04704401
0.14205624 0.058780804 -0.11412965 -0.080472186 -0.051890843 -0.1270516 -0.032191765 -0.015853543
-0.09593492 -0.087884665 0.067819506 0.010703575 0.06937207 0.051301837 -0.08353841 -0.087049864
-0.14287587 0.020096695 -0.115032256 0.073845744 0.030498745 -0.09033136 -0.030895691 -0.0034260647
0.070673876 0.10675371 -0.12354676 0.039722733 0.017907029 -0.010607956 0.031621587 0.07526688
0.1955951 -0.08021392 0.037833337 0.10957261 -0.0057418165 -0.009201087 0.12308295 0.100576624
0.031799123 -0.002653979 -0.045618318 0.017275352 0.052160013 -0.0052089146 -0.022027645 -0.013774007
0.029198 0.098951265 0.09503901 -0.067971386 0.10247876 0.08095362 0.044145368 -0.055226903
0.00012596938 -0.01497735 0.057712503 0.08905518 0.100284085 0.021981966 0.058559757 -0.11126086
-0.02174778 0.111779116 -0.02236835 0.009438611 0.12218515 -0.020264653 0.032443676 0.05690949
0.039831217 0.1289805 -0.0426244 0.1427073 0.072862506 0.10780757 0.06755199 0.059340566
0.062836036 0.03633762 -0.10890687 0.043949485 0.13191827 0.10176515 0.063855045 -0.10150033
00000000: a97d f93a c854 0e3e b4bc 0b3d 5d64 02bd
00000010: 293b 883d 8bbf ff3b 0efe 3d3e d767 5e3d
00000020: e4ce ca3c 31ce 67bd 3e35 983d bd44 673d
00000030: f37f cc3d e5ea f13d 7573 d4bc 1cb4 0fbd
00000040: d186 273d cf2c 0c3e 4bf3 19bd 64a1 263e
00000050: ddf4 9bbd 4659 653d 8696 fe3d 9073 013e
00000060: df8f c5bd 8035 06bc 8e7f 003e 8f94 80bd
00000070: 4736 c2bc 1a60 443d 0860 733c 64a7 003e
00000080: bb1e 98bc 835a 413e 639a 0bbd 063b d53c
00000090: 0c39 e13d e9c0 73bd 21ea cd3d 7294 553e
000000a0: 2ba2 6f3c 0bef 0f3e 805f d33c e032 6f3d
000000b0: 966c 103e ae5a 753d f6fc 91b9 a8ac 453d
000000c0: 4727 633d 40aa 3ebc 371c b13c acee 1c3e
000000d0: 3b1a b43d 3f85 9c3d 19e6 1abd 4b7c 31bd
000000e0: 79b0 02bd a557 fb3d 1821 b03d 0f0c 8f3d
000000f0: fd19 40bd 708c 31bd 8cba 59bd 545e 4ebd
00000100: b853 a3bc 1e88 963b f62a 153e 1958 d5bd
00000110: bb75 633d 867c eabd 1ce9 683d b1ef bc3d
00000120: 5046 81bd 372a a93c b0d4 66bc 945b f8bc
00000130: 138e 8cbd 9237 ef3d fd01 eebc ed02 233e
00000140: 16c4 18bd 3c61 e0bc 8c05 bdbd faac 7fbc
00000150: b50c dc3d 0c34 1b3e 21fa e53c 2d29 9c3d
00000160: 0bbc d43d f5e0 a13d 9448 a23d 3ac8 8bbd
00000170: 6f13 f0bb d886 3dbb 5030 ecbc 580e baba
00000180: c4fa 22bd 3802 9c3d 2b48 f8bd 6087 25be
00000190: 7b29 95bd ae5b c2bc 3fa8 183e fe7c 003d
000001a0: f540 2f3d c0e3 4bbd 26ca ad3d 6bbd 803c
000001b0: 63c3 963d cf19 313d 22d8 d63d a474 663c
000001c0: f242 78bd 1091 7c3d a5dc 803d aedb e5bc
000001d0: 06e2 cdbd 20eb b8bc a733 0abd 3c4e aebd
000001e0: 9bc6 4a3d a319 a1bd 31be 943d fda2 b03d
000001f0: a371 efbd 176c 9c3d bd51 123d a851 38bd
00000200: 77f7 ca3d 85f2 d6bd 5c16 993d 3299 c2bd
00000210: 8d07 7cbd f9cb cb3d 1435 f3ba 061d 883d
00000220: e5ae 053e ee44 fb3d d4ad cebd 85e6 aa3c
00000230: dae8 533c 5cc7 d6ba 749d e73c 427b 023e
00000240: dd96 c7bd 12ee 083e dc0d a53d 34b1 9dbd
00000250: e81f f23d c558 d43c 5468 7e3d 38b1 403d
00000260: 3177 113e 24c4 703d cebc e9bd 9ace a4bd
00000270: 7e8b 54bd d119 02be 83db 03bd 4adf 81bc
00000280: 8779 c4bd e0fc b3bd f4e4 8a3d 0c5e 2f3c
00000290: f212 8e3d e021 523d 3016 abbd 3347 b2bd
000002a0: 0d4e 12be d3a1 a43c 0896 ebbd 703c 973d
000002b0: 81d8 f93c a6ff b8bd f618 fdbc d487 60bb
000002c0: 77bd 903d b0a1 da3d 1506 fdbd 4eb4 223d
000002d0: c3b1 923c fecc 2dbc a385 013d 8625 9a3d
000002e0: 154a 483e 3247 a4bd 21f7 1a3d 9b67 e03d
000002f0: d925 bcbb 28c0 16bc ea12 fc3d 1efb cd3d
00000300: cc3f 023d 61ee 2dbb 46da 3abd 0a85 8d3c
00000310: bda5 553d 8baf aabb 5273 b4bc 5fac 61bc
00000320: a530 ef3c f6a6 ca3d d0a3 c23d 9534 8bbd
00000330: 62e0 d13d 03cb a53d c6d1 343d 9b35 62bd
00000340: a616 0439 8f63 75bc f263 6c3d 9062 b63d
00000350: be61 cd3d 8613 b43c 5bdc 6f3d bcdc e3bd
00000360: 6628 b2bc 73ec e43d d43d b7bc 67a4 1a3c
00000370: 353c fa3d 0f02 a6bc a9e3 043d ed19 693d
00000380: 0f26 233d 7713 043e ec96 2ebd dd21 123e
00000390: f038 953d 37ca dc3d b358 8a3d 180f 733d
000003a0: 2eb0 803d c2d6 143d 910a dfbd 6004 343d
000003b0: 9515 073e 3f6a d03d 6fc6 823d 68df cfbd

model.rnn.weight_ih_l1 f4 [240, 60]
0.10613231 0.021487083 -0.0054276725 -0.0027621416 -0.025849806 0.025669806 -0.1648531 0.08906486
-0.1400481 -0.047329098 0.059419166 -0.10658051 -0.021814445 0.015068317 -0.10283089 -0.10631208
0.13986824 0.04489536 -0.09933483 0.04149477 -0.018958973 0.07729671 -0.0035241502 0.114005804
-0.08613904 0.049712196 0.17755874 -0.062833995 0.07060254 -0.022129629 -0.029215222 -0.13090307
0.028248433 -0.04710768 -0.036874745 -0.10693189 -0.002390833 -0.13149914 0.10664098 0.15982546
0.15193461 0.09079564 -0.03307712 -0.0140784355 -0.07331304 0.20128946 0.039522514 0.017971646
-0.15040247 -0.050878238 -0.1119301 -0.031164844 -0.049926355 0.020935899 -0.030895885 -0.008639258
-0.05747142 0.043517806 -0.07052926 0.0663861 -0.050870366 -0.09910973 -0.058097247 0.13124123
-0.054899093 -0.09160334 0.0005870074 -0.053426944 -0.13883634 -0.052429777 -0.055260416 0.079819866
0.1609641 -0.015407261 -0.17613153 0.030199334 -0.057275835 0.114307374 -0.09655203 -0.11673877
0.01937949 0.0040335897 0.03323302 0.12533066 0.09914613 0.057962555 -0.011975922 0.04433206
0.088192485 -0.07368744 -0.09795871 -0.050278734 0.055789877 -0.0727559 0.097466186 0.05310313
0.007930057 0.10356307 0.11214031 0.04441773 0.035194878 0.059274018 -0.05842938 0.07556191
-0.096981 -0.02851621 0.014449394 -0.0578805 0.035908658 -0.12841704 0.09365073 0.060830027
-0.093173504 -0.10915099 0.05126338 0.0499758 0.12464919 0.06691211 -0.022359854 -0.079139136
0.027715417 0.04409845 0.055709746 0.068674155 0.05584115 0.10772319 0.045020644 0.08493445
-0.14529498 0.06439533 -0.07015165 0.015870035 -0.046075955 -0.0014013534 0.119411014 -0.14880307
0.17666838 -0.09118016 0.016550476 0.079151 0.03820235 -0.009411173 0.0050745686 -0.07627412
-0.061255597 -0.05610403 -0.1387904 -0.008716799 -0.026360288 -0.014368868 -0.01579891 0.013973167
0.046307113 0.06522297 -0.08059837 -0.031034127 0.010320773 0.06499995 0.08425708 0.06873879
0.030643864 0.078590915 -0.04217317 0.12134632 -0.069545716 0.15935804 -0.032748073 0.07077925
0.069227695 0.04740653 -0.10039352 0.08687939 0.02671703 -0.066368714 -0.041186955 0.0027298375
0.131478 0.019795401 -0.09137786 -0.15617532 0.14122239 -0.052183017 -0.05171702 -0.009343753
0.10020279 0.13792442 -0.028316813 0.005910843 0.046076246 -0.020081595 0.0506164 -0.107702784
-0.03903033 -0.10205887 -0.088866234 0.0061842054 0.09516975 0.04764004 -0.13718657 0.07886056
-0.02733759 -0.062730715 -0.0660127 0.041413445 0.055589974 -0.068408184 0.08417846 0.08475553
0.027888117 0.089035414 -0.096834734 -0.13017255 0.08824307 0.033351142 -0.15664707 -0.022945732
0.11075162 -0.17312302 -0.0106077185 0.0900551 -0.03552293 -0.004335147 0.17825338 0.03798273
-0.07057721 0.16195612 -0.059455883 0.009026454 -0.031507656 -0.16235006 -0.059808098 -0.1698857
0.06717043 0.092892714 -0.12567697 0.12792215 0.012835063 -0.15865466 -0.08384274 0.029981352
-0.001731208 0.0066576144 0.1366645 0.072940685 -0.07385634 -0.022188356 -0.0878552 0.13162266
-0.009598446 -0.0128499735 -0.10187315 0.000108237175 0.003027622 -0.070423834 0.04500491 0.022862872
00000000: e65b d93d ae05 b03c 9eda b1bb 0c05 35bb
00000010: f9c2 d3bc 7c49 d23c 40cf 28be a367 b63d
00000020: c568 0fbe 28dc 41bd 8361 733d e246 dabd
00000030: 35b4 b2bc 1ae1 763c 0099 d2bd 26ba d9bd
00000040: 9f39 0f3e 32e4 373d 0f70 cbbd 6cf6 293d
00000050: d94f 9bbc bd4d 9e3d 6ef5 66bb e07b e93d
00000060: aa69 b0bd 049f 4b3d f5d1 353e 1caf 80bd
00000070: 1198 903d 3249 b5bc c354 efbc 740b 06be
00000080: 4269 e73c fcf3 40bd f909 17bd 1bff dabd
00000090: 86af 1cbb b6a7 06be 9666 da3d 49a9 233e
000000a0: bf94 1b3e 11f3 b93d e07b 07bd 3da9 66bc
000000b0: 2625 96bd d31e 4e3e 5ce2 213d 4639 933c
000000c0: 1b03 1abe b365 50bd 9c3b e5bd 6a4d ffbc
000000d0: 947f 4cbd c381 ab3c 5e19 fdbc ad8b 0dbc
000000e0: 2767 6bbd ba3f 323d a571 90bd 70f5 873d
000000f0: 725d 50bd 0bfa cabd 61f7 6dbd 1a64 063e
00000100: dfdd 60bd 889a bbbd 66e1 193a 36d6 5abd
00000110: 1d2b 0ebe 9bc0 56bd bf58 62bd 9978 a33d
00000120: c6d3 243e bd6e 7cbc d35b 34be 9864 f73c
00000130: 119a 6abd fc19 ea3d 12bd c5bd bc14 efbd
00000140: bcc1 9e3c 342c 843b 591f 083d ae56 003e
00000150: 200d cb3d 256a 6d3d a836 44bc 8995 353d
00000160: 439e b43d 71e9 96bd 939e c8bd 13f1 4dbd
00000170: ed83 643d 0c01 95bd 5a9c c73d ab82 593d
00000180: 12ed 013c e018 d43d d2a9 e53d 5eef 353d
00000190: 8128 103d 50c9 723d a553 6fbd 34c0 9a3d
000001a0: f99d c6bd d49a e9bc 27bd 6c3c 1a14 6dbd
000001b0: f514 133d c27f 03be f4cb bf3d e828 793d
000001c0: c0d1 bebd 8e8a dfbd 8df9 513d 6db3 4c3d
000001d0: 1348 ff3d 3709 893d 032c b7bc b313 a2bd
000001e0: 710b e33c 94a0 343d e72f 643d 09a5 8c3d
000001f0: b1b9 643d fa9d dc3d 9167 383d 1df2 ad3d
00000200: 35c8 14be b3e1 833d abab 8fbd e001 823c
00000210: 24ba 3cbd 9ead b7ba c38d f43d d55f 18be
00000220: 8ee8 343e aabc babd dd94 873c eb19 a23d
00000230: 117a 1c3d 5231 1abc 9148 a63b 9b35 9cbd
00000240: 26e7 7abd 57cd 65bd 121f 0ebe e8d0 0ebc
00000250: 88f1 d7bc 676b 6bbc b76c 81bc b6ef 643c
00000260: 87ac 3d3d 9f93 853d c210 a5bd 483b febc
00000270: 7618 293c b21e 853d fa8e ac3d ecc6 8c3d
00000280: d708 fb3c 46f4 a03d c6bd 2cbd 6b84 f83d
00000290: fc6d 8ebd c12e 233e d822 06bd b6f4 903d
000002a0: 40c7 8d3d 592d 423d 1e9b cdbd d2ed b13d
000002b0: acdd da3c 52ec 87bd a7b3 28bd 13e7 323b
000002c0: 2ba2 063e f729 a23c 5124 bbbd 6cec 1fbe
000002d0: 9a9c 103e dcbd 55bd 3ad5 53bd 8a16 19bc
000002e0: 1f37 cd3d 0f3c 0d3e a9f8 e7bc bfaf c13b
000002f0: 72ba 3c3d 2882 a4bc 2453 4f3d 4793 dcbd
00000300: 44de 1fbd 3e04 d1bd 80ff b5bd e0a4 ca3b
00000310: 5ce8 c23d 3422 433d a37a 0cbe a581 a13d
00000320: 15f3 dfbc f678 80bd ab31 87bd 25a1 293d
00000330: 50b2 633d 9719 8cbd c265 ac3d 4f94 ad3d
00000340: 9f75 e43c 3358 b63d 4a51 c6bd f44b 05be
00000350: c8b8 b43d 359b 083d 1768 20be b0f8 bbbc
00000360: bfd1 e23d 2947 31be ffcb 2dbc cf6e b83d
00000370: 7e80 11bd d90d 8ebb 0e88 363e c793 1b3d
00000380: c98a 90bd d3d7 253e 0388 73bd b1e3 133c
00000390: 2c0e 01bd 183f 26be 56f9 74bd 84f6 2dbe
000003a0: a790 893d 893e be3d 77b1 00be 06fe 023e
000003b0: 284a 523c 5e76 22be beb5 abbd 749b f53c
000003c0: b3e9 e2ba 1e28 da3b c7f1 0b3e ed61 953d
000003d0: fe41 97bd 5bc4 b5bc 6ded b3bd 17c8 063e
000003e0: cd42 1dbc b288 52bc dfa2 d0bd 64fd e238
000003f0: 116b 463b 5f3a 90bd 1257 383d eb4a bb3c

model.rnn.weight_hh_l1 f4 [240, 60]
0.1387876 0.015994202 0.02026555 0.025355626 0.08361147 0.023762207 -0.03133259 0.03077531
-0.02539456 0.10287215 -0.037350316 -0.12570612 -0.07420011 -0.027226739 -0.16841674 0.01730897
-0.06586162 0.036887217 -0.15309754 -0.11637769 0.008115634 -0.085794285 0.020505957 0.087244704
-0.04469237 0.1199306 0.08264446 0.023997502 0.031565066 0.058267534 -0.15844828 -0.08152864
-0.0062114154 -0.098518975 -0.0621922 0.07838689 -0.023074003 0.13384676 0.071320936 -0.018893644
-0.07577218 0.09927839 -0.05205518 0.048519984 -0.044803437 0.046659693 0.02708478 -0.011926937
-0.084075436 0.07824072 0.16009541 -0.09564619 0.07412856 -0.09546783 -0.04683055 -0.08773338
0.20108578 0.058516603 0.05080302 -0.030657038 0.02877783 -0.012966045 -0.09613138 0.025247654
0.058279704 0.081804976 0.016015034 0.09047517 0.09858919 0.09358448 -0.06318921 -0.014028029
0.15522164 0.08029711 0.07247323 0.083526604 -0.1788769 0.044559285 -0.11482183 0.08023454
-0.0010483051 0.035268046 0.03880021 -0.039652504 -0.032398313 -0.08498228 -0.010285295 -0.06817042
-0.09708127 -0.15346126 0.012554984 -0.113006465 0.1575281 -0.016668772 -0.0659997 -0.08597516
0.12041666 -0.01381822 -0.10708467 -0.11715192 -0.049449675 -0.10101615 -0.10242697 -0.07628929
-0.12906636 0.01630824 0.003974112 0.04142977 0.027529508 -0.009725352 -0.08523786 0.12785935
0.0811412 0.031271834 0.058136366 0.11255488 -0.026051585 -0.09936471 0.006217349 -0.08923759
0.050832428 0.016488133 -0.047594476 -0.090641014 0.008951377 -0.087956555 -0.07245822 -0.15677978
-0.07688623 0.06880311 0.011394919 -0.11064268 -0.050406013 0.044140693 0.07942406 0.0931106
0.030095577 0.014377722 0.046207685 -0.013007052 0.039670035 -0.01058576 -0.076510176 0.014960155
-0.13304171 0.038454697 -0.0436096 0.065654464 -0.034466054 -0.01562722 -0.12534977 -0.042521585
0.086706966 -0.005845745 -0.049410168 -0.13507995 0.038364857 -0.031459164 0.09343974 -0.016404608
-0.01368647 -0.036303166 -0.08308513 0.110441 0.013751261 0.020214008 -0.08403841 0.07395435
-0.07085042 0.1513093 0.066246875 -0.076093525 -0.065691166 0.07352304 -0.023912048 0.019986074
0.13774969 -0.014680261 0.04410048 -0.088928655 -0.117332496 -0.05079244 -0.17261942 0.036880065
-0.021417655 0.033251345 -0.063182496 -0.14127652 -0.015525562 0.13995905 0.037136693 -0.070004314
0.032962307 0.072630934 -0.06005083 -0.115800835 0.026638247 -0.05800864 -0.15153591 -0.16442668
0.028713819 -0.12461906 -0.015174824 0.10947927 -0.042039935 0.13608208 0.16127498 -0.027282573
0.0058766482 -0.19697098 -0.044663683 0.063947774 0.081825756 0.046367466 0.008157316 0.04210697
0.07327286 0.15445337 0.118377216 -0.13747042 0.040221676 0.054414533 0.04665845 0.10427865
-0.11427299 -0.18572836 -0.08307596 -0.113783255 -0.08703223 -0.062567756 0.15449215 -0.015972355
-0.03370455 0.043017242 -0.06503401 -0.11900758 -0.019406985 0.14598048 -0.040985666 0.03545557
0.036028765 -0.07835 -0.011360128 0.023617415 0.022975171 0.08204323 -0.12774414 -0.055065926
0.102980316 -0.04646049 -0.006978392 0.0886513 -0.05303363 -0.09385905 -0.15122104 -0.03618503
00000000: 561e 0e3e 4606 833c f003 a63c 9ab6 cf3c
00000010: 7e3c ab3d f6a8 c23c 9a56 00bd 811c fc3c
00000020: 4108 d0bc a2ae d23d a5fc 18bd 1bb9 00be
00000030: 3af6 97bd 9c0a dfbc 7075 2cbe 8bcb 8d3c
00000040: 75e2 86bd 0d17 173d 9ac5 1cbe 6d57 eebd
00000050: 70f7 043c eab4 afbd 1cfc a73c 5aad b23d
00000060: 590f 37bd 2d9e f53d 8041 a93d 6996 c43c
00000070: 5f4a 013d f0a9 6e3d 4440 22be 7df8 a6bd
00000080: 2189 cbbb 51c4 c9bd 40bd 7ebd 4e89 a03d
00000090: b105 bdbc 200f 093e b610 923d d8c6 9abc
000000a0: 722e 9bbd 7852 cb3d d037 55bd e4bc 463d
000000b0: cf83 37bd 3c1e 3f3d e7e0 dd3c 3369 43bc
000000c0: be2f acbd ac3c a03d 0df0 233e 26e2 c3bd
000000d0: b7d0 973d a384 c3bd 64d1 3fbd 8fad b3bd
000000e0: 6ee9 4d3e 1baf 6f3d d416 503d 7824 fbbc
000000f0: 7cbf eb3c 896f 54bc 87e0 c4bd 2bd4 ce3c
00000100: b3b6 6e3d 5e89 a73d f631 833c 0c4b b93d
00000110: 21e9 c93d 38a9 bf3d 5869 81bd d1d5 65bc
00000120: 6cf2 1e3e d072 a43d d86c 943d ff0f ab3d
00000130: 822b 37be cc83 363d b527 ebbd 0252 a43d
00000140: 4867 89ba 3a75 103d f8ec 1e3d aa6a 22bd
00000150: 18b4 04bd 310b aebd a783 28bc ef9c 8bbd
00000160: 8bd2 c6bd f324 1dbe 6bb3 4d3c ef6f e7bd
00000170: 0c4f 213e f38c 88bc da2a 87bd bf13 b0bd
00000180: 039d f63d d165 62bc 354f dbbd 59ed efbd
00000190: be8b 4abd 8ee1 cebd 3bc5 d1bd 8f3d 9cbd
000001a0: f929 04be dc98 853c 4539 823b 43b2 293d
000001b0: 9085 e13c 1557 1fbc 3091 aebd 90ed 023e
000001c0: 5c2d a63d e516 003d 6620 6e3d 2c83 e63d
000001d0: 226a d5bc ba7f cbbd e7ba cb3b 33c2 b6bd
000001e0: aa35 503d 1f12 873c 6df2 42bd ffa1 b9bd
000001f0: cca8 123c 9122 b4bd fa64 94bd e18a 20be
00000200: 8776 9dbd a5e8 8c3d c1b1 3a3c a198 e2bd
00000210: 8976 4ebd dfcc 343d 15a9 a23d c5b0 be3d
00000220: 008b f63c 8990 6b3c 4544 3d3d 881b 55bc
00000230: 0c7d 223d e56f 2dbc 5eb1 9cbd 701b 753c
00000240: 163c 08be ac82 1d3d fb9f 32bd d975 863d
00000250: 472c 0dbd a804 80bc b15b 00be 1d2b 2ebd
00000260: 6c93 b13d aa8d bfbb 5162 4abd 6652 0abe
00000270: 7824 1d3d 53db 00bd 565d bf3d f562 86bc
00000280: 373d 60bc a1b2 14bd 8928 aabd e42e e23d
00000290: f84c 613c d997 a53c 541c acbd 6175 973d
000002a0: 061a 91bd d3f0 1a3e 71ac 873d ecd6 9bbd
000002b0: 1789 86bd 3f93 963d 33e3 c3bc d6b9 a33c
000002c0: 410e 0d3e 7a85 70bc b4a2 343d 3a20 b6bd
000002d0: 054c f0bd bc0b 50bd 25c3 30be 8d0f 173d
000002e0: 1474 afbc 9032 083d d365 81bd cbaa 10be
000002f0: ed5e 7ebc 6d51 0f3e a51c 183d 6c5e 8fbd
00000300: 7c03 073d 87bf 943d dcf7 75bd fd28 edbd
00000310: 7438 da3c 789a 6dbd 3b2c 1bbe 785f 28be
00000320: 3e39 eb3c 4738 ffbd d39f 78bc ab36 e03d
00000330: 1132 2cbd 1a59 0b3e 4525 253e b47f dfbc
00000340: e690 c03b c3b2 49be 44f1 36bd 0df7 823d
00000350: 4394 a73d d0eb 3d3d 43a6 053c 5c78 2c3d
00000360: 1510 963d 0629 1e3e c16f f23d 0cc5 0cbe
00000370: 7cbf 243d c6e1 5e3d ee1c 3f3d 0b90 d53d
00000380: f507 eabd 932f 3ebe bb23 aabd 3207 e9bd
00000390: f43d b2bd 8623 80bd 3133 1e3e 75d8 82bc
000003a0: c80d 0abd d932 303d 8d30 85bd 3fba f3bd
000003b0: 66fb 9ebc e87b 153e 96e0 27bd dc39 113d
000003c0: e692 133d f775 a0bd d51f 3abc 4f79 c13c
000003d0: 6d36 bc3c 4806 a83d 5ccf 02be cf8c 61bd
000003e0: 58e7 d23d 5b4d 3ebd ffaa e4bb d08e b53d
000003f0: cb39 59bd 2c39 c0bd b0d9 1abe c136 14bd

model.rnn.bias_ih_l1 f4 [240]
0.0079100495 -0.059468903 -0.050925195 0.13640484 -0.07461821 0.09386534 -0.0070628673 0.0070810374
-0.060079504 -0.016740499 0.046669923 0.04266881 0.14888537 0.05422787 0.023132306 0.03189185
0.1281573 0.124597095 0.2017073 -0.009841392 0.16546723 -0.012743091 0.09718314 0.10500507
0.07831374 0.011500186 0.072505735 0.19364065 -0.008262165 -0.021195145 -0.09214555 0.03794312
0.0576132 -0.011388578 0.09114087 0.011759132 0.16351797 0.04186392 -0.058561865 0.043097336
-0.060843203 -0.11364665 0.013433416 -0.110608704 0.085807875 -0.042075057 0.050578054 0.031195264
0.027839046 0.100235924 -0.05080668 -0.0479439 0.12543553 0.0054483516 0.0836349 -0.09398759
0.20454136 -0.13391162 0.05596162 0.10087919 0.12039109 -0.028902046 0.106572956 -0.09518215
-0.03279756 0.12999845 -0.0029396464 -0.11183349 0.10773376 -0.00632154 -0.020162122 -0.066687934
0.12546419 0.103808776 -0.11874375 -0.05044934 0.02115247 -0.06790529 0.037428465 0.11239793
0.09953883 -0.11222131 0.04268043 0.053819377 0.005002031 0.009258186 -0.008063545 0.00058774604
0.05847177 0.037234504 0.045681395 -0.017731192 0.07046708 0.060473073 -0.13197574 -0.015709937
-0.095423125 0.118094794 0.020030566 0.16205803 0.027262434 0.10223233 -0.0009354728 -0.08771895
-0.1465056 0.006948834 0.0030146048 0.017965352 0.0110633345 -0.04027703 -0.0419969 -0.038035702
-0.035519995 -0.049020905 -0.06871597 0.097620584 -0.15103988 0.03113535 -0.094879575 -0.038585685
-0.12759401 0.090148054 -0.06724225 0.007699141 0.1307832 -0.060231477 -0.14188358 -0.10940952
0.13484284 0.115170196 -0.018332656 -0.09173346 0.06543608 -0.0975892 -0.09565449 -0.13581143
0.0127010625 -0.028755283 0.08084999 0.06362529 0.11956272 -0.124406 -0.052569102 0.08247539
-0.050661754 -0.07205944 -0.018246345 0.000540818 -0.042009786 0.040383928 0.09287953 0.08868116
-0.05135063 -0.11662032 -0.0038712898 -0.05629754 -0.035530828 -0.01280304 0.067681454 -0.00013804703
0.09940947 0.06883125 -0.030679695 -0.039678477 -0.08266716 0.04948165 0.063521214 -0.003514877
-0.034075014 0.008304316 -0.055778086 -0.036909524 -0.005281503 -0.052717365 0.1109427 0.0753893
-0.06110292 -0.034001533 0.10084375 0.09626619 -0.048865244 -0.029295983 0.009931846 -0.014446043
0.08365839 0.037906546 0.12628312 0.004428424 0.114613324 0.12710348 -0.027886655 0.02190533
-0.08929515 -0.06758701 0.13678825 -0.03217299 0.15645303 0.21011958 -0.050513 -0.014449443
0.059897274 -0.03399555 0.056052975 0.076815955 0.12194598 0.0620022 0.11589862 0.20116922
0.08568714 -0.0045427238 0.1135168 0.15471576 0.008655015 -0.019851876 -0.03559459 0.11098554
-0.012783943 0.170484 0.11396882 0.18116711 0.1320875 0.06496396 0.01144709 0.062339365
0.037057094 0.11297672 -0.034801472 0.07183783 0.033497736 -0.044250775 0.029073523 0.051207785
-0.060599826 -0.096126586 0.03837483 0.019851282 0.18749216 0.09886417 -0.08605077 0.14607556
00000000: 2799 013c aa95 73bd f096 50bd b6ad 0b3e
00000010: 6fd1 98bd 793c c03d a06f e7bb 0c08 e83b
00000020: ed15 76bd 5f23 89bc f628 3f3d 7dc5 2e3d
00000030: 6875 183e 0b1e 5e3d f67f bd3c 07a1 023d
00000040: ab3b 033e c32c ff3d 5c8c 4e3e ca3d 21bc
00000050: 3e70 293e 66c8 50bc f407 c73d e60c d73d
00000060: f462 a03d 476b 3c3c e37d 943d bc49 463e
00000070: 085e 07bc 71a1 adbc ceb6 bcbd 3f6a 1b3d
00000080: d2fb 6b3d 2997 3abc 10a8 ba3d 60a9 403c
00000090: 4171 273e 8079 2b3d 91de 6fbd d586 303d
000000a0: b936 79bd 93bf e8bd d517 5c3c d186 e2bd
000000b0: 0abc af3d e556 2cbd ef2a 4f3d 368d ff3c
000000c0: b60e e43c 7e48 cd3d aa1a 50bd d360 44bd
000000d0: 2c72 003e 1688 b23b c648 ab3d 917c c0bd
000000e0: 4a73 513e 2120 09be 0338 653d c099 ce3d
000000f0: 9b8f f63d fcc3 ecbc ec42 da3d dcee c2bd
00000100: bc56 06bd 501e 053e 15a7 40bb f508 e5bd
00000110: 84a3 dc3d ec24 cfbb 092b a5bc af93 88bd
00000120: af79 003e b299 d43d ec2f f3bd f8a3 4ebd
00000130: f247 ad3c ee11 8bbd 974e 193d e330 e63d
00000140: 04db cb3d 49d4 e5bd add1 2e3d b571 5c3d
00000150: 14e8 a33b a6af 173c f61c 04bc f812 1a3a
00000160: 1880 6f3d 3583 183d 6a1c 3b3d 0141 91bc
00000170: 0b51 903d 9db2 773d a624 07be 20b2 80bc
00000180: 336d c3bd afdb f13d 2417 a43c 8af2 253e
00000190: 7855 df3c 2f5f d13d 843a 75ba fea5 b3bd
000001a0: 9005 16be 0bb3 e33b ad90 453b 132c 933c
000001b0: fd42 353c 87f9 24bd f104 2cbd 53cb 1bbd
000001c0: 6a7d 11bd 25ca 48bd f5ba 8cbd 4ded c73d
000001d0: 33aa 1abe 900f ff3c 3950 c2bd 060c 1ebd
000001e0: 01a8 02be 8b9f b83d 4eb6 89bd 1349 fc3b
000001f0: 08ec 053e 48b5 76bd ee49 11be 1912 e0bd
00000200: 3e14 0a3e 5ade eb3d 5e2e 96bc c1de bbbd
00000210: 5a03 863d d9dc c7bd 80e6 c3bd 2712 0bbe
00000220: 1e18 503c 3390 ebbc ae94 a53d fa4d 823d
00000230: 4ddd f43d 93c8 febd b352 57bd dbe8 a83d
00000240: b382 4fbd e693 93bd 5c79 95bc aec5 0d3a
00000250: 7412 2cbd 9e69 253d 9f37 be3d 789e b53d
00000260: 0a55 52bd a2d6 eebd 77b5 7dbb 4098 66bd
00000270: c688 11bd d8c3 51bc 939c 8a3d b8c0 10b9
00000280: 3197 cb3d 66f7 8c3d fc53 fbbc e685 22bd
00000290: 664d a9bd 45ad 4a3d 6917 823d da59 66bb
000002a0: 3e92 0bbd d30e 083c 9077 64bd 712e 17bd
000002b0: 7510 adbb 2aee 57bd ed35 e33d b565 9a3d
000002c0: 0e47 7abd 3145 0bbd 2b87 ce3d 3527 c53d
000002d0: ec26 48bd 21fe efbc 2eb9 223c 19af 6cbc
000002e0: 1755 ab3d e543 1b3d 5d50 013e 501c 913b
000002f0: 64ba ea3d 6a27 023e 8e72 e4bc ce72 b33c
00000300: 60e0 b6bd 0f6b 8abd 3812 0c3e d3c7 03bd
00000310: 3935 203e 9629 573e b8e6 4ebd 5bbd 6cbc
00000320: d856 753d eb3e 0bbd ce97 653d af51 9d3d
00000330: d0be f93d 05f6 7d3d 415c ed3d 4eff 4d3e
00000340: bd7c af3d 21db 94bb 7f7b e83d cf6d 1e3e
00000350: c4cd 0d3c 67a0 a2bc a2cb 11bd 634c e33d
00000360: be73 51bc 5c93 2e3e 7c68 e93d df83 393e
00000370: f241 073e d30b 853d 938c 3b3c 9057 7f3d
00000380: 2ec9 173d 5760 e73d fd8b 0ebd b61f 933d
00000390: ec34 093d 4d40 35bd 992b ee3c 41bf 513d
000003a0: 8637 78bd 04de c4bd ed2e 1d3d 289f a23c
000003b0: f2fd 3f3e 4c79 ca3d 633b b0bd d594 153e
