checkpoints/epoch=1-step=100-v28.ckpt (torch, 621663 bytes, 33 tensors)

model.param_proj.proj.0.weight f4 [1, 60]
000000 15 56 37 3d 8a 3c c0 bd d9 c9 5a 3e 95 8e eb 3d
       0.04475983 -0.09386547 0.21366061 0.11501805
000010 6a 24 40 3e 2a 20 45 be cc 06 95 3b ca 67 63 be
       0.18763891 -0.19250551 0.0045479294 -0.22207561
000020 29 e6 49 be a1 96 35 3d 01 e8 a8 3d 2f 43 73 3d
       -0.19716705 0.044333104 0.08247376 0.059390243
000030 2a fb 4f 3e 48 c9 a5 bd 65 55 f8 bd 23 39 14 be
       0.20310655 -0.08095032 -0.12125663 -0.14474921
000040 2f 8c 1f 3e 59 15 5d 3e 2c ae c7 bc ab 1f 2e 3d
       0.1558082 0.21590175 -0.024375044 0.04251067
000050 7d f9 18 be dc 32 a8 3d 83 3d 23 be eb a3 80 bd
       -0.14938922 0.08212826 -0.15941434 -0.06281265
000060 4c 6e 6b 3c 73 ce 01 be 15 ed 02 bc d4 ff 9c 3d
       0.014369559 -0.1267641 -0.007991095 0.07665983
000070 7a 81 21 3e 26 26 54 be 88 8c 87 bd be e4 ca bd
       0.15772048 -0.20717677 -0.06618601 -0.0990691
000080 f6 8b cb 3d cb 18 32 3d b8 ad fe bb e0 8e 5c 3d
       0.09938805 0.043480676 -0.0077721737 0.053847194
000090 15 2a 2a 3e 2d 69 43 3e 9b 50 5b 3e 08 03 47 3d
       0.16617616 0.1908309 0.21417467 0.048586875
0000a0 49 f6 ab 3b 00 52 4a be 34 98 2e 3e 71 01 09 3e
       0.0052478653 -0.19757843 0.17050248 0.13379456
0000b0 b3 78 09 be b9 70 05 be e2 5f 0f be 6f 9a d7 bd
       -0.1342495 -0.13031282 -0.1400142 -0.10527503
0000c0 e7 21 4e 3e cd 4a 11 3e 5b 90 be 3d 48 a7 67 be
       0.2013012 0.1418869 0.09304877 -0.22622406
0000d0 7c 6c 68 be 70 e8 d8 3c 4b 0e be bd 88 dc 07 b9
       -0.22697634 0.026478022 -0.0928007 -0.00012956758
0000e0 b7 20 35 3e 0a 8b 84 bc c8 98 f9 bd 69 26 78 3d
       0.17688261 -0.01617958 -0.12187344 0.060583506

model.param_proj.proj.1.weight f4 [1, 60]
000000 08 8a f1 bd fe 19 2a be 91 f4 41 be 64 a8 de bd
       -0.117939055 -0.16611478 -0.18940951 -0.10871962
000010 a8 86 39 bd b1 0c e7 bc 0b 2d 04 be 80 af 12 be
       -0.045294434 -0.028204294 -0.12907808 -0.1432476
000020 ca 07 09 3e 9a e0 29 3e 4f 30 e7 3d 85 44 23 bd
       0.13381878 0.16589585 0.11288511 -0.039860267
000030 8a bf 8b 3d 10 03 37 3e 47 c6 09 3e af 68 05 3e
       0.068236426 0.17872262 0.13454543 0.13028215
000040 c1 b4 92 bd 0f 66 d1 bd 99 4f 18 be 14 e2 21 3e
       -0.07163382 -0.10224544 -0.14874114 0.15808898
000050 21 1d f9 bd 02 5f 4b 3e 79 a9 cb bc 33 17 65 3c
       -0.12163759 0.19860461 -0.024861084 0.013982582
000060 6e 8f 3b be a0 c4 39 3e 77 70 c3 bd af 64 41 bc
       -0.18316433 0.18141413 -0.09542935 -0.01180379
000070 b2 35 5a be 1b 40 22 3e 3d db 1f bc d4 cf ad bd
       -0.21309546 0.15844767 -0.00975686 -0.08486906
000080 20 0b 37 37 1d d4 a9 3d 2f b3 3d be d3 1b 30 3e
       1.091024e-05 0.082924105 -0.18525384 0.17198114
000090 8f 43 b5 3d 37 d3 8a 3d ac 0d d3 3d bc ee 09 3e
       0.088507764 0.06778567 0.10305342 0.13469976
0000a0 7a 96 2b be ae 59 db 3d b4 8f b2 3d 93 87 4e be
       -0.16756621 0.107104644 0.087188154 -0.20168905
0000b0 ed be b8 bd 9f 74 fc bd 1b c0 1d 3e 13 0a 27 be
       -0.09020791 -0.12326931 0.15405314 -0.16312437
0000c0 de 5b 81 bb f2 a4 c1 bd 99 2f 28 3d 8e 7e dc 3d
       -0.003947719 -0.09455289 0.041061018 0.10766326
0000d0 f0 f4 25 3e 12 01 df 3c 46 f5 07 be 39 53 3d 3d
       0.16206717 0.02722219 -0.13277158 0.046221945
0000e0 54 56 c5 3d 1c 0e e7 3d 3f 35 13 be 00 35 16 3e
       0.096356064 0.11281988 -0.1437578 0.14668655

model.param_proj.proj.2.weight f4 [1, 60]
000000 6f 22 c4 3b f0 25 55 bd 27 33 9f bd d1 bb c8 bd
       0.00598555 -0.052038133 -0.077734284 -0.09801448
000010 24 6e 8f 3c d2 d9 60 3d 1f 1a e2 3d 56 b4 ea bd
       0.017508574 0.05489523 0.110401385 -0.114601776
000020 16 b3 81 3d 85 ed 1f bd b9 f9 c7 3c ba d6 bb 3d
       0.06332986 -0.039044876 0.02441107 0.09171815
000030 11 55 87 bd 03 8b e3 3d a3 d6 d8 bd a5 16 8c 3c
       -0.06608022 0.11110499 -0.10587814 0.017100642
000040 ee 84 31 3d 18 fb 7d 3d f0 95 2d 3e d4 b9 82 bd
       0.043339662 0.06200704 0.16951728 -0.063831
000050 40 84 2e bd 4e 28 34 bd 80 c2 bf bd ac 37 95 3d
       -0.042606592 -0.04398375 -0.0936327 0.07286009
000060 5e b0 8c bd 9a ab 98 3d 97 73 17 bd 7f fd f3 3d
       -0.06869577 0.074546054 -0.03697547 0.11913585
000070 1b 1d cd bd b6 b7 87 3d 9b 42 d5 bd 05 f7 0c 3e
       -0.10015317 0.06626837 -0.104130946 0.13766105
000080 6f 29 a8 3d 33 b2 cb bd b5 1d a8 bd 04 14 7a 3d
       0.08211028 -0.09946098 -0.08208791 0.061054245
000090 3d cf 80 3d 9d ac d3 3d 40 98 7c 3d b6 29 73 3d
       0.062895276 0.10335658 0.061668634 0.05936595
0000a0 ce c1 7a 3c 60 87 17 3d a6 a9 e4 3d 99 df 74 bd
       0.015304996 0.036994338 0.1116517 -0.05978355
0000b0 c1 fa 92 bd 18 b0 8c bd 13 2b b9 3d 28 bf f9 bc
       -0.07176734 -0.06869525 0.09041419 -0.030486658
0000c0 f9 65 8b 3d c5 b7 fd bc c4 09 f1 3d db 97 3a bd
       0.06806559 -0.030971417 0.11769441 -0.045554977
0000d0 dc 66 d6 3d 3a 4f 07 3e 61 6e 16 bd e6 31 e4 bd
       0.104688376 0.13213816 -0.03672636 -0.1114233
0000e0 96 9b 78 3d 85 6f 5a 3d 1b cb 0c bd b7 0f 2b 3d
       0.060695253 0.05332901 -0.034373384 0.041763034

model.rnn.weight_ih_l0 f4 [240, 24]
000000 53 48 71 bd 45 7f 9d bd 00 f3 07 bd d8 76 0f 3e
       -0.058906864 -0.0769029 -0.033190727 0.14010179
000010 cc 08 33 bc a5 27 5a 3d ec 84 a8 3d c1 66 5e bc
       -0.01092739 0.053260464 0.08228478 -0.013574303
000020 64 e9 44 bd 16 40 b6 3d 77 41 2e bc d0 aa 4b 3c
       -0.04807414 0.08898942 -0.010635725 0.012430862
000030 18 2a 00 bd 4c e9 d1 bc c3 d2 36 bd 60 8b 98 3d
       -0.031290144 -0.02562394 -0.04463459 0.07448459
000040 4e 88 12 bd 06 48 8d 3c 43 d4 84 3c 08 46 93 3d
       -0.03577452 0.017246258 0.016214496 0.07191092
000050 c2 24 24 3d ed 73 04 3e 9b 65 89 3d 66 e3 4d 3d
       0.040074117 0.12934847 0.06708833 0.050265692
000060 3d cd 48 bc 3c d8 90 bd ce 56 87 3d 21 99 a3 bc
       -0.012255964 -0.070724934 0.066083536 -0.019970478
000070 fd 36 aa 3c ba 7a d6 bc 49 1b a1 bc 80 c5 e1 3d
       0.020778174 -0.026181567 -0.01966633 0.11023998
000080 d8 46 c2 bd e0 28 3a 3c f1 a5 e1 3d d4 64 8f bd
       -0.094861686 0.011362284 0.11017979 -0.07001653
000090 f0 b8 ef bd ac 54 b7 3c 1a 2a c6 3c c5 53 06 bd
       -0.11705196 0.022379242 0.024189997 -0.032794733
0000a0 9a 19 7a 3d b9 8d c0 3d 7f 42 cc 3c 94 cb 40 bd
       0.06105957 0.094020315 0.024934052 -0.047069147
0000b0 60 f8 4e ba c6 76 94 bc 2f ba 38 bd d2 aa 83 3d
       -0.0007895287 -0.018123042 -0.045099434 0.06429066
0000c0 7b ca 93 3d 3d 9a b4 3d 38 d4 56 bd 75 32 85 bd
       0.072163545 0.08818481 -0.05244848 -0.065037645
0000d0 39 86 26 bd 5a d5 f4 bd 23 b2 3d bd 38 d6 d4 bc
       -0.04065535 -0.11954756 -0.046312463 -0.025981054
0000e0 b9 b8 8e 3d 0e f8 d6 3d c8 54 00 bd ac 39 9f 3d
       0.06968827 0.104965314 -0.031330854 0.07774672
0000f0 1e 86 69 3b b9 1c f7 bd 3a dd e9 bc 4e 14 e8 3d
       0.0035632919 -0.12066025 -0.028547872 0.11331998
000100 e8 8b 0c 3c 6b 2e 4d 3d 06 6f 11 bd 51 f4 dd 3d
       0.008578278 0.050093096 -0.03550627 0.10837615
000110 98 69 a4 bd 77 7f 90 3c 94 89 c9 3d 6d c9 02 3c
       -0.08027953 0.017638905 0.09840694 0.007982594
000120 e0 64 38 bd 38 cc 20 3c 17 50 0a be 45 84 4d 3d
       -0.045018077 0.009814315 -0.13507114 0.05017497
000130 e4 e9 04 3e 65 30 0d 3d 62 0e a7 ba 48 d4 f7 bd
       0.12979847 0.03446998 -0.0012745375 -0.12101036
000140 9f 5a 4f 3d 3f e0 b3 bd 3d f6 62 3d af cc bd bd
       0.050623532 -0.08783006 0.055410612 -0.09267556
000150 61 5a 0c bc 10 03 0c be c4 c8 1a 3e 48 4a b7 3d
       -0.00856647 -0.13673043 0.15115649 0.08949715
000160 31 87 a9 3a 1f 9b 20 3d 80 52 62 3d da 5e 50 bd
       0.0012933967 0.039210435 0.05525446 -0.050871707
000170 dc 96 93 bd 71 57 7a 3a bb 0c e0 bd e8 ec 89 3d
       -0.072065085 0.0009549773 -0.10939928 0.067346394
000180 91 e6 4f be dd 1b a6 bd c3 28 f2 3d 19 39 2c bc
       -0.20302798 -0.08110783 0.11824181 -0.01051166
000190 29 cc b0 ba ba 41 ec bd a9 43 91 bd 07 dc 20 3e
       -0.0013488579 -0.11535974 -0.07092983 0.15708934
0001a0 93 8c 00 be 01 a3 da 3d e3 cd 1e 3d eb 03 3c 3d
       -0.12553625 0.10675622 0.038770568 0.045902174
0001b0 b5 5c c6 bc d1 50 35 3c 58 5c 84 3d 7f f1 a3 bd
       -0.024214128 0.011066631 0.06462926 -0.08005046
0001c0 94 88 70 bd 28 73 0e bb fa 5d da 3d b8 e8 83 bc
       -0.058724 -0.002173612 0.10662456 -0.01610218
0001d0 9d 5e ca 3c cf a4 1b 3e 01 d4 8b 3c 2e 39 0a 3e
       0.024703318 0.15199588 0.017068865 0.13498375
0001e0 93 09 cb bd 12 12 1b bd 6d 3e 5c 3d 10 0f c8 3d
       -0.099139355 -0.03785903 0.05377047 0.09768498
0001f0 cc 01 53 3d 36 2f 9d 3d b1 60 0b 3d 88 78 9f 3d
       0.051515386 0.076750204 0.03402776 0.077866614
000200 6f ff 03 be 41 e9 bb bd 11 c9 9b bd 0b 51 0e be
       -0.12890409 -0.09175349 -0.0760671 -0.13898103
000210 fd 21 39 bd b8 ee 40 bd a1 74 9f bd 29 9c b1 3d
       -0.04519843 -0.04710266 -0.07785917 0.08672363
000220 dd 22 b4 bc 10 db 52 bd d1 35 0b bd 9b 9c 98 3d
       -0.02198928 -0.051478446 -0.03398687 0.07451745
000230 50 22 8a 3b e6 7b d1 bd 8c 7c 2c 3e 35 51 8f 3c
       0.004215516 -0.1022871 0.16844386 0.017494777
000240 39 9d a7 3d 12 95 a5 bd 57 1a f0 3d 04 41 b4 bd
       0.08184285 -0.080850735 0.11723774 -0.08801463
000250 0d e5 df 3c 9a 20 76 3d 68 8f c2 3d 4d e4 95 bc
       0.0273309 0.060089685 0.09500009 -0.018297339
000260 67 02 55 3d c9 cf b5 3c ce 1f 0c be 99 e2 b2 bd
       0.052004244 0.022193806 -0.13684008 -0.08734626
000270 a5 c9 df bc 42 1b a0 3d 5b 04 82 3d ce dc da bd
       -0.027317831 0.07817699 0.06348487 -0.106866464
000280 7b b9 00 be 37 39 18 bc 7f 5d d8 3b 8e 8a d5 3c
       -0.12570755 -0.009290985 0.0066029425 0.026067045
000290 e1 d9 49 bc 50 98 e9 3c 94 42 a6 3d 3f 6d 30 ba
       -0.012320013 0.028515011 0.081181675 -0.0006730146
0002a0 5f d8 0c be 45 d6 7c 3b ab 9d 54 3d 29 64 b7 3c
       -0.13754414 0.0038579863 0.051908176 0.022386627
0002b0 0d 5a 74 bd 18 78 e2 bd b6 1a cb 3c 14 33 3a 3d
       -0.05965619 -0.11058062 0.02479301 0.04545887
0002c0 54 1d 2b bd 34 bf e5 bc 00 78 f3 3d 77 60 3f be
       -0.041776016 -0.028045274 0.118881226 -0.18689142
0002d0 65 c7 d5 3d 90 5e 89 3d 40 79 dc bd b5 4f db bd
       0.10438422 0.067074895 -0.10765314 -0.10708562
0002e0 d7 38 0b 3e f3 a6 b4 3d 48 a7 64 bd 89 d9 d4 bd
       0.13595901 0.088209055 -0.055823594 -0.10393054
0002f0 d2 bd 76 bd e0 1a 1c 3c 06 3c 1c 3e 69 05 5d bd
       -0.06023962 0.009527892 0.15257272 -0.053960238
000300 19 dc 25 be 55 f1 2c be 36 8a 9c 3d a4 8e 7b bc
       -0.16197242 -0.16888936 0.07643549 -0.015353832
000310 4f 76 7e bd bb bd 74 bd 7a 4b 8d bd 53 c0 c2 3d
       -0.062124547 -0.059751254 -0.06899162 0.09509339
000320 15 85 54 bd e2 00 bb 3d 37 0d 06 3e 62 59 de bd
       -0.05188473 0.09131028 0.13090979 -0.10856892
000330 26 10 5f 3d 27 9f 03 3e 7e 22 84 3d c2 5c 2a bc
       0.05445876 0.1285368 0.06451891 -0.010398092
000340 ea 71 8d bc aa d0 12 bd 6d a3 c7 3c 96 52 bc bd
       -0.017266233 -0.03584353 0.02436992 -0.091954395
000350 95 29 e7 3c 7f 20 b2 3d 7e 4e 8b bd 33 b5 a9 bd
       0.02821807 0.086976044 -0.068020806 -0.08286514
000360 1a 22 88 bc 98 d3 d7 bd c7 93 1f be 31 be 0a bd
       -0.016617823 -0.10538405 -0.15583716 -0.033872787
000370 e7 6b 8d bd 2b 54 aa bd fa b9 6d bd a7 b3 c2 bd
       -0.06905346 -0.08316835 -0.05803869 -0.09506922
000380 d7 b0 02 bd 9c e2 05 be 00 c4 c9 3d 11 1d f8 3c
       -0.03190693 -0.13074726 0.09851837 0.030287297
000390 f8 09 1d be 1c 98 11 3d 01 68 d1 bd 0f 9c 7b 3d
       -0.15335834 0.035545453 -0.10224915 0.061428126
0003a0 8a 18 5f 3d e2 96 10 3e 05 26 ad 3d 06 94 5e bd
       0.05446676 0.14120057 0.08454517 -0.054340385
0003b0 bb 39 16 3c 1d 05 04 3d ca 5c 1c 3e 3d 06 31 3e
       0.009169037 0.03223144 0.15269771 0.17287536
0003c0 f3 16 26 be e4 6d 87 bd 4b 56 a8 bd 2e 8c 78 3d
       -0.16219692 -0.06612757 -0.08219584 0.06068056
0003d0 6d b0 54 3d 7e 40 99 bd 54 b3 a4 bd 60 c4 b2 3d
       0.051926065 -0.07483004 -0.080420166 0.08728862
0003e0 40 df 3f 3d 47 d6 86 bd 5f c6 b6 3d b5 2a 20 bd
       0.046843767 -0.06583839 0.08924555 -0.03910323
0003f0 68 dd 1c be 9e 83 db 3a 42 ea 79 3d bf 29 5b 3d
       -0.15318835 0.0016747599 0.06101442 0.05350661

model.rnn.weight_hh_l0 f4 [240, 60]
000000 e6 b1 34 be 62 64 d6 bc 80 8f ef 3c 3f 3b 08 be
       -0.17645988 -0.026170913 0.02924323 -0.1330385
000010 6b 23 e7 3c 53 6a 16 bd a4 6a 66 bc 80 89 1e 3d
       0.02821513 -0.036722492 -0.014063511 0.03870535
000020 6d da 90 3c 63 ce 3a bc c1 ce 9e 3d 8d 61 a7 3c
       0.017682279 -0.0114017455 0.07754279 0.020432258
000030 41 cb 41 3c 8c be 02 be 9e 32 ee 3d 4e 11 dd 3c
       0.011828245 -0.12768 0.11630748 0.02698579
000040 7f 02 78 3d e9 97 9b bd ec e5 a1 bd ed 3b 11 be
       0.060549255 -0.07597334 -0.07905182 -0.14183016
000050 60 7c 19 3d e6 81 9f bd 3d 41 13 3e 76 fa bd bd
       0.03747213 -0.07788448 0.14380355 -0.09276287
000060 62 20 40 3d ed e8 b8 3a 02 56 12 be ba 43 a0 3d
       0.046905883 0.0014107503 -0.14290622 0.07825418
000070 4c ab 0e bd ff 5e dc 3c 5a 18 30 3c 10 e1 37 3d
       -0.03483133 0.026900766 0.010747993 0.04489237
000080 7a 72 97 3d da 45 5d 3d e2 50 06 3d a6 23 9a bd
       0.073948815 0.054021694 0.03279198 -0.07526331
000090 66 ca a8 bc b8 93 13 be e3 6a 4a 3d 24 93 12 be
       -0.020604324 -0.14411819 0.04941834 -0.14313942
0000a0 86 23 23 bd df 00 05 3e 97 4a 9c 3c 66 95 c8 bd
       -0.0398288 0.12988614 0.019078536 -0.097941205
0000b0 f2 76 04 3e 21 bb b3 3d f7 17 c4 3d d7 04 55 bd
       0.12935999 0.087759264 0.095748834 -0.05200657
0000c0 d8 f5 ce bd 57 60 a7 3d 13 48 b9 bd 3a 38 45 be
       -0.10105485 0.08172672 -0.0904695 -0.1925973
0000d0 c1 3e a9 3d 83 70 ab bd 80 02 87 3d 78 cc 12 be
       0.082639225 -0.08371069 0.06592274 -0.14335811
0000e0 fe e9 cd bd 37 6a 19 3d 05 14 31 3d 8f 9f 6e 3d
       -0.10054396 0.03745481 0.043231983 0.058257636
0000f0 3b 43 b6 bc 48 20 cb 3c b2 6f 2d be 1c 29 56 3c
       -0.022248855 0.024795666 -0.1693714 0.013071325
000100 0e 3b 97 3c de 5a ff bd 5e f5 98 3d e0 80 e2 bc
       0.018460777 -0.124685034 0.07468675 -0.027649343
000110 94 d6 1b 3e f9 d7 48 bd 46 79 52 3e 14 b1 42 3a
       0.15218574 -0.049034093 0.20554075 0.00074268994
000120 9c e9 39 3e b3 5c 6d 3d b6 ce cf bb 1f bb 34 bd
       0.18155521 0.057949733 -0.0063417805 -0.044123765
000130 94 3b b0 3d 2e 37 5f 3b 72 41 03 be 2e d5 40 bd
       0.086051136 0.003405999 -0.12817934 -0.047078304
000140 af fd 43 be 46 f2 ae 3d 4f e6 29 3e 47 f5 13 be
       -0.19139741 0.08542304 0.16591762 -0.14449035
000150 66 af 0d bd 7e b2 2a 3d ea 65 d0 bd b8 d9 4d bd
       -0.0345911 0.04167413 -0.101756886 -0.05025646
000160 23 0a 04 be 45 72 30 3e 24 fe d5 3d db 5d 0f bd
       -0.12894492 0.1723109 0.10448864 -0.035001617
000170 89 71 97 3d db 6c f5 bd 9b 7d 0b be af 2b 43 be
       0.07394702 -0.11983653 -0.13622133 -0.19059633
000180 2e ac 40 3d 82 1f 01 bc 8d 77 cb 3d ea 13 a6 bd
       0.047039203 -0.007881047 0.09934912 -0.08109267
000190 9a 4b 10 be 24 8c 99 3c 47 de df bd 7f 2b 9b 3d
       -0.1409134 0.018743582 -0.10931068 0.075766556
0001a0 36 12 5f 3e 7c 82 c6 3d 26 02 9d 3d a9 b5 08 3e
       0.2178429 0.09692857 0.076664254 0.13350548
0001b0 8a d6 af 3c d1 69 22 3e 7d af df 3c 39 1e 01 be
       0.021464605 0.15860678 0.027305359 -0.12609185
0001c0 77 a5 cf 3d e6 d8 24 be e8 90 12 3d 7d 46 ad bd
       0.10138982 -0.16098365 0.035782725 -0.0846071
0001d0 74 c3 29 be 68 d4 0c be 0c c6 23 be 9a 02 60 bd
       -0.16578466 -0.13752902 -0.15993518 -0.05468998
0001e0 07 cd 6e bd 90 75 7b bd 59 de ea 3d 56 4e 26 3d
       -0.058300998 -0.061391413 0.11468191 0.04060205
0001f0 51 5e fd 3d ea cf a4 bd 82 ea e0 bc ec 51 e0 3b
       0.12371505 -0.08047469 -0.027455572 0.0068457033
000200 13 36 dc bd 63 a6 03 3e 59 f2 b9 bd 05 97 a2 bd
       -0.10752501 0.1285644 -0.09079427 -0.07938961
000210 07 03 d0 3d 74 e6 af 3b 85 21 c7 3d 60 dc 20 bd
       0.101568274 0.0053680483 0.0972319 -0.039272666
000220 1b b4 a6 3d 10 b0 6b 3d 2b ed c0 3d 1e f5 0a bb
       0.08139821 0.057540953 0.09420236 -0.002120323
000230 2e 60 9d 3d 39 85 10 3e ff 2f 67 bb 25 d4 d9 ba
       0.076843604 0.1411332 -0.003527641 -0.001661901
000240 63 be 26 bd 37 2d 48 3d cc 1f b6 3c b0 00 31 bd
       -0.04070891 0.048871245 0.022231959 -0.043213546
000250 45 c2 2b 3e 73 25 31 3d 3d 72 91 bd b1 14 3b bc
       0.16773327 0.043248605 -0.07101867 -0.011418507
000260 59 de a9 bd a8 3b 0a bd 53 30 bf 3d a0 ab a5 3c
       -0.082943626 -0.0337483 0.09335389 0.020223439
000270 d1 6e 70 bd 05 61 17 be d5 56 60 bd f9 bd a9 bd
       -0.058699433 -0.14783104 -0.05477031 -0.082881875
000280 2a a9 dd bd 6a 72 0b 3e cd cf 7c 3d e6 64 95 bd
       -0.10823281 0.13617864 0.06172161 -0.072946355
000290 dd 60 ef 3d ae a5 0b bc 3d 18 18 bd 2e 40 10 bd
       0.11688397 -0.008523388 -0.03713249 -0.035217457
0002a0 10 0a 0c be da 84 4f 3d fb bd 50 bd 82 e5 1b 3d
       -0.13675714 0.050663806 -0.05096243 0.038060673
0002b0 a3 b3 ef 3d 62 ed 46 3d f6 96 d9 3d c8 f3 7a 3d
       0.11704185 0.04856623 0.10624497 0.061267644
0002c0 b8 62 4a bd ce 97 58 3d f8 80 1b bd 71 e5 7c 3d
       -0.04941055 0.052879147 -0.03796479 0.06174225
0002d0 ec da 00 3d 8f cf 2c 3e 1b b9 a0 bd aa 84 0a be
       0.03145878 0.16876052 -0.07847806 -0.1352717
0002e0 be 89 7d 3c 02 ae 63 3d fa 5d 0a 3d f3 73 b4 bd
       0.015474735 0.05558587 0.03378103 -0.08811178
0002f0 5a f1 25 bc d9 33 14 be 09 79 35 3e 64 b2 47 bd
       -0.0101283435 -0.14472903 0.17721952 -0.04875411
000300 31 8a 97 3d 64 70 e0 bd 03 ba 25 bd 45 c5 72 3c
       0.07399405 -0.10958937 -0.040460598 0.0148175405
000310 3c f7 2d be ea 5a 78 3b 11 83 31 be e9 63 a1 3d
       -0.16988844 0.0037895986 -0.17335154 0.078803845
000320 bd 32 0f bd ad ed d6 bd 9d 80 a2 bd 03 8b 0e bd
       -0.034960497 -0.10494552 -0.07934687 -0.03480054
000330 65 68 c8 bd f6 19 11 3e ad bd 08 be f3 6d f8 bd
       -0.09785537 0.1417006 -0.13353606 -0.12130346
000340 d3 a9 d2 bd 21 4e 22 3e ac 19 72 bd 3a 3b c9 3b
       -0.10286298 0.15850116 -0.059106514 0.0061410936
000350 af 66 44 be fc 1e a0 3b c2 57 2a bd 65 92 4f bc
       -0.19179796 0.004886506 -0.0415876 -0.0126691805
000360 84 a9 9a bd 25 96 10 3d 92 2c 95 bd 18 4e 88 bc
       -0.07551864 0.03529944 -0.07283892 -0.0166388
000370 fa 3c 43 3d 27 2c e6 3d 18 c6 3c bb 33 39 7f 3d
       0.047665574 0.1123889 -0.0028804597 0.06231041
000380 73 78 64 3d 46 ae 5f bd 16 32 e8 3d 19 38 47 3d
       0.05577893 -0.05460956 0.11337678 0.048637483
000390 9d fa 6d 3d 39 58 83 bc 0a ae ef 3d de fe 26 bd
       0.05810033 -0.016033279 0.11703117 -0.040770404
0003a0 fc 03 1d 3e 58 61 ce bd dc 34 c4 bc 32 69 2c be
       0.15333551 -0.100771606 -0.023950987 -0.16837004
0003b0 1d a8 b9 3c 97 8c d8 bd 91 c6 95 bd f6 97 2a bd
       0.02266317 -0.105736904 -0.07313264 -0.041648827
0003c0 4e d6 0b be 6c 08 d6 bd d4 04 81 3d 13 40 9a 3d
       -0.1365597 -0.10450825 0.06299749 0.075317524
0003d0 a2 87 06 3e 6a 64 5b bd c0 5e 7f bd be 82 cd bd
       0.13137677 -0.05356256 -0.06234622 -0.10034703
0003e0 52 99 81 3d 99 91 aa bd d5 0d a1 3d 5a 13 01 3d
       0.06328072 -0.08328552 0.078639664 0.031512596
0003f0 2c 96 0e 3e 59 ca 05 be 4e f8 ee bd 35 1a 05 be
       0.13924474 -0.13065471 -0.11668454 -0.12998278

model.rnn.bias_ih_l0 f4 [240]
000000 03 d3 88 3d 2a 4d 35 3d c7 6f 51 bd 38 09 f6 3d
       0.06680872 0.044263043 -0.05113199 0.12013477
000010 23 81 da 3d f0 7e 0d bd 73 e4 36 bc 75 a8 04 3e
       0.10669162 -0.034544885 -0.011162865 0.12954886
000020 81 59 bd bd 60 67 7e bd 4b 05 4d bd 8a 7e c8 3d
       -0.09245587 -0.062110305 -0.050053876 0.097897604
000030 04 6b 60 bd 9d d7 04 3e 56 8e 01 3e d1 af 12 bd
       -0.054789558 0.12972875 0.12651953 -0.035812203
000040 44 51 1e 3e 0a b5 c1 3d 3a 4b b6 bd bd 96 25 3d
       0.15460688 0.094583586 -0.08901067 0.04042696
000050 07 10 2c bd 49 55 0b 3e 69 73 99 3d 70 d5 bc 3d
       -0.042007472 0.13606752 0.07492716 0.092203975
000060 71 1b 65 3d ea 22 2d 3d 71 df a8 3d c6 5f 57 3d
       0.055934373 0.042269625 0.08245743 0.05258157
000070 15 90 c0 bd d5 67 d7 3d 7e 79 68 bd 56 54 d8 3d
       -0.094024815 0.10517851 -0.05675649 0.10562961
000080 b7 d6 0d 3e 1b 60 1d 3e 01 5f 72 3d 32 65 c1 bd
       0.13851438 0.15368693 0.059172634 -0.094431296
000090 7b 0b 1c 3e c4 48 e8 3c b6 b5 7f bc b5 39 94 3d
       0.15238754 0.02835501 -0.015607288 0.07237569
0000a0 26 5e 05 3d 94 7a 30 3c 87 6e ac 3d 3f fd ac 3c
       0.03256049 0.010771412 0.08419519 0.02111685
0000b0 a8 3f 1e bd 65 54 59 3d b9 bf 0c bd 37 e2 36 3c
       -0.038634926 0.053059 -0.03436253 0.011162332
0000c0 1a e6 80 3d 14 1f 79 3d 46 6e 14 3e 12 00 6a 3d
       0.062938884 0.060820654 0.14495191 0.057128973
0000d0 21 de 82 3d 90 d5 0f 3e d7 39 6d bd 5c 14 9f 3d
       0.06390024 0.14046311 -0.05791649 0.07767555
0000e0 83 17 54 3d ec f6 c8 3c a0 7f e3 3d b1 5b 81 3d
       0.051780235 0.024531804 0.11108327 0.06316317
0000f0 5b d3 ac bd 5b ff 84 3d 30 ba 31 3c d0 9e 08 be
       -0.0843875 0.06494018 0.010847613 -0.13341832
000100 e6 62 88 bd 43 db e3 bd 1d 10 a4 bd 1c c0 a3 3d
       -0.066594884 -0.11125805 -0.08010886 0.07995626
000110 d9 21 df 3d 0e a5 04 3e 52 3a ee 3d d9 e2 be bd
       0.10895128 0.12953588 0.116322175 -0.093206115
000120 fb 84 74 3d 2a e7 f7 3d 83 75 9e bd 99 a2 ae bc
       0.059697133 0.12104638 -0.07737257 -0.021317767
000130 44 96 21 3d ed 52 05 3e 08 a7 b3 3d 8c 17 68 bc
       0.039449945 0.13019915 0.08772093 -0.01416577
000140 af 8b 99 3b fa 6f 7d 3d ea 70 c2 3d 07 72 a9 bd
       0.004685841 0.061874367 0.09494193 -0.08273702
000150 a8 a3 cc bc a5 0d ba bc 01 ca bd bc 65 00 f9 3d
       -0.024980381 -0.022711584 -0.023167612 0.121582784
000160 5a d2 ae bd 98 48 31 bb ab 06 0a bd 3f c1 22 3d
       -0.08536215 -0.0027051326 -0.033697765 0.039735075
000170 13 96 7d 3d 25 1b 3b bd e4 70 8e 3d 9a 14 a1 bc
       0.0619107 -0.045680184 0.06955126 -0.019663144
000180 ab f4 44 bd e8 a6 e1 bd 9b d9 e5 3c 70 92 c1 bd
       -0.048084896 -0.11018163 0.028057864 -0.09451759
000190 59 da b0 3d 0c aa 0d bd 9d e0 09 3e f1 8d b6 bd
       0.086353965 -0.034585997 0.1346459 -0.08913792
0001a0 1f 9f e3 bd 99 27 a7 bd 34 b3 bb bd 9b a9 52 bd
       -0.11114334 -0.081618495 -0.0916504 -0.05143128
0001b0 c5 2e 34 3d a7 55 01 be 54 8a fa bd d6 48 56 3a
       0.043989915 -0.1263033 -0.12233415 0.00081743055
0001c0 65 8c 29 bd 32 bd eb 3d 15 ee 0c bd 54 14 21 bd
       -0.041393656 0.115106955 -0.03440674 -0.039326027
0001d0 66 15 84 bd 1e ee f4 3a 12 95 96 3d 0c 40 db bb
       -0.06449394 0.0018686687 0.07352652 -0.0066909846
0001e0 cd fd 85 bd fa fb af 3d 1a a3 e4 bd 7b 63 81 bd
       -0.06542549 0.085929826 -0.11163922 -0.063178025
0001f0 9f 59 41 3d 13 3f 59 bd 7e e0 95 3c 7f a3 4d 3d
       0.04720461 -0.053038668 0.018295523 0.05020475
000200 49 c9 a5 bd 89 6b 83 3b 5e 8a ea 3d e6 b8 5f 3d
       -0.08095033 0.004010622 0.11452173 0.054619692
000210 56 c4 11 be 8f 2a b9 bd 40 73 dd 3c 83 86 4b bd
       -0.14235052 -0.090413205 0.027032495 -0.049688827
000220 24 62 ce 3d c8 eb 1b bd 05 b3 0e 3c 98 20 d5 3c
       0.100773126 -0.038066655 0.008709674 0.026016518
000230 14 f5 0c 3e 58 d1 04 3d ba 7d e0 3d 35 66 eb 3d
       0.13765365 0.03242621 0.109614804 0.11494104
000240 d6 ed b8 3b cd 3b b6 bd b7 b0 17 3c 36 db e3 3d
       0.0056435866 -0.08898125 0.009258441 0.111257955
000250 3d 79 bf 3d 28 ad b6 3c 9c 3d 13 3e e3 4f 29 bd
       0.09349296 0.022299364 0.14378971 -0.04133595
000260 76 9e a3 bd 33 92 5e 3d 0f b6 d2 bd 38 06 33 bd
       -0.079892084 0.054338645 -0.10288631 -0.043707103
000270 84 9a d5 bd af df eb bc 0f bf ed 3d f4 d4 a3 bd
       -0.10429862 -0.028793184 0.11608707 -0.07999602
000280 ef ba 86 bd bb 96 af bd ca e1 e0 3d 9a 70 0b 3d
       -0.065786235 -0.085736714 0.10980566 0.034042932
000290 e5 b6 67 3d 86 23 08 3e 45 eb 29 bc 19 e2 09 3d
       0.056570906 0.13294801 -0.010371034 0.03366289
0002a0 4e 87 f9 bd 00 fe 8d 3d 0e 1b 8e bc ab 3b 80 3d
       -0.121840104 0.06933212 -0.017346885 0.06261381
0002b0 a1 2d ab bd 8a 95 cc bd cd 0b 8e bd 96 43 08 be
       -0.083583124 -0.0998946 -0.069358446 -0.13307032
0002c0 1c 4c 5c 3d ed be 0c 3d 35 7d 8f 3c 7b d7 ed bd
       0.05378352 0.03436177 0.017515758 -0.11613365
0002d0 c4 87 86 bc 5c 4d 0a bd d3 81 01 3e eb 37 4d 3d
       -0.01642216 -0.033765182 0.1264718 0.050102156
0002e0 94 08 98 bd 36 16 44 3e ac 90 42 3d 10 48 c2 3d
       -0.07423511 0.19149098 0.04750125 0.09486401
0002f0 87 46 b6 bc a1 1d b9 3c 4a db bc 3d f3 bd 9c 3d
       -0.022250427 0.022597136 0.092215136 0.076534174
000300 cf 66 36 3e d3 05 0d bc 08 be 22 3e 2c 6e f3 3c
       0.17812656 -0.008607346 0.15892804 0.02971562
000310 86 62 59 3d 14 e7 2b bd 21 d6 c4 3d 20 58 96 bc
       0.053072475 -0.04196842 0.09611154 -0.018352568
000320 b0 0f e4 bb bb e3 db 3d e4 44 21 bd 0a 3a cf 3d
       -0.006959878 0.107367955 -0.03937234 0.10118492
000330 c4 b2 ea bd 7b f4 2f bd 8c 3a 0a 3e ad 63 7e bd
       -0.11459878 -0.042957764 0.13498896 -0.062106777
000340 6f 5e 19 3e a2 bb 19 3e 5e d8 ce 3d fa d1 08 3e
       0.1497743 0.15012982 0.100998625 0.1336135
000350 c0 4c dc 3c 6d dc 3b 3d 46 9e 1a 3d f5 b4 fb bc
       0.026892066 0.04586451 0.037748598 -0.030725935
000360 30 89 70 3d db ba 00 3e 8c 14 aa bd 67 a8 91 bc
       0.058724582 0.1257128 -0.083047 -0.017780496
000370 0e 87 03 3d e5 6f ad bb 41 1c 9f 3d 84 71 e3 3d
       0.03211122 -0.00529288 0.07769061 0.11105636
000380 5f 62 63 3c 4d 1b 41 3e 8d 57 14 3d 85 13 7a 3c
       0.013878434 0.1885807 0.036216307 0.015263443
000390 d4 df ed 3d 75 77 99 3d eb 95 61 3d 50 69 13 3e
       0.116149575 0.07493488 0.055074614 0.14395642
0003a0 b9 8e 4e 3e 45 b7 c6 3d e9 64 07 bd 8f 49 f1 3a
       0.20171632 0.09702925 -0.03305522 0.0018408763
0003b0 bd b1 e6 bd 21 87 bb 3d 03 a1 91 bd cc c1 c0 bc
       -0.1126437 0.09156633 -0.07110789 -0.02352991

model.rnn.bias_hh_l0 f4 [240]
000000 27 05 3a 3d 97 b6 4f 3e 9f db 91 3d 02 1e 25 3c
       0.04541507 0.20284496 0.071219675 0.010077955
000010 26 a9 14 3e 43 42 1a 3e eb fd 3f bc b0 81 2c 3e
       0.1451765 0.1506434 -0.011718254 0.16846347
000020 c9 3f c3 bd 30 fc d8 3b bd 7d 9c 3d 2c ba fc bc
       -0.095336504 0.00662186 0.0764117 -0.030850492
000030 ee af 11 3e ec ac 11 bd c5 d8 20 3e 08 76 d8 3c
       0.14227268 -0.0355653 0.15707691 0.02642347
000040 ec ef 1b 3e b7 7b 31 bd 81 e5 10 3d 8a 14 3a 3d
       0.15228242 -0.043330874 0.035375122 0.045429744
000050 5e 37 cb 3c d2 f1 99 3d ad 15 50 3d f5 85 1c 3e
       0.024806675 0.07516827 0.05080192 0.15285476
000060 fd 7b 2a 3d df 8d 7c bd 6e 0f 0f bd a9 47 f5 3d
       0.04162215 -0.061658736 -0.034926824 0.11976559
000070 56 95 85 bd 01 26 42 bd 33 33 b7 3d 4c 64 00 bd
       -0.06522624 -0.047399525 0.08945312 -0.03134565
000080 aa d8 22 3e ee 88 94 3d 20 83 28 bd 2b a1 ef bc
       0.15902963 0.0725268 -0.041140676 -0.029251656
000090 d9 f7 5b bd aa 80 94 3d 8e bd df 3d e1 ab 1a 3e
       -0.053703163 0.07251103 0.109248266 0.15104629
0000a0 3d 9f 8c bd cb e0 95 bd c1 93 d2 3d d6 9e 5d bd
       -0.0686631 -0.073182665 0.10282088 -0.054106556
0000b0 b8 6e c5 bd af 52 c0 3d 34 e8 86 bd ec 19 a7 3d
       -0.096402586 0.09390771 -0.06587258 0.08159241
0000c0 74 52 e4 3d be 4d 32 3d 5c ef a0 3d fb 15 c6 3d
       0.11148539 0.043531172 0.07858154 0.09672161
0000d0 f0 a3 dd 3d 4a 86 8d bb ae 06 1e 3e ef 0a 6e bd
       0.10822284 -0.004318987 0.15432236 -0.058115896
0000e0 6b b2 15 3e 27 c3 e0 3d 76 b7 e5 3d dc 1c e4 bc
       0.14618842 0.10974722 0.11216633 -0.027845792
0000f0 ee 62 a2 bd 65 0b 90 3d d4 6a c3 3d 25 6f 78 bc
       -0.079290256 0.07033423 0.0954186 -0.015163218
000100 31 9b ab bd c5 08 c6 3c 8e 5d 6d bd 19 11 26 3d
       -0.0837921 0.024174104 -0.05795055 0.04054365
000110 f3 7e 65 bb c0 b7 e3 bd 30 15 cb bd f0 6a b1 3d
       -0.0035018295 -0.11119032 -0.099161506 0.08662975
000120 2a 87 c0 bd 02 60 cc 3d d7 0b 7b bd 05 09 8a bd
       -0.094007805 0.099792495 -0.06129059 -0.067400016
000130 7e 10 3f bd 27 51 fa 3b 98 54 cf 3d 4a 29 20 3c
       -0.046646588 0.0076390686 0.10123557 0.009775469
000140 35 0c 9b 3d 4e cd 26 bd 0e 28 ec bd eb 84 36 bd
       0.07570688 -0.040723138 -0.11531077 -0.044560354
000150 14 4b ff bc 12 d8 e5 3d a5 fa 08 bd 29 e5 c9 bd
       -0.03116373 0.11222853 -0.03344216 -0.09858162
000160 d9 97 84 3c 98 cc d3 3c 90 5d b4 bd 32 8d d9 3d
       0.016185688 0.025854394 -0.08806908 0.10622634
000170 c2 1c 12 3d 8d 65 9a bd 28 d5 d9 bc 6a 37 88 bd
       0.035671957 -0.075389005 -0.026590899 -0.066511944
000180 94 ef d4 bd c2 1b bf 3d f4 b9 56 3d 4f b4 01 3e
       -0.103972584 0.09331466 0.052423432 0.12666439
000190 c3 0c e5 3d 58 9b ea bd c9 8e 84 3d 3c 3f 7e 3d
       0.11184075 -0.11455411 0.064725466 0.062072024
0001a0 fd fa d1 bd b1 3b 69 3d ca 58 dc bd 24 b0 04 be
       -0.1025295 0.05694169 -0.10759123 -0.12957817
0001b0 ff 25 27 3d 69 0e cd 3d ef 61 47 bd c3 30 a4 3c
       0.04080772 0.10012514 -0.04867738 0.020042783
0001c0 72 54 e4 3d 8e c1 60 3d 3e 11 71 3d 34 d5 01 3e
       0.11148919 0.054872088 0.058854334 0.12678987
0001d0 f5 50 ee bc 5b 86 a4 3c db 67 02 3e de 59 84 3c
       -0.029091338 0.020083597 0.1273493 0.016156133
0001e0 44 8c 7b bd 2a 55 a8 3d 45 5a 06 3c 38 7d 77 bd
       -0.061413065 0.08219369 0.008200233 -0.060422152
0001f0 8f a4 45 bd 8d 2f c2 3d 06 71 36 bd c7 a0 d9 3d
       -0.04825264 0.09481726 -0.04454138 0.10626369
000200 63 1e e6 3d e4 dd a7 bc ac 32 98 bd ed 4b 8b 3d
       0.112362646 -0.020491548 -0.0743154 0.06801591
000210 a4 32 80 bd 55 01 89 3d c2 31 de bd 2b a5 9d 3d
       -0.06259659 0.06689707 -0.10849334 0.07697519
000220 df e6 6d bd 6c 4f bc bc 8d 8a d4 bd ae 08 97 3d
       -0.058081504 -0.02298709 -0.10377989 0.073747024
000230 33 da 8c bc aa e7 e5 3d 62 40 85 3d dc 54 04 bd
       -0.01719389 0.11225827 0.06506421 -0.03230749
000240 6e 95 92 bd db 3b 97 bd 60 c0 37 3d 8f 07 c7 3c
       -0.07157408 -0.073844634 0.044861197 0.024295596
000250 31 97 d3 bb 1b 55 44 bd f1 d8 b2 3b 8f e2 db 3d
       -0.0064572324 -0.047932725 0.0054579903 0.10736572
000260 66 29 ba bc 09 da 06 bd 19 17 c1 3d 27 01 b7 bd
       -0.022724818 -0.03292278 0.09428234 -0.08935767
000270 2d 59 2a 3d 04 c0 1c bc 52 fd fd bb c6 65 55 bc
       0.04158895 -0.0095672645 -0.0077511454 -0.013024753
000280 4f 12 c3 3d 48 c8 d6 3d d1 cc a2 3c dc aa 5c 3d
       0.095249765 0.10487419 0.019873055 0.05387388
000290 05 b4 6a 3d 14 13 64 3d 84 26 39 3c 04 3f a3 3c
       0.057300586 0.055682257 0.011300687 0.01992751
0002a0 4d 72 86 bc d3 1d 20 3d e3 1e 81 bc 06 5a a7 bc
       -0.016411925 0.039090943 -0.015761798 -0.020428669
0002b0 07 ad 4c bd fa 89 b0 3d fb ce dd bd 29 2b 01 be
       -0.0499697 0.08620067 -0.10830494 -0.1261412
0002c0 be c2 f3 3b 3c 8b 4f bc 0d 37 8f 3c 18 4c 85 bd
       0.0074389866 -0.012667473 0.017482305 -0.06508654
0002d0 cf 3c 9c bd b9 b7 12 bd fe 5a ea 3d fe 30 22 3c
       -0.07628786 -0.035819743 0.11443137 0.009899376
0002e0 ad 38 11 3c e1 c8 37 3e 11 d4 b1 bc 3c 7b d1 3d
       0.00886361 0.17947723 -0.021707566 0.10228583
0002f0 49 37 ba 3d b1 93 eb bc bd dd ac bd ce 42 f5 3d
       0.09092576 -0.028756948 -0.08440731 0.119756326
000300 2a 13 e8 3d 1e 20 96 bd 29 cb 3f 3d 53 44 92 3b
       0.1133178 -0.073303446 0.046824608 0.0044637113
000310 c1 5e f8 3d 3d f8 03 3e 4b d0 b1 bd a8 4c ae 3a
       0.12127448 0.12887664 -0.08682307 0.0013297992
000320 08 0a 37 bc 01 9e a7 bd c2 bc b3 3c e2 40 39 3e
       -0.011171825 -0.08184434 0.021940593 0.18091157
000330 b8 26 ab bd 71 be 24 3d f7 5c 9d 3c 61 75 0f bd
       -0.083569944 0.04022068 0.019209368 -0.03502405
000340 16 bf 45 3b 6d b1 aa bd d3 f1 00 3e 31 71 4a bd
       0.003017371 -0.083346225 0.12592249 -0.049424354
000350 e7 91 85 bb 31 e5 a0 3d 00 19 9f 3c 25 07 b7 bc
       -0.004076231 0.07856215 0.0194211 -0.022342274
000360 01 6f 40 3c f6 5e c1 3d 9c 95 8a 3c ba eb c6 3d
       0.011745215 0.094419405 0.016917042 0.0971293
000370 a1 7d 4d bd 87 bd f8 3d 19 5f 9c 3d a9 1c f1 bc
       -0.050168637 0.121455245 0.07635326 -0.029432612
000380 63 21 d5 3d c2 37 e1 3d 61 c6 cb 3d d3 09 4d 3d
       0.10406759 0.10996963 0.09949947 0.050058197
000390 ac 82 c1 bb e8 44 09 bd 34 06 fe 3d c1 56 9e 3c
       -0.00590547 -0.03351298 0.12403527 0.019328477
0003a0 d8 1b 2a 3e 05 87 21 bc db 39 39 bd 35 fb 36 bd
       0.16612184 -0.009858851 -0.04522119 -0.044673163
0003b0 93 02 2d 3d 78 88 aa 3c b8 e7 2d bd 94 36 a0 3d
       0.042238783 0.020817026 -0.042457312 0.0782291

model.rnn.weight_ih_l1 f4 [240, 60]
000000 89 4a 28 be 6f 46 fc 3d e9 f7 7b 3d 44 8a 0c 3c
       -0.16434683 0.12318122 0.061515722 0.008577887
000010 97 04 4a 3e 81 b6 b8 bb ea e0 61 3d 73 a0 28 3d
       0.19728313 -0.0056369905 0.055146135 0.04116864
000020 de 0c 1a 3e 98 22 15 bd e3 4d dc 3d 3e 65 ae 3d
       0.15043971 -0.036409944 0.10757043 0.08515404
000030 08 98 fa bb 06 ff 12 bc 68 f2 8a 3d fe 33 a0 bd
       -0.007647518 -0.008971935 0.067845166 -0.07822417
000040 1a f8 83 bd b9 05 87 3d 9e e0 ab bd 4f 71 13 3d
       -0.06443806 0.065928884 -0.08392452 0.03599673
000050 56 eb 80 3d b8 fd c1 bc 75 d7 ab bc 5f 60 28 3c
       0.06294887 -0.023680553 -0.020976761 0.010276883
000060 6b d8 8c 3d 76 36 3c bd 3b c0 2d bd 0b a5 df bd
       0.06877216 -0.045950375 -0.042419653 -0.10920151
000070 db 83 dd bd 9b c5 03 3e b6 e5 1a 3d 86 a4 1f be
       -0.10816165 0.12868349 0.037816726 -0.15590104
000080 65 f7 7c 3d 81 74 05 be b2 3a 9a 3d 1f 2f 09 be
       0.06175937 -0.13032724 0.075307265 -0.13396882
000090 16 1e a3 3c 01 b5 15 be 7d bc b0 3d b8 38 40 bc
       0.019911807 -0.14619829 0.08629701 -0.011732273
0000a0 19 37 f0 bd de 8b 05 3e dd ac c3 bb 3a 2d eb 3d
       -0.11729259 0.13041636 -0.0059715346 0.11483236
0000b0 11 55 b3 3d dc b0 2c 3e bd 53 bf 3d f9 73 08 bd
       0.087564595 0.16864341 0.09342144 -0.033313725
0000c0 2e 23 2a be 98 bb 2a 3e d0 17 9c 3d 3a 2f b4 ba
       -0.16614982 0.16673124 0.076217294 -0.0013746985
0000d0 31 f8 26 3c ab 44 40 bd 3a 4f 63 bb 2d ca 33 be
       0.010191009 -0.046940487 -0.0034684674 -0.17557593
0000e0 00 cb 37 3d e1 90 fa bd 07 58 1c be e0 47 48 bd
       0.04487133 -0.12234665 -0.15267955 -0.04889667
0000f0 d6 6a c4 bd cf 7c b9 bc e5 73 44 3d d3 cd e8 bd
       -0.0959069 -0.022642521 0.04796209 -0.11367383
000100 50 ca d6 3d 36 ca 47 be fe 63 ae 3d f0 38 cb bd
       0.10487807 -0.19510731 0.08515166 -0.09922969
000110 d7 08 52 3b 20 6b b5 bd c6 82 06 3d 4a 34 f2 3d
       0.0032048726 -0.08858323 0.03283956 0.118263796
000120 4a c8 8e 3c 71 20 28 be af 58 fc 3d ff 1f dc bc
       0.01742949 -0.16418625 0.123216026 -0.026870726
000130 16 b5 7d bc 76 6a 24 3e 88 9a 27 be ab d5 9e 3c
       -0.015485069 0.16056237 -0.16367543 0.019388994
000140 fe 29 e4 bd ec 41 0e 3d df ba 7b bd 4a 71 a4 3c
       -0.11140822 0.034730837 -0.06145751 0.020073552
000150 23 02 1d bd f0 0e 21 3d cc a1 e7 bd bc 8a 17 be
       -0.038332116 0.039320886 -0.11310157 -0.14799017
000160 c6 b8 54 be 24 a3 a1 bc 94 2f f5 3d 2a d4 46 be
       -0.2077361 -0.019731112 0.119719654 -0.19416872
000170 23 53 47 3d 65 16 d5 bd 8b 1d cc bd 6d d0 27 3d
       0.04866327 -0.10404662 -0.099665724 0.040970255
000180 b3 8f f2 3d 88 6a 6b bd 31 21 3f bc 2f 31 14 be
       0.11843815 -0.057474643 -0.011665628 -0.14471887
000190 0e 59 58 bd 8f 5b c5 3c 58 aa 4e be de 0f e7 3d
       -0.052819304 0.02409151 -0.20182168 0.11282323
0001a0 67 cc 24 3d 0b 1a 0a 3e 6f b4 15 bb 72 4e 3a 3e
       0.040233996 0.13486497 -0.0022843143 0.18193987
0001b0 06 97 12 bc aa 6c 27 bd 98 8d eb 3d 95 67 c4 bd
       -0.00894714 -0.040875115 0.11501616 -0.09590069
0001c0 11 f6 d7 3d fb 77 3b 3d 8a 11 a7 3c ff 9d 39 be
       0.1054498 0.04576872 0.020394105 -0.18126677
0001d0 44 9d e3 bd be 94 d4 3d 80 64 96 bd db bb 5a be
       -0.111139804 0.10379933 -0.073433876 -0.21360724
0001e0 ea a2 0f be 6f 89 2d be bb 29 04 be 42 06 91 bd
       -0.1402699 -0.16946958 -0.12906544 -0.07081272
0001f0 1d 2d 36 3e e8 f5 84 3d cb 26 b6 ba 6f 97 90 3c
       0.17790647 0.064922154 -0.0013897059 0.017650334
000200 13 c7 1d bd 52 49 17 bd 61 5f fb bd 23 4d 23 bd
       -0.03851993 -0.036935158 -0.122740515 -0.039868485
000210 66 02 af bd f4 1a 01 3e 18 db ff 3d c2 52 07 3e
       -0.08545379 0.12607938 0.12492961 0.13215163
000220 4c 49 a0 3d 34 83 41 3d e3 d4 39 be 49 50 0a be
       0.0782648 0.047244266 -0.18147616 -0.13507189
000230 c3 a7 52 bd af 2f 05 3e 5a 62 30 3e 10 cd 3b 3e
       -0.05142952 0.13006471 0.17225018 0.18339944
000240 1d 92 d7 3d 9f ea 05 bd 1e 91 1e bd 70 6f 2d be
       0.10525916 -0.032694455 -0.038712613 -0.16937041
000250 c1 bc bb bd bf 13 c4 3c 8c 23 08 be 15 fd d5 3b
       -0.09166861 0.023935197 -0.1329481 0.006530414
000260 45 4d 8c bd e2 f1 06 be db f6 7b bd 64 87 0e be
       -0.068506755 -0.13178208 -0.061514717 -0.13918835
000270 37 0e 23 3e 74 11 1d be ac ee 3a 3e 1d d5 11 bd
       0.15923391 -0.15338689 0.18255109 -0.03560363
000280 42 40 11 3c 7c ae 84 bb 97 a3 c8 3c 3a fe 48 3e
       0.008865418 -0.0040491205 0.024492068 0.1962823
000290 e7 37 76 3d c9 2b c8 3d 09 88 1c bd 26 9e 21 be
       0.060111906 0.09773976 -0.03821567 -0.15782985
0002a0 b6 09 37 be 15 6f 18 3e c8 c6 de bd 04 75 a4 3c
       -0.17874798 0.14886124 -0.10877758 0.020075329
0002b0 5f 33 29 be 43 bf 08 bb c8 75 58 3d 34 8f 1f be
       -0.16523503 -0.0020865954 0.0528467 -0.15581971
0002c0 7b 8b 8d bd 7c 83 60 3d 4b 67 e4 bd 51 e0 f5 3d
       -0.069113694 0.054812893 -0.11152514 0.120056756
0002d0 51 49 3b 3c fb ea 3e 3d 40 f5 bf bd 98 c0 bf bc
       0.011431054 0.046610814 -0.093729496 -0.023407266
0002e0 c4 2c fa bc 00 41 06 3e c6 79 e3 3d 2a a7 6c 3d
       -0.030538924 0.13110733 0.11107211 0.057776608
0002f0 c1 20 2b 3e 7a 0b 02 bd dd ec a1 3c 18 c1 2a 3e
       0.16711713 -0.031749226 0.019766266 0.16675222
000300 c3 82 ab bd a2 0b 25 3e de f8 5a bc d0 c7 9d bc
       -0.0837455 0.16117719 -0.013364999 -0.019260317
000310 32 16 19 3e f7 2c 05 3e 52 da 16 be 59 14 d9 bd
       0.14949873 0.13005434 -0.1473172 -0.10599584
000320 68 6a ae bd 1a 80 2b 3d 60 bb 23 bd f4 eb 27 3e
       -0.08516389 0.041870214 -0.039973617 0.16398603
000330 fb 66 af bc e0 93 90 bc 3a 64 dd 3b b8 03 6e 3d
       -0.02141141 -0.017648637 0.0067563327 0.058109015
000340 82 9b b5 bc db ae af bd fe bb fa bd 1e 7f 0d be
       -0.022168878 -0.08578273 -0.12242888 -0.13818023
000350 cc 37 1a be 38 a8 92 3d 12 cb 36 be 24 71 17 be
       -0.15060347 0.071609914 -0.17850903 -0.14789253
000360 7a 7f 7a bd 9d 57 ab bd 19 10 39 bd 65 d9 33 be
       -0.061156727 -0.0836632 -0.045181368 -0.17563398
000370 63 54 52 bd 66 86 4f 3d 88 18 ad bd cc 93 96 bc
       -0.05135001 0.05066528 -0.084519446 -0.018381022
000380 68 17 9c bd 57 d3 9a 3d b6 b4 e5 bd 1a 5c a2 bd
       -0.07621652 0.07559841 -0.112161085 -0.07927723
000390 3c 9f 07 be c0 63 ad 3c c8 f7 49 3c 78 81 fb 3d
       -0.13244337 0.021165729 0.012327142 0.122805536
0003a0 6c 37 a8 bd 64 c6 24 3d f2 26 8c bd 43 de 38 bd
       -0.08213696 0.040228263 -0.06843366 -0.04513384
0003b0 28 94 3f 3d a1 d2 fa bd 89 fc 2f be 3f de 94 3d
       0.046772152 -0.122472055 -0.17186178 0.072689526
0003c0 99 e4 18 bd 36 c0 4a bd 54 43 5f bd 00 16 61 bb
       -0.037327383 -0.049499713 -0.05450757 -0.0034345388
0003d0 b5 9e b4 3d 37 b1 0f 3d d7 e3 fa bc 13 a1 e4 3c
       0.088193335 0.035081115 -0.03062622 0.027908837
0003e0 27 1c 47 bd 54 8c ca bc 2d ba df 3d 84 d1 21 bb
       -0.048610833 -0.024725117 0.10924182 -0.0024691531
0003f0 c4 f4 b3 bd 42 84 9f 3d 2c 1a 64 bd 3a eb e7 3d
       -0.0878692 0.07788898 -0.055689022 0.11324163

model.rnn.weight_hh_l1 f4 [240, 60]
000000 3a 9e a7 bc 87 f0 6f 3c be 25 af bc bb 9c 24 3e
       -0.02046119 0.0146447485 -0.021380302 0.16075413
000010 2f f5 0f 3d 45 bf 02 be 01 92 a9 bd d8 94 85 bb
       0.035145935 -0.12768276 -0.08279801 -0.0040765814
000020 36 89 1e be dd f7 a1 bd d9 0d 53 bd 43 04 7d 3d
       -0.1548203 -0.07908604 -0.051526878 0.061771642
000030 86 2c 22 3e 0a a5 31 bc 27 f1 9f bd 59 65 42 bd
       0.15837297 -0.010842571 -0.07809668 -0.047459934
000040 c4 ea d7 3d d3 c4 7a 3d 6c b0 ea bd 40 61 75 3d
       0.10542825 0.061222862 -0.11459431 0.059907198
000050 d4 5e 35 be 33 0f 16 3d 97 c6 65 3c aa 27 96 3d
       -0.17711955 0.03663559 0.014024398 0.07331784
000060 d3 fc 18 be 53 a2 0c be 54 53 16 be 8d 41 ca 3d
       -0.14940195 -0.13733797 -0.14680225 0.09875784
000070 92 78 08 bc 27 81 a5 bd 31 33 bd bc 21 71 d0 3d
       -0.008329527 -0.080812745 -0.023095699 0.101778276
000080 74 3a 31 3c 57 fc 2c 3d fd f4 af 3c 6b 16 08 3e
       0.010817159 0.042232838 0.021479124 0.13289802
000090 68 66 43 3d 7d 40 26 bd 43 de 2f 3e 99 1a fb 3d
       0.047705084 -0.040588845 0.1717463 0.122609325
0000a0 65 b0 ca 3d 03 41 cd bd e9 d5 10 3e fe 84 7d 3d
       0.09896926 -0.100221656 0.141441 0.06189441
0000b0 aa db 60 bc be f4 8f bd a5 fa 2e be 34 69 3a be
       -0.013724247 -0.07029103 -0.17087801 -0.18204194
0000c0 86 de 9f 3c 73 0c 58 3d 90 d3 81 3c 04 9b 0e be
       0.019515287 0.052746248 0.015847951 -0.13926321
0000d0 39 5b 95 bc e8 ef fb 3d 87 3d 05 be 46 e8 b0 3c
       -0.018231975 0.12301618 -0.13011752 0.021595132
0000e0 fe 8e 8f 3d c5 5d 32 3e 0f 9c a8 bd 39 3a 52 3d
       0.070096955 0.17418583 -0.08232891 0.051325057
0000f0 66 39 d5 3c a5 69 81 3d ba c7 1d 3e e5 90 81 3d
       0.026028346 0.06318978 0.15408221 0.063264646
000100 5b 38 2a bd ea d3 b8 bd 44 01 2c bd 23 b4 f2 3c
       -0.04155765 -0.090247944 -0.041993394 0.029626912
000110 77 53 a0 bd cf 70 2e be 35 04 35 3e 60 e9 b5 3d
       -0.0782842 -0.1703522 0.17677386 0.088824034
000120 a9 01 3d 3d e8 48 3c be 4e 8b 31 be 7e 0b 1e be
       0.04614416 -0.18387187 -0.17338297 -0.15434071
000130 ce 83 ad 3d 49 53 0d 3e 31 0b fa 3b 6b ee e8 bd
       0.084724054 0.13801302 0.0076307287 -0.113735996
000140 8f 63 26 bc 34 ba 43 be 15 7b 20 be 37 04 2e 3e
       -0.010155573 -0.19114 -0.15671952 0.16993795
000150 4f 73 f5 bd 62 07 23 be 2a 2e 69 3d 5a 56 4a 3e
       -0.11984884 -0.15920785 0.05692879 0.19759503
000160 e3 79 26 3e 56 1c bd bd 30 7f 79 3d cb 84 68 bd
       0.16257434 -0.0923392 0.06091231 -0.056767266
000170 70 e0 45 ba 3f 54 06 be 4f 4f cb bd a7 a3 36 3b
       -0.00075483974 -0.13118075 -0.09927236 0.002786854
000180 8a 0c c5 bc 81 7d 0a 3e 31 0d 1c 3e 02 a1 ff 3d
       -0.02405383 0.13524438 0.15239407 0.12481882
000190 af 07 3d bd 98 b4 e4 bd dc b8 65 bd c5 58 a3 bd
       -0.046149906 -0.11167258 -0.0560845 -0.07975916
0001a0 bd 92 06 bd 55 0d dc bd c6 2f 38 be ad 68 0b be
       -0.032854784 -0.107447304 -0.17986974 -0.1361415
0001b0 59 2d 8e 3d f1 dc 20 3e 57 06 3d 3d 91 79 a0 bc
       0.06942243 0.15709282 0.046148624 -0.019589217
0001c0 99 eb 06 be 23 d1 ad 3d 97 29 a1 bd 6d 23 43 be
       -0.13175811 0.08487155 -0.07869261 -0.19056483
0001d0 16 79 3e bd a4 84 e2 3d 2c c6 1d be 94 8c f6 3d
       -0.046502195 0.110604554 -0.15407628 0.12038532
0001e0 71 16 03 be 63 27 d0 bc 92 22 34 3e ff 77 33 3e
       -0.1280153 -0.025409406 0.17591313 0.17526244
0001f0 ed 9c 33 3e a2 eb 13 be bb 83 ee 3c ad cb 34 be
       0.17540331 -0.14445356 0.029115548 -0.17655821
000200 00 8c a3 bc 30 a1 48 3d 7b 1d 83 3d 1b 3d ba 3d
       -0.019964218 0.048981845 0.06402107 0.09093686
000210 08 de 7c 3d e5 69 35 be ee d1 22 be e7 24 cc bd
       0.061735183 -0.17716177 -0.15900394 -0.09967976
000220 c1 de 3d 3e 70 92 cd 3d 7c c1 f3 3d 56 a7 fa bd
       0.18542005 0.10037696 0.119021386 -0.12238948
000230 e4 69 5e 3d 2a a3 9a bd c4 c3 b1 bc 6e 41 80 3c
       0.054300204 -0.07550652 -0.021699794 0.0156562
000240 9d fa de bd 77 61 c1 bc b4 f9 65 3a fd 07 dd 3d
       -0.108876444 -0.023606045 0.00087728654 0.10792539
000250 43 c5 58 3d 00 d9 27 be 45 d3 3c 3d 15 fc d7 bc
       0.0529225 -0.16391373 0.04609992 -0.02636532
000260 4c c1 b1 ba 92 18 8e bd 5b 0e 2f be 02 ff 0e 3d
       -0.0013561635 -0.0693828 -0.1709532 0.034911163
000270 70 f0 21 3e f6 00 1f 3e bd 51 17 3e 1e 3d 0d 3e
       0.15814376 0.1552771 0.14777274 0.13792846
000280 c3 10 cd 3d 7f d1 ed 3b 17 71 5a bc b7 d6 b5 bd
       0.10012963 0.00725764 -0.013332627 -0.08878844
000290 57 81 30 bd 4e 5d b1 3c 65 56 01 bd 34 2a 05 be
       -0.043092098 0.021650936 -0.031576533 -0.1300438
0002a0 1e e4 8c 3d 08 95 52 3e 85 cb b8 3b 62 0f 4b bd
       0.068794474 0.20564663 0.005639496 -0.049575217
0002b0 5b 60 bf bd 77 48 ea 3d 1d f0 4e be 35 ce 2d bd
       -0.0934455 0.11439603 -0.20208783 -0.042432982
0002c0 f7 25 04 3d 00 46 ab 3b f1 56 1d bd 91 b2 4d 3e
       0.03226277 0.0052268505 -0.038412992 0.20087649
0002d0 8f 34 8c bd 71 9f fd bd a2 6a 57 3c 6e 77 42 3e
       -0.06845962 -0.12383927 0.013147982 0.18990871
0002e0 59 df a9 bc 6d f2 18 be 37 fe 8d bd be 64 c4 bd
       -0.020736383 -0.14936228 -0.06933253 -0.095895275
0002f0 7a aa f2 bd fd 2d 40 be 54 19 81 bd bb 1f 87 bd
       -0.11848922 -0.18767543 -0.06303659 -0.06597849
000300 e4 5f 14 3e 9e 05 48 bd 67 f1 1f 3d 9e 39 0b bd
       0.14489704 -0.048833482 0.03904858 -0.033990495
000310 04 d8 c0 3d 1a 48 55 3d 61 b7 c4 3d 44 f9 9e bd
       0.09416202 0.052070715 0.09605289 -0.077623874
000320 39 95 6f bd 1d 9d e2 bd 80 08 4e 3c 2e 4d 18 3e
       -0.05849192 -0.11065123 0.012575269 0.14873192
000330 12 af bd bd d6 66 1a be 5b a6 8f 3d a8 71 0a bd
       -0.09261908 -0.15078291 0.07014152 -0.033799797
000340 d3 75 a7 3c a5 6d 02 be 3f c6 18 be ed 24 1c bd
       0.020441925 -0.12737139 -0.14919375 -0.038121153
000350 27 c0 0e 3e b5 6a 4d bd ef 8f bf bc ad 39 48 3c
       0.13940488 -0.050150592 -0.023384063 0.012220782
000360 85 3d 15 3e af 1d 4e bd ad 39 ea bc 10 95 25 3e
       0.14574249 -0.050321277 -0.028591955 0.16170144
000370 61 98 06 3e 9b 1e 11 be cd bf e8 3d 3d 57 8e 3d
       0.13144065 -0.14171831 0.11364708 0.06950233
000380 08 55 33 be 30 76 05 bc d4 df 09 be 3a c8 a9 bd
       -0.17512906 -0.008145854 -0.1346429 -0.08290143
000390 1b 91 26 3d 66 4c 20 3d 4a be 8c bd e8 8f 23 be
       0.040665727 0.03913536 -0.06872232 -0.15972865
0003a0 be 62 bd 3d f9 e4 51 bd 56 12 66 3d 51 4b 28 be
       0.09247349 -0.051243756 0.05616983 -0.16434981
0003b0 6e 91 1a bd 80 bf 2d 3d 5d 42 78 3c fc 7f 60 3d
       -0.03773635 0.042418957 0.015152541 0.054809555
0003c0 13 c5 dd 3c 6b f3 84 bd 06 12 25 3d 89 c2 1f 3e
       0.027071511 -0.06491741 0.04030039 0.15601553
0003d0 cd c6 3e 3e 02 21 50 bd 64 d9 bf 3d aa ed ea bd
       0.18630524 -0.05081273 0.09367636 -0.11471112
0003e0 d0 19 a7 bd bc eb 0f be be 67 3b 3e 01 4e 0d bd
       -0.0815922 -0.1405477 0.18301293 -0.03449822
0003f0 95 09 27 3e 04 d6 b7 bd 7b 0c d5 bd 7f 47 3c bc
       0.16312249 -0.08976367 -0.10402771 -0.011491655
