checkpoints/epoch=0-step=50-v3.ckpt (torch, 621663 bytes, 33 tensors)

model.param_proj.proj.0.weight f4 [1, 60]
-0.09434336 -0.08970174 0.04864451 0.13911082 0.11416682 0.09841607 -0.021608692 -0.097367756
-0.1458941 -0.029030975 0.049660686 -0.01220814 -0.06596008 0.03288126 0.010900301 -0.0497135
0.17856964 0.08074704 -0.001431589 0.1535737 -0.1555916 -0.111678 -0.07514271 0.048797436
0.07313031 -0.14252713 -0.08694667 -0.13767524 0.0986823 0.1632537 0.10318224 -0.080749296
-0.1754184 0.00086257985 0.04861734 -0.11094776 -0.1618892 0.011238033 0.0072740456 -0.0600362
0.08975927 -0.020592295 -0.11878428 0.10981366 -0.043831248 -0.05764402 0.085644245 -0.013719317
0.14095093 0.049142513 -0.13346158 0.103745185 0.045335017 -0.02258223 -0.0089789 -0.062138774
-0.02097406 0.097667515 -0.019490184 -0.052839924
00000000: 1737 c1bd 8cb5 b7bd 773f 473d 1173 0e3e
00000010: 4bd0 e93d 5d8e c93d b604 b1bc bf68 c7bd
00000020: 4365 15be 5ed2 edbc 0169 4b3d a704 48bc
00000030: 1416 87bd 80ae 063d 2d97 323c 62a0 4bbd
00000040: f6da 363e b45e a53d 28a4 bbba 6d42 1d3e
00000050: 6853 1fbe 6fb7 e4bd 6ce4 99bd d2df 473d
00000060: 58c5 953d a2f2 11be 1911 b2bd bdfa 0cbe
00000070: f219 ca3d fa2b 273e 3651 d33d e35f a5bd
00000080: e2a0 33be c11e 623a fa22 473d 9438 e3bd
00000090: 48c6 25be ba1f 383c 1e5b ee3b 85e8 75bd
000000a0: b5d3 b73d 2cb1 a8bc 2c45 f3bd fce5 e03d
000000b0: 6588 33bd 231c 6cbd 4066 af3d fcc6 60bc
000000c0: 7155 103e a949 493d 27aa 08be 5b78 d43d
000000d0: 36b1 393d 5efe b8bc 3c1c 13bc 3a85 7ebd
000000e0: cbd1 abbc e805 c83d e1a9 9fbc ad6e 58bd

model.param_proj.proj.1.weight f4 [1, 60]
0.174608 0.08430524 -0.041455876 0.013502114 0.09611446 -0.14891247 -0.0023765361 0.18169755
0.13034566 0.03466447 -0.12062309 0.1657299 0.13242099 -0.02926283 0.13241369 0.13898805
-0.16632122 -0.055102237 0.1576587 0.067207314 -0.12653793 -0.124113865 -0.04490268 0.0467801
0.11827626 0.04900004 0.106167406 -0.14742354 -0.0996178 -0.028692605 0.055882152 0.10000868
0.17929347 0.0069291387 -0.11237649 -0.15379545 0.03915878 0.13642171 -0.1111866 -0.06541175
-0.014719502 -0.017902726 0.046912875 0.089335285 0.09938426 -0.081170306 -0.052947074 -0.036446933
-0.11313521 0.08683564 0.08863506 -0.12500799 -0.041573096 -0.07102951 0.09925228 -0.13271303
-0.11820642 0.07715868 0.14773302 -0.04418453
00000000: 71cc 323e 3aa8 ac3d a3cd 29bd f937 5d3c
00000010: a8d7 c43d 837c 18be a9bf 1bbb ec0e 3a3e
00000020: 5579 053e 55fc 0d3d 3d09 f7bd 19b5 293e
00000030: 5e99 073e 9ab8 efbc 7497 073e e252 0e3e
00000040: 1c50 2abe e2b2 61bd 4871 213e fda3 893d
00000050: 2993 01be 692f febd dfeb 37bd 7d9c 3f3d
00000060: d33a f23d 44b4 483d 4c6e d93d 32f6 16be
00000070: 6b04 ccbd c10c ebbc afe4 643d 5ad1 cc3d
00000080: b598 373e d40d e33b a525 e6bd 8e7c 1dbe
00000090: f564 203d 22b2 0b3e cdb5 e3bd 98f6 85bd
000000a0: 112a 71bc bda8 92bc b727 403d 6bf5 b63d
000000b0: fa89 cb3d 9e3c a6bd 08df 58bd 6149 15bd
000000c0: 6fb3 e7bd e2d6 b13d 4c86 b53d 1802 00be
000000d0: 8d48 2abd eb77 91bd c844 cb3d ede5 07be
000000e0: 3516 f2bd 5f05 9e3d 5347 173e d6fa 34bd

model.param_proj.proj.2.weight f4 [1, 60]
0.018476913 0.13729268 0.03962085 0.105390936 0.01728112 0.02601175 -0.095805444 0.010239125
-0.0755944 -0.07657781 -0.11542525 0.13322408 0.057733983 -0.09374342 0.028620495 -0.07004658
0.036480658 0.051927093 0.05351396 0.02287731 -0.13075446 -0.06994984 0.10177001 0.042566366
-0.083324306 -0.08547526 -0.0755748 -0.022686774 -0.14383914 0.0028429092 0.09531088 -0.10579938
0.055009726 0.08211535 -0.019235892 -0.017928185 -0.015976975 0.0043152696 -0.08094153 -0.13926914
0.06960888 0.07935481 -0.07168801 0.11387751 -0.08024543 0.0773012 -0.023137895 0.10227672
-0.06369187 0.072717495 -0.08217794 -0.08110569 -0.07540449 -0.055698667 -0.10527556 0.029447
-0.00629496 -0.03550771 -0.08311161 0.021481454
00000000: e55c 973c 7496 0c3e 7949 223d 34d7 d73d
00000010: 2391 8d3c 9816 d53c a535 c4bd 01c2 273c
00000020: 3dd1 9abd d4d4 9cbd 1364 ecbd e56b 083e
00000030: 787a 6c3d 8dfc bfbd 8775 ea3c 9574 8fbd
00000040: be6c 153d 81b1 543d 7431 5b3d 3269 bb3c
00000050: 7fe4 05be dd41 8fbd cc6c d03d 125a 2e3d
00000060: efa5 aabd a70d afbd f6c6 9abd 9dd9 b9bc
00000070: 914a 13be 1a50 3a3b 5a32 c33d 58ad d8bd
00000080: e151 613d 182c a83d 9794 9dbc 21de 92bc
00000090: 25e2 82bc 1b67 8d3b acc4 a5bd 929c 0ebe
000000a0: 1a8f 8e3d c684 a23d 2ad1 92bd 9d38 e93d
000000b0: b757 a4bd 1750 9e3d af8b bdbc 7576 d13d
000000c0: e270 82bd e9ec 943d e84c a8bd bd1a a6bd
000000d0: ab6d 9abd 4924 64bd b69a d7bd d63a f13c
000000e0: f445 cebb 8870 11bd 6b36 aabd e0f9 af3c

model.rnn.weight_ih_l0 f4 [240, 24]
0.14759643 -0.13972801 -0.05693023 0.026198776 -0.095852524 0.04057333 0.11043165 0.037344232
0.047051672 0.1012089 -0.030762907 -0.11528404 0.142697 -0.046289925 0.1440803 -0.0411581
0.007048353 0.06599637 -0.045412 0.062483102 -0.10524101 -0.11165939 0.014175793 -0.054018144
-0.0761585 0.0332862 0.07465655 -0.11433219 -0.06602752 0.033269588 -0.10586446 0.08133178
-0.14405449 -0.028462151 0.06062916 0.11588599 0.1427183 -0.083815895 -0.1097457 -0.04174831
-0.041363914 -0.13459136 -0.059477977 0.09427511 0.034423865 0.039819237 0.014509043 -0.03581143
-0.06769049 -0.15902072 -0.075463794 -0.08866648 -0.10334975 0.01509358 0.09864948 0.118391775
-0.099076785 -0.04339335 -0.10577903 0.023539301 0.05387691 -0.12729199 -0.027998602 -0.11858024
-0.042507444 0.115729414 0.13579154 -0.009325133 0.023272298 0.085788704 -0.031173123 -0.063140124
-0.06205589 0.06487678 -0.020398092 0.047873802 -0.06611208 -0.020888463 -0.008666223 0.01798489
0.09463535 0.07938749 0.030964023 0.077692024 -0.13424452 -0.041353535 0.0062645087 -0.10464741
-0.12420873 0.099512145 -0.045417253 0.0034805099 -0.09096138 0.12919621 0.053106505 -0.012290492
-0.17336668 -0.15381226 0.045241106 0.024488475 -0.15083951 -0.05536229 -0.0077302433 -0.063085735
0.13999532 0.12794818 -0.094953895 0.0722552 -0.01238977 0.14464849 0.09277688 0.089509025
0.14292993 -0.040193442 0.06897404 -0.031098984 -0.03304964 -0.04859085 0.09144912 -0.09635321
0.0037921425 0.10772545 0.032920692 0.11275637 0.070792206 -0.073634475 -0.09914319 0.000776523
0.025246184 -0.15716705 0.08287649 -0.110354796 -0.073616624 -0.072976515 0.15219156 0.12508985
-0.015889062 0.07460042 0.01971582 -0.062061336 0.08751481 0.13711804 0.00018212758 -0.07072406
0.099355154 0.0656906 0.086426266 0.06688329 0.08634617 -0.016713852 0.08007107 -0.06822307
0.13364561 0.10589436 -0.081503704 0.034452535 0.061832536 -0.10304856 -0.078495786 -0.06892091
0.0041758246 -0.06185082 0.09991526 0.07701291 0.012469545 -0.12850238 0.11587446 -0.026999226
0.09035091 -0.09469564 -0.0020784987 0.00466883 -0.068461776 -0.007817407 -0.124888346 0.036799204
0.13218993 -0.08812788 -0.06382027 -0.09089403 0.01800167 0.02822915 0.040598266 0.048891712
-0.06798403 0.0075745424 0.08352574 0.018643599 0.0949351 0.115558155 -0.0074899895 -0.036674578
-0.0825159 0.08822262 -0.09408812 -0.042541754 -0.025949817 -0.15795952 -0.077119276 -0.059242047
-0.021589383 0.010542042 0.10470918 0.019862944 -0.08824495 0.06955155 0.034598514 -0.08796229
-0.029474944 0.15850678 0.09979151 -0.022496488 -0.06080737 0.1790269 0.041446332 -0.04840792
-0.06630599 0.05914001 0.02067843 0.14587475 0.060188368 -0.015373418 0.07509022 -0.09866846
-0.0865805 -0.13074872 -0.065632544 0.022261282 -0.058840185 -0.083136454 -0.048562888 0.09980067
0.04953095 0.16380993 0.14708447 -0.055239193 -0.11352115 0.02270842 0.04062456 0.028041404
0.0064980634 -0.13182041 0.12524523 -0.033774953 -0.052021317 -0.083855055 0.004585718 0.035845798
-0.10456008 0.00094136177 -0.044379134 0.110280715 -0.026172334 0.05062752 -0.029946793 0.14026803
00000000: 8523 173e dc14 0fbe ac2f 69bd d19e d63c
00000010: 544e c4bd 3830 263d fd29 e23d 44f6 183d
00000020: 41b9 403d 9d46 cf3d 7e02 fcbc 0a1a ecbd
00000030: 2a1f 123e 819a 3dbd c989 133e 6595 28bd
00000040: dff5 e63b 1b29 873d ef01 3abd 48ee 7f3d
00000050: 9988 d7bd aead e4bd 9641 683c 2142 5dbd
00000060: fdf8 9bbd 1c57 083d 89e5 983d ff26 eabd
00000070: 7039 87bd b145 083d 77cf d8bd 4791 a63d
00000080: 0583 13be 7529 e9bc 4856 783d a255 ed3d
00000090: bf24 123e aba7 abbd 5bc2 e0bd 4700 2bbd
000000a0: 356d 29bd 51d2 09be 2e9f 73bd 4f13 c13d
000000b0: 0a00 0d3d 7f19 233d 56b7 6d3c 02af 12bd
000000c0: 50a1 8abd 54d6 22be c38c 9abd c596 b5bd
000000d0: 09a9 d3bd 104b 773c bd08 ca3d 6377 f23d
000000e0: c5e8 cabd 3abd 31bd ada2 d8bd 7ed5 c03c
000000f0: 09ae 5c3d d558 02be 535d e5bc 32da f2bd
00000100: 491c 2ebd 8b03 ed3d f00c 0b3e 71c8 18bc
00000110: 8ca5 be3c fdb1 af3d c75e ffbc 9c4f 81bd
00000120: 512e 7ebd 1ede 843d e619 a7bc 5217 443d
00000130: c565 87bd 481e abbc c6fc 0dbc 0c55 933c
00000140: 2ed0 c13d e995 a23d 43a8 fd3c ff1c 9f3d
00000150: 6577 09be 5362 29bd 8246 cd3b 6251 d6bd
00000160: 2661 febd 06cd cb3d 7107 3abd 4419 643b
00000170: f649 babd 034c 043e 3586 593d 0f5e 49bc
00000180: 0987 31be f680 1dbe bd4e 393d 0e9c c83c
00000190: ac75 1abe 92c3 62bd fb4d fdbb 1833 81bd
000001a0: ef5a 0f3e d904 033e 3077 c2bd 89fa 933d
000001b0: 76fe 4abc bc1e 143e ce01 be3d 8250 b73d
000001c0: 395c 123e e1a1 24bd 4342 8d3d 4cc3 febc
000001d0: 0f5f 07bd 3307 47bd ad49 bb3d d554 c5bd
000001e0: 9885 783b 299f dc3d d9d7 063d d0ec e63d
000001f0: 81fb 903d accd 96bd 960b cbbd 948f 4b3a
00000200: 16d1 ce3c 66f0 20be 26bb a93d b201 e2bd
00000210: 50c4 96bd b674 95bd 1bd8 1b3e 8e17 003e
00000220: c729 82bc 1bc8 983d 1283 a13c 0734 7ebd
00000230: f73a b33d ac68 0c3e 80f9 3e39 c7d7 90bd
00000240: b77a cb3d cb88 863d 4100 b13d 1bfa 883d
00000250: 43d6 b03d 7deb 88bc 4dfc a33d 89b8 8bbd
00000260: 65da 083e 24df d83d 6aeb a6bd 1a1e 0d3d
00000270: 1d44 7d3d 200b d3bd 66c2 a0bd 6826 8dbd
00000280: 5bd5 883b 4957 7dbd 5fa0 cc3d f2b8 9d3d
00000290: 104d 4c3c 2196 03be 974f ed3d 7b2d ddbc
000002a0: e609 b93d caef c1bd 6c37 08bb fcfc 983b
000002b0: b035 8cbd 9514 00bc 76c5 ffbd c3ba 163d
000002c0: cc5c 073e 647c b4bd 34b4 82bd a626 babd
000002d0: 3d78 933c d240 e73c 5e4a 263d ad42 483d
000002e0: 363b 8bbd de33 f83b 8b0f ab3d 76ba 983c
000002f0: 556d c23d c1a9 ec3d 966e f5bb 1538 16bd
00000300: 19fe a8bd 10ae b43d 46b1 c0bd 4340 2ebd
00000310: b694 d4bc 24c0 21be b6f0 9dbd caa7 72bd
00000320: 38dc b0bc 87b8 2c3c c471 d63d 9db7 a23c
00000330: c5b9 b4bd 0b71 8e3d 2cb7 0d3d 9325 b4bd
00000340: 7075 f1bc 9a4f 223e 7e5f cc3d 8e4a b8bc
00000350: 2611 79bd d452 373e a1c3 293d 6247 46bd
00000360: 6fcb 87bd cc3c 723d d065 a93c 3160 153e
00000370: 1488 763d cae0 7bbc e7c8 993d b112 cabd
00000380: 1e51 b1bd fee2 05be 5b6a 86bd 4b5d b63c
00000390: 6802 71bd 7243 aabd e1e9 46bd 4b64 cc3d
000003a0: f7e0 4a3d cabd 273e 509d 163e 7e42 62bd
000003b0: c77d e8bd 0207 ba3c f065 263d 16b7 e53c
000003c0: b5ed d43b eefb 06be 4940 003e 9b57 0abd
000003d0: 4e14 55bd 33bc abbd ca43 963b 0bd3 123d
000003e0: 9823 d6bd b8c5 763a e5c6 35bd dbda e13d
000003f0: 5d67 d6bc cd5e 4f3d fa52 f5bc 6ca2 0f3e

model.rnn.weight_hh_l0 f4 [240, 60]
0.0056551346 0.10836675 0.09797535 -0.09075041 -0.061333377 -0.101890944 0.027828395 0.044180125
-0.05515429 0.04781134 0.095447116 0.023051757 -0.043684755 -0.066683136 0.037706725 -0.017180163
0.10219193 0.01868864 -0.057535652 0.016105091 0.03877574 0.10135964 -0.022843106 0.1340314
0.0013826056 -0.026481505 -0.02368818 0.09868632 0.016233057 0.06085658 -0.08884784 -0.08255253
0.0033853175 -0.02448258 0.06905004 0.085932374 -0.099138856 -0.07292436 0.05326558 -0.11416693
-0.098296106 -0.08991802 0.10507512 0.080450386 0.032866385 -0.03436513 0.078208975 -0.1024095
-0.061177775 -0.02476159 -0.0391976 0.057586275 -0.023571659 -0.05810596 -0.024189567 0.067450784
0.13145274 -0.032428727 -0.08053222 -0.08591097 -0.030345928 -0.038184214 0.11940057 -0.10897254
-0.14535016 0.0359684 0.0723199 0.041076757 0.04173438 -0.109543405 0.10148943 -0.026850382
-0.03713617 -0.02499787 -0.028985092 -0.022707358 -0.030702997 -0.04428826 -0.06627634 0.067203335
-0.052848123 0.08827984 0.113453716 0.06595184 -0.13792732 0.103496626 0.07656837 0.07675613
-0.0052925856 -0.061238397 -0.0041242195 0.069542795 0.081964344 0.061105948 0.028727658 0.005149191
-0.08222529 0.008145348 -0.085131824 0.07026429 0.08444455 0.09587173 0.040172193 -0.104986824
-0.050270766 0.114746 0.077931166 -0.027838832 -0.005078026 0.023503464 -0.14946213 -0.10991338
-0.06458823 -0.022671208 0.031162243 -0.12130676 -0.038377807 0.016114593 -0.04382085 0.13771044
-0.09699784 0.124762245 0.1349747 0.052429803 -0.048883773 -0.10802199 -0.035781633 0.0041787084
-0.07449235 0.0006241206 -0.07618752 0.10264361 -0.059009083 -0.082889274 -0.029785678 0.1229636
0.04074142 -0.10757505 -0.034115348 -0.030629305 -0.0014698541 -0.08228094 -0.019372338 -0.042729072
0.09560934 -0.079920694 0.105028585 0.081502385 -0.13128684 -0.119832106 -0.14130177 -0.0636821
0.0053694826 -0.08282108 -0.04927119 0.10026282 -0.12421691 0.07232867 0.028803485 -0.03597594
-0.13860205 0.08353133 0.08213425 -0.12635367 -0.06185156 -0.0017352288 -0.022105992 -0.12151522
-0.057130758 -0.10298047 0.05601706 -0.13106054 0.11850397 0.101914816 0.007848519 0.08840103
0.04904111 -0.04598398 0.11610688 0.06389097 -0.0025667395 -0.033055842 -0.049692005 0.075076826
-0.009000042 0.0622153 -0.0010743946 0.12443477 0.12150508 0.015826773 0.028421346 -0.11784642
0.1428867 0.038210306 0.086905435 -0.00032575487 -0.024339177 -0.06769957 -0.0897154 0.06522417
0.05598823 -0.09428894 0.16060115 0.12839413 -0.097662255 0.07742592 -0.12927958 -0.032836452
0.09890753 0.023312872 0.0075590564 0.13561776 0.1274379 -0.074224755 0.06500922 0.15548481
0.06924915 0.10059174 -0.073877476 -0.07204732 0.04144668 0.0012336189 -0.1172887 -0.1607159
-0.08086272 0.10888236 0.020077737 -0.10982542 0.1666983 0.046891242 -0.024460394 -0.055725217
-0.015342248 -0.07223048 -0.16709615 0.08110679 0.071340725 0.061147157 -0.06707077 0.026574627
-0.13456863 -0.08473367 -0.03345362 -0.10304453 0.10778982 -0.08305552 -0.087565355 0.12821528
0.04036996 0.035988584 0.15248129 0.080798015 -0.04092346 -0.052843574 -0.002536842 -0.004579639
00000000: b54e b93b 63ef dd3d 4da7 c83d 5adb b9bd
00000010: b538 7bbd 33ac d0bd 60f8 e33c 38f6 343d
00000020: 77e9 61bd d3d5 433d c779 c33d 0ad7 bc3c
00000030: c9ee 32bd 2b91 88bd 5e72 1a3d 6abd 8cbc
00000040: 014a d13d eb18 993c 81aa 6bbd d3ee 833c
00000050: 4fd3 1e3d a595 cf3d 7721 bbbc 873f 093e
00000060: 8c38 b53a beef d8bc b70d c2bc 0e1c ca3d
00000070: 30fb 843c c044 793d dbf5 b5bd 4d11 a9bd
00000080: 34dc 5d3b b18f c8bc 1b6a 8d3d 50fd af3d
00000090: 5009 cbbd 5e59 95bd 022d 5a3d 5ad0 e9bd
000000a0: 784f c9bd f026 b8bd a031 d73d 2cc3 a43d
000000b0: e79e 063d 73c2 0cbd 072c a03d 12bc d1bd
000000c0: 8c95 7abd d1d8 cabc aa8d 20bd 96df 6b3d
000000d0: 5a19 c1bc 8400 6ebd 3329 c6bc a323 8a3d
000000e0: 8c9b 063e fcd3 04bd 14ee a4bd 17f2 afbd
000000f0: 0698 f8bc 0d67 1cbd 4988 f43d ff2c dfbd
00000100: acd6 14be 9a53 133d 751c 943d 1a40 283d
00000110: abf1 2a3d 4b58 e0bd b1d9 cf3d 55f5 dbbc
00000120: 191c 18bd 55c8 ccbc 2572 edbc c804 babc
00000130: da84 fbbc 9b67 35bd e4bb 87bd e7a1 893d
00000140: 4677 58bd 10cc b43d 6c5a e83d c211 873d
00000150: d23c 0dbe 0af6 d33d e1cf 9c3d 5132 9d3d
00000160: 6d6d adbb 1dd5 7abd 7624 87bb 746c 8e3d
00000170: ecdc a73d 3b4a 7a3d 4456 eb3c 8bba a83b
00000180: bc65 a8bd 1174 053c 9859 aebd b9e6 8f3d
00000190: 44f1 ac3d 6658 c43d 998b 243d 5503 d7bd
000001a0: b8e8 4dbd f3ff ea3d 609a 9f3d 430e e4bc
000001b0: 9265 a6bb 568a c03c 9a0c 19be 441a e1bd
000001c0: d546 84bd f8b8 b9bc f647 ff3c ae6f f8bd
000001d0: 0c32 1dbd c002 843c 7e7d 33bd f703 0d3e
000001e0: cea6 c6bd 5983 ff3d cf36 0a3e a2c0 563d
000001f0: 5a3a 48bd a23a ddbd c38f 12bd 8ced 883b
00000200: 728f 98bd 069c 233a 3408 9cbd d036 d23d
00000210: 82b3 71bd dac1 a9bd 1801 f4bc 57d4 fb3d
00000220: 7ae0 263d 4f50 dcbd 89bc 0bbd 4fea fabc
00000230: 1fa8 c0ba e982 a8bd bdb2 9ebc ae04 2fbd
00000240: d4ce c33d 76ad a3bd 3a19 d73d b9ea a63d
00000250: 0f70 06be 896a f5bd 69b1 10be c36b 82bd
00000260: 7cf2 af3b 199e a9bd 96d0 49bd 9856 cd3d
00000270: 6f65 febd 0e21 943d 49f5 eb3c 825b 13bd
00000280: b2ed 0dbe 7912 ab3d 0036 a83d db62 01be
00000290: 1058 7dbd 9e70 e3ba a017 b5bc f9dc f8bd
000002a0: f101 6abd 6de7 d2bd 2572 653d bc34 06be
000002b0: 36b2 f23d b7b8 d03d 1397 003c 990b b53d
000002c0: 55df 483d b359 3cbd 72c9 ed3d 45d9 823d
000002d0: be36 28bb 9065 07bd d889 4bbd e1c1 993d
000002e0: ea74 13bc 78d5 7e3d b3d2 8cba a8d7 fe3d
000002f0: a8d7 f83d 26a7 813c e2d3 e83c 7759 f1bd
00000300: e450 123e 6982 1c3d 7afb b13d 14ca aab9
00000310: f462 c7bc 12a6 8abd b5bc b7bd 4094 853d
00000320: ea53 653d 8f1a c1bd a174 243e c079 033e
00000330: 2603 c8bd 7b91 9e3d de61 04be 847f 06bd
00000340: 0890 ca3d a3fa be3c f6b1 f73b 62df 0a3e
00000350: 157f 023e 2603 98bd 8e23 853d 6937 1f3e
00000360: 80d2 8d3d 0b03 ce3d 134d 97bd 8c8d 93bd
00000370: fec3 293d 62b1 a13a 0f35 f0bd b592 24be
00000380: 5b9b a5bd b7fd de3d 117a a43c 26ec e0bd
00000390: f6b2 2a3e 0811 403d 2a61 c8bc 2040 64bd
000003a0: 0d5e 7bbc 93ed 93bd 411b 2bbe 511b a63d
000003b0: 161b 923d 7175 7a3d 665c 89bd 08b3 d93c
000003c0: 5ccc 09be d988 adbd aa06 09bd 0309 d3bd
000003d0: e9c0 dc3d 0319 aabd 7755 b3bd de4a 033e
000003e0: f95a 253d c468 133d 0e24 1c3e 6e79 a53d
000003f0: 5c9f 27bd 8172 58bd 2541 26bb cc10 96bb

model.rnn.bias_ih_l0 f4 [240]
-0.070214264 0.021083217 0.0067171617 -0.051836118 0.13391839 0.025717223 -0.01527388 0.02729333
-0.05160424 0.11370662 0.17616676 0.12605552 0.10226565 -0.078248195 0.043200478 0.086005636
0.008248462 -0.057055894 0.039551515 -0.034824934 0.04002357 0.102979176 0.09426455 -0.016924389
0.07583884 -0.0103297895 0.10266522 -0.11277729 -0.0044244463 0.10133938 -0.08067668 -0.089728184
-0.06356924 0.07395658 0.08877083 0.12010374 -0.0292788 -0.085741 -0.022212585 -0.06520863
-0.006770075 -0.100972734 0.11005682 -0.02913005 -0.07437981 -0.020259153 0.041173287 -0.003042214
0.122311816 0.10201889 0.01852615 0.08068323 0.10855354 -0.0280901 0.052413207 -0.036148053
-0.08550775 -0.028262112 0.03004637 0.049178563 0.08264038 -0.1114245 -0.038584217 0.09297512
0.13393079 -0.113978185 -0.06226569 0.06054709 0.12593351 0.08927429 0.06334186 -0.099073865
-0.020737158 0.11609955 -0.026736533 -0.0022607918 0.09197001 -0.08906968 -0.10933484 -0.0015980708
0.1067818 -0.07085229 0.026825672 0.0583507 0.14067513 -0.047597453 0.06472377 0.012970821
0.09589894 -0.040372413 0.0342762 -0.03997294 -0.025752055 0.013547014 -0.10447166 0.023292575
-0.017952884 -0.01326498 -0.06168277 -0.0023414 0.05239513 -0.09477295 0.13582434 0.103566274
0.051507324 -0.015058876 -0.10905769 -0.08588636 0.077909626 -0.021770967 -0.0429726 0.14054188
-0.07484471 0.055656023 0.038263757 -0.09176614 -0.08673435 -0.06119535 -0.09604643 0.04001095
-0.05654167 -0.09632203 0.1081246 0.030362317 -0.06213692 -0.10503288 0.012142424 -0.12528746
0.08235995 -0.006980512 0.044954468 -0.09860764 -0.09294825 -0.056092776 0.076907985 -0.08327762
0.09299963 0.04426757 -0.10303007 0.020994388 -0.08695342 -0.059902225 -0.004647417 -0.045753177
0.03707008 0.013002912 -0.007011694 -0.044194665 0.14487278 -0.024982583 0.043831214 -0.07272181
0.029540898 -0.08931427 0.012802225 0.053134896 0.05426473 0.028324226 0.054993417 -0.046691906
-0.12928455 0.09127179 0.018095037 -0.09705939 0.049256973 0.0206243 0.11824703 -0.098219305
-0.088256136 -0.08514893 0.011675114 -0.12114495 -0.11057095 0.1281946 -0.07347679 -0.028969267
0.035169672 0.052111734 -0.032071233 -0.10797834 -0.013923388 0.048689105 0.076598816 0.12953193
0.07204932 -0.055021223 0.07245767 0.07056643 -0.023931237 -0.01022241 -0.059657965 -0.0437726
0.14903606 -0.005262404 0.08305369 -0.007347642 0.09344589 -0.0564974 -0.041432828 -0.05466854
-0.0058060386 1.3520126e-05 0.13636208 0.077012114 0.049531356 -0.0029070468 0.1263054 -0.009954514
-0.024854183 0.10500762 -0.033314094 0.024715323 -0.023401722 -0.013679747 -0.047010414 -0.03965533
0.03286695 -0.1003812 0.04591863 0.03387845 0.12245032 -0.053459708 -0.011683984 0.09310792
-0.012140177 -0.064582676 -0.10499076 0.12589255 -0.065840565 0.073523894 0.11238716 -0.10820464
0.12760894 0.053215694 0.14883845 -0.097601004 -0.02956252 -0.050470192 -0.035781045 -0.046351537
00000000: 7fcc 8fbd b6b6 ac3c a31b dc3b 1c52 54bd
00000010: e721 093e edac d23c 4c3f 7abc 4396 df3c
00000020: f85e 53bd 04df e83d 0f65 343e b314 013e
00000030: a770 d13d 9740 a0bd fcf2 303d b923 b03d
00000040: 8f24 073c 71b3 69bd c500 223d 97a4 0ebd
00000050: c1ef 233d bfe6 d23d c60d c13d 04a5 8abc
00000060: 6551 9b3d 473e 29bc 2542 d23d c8f7 e6bd
00000070: f2fa 90bb 058b cf3d d139 a5bd 69c3 b7bd
00000080: 9730 82bd 8c76 973d 7bcd b53d f3f8 f53d
00000090: 18da efbc fa98 afbd 2bf7 b5bc 1a8c 85bd
000000a0: 81d7 ddbb cbca cebd 7865 e13d 25a2 eebc
000000b0: 7154 98bd 86f6 a5bc 52a5 283d e25f 47bb
000000c0: 9e7e fa3d 48ef d03d 27c4 973c 403d a53d
000000d0: 5251 de3d 361d e6bc 3baf 563d fb0f 14bd
000000e0: b01e afbd f285 e7bc ce23 f63c 766f 493d
000000f0: 5c3f a93d 8732 e4bd 7c0a 1ebd bd69 be3d
00000100: 2725 093e 656d e9bd 4f0a 7fbd 3a00 783d
00000110: b7f4 003e 70d5 b63d 61b9 813d 3de7 cabd
00000120: f9e0 a9bc 9ac5 ed3d 9306 dbbc cb29 14bb
00000130: c65a bc3d 2a6a b6bd f2ea dfbd 5c76 d1ba
00000140: 6bb0 da3d 011b 91bd 83c1 db3c 2501 6f3d
00000150: 240d 103e 8cf5 42bd e58d 843d 9183 543c
00000160: aa66 c43d 8b5d 25bd 3365 0c3d aaba 23bd
00000170: f9f5 d2bc 4cf4 5d3c 3df5 d5bd 12d0 be3c
00000180: ed11 93bc 5c55 59bc 12a7 7cbd 2c72 19bb
00000190: 479c 563d 5218 c2bd 8915 0b3e 8e1a d43d
000001a0: 58f9 523d 81b9 76bc a359 dfbd 30e5 afbd
000001b0: 158f 9f3d 0759 b2bc 0904 30bd 36ea 0f3e
000001c0: 2f48 99bd 92f7 633d 75ba 1c3d e3ef bbbd
000001d0: c7a1 b1bd faa7 7abd feb3 c4bd 86e2 233d
000001e0: 3d98 67bd 7c44 c5bd 6e70 dd3d 65ba f83c
000001f0: 4883 7ebd 7b1b d7bd 04f1 463c 5b4b 00be
00000200: 55ac a83d c7bc e4bb 2d22 383d cdf2 c9bd
00000210: a75b bebd 8ac1 65bd ef81 9d3d 758d aabd
00000220: 9776 be3d e951 353d 6e01 d3bd 6cfc ab3c
00000230: a214 b2bd 095c 75bd 5c49 98bb af67 3bbd
00000240: ccd6 173d 2a0a 553c 5ac2 e5bb 7705 35bd
00000250: 8859 143e 46a8 ccbc 5c88 333d 2cef 94bd
00000260: c1ff f13c 66ea b6bd 6cc0 513c faa3 593d
00000270: b244 5e3d 3508 e83c c740 613d 0340 3fbd
00000280: 2b63 04be b4ec ba3d 0b3c 943c 13c7 c6bd
00000290: aec1 493d 4bf4 a83c 802b f23d 3427 c9bd
000002a0: a2bf b4bd 9062 aebd fa48 3f3c d81a f8bd
000002b0: 0673 e2bd 7245 033e 007b 96bd f550 edbc
000002c0: 130e 103d 1d73 553d 205d 03bd bf23 ddbd
000002d0: ec1e 64bc 3a6e 473d d7df 9c3d 05a4 043e
000002e0: 988e 933d ef5d 61bd b064 943d 2285 903d
000002f0: 710b c4bc e57b 27bc e95b 74bd e64a 33bd
00000300: e99c 183e 3f70 acbb 0e18 aa3d 7dc4 f0bb
00000310: 8f60 bf3d d169 67bd 78b5 29bd 1eec 5fbd
00000320: 9540 bebb 80d4 6237 80a2 0b3e 87b8 9d3d
00000330: 64e1 4a3d 2784 3ebb 3456 013e 4218 23bc
00000340: 009b cbbc 3c0e d73d 5c74 08bd ca77 ca3c
00000350: f8b4 bfbc 0421 60bc fe8d 40bd a16d 22bd
00000360: 7f9f 063d a994 cdbd 2c15 3c3d 21c4 0a3d
00000370: 3cc7 fa3d 91f8 5abd 2e6e 3fbc 5daf be3d
00000380: 98e7 46bc ec43 84bd 6505 d7bd fae9 003e
00000390: 6bd7 86bd b293 963d 3d2b e63d 659a ddbd
000003a0: ebab 023e b3f8 593d 1b69 183e 09e3 c7bd
000003b0: 192d f2bc d5b9 4ebd 258f 12bd 1cdb 3dbd

model.rnn.bias_hh_l0 f4 [240]
0.13330406 -0.09707231 -0.041235007 -0.06997835 0.0069016484 -0.029545568 0.0070023667 0.08973514
0.1295481 0.1573188 0.03066906 0.1314817 0.12404282 0.08966866 0.004793678 -0.07068408
-0.0129765775 -0.008890678 0.012984484 0.098066635 0.017167715 0.1389978 -0.07680718 0.11030837
0.10482711 0.14093116 -0.004664155 -0.011913567 0.14336595 0.021613522 -0.037161656 -0.013317002
0.12001671 0.11419798 -0.0027265109 -0.014283193 -0.04531473 -0.0870831 -0.0009994493 -0.05650081
0.02592592 0.13146232 0.1624738 -0.06605589 -0.11712631 -0.060622036 -0.018740302 0.1416414
0.024230203 -0.054778114 -0.078814775 0.08023226 -0.010808839 0.120667644 0.1027754 -0.11432173
0.06454105 0.09354519 -0.05786926 -0.022331133 0.074222445 -0.010276608 0.13569434 -0.07299511
0.09984029 -0.06275294 0.10585335 -0.03436666 0.050363522 -0.03633562 -0.023104558 -0.07255335
-0.013258234 0.09314578 0.09279033 -0.020307621 0.13524191 -0.05380722 -0.015102552 -0.105842225
-0.116395995 0.06314046 0.11811816 -0.06259601 0.10261499 0.09273863 0.07435859 0.06751043
0.08786557 0.1346404 -0.09319725 -0.12715366 -0.05117639 -0.0563805 -0.038868006 0.12862095
-0.11215563 -0.080966175 0.05027364 0.08392622 0.0789186 0.10702867 0.027917136 -0.08876251
0.09129994 -0.04321543 0.047724623 0.05119697 0.117676556 0.048144862 0.08160801 0.0033898924
-0.089386895 -0.11561357 -0.008123658 -0.044677045 0.035591077 -0.10394251 -0.060984634 -0.030344103
-0.058080394 -0.03209992 -0.014954756 0.022241365 -0.12168774 0.0512622 0.10768293 0.11448862
0.06426194 -0.002732839 0.06421275 -0.11935078 -0.030307686 0.06902217 0.06148278 -0.05224558
0.14802684 -0.004095071 -0.046352573 -0.018789839 0.07486883 -0.14682335 0.12215199 -0.04407345
-0.0019678157 0.012208232 0.10331777 0.07847919 -0.01988747 -0.1210624 -0.08851499 -0.027062457
0.04672923 -0.055365257 0.040724877 -0.08364217 -0.11654841 -0.006167908 -0.08671108 -0.022096474
0.11277534 -0.06121434 0.061813176 0.0222784 0.052167077 0.042457044 0.12046601 0.03265663
0.0021816818 -0.041046955 -0.11192348 -0.082142316 -0.06864775 0.027062533 -0.10338105 -0.122951694
-0.060517807 0.0818525 0.00478721 -0.009651707 -0.10290479 -0.09790219 -0.0887357 0.104059674
0.047381975 -0.028978543 -0.07399721 0.117957 0.079179116 -0.008986082 0.13472313 0.034123626
-0.07838977 -0.07006073 -0.045087423 0.02901963 -0.0427615 -0.07064203 0.013141071 0.1491029
0.0047979853 0.070258826 0.119172156 -0.07329841 -0.08406147 0.13724883 0.113273844 -0.07800697
0.028837001 -0.01903547 0.13148631 -0.11854883 0.03457194 -0.10608175 0.098674625 -0.01890136
0.13177036 -0.022599192 -0.019312274 0.10478674 -0.023719933 -0.100126825 -0.05036661 -0.05964025
-0.09253527 -0.034526914 0.06084862 0.08999409 -0.0845081 0.0068476875 0.069525704 0.13548437
-0.046117596 0.058291007 -0.009389613 -0.07578967 -0.012008943 0.17118041 0.029278086 0.06281815
00000000: dc80 083e d9cd c6bd 0ae6 28bd cf50 8fbd
00000010: 3927 e23b 8c09 f2bc 1c74 e53b 0fc7 b73d
00000020: 42a8 043e 2e18 213e ae3d fb3c 24a3 063e
00000030: 290a fe3d 34a4 b73d 4914 9d3b d1c2 90bd
00000040: b69b 54bc 35aa 11bc e0bc 543c 29d7 c83d
00000050: 4fa3 8c3c 7055 0e3e 154d 9dbd 5be9 e13d
00000060: 99af d63d 4250 103e c5d5 98bb 1f31 43bc
00000070: 86ce 123e d70e b13c d236 18bd 8e2f 5abc
00000080: 52cb f53d a1e0 e93d 43af 32bb 0e04 6abc
00000090: f09b 39bd a058 b2bd f4ff 82ba 656d 67bd
000000a0: 9862 d43c 0f9e 063e 885f 263e 4f48 87bd
000000b0: ebdf efbd d04e 78bd 4385 99bc 710a 113e
000000c0: 6b7e c63c 045f 60bd a469 a1bd d050 a43d
000000d0: 8f17 31bc 9920 f73d e97b d23d 8321 eabd
000000e0: 192e 843d 9f94 bf3d 5108 6dbd c8ef b6bc
000000f0: f001 983d 385f 28bc 75f3 0a3e 767e 95bd
00000100: 1179 cc3d 9d84 80bd a4c9 d83d 0ec4 0cbd
00000110: fb49 4e3d a9d4 14bd c545 bdbc da96 94bd
00000120: 1039 59bc 37c3 be3d db08 be3d 2b5c a6bc
00000130: db7c 0a3e f664 5cbd b270 77bc cfc3 d8bd
00000140: 0661 eebd c94f 813d efe7 f13d 5632 80bd
00000150: cf27 d23d c0ed bd3d 5149 983d e942 8a3d
00000160: ddf2 b33d 2cdf 093e 33de bebd 9234 02be
00000170: 569e 51bd 3def 66bd 0f34 1fbd 36b5 033e
00000180: dab1 e5bd 98d1 a5bd bbeb 4d3d 83e1 ab3d
00000190: 13a0 a13d d931 db3d 7ab2 e43c 1ec9 b5bd
000001a0: 77fb ba3d aa02 31bd e57a 433d eab3 513d
000001b0: 6800 f13d 8c33 453d 1a22 a73d f528 5e3b
000001c0: 7a10 b7bd cfc6 ecbd 1719 05bc 47ff 36bd
000001d0: f3c7 113d d0df d4bd 06cb 79bd 3294 f8bc
000001e0: b5e5 6dbd 357b 03bd cb04 75bc 8633 b63c
000001f0: 6c37 f9bd 50f8 513d de88 dc3d 0279 ea3d
00000200: c49b 833d 6e19 33bb f981 833d 2f6e f4bd
00000210: d347 f8bc 7f5b 8d3d 5ed5 7b3d 76ff 55bd
00000220: 5994 173e f22f 86bb 32dc 3dbd 26ed 99bc
00000230: d454 993d dc58 16be d32a fa3d 5d86 34bd
00000240: 78f6 00bb 0905 483c 4498 d33d b3b9 a03d
00000250: 0ceb a2bc 90ef f7bd 5947 b5bd 16b2 ddbc
00000260: 2667 3f3d aec6 62bd 21cf 263d 964c abbd
00000270: efb0 eebd 2a1c cabb 9495 b1bd aa03 b5bc
00000280: c2f6 e63d e3bb 7abd d02f 7d3d 3181 b63c
00000290: 25ad 553d 70e7 2d3d e2b6 f63d f5c2 053d
000002a0: 8cfa 0e3b da20 28bd 2338 e5bd 3b3a a8bd
000002b0: 3197 8cbd 3fb2 dd3c 72b9 d3bd 19ce fbbd
000002c0: 85e1 77bd 49a2 a73d 07de 9c3b 3122 1ebc
000002d0: bfbf d2bd f280 c8bd 10bb b5bd 3d1d d53d
000002e0: 9a13 423d 6964 edbc d98b 97bd 7193 f13d
000002f0: a928 a23d 5c3a 13bc dcf4 093e 37c5 0b3d
00000300: d18a a0bd 007c 8fbd 97ad 38bd 93ba ed3c
00000310: af26 2fbd c5ac 90bd a64d 573c 6eae 183e
00000320: 6b38 9d3b dce3 8f3d 8810 f43d 7a1d 96bd
00000330: 6c28 acbd f58a 0c3e 1efc e73d 1ec2 9fbd
00000340: 933b ec3c 46f0 9bbc 59a4 063e bbc9 f2bd
00000350: 4e9b 0d3d 6341 d9bd ec15 ca3d 06d7 9abc
00000360: cfee 063e f121 b9bc c634 9ebc 6e9a d63d
00000370: 4e50 c2bc 4b0f cdbd 384d 4ebd 5649 74bd
00000380: 2283 bdbd 186c 0dbd 673c 793d d24e b83d
00000390: 9512 adbd 9162 e03b 7e63 8e3d 6abc 0a3e
000003a0: cee5 3cbd 8dc2 6e3d e4d6 19bc 9d37 9bbd
000003b0: 28c1 44bc eb49 2f3e 99d8 ef3c cda6 803d

model.rnn.weight_ih_l1 f4 [240, 60]
0.038475 0.05587906 0.06555691 -0.0114781745 -0.04872798 0.053237986 0.020510292 -0.051274717
-0.0541818 0.12381333 0.011742353 -0.0371778 -0.12337336 -0.10941992 0.15465644 0.0335245
-0.0669846 -0.13748248 0.016428087 0.09037657 0.09889163 -0.08656603 0.028025685 0.14555837
-0.13703825 -0.040170603 -0.0752978 -0.036554396 0.10272572 0.0102912765 0.04940881 -0.08287135
-0.009534478 -0.07909659 -0.10252929 0.02085655 0.103294775 -0.033031415 0.040738724 -0.034411848
0.12339983 -0.08034063 -0.034973223 -0.123407975 -0.08286109 0.013224604 0.05437632 -0.1654102
0.10508509 0.019603672 -0.04170908 -0.008517276 -0.08564778 -0.038078465 -0.024251727 0.06816315
-0.15600827 0.16233857 0.07768073 0.063102216 -0.04493267 -0.10051613 0.018267967 -0.025655076
-0.114168026 0.13297176 -0.030956406 0.093789995 -0.08323557 -0.06259747 0.06232925 -0.07880176
-0.14242858 0.051729314 -0.025168862 -0.047902986 -0.08917621 -0.042581595 0.03742138 0.13884053
0.12000026 -0.11968133 -0.016951567 0.082457 0.088347755 -0.039038654 0.09557221 -0.13761492
0.0543421 0.06558203 0.03084903 0.010079812 -0.0417516 0.042943306 0.03136776 0.06254833
0.0795719 -0.09965103 -0.10926377 0.06880927 0.03164586 0.09501684 -0.10273492 0.12265061
0.10144209 -0.13071807 -0.030481668 0.01316409 -0.11263083 -0.00042523735 0.09952863 -0.12729624
0.0040607397 -0.12695646 0.014791526 0.1249477 0.03584007 -0.009778141 0.0015909034 0.054460466
0.07704879 0.105713524 -0.09434552 0.032054607 0.07430628 -0.09148186 0.01918881 0.054110784
0.061168846 0.015663488 -0.04449281 0.09604542 -0.045253206 0.120755635 -0.026856828 -0.043930165
-0.052833185 -0.0722208 -0.049908493 0.020451114 -0.04080685 -0.036296662 -0.00853321 -0.13513377
-0.08437094 -0.083007924 -0.14346458 -0.066817805 -0.099429294 -0.061403662 0.115443744 0.09636477
0.12585275 0.071721725 0.052360836 -0.0073255114 -0.10780956 -0.11198048 0.006104143 0.017378815
0.10172907 0.091949604 -0.03863395 -0.07725207 -0.07403326 -0.097390726 -0.03901515 0.11698125
-0.023201665 -0.018759541 0.100084744 -0.06969609 0.071488254 0.040574066 0.036137376 -0.02784286
-0.07691539 -0.092803545 -0.042606167 0.072765484 -0.05667304 0.050921008 -0.0006484159 -0.027760694
0.061612383 -0.10788289 0.100063704 -0.12008294 -0.08080992 0.09398215 -0.101925164 -0.090752274
-0.099311836 0.10590024 -0.12785584 0.07791918 -0.1021241 -0.008215553 0.04634903 -0.053062167
0.060189728 0.008834394 0.009457089 -0.06272897 0.12048644 -0.039395116 0.13027023 0.121455856
0.095676914 0.07893642 0.11556555 -0.058676936 -0.15133214 -0.007971284 0.029428843 0.065968744
-0.021173805 -0.020168403 -0.11042132 -0.13012119 0.11755659 -0.029345408 0.07271869 -0.0928982
0.111059956 -0.047934934 -0.011924687 0.10934997 0.016447874 -0.1031911 0.052206647 0.045708504
0.08439558 -0.06294697 -0.015116601 0.106323525 -0.10487257 0.022512415 0.11907015 0.03670183
-0.017362176 0.037674353 -0.03494252 0.037588812 -0.15830636 0.17071491 -0.10972175 0.022699729
0.14699592 0.008942386 0.024349242 0.0874829 -0.070191175 -0.10973423 -0.019250182 0.08132992
00000000: f697 1d3d 71e1 643d b442 863d f40e 3cbc
00000010: fe96 47bd 1310 5a3d 3305 a83c 7005 52bd
00000020: bced 5dbd d891 fd3d 0063 403c c047 18bd
00000030: 2cab fcbd 8d17 e0bd 425e 1e3e fc50 093d
00000040: 392f 89bd 35c8 0cbe 3294 863c 5a17 b93d
00000050: b287 ca3d 8849 b1bd 1f96 e53c 410d 153e
00000060: c153 0cbe ee89 24bd bc35 9abd 10ba 15bd
00000070: dd61 d23d be9c 283c e460 4a3d 74b8 a9bd
00000080: 8036 1cbc 65fd a1bd e0fa d1bd 5bdb aa3c
00000090: 368c d33d f34b 07bd a6dd 263d 70f3 0cbd
000000a0: 0db9 fc3d a189 a4bd 1540 0fbd 52bd fcbd
000000b0: 13b3 a9bd 02ac 583c b4b9 5e3d 4b61 29be
000000c0: da36 d73d e197 a03c 24d7 2abd 0b8c 0bbc
000000d0: 1a68 afbd 2af8 1bbd 8fab c6bc 1f99 8b3d
000000e0: a2c0 1fbe 153c 263e 1317 9f3d bc3b 813d
000000f0: 520b 38bd 67db cdbd b4a6 953c 982a d2bc
00000100: edd0 e9bd c029 083e 4a98 fdbc f814 c03d
00000110: 6977 aabd 1a33 80bd f54c 7f3d d162 a1bd
00000120: ccd8 11be 1ee2 533d ee2e cebc ec35 44bd
00000130: 04a2 b6bd 0a6a 2ebd 2947 193d 362c 0e3e
00000140: b2c2 f53d 7c1b f5bd 03de 8abc 37df a83d
00000150: abef b43d ffe6 1fbd 5dbb c33d edea 0cbe
00000160: d295 5e3d df4f 863d 1bb7 fc3c cc25 253c
00000170: ba03 2bbd 52e5 2f3d 7b7b 003d 5719 803d
00000180: 98f6 a23d d715 ccbd afc5 dfbd e0eb 8c3d
00000190: 179f 013d 3098 c23d b066 d2bd 3e30 fb3d
000001a0: dfc0 cf3d f5da 05be b1b4 f9bc 32ae 573c
000001b0: feaa e6bd 64f2 deb9 abd5 cb3d f259 02be
000001c0: f40f 853b e000 02be 2858 723c 94e4 ff3d
000001d0: 0acd 123d 7f34 20bc dc85 d03a f011 5f3d
000001e0: c2cb 9d3d 5580 d83d 3938 c1bd b14b 033d
000001f0: e42d 983d d75a bbbd da31 9d3c 45a3 5d3d
00000200: 2f8c 7a3d b750 803c 183e 36bd 76b3 c43d
00000210: 6d5b 39bd bb4e f73d da02 dcbc 1ef0 33bd
00000220: 9c67 58bd 80e8 93bd d96c 4cbd 1889 a73c
00000230: 1525 27bd cfab 14bd e0ce 0bbc 8260 0abe
00000240: acca acbd 0f00 aabd 61e8 12be c6d7 88bd
00000250: 96a1 cbbd 6882 7bbd c56d ec3d e45a c53d
00000260: 8bdf 003e d7e2 923d 5178 563d d80a f0bb
00000270: 42cb dcbd 0656 e5bd 4305 c83b 045e 8e3c
00000280: 5557 d03d 1350 bc3d a23e 1ebd 5536 9ebd
00000290: c09e 97bd ca74 c7bd 5ace 1fbd de93 ef3d
000002a0: 6b11 bebc 9cad 99bc 3bf9 cc3d d3bc 8ebd
000002b0: 6f68 923d fe30 263d c904 143d b616 e4bc
000002c0: d185 9dbd c90f bebd ce83 2ebd 1206 953d
000002d0: fd21 68bd 8c92 503d 74fa 29ba 656a e3bc
000002e0: 445d 7c3d b4f1 dcbd 33ee cc3d 0bee f5bd
000002f0: ac7f a5bd b779 c03d 24be d0bd 54dc b9bd
00000300: 0164 cbbd 3ae2 d83d a4ec 02be 1794 9f3d
00000310: 7126 d1bd 879a 06bc 7bd8 3d3d b757 59bd
00000320: 8189 763d 22be 103c e8f1 1a3c 0c78 80bd
00000330: 98c1 f63d c65c 21bd 8f65 053e d9bd f83d
00000340: 42f2 c33d 6ba9 a13d a2ad ec3d 3a57 70bd
00000350: d0f6 1abe fd99 02bc c214 f13c 9f1a 873d
00000360: b074 adbc 3538 a5bc 9324 e2bd 7d3e 05be
00000370: 82c1 f03d c865 f0bc 89ed 943d 6941 bebd
00000380: 6773 e33d 6c57 44bd c35f 43bc e1f2 df3d
00000390: b1bd 863c db55 d3bd a3d6 553d d738 3b3d
000003a0: 97d7 ac3d 57ea 80bd 9fab 77bc 26c0 d93d
000003b0: 6ec7 d6bd f56b b83c 0ddb f33d a854 163d
000003c0: 1f3b 8ebc 6c50 1a3d e31f 0fbd baf6 193d
000003d0: 101b 22be e4cf 2e3e ccb5 e0bd c8f4 b93c
000003e0: 1986 163e 1683 123c 1078 c73c 3c2a b33d
000003f0: 64c0 8fbd 57bc e0bd 8fb2 9dbc 4d90 a63d

model.rnn.weight_hh_l1 f4 [240, 60]
-0.032234717 0.0065426067 0.086556844 -0.02026105 0.07786508 0.020052694 -0.1212078 -0.08018265
-0.13471651 0.0018113606 -0.025882162 -0.048912138 0.054305118 -0.06326839 0.07807301 -0.13918494
0.10584526 -0.009877521 0.13935708 -0.07158893 -0.053647034 -0.030060552 -0.01445189 0.03552336
-0.056347407 -0.0854102 -0.13710134 -0.10572396 0.02069668 -0.034967877 0.12903321 0.058729332
0.03887346 -0.069855504 0.129392 8.4538246e-05 -0.07910644 0.007058842 -0.06056163 -0.15122698
0.0801599 -0.013528087 -0.025122868 -0.08115635 -0.14096113 0.027884161 -0.14700344 -0.0046292315
0.0036009443 0.03988397 -0.10084438 -0.108077414 -0.130028 -0.096190475 0.022623233 0.116343774
-0.0852576 0.002308084 0.091129035 -0.06720228 -0.08185496 -0.051743113 -0.12045461 -0.13441052
0.08430306 -0.004744854 0.09703391 0.043326687 -0.053415965 0.02267832 -0.05593085 0.09500836
0.029276988 -0.0154278455 0.08679008 -0.09078842 -0.047016375 -0.042215183 0.13120124 0.044148836
-0.10810121 0.11372719 -0.044989016 -0.06779122 -0.05770336 -0.07834601 -0.021753969 0.022523511
-0.07687282 -0.13445184 0.018426942 0.1025277 -0.07250004 -0.101932764 -0.0003283782 0.026800208
-0.10416606 0.10230597 0.030792942 -0.04883337 0.052319564 -0.034429185 0.11917842 0.009889245
-0.0055875643 -0.08827127 0.11554005 -0.015544973 0.0034166444 0.079215705 -0.029328076 0.0049295933
0.11242637 -0.043251622 -0.033303235 -0.086041 -0.0016387873 0.07144266 -0.024143022 -0.08410683
0.02127063 -0.025451971 -0.00808977 -0.060618788 -0.0021538474 -0.103714764 0.007034588 -0.038506035
-0.010132261 0.048511017 -0.034887537 0.101036966 -0.039277576 0.10773848 0.1079707 0.04971844
-0.05938789 0.026242146 0.011740763 0.01170302 -0.1328266 0.055202197 -0.07421784 0.10332545
-0.07546108 -0.081510715 -0.006597064 -0.12058784 -0.026456496 -0.007113246 -0.025338124 -0.094291225
0.06737943 0.107716046 0.027764017 -0.08194833 0.10391364 0.09850934 -0.025391493 0.095808335
0.07623951 0.004784675 -0.10425805 -0.10161596 -0.050839502 -0.084050484 -0.103173055 -0.04379681
-0.095724836 -0.022696652 -0.08559029 -0.069857016 0.034537222 -0.040125746 0.0405562 -0.14409608
-0.07238717 0.096964724 0.11935152 0.039362192 0.08361814 0.06384377 -0.044163026 0.0072090966
-0.06242228 -0.09901653 0.10245011 -0.030049356 -0.06307466 0.09278327 -0.08785677 0.0027570287
0.07987235 0.029253425 -0.081775166 0.02078221 -0.103816435 0.0995846 -0.11852262 0.10198868
0.083961286 -0.13257429 -0.10902253 -0.054662116 0.094405554 0.03354549 -0.016525518 -0.077664755
-0.10086928 0.010857342 -0.06251172 0.056182258 0.073683724 -0.11764837 -0.02467497 0.041528862
0.05511058 -0.072860904 -0.097316444 -0.030465115 0.04286154 -0.07952366 0.08148163 -0.08664932
-0.12478236 -0.010691638 -0.069022976 0.093335666 -0.019084832 0.046403 -0.02892872 -0.0075349985
0.008303469 6.819697e-05 0.09858964 0.106621325 0.08456922 0.13336036 0.0078024315 -0.11053447
-0.08091188 0.056545716 0.027100615 -0.02284911 -0.024802975 -0.002381919 -0.058132783 -0.045989614
-0.048907656 -0.093353994 -0.032469496 -0.057783555 0.14840697 0.07260673 -0.083245434 0.02278098
00000000: 8d08 04bd 5d63 d63b b744 b13d 80fa a5bc
00000010: ba77 9f3d 8c45 a43c cc3b f8bd cd36 a4bd
00000020: 20f3 09be 2d6b ed3a d406 d4bc 1858 48bd
00000030: 0b6f 5e3d dc92 81bd bee4 9f3d 7f86 0ebe
00000040: 66c5 d83d 53d5 21bc 9fb3 0e3e 389d 92bd
00000050: febc 5bbd 8c41 f6bc 9fc7 6cbc f180 113d
00000060: 8acc 66bd 8beb aebd 4b64 0cbe ce85 d8bd
00000070: 158c a93c 7a3a 0fbd 4821 043e 2b8e 703d
00000080: c739 1f3d 6710 8fbd 567f 043e 204a b138
00000090: 8f02 a2bd dc4d e73b 790f 78bd 3fdb 1abe
000000a0: e02a a43d e9a4 5dbc 79ce cdbc 4d35 a6bd
000000b0: 1d58 10be 536d e43c 1288 16be cfb0 97bb
000000c0: d2fd 6b3b 605d 233d 8087 cebd b157 ddbd
000000d0: 0f26 05be 83ff c4bd 5c54 b93c a545 ee3d
000000e0: 899b aebd 3943 173b dca1 ba3d 59a1 89bd
000000f0: 93a3 a7bd 96f0 53bd e8b0 f6bd e9a2 09be
00000100: 15a7 ac3d b87a 9bbb b7b9 c63d 5377 313d
00000110: b3ca 5abd e2c7 b93c bf17 65bd be93 c23d
00000120: 4bd6 ef3c 13c5 7cbc ffbe b13d 47ef b9bd
00000130: 3e94 40bd d4e9 2cbd 9e59 063e 69d5 343d
00000140: 2b64 ddbd cde9 e83d 6746 38bd 20d6 8abd
00000150: 5c5a 6cbd df73 a0bd 6135 b2bc 3a83 b83c
00000160: 7f6f 9dbd bead 09be 19f4 963c 0bfa d13d
00000170: e77a 94bd 20c2 d0bd 2d2a acb9 1c8c db3c
00000180: 0455 d5bd cb85 d13d 7b41 fc3c 8005 48bd
00000190: 0a4d 563d 9e05 0dbd d113 f43d 8006 223c
000001a0: e317 b7bb 91c7 b4bd 43a0 ec3d 58b0 7ebc
000001b0: c8e9 5f3b d83b a23d 6f41 f0bc 6d88 a13b
000001c0: cc3f e63d 9d28 31bd f968 08bd 4436 b0bd
000001d0: 94cc d6ba 8850 923d 96c7 c5bc 3440 acbd
000001e0: bf3f ae3c a780 d0bc f48a 04bc 684b 78bd
000001f0: 9027 0dbb 6868 d4bd 6782 e63b 81b8 1dbd
00000200: c801 26bc 7db3 463d 3ce6 0ebd 78ec ce3d
00000210: 86e1 20bd fea5 dc3d be1f dd3d 90a5 4b3d
00000220: b740 73bd c5f9 d63c 545c 403c 06be 3f3c
00000230: b203 08be b31b 623d 86ff 97bd 4b9c d33d
00000240: 578b 9abd 17ef a6bd 2f2c d8bb c2f6 f6bd
00000250: 4bbb d8bc 3b16 e9bb e691 cfbc c21b c1bd
00000260: 3afe 893d 3b9a dc3d 5d71 e33c 87d4 a7bd
00000270: add0 d43d 44bf c93d d201 d0bc 2937 c43d
00000280: 7623 9c3d c3c8 9c3b 3f85 d5bd 071c d0bd
00000290: 153d 50bd a922 acbd 654c d3bd 4964 33bd
000002a0: 620b c4bd 54ee b9bc f649 afbd 3211 8fbd
000002b0: e776 0d3d e55a 24bd 421e 263d ec8d 13be
000002c0: b93f 94bd 7195 c63d 926e f43d 403a 213d
000002d0: fd3f ab3d 86c0 823d 4ae4 34bd 493a ec3b
000002e0: 81ae 7fbd 2ec9 cabd 5dd1 d13d 112a f6bc
000002f0: 4a2d 81bd 2805 be3d 40ee b3bd 44af 343b
00000300: 1d94 a33d e1a4 ef3c bd79 a7bd 743f aa3c
00000310: b69d d4bd 03f3 cb3d fdbb f2bd 71df d03d
00000320: e5f3 ab3d 8ec1 07be 3447 dfbd 62e5 5fbd
00000330: b357 c13d ff66 093d 8660 87bc b30e 9fbd
00000340: 8e94 cebd fee2 313c 2506 80bd 5e1f 663d
00000350: 7ee7 963d a1f1 f0bd 2a23 cabc 2b1a 2a3d
00000360: a2bb 613d 1938 95bd d84d c7bd fa91 f9bc
00000370: 958f 2f3d 4ddd a2bd d7df a63d 3375 b1bd
00000380: e58d ffbd fb2b 2fbc eb5b 8dbd c526 bf3d
00000390: cb57 9cbc 1211 3e3d ecfb ecbc 26e8 f6bb
000003a0: 460b 083c f804 8f38 5de9 c93d 485c da3d
000003b0: a132 ad3d 9e8f 083e 8aab ff3b e55f e2bd
000003c0: 21b5 a5bd 7b9c 673d 1c02 de3c 0f2e bbbc
000003d0: 9c2f cbbc f819 1cbb a41c 6ebd 9b5f 3cbd
000003e0: 6553 48bd 6130 bfbd bcfe 04bd 73ae 6cbd
000003f0: fff7 173e d6b2 943d 957c aabd 2e9f ba3c

model.rnn.bias_ih_l1 f4 [240]
-0.00746198 0.047179427 0.0033901376 -0.022400187 -0.07722189 -0.010923158 0.027076809 0.003130842
0.015456673 -0.048941474 0.12686428 -0.029050473 -0.012450333 0.111803316 -0.10296498 -0.04221563
0.13706453 0.03393887 0.12636733 0.059941508 -0.056872003 -0.01866476 -0.06525769 0.124786496
0.01263482 -0.12114637 0.06562502 0.1457184 -0.1065582 0.11848587 -0.03829599 0.012082971
0.0012319069 0.030044174 -0.08394299 0.0881065 0.023822688 0.10558388 -0.10694448 -0.101766385
0.076878436 0.070702225 -0.06679992 -0.06533712 0.042301964 0.0991283 -0.060297128 -0.002418305
-0.019097399 -0.030952286 -0.023468234 0.11169596 0.019706564 -0.03130107 -0.110774696 -0.026365034
0.08068958 -0.034686513 0.03255832 -0.1089715 0.036456194 -0.051566597 -0.047745753 0.011534845
-0.0026636652 0.00083315355 0.034983274 0.014050053 -0.0003346705 0.08442384 -0.10650693 -0.08960836
0.07125122 0.07390487 -0.12267314 -0.07409462 0.016567245 -0.035246614 -0.083345585 0.13422985
0.01511423 -0.10450534 0.03893449 -0.11414302 0.08071185 0.07227543 0.08269363 0.0016260333
-0.037016116 -0.009408516 0.07071761 0.1445897 -0.0113621075 -0.08619696 0.023489552 0.12790518
0.0833101 -0.108541854 -0.06100647 -0.04468078 0.10250924 0.0994691 0.014440958 -0.066210866
0.107766874 -0.09574991 0.06650619 -0.074642606 -0.12647869 -0.053783122 -0.06397849 0.108287044
0.0021676654 -0.05788776 -0.080387786 0.01783102 -0.05728878 0.005088368 0.005291248 0.04572726
0.104027696 0.048776392 0.047043968 -0.05905772 0.1421933 0.018961761 0.0859548 0.013143689
0.06828653 -0.021629548 -0.13659094 0.062415455 0.10051811 0.09199288 0.029828709 0.076509975
-0.028119575 0.04815837 0.1107653 0.06486448 -0.043637402 -0.057494603 -0.017946476 0.13343446
-0.0059238914 0.074259005 -0.023439791 -0.058744866 -0.08919086 0.09521687 -0.0070463214 -0.027358241
-0.01552812 -0.028945196 0.12357374 -0.049774744 0.019277776 0.13771403 -0.0390543 -0.10940347
0.1144645 0.045412075 0.019420909 -0.109041266 -0.11863013 0.060078878 -0.08089803 -0.020554928
0.09699019 -0.0059160716 -0.117243014 -0.0726101 0.095975846 -0.014017428 -0.09118147 -0.024957584
-0.09766979 -0.13874853 0.053534612 0.027353374 0.13944654 -0.11580091 -0.11974278 0.10100848
0.101619616 0.02680626 -0.08568092 -0.052661013 -0.023016801 -0.06755845 0.0952541 -0.040553275
0.103687935 -0.12467357 0.088918716 -0.06332138 -0.022346625 -0.026388302 -0.018971331 0.006970533
-0.017374858 -0.048375327 -0.04493541 0.09805548 0.01694722 -0.052878518 0.07000669 -0.027341792
0.057828084 -0.06258382 -0.076737285 0.12578331 0.12788957 -0.10238929 0.09038173 0.08222406
0.048696745 -0.004417322 0.06649869 -0.10142375 -0.042033527 -0.019428354 0.13115731 0.093363374
-0.11326458 0.07184416 -0.03400555 0.12281074 -0.041699093 0.038031798 0.014435187 -0.023920707
-0.03536446 0.045014653 0.05988274 0.06502789 -0.026297553 0.048706014 0.071671486 -0.13361706
00000000: a083 f4bb 373f 413d 122d 5e3b 9980 b7bc
00000010: 8326 9ebd 0cf7 32bc 2fd0 dd3c d02e 4d3b
00000020: fc3d 7d3c db76 48bd b6e8 013e 42fb edbc
00000030: 7bfc 4bbc 23f9 e43d 4edf d2bd 4cea 2cbd
00000040: a55a 0c3e 7c03 0b3d 7066 013e 3a85 753d
00000050: 9ef2 68bd d7e6 98bc d3a5 85bd 1090 ff3d
00000060: 4702 4f3c 971b f8bd 6966 863d 3437 153e
00000070: 303b dabd b8a8 f23d 42dc 1cbd a7f7 453c
00000080: f077 a13a 331f f63c 4dea abbd 2e71 b43d
00000090: cc27 c33c 5c3c d83d b505 dbbd e56a d0bd
000000a0: 7172 9d3d 54cc 903d 65ce 88bd 78cf 85bd
000000b0: d344 2d3d c703 cb3d 1ffa 76bd 6d7c 1ebb
000000c0: 2672 9cbc a68f fdbc 7440 c0bc dac0 e43d
000000d0: a96f a13c 8d35 00bd d8dd e2bd 7cfb d7bc
000000e0: 9440 a53d 7213 0ebd df5b 053d 732c dfbd
000000f0: 1753 153d 7f37 53bd 0d91 43bd a6fc 3c3c
00000100: e390 2ebb fd67 5a3a 9f4a 0f3d 3232 663c
00000110: b776 afb9 68e6 ac3d 4e20 dabd 9684 b7bd
00000120: 29ec 913d 705b 973d 0e3c fbbd ecbe 97bd
00000130: 08b8 873c c15e 10bd 17b1 aabd 8d73 093e
00000140: ada1 773c e506 d6bd c679 1f3d d1c3 e9bd
00000150: 414c a53d 2405 943d 475b a93d a020 d53a
00000160: 369e 17bd 2d26 1abc 65d4 903d 530f 143e
00000170: 2228 3abc 0888 b0bd 296d c03c 93f9 023e
00000180: 7c9e aa3d 314b debd ece1 79bd 3203 37bd
00000190: 5df0 d13d 75b6 cb3d c599 6c3c 9099 87bd
000001a0: e1b4 dc3d 8718 c4bd 6634 883d 39de 98bd
000001b0: a183 01be b14b 5cbd 2807 83bd 99c5 dd3d
000001c0: 640f 0e3b b71b 6dbd 5aa2 a4bd 5c12 923c
000001d0: a4a7 6abd 53bc a63b 3562 ad3b 824c 3b3d
000001e0: 790c d53d c1c9 473d 2db1 403d 82e6 71bd
000001f0: 1f9b 113e b255 9b3c 1209 b03d a158 573c
00000200: cfd9 8b3d 7330 b1bc 7fde 0bbe 59a7 7f3d
00000210: 70dc cd3d c366 bc3d 565b f43c 43b1 9c3d
00000220: 065b e6bc b641 453d ebd8 e23d abd7 843d
00000230: 22bd 32bd 767f 6bbd 7d04 93bc 0ba3 083e
00000240: 341d c2bb 1b15 983d ce04 c0bc 759e 70bd
00000250: b3a9 b6bd 1001 c33d d4e4 e6bb 641e e0bc
00000260: a869 7ebc 7a1e edbc 3b14 fd3d 9ae0 4bbd
00000270: 6dec 9d3c e804 0d3e 67f7 1fbd ed0e e0bd
00000280: 5d6c ea3d 0302 3a3d 9918 9f3c 0751 dfbd
00000290: 5bf4 f2bd 4515 763d dead a5bd cf62 a8bc
000002a0: cba2 c63d 9bdb c1bb 1b1d f0bd 9bb4 94bd
000002b0: fc8e c43d 5ba9 65bc 5abd babd d973 ccbc
000002c0: 1907 c8bd 1814 0ebe 1c47 5b3d 2f14 e03c
000002d0: 13cb 0e3e 0729 edbd b43b f5bd 89dd ce3d
000002e0: f21d d03d cd98 db3c 7a79 afbd 13b3 57bd
000002f0: bb8d bcbc 165c 8abd 9514 c33d 311b 26bd
00000300: 575a d43d db54 ffbd 041b b63d a4ae 81bd
00000310: 4510 b7bc 482c d8bc c469 9bbc 1269 e43b
00000320: b855 8ebc 3525 46bd 310e 38bd 50d1 c83d
00000330: e5d4 8a3c 2597 58bd ab5f 8f3d e5fb dfbc
00000340: 24dd 6c3d f22b 80bd 7028 9dbd 57cd 003e
00000350: 7cf5 023e 7ab1 d1bd 0e1a b93d 1765 a83d
00000360: 3d76 473d 2fbf 90bb 7730 883d 41b7 cfbd
00000370: 592b 2cbd 3628 9fbc 1a4e 063e 4c35 bf3d
00000380: 43f7 e7bd 0823 933d 6749 0bbd 3284 fb3d
00000390: abcc 2abd 3bc7 1b3d 9081 6c3c 5cf5 c3bc
000003a0: 53da 10bd 4961 383d 9b47 753d 582d 853d
000003b0: f76d d7bc f57f 473d 80c8 923d e9d2 08be
