checkpoints/epoch=2-step=150-v12.ckpt (torch, 621663 bytes, 33 tensors)

model.param_proj.proj.0.weight f4 [1, 60]
-0.16056843 0.18159117 -0.2462609 0.24752587 0.17162862 -0.16791627 0.1280565 0.18630639
-0.17140494 -0.30237284 -0.19029947 -0.04371377 0.07053965 -0.13868943 0.0071596135 -0.051372558
-0.039041933 -0.09446736 -0.098885074 -0.048943654 -0.13185513 0.057353567 -0.053945825 0.023495346
-0.032867618 0.10153693 -0.21884458 -0.23950106 -0.114688136 0.28034022 0.10988471 0.11289785
-0.16930741 0.13855459 0.2255843 -0.119522996 -0.021348923 0.10685681 0.055033043 0.11764826
0.22947131 0.23992552 -0.18777989 0.09342378 -0.23377885 0.07604963 -0.1240544 -0.10193754
0.04732502 -0.21387263 -0.28547573 0.24621174 0.015983919 0.22159508 -0.15569533 0.25157183
0.27811116 -0.054165028 -0.09669781 -0.08445729
00000000: 0d6c 24be 09f3 393e d12b 7cbe 6c77 7d3e
00000010: 6abf 2f3e 3ef2 2bbe 3e21 033e 1ac7 3e3e
00000020: c784 2fbe 9dd0 9abe dddd 42be 360d 33bd
00000030: 1877 903d 9a04 0ebe 319b ea3b 086c 52bd
00000040: 6fea 1fbd 1a78 c1bd 4284 cabd 2479 48bd
00000050: 0805 07be 93eb 6a3d 4cf6 5cbd 5079 c03c
00000060: 32a0 06bd 98f2 cf3d cb18 60be c43f 75be
00000070: 9de1 eabd c188 8f3e 3c0b e13d fd36 e73d
00000080: ec5e 2dbe 41e1 0d3e 92ff 663e 79c8 f4bd
00000090: f0e3 aebc bed7 da3d 546a 613d 92f1 f03d
000000a0: 87fa 6a3e 09af 753e 5f49 40be f754 bf3d
000000b0: b963 6fbe e9bf 9b3d 3c10 febd a1c4 d0bd
000000c0: e1d7 413d 6d01 5bbe e029 92be ee1e 7c3e
000000d0: b5f0 823c d2e9 623e 996e 1fbe 06ce 803e
000000e0: 9664 8e3e 26dc 5dbd 8009 c6bd f2f7 acbd

model.param_proj.proj.1.weight f4 [1, 60]
0.02767887 0.15959837 -0.19495164 -0.112924464 -0.107754804 -0.01894396 0.09559883 0.15192658
-0.05926467 -0.15842217 -0.14735329 0.08279404 0.11629104 -0.07390145 0.021272523 0.16039939
0.08415239 -0.12721932 0.17364506 -0.15326704 -0.05541234 -0.022233272 -0.09443652 -0.12831162
-0.19661309 0.19086461 0.16636957 0.15923749 -0.18060839 0.10029569 0.17365648 -0.14733815
0.05974091 -0.08502649 0.08485088 0.115130715 0.1774466 -0.059863064 0.20812805 -0.17474094
0.08092607 -0.012795469 0.1246147 0.15523891 0.14508718 -0.18749472 0.16900842 -0.063959114
-0.10603662 0.15576153 0.15511526 -0.08573187 -0.16455624 0.15801358 0.11914027 -0.14049266
-0.047656663 -0.13495576 -0.11897354 -0.105646044
00000000: ccbe e23c c16d 233e 67a1 47be f144 e7bd
00000010: 8dae dcbd 5d30 9bbc 52c9 c33d a492 1b3e
00000020: 83bf 72bd 6c39 22be c8e3 16be ec8f a93d
00000030: ff29 ee3d a559 97bd b743 ae3c bd3f 243e
00000040: 1758 ac3d c845 02be 03d0 313e 09f2 1cbe
00000050: 0df8 62bd 8d22 b6bc ef67 c1bd 1f64 03be
00000060: f154 49be 0372 433e c95c 2a3e 270f 233e
00000070: 68f1 38be d467 cd3d 01d3 313e d0df 16be
00000080: e2b2 743d 5e22 aebd 4cc6 ad3d a7c9 eb3d
00000090: 90b4 353e f932 75bd 851f 553e 4aef 32be
000000a0: 91bc a53d 16a4 51bc fe35 ff3d f3f6 1e3e
000000b0: bc91 143e 9efe 3fbe 8b10 2d3e fffc 82bd
000000c0: ba29 d9bd f37f 1f3e 89d6 1e3e 3194 afbd
000000d0: 6e81 28be 50ce 213e d0ff f33d 4fdd 0fbe
000000e0: a233 43bd d831 0abe 66a8 f3bd f45c d8bd

model.param_proj.proj.2.weight f4 [1, 60]
0.098096475 -0.06313734 -0.09774024 0.021996723 -0.04736455 0.09789881 0.05389109 -0.03451973
-0.0071435943 -0.018873015 0.03208231 -0.08672496 0.10130583 -0.053899176 -0.066727765 -0.12010853
0.15844549 -0.08091003 -0.12726021 -0.11685613 -0.098316 -0.03882273 -0.103906155 0.077582926
0.027230117 -0.10507016 -0.04220158 0.011255934 -0.14853792 0.025387699 0.12812082 -0.082912795
0.13430597 -0.089959286 0.11987849 0.14297907 0.10724354 -0.100373626 0.106067725 0.07214103
0.104395494 0.09553516 0.10934395 -0.122561194 -0.050994396 -0.05208997 0.10729506 0.057030905
0.115927234 -0.0262438 0.06055461 0.067284085 -0.13315079 0.1194882 -0.12559669 0.05943585
0.05598598 -0.12018849 0.08901421 0.10821215
00000000: cee6 c83d 264e 81bd 092c c8bd 7932 b43c
00000010: 5501 42bd 2c7f c83d e7bc 5c3d 8f64 0dbd
00000020: d014 eabb 959b 9abc be68 033d db9c b1bd
00000030: 6e79 cf3d 62c5 5cbd 91a8 88bd 76fb f5bd
00000040: 893f 223e 28b4 a5bd 8050 02be 4452 efbd
00000050: e659 c9bd 9504 1fbd c0cc d4bd cce3 9e3d
00000060: b211 df3c 062f d7bd 90db 2cbd cf6a 383c
00000070: 531a 18be ddf9 cf3c 1b32 033e 2fce a9bd
00000080: 8187 093e 933c b8bd db82 f53d 1b69 123e
00000090: 80a2 db3d b090 cdbd 093a d93d adbe 933d
000000a0: 4ecd d53d f0a7 c33d b9ef df3d 5d01 fbbd
000000b0: 80df 50bd 4b5c 55bd 83bd db3d 3d99 693d
000000c0: 426b ed3d 3dfd d6bc 1c08 783d 3dcc 893d
000000d0: ae58 08be 3bb6 f43d 6b9c 00be 0173 733d
000000e0: 8e51 653d 6225 f6bd 154d b63d 559e dd3d

model.rnn.weight_ih_l0 f4 [240, 24]
-0.021033643 -0.17135186 -0.044074044 0.11341003 -0.12890758 -0.03563278 0.16528 -0.15401754
0.046835996 0.044915136 0.09515419 0.017440133 -0.16761407 0.010830943 -0.037807565 0.11294994
0.0546637 0.032570787 -0.08003543 -0.02216632 -0.16698472 0.046015337 0.12869132 -0.04169091
-0.047433645 0.16379687 -0.024514303 0.2633011 0.0057285535 -0.007354093 0.14238258 -0.07526399
0.0010669703 -0.033038754 0.042041134 0.004589342 -0.07253894 -0.0099276425 -0.047544546 0.050528534
-0.03066052 0.04899647 0.0007208842 -0.023248544 -0.15640536 -0.10640806 -0.069789544 0.031584226
0.14927587 -0.09212213 0.020238698 0.03572273 0.04911127 -0.109466195 -0.08854752 -0.020163497
-0.011666725 -0.057684373 0.048803203 0.014944419 -0.08436914 0.086263664 0.16149513 0.035262473
-0.08627673 -0.015245587 -0.15444013 -0.06704298 0.060436685 -0.03565374 0.18108273 -0.028552681
-0.069247074 0.09752384 -0.16244945 0.08671693 0.12940419 -0.13111573 0.10067336 -0.102834076
-0.0066067385 -0.00961545 0.12227622 -0.14407443 -0.09713543 -0.002759679 0.15493907 -0.009800462
0.21176003 -0.023158584 0.027115818 -0.02266867 -0.06518033 -0.15512869 -0.04526628 4.5250374e-05
-0.022127284 -0.1291852 -0.08325683 0.06932327 -0.1316702 -0.07230632 -0.03313811 -0.095542096
-0.12725328 0.115270674 -0.070468806 0.008002901 -0.0066036764 -0.14675048 0.08723009 0.13985145
0.13412896 0.03775616 -0.10500269 -0.11263574 -0.111450985 0.09742722 0.031825498 -0.110603236
0.1955553 -0.24281673 0.09084914 -0.1327606 -0.07206981 -0.08015303 -0.19881791 0.014279319
-0.0028571265 0.09089528 0.18260024 -0.012124401 0.0804716 -0.13536718 0.012995966 0.14441437
0.009197169 -0.018623287 -0.11574659 -0.05081084 -0.10124632 -0.021910675 -0.013743193 0.1047976
0.018178688 -0.15886351 -0.053257838 0.08752013 0.20127168 -0.11116893 -0.14570838 -0.14694256
0.108306296 -0.06917904 0.064323895 0.025601251 0.0648205 -0.08642993 -0.06956705 0.08716175
-0.051270608 -0.0882314 0.007005054 -0.0936371 -0.0043979757 -0.056121625 0.04164988 0.032486126
0.21113372 -0.15247457 -0.08388476 0.034421466 -0.0041456567 0.116587944 0.12344605 -0.004823914
0.085330695 -0.06831034 -0.04004846 0.11984591 -0.119579025 -0.04324744 -0.031898744 -0.027623039
-0.1070542 -0.205327 0.04430404 0.04299755 0.11570452 -0.08138882 0.08545497 -0.097638704
-0.04214084 -0.237042 0.045750547 -0.052435137 -0.015938615 -0.1345486 -0.084730014 0.020819688
0.13777512 0.11146479 0.009029158 -0.19310747 0.012205507 -0.107665256 0.15553088 0.06398416
0.032988586 0.06819713 -0.12363211 0.10599589 0.040132105 -0.033898417 0.06931649 0.13909309
0.13457716 0.007804369 0.117121875 -0.004190542 -0.012172701 -0.10033202 0.10473403 -0.03068219
0.035637412 0.08752741 -0.109875925 -0.19897075 -0.00050013757 -0.07162764 -0.078289874 0.035428368
0.09354574 -0.12368304 0.027826345 -0.04801048 -0.12163233 0.17917214 0.034907278 -0.007902789
0.13397823 -0.07319627 -0.097871475 -0.028753132 -0.02775217 -0.09428663 -0.0015639429 0.09850879
0.046337355 -0.027086815 -0.12812498 0.101498276 0.15690798 -0.07113918 -0.15366885 -0.139544
00000000: bf4e acbc dd76 2fbe fc86 34bd 8543 e83d
00000010: 5900 04be aef3 11bd 293f 293e c6b6 1dbe
00000020: 1ad7 3f3d eff8 373d 33e0 c23d 9cde 8e3c
00000030: 06a3 2bbe 4474 313c 1bdc 1abd 4c52 e73d
00000040: 0be7 5f3d f268 053d 9ee9 a3bd 2496 b5bc
00000050: 0bfe 2abe 947a 3c3d a8c7 033e 16c4 2abd
00000060: c849 42bd 5eba 273e 38d2 c8bc 67cf 863e
00000070: 97b6 bb3b 9afa f0bb bdcc 113e 0224 9abd
00000080: 95d9 8b3a a553 07bd 5333 2c3d 3162 963b
00000090: 4c8f 94bd 8da7 22bc 12be 42bd 02f7 4e3d
000000a0: c52b fbbc 86b0 483d b8f9 3c3a bb73 bebc
000000b0: ba28 20be 78ec d9bd d2ed 8ebd 765e 013d
000000c0: c6db 183e 87aa bcbd a0cb a53c ff51 123d
000000d0: e628 493d d02f e0bd 6758 b5bd eb2d a5bc
000000e0: cb25 3fbc 7346 6cbd dee5 473d 70d9 743c
000000f0: bac9 acbd 01ab b03d fb5e 253e 626f 103d
00000100: dbb1 b0bd a0c8 79bc 8e25 1ebe d44d 89bd
00000110: 758c 773d a809 12bd c06d 393e 50e7 e9bc
00000120: 69d1 8dbd 94ba c73d 2659 26be a598 b13d
00000130: 8882 043e 3443 06be d62d ce3d ac9a d2bd
00000140: 577d d8bb 1f8a 1dbc f46b fa3d 3f88 13be
00000150: f1ee c6bd bbdb 34bb 59a8 1e3e 1e92 20bc
00000160: 9fd7 583e 12b7 bdbc fe21 de3c a6b3 b9bc
00000170: 447d 85bd 0eda 1ebe 2369 39bd 38cb 3d38
00000180: 4744 b5bc 2049 04be 8f82 aabd 5cf9 8d3d
00000190: 8ed4 06be 5615 94bd d4bb 07bd 93ab c3bd
000001a0: af4e 02be 0813 ec3d f351 90bd 9a1e 033c
000001b0: a763 d8bb c245 16be b0a5 b23d 3835 0f3e
000001c0: 1a59 093e 34a6 1a3d a60b d7bd 91ad e6bd
000001d0: 6a40 e4bd ec87 c73d 745b 023d f383 e2bd
000001e0: a63f 483e f3a4 78be 1d0f ba3d 65f2 07be
000001f0: 5699 93bd 4627 a4bd ec96 4bbe cef3 693c
00000200: a13e 3bbb 4e27 ba3d 8ffb 3a3e 6ca5 46bc
00000210: 4bce a43d b29d 0abe 08ed 543c 5ce1 133e
00000220: b9af 163c dd8f 98bc 8c0c edbd 071f 50bd
00000230: 3b5a cfbd 047e b3bc 212b 61bc 20a0 d63d
00000240: 79eb 943c 1ead 22be e424 5abd c13d b33d
00000250: 2a1a 4e3e 89ac e3bd 9434 15be 1c78 16be
00000260: b1cf dd3d bead 8dbd 3fbc 833d b7b9 d13c
00000270: 9cc0 843d 2d02 b1bd 2b79 8ebd dc81 b23d
00000280: 2101 52bd aab2 b4bd a78a e53b cfc4 bfbd
00000290: e51c 90bb cadf 65bd 1199 2a3d 2c10 053d
000002a0: 7033 583e 4b22 1cbe c6cb abbd 86fd 0c3d
000002b0: 4ad8 87bb a9c5 ee3d 48d1 fc3d ec11 9ebb
000002c0: dcc1 ae3d 4be6 8bbd db09 24bd c671 f53d
000002d0: d9e5 f4bd 3a24 31bd 42a8 02bd b649 e2bc
000002e0: 3b3f dbbd 3e41 52be 2778 353d 331e 303d
000002f0: 7ef6 ec3d 2faf a6bd 0403 af3d cdf6 c7bd
00000300: e09b 2cbd 23bb 72be ed64 3b3d 3ac6 56bd
00000310: b391 82bc 1cc7 09be ee86 adbd 0d8e aa3c
00000320: ec14 0d3e a747 e43d 09ef 133c f7bd 45be
00000330: 9bf9 473c 9a7f dcbd 7d43 1f3e 210a 833d
00000340: 0a1f 073d f0aa 8b3d d532 fdbd 6014 d93d
00000350: 9061 243d 11d9 0abd cef5 8d3d 6b6e 0e3e
00000360: 98ce 093e cbbb ff3b 98dd ef3d d050 89bb
00000370: 0270 47bc e07a cdbd cc7e d63d 3759 fbbc
00000380: 89f8 113d 9241 b33d a106 e1bd fdbe 4bbe
00000390: aa1b 03ba 83b1 92bd 7156 a0bd 561d 113d
000003a0: e994 bf3d 894d fdbd 13f4 e33c a3a6 44bd
000003b0: 5f1a f9bd e778 373e effa 0e3d b37a 01bc
000003c0: 9731 093e ede7 95bd d770 c8bd b08b ebbc
000003d0: 8558 e3bc 5919 c1bd 37fd ccba fabe c93d
000003e0: 3dcc 3d3d 2be5 ddbc 3233 03be 54de cf3d
000003f0: 7cac 203e 6bb1 91bd 5e5b 1dbe 9fe4 0ebe

model.rnn.weight_hh_l0 f4 [240, 60]
0.18798083 -0.15191427 0.022892617 -0.07246744 -0.110806465 0.024957392 0.008762717 0.0788568
-0.078061946 0.10971829 -0.20044646 -0.09583879 -0.047847316 0.003221553 -0.07970366 -0.17038144
0.15068358 -0.21210702 -0.09066993 0.06468514 -0.12772828 -0.05413385 -0.006567249 0.058747694
-0.055682693 -0.16287875 -0.046209086 -0.15642405 -0.003984817 -0.11976102 0.0759988 0.16826364
-0.038197447 0.051100895 -0.19661997 0.077308886 0.088491656 0.21625577 -0.17230088 0.07993022
0.11192442 0.035380345 -0.11614757 -0.007203214 0.07173921 0.11365253 -0.076032065 0.121879
-0.14886998 0.028340641 -0.04578087 0.018765328 -0.00962805 0.048045963 -0.19524965 -0.1983712
-0.008499355 -0.031091537 0.009503667 0.042801872 0.01987361 -0.028139887 -0.04679254 0.22292395
-0.008000009 -0.025164638 0.2112827 0.042095028 -0.21439368 0.05600077 -0.21421018 0.029735629
-0.02668753 -0.20478767 -0.17132047 -0.1066789 0.20147844 0.048903864 -0.18078075 0.11188937
-0.06056013 -0.052467998 -0.02148767 -0.0054178247 0.23330617 -0.111439265 0.034578882 -0.1729857
-0.1341025 -0.08170646 0.24906741 0.06755859 -0.20428853 -0.07105051 -0.13379411 -0.18895425
0.053186294 0.19788602 -0.122787885 -0.061861433 0.06593105 -0.07223659 0.09671834 -0.15950313
0.039124597 0.109834015 -0.09951889 0.21503332 -0.11332116 -0.10422511 0.014659272 0.20665587
-0.117511526 0.053002216 -0.021912225 -0.11301986 -0.14858608 0.04069436 -0.11921767 0.2352882
0.1023224 -0.1251405 -0.19984652 0.048141155 0.03057851 0.009651069 -0.020210743 0.08877491
-0.09629278 0.16319352 -0.105625145 0.09369121 -0.00896502 -0.13955033 -0.07600407 -0.02132223
0.048951086 -0.183068 0.006181836 0.08759798 -0.06395415 0.010775873 0.15812814 0.09613388
0.006206144 -0.09139838 -0.112320535 -0.055136945 0.04540086 0.068262115 0.11419245 0.17015165
-0.07126048 -0.17047739 0.0708435 -0.033207998 0.168266 0.04436962 0.053110838 -0.05805606
0.16286176 -0.06398037 0.0734278 -0.06924294 0.06354895 0.042905383 -0.08497193 0.046701852
0.016747266 -0.16588455 0.13674422 0.16873765 -0.022471447 0.13519932 -0.039786413 -0.10027392
0.14337276 0.017211506 -0.026014175 0.2200584 -0.13718298 -0.14378119 -0.013714496 0.07033534
-0.12859464 -0.013424056 -0.0593667 0.072318666 -0.015962258 0.045161564 0.02064224 -0.0018460767
-0.09894614 0.04569072 0.08665931 0.050547373 0.13097359 0.1118067 0.016232997 0.037529245
-0.034262713 -0.105223 -0.10261902 0.04765442 0.046916295 0.03446896 0.06256015 0.015354288
0.16000374 -0.02411034 -0.05013761 0.005765172 -0.106998876 0.014524432 -0.0269297 -0.19207114
0.0069617643 0.06779165 -0.09764406 0.057350207 0.02992517 0.19038107 -0.028171573 -0.011187789
0.21602467 0.034091234 -0.07289281 -0.13372882 -0.06696073 0.0150310425 0.16542576 0.15432379
0.19699067 0.1572261 0.076005965 -0.054724194 0.066907465 0.022139465 0.14464916 0.1782061
-0.027503973 -0.059477035 0.08271508 -0.025802193 0.14700726 0.014881416 0.0034710388 -0.018016571
-0.096608005 0.102532215 0.052015193 -0.060489092 -0.103783555 0.008241605 -0.04366418 0.09497496
00000000: 0c7e 403e 6a8f 1bbe 4c89 bb3c cf69 94bd
00000010: 80ee e2bd 7273 cc3c 8091 0f3c ad7f a13d
00000020: f1de 9fbd fcb3 e03d d641 4dbe 2147 c4bd
00000030: 8cfb 43bd b120 533b ac3b a3bd 7978 2ebe
00000040: cc4c 1a3e 9532 59be 28b1 b9bd a579 843d
00000050: 34cb 02be 75bb 5dbd 1432 d7bb 6ca1 703d
00000060: 8913 64bd b0c9 26be bd45 3dbd a02d 20be
00000070: 1193 82bb 4445 f5bd 42a5 9b3d 4e4d 2c3e
00000080: ed74 1cbd 2c4f 513d bf56 49be 1f54 9e3d
00000090: 1d3b b53d 2772 5d3e a46f 30be 75b2 a33d
000000a0: a138 e53d fbea 103d c7de edbd f008 ecbb
000000b0: 02ec 923d a8c2 e83d b3b6 9bbd b29b f93d
000000c0: 5f71 18be a22a e83c b984 3bbd bfb9 993c
000000d0: f8be 1dbc d8cb 443d 86ef 47be d221 4bbe
000000e0: e140 0bbc aeb3 febc 45b5 1b3c 0451 2f3d
000000f0: fbcd a23c 9f85 e6bc 89a9 3fbd 2d46 643e
00000100: 7812 03bc 1226 cebc 7e5a 583e d66b 2c3d
00000110: 048a 5bbe 1061 653d ea59 5bbe 2298 f33c
00000120: cf9f dabc dcb3 51be a26e 2fbe 787a dabd
00000130: 5d50 4e3e 6b4f 483d 971e 39be 4126 e53d
00000140: e60d 78bd afe8 56bd e906 b0bc 0288 b1bb
00000150: d0e7 6e3e 453a e4bd 96a2 0d3d 2a23 31be
00000160: 2a52 09be b755 a7bd 870b 7f3e 285c 8a3d
00000170: 0331 51be ee82 91bd 5301 09be 397d 41be
00000180: dfd9 593d a2a2 4a3e 3778 fbbd 6a62 7dbd
00000190: dc06 873d c7f0 93bd 4414 c63d ca54 23be
000001a0: 1d41 203d a8f0 e03d 8fd0 cbbd b231 5c3e
000001b0: ed14 e8bd f973 d5bd 712d 703c 999d 533e
000001c0: e2a9 f0bd da18 593d 4481 b3bc f576 e7bd
000001d0: f326 18be 21af 263d 6528 f4bd 64ef 703e
000001e0: 688e d13d d524 00be 91a4 4cbe a92f 453d
000001f0: c97f fa3c 841f 1e3c 0091 a5bc 9fcf b53d
00000200: 2635 c5bd 341c 273e ff51 d8bd 2de1 bf3d
00000210: 05e2 12bc 48e6 0ebe 06a8 9bbd f5ab aebc
00000220: ef80 483d 2e76 3bbe 0091 ca3b 9266 b33d
00000230: 65fa 82bd 4a8d 303c 58ec 213e d7e1 c43d
00000240: e95c cb3b 132f bbbd 4f08 e6bd 47d7 61bd
00000250: 41f6 393d 02cd 8b3d bbdd e93d 3c3c 2e3e
00000260: 04f1 91bd a091 2ebe 6616 913d 1c05 08bd
00000270: ec4d 2c3e ebbc 353d c08a 593d 31cc 6dbd
00000280: 3cc5 263e 2408 83bd 5061 963d 3ecf 8dbd
00000290: f425 823d 8ebd 2f3d c305 aebd 714a 3f3d
000002a0: 9031 893c a4dd 29be ad06 0c3e 90c9 2c3e
000002b0: 0a16 b8bc b171 0a3e 14f7 22bd 6a5c cdbd
000002c0: 4fd0 123e 25ff 8c3c ae1b d5bc fd56 613e
000002d0: b279 0cbe 603b 13be c4b2 60bc fa0b 903d
000002e0: 50ae 03be 92f0 5bbc 7f2a 73bd cf1b 943d
000002f0: 48c3 82bc 55fb 383d ea19 a93c 0ef8 f1ba
00000300: 46a4 cabd 3126 3b3d 707a b13d c30a 4f3d
00000310: f11d 063e e9fa e43d 10fb 843c 44b8 193d
00000320: 0f57 0cbd 287f d7bd ec29 d2bd 4831 433d
00000330: 4d2b 403d 532f 0d3d 891f 803d 8d90 7b3c
00000340: 05d8 233e 0c83 c5bc 185d 4dbd c5e9 bc3b
00000350: 3a22 dbbd e2f7 6d3c ad9b dcbc 4cae 44be
00000360: 831f e43b 59d6 8a3d 9cf9 c7bd 0de8 6a3d
00000370: a125 f53c 41f3 423e 12c8 e6bc fd4c 37bc
00000380: 9235 5d3e 40a3 0b3d d348 95bd 35f0 08be
00000390: b522 89bd c344 763c 5f65 293e 0e07 1e3e
000003a0: ecb7 493e e1ff 203e 04a9 9b3d 7a26 60bd
000003b0: c806 893d d35d b53c e91e 143e a97b 363e
000003c0: 0350 e1bc 319e 73bd 8666 a93d 1f5f d3bc
000003d0: 1289 163e 2fd1 733c 5e7a 633b 7d97 93bc
000003e0: 6bda c5bd 69fc d13d e20d 553d 69c3 77bd
000003f0: 798c d4bd cc07 073c 36d9 32bd 3b82 c23d

model.rnn.bias_ih_l0 f4 [240]
0.16319136 0.093630515 0.17812076 -0.05501755 -0.03378087 -0.025715347 0.16326782 -0.02980859
0.14857744 0.10353698 -0.058834344 -0.043188184 0.026887164 0.07706726 -0.007136103 0.008746607
0.045864325 -0.023203656 0.124227695 0.14316219 0.1866287 0.1416162 0.005456589 0.12397883
0.094056 0.13313204 -0.07327492 0.06843471 -0.073209405 -0.030533832 0.024023851 0.018917007
-0.0016150781 0.13423893 -0.018045269 0.05862577 0.1522506 -0.10491479 0.15059382 0.06553061
0.041772537 0.012585196 -0.087545685 0.13000886 0.19291434 0.027708411 0.02843229 0.034679193
-0.030002996 0.11000895 0.12432755 0.036619734 0.13352285 0.14450833 0.019248782 -0.005805802
-0.017984493 -0.030332522 0.01890551 0.10414684 0.075571045 0.032860976 0.03127918 0.038969748
0.10746406 -0.08519073 -0.09696039 -0.089086264 -0.062993266 0.039839063 0.13614869 -0.07405175
0.09444534 0.018422836 0.045191053 -0.07952922 -0.061869204 0.040798105 -0.11896084 -0.049815528
0.12763846 -0.061183054 0.089001335 0.032316513 0.07364877 0.045233566 0.07101175 0.06618015
0.016683804 -0.16163144 0.016488068 0.084724545 -0.069613144 -0.058063943 -0.004892791 0.015445226
0.059001278 0.1165366 0.03348698 -0.09275192 -0.06996894 -0.009319056 0.051718034 -0.023792006
-0.07213755 -0.032343324 0.031645462 -0.08426212 0.056402702 -0.06822572 0.019751992 -0.108646214
0.08581734 0.038766067 -0.03191113 0.0032970896 0.055409607 0.07090053 -0.0876603 0.011896673
-0.07204583 -0.0687064 -0.060627483 -0.01924172 -0.057272833 0.016692244 -0.0263694 0.047353316
-0.0009934285 0.06730461 -0.14326413 0.034144126 0.11214527 -0.08118467 -0.07264877 0.018746596
0.11957033 0.11142136 -0.11797233 -0.08616269 0.036261804 0.087851 0.090878025 0.11294194
0.085858 0.087560885 0.055527538 0.047457762 0.12894449 -0.010948859 0.077739194 -0.11455073
-0.046517078 0.043130077 0.0659092 -0.108795546 0.11551855 -0.03910895 0.0069938893 0.008355829
0.07273361 -0.117559135 0.06856611 -0.06897777 -0.09881504 0.0834716 -0.07058481 -0.04941539
-0.020075547 -0.03328697 0.09830594 0.11732823 0.06891517 0.12537783 -0.003815091 -0.1351146
-0.10865768 -0.00043849726 -0.0060329614 -0.058491167 0.080436066 0.1260947 0.0901874 0.043522093
0.078175865 0.01761421 0.12707989 0.11836484 0.12221363 0.01420015 -0.07261935 0.036195435
0.100923166 -0.07107056 0.15720531 0.089839846 0.17774491 0.1553136 0.15230842 0.12733404
0.1499419 0.1045102 -0.05529752 0.052528806 0.114375085 0.18108054 0.1297708 0.097959965
0.10085508 -0.013911232 -0.07524466 0.10057795 0.04308086 -0.07903178 -0.10813892 0.17199749
-0.09766791 -0.04649263 -0.08237536 -0.0016219779 0.13082089 -0.04985433 -0.053627387 -0.026911171
0.14908175 0.11585879 0.06392513 -0.010354556 0.01079865 0.06730601 -0.06522987 0.06861331
-0.029315215 0.022959014 -0.057946667 0.07470477 0.0090137655 -0.07002753 -0.052707084 0.04316507
00000000: a31b 273e 5bc1 bf3d 4a65 363e 155a 61bd
00000010: cf5d 0abd fea8 d2bc ae2f 273e 2531 f4bc
00000020: af24 183e 320b d43d 48fc 70bd 18e6 30bd
00000030: 7842 dc3c 71d5 9d3d f9d5 e9bb ee4d 0f3c
00000040: 3bdc 3b3d 9815 bebc 176b fe3d 1c99 123e
00000050: 981b 3f3e d603 113e 30cd b23b 9de8 fd3d
00000060: 6fa0 c03d c453 083e 2911 96bd 7f27 8c3d
00000070: d0ee 95bd 1622 fabc abcd c43c d7f7 9a3c
00000080: 07b1 d3ba ee75 093e acd3 93bc 9321 703d
00000090: 95e7 1b3e 91dd d6bd 4435 1a3e ea34 863d
000000a0: ae19 2b3d 2332 4e3c 274b b3bd 0b21 053e
000000b0: 568b 453e c0fc e23c d5ea e83c c50b 0e3d
000000c0: d8c8 f5bc 5f4c e13d 719f fe3d 93fe 153d
000000d0: 37ba 083e fef9 133e 9faf 9d3c 993e bebb
000000e0: 3754 93bc e97b f8bc badf 9a3c f04a d53d
000000f0: fec4 9a3d 3b99 063d 991e 003d be9e 1f3d
00000100: 1e16 dc3d 7a78 aebd 2b93 c6bd dc72 b6bd
00000110: 9d02 81bd 492e 233d 906a 0b3e 72a8 97bd
00000120: 8f6c c13d 7deb 963c 411a 393d 37e0 a2bd
00000130: 906a 7dbd ea1b 273d bea1 f3bd 5e0b 4cbd
00000140: a8b3 023e 159b 7abd 5546 b63d 525e 043d
00000150: 2bd5 963d d546 393d 9c6e 913d 7589 873d
00000160: 79ac 883c b682 25be fc11 873c 1084 ad3d
00000170: 5691 8ebd 75d4 6dbd b553 a0bb f90d 7d3c
00000180: 53ab 713d beaa ee3d a529 093d b8f4 bdbd
00000190: e04b 8fbd f4ae 18bc 4ad6 533d 74e7 c2bc
000001a0: dabc 93bd 6f7a 04bd ac9e 013d 9e91 acbd
000001b0: 8506 673d edb9 8bbd eece a13c e881 debd
000001c0: 00c1 af3d 2bc9 1e3d 3fb5 02bd fc13 583b
000001d0: 2ff5 623d 4c34 913d 3e87 b3bd 43ea 423c
000001e0: c48c 93bd f1b5 8cbd 8654 78bd d0a0 9dbc
000001f0: eb96 6abd 2cbe 883c a404 d8bc 8df5 413d
00000200: ee35 82ba 00d7 893d d5b3 12be b6da 0b3d
00000210: 6bac e53d 2644 a6bd e1c8 94bd 7692 993c
00000220: 4ae1 f43d e230 e43d 7a9b f1bd 1076 b0bd
00000230: 4287 143d 3aeb b33d 421e ba3d 1b4e e73d
00000240: 52d6 af3d 1f53 b33d d870 633d 1263 423d
00000250: 060a 043e d862 33bc ba35 9f3d 9399 eabd
00000260: b188 3ebd 2aa9 303d 67fb 863d 33d0 debd
00000270: fd94 ec3d b530 20bd ff2c e53b e3e6 083c
00000280: 5cf5 943d d8c2 f0bd 646c 8c3d 3844 8dbd
00000290: 8a5f cabd 29f3 aa3d c58e 90bd cb67 4abd
000002a0: 7975 a4bc eb57 08bd a054 c93d c849 f03d
000002b0: 6623 8d3d 0c63 003e 9b06 7abb 7b5b 0abe
000002c0: eb87 debd 1be6 e5b9 26b0 c5bb 6f94 6fbd
000002d0: aabb a43d f81e 013e 2cb4 b83d 3944 323d
000002e0: ab1a a03d ad4b 903c 3b21 023e 4469 f23d
000002f0: 244b fa3d bfa7 683c 74b9 94bd aa41 143d
00000300: ceb0 ce3d 718d 91bd 6efa 203e f4fd b73d
00000310: c302 363e 870a 1f3e bdf6 1b3e db63 023e
00000320: 5f8a 193e 7209 d63d a77f 62bd 7228 573d
00000330: 7c3d ea3d 2d6d 393e a3e2 043e 3c9f c83d
00000340: 1c8d ce3d f0eb 63bc df19 9abd d0fb cd3d
00000350: 8e75 303d 6adb a1bd f077 ddbd 1c20 303e
00000360: 1d06 c8bd 0e6f 3ebd 6ab4 a8bd 8c98 d4ba
00000370: e9f5 053e 0e34 4cbd 64a8 5bbd d174 dcbc
00000380: e3a8 183e 6047 ed3d 2eeb 823d 28a6 29bc
00000390: d2ec 303c bcd7 893d 3d97 85bd 2385 8c3d
000003a0: 7626 f0bc 8b14 bc3c 7c59 6dbd d1fe 983d
000003b0: 79ae 133c 986a 8fbd 62e3 57bd dbcd 303d

model.rnn.bias_hh_l0 f4 [240]
-0.008917453 0.038640123 -0.046285708 -0.06966829 0.0021040668 -0.06120109 0.119835995 -0.06110776
-0.024531435 0.037099786 0.0565521 0.13539584 0.1523311 0.056338154 -0.051911358 0.084575936
0.0122021735 -0.03758034 0.14936683 0.11072078 0.13761474 -0.033315066 -0.05916342 0.087065674
-0.03677582 -0.020950986 -0.03864627 0.20976831 0.17523971 0.21286483 0.06841578 -0.021674193
0.086022794 0.065946855 0.052909564 0.14134018 0.032243814 0.0064224205 0.049693458 0.05563523
-0.0037459738 -0.049919706 0.103859164 0.07561467 0.0101032 -0.052667525 -0.03166258 -0.06210257
-0.060102377 0.044062033 -0.045083627 0.043489248 -0.016124912 0.08827725 0.033062562 0.01946525
0.19945414 0.0039453534 0.18250313 0.17574953 -0.07165007 -0.06431163 -0.034160696 0.028083649
0.05953933 0.051048048 0.122446865 0.05327915 0.053992346 0.05013103 0.13200025 0.14165951
0.07814548 0.04516588 0.032980576 0.05221225 -0.069371864 -0.0026053626 0.010761383 0.14670226
-0.0677993 0.07634747 0.037167147 0.0028889724 -0.09889879 0.03407106 -0.05418831 -0.006611903
0.05386892 -0.038020983 0.120803185 0.07605741 -0.062485833 -0.08557842 0.081585884 0.09172668
-0.0042044683 0.009416691 0.0050200387 0.061112516 -0.021257943 -0.0004801093 0.0690134 0.10976454
-0.1209381 -0.099268824 -0.012107337 -0.030790906 -0.0003353221 0.0125235235 0.11995082 0.05491103
-0.03430375 0.046415094 -0.0465994 0.11487099 0.023232648 0.098944254 -0.11092549 0.021695232
0.10263793 -0.04320612 0.026670914 0.027420668 0.06100432 -0.13328928 0.008867468 0.1413074
0.056306876 0.093664445 -0.08133064 -0.0021991958 0.09652693 -0.13495488 0.01430486 -0.034476127
-0.1259721 0.04764237 -0.105536684 -0.06580728 -0.11392743 -0.12941629 -0.07341956 0.024037044
0.08580099 0.03995877 0.025294766 0.10808789 -0.08853033 0.034571733 0.061698046 -0.02371715
-0.12109662 0.029794548 0.04786202 0.06044949 0.09654246 0.047584552 0.044847153 -0.07101116
0.12376516 -0.10926598 0.06893748 -0.08278666 -0.00090635 -0.12317142 -0.10674789 -0.085245706
-0.016599458 -0.07815199 0.027895976 0.039223514 0.019876204 -0.05803467 -0.05867035 -0.13448371
0.04963712 0.115795285 -0.008603015 -0.023774153 0.118107215 0.006009302 0.05774163 -0.039749958
0.09888458 0.09826891 -0.049101945 -0.078794785 -0.09444017 0.031603597 -0.05245445 0.13376239
0.115992986 0.10194743 -0.03693697 0.076233305 0.13073525 0.008244638 0.15280984 0.13588053
-0.06328336 0.054300446 -0.02819985 0.0062563717 -0.04534145 0.07303898 0.02870825 0.03133303
0.124714375 -0.036192093 0.07422889 0.14806539 0.13344245 0.13855466 -0.058623444 0.07622227
-0.07261749 0.012297417 -0.034088805 0.054913487 0.08082855 0.17881379 0.04960594 0.1008638
-0.035523385 -0.072225094 -0.06385894 -0.02044194 0.17437617 -0.018318826 0.03282209 -0.02081412
0.0047907727 -0.062513895 -0.106136754 -0.05936238 0.20867708 0.008078729 0.027110044 0.056881104
00000000: 821a 12bc 1b45 1e3d 1596 3dbd 40ae 8ebd
00000010: 62e4 093b ffad 7abd 936c f53d 214c 7abd
00000020: 26f6 c8bc f2f5 173d 2da3 673d 35a5 0a3e
00000030: affc 1b3e d6c2 663d 01a1 54bd 2636 ad3d
00000040: a0eb 473c d8ed 19bd 9ef3 183e 94c1 e23d
00000050: e1ea 0c3e 6175 08bd 5855 72bd 7d4f b23d
00000060: 3ea2 16bd 67a1 abbc 8d4b 1ebd 81cd 563e
00000070: 0a72 333e 3df9 593e 931d 8c3d 148e b1bc
00000080: b82c b03d 250f 873d b3b7 583d 7bbb 103e
00000090: 1712 043d 2b73 d23b 5e8b 4b3d c4e1 633d
000000a0: 037f 75bb 9b78 4cbd 1db4 d43d dddb 9a3d
000000b0: e487 253c e7b9 57bd 9fb0 01bd 445f 7ebd
000000c0: e92d 76bd 647a 343d 9ca9 38bd c821 323d
000000d0: 6418 84bc b4ca b43d 9c6c 073d 9775 9f3c
000000e0: b53d 4c3e 0648 813b 1ae2 3a3e aff7 333e
000000f0: 46bd 92bd d1b5 83bd 16ec 0bbd ae0f e63c
00000100: 83df 733d c217 513d 6cc5 fa3d 3d3b 5a3d
00000110: 1427 5d3d 3256 4d3d 132b 073e 310f 113e
00000120: bd0a a03d dcff 383d a416 073d 83dc 553d
00000130: d612 8ebd bbbe 2abb 8350 303c 1e39 163e
00000140: 5cda 8abd 105c 9c3d 943c 183d ea54 3d3b
00000150: 738b cabd 198e 0b3d 90f4 5dbd aaa8 d8bb
00000160: a8a5 5c3d e4bb 1bbd a967 f73d fdc3 9b3d
00000170: 25f1 7fbd bd43 afbd 8016 a73d 33db bb3d
00000180: a3c5 89bb 7748 1a3c 237f a43b 1e51 7a3d
00000190: 2325 aebc 2eb7 fbb9 e656 8d3d 3bcc e03d
000001a0: 65ae f7bd 744d cbbd da5d 46bc 363d fcbc
000001b0: 2cce afb9 772f 4d3c c7a8 f53d 63ea 603d
000001c0: 1782 0cbd c11d 3e3d 03df 3ebd 7b41 eb3d
000001d0: 6552 be3c 49a3 ca3d e72c e3bd 33ba b13c
000001e0: d633 d23d e7f8 30bd f67c da3c 4fa1 e03c
000001f0: aadf 793d fc7c 08be db48 113c e3b2 103e
00000200: 0aa2 663d 25d3 bf3d ae90 a6bd 6220 10bb
00000210: e9af c53d 9d31 0abe ee5e 6a3c d736 0dbd
00000220: d5fe 00be a524 433d 9e23 d8bd f8c5 86bd
00000230: c952 e9bd b485 04be ff5c 96bd 56e9 c43c
00000240: 6eb8 af3d cfab 233d f836 cf3c 2f5d dd3d
00000250: 644f b5bd 179b 0d3d 17b7 7c3d 784a c2bc
00000260: 8101 f8bd b213 f43c f70a 443d e299 773d
00000270: 0eb8 c53d 05e8 423d a6b1 373d 4d6e 91bd
00000280: 9778 fd3d d8c6 dfbd 182f 8d3d 0d8c a9bd
00000290: 1e98 6dba 4c41 fcbd a39e dabd 4d95 aebd
000002a0: 96fb 87bc 270e a0bd 1a86 e43c d6a8 203d
000002b0: 6cd3 a23c c3b5 6dbd 5250 70bd 19b6 09be
000002c0: 4b50 4b3d 1426 ed3d a9f3 0cbc 03c2 c2bc
000002d0: 32e2 f13d aee9 c43b 7d82 6c3d dad0 22bd
000002e0: 0084 ca3d 3641 c93d 1f1f 49bd 295f a1bd
000002f0: d969 c1bd c672 013d 7ada 56bd 02f9 083e
00000300: bb8d ed3d d0c9 d03d 384b 17bd 3520 9c3d
00000310: 76df 053e 8514 073c 2f7a 1c3e 4424 0b3e
00000320: b59a 81bd 256a 5e3d 5f03 e7bc 4002 cd3b
00000330: f5b7 39bd 7695 953d 902d eb3c 1057 003d
00000340: 406a ff3d 293e 14bd 5105 983d 749e 173e
00000350: 23a5 083e 46e1 0d3e 231f 70bd 6c1a 9c3d
00000360: 7bb8 94bd 1b7b 493c b4a0 0bbd f7ec 603d
00000370: 7089 a53d f61a 373e 992f 4b3d ae91 ce3d
00000380: f880 11bd c0ea 93bd 7ac8 82bd db75 a7bc
00000390: ab8f 323e 5d11 96bc 7570 063d 6082 aabc
000003a0: eafb 9c3b 4907 80bd 3a5e d9bd f825 73bd
000003b0: 72af 553e a55c 043c e215 de3c 29fc 683d

model.rnn.weight_ih_l1 f4 [240, 60]
-0.001964017 -0.044967417 -0.1210851 -0.02140057 0.03807418 0.059626337 -0.008353474 0.060831342
0.017705025 0.08187875 0.040383063 0.028523833 -0.010342295 -0.10781783 -0.038757753 -0.14786309
0.025569107 0.10425546 -0.06653181 0.03258659 -0.1338692 -0.124370344 0.103377685 0.16913535
0.048000827 0.07413427 0.12392031 0.059035476 0.04278996 -0.02160032 0.071768 -0.015875248
-0.11666602 0.026818192 0.037460364 0.0482491 0.09780203 -0.11221814 -0.0534971 -0.10793253
0.12131921 -0.04366563 0.0014963847 -0.058934063 -0.0768914 -0.0149385445 -0.12384203 -0.004557232
0.07529972 -0.01420005 0.12897278 0.029269867 -0.1231529 0.096063174 -0.16919318 0.022522856
0.056584187 0.11096189 0.03920454 0.122612156 0.109196894 0.031050248 0.061701797 -0.108360805
-0.0546694 0.041396398 -0.012114737 -0.07472321 0.079861626 0.03473122 -0.14762492 0.13127305
-0.106514886 0.0095273 -0.12893534 -0.04707158 0.06622368 -0.10158052 0.13010879 0.16310515
-0.13568982 -0.0062766206 0.20560938 0.12906516 -0.053501185 -0.089878306 -0.17295249 -0.003974434
-0.055526923 -0.0738172 -0.11195891 0.08021 -0.00067571725 -0.0048936163 0.029063812 -0.08681749
0.14979614 -0.10050405 0.05454538 -0.004708957 0.011730747 0.072040305 -0.1361885 -0.11133507
0.003556682 -0.02209259 -0.15811855 -0.0685584 -0.114267886 -0.0085407775 -0.083641164 -0.016448922
0.093049355 0.035614148 -0.14689337 -0.069712766 0.023510573 -0.06611672 -0.023900881 -0.06311463
0.18382244 -0.01086015 -0.07200176 -0.15282016 0.0601304 0.031813823 0.005933895 0.16559596
-0.18778485 0.14695813 -0.000588056 -0.0072709885 -0.04226005 -0.15718238 -0.15093891 -0.11657254
-0.07249132 -0.15947948 0.11804483 0.00876092 -0.14406826 -0.08669534 -0.04218746 0.032775864
0.107560545 0.011878556 -0.048436813 0.09397597 -0.18721874 -0.0677438 -0.02642902 0.11499505
-0.053331595 -0.012525545 -0.19699864 0.034470193 0.17497611 -0.061529495 -0.060921367 0.18330114
0.053120457 0.0424723 0.027350508 -0.2105447 -0.03505085 0.11050841 0.0742612 -0.03699899
-0.04828214 -0.04365799 0.17287865 -0.006436448 -0.0024673154 0.21942772 -0.18284127 -0.16100597
0.13336773 0.18666592 0.011795888 -0.16283746 0.015286814 -0.06754949 0.014586134 0.05683717
-0.030979041 -0.038058206 0.057861518 0.18568541 -0.1533423 -0.044255223 0.045587208 -0.004090653
0.027790505 -0.08626374 -0.034786996 0.03361922 0.08650116 0.041966826 -0.028077474 0.12723607
0.12678066 0.036920395 -0.18481895 -0.033890713 -0.033362035 -0.09570735 -0.031550672 -0.08886052
0.044650733 0.09352183 0.18891677 -0.12578349 -0.09422996 -0.0874594 -0.05058854 -0.13859943
0.15764368 -0.006983789 0.06742999 0.00081533287 0.07238019 0.08515849 0.15093088 -0.014861847
0.0011385607 -0.056810804 0.029634718 0.19965471 -0.12280309 -0.01290606 0.13112554 0.106913246
-0.1062856 -0.02504105 -0.13981305 -0.10004027 0.1304176 0.0173047 0.059250187 0.16834076
-0.16746944 0.0033106492 -0.004864648 0.0154240085 -0.17228931 -0.022598661 0.09680603 0.17181984
-0.029722355 0.119740546 -0.15502025 -0.18312158 -0.029241301 0.0026995616 -0.17057979 -0.007897496
00000000: bdb6 00bb c12f 38bd 77fb f7bd 4050 afbc
00000010: acf3 1b3d bf3a 743d 02dd 08bc 492a 793d
00000020: 210a 913c 0cb0 a73d b668 253d d0aa e93c
00000030: bb72 29bc 98cf dcbd 73c0 1ebd 6c69 17be
00000040: 4e76 d13c e383 d53d d441 88bd 8479 053d
00000050: 0215 09be e1b5 febd aeb7 d33d d131 2d3e
00000060: 849c 443d b5d3 973d eec9 fd3d 2fcf 713d
00000070: 8644 2f3d 27f3 b0bc 1afb 923d cf0c 82bc
00000080: 98ee eebd d3b1 db3c 0a70 193d d9a0 453d
00000090: 6e4c c83d a0d2 e5bd c61f 5bbd bb0b ddbd
000000a0: 3576 f83d bbda 32bd 5722 c43a d864 71bd
000000b0: 3d79 9dbd ccc0 74bc e4a0 fdbd d554 95bb
000000c0: bd36 9a3d 54a7 68bc 7111 043e 5cc7 ef3c
000000d0: 9637 fcbd c5bc c43d fa40 2dbe da81 b83c
000000e0: d2c4 673d fd3f e33d f194 203d 151c fb3d
000000f0: 9fa2 df3d 175d fe3c 06bb 7c3d 45ec ddbd
00000100: 05ed 5fbd 458f 293d e47c 46bc 7b08 99bd
00000110: 7e8e a33d 5342 0e3d fd2a 17be 716c 063e
00000120: 7a24 dabd 6418 1c3c a007 04be 21ce 40bd
00000130: 48a0 873d 7309 d0bd 3d3b 053e 0905 273e
00000140: 46f2 0abe 1cac cdbb 448b 523e a829 043e
00000150: 0f24 5bbd 1e12 b8bd 751a 31be f83b 82bb
00000160: 3370 63bd 792d 97bd b74a e5bd 2445 a43d
00000170: 9e22 31ba a15a a0bb 3b17 ee3c 5ecd b1bd
00000180: 2964 193e 11d5 cdbd fa6a 5f3d 984d 9abb
00000190: 5232 403c de89 933d 0075 0bbe a403 e4bd
000001a0: 3917 693b 85fb b4bc d4e9 21be 5968 8cbd
000001b0: 4805 eabd 9eee 0bbc 0f4c abbd e4bf 86bc
000001c0: a990 be3d 24e0 113d 376b 16be 91c5 8ebd
000001d0: 3f99 c03c 3468 87bd c8cb c3bc 3e42 81bd
000001e0: f33b 3c3e c5ee 31bc a975 93bd e37c 1cbe
000001f0: 4b4b 763d 364f 023d 1e71 c23b fd91 293e
00000200: ac4a 40be 317c 163e c527 1aba 7941 eebb
00000210: e018 2dbd 6bf4 20be bb8f 1abe 95bd eebd
00000220: 5476 94bd 974e 23be 7dc1 f13d f689 0f3c
00000230: a186 13be 548d b1bd c2cc 2cbd fc3f 063d
00000240: b448 dc3d 469e 423c ae65 46bd 7976 c03d
00000250: 45b6 3fbe 43bd 8abd ac81 d8bc 8682 eb3d
00000260: 3b72 5abd f237 4dbc 03ba 49be 9e30 0d3d
00000270: f02c 333e 5a06 7cbd af88 79bd 4bb3 3b3e
00000280: d694 593d 6ff7 2d3d 2c0e e03c 0899 57be
00000290: 7b91 0fbd 3c52 e23d 4216 983d 418c 17bd
000002a0: 7ec3 45bd b8d2 32bd 1a07 313e d7e8 d2bb
000002b0: afb2 21bb a9b1 603e be3a 3bbe c0de 24be
000002c0: 8d91 083e 5a25 3f3e 8a43 413c ddbe 26be
000002d0: 8c75 7a3c 6357 8abd aefa 6e3c 18ce 683d
000002e0: c2c7 fdbc ece2 1bbd 3300 6d3d 5124 3e3e
000002f0: c405 1dbe f744 35bd a7b9 3a3d e20a 86bb
00000300: eaa8 e33c 0bab b0bd cf7c 0ebd 4fb4 093d
00000310: 8527 b13d 68e5 2b3d bb02 e6bc 2c4a 023e
00000320: cad2 013e d739 173d 2e41 3dbe fdd0 0abd
00000330: a1a6 08bd 3702 c4bd 473b 01bd 81fc b5bd
00000340: b0e3 363d 6088 bf3d 6673 413e 63cd 00be
00000350: a3fb c0bd ea1d b3bd ee35 4fbd 02ed 0dbe
00000360: 586d 213e 45d8 e4bb bc18 8a3d 10bc 553a
00000370: 113c 943d 9367 ae3d a08d 1a3e 1b7f 73bc
00000380: c23b 953a 72b2 68bd 82c4 f23c 4972 4c3e
00000390: 3080 fbbd f073 53bc c645 063e 55f5 da3d
000003a0: 44ac d9bd e322 cdbc 272b 0fbe eae1 ccbd
000003b0: 318c 053e 96c2 8d3c 53b0 723d 8561 2c3e
000003c0: 1c7d 2bbe 7af7 583b a067 9fbb fbb4 7c3c
000003d0: 9c6c 30be d420 b9bc 3d42 c63d 8af1 2f3e
000003e0: 4c7c f3bc 883a f53d a1bd 1ebe 3984 3bbe
000003f0: 748b efbc 21eb 303b 78ac 2ebe 8064 01bc

model.rnn.weight_hh_l1 f4 [240, 60]
0.10953808 0.12174826 0.09212253 -0.016669625 0.14264768 -0.12379226 -0.0347931 0.032528725
-0.06246465 0.047311917 0.0047772788 -0.0050546024 0.009024041 -0.0647005 -0.16492185 -0.0156100625
-0.028598247 -0.006052702 -0.109886445 -0.024391323 -0.051056657 0.010170068 -0.0024589093 0.14134577
0.06927646 -0.025395522 -0.13835348 0.064149074 0.08701749 0.056015894 -0.062396236 0.0010544249
0.08909749 0.10003866 0.14209145 0.02564303 -0.037867256 0.04183673 -0.05109048 0.044258986
0.12040244 -0.058142085 0.024257476 -0.1144105 0.048833955 -0.020096244 -0.03799502 0.07352053
0.024317715 0.03700794 -0.09707189 -0.051119864 -0.04865152 -0.110333286 0.043176025 -0.08841852
0.08653966 -0.1337822 -0.06130364 -0.06209106 -0.15964288 -0.026103476 0.05737216 0.09118948
-0.063396305 -0.022620333 -0.026696468 0.0012135789 -0.08684548 -0.13753419 0.08388462 0.08358091
-0.05266429 -0.12794095 -0.15905093 -0.028630944 -0.08814887 -0.10301002 -0.035680857 -0.129831
-0.110240765 -0.14446712 -0.13789591 0.056473855 0.07020016 -0.0025943054 -0.13218927 -0.16622046
-0.002808884 -0.069501184 0.1259048 0.11984506 0.013641399 0.016144881 0.06580972 -0.14872193
-0.02361143 0.019508302 -0.004586544 -0.070941135 -0.0076879724 0.042393487 -0.120395 -0.00026449974
-0.16479895 -0.0014515768 -0.019205233 0.112653874 0.14686254 0.0467507 0.041593056 -0.07851522
-0.14609094 0.11290191 -0.077089004 0.15273178 0.048677392 -0.116343044 0.1066674 0.058940813
-0.10357662 0.17765866 -0.00071746286 -0.038269266 -0.01378872 0.06302405 0.20483026 -0.015824605
-0.101575226 0.0005159603 -0.06542056 -0.13727756 0.17731868 -0.19616048 -0.11012233 -0.13892487
0.015081278 -0.03761182 -0.082784936 -0.1501949 -0.13344622 -0.07172541 -0.19647951 -0.038689006
-0.076511785 0.08340025 -0.02736398 0.043027025 -0.21754818 0.10001792 0.1428629 0.07571015
0.13597193 -0.13874109 0.10048296 0.015202786 0.12166578 -0.07886189 0.0997443 0.18134184
-0.018473294 0.106206425 -0.022376543 -0.14490138 -0.05985596 -0.026524464 -0.06265291 0.06623521
0.12821285 -0.1628433 -0.084135085 0.115042455 -0.10852056 0.25832146 -0.02521474 0.15717848
0.098769926 -0.08416768 -0.05929465 0.08383337 -0.084106855 0.11439663 -0.1769467 0.068220206
0.16120894 -0.09454824 -0.02291334 0.11380233 0.062840834 -0.056338552 -0.03616918 -0.08709297
0.027987681 -0.13299854 -0.17439142 -0.038137704 0.014279613 0.02323758 -0.15051988 -0.080617525
-0.01987494 -0.06680889 0.07181834 -0.058571666 0.17230593 -0.075861394 -0.06447918 -0.04608079
0.070955165 0.11084625 -0.011958619 0.15671884 -0.055942755 -0.061596192 0.15505825 0.06260985
-0.09957599 -0.013150512 0.13467583 -0.09869291 0.033604387 0.124418415 0.07182989 0.0072444985
-0.15624753 0.075736634 -0.060663786 0.018799914 0.11414723 0.040935945 0.026509866 -0.00039184943
-0.009183426 0.057245754 -0.1483369 0.055754468 -0.025831304 -0.029295716 -0.12530915 0.13426426
0.02707078 -0.0412128 -0.13545199 0.15446025 0.107075304 0.040186945 0.12676182 0.07438294
0.012673915 0.0055271555 -0.07955201 -0.13716401 0.14661969 -0.15771358 -0.035317037 -0.14898539
00000000: 8055 e03d 2757 f93d bdaa bc3d bd8e 88bc
00000010: 3c12 123e cc86 fdbd 3683 0ebd d73c 053d
00000020: efda 7fbd 24ca 413d b88a 9c3b 14a1 a5bb
00000030: 92d9 133c b281 84bd 46e1 28be 59c1 7fbc
00000040: df46 eabc bf55 c6bb 250c e1bd 50d0 c7bc
00000050: c920 51bd 5ba0 263c a725 21bb f2bc 103e
00000060: d1e0 8d3d 450a d0bc 89ac 0dbe 9760 833d
00000070: 3a36 b23d ec70 653d 3293 7fbd a134 8a3a
00000080: bf78 b63d 12e1 cc3d 6c80 113e 5511 d23c
00000090: b21a 1bbd fe5c 2b3d 4044 51bd e948 353d
000000a0: 8e95 f63d 6526 6ebd 9db7 c63c 0d50 eabd
000000b0: 1d06 483d e1a0 a4bc aba0 1bbd ee91 963d
000000c0: f235 c73c a395 173d a1cd c6bd 1063 51bd
000000d0: d146 47bd 6bf6 e1bd 58d9 303d c514 b5bd
000000e0: b53b b13d 33fe 08be 8719 7bbd 3253 7ebd
000000f0: 6c79 23be f5d6 d5bc 12ff 6a3d 8dc1 ba3d
00000100: ecd5 81bd 474e b9bc 8db2 dabc f310 9f3a
00000110: 0bdc b1bd c3d5 0cbe b3cb ab3d 782c ab3d
00000120: 83b6 57bd f402 03be 3fde 22be 718b eabc
00000130: 6587 b4bd ebf6 d2bd 1726 12bd 6bf2 04be
00000140: e9c5 e1bd 30ef 13be 9634 0dbe 2151 673d
00000150: 1ac5 8f3d 3905 2abb a05c 07be b235 2abe
00000160: 4115 38bb a356 8ebd 30ed 003e 5471 f53d
00000170: 2d80 5f3c 4542 843c 3fc7 863d 904a 18be
00000180: c26c c1bc e0cf 9f3c b84a 96bb 9649 91bd
00000190: 63eb fbbb cba4 2d3d a791 f6bd 8eac 8ab9
000001a0: 0ec1 28be d642 beba 4b54 9dbc 13b7 e63d
000001b0: 2263 163e a97d 3f3d 7b5d 2a3d 96cc a0bd
000001c0: dd98 15be 1e39 e73d d7e0 9dbd b865 1c3e
000001d0: f261 473d 4345 eebd 7074 da3d ec6b 713d
000001e0: fb1f d4bd 27ec 353e 1e14 3cba 3cc0 1cbd
000001f0: 15ea 61bc c112 813d 06bf 513e 9aa2 81bc
00000200: ac06 d0bd 8241 073a 37fb 85bd 7d92 0cbe
00000210: 0793 353e 4bde 48be d187 e1bd 5242 0ebe
00000220: 7717 773c da0e 1abd 268b a9bd b1cc 19be
00000230: 20a6 08be c6e4 92bd ed31 49be 5d78 1ebd
00000240: 36b2 9cbd c0cd aa3d 6d2a e0bc 1b3d 303d
00000250: f3c4 5ebe 32d6 cc3d a74a 123e ec0d 9b3d
00000260: 3a3c 0b3e 2512 0ebe 03ca cd3d 1b15 793c
00000270: e92b f93d 5882 a1bd bd46 cc3d adb1 393e
00000280: 4e55 97bc c182 d93d 034f b7bc 0761 14be
00000290: 862b 75bd d549 d9bc 2b50 80bd 53a6 873d
000002a0: 3b4a 033e 65c0 26be 044f acbd 619b eb3d
000002b0: 0740 debd b642 843e 248f cebc 65f3 203e
000002c0: e347 ca3d 1b60 acbd f2de 72bd d4b0 ab3d
000002d0: 3740 acbd c848 ea3d 8431 35be 09b7 8b3d
000002e0: f513 253e 82a2 c1bd c2b4 bbbc 3211 e93d
000002f0: b2b2 803d 41c3 66bd 2226 14bd cd5d b2bd
00000300: 6c46 e53c c530 08be aa93 32be 4836 1cbd
00000310: 0af5 693c bd5c be3c e221 1abe cd1a a5bd
00000320: c5d0 a2bc 19d3 88bd 7e15 933d d8e8 6fbd
00000330: f770 303e 385d 9bbd a90d 84bd 36bf 3cbd
00000340: f150 913d 5c03 e33d 15ee 43bc e77a 203e
00000350: 3b24 65bd 4a4c 7cbd 97c7 1e3e 9839 803d
00000360: 7fee cbbd 3f75 57bc 76e8 093e 821f cabd
00000370: c1a4 093d 15cf fe3d 8d1b 933d 4263 ed3b
00000380: 5aff 1fbe cf1b 9b3d 977a 78bd 4702 9a3c
00000390: 06c6 e93d 73ac 273d 382b d93c 2471 cdb9
000003a0: 1576 16bc 867a 6a3d a1e5 17be cc5e 643d
000003b0: 2c9c d3bc 92fd efbc 0b51 00be 927c 093e
000003c0: 8ac3 dd3c c1ce 28bd edb3 0abe d42a 1e3e
000003d0: 4c4a db3d 119b 243d dacd 013e 1556 983d
000003e0: 41a6 4f3c 241d b53b 2aec a2bd b974 0cbe
000003f0: 7923 163e ab7f 21be 99a8 10bd a08f 18be

model.rnn.bias_ih_l1 f4 [240]
0.1324739 0.0045273416 0.19234373 0.13416548 0.033047553 -0.11897735 -0.08412301 -0.08166374
0.07891312 0.19677651 -0.036407538 0.06332822 -0.029823322 -0.089365 0.0449705 -0.06577035
0.14634185 -0.0072073247 -0.040821824 0.00029874485 0.01898614 0.022507887 -0.039475776 0.03383487
-0.061228644 0.024510605 0.034156796 0.16720699 0.14247516 -0.020003531 -0.004251198 0.15719424
-0.00940198 0.122890055 0.18714678 -0.048000272 0.055700917 0.13973153 0.07124383 -0.025503702
-0.005825756 -0.0047134454 0.045106903 0.11677761 -0.020437578 0.016812187 0.030689681 0.041770883
-0.02565536 0.0018393348 0.045002937 0.18415575 0.1530647 -0.0040358924 -0.022698732 -0.026186937
0.17492154 0.0101021025 -0.021986136 -0.07566654 -0.00782551 -0.02394405 -0.079178564 -0.07416995
0.065597236 -0.021572893 0.010996757 -0.00049799285 0.038725987 0.024542458 -0.0063566724 0.042444963
-0.069279894 0.13216598 0.10415818 0.08037124 0.14165975 -0.0017465582 -0.062725216 -0.02345718
0.05767397 -0.11663717 0.032373514 -0.029462118 0.10430439 -0.12336091 0.04331246 0.027120179
-0.030885685 0.11712182 0.0689883 0.14564997 0.13122265 0.07689615 -0.103419326 0.10808058
-0.080308996 -0.0053013773 0.06798906 0.014141425 0.06753931 0.02027672 -0.15863737 -0.112835355
0.04600428 0.05002562 0.12802453 -0.0033667448 -0.055800445 0.12737808 0.07485683 0.09540095
0.09341326 0.041258696 -0.076812916 -0.09423446 0.0368023 0.08331237 -0.046410065 -0.022024376
0.101567194 0.09347802 -0.07704637 0.010844609 0.06621109 -0.0909688 0.1193038 0.08162059
0.038136274 0.0053397305 -0.0014846899 0.11597962 0.020950818 -0.072606176 -0.031251248 0.013520659
-0.02373533 0.014070279 0.06395677 -0.13006543 -0.08864589 -0.014061337 0.078009 -0.055196725
0.019638447 0.08529949 -0.0737245 -0.097689904 -0.11906264 -0.012929495 0.08411084 0.005780244
0.10973671 -0.01406451 -0.028712844 0.10022981 -0.002986736 -0.010424936 0.124047704 -0.070926614
0.10471706 0.071062185 -0.083800316 -0.10459098 -0.063988484 0.07200833 -0.13277638 -0.06974046
0.11663169 0.0072347648 -0.066699386 -0.04680624 -0.1279282 0.018555557 -0.065874115 -0.046528675
-0.037604105 0.102941915 0.015463553 -0.086736426 -0.014819546 -0.09394896 0.039365746 -0.034480818
0.041696437 0.04502392 -0.09026942 0.030342808 0.14945556 0.16878954 0.054424126 0.056159023
0.0249725 0.11129641 -0.090697885 -0.04548061 0.08570295 -0.01376562 -0.0826321 -0.047582675
0.03635421 0.07903478 -0.121040076 -0.0064512016 0.1650206 0.130642 -0.038019847 -0.016389342
0.1746927 0.09822069 -0.019740067 0.02555109 -0.033129096 0.029059978 0.07828651 0.08961627
-0.07363385 0.05283216 0.19696519 0.08735552 0.03980721 0.09767074 -0.02811238 0.04591535
0.13263758 -0.035848822 0.101006255 0.0979646 0.101151034 0.061321005 -0.06909257 -0.0004111423
0.14325653 0.18534426 0.019975131 -0.097246364 0.17890614 0.13497365 -0.010586532 0.10829477
00000000: 3da7 073e 185a 943b c1f5 443e ad62 093e
00000010: df5c 073d 66aa f3bd af48 acbd 523f a7bd
00000020: 349d a13d c87f 493e 1220 15bd 3ab2 813d
00000030: 0a50 f4bc ff04 b7bd fd32 383d 9bb2 86bd
00000040: a3da 153e 6c2b ecbb c934 27bd dba0 9c39
00000050: d288 9b3c 7662 b83c 5ab1 21bd 6f96 0a3d
00000060: e3ca 7abd 77ca c83c ffe7 0b3d 4f38 2b3e
00000070: 02e5 113e 72de a3bc a24d 8bbb 87f7 203e
00000080: c30a 1abc c8ad fb3d 68a3 3f3e ef9b 44bd
00000090: a526 643d c815 0f3e 49e8 913d 24ed d0bc
000000a0: fce5 bebb 3f73 9abb 04c2 383d 1929 ef3d
000000b0: b56c a7bc b6b9 893c ed68 fb3c f217 2b3d
000000c0: 312b d2bc d615 f13a 0055 383d 5393 3c3e
000000d0: febc 1c3e 853f 84bb b1f2 b9bc fd85 d6bc
000000e0: a21e 333e 4a83 253c 451c b4bc 0ff7 9abd
000000f0: 9136 00bc 5026 c4bc 5f28 a2bd 6ae6 97bd
00000100: d857 863d a3b9 b0bc be2b 343c bc8b 02ba
00000110: 249f 1e3d 440d c93c a24b d0bb c5da 2d3d
00000120: 9ee2 8dbd 8556 073e e250 d53d ad99 a43d
00000130: 410f 113e c5ec e4ba 1476 80bd 4629 c0bc
00000140: 8a3b 6c3d 78df eebd 179a 043d 8a5a f1bc
00000150: 8a9d d53d a5a4 fcbd 6868 313d 232b de3c
00000160: fa03 fdbc 91dd ef3d bd49 8d3d 4425 153e
00000170: 3b5f 063e bb7b 9d3d 83cd d3bd 5a59 dd3d
00000180: 0b79 a4bd 2db7 adbb d93d 8b3d 6fb1 673c
00000190: 0d52 8a3d 5d1b a63c d671 22be 3916 e7bd
000001a0: fc6e 3c3d aae7 4c3d dd18 033e 9ba4 5cbb
000001b0: 028f 64bd 666f 023e 8a4e 993d 9361 c33d
000001c0: 744f bf3d e1fe 283d 1750 9dbd fffd c0bd
000001d0: 02be 163d ad9f aa3d 7b18 3ebd 776c b4bc
000001e0: 7602 d03d 6771 bf3d 7dca 9dbd 96ad 313c
000001f0: ae99 873d da4d babd 8d55 f43d b228 a73d
00000200: c834 1c3d e8f8 ae3b ed99 c2ba b986 ed3d
00000210: 0da1 ab3c 8cb2 94bd 4f01 00bd c185 5d3c
00000220: 9870 c2bc 0787 663c c4fb 823d df2f 05be
00000230: fa8b b5bd 8661 66bc 2fc3 9f3d f615 62bd
00000240: cfe0 a03c 80b1 ae3d dffc 96bd a511 c8bd
00000250: 1dd7 f3bd 3cd6 53bc 4e42 ac3d 3368 bd3b
00000260: a4bd e03d d56e 66bc 3337 ebbc 4945 cd3d
00000270: 1dbd 43bb 5acd 2abc b90c fe3d f941 91bd
00000280: e675 d63d 0d89 913d 809f abbd cc33 d6bd
00000290: 650c 83bd 1a79 933d 88f6 07be 16d4 8ebd
000002a0: 98dc ee3d 9b11 ed3b b099 88bd e6b7 3fbd
000002b0: 9cff 02be d301 983c 02e9 86bd da94 3ebd
000002c0: c306 1abd 36d3 d23d d85a 7d3c dea2 b1bd
000002d0: aecd 72bc 5068 c0bd fa3d 213d c23b 0dbd
000002e0: e2c9 2a3d 006b 383d 2cdf b8bd 7b91 f83c
000002f0: e10a 193e 2ad7 2c3e d5eb 5e3d 0107 663d
00000300: 2193 cc3c 5fef e33d d0bf b9bd e049 3abd
00000310: 0785 af3d 3289 61bc 053b a9bd 0de6 42bd
00000320: 27e8 143d fddc a13d dce3 f7bd 9a64 d3bb
00000330: 29fb 283e 04c7 053e b3ba 1bbd f142 86bc
00000340: a5e2 323e ee27 c93d ecb5 a1bc 8550 d13c
00000350: 60b2 07bd 310f ee3c ae54 a03d bc88 b73d
00000360: 58cd 96bd 8966 583d 3eb1 493e 73e7 b23d
00000370: e30c 233d 9907 c83d ef4b e6bc bc11 3c3d
00000380: 25d2 073e 37d6 12bd 5edc ce3d aaa1 c83d
00000390: 4628 cf3d bc2b 7b3d 6880 8dbd 968e d7b9
000003a0: d7b1 123e e3ca 3d3e e3a2 a33c 1a29 c7bd
000003b0: 2c33 373e 8836 0a3e 2273 2dbc a6c9 dd3d
