checkpoints/epoch=1-step=100-v67.ckpt (torch, 621663 bytes, 33 tensors)

model.param_proj.proj.0.weight f4 [1, 60]
-0.0842141 0.0629405 0.041677777 0.097649254 -0.06736462 -0.14206342 -0.14459594 0.20659806
-0.15954395 0.15831998 -0.13630724 0.05123517 0.1484292 0.14900666 0.09321562 0.060317747
-0.114098355 0.13518694 -0.17233387 0.069060124 -0.14378972 -0.051813085 0.102728404 -0.076479316
0.10293932 -0.03781799 -0.17942984 0.20062871 -0.129221 0.024226254 0.10578997 0.028843045
0.008820693 0.07007278 0.12250418 -0.19632353 -0.15413578 -0.089422755 -0.02821066 -0.08981496
0.023023436 0.22536248 0.032259405 0.06392418 0.18510285 -0.023782788 -0.11771983 0.20860945
0.08895884 0.22285381 -0.16111879 -0.24154101 0.027995046 0.024457296 -0.011352583 0.13014998
-0.15375338 0.04189152 -0.041207917 -0.1951335
00000000: 7178 acbd f3e6 803d 51b6 2a3d 55fc c73d
00000010: 76f6 89bd 1379 11be f510 14be 718e 533e
00000020: 7d5f 23be a21e 223e 2094 0bbe f8db 513d
00000030: d3fd 173e 3495 183e d5e7 be3d be0f 773d
00000040: 66ac e9bd 726e 0a3e 4a78 30be 656f 8d3d
00000050: 9d3d 13be f539 54bd 4563 d23d 30a1 9cbd
00000060: dad1 d23d 09e7 1abd 75bc 37be 9d71 4d3e
00000070: 8352 04be 2376 c63c 69a8 d83d 4048 ec3c
00000080: ab84 103c 5182 8f3d 79e3 fa3d 0909 49be
00000090: c5d5 1dbe 4723 b7bd 0b1a e7bc e8f0 b7bd
000000a0: a59b bc3c 6cc5 663e 7022 043d aeea 823d
000000b0: 9a8b 3d3e 1fd4 c2bc 1817 f1bd b79d 553e
000000c0: 0d30 b63d ca33 643e 53fc 24be 8756 77be
000000d0: de55 e53c ab5a c83c 2f00 3abc 0946 053e
000000e0: 8771 1dbe 7196 2b3d a2c9 28bd 14d1 47be

model.param_proj.proj.1.weight f4 [1, 60]
0.007979855 -0.021786254 0.0035976614 -0.20252347 0.21557213 0.16705479 -0.106156155 0.054010216
-0.08574277 -0.19759172 0.08954663 0.13626766 0.075341865 -0.16384487 0.19651274 0.0026594372
-0.10553117 0.14935486 -0.133315 0.14769931 -0.16095264 0.123354904 0.17568558 0.1176507
-0.037706837 -0.1859397 0.12832722 -0.17670289 -0.032677017 0.13560148 0.05467347 0.13917935
-0.1316602 -0.1409646 -0.067257665 0.11333378 0.15687925 -0.07319702 0.051320374 -0.023920318
-0.10706971 0.1549039 -0.106396735 0.10349891 -0.0072473404 0.16010684 0.002440912 -0.08861941
-0.12972145 -0.036416672 -0.028117655 -0.15333726 -0.076881275 0.07852531 -0.01267056 -0.07696294
0.15841922 -0.037050664 0.20700872 -0.15350263
00000000: f0bd 023c 1679 b2bc bec6 6b3b 5062 4fbe
00000010: f1be 5c3e 6910 2b3e 6668 d9bd d139 5d3d
00000020: e899 afbd 7c55 4abe 3964 b73d c089 0b3e
00000030: d64c 9a3d f3c6 27be a33a 493e f449 2e3b
00000040: ba20 d8bd 7bf0 183e ba83 08be 7d3e 173e
00000050: c5d0 24be 7fa1 fc3d ece6 333e daf2 f03d
00000060: 7c72 1abd fa66 3ebe 3668 033e 9af1 34be
00000070: 56d8 05bd 1ddb 0a3e 4af1 5f3d 0885 0e3e
00000080: eed1 06be 0659 10be 63be 89bd 8a1b e83d
00000090: f4a4 203e 52e8 95bd 5035 523d 8bf4 c3bc
000000a0: 5d47 dbbd 219f 1e3e 88e6 d9bd 3df7 d33d
000000b0: 197b edbb 0cf3 233e b5f7 1f3b 187e b5bd
000000c0: b3d5 04be a629 15bd ff56 e6bc 7104 1dbe
000000d0: ee73 9dbd e1d1 a03d 2e98 4fbc bf9e 9dbd
000000e0: a638 223e 70c2 17bd 18fa 533e cb2f 1dbe

model.param_proj.proj.2.weight f4 [1, 60]
-0.08571144 0.059514735 0.1367862 -0.03828419 0.12047141 -0.04830415 -0.039503243 0.07465622
0.081436895 -0.06354126 0.11913587 -0.06356755 0.06787656 0.03881929 0.026421234 -0.08755978
0.06364154 0.028176373 -0.13705237 -0.050455198 -0.08386743 -0.016446704 0.0957877 -0.023862729
0.14191437 -0.10564307 -0.0121197 -0.0443894 -0.0732907 0.11579778 -0.10784613 -0.06369807
0.105734505 -0.08913477 -0.0035797623 -0.081009485 0.048906837 -0.019999528 -0.062349644 -0.13995107
0.0051096156 0.034081753 0.07255953 0.13306455 -0.009028045 -0.013067495 -0.08874729 0.034313638
-0.14096716 -0.029533675 -0.13177332 0.028690748 -0.12175142 -0.12040387 -0.046480216 0.041522615
-0.11496416 0.008910568 0.11594598 -0.13159709
00000000: 7b89 afbd b9c5 733d ae11 0c3e e2cf 1cbd
00000010: b7b9 f63d 93da 45bd 27ce 21bd 5ce5 983d
00000020: 63c8 a63d ec21 82bd 82fd f33d b42f 82bd
00000030: de02 8b3d fa00 1f3d 5871 d83c 8b52 b3bd
00000040: 7f56 823d 23d2 e63c 7557 0cbe 1caa 4ebd
00000050: b0c2 abbd 3dbb 86bc 572c c43d c57b c3bc
00000060: 0052 113e 655b d8bd b591 46bc a9d1 35bd
00000070: 6f19 96bd 6327 ed3d 6fde dcbd 2274 82bd
00000080: 558b d83d 4a8c b6bd 729a 6abb 4de8 a5bd
00000090: 8952 483d 0dd6 a3bc 5762 7fbd 554f 0fbe
000000a0: 906e a73b 4f99 0b3d 179a 943d 1342 083e
000000b0: 5eea 13bc 0c19 56bc 24c1 b5bd 758c 0c3d
000000c0: b259 10be 9bf0 f1bc 96ef 06be dc08 eb3c
000000d0: cf58 f9bd 4e96 f6bd 0a62 3ebd 9e13 2a3d
000000e0: 5472 ebbd a2fd 113c 1675 ed3d 63c1 06be

model.rnn.weight_ih_l0 f4 [240, 24]
-0.05095441 0.078488775 0.02886251 -0.12510256 0.02892624 -0.08309218 0.03409548 0.037036505
-0.017916689 0.034520492 0.14995962 -0.04128793 -0.062161688 -0.0040380675 -0.031236148 -0.05142615
-0.070191585 0.09480283 -0.030160177 -0.07011064 0.060402174 -0.08448166 0.08104216 -0.030270217
0.08531753 -0.124484 0.02880626 0.07674291 0.10568129 -0.017173126 -0.07613266 0.019448446
-0.0026090206 0.015546257 -0.10748646 -0.010329677 -0.019467184 -0.049520995 0.038522992 0.02447632
-0.004432995 -0.047556028 -0.18551634 0.116044484 -0.14612816 0.021937035 -0.0045651672 0.11468681
0.026946543 -0.08516773 -0.071900904 0.003310966 -0.09318759 -0.1294473 0.0912298 0.16865936
0.07653947 0.18935385 0.067069866 -0.18750067 0.07030037 -0.08545457 0.016518392 -0.115643285
-0.09632642 -0.088200614 0.01400869 -0.05381918 -0.02945349 0.2180999 -0.019824691 -0.020023929
0.03783788 -0.09066824 -0.052940264 0.10772282 -0.15478435 -0.09273914 -0.031049717 0.10822852
0.06054466 0.03316675 0.12424875 -0.0022243662 0.016614016 -0.06474301 0.107092895 -0.09426862
0.08285878 0.03385543 0.030723866 0.10854433 -0.053889014 0.030864213 0.07799349 0.0077638743
0.014576143 0.07601544 0.06720622 0.034071192 -0.037147455 0.13443613 -0.054255787 -0.061823834
0.11600258 -0.112415165 0.08666289 0.021076517 -0.09947051 0.01699732 0.106769085 -0.043730054
-0.08449175 0.037892614 0.04851383 0.03301225 -0.023063952 0.14024834 0.04172573 0.007984593
0.15529293 0.00934112 0.0981566 0.004458654 -0.10326699 -0.07834345 0.081679955 -0.083715
-0.037826166 0.057988565 -0.097372584 0.1485537 0.07770322 -0.053684466 -0.014156018 -0.027541064
-0.04461098 0.021431265 0.03601514 -0.051145285 -0.057261687 -0.017352182 0.042928062 0.10674035
-0.03855257 0.039916094 0.057350446 -0.0999751 -0.18671542 0.20801169 -0.00034742313 0.09303833
-0.05092187 -0.01222932 -0.1404588 0.09274451 -0.052770857 -0.08314771 0.08658109 0.08084275
0.07071981 -0.09270153 -0.04746757 0.1175355 0.013134792 -0.012818041 0.16463102 -0.05845471
-0.01768496 0.12768967 -0.1669904 0.06280971 0.056533363 0.059638556 0.048581384 0.05726076
-0.120205246 -0.10888174 -0.042553406 0.07429185 -0.0067298505 0.045570232 -0.010069946 0.07444209
0.076638676 -0.04877084 -0.12267607 0.039881103 -0.08561425 -0.05908395 0.06377478 0.11385389
-0.06914607 -0.124022424 -0.0023942227 -0.06951561 -0.12764017 0.0009814529 0.14089014 -0.031932678
-0.11397169 0.2203365 0.04215032 0.14671338 -0.025874998 -0.046016663 0.17782731 0.03813187
0.006160585 -0.11156144 -0.10457099 0.08491545 -0.078234985 0.0009583879 0.15449831 -0.04220335
-0.12565973 -0.10136855 0.0745864 -0.009710298 -0.04462068 -0.13772346 0.014346814 0.022620669
0.093921654 0.040400993 0.07966569 -0.070769235 -0.057382118 0.018058615 0.04850904 -0.08803118
0.081798986 0.103226006 0.035696797 -0.034642406 -0.051887684 0.016565584 -0.010633266 0.13002275
-0.019360509 -0.065013096 -0.20738451 0.15768088 0.0012707929 -0.18808365 0.018856127 -0.019594772
0.10644331 0.012453087 0.036756653 -0.09937546 0.10360325 -0.049680598 0.15906717 -0.002777411
00000000: 92b5 50bd b9be a03d 1271 ec3c e31a 00be
00000010: b9f6 ec3c 3c2c aabd b4a7 0b3d 97b3 173d
00000020: 05c6 92bc 5c65 0d3d 048f 193e 881d 29bd
00000030: 419d 7ebd c451 84bb f3e2 ffbc 3aa4 52bd
00000040: 9bc0 8fbd fc27 c23d 7a12 f7bc 2b96 8fbd
00000050: 4568 773d b804 adbd 6ff9 a53d 3ff9 f7bc
00000060: f5ba ae3d 78f1 febd 1bfb eb3c 632b 9d3d
00000070: 6f6f d83d a8ae 8cbc 71eb 9bbd 5952 9f3c
00000080: 1afc 2abb bab5 7e3c dc21 dcbd ce3d 29bc
00000090: a579 9fbc 87d6 4abd 49ca 1d3d 9082 c83c
000000a0: a842 91bb 1cca 42bd fff7 3dbe bba8 ed3d
000000b0: 9fa2 15be 4cb5 b33c 6697 95bb ebe0 ea3d
000000c0: ffbe dc3c 6b6c aebd c840 93bd cbfc 583b
000000d0: 23d9 bebd d58d 04be b0d6 ba3d 0ab5 2c3e
000000e0: bac0 9c3d fae5 413e ed5b 893d 2d00 40be
000000f0: a4f9 8f3d ce02 afbd 9451 873c 63d6 ecbd
00000100: c946 c5bd 86a2 b4bd b484 653c 8071 5cbd
00000110: 7248 f1bc 9555 5f3e 6467 a2bc 3909 a4bc
00000120: e5fb 1a3d 45b0 b9bd e4d7 58bd c89d dc3d
00000130: ca7f 1ebe 05ee bdbd fa5b febc eaa6 dd3d
00000140: adfd 773d dcd9 073d 2176 fe3d acc6 11bb
00000150: 1e1a 883c fc97 84bd 8553 db3d e80f c1bd
00000160: ddb1 a93d feab 0a3d 9eb0 fb3c 7d4c de3d
00000170: baba 5cbd f2d6 fc3c 0dbb 9f3d 1968 fe3b
00000180: c6d0 6e3c fcad 9b3d 6aa3 893d 3c8e 0b3d
00000190: ee27 18bd a0a9 093e 513b 5ebd fd3a 7dbd
000001a0: c392 ed3d ec39 e6bd 507c b13d a9a8 ac3c
000001b0: 32b7 cbbd f73d 8b3c c0a9 da3d 491e 33bd
000001c0: 030a adbd 4935 1b3d 70b6 463d da37 073d
000001d0: 9df0 bcbc 439d 0f3e 99e8 2a3d cfd1 023c
000001e0: 1c05 1f3e 7f0b 193c 5406 c93d e719 923b
000001f0: a57d d3bd 8872 a0bd d247 a73d c572 abbd
00000200: 9cef 1abd 6b85 6d3d 476b c7bd 761e 183e
00000210: de22 9f3d 3ee4 5bbd a5ee 67bc cc9d e1bc
00000220: 01ba 36bd 9f90 af3c 9d84 133d b87d 51bd
00000230: 3b8b 6abd 2a26 8ebc 56d5 2f3d af9a da3d
00000240: 4de9 1dbd 0f7f 233d 4de8 6a3d bfbf ccbd
00000250: 5432 3fbe 0401 553e 5826 b6b9 e18a be3d
00000260: 7393 50bd 7c5d 48bc 6fd4 0fbe d5f0 bd3d
00000270: 4126 58bd 5949 aabd 6d51 b13d e290 a53d
00000280: 8cd5 903d 4dda bdbd 5b6d 42bd 74b6 f03d
00000290: 5033 573c c302 52bc 0995 283e 356e 6fbd
000002a0: 0de0 90bc 15c1 023e 88ff 2abe 61a2 803d
000002b0: 878f 673d 8f47 743d 46fd 463d 428a 6a3d
000002c0: 2b2e f6bd 64fd debd 7b4c 2ebd 5326 983d
000002d0: 1486 dcbb daa7 3a3d 6afc 24bc 1875 983d
000002e0: bdf4 9c3d efc3 47bd 973d fbbd 5e5a 233d
000002f0: 8656 afbd 0302 72bd 5a9c 823d 3a2c e93d
00000300: 749c 8dbd 78ff fdbd 64e8 1cbb 335e 8ebd
00000310: 1bb4 02be 18a4 803a 8145 103e d7cb 02bd
00000320: fd69 e9bd e49f 613e d0a5 2c3d 083c 163e
00000330: cef7 d3bc f87b 3cbd 5d18 363e 2a30 1c3d
00000340: bcde c93b 537a e4bd 5129 d6bd 27e8 ad3d
00000350: aa39 a0bd 533c 7b3a ce34 1e3e 6cdd 2cbd
00000360: f2ac 00be 509a cfbd c1c0 983d f117 1fbc
00000370: 2dc4 36bd 6107 0dbe e60e 6b3c fb4e b93c
00000380: ff59 c03d 837b 253d c427 a33d 76ef 90bd
00000390: 8309 6bbd a9ef 933c 6ab1 463d b149 b4bd
000003a0: 3a86 a73d 2868 d33d ce36 123d 32e5 0dbd
000003b0: 2e88 54bd 8cb4 873c 2637 2ebc af24 053e
000003c0: ee99 9ebc 9625 85bd 9b5c 54be 1977 213e
000003d0: bc90 a63a 0099 40be 2a78 9a3c 3785 a0bc
000003e0: f3fe d93d 0808 4c3c 258e 163d 5c85 cbbd
000003f0: f12d d43d e27d 4bbd 81e2 223e 3905 36bb

model.rnn.weight_hh_l0 f4 [240, 60]
0.1461823 -0.097867504 -0.15882203 -0.048207447 0.066715375 -0.10107951 0.044028733 0.09281652
-0.105166905 -0.13908279 0.06279379 -0.10709717 -0.09346806 -0.05603696 -0.020921879 -0.044186026
-0.015019482 -0.04774313 -0.15142278 0.07164869 0.1040421 -0.11297019 -0.080151476 -0.14029919
0.061978113 -0.073508814 0.115686394 -0.032417983 0.15431108 -0.13490419 -0.12829286 0.053973764
-0.0076713543 -0.05386278 -0.15328771 -0.11030949 -0.083943196 -0.13555136 0.043610036 -0.096302375
-0.091016635 0.067435004 0.03450323 -0.1269458 0.17524415 -0.045613054 -0.07581009 0.109984554
-0.08233723 -0.12757012 0.101811 0.05385475 -0.081250496 -0.066465855 0.12602325 0.080188386
0.054638684 0.025116466 0.052732784 -0.03480513 0.0069031455 0.065927975 -0.19707097 -0.1323898
-0.04212245 -0.05927243 0.106626734 0.19352637 -0.12982109 -0.18783988 0.11545633 -0.007318489
-0.02777549 0.15556964 -0.19018507 0.13515453 0.07870112 -0.18267004 -0.030477153 0.053230826
0.076023705 -0.091329224 -0.1411486 -0.1353827 0.1261911 -0.13428622 0.11234679 0.0017785479
-0.02368738 0.0059242593 -0.015283111 0.059699293 -0.031559855 -0.011150657 -0.08716996 -0.15107518
-0.040832926 -0.1418997 -0.022687815 -0.09210139 0.06640605 0.06304471 0.099000834 0.002847333
-0.13062409 0.006955824 -0.030883987 -0.09583085 -0.18009123 -0.19187462 0.15294072 0.032591175
-0.026255926 0.11512432 0.17278624 -0.18711801 0.08921815 0.0012802063 0.14496882 0.17728199
0.014688406 0.074837364 -0.05994161 -0.079908065 0.028633673 0.108994834 -0.0964229 -0.067635305
0.09336733 -0.06438179 0.00022348727 0.047668144 0.035203498 0.029197397 -0.02727187 0.09041277
0.119137436 0.08606526 -0.07055278 0.09980215 0.075177655 -0.120383166 0.06102639 -0.12695502
0.058464643 0.018073687 0.020168394 0.08624753 -0.07128477 0.09569469 -0.13568236 -0.09723281
0.0738003 0.0005282843 0.032461293 -0.11056254 -0.061057653 0.077316746 -0.16554382 0.0974602
0.10686697 -0.036091767 0.07627649 0.036561176 0.09489746 0.0820698 0.07782913 -0.062024366
-0.08414981 0.019083742 0.052227348 0.18359727 -0.021005878 0.06685901 -0.054171838 0.0009861655
-0.1003641 -0.014466116 0.09105038 0.027659794 0.16325247 -0.089811094 -0.19460684 -0.011306514
0.1875537 0.012144677 0.11284601 0.106152 -0.16842845 0.038337927 0.05183059 -0.08461233
-0.112116575 -0.11875771 0.028659156 0.08009814 0.08049961 -0.14834611 -0.14587142 0.1088639
0.10975588 0.063082814 -0.09884428 -0.121745564 0.0626342 -0.14132841 0.108548425 0.07392039
0.011513751 -0.09879735 -0.13584314 0.08318258 0.031757507 0.15339358 -0.14330098 -0.16199283
-0.16936056 0.058392473 -0.010598089 -0.1544271 0.15520449 0.04734269 -0.052736145 -0.17146216
0.08796976 0.035432957 0.14757302 0.04551587 -0.0430763 -0.03650473 -0.027969416 0.082045384
-0.013106705 0.14800112 -0.08036308 0.021801744 -0.018729491 -0.102839775 0.07085232 0.1398194
-0.037313793 0.010030127 -0.033006247 -0.08509941 0.11103836 0.06358753 0.13534234 0.033049863
0.00021312182 -0.083272524 -0.006790653 -0.108457826 -0.07473629 0.025090283 -0.19754896 0.13429432
00000000: d0b0 153e c26e c8bd 3ea2 22be 2c75 45bd
00000010: 12a2 883d c602 cfbd 7957 343d 9616 be3d
00000020: bf61 d7bd b86b 0ebe 089a 803d c355 dbbd
00000030: 2f6c bfbd 0387 65bd 5c64 abbc 68fc 34bd
00000040: 4614 76bc 4d8e 43bd 930e 1bbe 8cbc 923d
00000050: 0614 d53d ea5c e7bd 7526 a4bd 97aa 0fbe
00000060: c3dc 7d3d ca8b 96bd fdec ec3d b8c8 04bd
00000070: b903 1e3e 5324 0abe 345f 03be 9813 5d3d
00000080: fc5f fbbb 389f 5cbd 74f7 1cbe f1e9 e1bd
00000090: 69ea abbd facd 0abe 70a0 323d 2e3a c5bd
000000a0: ee66 babd 5d1b 8a3d 4253 0d3d 14fe 01be
000000b0: 3473 333e c1d4 3abd 5242 9bbd 953f e13d
000000c0: 6ca0 a8bd bea1 02be 4982 d03d cc96 5c3d
000000d0: a966 a6bd 401f 88bd 3d0c 013e cf39 a43d
000000e0: d0cc 5f3d 0cc1 cd3c 55fe 573d d38f 0ebd
000000f0: c833 e23b 3f05 873d f9cc 49be 3191 07be
00000100: 9788 2cbd a6c7 72bd 1e5f da3d c72b 463e
00000110: d2ef 04be 1959 40be 5e74 ec3d efcf efbb
00000120: 6d89 e3bc a64d 1f3e e0bf 42be f365 0a3e
00000130: 0e2e a13d db0d 3bbe 39ab f9bc 9108 5a3d
00000140: 51b2 9b3d d10a bbbd 4289 10be c3a1 0abe
00000150: 3d38 013e 5482 09be 1316 e63d 2a1e e93a
00000160: 090c c2bc 4a20 c23b 0366 7abc 3f87 743d
00000170: e844 01bd 3fb1 36bc 2a86 b2bd 74b3 1abe
00000180: 6d40 27bd 284e 11be ccdb b9bc a79f bcbd
00000190: e5ff 873d 961d 813d f3c0 ca3d 529a 3a3b
000001a0: 52c2 05be aeed e33b 6a00 fdbc f742 c4bd
000001b0: d669 38be c87a 44be 7e9c 1c3e 537e 053d
000001c0: ab16 d7bc 4dc6 eb3d e0ee 303e dd9b 3fbe
000001d0: 01b8 b63d 98cc a73a b572 143e 6989 353e
000001e0: a4a7 703c 5544 993d 5585 75bd d7a6 a3bd
000001f0: 2a91 ea3c af38 df3d 5f79 c5bd 6184 8abd
00000200: 5f37 bf3d 9ada 83bd e857 6a39 ac3f 433d
00000210: 8b31 103d 612f ef3c 4269 dfbc 552a b93d
00000220: 54fe f33d fc42 b03d fa7d 90bd 1265 cc3d
00000230: bef6 993d 738b f6bd cff6 793d 7f00 02be
00000240: 9f78 6f3d 450f 943c 3038 a53c 8ca2 b03d
00000250: c0fd 91bd 94fb c33d 51f0 0abe ff21 c7bd
00000260: 9d24 973d 8f7c 0a3a 22f6 043d 9d6e e2bd
00000270: 9717 7abd 3e58 9e3d 5284 29be 3799 c73d
00000280: 12dd da3d f6d4 13bd d936 9c3d 2cc1 153d
00000290: 9959 c23d 3614 a83d e164 9f3d 430d 7ebd
000002a0: bc56 acbd 8255 9c3c 58ec 553d ec00 3c3e
000002b0: 8514 acbc 60ed 883d 4ae3 5dbd 3942 813a
000002c0: b18b cdbd 4a03 6dbc 9f78 ba3d cb96 e23c
000002d0: a82b 273e e1ee b7bd 0447 47be f53e 39bc
000002e0: 140e 403e 78fa 463c cf1b e73d 3866 d93d
000002f0: 8278 2cbe 3b08 1d3d 504c 543d 3b49 adbd
00000300: 609d e5bd 3e37 f3bd 9bc6 ea3c 7e0a a43d
00000310: fbdc a43d 0be8 17be 515f 15be 09f4 de3d
00000320: b1c7 e03d 9031 813d df6e cabd bd55 f9bd
00000330: 5c46 803d 65b8 10be a34e de3d 9363 973d
00000340: 2ca4 3c3c 4456 cabd 771a 0bbe a15b aa3d
00000350: 2914 023d 3513 1d3e 7ebd 12be 73e1 25be
00000360: db6c 2dbe f22c 6f3d 9ba3 2dbc 2322 1ebe
00000370: eded 1e3e 69ea 413d db01 58bd c793 2fbe
00000380: 7d29 b43d 2622 113d 621d 173e d96e 3a3d
00000390: c670 30bd fc85 15bd 1e20 e5bc 6907 a83d
000003a0: 81bd 56bc 9b8d 173e 6695 a4bd 9299 b23c
000003b0: 976e 99bc a99d d2bd 051b 913d d12c 0f3e
000003c0: 59d6 18bd 6755 243c 8f31 07bd 9948 aebd
000003d0: 1468 e33d 2e3a 823d 2f97 0a3e 4b5f 073d
000003e0: 7479 5f39 c98a aabd 2084 debb 231f debd
000003f0: 570f 99bd 238a cd3c 464a 4abe 7384 093e

model.rnn.bias_ih_l0 f4 [240]
0.06429787 0.18912451 0.1304839 -0.008641274 -0.011118835 -0.07646529 0.114252634 0.12812626
0.15160075 -0.0039998773 0.070081614 -0.010319546 0.059335712 0.01286179 0.16373424 0.14672446
-0.028388862 0.17293914 0.06673791 0.196841 0.03522612 0.07212975 -0.018615391 -0.057538625
0.06162561 0.011285555 -0.013995252 0.13120946 0.058638074 0.058862057 -0.034630034 -0.06687752
-0.03207029 -0.08031671 0.115460135 0.15047581 0.06151137 -0.011682462 0.09506441 0.014920661
-0.033604242 -0.079727426 0.11553347 -0.0063558063 0.016248113 0.05450455 0.09821614 0.12507962
0.07209122 0.021415591 0.14875355 0.14044273 0.049460124 0.06495014 0.06403194 -0.001669671
0.07593424 0.17749964 -0.074200526 0.044943243 0.14658682 -0.077246256 0.12610132 0.0644896
0.08472701 0.038548496 -0.032908235 -0.11747781 -0.008680068 -0.042654105 -0.012130547 0.041178875
-0.078748874 -0.10993779 -0.0018609106 -0.05205502 0.11097248 0.05113089 0.06615791 0.116395265
-0.075012974 -0.022041049 0.040431336 0.026222754 -0.12655209 -0.036249567 0.021856904 -0.022266895
-0.018448869 0.0071837977 0.0010124883 0.022398703 -0.021910487 -0.06784986 0.0055254954 0.08964813
-0.012856836 0.12678754 0.047522858 0.054693397 0.025896007 0.12588333 0.11619406 0.120799966
-0.086533695 -0.101731285 0.13004944 -0.0016562422 0.06735832 0.03657814 0.06567577 0.12088234
-0.0599556 0.068616696 0.014717603 0.122768454 -0.041724365 0.06015419 0.01926847 0.058945127
0.12403563 0.00889715 -0.07711644 0.06062781 0.016775606 0.00021442969 0.0065822937 0.10263401
0.0812312 -0.11759413 0.039132584 -0.10222738 0.11282412 -0.024088817 -0.08300365 -0.0068372693
-0.07863704 0.017554278 0.10659614 0.025184996 0.103363976 0.030212864 -0.120022625 0.0973478
0.009643446 0.0679014 0.0018358653 -0.020470591 0.034419633 -0.09275295 -0.06744326 0.007732338
-0.094930805 0.019125855 -0.08627241 -0.04545929 -0.1453716 -0.07889971 -0.056211125 0.06503246
-0.09405077 -0.06472438 0.089507304 -0.13741183 -0.076251164 -0.08822627 0.051128212 0.02020583
0.028539732 0.07101819 0.07788676 -0.03016658 -0.14531523 -0.08864563 -0.09870654 -0.13541208
-0.009139251 -0.071665935 0.099428914 0.09750051 0.13513063 0.11783556 0.053697884 0.06567851
0.04478143 0.16847438 0.04265426 0.075681865 0.17967185 0.032307234 -0.10859883 0.09932087
-0.0047134208 -0.0638992 -0.015048559 -0.032012813 0.15610695 0.039412815 0.008020005 0.055880878
-0.0031260045 0.18635528 0.1545766 0.048497684 -0.08437992 -0.06860485 0.10955507 0.06317373
0.12697001 -0.03947377 -0.06146622 -0.0063396087 0.09085564 -0.06443685 0.043185316 -0.044389352
-0.09368441 -0.03220919 0.06938174 0.03688875 0.07762934 0.046939556 0.008511424 -0.033075396
-0.10181774 -0.026452458 -0.07186383 0.04962969 0.08201952 0.05806708 0.12338603 0.053093307
0.080402166 -0.07129454 0.07497525 0.03387662 -0.029815929 0.18763418 -0.12077029 0.046955787
00000000: 9aae 833d dba9 413e 929d 053e 2194 0dbc
00000010: c62b 36bc d599 9cbd 49fd e93d 8833 033e
00000020: 3a3d 1b3e 6711 83bb f386 8f3d 5013 29bc
00000030: 010a 733d 42ba 523c f3a9 273e f03e 163e
00000040: c28f e8bc f516 313e e3ad 883d b090 493e
00000050: 4449 103d c3b8 933d 4e7f 98bc 9fad 6bbd
00000060: 236b 7c3d 0ce7 383c 574c 65bc c65b 063e
00000070: 7a2e 703d 5719 713d 39d8 0dbd 15f7 88bd
00000080: 235c 03bd 167d a4bd 5d76 ec3d 5516 1a3e
00000090: 59f3 7b3d cc67 3fbc 21b1 c23d ca75 743c
000000a0: 9aa4 09bd 2248 a3bd d09c ec3d 5e44 d0bb
000000b0: c31a 853c 2a40 5f3d 8b25 c93d df14 003e
000000c0: 90a4 933d c06f af3c da52 183e 38d0 0f3e
000000d0: b396 4a3d 9404 853d 2e23 833d ddd8 daba
000000e0: 6983 9b3d 77c2 353e 72f6 97bd 6816 383d
000000f0: db1a 163e 4933 9ebd b420 013e 2013 843d
00000100: 5b85 ad3d 07e5 1d3d c9ca 06bd 3598 f0bd
00000110: d836 0ebc 12b6 2ebd 34bf 46bc 2eab 283d
00000120: 1747 a1bd 1027 e1bd cce9 f3ba a537 55bd
00000130: 8a45 e33d a06e 513d cc7d 873d a460 ee3d
00000140: 67a0 99bd 6e8f b4bc 549b 253d 1ad1 d63c
00000150: df96 01be 6d7a 14bd 400d b33c 1069 b6bc
00000160: 1522 97bc 1066 eb3b 78b5 843a 7c7d b73c
00000170: 9f7d b3bc def4 8abd 370f b53b 7099 b73d
00000180: 7ba5 52bc 98d4 013e 54a7 423d 2f06 603d
00000190: dd23 d43c 8fe7 003e 27f7 ed3d f965 f73d
000001a0: 9438 b1bd 7e58 d0bd ae2b 053e 4416 d9ba
000001b0: 29f3 893d f6d2 153d 0581 863d 2991 f73d
000001c0: 0194 75bd e986 8c3d 1a22 713c 076e fb3d
000001d0: 2be7 2abd 3d64 763d e9d8 9d3c 7270 713d
000001e0: 6406 fe3d 5ac5 113c 39ef 9dbd de54 783d
000001f0: ff6c 893c 88d8 6039 48b0 d73b c831 d23d
00000200: 8b5c a63d 31d5 f0bd 7d49 203d 975c d1bd
00000210: 5510 e73d e955 c5bc d1fd a9bd 2c0b e0bb
00000220: 750c a1bd fdcd 8f3c 144f da3d c450 ce3c
00000230: 7eb0 d33d f880 f73c 6cce f5bd 495e c73d
00000240: 8bff 1d3c e40f 8b3d 6ba1 f03a f1b1 a7bc
00000250: 9afb 0c3d 42f5 bdbd b11f 8abd 8d5f fd3b
00000260: 156b c2bd d3ad 9c3c 97af b0bd 8533 3abd
00000270: 4bdc 14be 2c96 a1bd a33d 66bd bd2f 853d
00000280: b19d c0bd 378e 84bd 9b4f b73d b0b5 0cbe
00000290: 9229 9cbd faaf b4bd d16b 513d b286 a53c
000002a0: 28cc e93c fc71 913d 1883 9f3d e71f f7bc
000002b0: 84cd 14be d78b b5bd a826 cabd 77a9 0abe
000002c0: ccbc 15bc 97c5 92bd 63a1 cb3d 59ae c73d
000002d0: af5f 0a3e c553 f13d 50f2 5b3d 7482 863d
000002e0: bc6c 373d 8c84 2c3e 3cb6 2e3d 18ff 9a3d
000002f0: e6fb 373e 9754 043d 1069 debd be68 cb3d
00000300: 0a73 9abb 95dd 82bd 3b8e 76bc de1f 03bd
00000310: 80da 1f3e 556f 213d 5766 033c 59e3 643d
00000320: a7dd 4cbb ebd3 3e3e 5449 1e3e 82a5 463d
00000330: 61cf acbd b380 8cbd 695e e03d 3b61 813d
00000340: 6d04 023e 3faf 21bd 01c4 7bbd 7ebc cfbb
00000350: 8612 ba3d 78f7 83bd 16e3 303d 9cd1 35bd
00000360: 9ddd bfbd c9ed 03bd 0418 8e3d a818 173d
00000370: 22fc 9e3d b143 403d 8073 0b3c 117a 07bd
00000380: d285 d0bd d3b2 d8bc 582d 93bd 8048 4b3d
00000390: daf9 a73d bfd7 6d3d d1b1 fc3d 5e78 593d
000003a0: e4a9 a43d df02 92bd a08c 993d 36c2 0a3d
000003b0: 8940 f4bc 2d23 403e 6a56 f7bd b654 403d

model.rnn.bias_hh_l0 f4 [240]
0.17058702 0.18313766 0.10749812 0.15846173 0.021289226 0.11266103 0.17576583 -0.03231438
0.076354675 0.034483213 0.1509898 0.11544979 0.22471397 -0.11080499 0.11988647 -0.04166031
-0.07626484 -0.05538491 0.14017494 0.058230884 0.09558773 -0.0264759 0.15364459 0.036355633
0.057650644 -0.043038715 0.07676854 0.027089875 0.048704382 0.11583256 0.01754708 0.13749981
0.06866768 -0.09926369 0.12413446 0.027368633 -0.074882284 -0.055904955 -0.09615371 -0.00841869
-0.048059314 -0.027991379 0.13696393 0.032570254 0.026688144 0.12537463 -0.09612122 0.0967111
0.019349925 -0.010969721 0.014326439 -0.082776934 -0.07436386 -0.052848235 0.05120312 -0.06819244
0.05684876 0.052947614 0.11763788 0.006946498 0.16492718 -0.13145046 0.07101362 -0.106080264
0.05116491 0.0002604064 0.09575876 0.01382609 -0.08463253 -0.007999444 0.039780613 0.12045462
-0.06638529 0.090240605 -0.08255308 0.11781122 0.020000303 0.044726685 0.15540683 -0.007205339
-0.10114923 0.09513651 -0.09310553 -0.0972322 -0.11852417 0.06585397 0.09116352 -0.07221168
0.075147286 -0.1089373 0.14145711 0.044805106 -0.076435536 0.0029497927 -0.07800225 0.106758565
0.028568225 -0.0027078474 0.10342909 -0.02719205 0.10609531 0.031945918 0.0821745 0.11644194
0.13074821 0.10783882 0.053294547 -0.06991172 0.012200925 0.07556392 -0.08336739 -0.04390243
0.12580127 0.0859631 0.0061364304 0.045283657 -0.019676514 0.06636864 0.03949552 0.10904499
0.1509614 -0.020865541 -0.022627842 0.043225106 -0.07338926 -0.061012223 0.12564175 0.06204196
-0.11709673 0.011575018 -0.11627683 0.13851398 -0.07449001 0.0023849695 0.0064499755 0.118026115
0.059933774 -0.073202275 0.096859485 -0.02161526 0.113274276 -0.014321164 -0.055180274 0.007934321
0.042100526 -0.12992224 0.07842383 -0.014814536 -0.02599936 -0.12997465 -0.039195657 -0.09336767
-0.068794094 0.09636428 -0.07824045 -0.10925617 0.035063066 -0.036232006 -0.12899046 0.09381388
0.032965917 0.01482591 0.08592553 -0.097335234 -0.063172154 -0.0063900193 -0.027234191 0.106554285
-0.007808568 -0.074295245 0.067944705 0.034625296 -0.016317314 0.101357475 -0.07241903 -0.1240968
-0.110128134 -0.0494229 -0.13605836 0.087938 0.013302171 0.11337862 -0.075683735 0.08969262
0.020516193 -0.078336306 -0.012496912 -0.02751417 0.11198593 0.0762379 0.12402197 0.046869513
0.17013673 -0.10212977 0.068820395 0.04603015 0.09526217 0.029452292 0.094601944 0.16340363
-0.031377368 0.064820066 -0.0525181 -0.033222992 -0.07223821 -0.0728994 0.057772726 0.092367895
0.15486294 0.1128429 -0.0036844974 -0.028697457 0.19049697 0.04746451 0.1150628 0.1024263
-0.032034297 0.09339629 -0.05688552 0.013633627 0.053160198 0.17192595 -0.0027534238 0.10599834
0.014651212 0.047286157 0.08098819 0.15722208 -0.0053022015 0.034256056 0.10156867 0.03328233
0.13330641 0.021466684 0.11339205 0.033380534 -0.014419454 0.18652003 -0.0933499 0.1346087
00000000: 5dae 2e3e 7088 3b3e f927 dc3d cb43 223e
00000010: be66 ae3c d3ba e63d f5fb 333e 155c 04bd
00000020: d75f 9c3d 453e 0d3d 129d 1a3e f170 ec3d
00000030: 6b1b 663e baed e2bd 0a87 f53d 00a4 2abd
00000040: be30 9cbd 4adb 62bd 058a 0f3e 8283 6e3d
00000050: 80c3 c33d fde3 d8bc 0255 1d3e a5e9 143d
00000060: 1523 6c3d 5d49 30bd d338 9d3d 96eb dd3c
00000070: 3f7e 473d 9f39 ed3d e5be 8f3c c0cc 0c3e
00000080: a4a1 8c3d c34a cbbd 353a fe3d 2f34 e03c
00000090: e25b 99bd 98fc 64bd 3cec c4bd 8cee 09bc
000000a0: d8d9 44bd 2d4e e5bc 4640 0c3e 6368 053d
000000b0: 18a1 da3c 3562 003e 34db c4bd 7810 c63d
000000c0: bc83 9e3c 58ba 33bc 71b9 6a3c f486 a9bd
000000d0: 144c 98bd 6477 58bd 5dba 513d 7aa8 8bbd
000000e0: 3fda 683d 99df 583d 21ec f03d 739f e33b
000000f0: ace2 283e f39a 06be 976f 913d 9c40 d9bd
00000100: 4c92 513d 2887 8839 2b1d c43d d386 623c
00000110: d253 adbd 1a10 03bc fff0 223d e9b0 f63d
00000120: 03f5 87bd 11d0 b83d 9711 a9bd 0247 f13d
00000130: add7 a33c 5433 373d f822 1f3e c41a ecbb
00000140: 5427 cfbd eed6 c23d 1dae bebd ad21 c7bd
00000150: cdbc f2bd 72de 863d f1b3 ba3d b8e3 93bd
00000160: d2e6 993d 851a dfbd 22da 103e 8f85 373d
00000170: 3c8a 9cbd 4f51 413b a5bf 9fbd 3ca4 da3d
00000180: e907 ea3c 2476 31bb a1d2 d33d ddc1 debc
00000190: 7f48 d93d b9d9 023d 1b4b a83d 1d79 ee3d
000001a0: dce2 053e 99da dc3d 624b 5a3d e02d 8fbd
000001b0: 63e6 473c 42c1 9a3d 86bc aabd 09d3 33bd
000001c0: 0cd2 003e 6c0d b03d 1c14 c93b 5b7b 393d
000001d0: a430 a1bc 48ec 873d 0ec6 213d fb52 df3d
000001e0: a095 1a3e 36ee aabc 065e b9bc cf0c 313d
000001f0: 1c4d 96bd f4e7 79bd 3ba8 003e b61f 7e3d
00000200: 69d0 efbd 25a5 3d3c 8c22 eebd 9cd6 0d3e
00000210: 388e 98bd 264d 1c3b 515a d33b adb7 f13d
00000220: 1e7d 753d 13eb 95bd 445e c63d 7c12 b1bc
00000230: 58fc e73d 51a3 6abc b604 62bd f4fe 013c
00000240: 9a71 2c3d 560a 05be ac9c a03d abb8 72bc
00000250: 9cfc d4bc 1318 05be a08b 20bd 8d37 bfbd
00000260: ebe3 8cbd a35a c53d 873c a0bd b3c1 dfbd
00000270: 4a9e 0f3d 0368 14bd 1316 04be 7e21 c03d
00000280: 4507 073d 60e8 723c b9f9 af3d b257 c7bd
00000290: 6760 81bd 5e63 d1bb 3d1a dfbc 2239 da3d
000002a0: 04df ffbb 1b28 98bd 9826 8b3d 41d3 0d3d
000002b0: e3ab 85bc 8294 cf3d 6e50 94bd 7726 febd
000002c0: dc8a e1bd ab6f 4abd e252 0bbe d718 b43d
000002d0: 59f1 593c 0d33 e83d 1300 9bbd c4b0 b73d
000002e0: 9311 a83c c96e a0bd d9bf 4cbc 6665 e1bc
000002f0: e158 e53d 9e22 9c3d 3bff fd3d 3ffa 3f3d
00000300: 5338 2e3e 6a29 d1bd b5f1 8c3d 1c8a 3c3d
00000310: d018 c33d ef45 f13c aabe c13d 4853 273e
00000320: 8e85 00bd 62c0 843d 381d 57bd d514 08bd
00000330: a0f1 93bd 484c 95bd 18a3 6c3d 612b bd3d
00000340: 6494 1e3e 2e1a e73d 9c77 71bb ee16 ebbc
00000350: a311 433e 256a 423d 0ca6 eb3d e1c4 d13d
00000360: 6536 03bd 8e46 bf3d cb00 69bd 945f 5f3c
00000370: 82be 593d 5b0d 303e c972 34bb a815 d93d
00000380: a30b 703c 21af 413d 23dd a53d d3fe 203e
00000390: 17be adbb 1450 0c3d 3c03 d03d 0d53 083d
000003a0: 7a81 083e e6da af3c 173a e83d 07ba 083d
000003b0: 933f 6cbc 1bff 3e3e 3b2e bfbd ddd6 093e

model.rnn.weight_ih_l1 f4 [240, 60]
-0.10071679 0.053020693 -0.082873575 0.04368879 -0.018411351 -0.094352774 0.017664263 -0.0147718815
-0.15471286 -0.13482451 -0.022727171 0.07678671 0.069168046 0.07045593 0.07644214 0.12740514
-0.0339335 0.0047059087 -0.14419533 -0.10752182 0.0644459 0.0069400934 -0.077185065 -0.14495516
-0.08197338 -0.12422471 -0.11089313 0.03356531 0.13078493 -0.14977448 -0.13602391 0.0030800928
-0.14627272 0.009757222 -0.0002768524 0.099331886 -0.0006939946 -0.06825825 -0.047512364 0.07469489
0.013295991 0.0017283341 0.01931492 0.029461278 -0.033267498 -0.00037283485 -0.00915268 0.04387059
0.0028217116 -0.044762585 -0.07714426 0.118302844 0.073330306 0.08098819 -0.08748838 -0.0352713
0.14766048 -0.074194275 0.07101423 0.06753195 -0.11571424 0.15451607 -0.11563832 0.094457634
0.0029698582 0.021867685 0.067815594 -0.0151017085 -0.037778445 -0.0024293212 0.09517464 0.02433547
0.08776133 0.102101594 -0.089293316 -0.107441776 0.068764 0.105037145 0.0721057 -0.0034622618
-0.043123305 -0.05473031 0.019525412 -0.059383143 0.09907052 -0.009536665 0.05698631 0.0029137596
0.11267136 0.0792921 -0.022596734 -0.02280279 -0.083533086 0.05755451 0.026754277 -0.14048855
0.01529253 -0.03019675 -0.015049988 -0.042939752 0.047452047 -0.07821719 -0.09851996 -0.095975175
-0.030404752 0.105404526 0.12583195 0.07700993 0.061233103 0.01436733 -0.071392 0.058417093
-0.13036242 0.12749709 -0.01997849 -0.08990708 -0.045710437 -0.14221804 0.11553845 0.017397812
0.037060343 0.043654785 -0.07316442 0.07765508 0.061768945 -0.07040753 -0.043919463 -0.033572502
-0.119011864 0.112039536 -0.07263144 0.052291088 -0.11184453 -0.027333105 -0.115374856 0.053858954
-0.023101257 0.11263403 -0.034451857 0.028476255 0.07990212 -0.00063488766 -0.0034839888 -0.1304255
0.1354981 0.066789545 -0.04747076 -0.04152083 0.18019064 -0.017809669 -0.06181973 0.12180398
-0.016848313 0.11433103 -0.023925547 -0.10131178 0.050317593 -0.046977315 -0.017926278 0.05507223
0.043229856 -0.17725262 -0.05845486 0.036819857 0.07553929 -0.0704446 -0.019829376 0.16895156
0.08228971 -0.11869695 -0.03837315 -0.023046803 0.0027261993 -0.053036746 -0.08908087 0.07473354
0.0441553 -0.028483324 0.061025675 -0.015429051 0.1617222 -0.14726302 -0.18007714 -0.11850932
-0.03698775 -0.15731388 0.12922661 0.18140776 0.010788613 -0.039379235 0.2076975 -0.12233905
0.022190897 0.07647986 -0.01450974 -0.002694564 0.02122389 -0.09244896 -0.021888142 -0.081410035
0.04606964 0.017365143 -0.098357655 0.030005857 0.16081339 -0.07537411 0.16377392 0.0447313
-0.052406266 -0.10773053 -0.17353226 -0.051666085 -0.101142205 0.16340293 -0.076575376 -0.03162849
0.007270583 -0.09105566 -0.1224398 0.021361329 0.16336611 0.0427933 0.09770339 -0.1785036
-0.03511754 0.004413603 0.17053807 -0.08078216 -0.14743295 0.03268103 0.08170897 0.11898481
-0.07600385 0.20969853 0.1403353 -0.039960362 -0.11047342 -0.013191098 0.04651149 0.16909061
-0.005859607 0.13302943 -0.050776888 -0.04414893 0.17618711 0.012270181 -0.019590527 -0.060861003
-0.18120955 -0.061789956 0.13106336 -0.21053655 -0.065395676 -0.057966202 -0.13139065 0.17094322
00000000: 9b44 cebd 3a2c 593d 9fb9 a9bd 04f3 323d
00000010: 67d3 96bc 073c c1bd a5b4 903c c305 72bc
00000020: 0c6d 1ebe 700f 0abe 552e babc 5a42 9d3d
00000030: faa7 8d3d 334b 903d b28d 9c3d 7e76 023e
00000040: dbfd 0abd 0634 9a3b f1a7 13be 6634 dcbd
00000050: 36fc 833d b969 e33b 3413 9ebd 206f 14be
00000060: a9e1 a7bd 8669 febd f01b e3bd c77b 093d
00000070: 7cec 053e 7b5e 19be da49 0bbe 62db 493b
00000080: 84c8 15be c1dc 1f3c 8026 91b9 846e cb3d
00000090: 30ed 35ba fbca 8bbd 539c 42bd a2f9 983d
000000a0: 6ed7 593c 4589 e23a 533a 9e3c c758 f13c
000000b0: 8043 08bd 0c79 c3b9 1ff5 15bc a6b1 333d
000000c0: 77ec 383b f958 37bd cffd 9dbd c348 f23d
000000d0: 332e 963d 23dd a53d 1c2d b3bd a378 10bd
000000e0: 4f34 173e 2bf3 97bd e96f 913d 314e 8a3d
000000f0: 96fb ecbd 7639 1e3e c9d3 ecbd 0173 c13d
00000100: f4a1 423b dc23 b33c e7e2 8a3d 286d 77bc
00000110: 92bd 1abd 3f35 1fbb ecea c23d 2e5b c73c
00000120: 36bc b33d a41a d13d 6adf b6bd 6f0a dcbd
00000130: 24d4 8c3d b71d d73d 27ac 933d 1de7 62bb
00000140: 10a2 30bd e42c 60bd c2f3 9f3c bd3b 73bd
00000150: 7ce5 ca3d ac3f 1cbc 7a6a 693d c6f4 3e3b
00000160: 3ec0 e63d e663 a23d c91c b9bc ebcc babc
00000170: 6513 abbd 47be 6b3d c92b db3c 3bdc 0fbe
00000180: 858d 7a3c 2d5f f7bc 3a94 76bc 98e1 2fbd
00000190: 145d 423d 5630 a0bd d5c4 c9bd a28e c4bd
000001a0: 6313 f9bc 54de d73d 17da 003e 62b7 9d3d
000001b0: 90cf 7a3d f364 6b3c f835 92bd c346 6f3d
000001c0: ba7d 05be 998e 023e eea9 a3bc 3421 b8bd
000001d0: de3a 3bbd 9ba1 11be 6c9f ec3d db85 8e3c
000001e0: 96cc 173d 5ccf 323d 3ad7 95bd a009 9f3d
000001f0: 6f01 7d3d d331 90bd e5e4 33bd 5283 09bd
00000200: 7ebc f3bd fc74 e53d cbbf 94bd 2e2f 563d
00000210: bf0e e5bd ade9 dfbc a749 ecbd 359b 5c3d
00000220: d93e bdbc acac e63d 641d 0dbd 0947 e93c
00000230: b9a3 a33d 976e 26ba a253 64bb 438e 05be
00000240: 04c0 0a3e f5c8 883d b370 42bd bf11 2abd
00000250: e583 383e 95e5 91bc af36 7dbd 5d74 f93d
00000260: 7905 8abc 6326 ea3d 82ff c3bc 8d7c cfbd
00000270: d219 4e3d 496b 40bd 21da 92bc 6b93 613d
00000280: ca11 313d b681 35be 5d6e 6fbd 6bd0 163d
00000290: 58b4 9a3d 4245 90bd 3771 a2bc a301 2d3e
000002a0: 8287 a83d 6317 f3bd 2a2d 1dbd a6cc bcbc
000002b0: 09aa 323b 0f3d 59bd 0870 b6bd e60d 993d
000002c0: 30dc 343d dc55 e9bc 0ff6 793d 21ca 7cbc
000002d0: 819a 253e 1ecc 16be 2466 38be 04b5 f2bd
000002e0: 7880 17bd e416 21be fb53 043e f5c2 393e
000002f0: b9c2 303c 1f4c 21bd a7ae 543e e58c fabd
00000300: afc9 b53c 79a1 9c3d 43ba 6dbc 4897 30bb
00000310: b9dd ad3c e155 bdbd c34e b3bc 4eba a6bd
00000320: 85b3 3c3d 5841 8e3c bd6f c9bd d8ce f53c
00000330: 44ac 243e be5d 9abd 5ab4 273e 2b38 373d
00000340: f4a7 56bd d3a1 dcbd 71b2 31be d19f 53bd
00000350: a523 cfbd 1953 273e 8dd3 9cbd e08c 01bd
00000360: 123e ee3b 647b babd b8c1 fabd f4fd ae3c
00000370: 7249 273e 0748 2f3d b718 c83d a6c9 36be
00000380: 69d7 0fbd fc9f 903b 88a1 2e3e 1e71 a5bd
00000390: aaf8 16be 8bdc 053d 0857 a73d 4fae f33d
000003a0: e8a7 9bbd 36bb 563e 0fb4 0f3e 7aad 23bd
000003b0: e33f e2bd 7a1f 58bc d582 3e3d 1726 2d3e
000003c0: f201 c0bb de38 083e 6dfb 4fbd 82d5 34bd
000003d0: 656a 343e df08 493c 507c a0bc 6349 79bd
000003e0: ff8e 39be 7717 7dbd 7935 063e e596 57be
000003f0: 2bee 85bd f86d 6dbd 458b 06be bd0b 2f3e

model.rnn.weight_hh_l1 f4 [240, 60]
-0.04199228 -0.07338894 -0.035859622 0.1371072 -0.08491724 0.066329546 -0.024313956 0.053476565
-0.03349995 0.08027571 0.10448172 0.11640308 0.06758728 0.12825799 -0.059902597 0.06481727
-0.044958506 -0.08033999 -0.14835456 -0.024512576 -0.13552804 -0.12598956 -0.0801951 -0.111334994
0.019036612 0.010819631 0.005986398 0.1080693 -0.15546933 -0.06618419 -0.018142736 -0.15089293
-0.07475057 -0.017505094 0.09092385 -0.1503296 -0.07474087 -0.13368754 0.05140636 -0.06301283
0.13738923 0.14029303 -0.051682774 0.06318289 -0.115367204 0.07851115 0.0738053 0.13317844
-0.05421518 0.132641 -0.12318565 0.0037935164 -0.14103222 -0.081643656 -0.076569125 0.09880948
-0.05124548 0.0894612 0.11011939 0.06823293 -0.03363338 0.12210634 -0.055708222 0.10118863
-0.14465073 -0.102370575 0.031659752 -0.11242562 -0.09433152 0.09988692 0.06536194 -0.0536234
-0.13101439 -0.12206043 0.04000319 -0.10610437 0.033938073 -0.11259582 0.0030131734 -0.005431953
-0.039107136 0.015998736 0.027322667 -0.06792152 0.062174734 0.0044218367 0.06665608 -0.05926729
0.10500492 -0.06789059 -0.07434283 0.00080315943 0.12881659 0.105314896 -0.028298177 -0.06760887
0.064231694 0.04156076 -0.08330479 0.0066872137 -0.023018703 -0.11947261 0.09367895 0.081314504
-0.065019816 0.03603822 0.073831424 -0.06134655 -0.051324062 -0.028676426 -0.022217704 0.031596377
0.15263312 -0.106908165 0.06593618 0.046524115 0.0842984 0.005925688 -0.003783678 -0.109601825
0.12982568 0.029558126 -0.08622096 0.07479915 -0.12991403 0.014899942 0.0044219852 0.123986065
-0.048688963 0.1250707 -0.06406519 -0.07793474 0.054764148 -0.07308844 -0.011827249 0.030591842
0.07716987 -0.07137834 0.046689454 -0.024552407 0.016104016 -0.0856565 -0.006731567 0.11513443
-0.068618216 0.01223671 0.09379183 -0.048784472 0.06517916 -0.09423749 -0.09961337 -0.08248299
0.0621948 -0.020808032 0.07850173 -0.015634231 -0.12929992 0.043024883 0.017137418 -0.057969034
-0.068966165 0.123137355 -0.105123945 -0.013262666 -0.034790978 -0.065137 -0.06326491 0.08381343
0.051367007 -0.06891407 0.037965395 -0.09114774 0.06629563 0.11688244 -0.11198493 -0.04658304
0.065115355 0.13837549 0.07799818 -0.1419006 -0.114471935 0.19278233 0.005574177 0.037193958
-0.027382957 -0.13083884 -0.015436675 0.09037947 -0.14019775 0.07137858 -0.1404786 0.13562214
0.18122031 -0.026728496 0.13146055 0.04995394 -0.2046761 0.22267558 -0.11540025 -0.13666819
-0.05695399 -0.16386262 -0.0451272 0.00048576685 0.12607661 0.01789982 -0.10229871 0.062274456
0.016684936 0.15359849 -0.09643078 0.012316014 0.062880054 -0.09350143 -0.036480907 -0.204441
-0.19505492 -0.048725862 -0.04518776 -0.13603471 0.00022942934 -0.009255207 -0.024969805 0.099964485
0.054942604 -0.14220373 -0.16581546 0.054582942 0.004875805 0.15133807 -0.070450135 -0.1303223
0.019784765 -0.1306836 -0.17273101 0.05989965 -0.12774147 0.15939309 0.051478915 -0.07459884
-0.030952277 0.03918166 -0.007245257 0.17674668 0.10407893 -0.116365045 -0.14095375 0.09424369
-0.14296243 0.08546989 0.12085335 0.1280874 0.17845228 0.069559775 -0.025247643 0.009961169
00000000: 1900 2cbd f14c 96bd 8ae1 12bd d465 0c3e
00000010: 17e9 adbd c9d7 873d 102e c7bc 3e0a 5b3d
00000020: 3e37 09bd 9767 a43d 83fa d53d bd64 ee3d
00000030: 336b 8a3d 1056 033e 6d5c 75bd ebbe 843d
00000040: 6926 38bd 4b89 a4bd 42ea 17be 99ce c8bc
00000050: ddc7 0abe 6803 01be 543d a4bd 9a03 e4bd
00000060: abf2 9b3c d244 313c 8c29 c43b 7053 dd3d
00000070: 5a33 1fbe 948b 87bd 13a0 94bc ad83 1abe
00000080: d416 99bd d866 8fbc 4936 ba3d 01f0 19be
00000090: be11 99bd 63e5 08be 7a8f 523d df0c 81bd
000000a0: c3af 0c3e faa8 0f3e 51b1 53bd 0866 813d
000000b0: a445 ecbd 74ca a03d 3c27 973d ee5f 083e
000000c0: bd10 5ebd 0bd3 073e c248 fcbd a59c 783b
000000d0: c06a 10be ca34 a7bd 46d0 9cbd a05c ca3d
000000e0: c8e6 51bd 6f37 b73d 4686 e13d b5bd 8b3d
000000f0: 28c3 09bd e412 fa3d 4e2e 64bd fc3b cf3d
00000100: 521f 14be aaa7 d1bd a8ad 013d 673f e6bd
00000110: e230 c1bd 8391 cc3d 7bdc 853d 36a4 5bbd
00000120: a328 06be d2fa f9bd 63da 233d 3f4d d9bd
00000130: a602 0b3d a398 e6bd a978 453b 86fe b1bb
00000140: ce2e 20bd c80f 833c c9d3 df3c 701a 8bbd
00000150: efaa 7e3d 0ee5 903b fc82 883d 42c2 72bd
00000160: d20c d73d 390a 8bbd 0e41 98bd 1e8b 523a
00000170: 7fe8 033e 56af d73d 94d1 e7bc 8576 8abd
00000180: e88b 833d 9e3b 2a3d b49b aabd 6a20 db3b
00000190: b891 bcbc 0eae f4bd c0da bf3d 3888 a63d
000001a0: 1c29 85bd d09c 133d ee34 973d 8546 7bbd
000001b0: 2e39 52bd d3ea eabc e701 b6bc 346b 013d
000001c0: db4b 1c3e abf2 dabd 8c09 873d 1290 3e3d
000001d0: a4a4 ac3d 462c c23b 95f7 77bb ec76 e0bd
000001e0: 06f1 043e e223 f23c 9d94 b0bd 4c30 993d
000001f0: 2f08 05be e31e 743c 4de6 903b 68ec fd3d
00000200: 146e 47bd 8912 003e 9c34 83bd 409c 9fbd
00000210: 5f50 603d 64af 95bd 14c7 41bc be9b fa3c
00000220: 3d0b 9e3d cf2e 92bd 713d 3f3d 2122 c9bc
00000230: 92ec 833c ad6c afbd 7a94 dcbb 9acb eb3d
00000240: b587 8cbd 7b7c 483c ee15 c03d 3ad2 47bd
00000250: a77c 853d 96ff c0bd 1802 ccbd d8ec a8bd
00000260: f9bf 7e3d 9b75 aabc 84c5 a03d 5c13 80bc
00000270: 3367 04be dc3a 303d c563 8c3c f070 6dbd
00000280: 223e 8dbd 702f fc3d 394b d7bd a74b 59bc
00000290: fc80 0ebd 8c66 85bd 0891 81bd 60a6 ab3d
000002a0: 3666 523d d222 8dbd 9a81 1b3d abab babd
000002b0: 01c6 873d 1060 ef3d 5b58 e5bd dccd 3ebd
000002c0: 335b 853d 4eb2 0d3e 83bd 9f3d 644e 11be
000002d0: 4370 eabd bb68 453e 96a7 b63b b158 183d
000002e0: 3952 e0bc 9efa 05be 1cea 7cbc df18 b93d
000002f0: 0090 0fbe ef2e 923d 9fd9 0fbe 88e0 0a3e
00000300: d191 393e b8f5 dabc 989d 063e 819c 4c3d
00000310: 9d96 51be 1105 643e f756 ecbd bff2 0bbe
00000320: 9648 69bd 9acb 27be 4dd7 38bd 86ae fe39
00000330: 3a1a 013e a5a2 923c fc81 d1bd 8013 7f3d
00000340: d9ae 883c ec48 1d3e 807d c5bd 1bc9 493c
00000350: 42c7 803d ad7d bfbd 016d 15bd fb58 51be
00000360: 7abc 47be c594 47bd cd16 39bd af4c 0bbe
00000370: f892 7039 27a3 17bc 7a8d ccbc 2eba cc3d
00000380: 7f0b 613d db9d 11be 87cb 29be 5d92 5f3d
00000390: 38c5 9f3b 5ef8 1a3e 2948 90bd 3673 05be
000003a0: a913 a23c ecd1 05be 66e0 30be 5659 753d
000003b0: a9ce 02be f137 233e 8edb 523d 47c7 98bd
000003c0: a18f fdbc f37c 203d 9f69 edbb 15fd 343e
000003d0: 5627 d53d cc50 eebd 2e56 10be d602 c13d
000003e0: be64 12be d60a af3d f681 f73d 5829 033e
000003f0: 32bc 363e 5b75 8e3d 25d4 cebc 2c34 233c

model.rnn.bias_ih_l1 f4 [240]
-0.06675902 -0.061442018 0.12955703 0.10645143 0.030684805 -0.05989796 -0.01550402 -0.0073259566
-0.09129767 0.052646156 0.1333441 -0.121819295 -0.024788527 -0.043245427 0.08791584 0.09152611
0.107501626 -0.05523207 -0.09918537 0.1424285 -0.079073764 0.11643179 0.08192272 0.0172185
0.08705015 0.07787422 -0.027904082 0.1582879 0.052261952 -0.072403945 -0.010190909 0.03049158
0.04195847 0.09826929 -0.050050877 -0.08423294 0.012038375 -0.04491959 -0.083415344 -0.062387433
0.084110186 0.037695605 0.13631812 0.08135374 0.044398822 -0.02884073 0.074587785 0.07907616
0.02640301 -0.04613364 0.01802938 0.08799004 0.09901045 -0.074008726 -0.04337849 0.12798072
0.06224731 -0.053272054 0.106858514 0.0055203564 -0.014127162 0.13187997 0.12514722 0.06492785
-0.09304273 0.013561889 0.08920891 0.06526367 0.086828694 -0.031592846 0.042488202 -0.121107265
-0.09654377 -0.012776141 -0.10104765 -0.105312474 -0.0021511964 0.012426157 -0.08607684 0.030778386
0.052245095 -0.002139092 0.12879059 -0.023164613 0.11725527 0.0493682 0.06408541 -0.0019743652
0.10240471 0.12758456 0.017956706 0.080957875 -0.10071991 0.1020363 0.013946423 0.0077091153
0.1259019 0.007910363 -0.09927581 -0.10205448 0.06419795 0.086757004 -0.095061705 -0.04258958
-0.08622736 -0.07788686 -0.07934401 -0.010657236 0.017836025 0.046620686 0.055430274 0.012097738
0.0004903867 -0.08679178 -0.035696045 -0.097389676 0.101001464 -0.046732407 -0.09164025 -0.06361006
-0.00441265 0.022030493 0.022602204 0.01636534 -0.11992957 -0.06704564 0.030167738 -0.07332613
-0.12282576 -0.057807073 -0.051660396 0.009843668 -0.017748475 -0.053091526 -0.096513584 -0.027132934
-0.06275873 -0.0011568187 -0.043769345 0.058000207 -0.12015086 -0.1380774 0.12881786 -0.040988903
0.09052707 -0.01737031 0.10404218 0.11402286 -0.020152923 -0.09339712 0.017721744 -0.051550064
0.05325098 0.035887323 0.07642025 -0.075864196 -0.022081383 -0.124439806 0.09607262 0.048850864
0.103330374 -0.008096197 -0.113797754 0.056905173 0.12666593 -0.05240721 0.08892394 -0.0054727644
-0.027012415 -0.008687731 0.016190484 -0.06067036 -0.06746602 -0.09848319 0.093346626 -0.0031171604
-0.113496326 0.122777775 0.04864847 -0.07426649 -0.038411196 -0.11003003 0.076987155 0.14030588
0.13545339 0.020164978 -0.05190728 0.16282816 0.0711276 -0.010519182 0.025529051 0.099004336
0.09260863 0.056128573 0.07794084 0.03229332 0.08382986 0.099215105 -0.102255605 0.09971028
0.11283171 -0.06225405 -0.04744887 0.040410154 -0.10268898 0.13965558 0.0029480173 -0.023146084
0.09044069 0.11181673 0.0835975 0.10426166 -0.08546869 -0.012422144 0.11245777 -0.0072756745
-0.018522646 -0.10248456 0.055273272 0.11149507 0.13458586 -0.006495834 0.070694216 0.05775454
0.094684914 0.13688374 -0.11457446 -0.098749496 0.10451051 0.110070676 -0.011060095 0.030374667
0.027194351 -0.0737695 -0.09429161 0.08345091 -0.0970804 0.04554004 -0.027650472 0.037680265
00000000: f4b8 88bd a0aa 7bbd 99aa 043e 3503 da3d
00000010: b35e fb3c 9057 75bd 9304 7ebc 940e f0bb
00000020: 46fa babd 7fa3 573d 5b8b 083e 657c f9bd
00000030: 4f11 cbbc 1e22 31bd 380d b43d 0b72 bb3d
00000040: d029 dc3d 063b 62bd b321 cbbd c7d8 113e
00000050: 6df1 a1bd ca73 ee3d 19c7 a73d d00d 8d3c
00000060: 5947 b23d 857c 9f3d 1a97 e4bc 3916 223e
00000070: a110 563d 8548 94bd c5f7 26bc 7ac9 f93c
00000080: a5dc 2b3d 6941 c93d 2602 4dbd 5282 acbd
00000090: 9b3c 453c 9bfd 37bd aad5 aabd f789 7fbd
000000a0: f641 ac3d b566 1a3d fa96 0b3e ca9c a63d
000000b0: 8adb 353d 6543 ecbc 7bc1 983d aff2 a13d
000000c0: 204b d83c a1f6 3cbd 5ab2 933c 1f34 b43d
000000d0: fec5 ca3d e391 97bd a5ad 31bd 610d 033e
000000e0: 09f7 7e3d cc33 5abd a3d8 da3d 1be4 b43b
000000f0: 9d75 67bc 8b0b 073e 9826 003e e5f8 843d
00000100: 308d bebd af32 5e3c 29b3 b63d f6a8 853d
00000110: 3ed3 b13d 8067 01bd 1c08 2e3d 1607 f8bd
00000120: bdb8 c5bd 0553 51bc 12f2 cebd 11ae d7bd
00000130: 16fb 0cbb 1497 4b3c 0e49 b0bd f422 fc3c
00000140: f4fe 553d 0230 0cbb aee1 033e b7c3 bdbc
00000150: 8823 f03d 4f36 4a3d 363f 833d 5a64 01bb
00000160: 90b9 d13d 87a5 023e f119 933c 3ecd a53d
00000170: 3d46 cebd 68f8 d03d 8a7f 643c bf9c fc3b
00000180: 6dec 003e 789a 013c 1e51 cbbd f001 d1bd
00000190: 377a 833d a8ad b13d b6af c2bd 6972 2ebd
000001a0: f897 b0bd 2583 9fbd 1d7f a2bd b09b 2ebc
000001b0: db1c 923c 55f5 3e3d db0a 633d 9735 463c
000001c0: 4b8d 003a e4bf b1bd 0436 12bd 3d74 c7bd
000001d0: dbd9 ce3d 7b6a 3fbd e2ad bbbd fe45 82bd
000001e0: fe97 90bb 4b79 b43c 4228 b93c 9b10 863c
000001f0: a29d f5bd 394f 89bd 5522 f73c 032c 96bd
00000200: 128c fbbd 1cc7 6cbd da99 53bd 5647 213c
00000210: 4065 91bc 8076 59bd eaa8 c5bd e345 debc
00000220: a687 80bd 65a0 97ba 7c47 33bd a091 6d3d
00000230: a711 f6bd 2964 0dbe d4e8 033e fbe3 27bd
00000240: 4266 b93d 2e4c 8ebc 1114 d53d d184 e93d
00000250: be17 a5bc fd46 bfbd 312d 913c 2926 53bd
00000260: b31d 5a3d 96fe 123d 3882 9c3d b05e 9bbd
00000270: 04e4 b4bc 4cda febd b9c1 c43d d817 483d
00000280: e09e d33d e9a5 04bc cc0e e9bd 6615 693d
00000290: b7b4 013e f1a8 56bd c11d b63d e054 b3bb
000002a0: 2449 ddbc fc56 0ebc e8a1 843c 7c81 78bd
000002b0: a02b 8abd 8eb1 c9bd 842c bf3d 4649 4cbb
000002c0: c370 e8bd ea72 fb3d 9e43 473d 0819 98bd
000002d0: 0f55 1dbd 6d57 e1bd 71ab 9d3d 58ac 0f3e
000002e0: 4bb4 0a3e 0631 a53c ba9c 54bd 6dbc 263e
000002f0: 59ab 913d a658 2cbc 4d22 d13c c9c2 ca3d
00000300: 98a9 bd3d 13e7 653d 729f 9f3d 0046 043d
00000310: fdae ab3d 4a31 cb3d 636b d1bd e734 cc3d
00000320: 5014 e73d 1afe 7ebd bf59 42bd 1e85 253d
00000330: 9a4e d2bd df01 0f3e 8633 413b db9c bdbc
00000340: f838 b93d 2b00 e53d 2b35 ab3d 2387 d53d
00000350: 350a afbd 4086 4bbc 4250 e63d c868 eebb
00000360: cebc 97bc 6de3 d1bd 3a66 623d 8757 e43d
00000370: e0d0 093e 01db d4bb 21c8 903d 0690 6c3d
00000380: 2aea c13d 402b 0c3e 04a6 eabd 2d3d cabd
00000390: 9b09 d63d bc6c e13d 6735 35bc 4bd4 f83c
000003a0: b0c6 de3c 7714 97bd f61b c1bd 50e8 aa3d
000003b0: 17d2 c6bd 3188 3a3d 3e83 e2bc 9f56 1a3d
