checkpoints/epoch=1-step=100-v68.ckpt (torch, 621663 bytes, 33 tensors)

model.param_proj.proj.0.weight f4 [1, 60]
000000 df ae 3d be a7 93 09 be 4a 2c 41 be 69 4b e6 bc
       -0.1852374 -0.13435231 -0.18864551 -0.02811213
000010 41 78 59 3d a4 45 12 3e 01 6a 65 3e 80 8f 58 bd
       0.0530932 0.14284378 0.22403719 -0.052871227
000020 9e 8e 0d 3d 30 4e f0 3d 89 d5 2b 3d 1e 1e 04 be
       0.03455984 0.11733663 0.04195169 -0.12902114
000030 6a 84 45 be 47 b9 04 bd 9e f6 45 3e b2 d0 50 bd
       -0.19288793 -0.032403257 0.19332358 -0.050980277
000040 c3 33 02 3e 42 36 4a 3c 1f f6 50 be 77 70 0e 3e
       0.12715058 0.012342038 -0.20406388 0.1391009
000050 04 41 8b 3c 82 db 12 be e6 b7 36 3e 92 a5 2f 3d
       0.016998775 -0.14341548 0.17843589 0.04288251
000060 61 22 07 be a8 23 63 3d 64 91 3c 3e 3d f3 69 bd
       -0.13196708 0.055453926 0.18414837 -0.057116736
000070 eb 82 53 3d b1 94 b9 3d 17 f9 41 3e 8c 46 af bc
       0.051638525 0.09061564 0.18942676 -0.021395944
000080 16 0a 47 3e 57 0b b3 bd ce 63 ca bc 5d 61 21 3e
       0.19437441 -0.08742397 -0.024705794 0.15759797
000090 7c f4 3c 3e 1a 2a 10 be f3 7d e8 3d 1f cd 5b 3e
       0.18452638 -0.1407856 0.11352148 0.21464966
0000a0 07 f2 17 3d b4 d7 3f 3e 79 fc 59 3d b3 bf 2b 3e
       0.03709605 0.18734628 0.053219292 0.16772346
0000b0 01 b0 52 be e4 22 e5 3d 74 71 a8 3d f1 b4 a3 3d
       -0.20574953 0.111882955 0.082247645 0.07993496
0000c0 8f d5 2f be 78 a1 68 3e ad 81 dd 3d 2e c7 20 3e
       -0.1717131 0.22717845 0.10815749 0.15700981
0000d0 67 fc 96 bd 69 ca 34 3e 8b dc a1 3d d6 83 2c be
       -0.07372361 0.17655338 0.07903393 -0.16847166
0000e0 73 23 29 be eb 69 55 bd 09 72 4d bd d9 1d 5d be
       -0.16517429 -0.052102964 -0.05015758 -0.21593417

model.param_proj.proj.1.weight f4 [1, 60]
000000 f5 17 94 3c dc 30 51 3e 55 e6 53 3e 20 ad fd bd
       0.01807783 0.20428795 0.20693333 -0.123865366
000010 97 a2 18 3e 19 d7 a1 bd 99 c7 1d 3e e0 8b 2d 3e
       0.14905773 -0.07902355 0.15408172 0.1694789
000020 7d e7 dc bd 26 fb fe bd 5d 7e 4c 3e a5 49 e9 3d
       -0.107863404 -0.124502465 0.19970079 0.11391
000030 22 26 29 bd 66 ad b5 3d fc 8b 0d 3d 5b 14 94 bd
       -0.041296132 0.08870964 0.034557328 -0.07230445
000040 6a 14 07 bd 11 19 00 3e b5 41 10 3e be cd 15 bd
       -0.032978453 0.12509562 0.14087565 -0.036573164
000050 ec d8 45 be 87 dc 30 3e 74 5d 3b 3d cc 37 11 be
       -0.1932103 0.17271625 0.04574342 -0.14181441
000060 07 bb 40 3e 5d a9 3d be b3 ad c1 3d b7 14 9d 3d
       0.18821345 -0.18521638 0.094569586 0.07669967
000070 18 99 10 3e e6 0a fa 3d 07 25 c2 3d 81 3a 2f 3e
       0.141209 0.1220911 0.09479719 0.17112161
000080 95 82 0b 3e e5 12 b1 bd 4e 4f 12 3e 0c b2 bf 3d
       0.13624032 -0.08646182 0.14288065 0.093601316
000090 bd 41 18 be 57 e8 d8 3c ad 82 04 3e fc 76 a3 bd
       -0.14868827 0.026477976 0.12940474 -0.07981679
0000a0 92 eb c9 bc 6a d8 17 3e ea 98 11 3d 2b 8f 5f be
       -0.024648461 0.14828649 0.03554622 -0.21831958
0000b0 62 8c 54 be bf dc 9b bd d4 b6 af bd c3 0e 03 be
       -0.20756677 -0.07610463 -0.085797936 -0.127986
0000c0 11 b2 ac 3d b6 80 d9 bd 74 e8 dd 3d ac 34 29 3e
       0.08432401 -0.10620253 0.108353525 0.16523999
0000d0 ee bd b9 3d b0 89 ed bb 83 07 3c be df a3 b3 3d
       0.09069429 -0.0072490796 -0.1836224 0.0877149
0000e0 db db 27 3e 2e d9 1e be ef 93 b4 3d 66 e7 68 3d
       0.16392462 -0.15512535 0.088172786 0.056861304

model.param_proj.proj.2.weight f4 [1, 60]
000000 7c d2 36 bc ad e1 00 3d 29 e9 04 3e 86 63 d3 3c
       -0.011158582 0.03146522 0.12979569 0.025804292
000010 d1 b9 ab bd e8 09 09 bc e1 18 04 3d 10 9b a9 3d
       -0.08385051 -0.008364178 0.03225029 0.08281529
000020 ab 4d f7 3d df 4c 0a be 24 b1 d0 3c 99 04 8b bc
       0.12075361 -0.13505886 0.025475092 -0.016969966
000030 c9 e1 d2 bd 89 dd 2b 3e d1 62 e3 3d 1a eb d1 bd
       -0.10296971 0.16783728 0.11102832 -0.1024992
000040 e3 77 42 3d d4 8d e8 3d 68 59 3d 3c 8a 8f 1f be
       0.047477614 0.113551766 0.011556961 -0.155821
000050 a0 ea 12 be a5 b9 48 3d cf 14 db 3d 0f 16 f5 3d
       -0.14347315 0.04900517 0.10697328 0.11967098
000060 e3 b0 ac 3b 28 15 d2 3a 21 15 55 bd 3a b5 09 3c
       0.00527011 0.0016028034 -0.052022103 0.008405024
000070 99 7e e8 bd 58 07 a1 bd 4d 9d 86 3d 3a 09 69 bc
       -0.113522716 -0.07862729 0.065729715 -0.014223391
000080 68 f5 ff 3d 43 73 bd bd f1 5e 7e bd 1a 5d 70 bd
       0.124979794 -0.092505 -0.062102262 -0.05868254
000090 92 a6 2c 3a 27 d0 e3 3d 65 17 ff 3d c0 d5 5b 3d
       0.00065861 0.11123686 0.12455634 0.053670645
0000a0 ce 45 03 be 95 3c 05 3e 30 7b f2 bd 69 e9 f5 bd
       -0.12819597 0.13011391 -0.118399024 -0.1200741
0000b0 42 a5 13 bd a8 9f ea 3d 51 67 c8 3d 7c 1a 21 3d
       -0.036046274 0.11456233 0.09785331 0.039331898
0000c0 9d 7c 27 3c 37 22 83 bd 14 7f 6d 3d 77 1d b1 3d
       0.010222581 -0.0640301 0.05798252 0.08648198
0000d0 2c 51 a4 bd 92 09 fc 3d 80 8a 6f bd 8d 11 af bd
       -0.08023295 0.12306513 -0.058481693 -0.085482694
0000e0 0b c0 6c 3d c9 19 85 bd 22 ad 05 3d 5d 32 90 3b
       0.057800334 -0.06499059 0.032635815 0.004400535

model.rnn.weight_ih_l0 f4 [240, 24]
000000 a3 cd 04 3e 3b 18 1d be bc 64 87 3d 9a d7 8b bd
       0.12969069 -0.15341274 0.066110104 -0.06828232
000010 64 c5 d1 bd c6 4e 3f be c4 be d4 bd 9f cd 0c 3e
       -0.102427274 -0.18682393 -0.10387948 0.13750313
000020 66 8c f4 3d da 45 a6 3d 42 0d ed 3c 8f a1 e7 bd
       0.119408414 0.08118792 0.028936986 -0.11310112
000030 42 f0 a3 bb 19 df 24 3d 13 b7 2b 3e 06 c2 ed bd
       -0.005003006 0.040251825 0.16769056 -0.11609273
000040 e8 92 72 bc 82 e1 13 bd cb bc 1a 3d 76 39 e6 bc
       -0.014805533 -0.036103733 0.037777703 -0.028103571
000050 2f 5b 1e 3d 39 c4 9b 3c 12 0d bb bd 32 fd 00 3e
       0.03866118 0.019014465 -0.09133352 0.12596586
000060 2c 75 c1 3c ba d8 cc bc a1 b0 93 3d 24 2a 96 bd
       0.023615442 -0.025005687 0.07211424 -0.073322564
000070 9a 1c 25 3e 5d 33 45 3d 07 8e 11 be dd 0b 64 bb
       0.16124192 0.048144687 -0.14214335 -0.003479711
000080 71 ba 6d 3c 5b b1 37 3e 02 d4 13 bb af 15 27 3e
       0.014509783 0.1793875 -0.0022556786 0.16316865
000090 dc 52 2a be 6e 1b 09 3d 4f d8 9e 3d 10 cb 47 3c
       -0.16633171 0.033473425 0.07756101 0.01219441
0000a0 fc 95 74 3d b1 ce a2 bd d2 0b d3 3d 90 39 b7 3c
       0.05971335 -0.079495795 0.10304989 0.022366315
0000b0 15 dd 66 bd 9f e0 02 be 4f 52 92 3d ca fa 04 3d
       -0.056363184 -0.12780999 0.07144605 0.032465734
0000c0 80 57 34 bd 68 5a 0c bc ff c0 5a 3c c5 6f 16 3e
       -0.04402876 -0.008566476 0.013351678 0.14691074
0000d0 cb b4 a8 3d 84 9e c2 bd 12 e1 f9 3d 80 0d ee bc
       0.082376085 -0.09502891 0.12201132 -0.029059172
0000e0 a3 f4 51 be 51 e4 14 3e 0f 5b 87 3d a8 c3 3e be
       -0.20503478 0.14540221 0.06609165 -0.18629324
0000f0 b5 86 24 bd be 02 a5 bc 74 fb 01 3e 02 82 19 3d
       -0.04016753 -0.02014291 0.12693578 0.0374775
000100 d4 67 de bd 68 3c 80 bb 2d 08 09 3d 70 f7 23 3d
       -0.108596474 -0.003913451 0.033455063 0.040030897
000110 c5 b8 94 bd 93 d1 56 bd 38 0f 4c b8 05 2b 20 3e
       -0.072618045 -0.05244596 -4.8651564e-05 0.1564141
000120 5e 48 23 3e 43 04 d1 3c c6 7e 2d be c0 77 fb bd
       0.15945575 0.025514727 -0.16942891 -0.122787
000130 af fb 93 bd fd 2d aa 3d fc 1c 12 bd a4 88 27 3c
       -0.07225739 0.08309553 -0.035672173 0.010225449
000140 ea 9a 6f bc 69 13 05 3e d3 a7 18 be 54 bd 50 3d
       -0.014624337 0.12995686 -0.1490777 0.050961807
000150 5e f8 3b bd 15 02 8b bc b2 67 d9 3d 92 f1 49 bd
       -0.04589116 -0.016968766 0.106154814 -0.049302645
000160 88 28 f8 3c f6 f9 4a 3d fe f2 af 3d 2d 29 ab bd
       0.030292764 0.049554788 0.08591269 -0.08357463
000170 3c 59 73 3d 33 64 21 be 2c 0d b0 3d b4 da 63 3d
       0.059411272 -0.15760879 0.08596262 0.055628493
000180 ce b9 1d 3c 4b 7f 20 bd 1c 8b 3b be 41 7c 91 bd
       0.009626819 -0.039183896 -0.18314785 -0.07103778
000190 69 1b f6 3c c1 3f 0e be b6 2b f5 bc 13 4f fe 3c
       0.030042367 -0.13891508 -0.02992807 0.031043565
0001a0 ad 90 34 3d d5 4b e0 bd 31 47 59 3e 41 41 d2 bd
       0.044083286 -0.10951964 0.21218564 -0.102663524
0001b0 8c ab 5a 3d ca f2 0a bc cd dc ce 3d d9 af fb 3b
       0.053386256 -0.008480737 0.10100708 0.007680875
0001c0 9e 25 e7 3c e2 4d bd 3d 3c e2 0d bc 3a e9 f9 3c
       0.02821618 0.092433706 -0.0086598955 0.030506719
0001d0 bf 9c 0c be a0 24 44 3e 0a 3a 80 bd 46 f5 9e 3d
       -0.13731669 0.19154596 -0.0626107 0.07761626
0001e0 ea 06 4b 3e f2 f2 81 bd 62 c2 01 be d3 85 54 3d
       0.19826856 -0.06345166 -0.12671807 0.051885437
0001f0 f7 35 e2 bd 4c 61 3e bd d0 08 c2 bc ad f0 1a bd
       -0.11045449 -0.04647951 -0.023685843 -0.037827183
000200 19 e2 f6 3d b7 13 be 3d f9 4b 3b be f1 bd 34 be
       0.120548435 0.09281104 -0.182907 -0.17650582
000210 0d 98 63 bd 5a 48 9d bd 02 fe 0b bd 55 a0 d7 3b
       -0.05556493 -0.076798156 -0.034177788 0.0065803924
000220 7d a2 88 bd 96 75 85 3c d5 48 c5 bd 57 52 d2 3d
       -0.06671617 0.01629142 -0.09633032 0.10269611
000230 58 e0 0d 3c d3 ba 1a bd 4f f4 52 3e 2a 42 11 bd
       0.008659445 -0.037775826 0.20601009 -0.03546349
000240 d4 3b 92 3d 0d 24 9f 3b 6d 07 8a 3d d2 73 0c be
       0.071403176 0.0048565925 0.067396976 -0.13716057
000250 14 33 ae 3d 24 5b 20 3d 79 1d b0 bd fe 94 cf 3d
       0.08505836 0.03914942 -0.085993715 0.1013584
000260 d5 56 ee 3d f5 14 0e 3e fe 4a 1b 3c d5 78 96 bd
       0.11637656 0.13875182 0.009478329 -0.07347266
000270 80 6f e8 3d d4 c4 a9 3d a3 4e 0e bd db 3f c0 3c
       0.11349392 0.08289495 -0.034742963 0.023467949
000280 87 7b b2 bd 43 a1 3b bd 2e 78 20 3b d1 6a 52 3c
       -0.08714967 -0.045808088 0.0024485695 0.01284285
000290 ff a3 97 bc de 35 1e 3d f5 ee 54 3d cb aa fc 3d
       -0.018510817 0.03862559 0.0519857 0.12337264
0002a0 25 a6 56 be 02 fa e6 39 1b 2c 94 3d d0 32 cc 3d
       -0.20961817 0.0004405529 0.07234975 0.09970629
0002b0 56 1a f7 bc e7 20 e0 bd b8 36 7f 3d f3 0b 10 be
       -0.030163925 -0.109437756 0.062308043 -0.14067058
0002c0 53 b9 a9 bd 80 74 2d be 88 22 bd 3d bb f6 6e 3c
       -0.08287301 -0.16938972 0.09235102 0.014585192
0002d0 42 14 9b bc 80 54 d0 bd ba 43 1b 3e 46 32 8f bc
       -0.018930558 -0.10172367 0.15162554 -0.017480027
0002e0 02 bf ea bd db f6 06 bd 94 c1 db bd 40 00 ba 3c
       -0.11462213 -0.032950263 -0.107302815 0.022705197
0002f0 63 e9 0f be c2 e5 81 3d be 6d 34 bd 06 49 91 3d
       -0.14053874 0.06342651 -0.04404997 0.07094006
000300 70 60 5d bd d7 e1 f9 3d 2b 56 c7 3d 5c 9d eb bc
       -0.054047048 0.12201279 0.09733232 -0.028761558
000310 5c d9 6c 3d 5c 38 15 3d f4 ac e5 3c a6 04 a2 bd
       0.057824478 0.0364307 0.028036572 -0.07911043
000320 ab 62 02 3d 77 99 7c 3d 9e 89 00 bd cb d6 12 bd
       0.03183238 0.061669793 -0.031381242 -0.035849374
000330 c0 20 6d bd 68 41 af bd 06 9f ff bd 21 0f a8 3d
       -0.05789256 -0.08557397 -0.12481503 0.082060106
000340 0b e8 2e bd 2f ce 92 bd d9 a5 99 bd c8 96 0a 3d
       -0.042701762 -0.07168233 -0.07502336 0.033835202
000350 52 98 6d 3d 9d 08 30 3c 4f 13 16 3e fd e9 b2 3c
       0.058006592 0.010744241 0.14655803 0.02184009
000360 d0 c9 00 3e 68 63 e4 3d 25 ee 97 3d a0 c5 9a bd
       0.12576985 0.11151773 0.07418469 -0.07557225
000370 d3 05 70 bd 70 ff 9c bc 22 53 44 be 60 7f a0 3d
       -0.058599304 -0.01916477 -0.19172338 0.07836795
000380 49 62 c9 3c 30 43 09 bd 52 c7 ec bc 17 f9 39 be
       0.024582999 -0.03351134 -0.028903637 -0.18161426
000390 1b c0 eb bd b0 9e 20 bd bc 48 27 be 01 d9 e4 bd
       -0.115112506 -0.039213836 -0.1633634 -0.11174203
0003a0 41 d4 b8 3d a4 da ef 3c 53 dc 00 be 17 ff b1 bd
       0.09024859 0.02927906 -0.12584047 -0.08691233
0003b0 a9 c0 8f 3c 2e ff f8 3c 21 89 06 3e 7f d3 13 3d
       0.017547922 0.030395117 0.13138248 0.03609037
0003c0 6b 71 06 be 41 35 10 3e fb d9 c5 3d 74 b0 3a 39
       -0.13129203 0.14082815 0.09660717 0.00017804076
0003d0 94 59 c2 bd 79 9b 15 bd 1c 3e 88 ba c3 d1 9d bd
       -0.09489742 -0.036525223 -0.0010394487 -0.077060245
0003e0 f2 b3 b4 3d fb f1 fd 3c f5 5d e4 3d 36 53 8d 3d
       0.08823384 0.030999174 0.111507334 0.06900637
0003f0 d0 2b a0 3d 6d fb be bd ea 5f fe 3d 9f 8d 46 3d
       0.078208566 -0.093252994 0.12420638 0.048474904

model.rnn.weight_hh_l0 f4 [240, 60]
000000 9b 24 d5 3c ba 28 73 3d 36 0a 04 be 0d e8 ef bd
       0.026018431 0.05936501 -0.1289452 -0.11714182
000010 c0 bf 35 bb 54 e7 93 3d 60 24 99 bd be ef 8d 3c
       -0.00277327 0.07221857 -0.07477641 0.017326232
000020 99 3d 8a bd fd 73 df 3d 60 2c c8 3d 59 ae 8c bd
       -0.0675003 0.10910795 0.09774089 -0.06869192
000030 ea 20 8f 3c bd f7 e4 3d 7f 59 65 3d 80 38 1b bd
       0.01747175 0.11180065 0.055993553 -0.03789568
000040 3d 7c da bc 4e 10 f4 3d 20 7f 9b bd dd 2d 16 3e
       -0.02667057 0.11917172 -0.075926065 0.14665933
000050 9a 8c ec 3d 49 e7 09 3e 44 df ca bd 5b 28 b9 bd
       0.11550255 0.13467135 -0.09905866 -0.090409
000060 af 72 1d 3c 03 d4 c6 bd 0e ce b2 bc 0e 88 8a 3d
       0.009609862 -0.09708407 -0.02182677 0.067642316
000070 7e c1 8a bd ad 68 9b 3d ac e5 85 bc c4 6b f3 3d
       -0.06775187 0.07588325 -0.016344868 0.11885789
000080 97 5b d7 bd 7d 6a cb 3d fc 82 8a 3d 23 51 83 bd
       -0.10515516 0.099324204 0.067632645 -0.0641196
000090 5e 94 9a 3b f5 5d 8d bd db f4 30 3d f4 6f b3 bd
       0.004717394 -0.069026865 0.043202262 -0.08761588
0000a0 96 6a e5 3c ac 0d 02 3d 2d 4b 10 3d 1e dc 39 bd
       0.028004926 0.03175132 0.035227943 -0.045375936
0000b0 a9 4a 82 bd e4 2b 99 3d 99 93 4e 3d 40 f9 ac bd
       -0.063618965 0.074790746 0.05043373 -0.08445978
0000c0 09 ad 53 bd cd 54 55 bd 1b 30 bb bd cd 0f 20 be
       -0.05167869 -0.052082825 -0.09140035 -0.15631028
0000d0 42 fe 08 3d 56 20 3b 3e a1 c6 e7 3d 68 da b6 bd
       0.033445604 0.18274054 0.11317182 -0.089283764
0000e0 1b 0c 81 3d b3 85 3c bb d3 d0 ae 3d a6 7f 11 3e
       0.06301137 -0.0028766214 0.08535924 0.1420885
0000f0 c5 85 0f 3e 7d 87 de 3d bf c9 16 bd 8b 9e 98 3c
       0.14015873 0.10865686 -0.036813494 0.018630287
000100 80 dc 3e bd e2 c1 71 bb 59 16 a5 3d 4e 5b 92 3c
       -0.046597004 -0.0036889245 0.08060903 0.017865803
000110 7a 41 12 be 25 c2 0a be 03 0e 5e 3d 68 43 27 3d
       -0.1428279 -0.13550623 0.05421258 0.040835768
000120 08 46 19 3d cf 05 e4 3d 7b 3d 7e bc f7 7b 38 bd
       0.037420303 0.111339204 -0.015517588 -0.045040097
000130 5c ba c4 3d bc 81 54 3d f7 1e 51 bd 71 30 b3 3d
       0.09605858 0.051881537 -0.05105492 0.08749474
000140 e5 17 87 3c 4a e5 02 3e b0 b0 13 3d 10 99 3a bd
       0.016490886 0.1278278 0.036057174 -0.045556128
000150 74 7b 92 3d de f8 aa bd 19 7f b4 3d a5 bc fb bd
       0.07152453 -0.08348249 0.088133045 -0.122918405
000160 03 05 83 3c 7e 87 ee 3b 2e 00 d3 b9 5f c8 9d bd
       0.0159936 0.0072793355 -0.0004024519 -0.077042334
000170 f8 3c 5b bc b2 28 5c bc 3f 3f 06 3e d1 e8 5b 3d
       -0.013381235 -0.013437437 0.13110064 0.053688828
000180 4f 5e 29 3c ca 51 18 3e 5d 8b 05 bd 95 2b e6 3d
       0.010337426 0.1487495 -0.03260361 0.11238781
000190 e6 d8 15 be 64 26 fb bd 84 c2 7f bd c2 23 73 3d
       -0.14633521 -0.12263182 -0.062441364 0.059360273
0001a0 ae 05 e3 bd a8 b7 cc bb d4 d0 31 3e 86 85 0c 3e
       -0.11085068 -0.0062474795 0.17364818 0.1372281
0001b0 bc af e6 bd 31 bc f8 bd de fc 26 3c 1e 0f 40 3d
       -0.112639874 -0.1214527 0.010192124 0.046889417
0001c0 0f 83 a7 bd 33 4c 25 3e d4 6d e9 3b b1 63 fa bc
       -0.08179294 0.16142349 0.0071236882 -0.030565115
0001d0 57 78 90 bb 43 1f af bc 12 7d 90 3d a5 c7 6c 3d
       -0.004408877 -0.021377211 0.07055105 0.057807583
0001e0 76 53 9e 3d 5d 4e 98 bb 9b d4 08 3e 7f 40 0b be
       0.07730763 -0.0046480135 0.13362353 -0.13598822
0001f0 c0 04 29 3e 06 06 cd bc 81 89 b6 3c 5f 47 a5 bc
       0.16505718 -0.025027286 0.022282364 -0.020175634
000200 03 da 96 3d 7c d3 b2 bd b7 0e 16 bd b4 74 95 bd
       0.07365801 -0.08731744 -0.036635127 -0.0729765
000210 81 49 37 3e e5 96 37 bd f2 5b b5 3b 11 e0 fc bd
       0.17899133 -0.04482164 0.0055346424 -0.12347425
000220 6d 6a b7 3d ef 3f dc bd ca a9 b4 3d 0e c3 59 3c
       0.08955846 -0.10754382 0.08821447 0.013291134
000230 61 7e 7b bd 5a b5 c4 3d 30 bf 09 be 1c 65 c6 bc
       -0.06139982 0.096049026 -0.13451838 -0.024218135
000240 8b ba bb bd e5 c2 1c 3d 3a ba 66 bd d2 6a 50 bd
       -0.091664396 0.038271803 -0.056329943 -0.05088312
000250 2c c2 29 bd 7f 5c cf 3d 64 8a a8 bd 11 f8 45 bd
       -0.041444942 0.10125064 -0.08229521 -0.048332278
000260 af bf 42 bd ac 4b 0f 3e 8e d5 ab bc 23 27 1f 3d
       -0.047546085 0.1399371 -0.020975854 0.038855683
000270 c1 09 a7 bd d2 55 98 bd 95 f5 95 bd 26 e5 31 3e
       -0.08156157 -0.07438244 -0.07322232 0.1737257
000280 32 93 97 bd 45 23 cb bd 77 b7 db bd 49 87 0b 3e
       -0.07401122 -0.099188365 -0.107283525 0.13625826
000290 04 ea bf bd d5 74 9e bb b5 94 c7 3d f4 12 50 bd
       -0.09370807 -0.004835705 0.097451605 -0.050799325
0002a0 a4 25 9c bc c2 a8 ae 3d 0a 1b 32 bd 17 e2 2a 3e
       -0.019060917 0.08528282 -0.043482818 0.16687809
0002b0 2f 27 c0 3d 9c 1d b6 bc b5 75 d6 3d 0e 52 39 3e
       0.09382474 -0.022230916 0.104716696 0.18097708
0002c0 58 4f cc bd b5 56 50 3d 7d 04 08 bd 8f 36 16 3e
       -0.09976071 0.05086394 -0.033207405 0.1466925
0002d0 64 fc 07 3e 1e 0c 91 bd 88 3a bf bd da 5b 2b be
       0.13279873 -0.07082389 -0.09337336 -0.16734257
0002e0 1d 67 c7 bd f1 87 84 3d 1d 66 ae 3c 8e ba ef 3d
       -0.09736464 0.06471241 0.021288926 0.11705504
0002f0 60 ab a5 3d b3 77 24 bd f3 27 80 bd 80 59 82 bc
       0.08089328 -0.040153217 -0.0625762 -0.015911818
000300 d1 24 d7 bd 5a 12 2f be 8a bf 71 3c 82 c9 7a bb
       -0.10505069 -0.17096844 0.014755139 -0.003826708
000310 0a 2b 6e bd 9e 14 de 3b 9f f0 a1 bd f2 be 8e bc
       -0.058146514 0.00677736 -0.07907223 -0.017425034
000320 6a 08 04 be a4 5b 4c 3e 34 bb 39 bc 2e b6 92 bd
       -0.12893835 0.19956833 -0.011336137 -0.07163654
000330 a6 2e b5 3a 61 ab a3 3d bb f5 f9 bc 28 dd 36 be
       0.0013823106 0.07991672 -0.030512681 -0.17857802
000340 bc 68 bb 3d 9a 33 36 bd fe bf d5 3c 02 e2 d3 bd
       0.09150836 -0.044482805 0.026092526 -0.10345842
000350 c0 0f ad bd 74 53 05 3a df 24 31 3e c7 ef e2 bd
       -0.0845027 0.0005085983 0.17299221 -0.1108089
000360 b9 02 71 3d 13 89 e0 3d 52 92 44 3d 94 35 9e bd
       0.058840487 0.10963645 0.047991104 -0.07725063
000370 7d ad 02 be e8 67 99 bd 8d 3a d7 bd 7e 6c 21 3d
       -0.12761493 -0.07490522 -0.105092146 0.039410107
000380 07 91 99 3c 1b 04 86 bc 4c 45 08 bd 2d 25 2c 3e
       0.018745912 -0.01635938 -0.03326921 0.16811056
000390 5b 73 d9 3c 31 b9 e4 3c e5 8d 01 3e 4c 92 b8 3c
       0.026544264 0.027920337 0.12651785 0.022530697
0003a0 56 73 86 bc 39 7c b5 bb 35 00 87 3d 68 17 98 bd
       -0.016412418 -0.00553849 0.06591836 -0.074263394
0003b0 61 3b 00 be d4 a4 9c 3d 0e 6c e0 bd 40 b9 0d 3e
       -0.12522651 0.07648626 -0.1095811 0.13840199
0003c0 ab 95 cf 3d 0d cf b7 bc 09 a3 98 3c c9 cf f8 3c
       0.10135969 -0.022437597 0.018632429 0.030372517
0003d0 5a 72 b4 3d 22 41 a2 3c ea a9 9b 3c 8a 81 17 be
       0.08810873 0.019806448 0.01900192 -0.14795509
0003e0 88 5f 92 bd db f7 0b 3e fd ec 44 bc 0f bc b6 bd
       -0.071471274 0.13668768 -0.012019393 -0.08922588
0003f0 f0 32 ad 3d 1d 68 93 bd 7c 19 b9 3d d7 1c 8b bd
       0.08456981 -0.071975924 0.09038064 -0.0679261

model.rnn.bias_ih_l0 f4 [240]
000000 e1 c4 de 3d 76 c2 80 bd 10 74 e1 3d 93 7a e7 3c
       0.108773954 -0.062870905 0.11008465 0.02825669
000010 d8 48 4b bd 0d 19 e2 3d 49 c5 5b bd 1a bd f4 3c
       -0.049630016 0.11039934 -0.053654943 0.029875327
000020 72 76 af 3d a7 3b a5 3d 8b 5a 07 3e 38 46 b4 3d
       0.085675135 0.080680184 0.13218133 0.08802456
000030 0f 4d 30 3e 0a 4a b2 3d 33 14 f8 3d 00 d8 3c 3c
       0.17216896 0.08705528 0.12113228 0.011526108
000040 ee d8 1e ba 01 d6 b4 bb 74 0c 12 bc 63 43 7e bd
       -0.0006059547 -0.0055186753 -0.008914102 -0.062075984
000050 a5 12 d7 3d da 70 12 bd f2 d1 58 bd 8f de 14 3d
       0.10501603 -0.035752155 -0.052934594 0.03634506
000060 43 9c 29 3e 54 19 b1 bd 65 b8 da bc ed c6 77 3d
       0.16563515 -0.08647409 -0.026699254 0.060492445
000070 fa cd 08 3e b6 59 94 bd 3d 0d 24 3d 99 f2 be bc
       0.13359824 -0.072436735 0.040051688 -0.023309039
000080 93 40 4d 3d 01 82 14 3b 48 fa 4c 3c eb 5c 06 3e
       0.05011041 0.0022660496 0.012510844 0.13121383
000090 0f c2 09 3e 56 11 24 3d 08 5a 63 3d ff f9 0f bd
       0.13452934 0.040055595 0.055505782 -0.035150524
0000a0 2d 1c 90 bd e8 99 b6 3d 9b 98 ac 3d 7a 08 54 3d
       -0.07036624 0.08916074 0.08427545 0.051765896
0000b0 92 97 5e 3d ed 9f 4c 3c 98 10 bf 3c 1e 4d 97 3d
       0.054343767 0.012489301 0.023323342 0.07387756
0000c0 76 bd ab bd 00 ae d7 3d 24 f3 54 bd 6a 6c af 3d
       -0.08385746 0.10531235 -0.05198969 0.085656
0000d0 de 3e 8c b8 a8 b6 67 3b 83 78 48 bd 51 d2 b6 3b
       -6.68743e-05 0.0035356674 -0.048943054 0.005579271
0000e0 13 8b b0 bd d2 9c 42 3e eb 2e c9 bc 6a 0f a6 bd
       -0.08620276 0.19005135 -0.024558505 -0.08108409
0000f0 fe 50 1c bc e8 b0 03 3e 22 ce 94 bd 64 b3 fb bd
       -0.009540794 0.12860453 -0.07265879 -0.122900754
000100 64 bb 79 3d b9 32 18 be 1c 26 ee 3d b7 3e c2 3d
       0.060969725 -0.14863099 0.116283625 0.09484618
000110 48 5e 46 3c 5f 48 b1 bd bc 49 a7 3d 44 48 d7 bd
       0.012107439 -0.08656382 0.081683606 -0.105118304
000120 43 df cd 3d 80 5c c9 bd 88 33 c6 bd c2 e0 95 bc
       0.100523494 -0.09832096 -0.096777976 -0.01829565
000130 2f c7 7f bd f7 9f c8 3c af 7c 58 bc d3 40 64 3c
       -0.062445816 0.02449034 -0.013213321 0.013931471
000140 83 68 ad 3c 51 cb a1 bd ba 88 b1 bd d7 22 c8 bd
       0.021168 -0.07900108 -0.08668657 -0.0977227
000150 f1 7b 81 bd c3 b8 e1 3c 2a 9a 0b bd bf 98 f8 bd
       -0.06322468 0.027553922 -0.03408257 -0.12138509
000160 42 b1 b2 3d 17 3b 91 bd 80 b6 d0 bd 01 d9 ac bd
       0.087252155 -0.070913486 -0.10191059 -0.08439828
000170 ae 39 a6 3c c3 44 3e 3d 0e e9 ee 3d 56 fe d4 bd
       0.020291176 0.046452295 0.116655454 -0.10400073
000180 8e 49 ea bc 1b 85 62 bd f4 0b f7 3c 8f 5c bc bd
       -0.028599527 -0.05530272 0.030157067 -0.09197342
000190 02 69 92 ba 73 5a cc bc fe 29 26 3b 07 ce d3 bd
       -0.0011170211 -0.024945473 0.002535462 -0.10342031
0001a0 39 9f a7 3d 18 4a cf 3d 82 f4 fe 3d 9a 7e 40 bd
       0.08184666 0.10121554 0.1244898 -0.046995737
0001b0 44 f7 12 3e ae 73 f4 3d 7d 64 e4 3d 87 62 3b 3c
       0.14352137 0.11936127 0.11151979 0.011437065
0001c0 78 8d d0 3d 7a 33 98 bb 81 9e 81 bd 86 ff d5 3c
       0.10183233 -0.0046448084 -0.0632906 0.02612282
0001d0 a9 b0 50 bc a1 19 0b bd c6 d7 83 bc 02 6e dd bd
       -0.012737432 -0.03395999 -0.0160941 -0.10811998
0001e0 22 da 81 3d 01 a9 9c 3d fa 7b 3a 3b 08 11 b8 bd
       0.06340434 0.076494224 0.0028455243 -0.089876235
0001f0 1e 77 b1 3d 42 e1 c4 bd 1b f7 95 3d 32 5d c3 bd
       0.08665298 -0.09613277 0.07322522 -0.0953926
000200 02 5b 7c bd d0 ca b5 bd 8f c7 cc 3c dd e0 0e 3d
       -0.06161023 -0.08876574 0.0249975 0.034882415
000210 d7 48 c5 3d f2 3f 7b bd 6f 2f 9b bc 1c 38 a5 bd
       0.09633034 -0.06134028 -0.018943517 -0.08067343
000220 25 e4 c2 3d 92 b7 89 3d d1 b4 bb 3d 05 91 df bc
       0.09516171 0.067244664 0.09165347 -0.02729083
000230 b5 96 0f be d0 d3 5f 3d 96 d0 8b 3c 81 fd a8 3d
       -0.14022334 0.05464536 0.017067235 0.08251477
000240 72 2c 8b bd 1a da 4f 3d 17 4b 45 3d 50 29 84 bb
       -0.06795587 0.050745107 0.048167314 -0.004033245
000250 64 f9 e9 3d 54 66 ee bd 10 1f da 3d 8b 6d d2 bd
       0.114245206 -0.11640611 0.10650456 -0.102748
000260 7f eb a5 3c 1d 2c 84 3d e1 7b c3 bd e6 2e 04 be
       0.020253895 0.064537264 -0.095451124 -0.12908515
000270 7c de ba bd ff c8 ef 3d fe ee da bd e6 a6 a6 3c
       -0.09124467 0.11708259 -0.106901154 0.020343255
000280 16 c4 b7 bd ce 81 8e bd d8 01 9e 3d cc 4b 00 3e
       -0.08972947 -0.06958352 0.077151954 0.12528914
000290 dd 6b 8b bd da 67 65 bd 97 a1 d8 bd 96 cd c0 bc
       -0.06807683 -0.056007244 -0.10577696 -0.023535531
0002a0 06 da 9b bc 7d fb 8d bd 53 79 9b bd 6b 94 4d bd
       -0.01902486 -0.06932733 -0.075915 -0.05019037
0002b0 ef 6e bb 3d 77 7d c9 bd 38 36 48 bc 07 6f 52 bb
       0.09152018 -0.09838384 -0.012219958 -0.0032109634
0002c0 1c ce 58 bd 3d 02 05 3d da 0f 83 3d ec 6a b5 ba
       -0.052930936 0.032472838 0.06399508 -0.0013841069
0002d0 39 5d fe 3c 82 41 83 3d 9b f9 12 bb 38 a4 20 3d
       0.031050311 0.06408979 -0.0022426608 0.03921911
0002e0 d5 93 b0 3d 32 0d bb 3d bf cb c3 bb 3e 1c ef 3d
       0.08621947 0.09133376 -0.005975216 0.11675309
0002f0 5f 5e b5 3d cf 69 43 bd 9b b2 ad bc c5 3e 53 3e
       0.088558905 -0.04770833 -0.02120333 0.20629413
000300 b9 23 84 bd 44 69 2a 3d e5 64 3c 3e e6 ee 1e 3e
       -0.06452126 0.041604295 0.18397863 0.1552082
000310 77 b4 81 3d 71 74 d8 3d 71 3c 5c 3d 4a ce 43 bd
       0.06333249 0.105690844 0.05376858 -0.047804154
000320 95 f5 1c bd ec 2f e3 bc f9 6d 5a 3d a9 92 af 3d
       -0.038320143 -0.027732812 0.053327534 0.08572895
000330 e9 ad 50 3d ec a3 2a bc 15 48 b1 bd 56 4b d6 bc
       0.050947104 -0.010415059 -0.08656327 -0.02615897
000340 29 71 a6 3d f5 2d 06 bd 19 70 cc 3c db 14 27 3e
       0.08127052 -0.03275867 0.024955796 0.1631655
000350 ec 41 d8 3c c6 43 4f 3d 0d 71 0b 3e 83 4b 93 bd
       0.026398621 0.050601743 0.13617344 -0.07192137
000360 ac 6c bf 3d c0 2c 30 3d 51 2d 91 bb d0 e3 ed 3c
       0.093468994 0.043011427 -0.004430451 0.029039294
000370 4d 68 c6 bc ec fa d3 3d d9 fe c9 3d d0 bd fd 3d
       -0.024219656 0.10350594 0.098630615 0.123897195
000380 41 90 28 3e a6 a0 08 bd be 8d 35 bd 9c e9 30 bd
       0.16461278 -0.03335633 -0.04432463 -0.043191537
000390 82 a1 88 3d 58 ce b6 3d 83 dc d0 3d 93 37 de 3d
       0.0667143 0.08926076 0.10198309 0.10850444
0003a0 b4 4f e1 3d d9 37 d4 bc de 33 5b bc 7b 57 aa ba
       0.1100153 -0.025905536 -0.013379065 -0.0012996042
0003b0 96 d1 a0 bd 33 9b ed 3d c5 dd 17 3e b5 87 03 3c
       -0.07852475 0.116018675 0.14830692 0.008027961

model.rnn.bias_hh_l0 f4 [240]
000000 77 7c ac bd 1f 2a cc 3d 76 27 58 3a e5 06 ad 3c
       -0.08422177 0.099689715 0.0008245626 0.021121452
000010 7f e4 8e bc 02 d2 af 3d 96 9e e2 bc 11 04 28 3e
       -0.01744294 0.08584978 -0.02766351 0.16407801
000020 84 d0 ce bd 93 ba fa 3d 70 db 28 3e ed f3 28 3c
       -0.10098365 0.122426175 0.16489959 0.010312063
000030 84 1c ef 3d 79 e5 c2 bd 26 16 c2 3c 6e be 8f 3d
       0.11675361 -0.09516425 0.023692202 0.070187435
000040 42 b2 27 3e 38 84 99 bb 85 cb 3c 3e 9f 43 75 3c
       0.16376594 -0.004684951 0.18437012 0.014969735
000050 43 30 c1 bd 44 da 4a bd 0f 8c b1 3c 92 39 21 3e
       -0.09433033 -0.04952456 0.02167323 0.15744618
000060 56 ea 45 3d 7a 19 f1 3b fd 2c a3 3d ac d5 4a 3e
       0.048319183 0.0073577734 0.07967565 0.19808072
000070 80 c7 77 3d dc 00 74 bd cf 97 e0 bc 78 bf 2b bd
       0.060492992 -0.059571132 -0.027416138 -0.041930646
000080 74 c8 12 bd 04 01 0a 3e 34 bf 13 3e 7a 7e 60 3d
       -0.0358357 0.1347695 0.14428407 0.054808117
000090 71 1c 5a bc 1a 4c f8 3d 3c 21 67 3d dc c7 7e bb
       -0.013312445 0.1212389 0.05642818 -0.003887645
0000a0 d9 da 15 3e df 0f b5 ba 9f 59 f3 3d 19 d0 96 bd
       0.14634265 -0.0013813934 0.11882328 -0.0736391
0000b0 0a 74 19 3d e0 35 e5 3d d6 88 c3 ba 2d 6a 76 bd
       0.03746418 0.111919165 -0.00149181 -0.06015985
0000c0 0d 45 b0 3c 18 2b d1 bc ad d3 14 bd 92 12 2a bd
       0.021517301 -0.025533244 -0.036334682 -0.041521616
0000d0 b5 dc f1 3b e7 82 3d 3e 24 cd 3e 3e 3f e6 56 bb
       0.0073810467 0.18506967 0.18632942 -0.0032791046
0000e0 df c8 8f ba 22 a2 e8 3d 1b e1 90 bc 6a 5d 29 3e
       -0.0010969898 0.113590494 -0.017685464 0.16539541
0000f0 c0 ca 93 ba d1 d6 85 bc 3f a9 a5 bd 85 fa b2 bd
       -0.0011275634 -0.016337784 -0.08088922 -0.08739189
000100 fc 92 0e 3e e4 05 4f ba 47 2a 94 3d 8d d8 a5 bd
       0.13923258 -0.0007897301 0.07234626 -0.080979444
000110 15 af 85 3d c8 cf c6 bb f9 aa 9e bd 06 58 51 bd
       0.06527535 -0.00606725 -0.07747454 -0.051109336
000120 b8 46 12 3d 2f 5c 11 3e a8 d8 cc bd e1 99 d4 bc
       0.035711974 0.14195322 -0.100022614 -0.025952281
000130 a5 63 7d bd cf 58 82 3c a9 c4 17 bd 4a 81 21 3e
       -0.061862607 0.015911488 -0.037052784 0.15771976
000140 bc 47 bd 3d af 93 42 bc d6 7b 1d 3d 7e ad 9f bd
       0.09242198 -0.011876031 0.038448177 -0.07796763
000150 ed 87 b3 bd 5b e5 4f 3d 7c 96 43 bd d1 d2 a5 bd
       -0.0876616 0.05075584 -0.047750935 -0.08096851
000160 29 97 42 3d a4 b4 ab 3d be df 7a 3d d7 73 6b 3d
       0.04750744 0.08384064 0.061248533 0.05748352
000170 82 82 90 3c d7 35 8e bd 9d d1 18 3d 71 1a 5d 3d
       0.017640356 -0.06943863 0.037309278 0.053980295
000180 f2 b1 ac bd 81 cb 27 bd 21 f2 4c bc 47 67 d3 bb
       -0.08432378 -0.04096556 -0.0125089 -0.0064515206
000190 61 6b ab 3d 7e 92 66 bd 2a a0 14 3c 03 4d f6 bd
       0.0837009 -0.05629205 0.009071389 -0.120264076
0001a0 99 6b c4 bc 88 c6 c3 3d d4 57 a1 3d 51 a5 4a bd
       -0.023977088 0.09559351 0.0787808 -0.049474064
0001b0 0f 69 bd 3d 82 d1 84 bd be 3f ee 3d 2e 5d 5a 3d
       0.09248554 -0.06485273 0.116332516 0.05331152
0001c0 44 d6 3f 3d aa 6a ab bd b4 49 e7 3d 22 13 11 3d
       0.0468352 -0.08369954 0.11293355 0.035418637
0001d0 35 8a a3 bd 48 0d fe bd 04 c1 b0 3d 91 b4 a0 bd
       -0.07985345 -0.12404877 0.08630565 -0.0784694
0001e0 28 5c 37 3d 27 47 82 bd 7a 2c f0 3d 09 02 1a bb
       0.04476562 -0.063612275 0.11727233 -0.0023499748
0001f0 c5 71 d3 3c bc fe a5 bc 53 85 a7 bc 72 0b 0c 3c
       0.025811085 -0.020263068 -0.020449316 0.008547651
000200 c5 51 c5 bd ad b1 0a 3e 51 c7 d2 3b b2 47 c2 bd
       -0.09634737 0.1354434 0.006432452 -0.09486331
000210 92 98 7f 3c 3d 24 ed bd 47 ba d1 bc 1e bc 9a 3d
       0.01560034 -0.115791775 -0.02560152 0.07555412
000220 93 39 ae 3c ba 05 90 3d cc 2f bc bc c5 d3 99 3c
       0.021267688 0.07032342 -0.02297201 0.018777737
000230 3c 4c e1 bd db 47 e7 3d 61 43 b9 bd 3d 53 00 be
       -0.11000869 0.11293002 -0.09046055 -0.12531753
000240 45 c6 ac 3d 25 96 d4 3d d0 90 d1 3d 63 42 7a bb
       0.084362544 0.103802 0.10232699 -0.0038186542
000250 4b 17 99 bd 03 9c cf bc a6 e3 0d be 19 ba 77 bd
       -0.07475146 -0.025342947 -0.13856372 -0.06048021
000260 4c ff 36 bd 2a 4b 7e 3d d9 45 2d 3d 8e de 89 bd
       -0.044677064 0.0620834 0.04230294 -0.06731902
000270 94 ef 93 bd 31 cc f1 bd 09 07 96 3d bb 41 0e 3d
       -0.0722343 -0.118065245 0.073255606 0.034730654
000280 91 5e f7 bd 7a 15 cd bd a1 46 a9 bd 2b d6 87 3b
       -0.12078584 -0.10013862 -0.082654245 0.004145404
000290 58 0e 88 3d e8 88 c2 3d d5 0a d1 bb bd 99 91 3d
       0.06643361 0.09498769 -0.006379465 0.071094014
0002a0 5b ae 21 bc 31 18 85 bd e4 b4 b6 bb c6 5e 1c bd
       -0.00986823 -0.06498755 -0.005575763 -0.03817632
0002b0 75 c9 4a 3d 01 cc d6 3c 6f 46 a0 bc e3 ec 56 3d
       0.04950853 0.026220324 -0.019564835 0.052472007
0002c0 14 62 07 bd 6c f4 dc bd 65 4a b6 bd 7c d9 7f 3d
       -0.03305252 -0.10788807 -0.089009084 0.06246327
0002d0 e0 bc c1 bd 2f c6 c8 3d d9 40 09 bd 4c c9 92 3d
       -0.09459853 0.098034255 -0.03350911 0.071673006
0002e0 2c 68 e7 3d ec 5d 00 3e c4 f9 19 3e 33 f4 71 bd
       0.11299166 0.12535828 0.15036684 -0.059070777
0002f0 3d 11 9d 3d 0c b9 c0 bc 72 f0 e3 bc b7 ce 34 3e
       0.076693036 -0.023525737 -0.027824614 0.1765698
000300 6d 8c a3 3d a6 5f a7 3c 41 be 44 3e 76 23 ed 3d
       0.079857685 0.02043135 0.19213201 0.11579029
000310 88 3a 23 3d bc 70 aa 3c 3c f8 b2 3d f2 83 3e 3e
       0.03985074 0.020805709 0.08738753 0.1860502
000320 4e cf cd bc 37 b8 d5 3d 88 9e ac 3d 3f 49 8f bd
       -0.025123265 0.10435527 0.08428675 -0.069963925
000330 a5 64 58 3d 64 5d 16 bd 29 1c 92 3c 50 9e 45 3e
       0.052830357 -0.036710158 0.017835693 0.19298673
000340 c8 01 e3 3c dc b8 f5 3d a5 e5 f1 3d b0 c6 74 bd
       0.02771081 0.1199815 0.11811379 -0.059759796
000350 1e 42 c6 3d c5 4e ae 3d f8 5d 1b 3e cb 79 e9 bc
       0.096805796 0.08511118 0.15172565 -0.028500458
000360 6d 28 15 3d b6 68 15 3e ee 30 ec 3b e7 7a 22 3e
       0.036415506 0.14590725 0.0072079813 0.15867196
000370 70 80 8b 3c 9c 7b 0e 3e 08 e9 86 3d 76 a8 12 3e
       0.017029017 0.1391434 0.06587416 0.14322075
000380 a5 47 22 bd 22 8d 5e bc 86 d5 d2 3c 3e 47 17 3e
       -0.039619107 -0.013583453 0.025736582 0.1477327
000390 00 d3 52 3d b0 3d 58 3d 7a c4 a1 3d fc ed b1 bc
       0.051470757 0.052793205 0.07898803 -0.021719925
0003a0 46 0d f9 3d a7 0c d4 3c c2 c9 74 bd b6 e6 62 bd
       0.12160735 0.02588494 -0.059762724 -0.055395804
0003b0 71 ed bb bd 9c d7 f0 3d 5c bb ac 3d 16 0d 06 3e
       -0.09176148 0.11759874 0.084341735 0.1309093

model.rnn.weight_ih_l1 f4 [240, 60]
000000 5d 11 57 3e 0c 02 8c 3b 95 a2 08 3e 40 7a ba bd
       0.21002717 0.004272705 0.1334327 -0.091053486
000010 34 0a e4 bc 6c 22 40 be 85 c0 a9 bd 19 27 a1 bd
       -0.027836896 -0.18763131 -0.08288673 -0.078687854
000020 24 44 50 be d8 7c 19 3d 11 20 9f bd 15 c0 a4 3d
       -0.20338494 0.037472576 -0.07769788 0.08044449
000030 5e 23 d2 3c 0e 0c 4c 3d be f2 18 bd ca 42 8e bd
       0.02565163 0.049816184 -0.037340872 -0.06946333
000040 3b 03 5a bd f5 c9 e7 bd d3 77 04 3e 76 de 07 be
       -0.053225737 -0.11317817 0.12936334 -0.13268456
000050 82 f7 f2 b9 25 05 19 3e 8c 6b f7 bc cb f1 ae bd
       -0.00046342245 0.14943369 -0.03020265 -0.08542212
000060 c7 cb 21 bd 18 b4 68 bd 4d 0b 4b 3e f5 28 3f be
       -0.039500978 -0.056812376 0.1982853 -0.18667968
000070 b9 57 b9 bd 38 1e ef bd d0 ad d0 bd 9e 76 f7 bd
       -0.09049935 -0.11675686 -0.10189402 -0.12083171
000080 ab 0f 8b bd 41 34 59 3d 3f 9c a9 bd 74 f7 f3 3c
       -0.06790098 0.05302835 -0.08281755 0.02978108
000090 35 bb 46 be c5 c2 09 be 77 2f 12 3d 59 42 42 bd
       -0.19407351 -0.13453205 0.035689797 -0.047426555
0000a0 cb f4 27 3d c8 5a 0a be b8 dc d6 bd 88 c0 3b 3e
       0.041004937 -0.13511193 -0.104913175 0.18335164
0000b0 95 fa 66 bd 1e 60 cb bd 33 fc 25 bd 28 9a 06 3d
       -0.056391317 -0.09930442 -0.04052372 0.03286186
0000c0 35 81 44 be 8e ea d2 bb ab c3 42 3e 22 aa 38 bb
       -0.19189914 -0.0064366525 0.19019954 -0.002817758
0000d0 45 84 09 3d 8d d4 5a bd 48 57 84 bd bc e0 b6 bc
       0.033573408 -0.05342536 -0.0646196 -0.022323959
0000e0 32 2c fc bd 4a 7c b6 3c 5f 52 1e bc a8 be 27 bd
       -0.12313117 0.022276063 -0.0096631935 -0.04095331
0000f0 3a f0 b3 3d b5 98 36 3e 14 cc 81 3c c0 5c f6 3c
       0.08786054 0.1783169 0.015844382 0.030073524
000100 53 57 58 3e 95 fc 2f 3d e2 79 0e bd 2d 24 03 be
       0.21127062 0.04296549 -0.034784205 -0.12806769
000110 20 7f b5 bd 43 62 cb 3d b3 f3 0b bd 08 a7 4d 3e
       -0.08862138 0.09930851 -0.034167957 0.20083249
000120 b1 f7 6f 3d f6 fb f6 bd 18 63 43 3e d6 d5 4f bb
       0.058585826 -0.120597765 0.1908077 -0.003171315
000130 1e 3e f2 3d 7c f2 20 3d a2 e6 1a bc 2a ef cd 3d
       0.11828254 0.03929375 -0.009454401 0.100553825
000140 77 63 4b be 6f 91 9f 3d 09 64 2f be 77 84 15 ba
       -0.19862162 0.07791411 -0.17128004 -0.0005703638
000150 05 bd b9 3a 94 33 92 3d 2c cf 2c bc 3a 42 1f bb
       0.0014170712 0.07138744 -0.0105474405 -0.0024300949
000160 84 f9 fa bd e7 33 d2 bc e4 d3 2a bd ed c2 e6 3c
       -0.122546226 -0.025659515 -0.04170598 0.02816912
000170 f3 19 33 3d 72 3f 48 3e 95 46 84 3d a7 0b e3 bd
       0.04372592 0.19555452 0.06458775 -0.11086207
000180 ac dd f1 bd 11 9c 0f 3e cc 92 db 3d 1c 9b fe bc
       -0.11809859 0.14024378 0.10721359 -0.031079821
000190 39 4e f0 bd e7 47 2a be f8 1d 88 bd fc 6b 21 bd
       -0.1173367 -0.16628991 -0.06646341 -0.039409623
0001a0 bf 20 1c be 4a 51 5d bc f1 7e 90 3d 83 d1 2f 3e
       -0.15246867 -0.01350815 0.07055462 0.17169766
0001b0 32 cf cd bd dc 48 ef bd 40 26 a5 3b 79 13 0f 3e
       -0.10049285 -0.11683819 0.00503996 0.13972272
0001c0 91 d8 a1 bb 7f e8 0f 3e ea 98 85 3d 24 90 c8 3d
       -0.004939147 0.14053534 0.06523307 0.09793118
0001d0 39 48 f0 bd c4 0b 38 3d ff 91 af bc 53 fa 47 3e
       -0.117325254 0.044933096 -0.021431921 0.19529085
0001e0 1f 46 de 3d d0 f0 12 3e 2e 25 26 be 92 74 6f bd
       0.10853218 0.14349675 -0.1622512 -0.05846078
0001f0 19 2b 18 3a a6 c1 10 3c cc 4d 2b be e8 1d c5 3c
       0.0005804762 0.008835232 -0.16728896 0.024062112
000200 35 0c 29 be 7b 18 34 3d 38 cf 5e 3e a2 38 96 3d
       -0.16508563 0.04396866 0.21758735 0.073350206
000210 de 27 36 3e dd 97 28 be ac f9 39 3e d3 8f 7b bd
       0.17788646 -0.16464181 0.18161649 -0.06141646
000220 2a 7e 0c bc 3d a7 83 3d 98 5a 00 3e 17 33 c8 3d
       -0.008575002 0.064283825 0.12534559 0.097753696
000230 d7 18 02 be 40 a4 65 3d 11 b2 ca bd 47 28 05 be
       -0.12704788 0.056064844 -0.09897245 -0.13003646
000240 e7 f0 02 be b5 b9 3d bc 86 5c 51 3e da ff 9c 3c
       -0.1278721 -0.011579921 0.20445451 0.019164968
000250 4b da 9f bc 52 7f 50 be 7c e0 1e bd 1f 9f 18 bd
       -0.01951327 -0.20361069 -0.038788304 -0.037261125
000260 13 c6 3d be 72 75 ee 3d f5 75 0c 3e 2e d3 8d bd
       -0.1853259 0.11643495 0.13716872 -0.06925045
000270 9a 07 c9 bd 9f 19 f3 3d 0a 5a 47 3e fd 09 8f 3d
       -0.09815903 0.11870121 0.19467941 0.06984327
000280 6f c2 c0 bd 2e 39 97 bd c2 b3 b8 bd ad e1 31 3e
       -0.09412085 -0.07383953 -0.09018661 0.17371245
000290 e6 e2 11 be 6c 26 24 be 34 4b 95 3d 8d 68 2e 3e
       -0.14246711 -0.16030282 0.072897345 0.1703207
0002a0 33 2c 38 be 17 e7 05 bd 31 c3 e2 3d 09 cb ae 3d
       -0.1798561 -0.032691088 0.11072386 0.0853482
0002b0 48 a4 50 3e c0 cf 18 3e 00 61 94 bd 01 59 51 3e
       0.20375168 0.14923 -0.07245064 0.20444109
0002c0 1a 79 f1 3c ff a9 4b bd 4a a5 eb bd e6 fe a0 3b
       0.029476691 -0.049722668 -0.11506136 0.0049131988
0002d0 87 48 12 3e 07 c9 ba 3b 71 9d 38 3c 26 1d 47 ba
       0.1428548 0.005700234 0.011268006 -0.0007595591
0002e0 b2 a7 a4 bd d2 7e 67 3c 68 21 c7 3c 3a 92 02 bd
       -0.08039798 0.014129357 0.024307922 -0.031877734
0002f0 d0 53 6c bd 51 a7 39 bd 5f 81 29 bd 87 bb ed bc
       -0.057697117 -0.04532558 -0.041383144 -0.029020084
000300 fa b7 cb 3d cf 68 f9 bc e5 92 51 bd 74 23 93 bd
       0.099472 -0.030445484 -0.05116548 -0.071844965
000310 63 7d fd 3d a7 2a 0f bc 92 5e a8 3d 6d 83 7d bc
       0.12377431 -0.008738196 0.08221163 -0.015473229
000320 50 17 d4 bb 80 e8 1b bd 81 12 b9 bd ee f5 86 3a
       -0.0064725056 -0.038063526 -0.090367325 0.0010296681
000330 bc 1d 95 bd ff 38 a6 3d 16 27 2f bd 8d 20 06 be
       -0.07281062 0.0811634 -0.042761885 -0.13098355
000340 14 20 90 bd 17 99 99 bd 83 7a f3 bc cf 6d 1e 3d
       -0.070373684 -0.07499903 -0.029721504 0.03867894
000350 28 2b 19 bd d7 09 27 3e 64 4f d5 bd 58 d6 65 bc
       -0.037394673 0.16312347 -0.10415533 -0.014028154
000360 88 a5 1a 3c 6b 2d 5c bd 9b 42 db bc a6 15 c7 3c
       0.00943888 -0.05375425 -0.026765158 0.024302315
000370 12 b5 03 3d 44 aa f5 bd d1 28 06 be 39 12 bf 3d
       0.032155104 -0.11995366 -0.13101508 0.093296476
000380 48 c8 44 bd de fd 05 3c 56 9d 8f bc 0d bd 18 3d
       -0.048042566 0.008178202 -0.017531078 0.037289668
000390 c6 95 b1 3d c2 01 4c bd 71 d8 8a bd 02 16 1c 3e
       0.08671145 -0.049806364 -0.06779564 0.1524277
0003a0 00 db 85 bd b8 ff ec bd fe 96 bc bd af 40 9d 3d
       -0.065359116 -0.11572212 -0.09208487 0.07678353
0003b0 74 41 97 bc 98 60 3d bd 8e a4 9c bd ce 09 81 bd
       -0.018463828 -0.046234697 -0.07648574 -0.06300698
0003c0 6c 06 7a 3d 92 f5 31 3d 60 64 d5 bd f1 b5 9a 3d
       0.06104128 0.043447085 -0.10419536 0.07554234
0003d0 0a c5 4b b9 ad 76 c6 3d 1a 86 6c 3d d0 6c c1 bd
       -0.00019432991 0.09690604 0.057745077 -0.094445825
0003e0 5c 63 e5 bb f7 9e 87 bd 28 c2 3b 3c 22 f1 b3 bc
       -0.00700037 -0.06622117 0.011459865 -0.021965567
0003f0 cd 90 9e 3d bf b5 f8 bd 43 64 4d 3d 06 c2 e3 3d
       0.07742462 -0.1214404 0.050144445 0.111209914

model.rnn.weight_hh_l1 f4 [240, 60]
000000 e0 f0 6f bd fd ec 72 bc 2c 7d 43 bc af 63 40 3e
       -0.058579326 -0.01482701 -0.011931699 0.18788026
000010 9e b4 9a bd 07 73 2e bd eb e6 16 3e a9 a9 1f 3e
       -0.07553981 -0.042590167 0.14736526 0.15592064
000020 fd 75 00 3e 06 a8 34 3c 14 f8 b9 bd da 8f 01 be
       0.12545009 0.011026388 -0.0908052 -0.12652531
000030 0a e3 e9 bd c3 bd 35 3d c9 1c 3e bc f4 22 98 bd
       -0.114202574 0.044370424 -0.011603543 -0.07428542
000040 b7 41 3a 3e 73 63 2d 3d 65 e2 0a be 52 61 bf bc
       0.1818913 0.04233117 -0.13562925 -0.023361836
000050 9c d8 e1 bb 7d 99 02 be 29 fc b7 3c e9 bc 70 bc
       -0.006892277 -0.12753864 0.022459107 -0.014693477
000060 20 cd 2f be ed bf 6b bc cc 23 34 bd d9 e5 28 be
       -0.17168093 -0.01438902 -0.04397945 -0.1649393
000070 1c 91 4e ba 68 1f 05 bc 62 54 2a 3e 8a 50 4b 3e
       -0.00078798993 -0.008125164 0.16633752 0.19854942
000080 44 50 22 3e 46 11 26 be 21 c0 d1 bc b5 aa 16 3d
       0.15850931 -0.16217527 -0.02560431 0.036783893
000090 81 2d 05 3e 28 ad 4f bc 5d 61 dc bc 21 81 ba 3d
       0.1300564 -0.012675561 -0.026901895 0.09106661
0000a0 0b da 07 3d 88 19 b1 3d f8 d6 2f be 19 36 0d 3d
       0.033166926 0.08647448 -0.17171848 0.03447542
0000b0 51 49 0e be ae 9a 0c bd 96 d6 e8 3d ad 99 3a 3d
       -0.13895155 -0.0343272 0.11369054 0.045556713
0000c0 33 2b d7 bd 5f c7 ae bc ce 89 ce 3d 95 5e 24 3e
       -0.105062865 -0.021335302 0.10084878 0.16051705
0000d0 04 43 ec bc b0 7c 1e bb e1 87 11 3e b6 7b f4 bc
       -0.02884055 -0.0024183206 0.1421199 -0.029844146
0000e0 76 43 13 bc f3 42 c7 3d d1 73 46 bd c9 28 48 3c
       -0.008988252 0.097295664 -0.048450295 0.012216755
0000f0 7e 5e 3d be 7c fb c4 bd 74 31 2e 3e 31 0f 24 3e
       -0.18493077 -0.09618279 0.17011052 0.1602142
000100 6b 67 77 3d 6e 83 56 3d bd 54 37 bd 3c ef 28 3d
       0.06040136 0.052371435 -0.044758547 0.041243777
000110 1c 44 3c 3d b7 61 dc bc fc 3e 70 bd 19 0f e3 bd
       0.04596339 -0.026902063 -0.058653817 -0.11086864
000120 ad 6a 30 be 37 90 19 bd 28 76 11 3e 7f 03 5f bd
       -0.17228194 -0.03749105 0.1420523 -0.054446694
000130 82 9b 45 bd ce 78 81 bb 9c 7f e7 bd 2e 2c ab bd
       -0.048244007 -0.0039511686 -0.113036364 -0.08358036
000140 fa 5b 03 be 1f 9d 00 bc d9 44 08 3e a1 bf 41 3e
       -0.12828055 -0.007849961 0.13307513 0.18920757
000150 69 d1 1a be 3a a7 4b be 40 15 97 3d 61 91 58 bd
       -0.15118946 -0.1988801 0.073771 -0.05287302
000160 60 23 d5 bd f5 fd 19 3e eb f0 7d bd 6b 45 a5 bc
       -0.10407138 0.15038283 -0.061997335 -0.020174703
000170 66 fe 2c 3e 7d 73 3a be 2f 81 0a bc 4e 1d 69 bc
       0.1689392 -0.18208118 -0.008453651 -0.014228178
000180 aa 28 29 3e e0 2f d2 bd cc 03 5a 3e d9 de 13 bd
       0.16519418 -0.10263038 0.21290511 -0.036101196
000190 55 7e 75 bd 05 11 29 3e ca 31 03 bd 97 68 13 3d
       -0.059934933 0.16510399 -0.032029904 0.035988417
0001a0 f1 27 6f 3d fd 84 3c bc 19 a8 04 bb ae cc e6 3d
       0.0583877 -0.011506316 -0.0020241796 0.11269508
0001b0 c7 1c 5b bc 6b b1 e6 3c d1 c9 61 3d 7e ec d6 3c
       -0.01337356 0.028160771 0.055124108 0.026235815
0001c0 4d 08 aa bd be 13 07 3c 69 04 18 3e 32 a7 19 be
       -0.083023645 0.008244453 0.14845432 -0.15005186
0001d0 47 3a c8 3c 60 17 d3 3d e3 12 3e bd cb 53 a8 bd
       0.024441851 0.10307193 -0.04640473 -0.08219107
0001e0 6e bc 4a be 69 87 dc 3c 06 b5 e2 bc 8d 20 d7 3d
       -0.19798443 0.026920037 -0.02767421 0.105042554
0001f0 75 fa a2 3d f8 f4 57 3e be 8a 64 3a 58 fd 29 3e
       0.07957927 0.21089542 0.0008718184 0.16600549
000200 4e c8 4d 3d bc de 9d 3d 4c 94 3c be 79 f4 c6 b9
       0.050239854 0.07708499 -0.18415946 -0.0003794765
000210 86 80 40 3c 8f c9 cf 3d df f5 ce bc 98 1c 2f 3d
       0.011749392 0.10145866 -0.025263725 0.04275188
000220 9c cb ac 3d a5 64 2a 3e 2d 91 0a be 6e a4 a8 bc
       0.08437273 0.16639955 -0.13531943 -0.020586219
000230 c9 fe 06 3d 05 e9 f3 bc af a7 50 3e 0e 6f 49 3c
       0.032957826 -0.029774198 0.20376466 0.012294544
000240 fe 9f a2 3c bf 7f 5c bd d9 dd 29 3c 84 f1 0d be
       0.01985168 -0.053832766 0.010367834 -0.13861662
000250 3f 42 39 be 3d 9d 46 3e 93 f3 1b 3e 76 35 7b 3d
       -0.18091677 0.19395919 0.15229635 0.06133028
000260 c7 5c 49 3e fb 8e 06 bd d1 0d 85 bc 1c 7f f9 3d
       0.19664298 -0.0328512 -0.01624194 0.12182447
000270 02 52 1f 3c 8e 73 0e be eb 43 20 3e 77 4e e0 3d
       0.009724142 -0.13911268 0.15650909 0.10952466
000280 96 60 d6 bd 49 a2 43 3e 1d 2f e3 ba 06 b8 f6 3c
       -0.10467641 0.19104876 -0.0017332766 0.030117046
000290 ec c6 f1 bb fa 0a b2 3d 74 2a 45 3d 25 a8 9a bc
       -0.0073784497 0.086935 0.04813619 -0.018879006
0002a0 3d 6a b9 bd 81 e5 71 ba 37 1f 1e bd a9 1a 6d bc
       -0.090534665 -0.0009227619 -0.038603988 -0.014471688
0002b0 cc 32 a0 3c e7 c6 c5 3d c0 c3 ea ba e6 2b 38 be
       0.019555472 0.09657078 -0.0017911121 -0.17985496
0002c0 69 ec 2d bd 22 b4 23 bd 82 72 a5 3a 61 0b 16 bd
       -0.042461786 -0.03996671 0.0012622627 -0.036631946
0002d0 51 de 1a be 42 a6 66 3d 4d 69 24 bd 30 fb 87 3c
       -0.1512387 0.0563109 -0.040139485 0.016599268
0002e0 98 eb c7 3d 4a 3e b2 3a dc dc 1d 3e 95 b6 1b bb
       0.09761733 0.0013598886 0.15416282 -0.002375995
0002f0 43 88 06 3e 2a 37 11 3e 86 b3 0c bc cc 0d af 3d
       0.13137917 0.141812 -0.008587724 0.085475534
000300 45 af 7b bc 44 a7 73 bd e7 35 aa 3c 25 e8 03 be
       -0.015361612 -0.05948569 0.020777656 -0.12881525
000310 c0 aa d0 3d 84 ae ae bd 21 fd 96 3d 33 a2 18 bd
       0.10188818 -0.0852938 0.07372499 -0.03726406
000320 fe a7 b2 3d 4c 62 fe bd 5a 5d 13 3e 8b 5f d6 3d
       0.08723448 -0.124210924 0.1439108 0.10467442
000330 8a 7a 16 be 85 7e 8e 3d ad dd 3a bd bd c7 4f 3d
       -0.14695182 0.069577254 -0.045621563 0.050727595
000340 14 db 05 be 9d c4 0e 3e b2 41 7a 3d f2 2a 03 3e
       -0.13071853 0.1394219 0.06109781 0.12809351
000350 bf c1 ad 3d cf 2c 9f bd 6a a2 17 be af d5 7a bd
       0.0848422 -0.077722184 -0.1480805 -0.06123894
000360 79 10 62 bd 0e 4f 2b 3b c9 35 2d bc 59 40 66 bd
       -0.05519149 0.002613965 -0.010571905 -0.05621371
000370 0e fd 48 bd 87 b0 18 bd e9 0f eb 3d ac 6b 0c bc
       -0.049069457 -0.037277725 0.11477644 -0.008570593
000380 11 68 57 3d af 23 e1 3d 81 8c 51 bd 57 50 4b bc
       0.05258948 0.10993134 -0.051159386 -0.012409291
000390 fb 26 85 bb 7c fa d8 bd 6f d9 0e 3d b0 57 7a 3c
       -0.0040634847 -0.10594651 0.03487533 0.015279695
0003a0 3f e2 49 bc 7c 41 0e bc 30 3f d4 3a 17 fe 04 be
       -0.012322008 -0.008682605 0.0016193148 -0.12987553
0003b0 28 a7 06 be 55 e8 7d 3b 05 e9 28 bd 08 15 0d be
       -0.13149703 0.0038743217 -0.04123785 -0.13777554
0003c0 45 6a 91 bc ed 1c a7 3c 80 75 02 bc 4b 81 be bc
       -0.017750869 0.020399535 -0.0079625845 -0.023255011
0003d0 1c 95 bb 3d 21 6d 85 3d bc fe d3 3c 04 9f e0 3a
       0.091593 0.06514955 0.025878303 0.0017137234
0003e0 cd 1f 33 bc 81 af 3b bc dd 0f 79 bb e4 50 94 bd
       -0.010932875 -0.011455418 -0.003800384 -0.07241991
0003f0 ff 86 12 3c fb 60 db 3d 71 c9 bb bb 37 01 c2 3c
       0.008943318 0.10711857 -0.005730801 0.02368222
