checkpoints/epoch=1-step=100-v57.ckpt (torch, 621663 bytes, 33 tensors)

model.param_proj.proj.0.weight f4 [1, 60]
0	0xbd624518	-0.055241674
1	0x3e0d1cd7	0.13780533
2	0x3e21f388	0.15815556
3	0x3e0b081d	0.13577314
4	0xbe6e8c5c	-0.2329573
5	0x3e43ec86	0.19133195
6	0x3d1a5013	0.03767402
7	0x3cb0cf43	0.021583205
8	0x3e312765	0.17300184
9	0x3e14ee48	0.14544022
10	0x3e166b61	0.146894
11	0xbe292a99	-0.16520156
12	0x3de7731e	0.11301254
13	0x3e04ed9e	0.12981269
14	0x3e549583	0.20760159
15	0x3b8022f8	0.0039104186
16	0x3d02df3d	0.031951178
17	0xbe5c3de6	-0.21507987
18	0xbcbc8cad	-0.023016298
19	0x3d68f296	0.056871973
20	0xbe127d85	-0.14305694
21	0xbc86b336	-0.016442876
22	0x3dcb3af3	0.09923353
23	0xbdad9a3e	-0.08476685
24	0xbe5ff930	-0.21872401
25	0xbe1ccec2	-0.15313247
26	0xbe385eca	-0.18004909
27	0x3e05da5d	0.1307158
28	0x3e6dd7df	0.2322688
29	0xbc3dc263	-0.01158199
30	0x3d7cffc7	0.061767366
31	0x3e405b92	0.18784931
32	0x3dfac97f	0.122454636
33	0xbe365551	-0.17805983
34	0xbe10a294	-0.14124519
35	0x3b090b34	0.0020911219
36	0x3ca6092c	0.020268045
37	0xbd43c25c	-0.047792777
38	0x3d480326	0.048831128
39	0x3e1e9798	0.15487516
40	0x3d37ece5	0.044903655
41	0xbcabc689	-0.020968692
42	0xbe1eb968	-0.15500414
43	0x3e6705c9	0.225608
44	0x3da3f3e8	0.08005506
45	0x3e2e395e	0.17014071
46	0xbcb4cf48	-0.022071496
47	0x3e51ca1e	0.20487258
48	0xbceaf065	-0.028679082
49	0xbd53416a	-0.051576056
50	0xbe57e2ed	-0.21082659
51	0xbe1f22aa	-0.15540567
52	0xbe624a5e	-0.22098681
53	0x3dd1c837	0.10243266
54	0xbe4ca5df	-0.1998515
55	0x3dca3506	0.09873395
56	0x3cac7bd0	0.021055132
57	0x3e377673	0.17916279
58	0xbe685e32	-0.22692183
59	0xbe4a4b06	-0.19755182

model.param_proj.proj.1.weight f4 [1, 60]
0	0xbde42f53	-0.11141839
1	0xbe058d8d	-0.13042279
2	0x3dab9e35	0.08379785
3	0xbd8d5cde	-0.06902479
4	0xbd5035b2	-0.050832458
5	0xbe1f57ff	-0.15560912
6	0xbd43b469	-0.047779474
7	0x3e0fb885	0.14035232
8	0x3e5b0a57	0.21390663
9	0x3da644a5	0.08118562
10	0x3e54ab37	0.20768438
11	0x3d0e721d	0.034776796
12	0xbd74859a	-0.059697725
13	0xbe34dd8e	-0.17662641
14	0xbd1c2623	-0.038122308
15	0x3e40a26c	0.18811959
16	0x3d66960e	0.056295447
17	0x3e232d87	0.15935336
18	0xbc987c18	-0.01861386
19	0xbe3b43df	-0.1828761
20	0xbe4208bb	-0.18948643
21	0x3dfaf3ea	0.12253554
22	0x3e0e03cf	0.1386864
23	0xbdaf040f	-0.08545696
24	0xbe0153c0	-0.12629604
25	0x3e04fab3	0.12986259
26	0xbe08244d	-0.13295098
27	0xbddf678b	-0.10908421
28	0xbdb050fc	-0.086091965
29	0xbcc26e31	-0.023734184
30	0xbe09b651	-0.13448454
31	0x3e14a592	0.14516285
32	0x3e2df03c	0.16986173
33	0x3e0fe412	0.14051846
34	0x3e1e08d7	0.1543306
35	0xbd99fa29	-0.075184174
36	0xbe4452f0	-0.19172263
37	0xbe180f8f	-0.14849685
38	0xbde75498	-0.11295432
39	0x3ae5347f	0.0017486959
40	0x3d9a9be8	0.07549268
41	0x3db9014e	0.09033452
42	0x3dae8a95	0.08522526
43	0x3dc35b9f	0.0953896
44	0x3e0cfb52	0.13767746
45	0xbe235d04	-0.15953451
46	0x3e03430b	0.12818544
47	0xbcbc97a2	-0.023021523
48	0x3e2c3cd1	0.16820075
49	0xbdcc75a7	-0.09983378
50	0x3da1633e	0.07880257
51	0x3e42a369	0.19007649
52	0xbd698d9f	-0.057019826
53	0xbe23cd45	-0.15996273
54	0xbe3776f6	-0.17916474
55	0x3e09041f	0.13380478
56	0x3c77d71d	0.015126971
57	0x3dbb9a2f	0.091602676
58	0xbd0d55ce	-0.034505658
59	0x3e179a93	0.14805059

model.param_proj.proj.2.weight f4 [1, 60]
0	0xbcab29e6	-0.020894002
1	0x3d073d01	0.033017162
2	0xbd6dcd4b	-0.05805711
3	0x3c98b6a5	0.01864178
4	0xbd1b15c6	-0.03786256
5	0x3db461e3	0.08807733
6	0xbd8fa6e7	-0.07014256
7	0xbda50acf	-0.08058702
8	0x3c829be9	0.015943484
9	0xbd59a3ae	-0.053134613
10	0x3deb7d02	0.11498453
11	0xbb211ced	-0.0024583891
12	0x3dcfe9cf	0.10152017
13	0x3d9967c6	0.07490496
14	0x3d5c53b0	0.053790748
15	0x3e16ca01	0.14725496
16	0xbd56e173	-0.0524611
17	0xbd2c17e4	-0.04201497
18	0xbde18240	-0.11011171
19	0xbe0ca4ce	-0.13734743
20	0x3d504a09	0.050851855
21	0x3c9412d1	0.018075379
22	0x3cdc38fe	0.026882645
23	0x3dd96c5d	0.10616372
24	0x3b94a77a	0.0045365663
25	0xbb0dd057	-0.0021639073
26	0x3d970462	0.07373883
27	0xbd98bbf9	-0.07457728
28	0x3d47d81e	0.04879009
29	0xbe29ae47	-0.16570388
30	0x3d81b164	0.06332663
31	0x3dfb5862	0.12272717
32	0xbce136e8	-0.027492002
33	0xbcdacd82	-0.026709322
34	0x3dc78e7d	0.09743974
35	0xbe03df41	-0.12878133
36	0xbe146469	-0.14491428
37	0xbc4e8c58	-0.012606703
38	0xbd3595ce	-0.044332318
39	0x3dead55c	0.11466476
40	0x3d2af01a	0.041732885
41	0xbda11a4a	-0.07866342
42	0x3b9932d1	0.0046752472
43	0xbcefa79f	-0.029254733
44	0xbd6bf514	-0.05760677
45	0xbcfa34db	-0.030542782
46	0xbdf89d4e	-0.121393785
47	0x3db3e3ca	0.08783682
48	0xbcfad995	-0.03062133
49	0xbdc48bf2	-0.09597005
50	0xbc9bfc2f	-0.019041149
51	0x3d879fe6	0.06622295
52	0x3b113c61	0.0022161233
53	0x3db23b10	0.087026715
54	0xbd2444e4	-0.04010476
55	0x3de0312c	0.10946879
56	0xbe178343	-0.14796166
57	0x3a8f9420	0.0010954179
58	0x3dd42dc3	0.10360291
59	0x3dd8fb0a	0.10594757

model.rnn.weight_ih_l0 f4 [240, 24]
0	0x3c5f3bc1	0.013625086
1	0x3b081ebd	0.0020770275
2	0xbdde2189	-0.1084624
3	0x3d3398fb	0.043847065
4	0x3d85a2de	0.06525205
5	0x3d9864b0	0.074410796
6	0xbcb1805d	-0.021667654
7	0x3e11a6d8	0.14223802
8	0x3e44831f	0.19190644
9	0xbd6e9e5c	-0.058256492
10	0x3c39345a	0.0113039855
11	0xbdc9b5e6	-0.098491475
12	0x3b53759e	0.003226615
13	0xbde5937d	-0.11209772
14	0xbe039da7	-0.12853108
15	0x3df118dd	0.117723204
16	0xbd83425e	-0.06409143
17	0x3d09c41b	0.033634286
18	0x3d1eed4e	0.03880053
19	0xbdda2cbb	-0.10653063
20	0x3af1e8bc	0.0018456201
21	0x3cf38d51	0.02973047
22	0x3e012cfd	0.12614818
23	0x3e19658f	0.14980148
24	0x3d329e4f	0.043608006
25	0xbd87024b	-0.06592234
26	0xbde46e9f	-0.11153912
27	0xbdc51fd7	-0.096252136
28	0xbe0ab676	-0.13546166
29	0x3cf43a1a	0.029812861
30	0x3d4213c5	0.047382135
31	0x3e1cad7b	0.15300553
32	0xbd82a637	-0.06379359
33	0xbc07b842	-0.008283677
34	0x3caada15	0.020855943
35	0x3d20b1e2	0.039232142
36	0xbd9b7bdb	-0.07591983
37	0x3d13f42e	0.03612154
38	0x3db64566	0.088999555
39	0x3d944419	0.07239551
40	0xbb081754	-0.0020765858
41	0x3d82557a	0.063639596
42	0xbd663300	-0.05620098
43	0xbc8a6a89	-0.016896503
44	0xbe2a7c16	-0.16648898
45	0x3e42d756	0.19027457
46	0xbda9f621	-0.082988985
47	0x3d285b5d	0.041102756
48	0x3c2ea112	0.010658519
49	0x3c219e6c	0.009864431
50	0xbdf50a49	-0.11964852
51	0xbe1595f1	-0.1460798
52	0xbcd510f8	-0.026009068
53	0x3e11a89a	0.14224473
54	0x3e44fd5a	0.19237271
55	0xbd49e2f4	-0.049288705
56	0x3dbf8f50	0.093535066
57	0x3cc36cd7	0.02385561
58	0x3d2771ac	0.04087989
59	0x3dfd11fc	0.12356946
60	0x3ce0e5fe	0.027453419
61	0x3da86dd7	0.08224075
62	0xbd0b93d9	-0.034076545
63	0xbd4a6cbf	-0.049420115
64	0x3dc4f03a	0.09616132
65	0x3d0b74cc	0.034046933
66	0x3d44d866	0.048057936
67	0xbdb68314	-0.0891172
68	0xbd9ae625	-0.07563428
69	0x3d2c9db7	0.042142596
70	0x3e1bb837	0.15206991
71	0x3e2e7608	0.17037213
72	0x3cd6ea1b	0.026234677
73	0xbc042a65	-0.008066748
74	0xbc88dbf9	-0.016706454
75	0xbd830602	-0.0639763
76	0xbc7c45a7	-0.015397466
77	0xbd99ac0a	-0.07503517
78	0xbd86f113	-0.0658895
79	0xbd8f9ef2	-0.07012738
80	0x3ab49157	0.0013776225
81	0xbbe77c28	-0.007064361
82	0x3d68c2e4	0.056826487
83	0xbdaba058	-0.083801925
84	0x3cb06c14	0.02153591
85	0x3e0275a6	0.12740192
86	0xbde36d8e	-0.1110488
87	0xbddede79	-0.10882277
88	0xbdc1ab49	-0.09456498
89	0xbd8535e5	-0.0650442
90	0xb9c88b60	-0.00038250815
91	0x3d59ab1d	0.053141702
92	0x3d5b4081	0.053528313
93	0xbe3d0a35	-0.18460925
94	0x3b95281d	0.004551901
95	0x3a26dfff	0.00063657755
96	0x3d80b367	0.06284218
97	0xbdeebc58	-0.116570175
98	0x3d8ada8f	0.06779968
99	0xbe46b7cb	-0.19406049
100	0x3d4b8776	0.049689732
101	0xbe0c51b2	-0.1370304
102	0xbb9157f2	-0.0044355327
103	0xbd7946c1	-0.06085849
104	0x3d6c34f2	0.05766768
105	0x3d0174f4	0.031605676
106	0xbd1a35a8	-0.037648827
107	0xbaab0197	-0.0013046738
108	0x3d7d2b32	0.061808772
109	0x3ca35a3b	0.019940486
110	0xbcb95a1c	-0.022625975
111	0x3c234f80	0.009967685
112	0x3c4d0a35	0.012514641
113	0xbd3e7cd6	-0.04650577
114	0x3bf8a212	0.0075876797
115	0x3de79084	0.11306861
116	0xbc34cb8b	-0.011034857
117	0x3cc7cb09	0.024388807
118	0x3dc2c53e	0.09510277
119	0x3bd3b75c	0.006461067
120	0x3df0b9f0	0.11754215
121	0x3d900706	0.070325896
122	0x3d412a01	0.0471592
123	0xbdec5ca7	-0.115411095
124	0x3d1caec8	0.038252622
125	0xbd2d77b8	-0.0423505
126	0x3cfc5eea	0.030806977
127	0xbe2084e8	-0.156757
128	0xbc61c0aa	-0.013778845
129	0x3dae5637	0.08512538
130	0xbd87ffb3	-0.06640568
131	0xbde006cb	-0.10938796
132	0xbe40a9e1	-0.18814804
133	0x3dfb6f04	0.12277034
134	0x3ba9b6ba	0.0051792534
135	0x3d564806	0.05231478
136	0x3deca2ec	0.115545124
137	0x3d9c000b	0.07617196
138	0x3e02e0b6	0.12781033
139	0xbde2903b	-0.11062666
140	0xbb315190	-0.0027056672
141	0x3d945240	0.072422504
142	0x3e80c559	0.25150564
143	0x3dcbedd8	0.099574745
144	0xbd356562	-0.04428614
145	0xbd38bb4a	-0.045100488
146	0x3aaec3de	0.001333352
147	0x3e525b03	0.2054253
148	0xbd7852ab	-0.060625713
149	0x3d2710bf	0.040787455
150	0xbd018b66	-0.03162708
151	0x3baae762	0.0052155713
152	0xbcc03166	-0.023461055
153	0x3dbc5745	0.09196333
154	0x3d8b3ffd	0.06799314
155	0xbe4f6007	-0.20251475
156	0xbd4a8c6a	-0.049450316
157	0xbdcfd903	-0.101488136
158	0xbdf016b0	-0.11723077
159	0x3d4995b6	0.04921504
160	0xbdc75dcd	-0.09734688
161	0xbba7fbe3	-0.005126463
162	0xbd5b47e6	-0.053535365
163	0x3d98da18	0.07463473
164	0xbdb80228	-0.08984786
165	0xbc8e7548	-0.017389908
166	0xbbd66b0c	-0.0065435227
167	0xbd1c6bcc	-0.03818874
168	0x3ddfa05d	0.10919259
169	0x3c549ebd	0.012977299
170	0xbd0726b9	-0.032995913
171	0x3dd546d6	0.104139015
172	0x3dc20d7b	0.094752274
173	0x3db0fb06	0.08641629
174	0xbd52999f	-0.051416036
175	0xbc6f1113	-0.014591473
176	0x3cf77b61	0.030210199
177	0x3d777996	0.060418688
178	0x3e145fec	0.14489716
179	0x3dc3cb1c	0.095602244
180	0xbc2ece9e	-0.010669379
181	0xbde2cced	-0.11074243
182	0xbcfb5ae0	-0.030682981
183	0x3da0f618	0.07859439
184	0xbd34c393	-0.044131827
185	0xbde426e3	-0.111402296
186	0x3e2bf0d4	0.16791087
187	0x3d52279d	0.05130731
188	0x3852e95a	5.0285227e-05
189	0xbd5c9621	-0.05385411
190	0x3ce8c7c4	0.028415568
191	0x3e1d27d3	0.15347223
192	0x3cb86a76	0.022511702
193	0x3d488c0d	0.048961688
194	0xbe3cbd57	-0.18431602
195	0xbc9f6d2f	-0.019461242
196	0x3d8807bc	0.066421
197	0xbda2e4d2	-0.079538
198	0xbcae1bc8	-0.021253482
199	0x3d8ef2ec	0.069799274
200	0xbde27379	-0.11057181
201	0xbdb1680f	-0.08662426
202	0x3db2e503	0.08735087
203	0xbc34547c	-0.011006471
204	0x3c47a249	0.012184688
205	0x3dce8499	0.10083885
206	0xbdb16382	-0.08661558
207	0xbd920b24	-0.07131031
208	0xbda2ba25	-0.079456605
209	0xbcc1f508	-0.02367641
210	0x3e00e43b	0.12587063
211	0x3d7ca474	0.061680272
212	0x3d8043a3	0.06262901
213	0x3d389a62	0.045069106
214	0xbc4588b4	-0.012056518
215	0xbc4bc4e7	-0.012437082
216	0xbe0eefb2	-0.13958624
217	0xbd8fcc8f	-0.07021438
218	0x3d52ca7c	0.051462635
219	0xbdc45eea	-0.09588416
220	0x3b3e329c	0.0029021865
221	0x3e330eee	0.17486164
222	0xbd0b7c5c	-0.034054145
223	0xba99201a	-0.0011682541
224	0xbdbdb790	-0.092635274
225	0xbe439856	-0.1910108
226	0xbd84df56	-0.064879104
227	0x3df1a932	0.117998496
228	0xbd5bdfed	-0.05368035
229	0xbd2d43df	-0.042301055
230	0x3cbcc58f	0.023043422
231	0xbd63f9b5	-0.05565806
232	0x3d226757	0.039649334
233	0x3c8140ae	0.015777912
234	0x3e1877db	0.14889471
235	0xbd26b37f	-0.040698525
236	0xbccb1cbb	-0.024793973
237	0x3d100fcf	0.035171326
238	0xbdaebc7e	-0.08532046
239	0x3e0d21fc	0.13782495
240	0x3e1f8831	0.15579297
241	0xbd504c3b	-0.05085395
242	0x3e1d428b	0.15357415
243	0xbd11f940	-0.035638094
244	0x3d1e5666	0.038656615
245	0xbdc6d9b7	-0.097094946
246	0x3dc5f8b1	0.09666575
247	0x3d5f80b4	0.0545661
248	0x3e22f183	0.15912442
249	0x3da8bd99	0.08239288
250	0x3dec9032	0.115509406
251	0x3c876c6d	0.016531194
252	0xbe132569	-0.1436974
253	0x3df68e6c	0.120388836
254	0x3d50952e	0.05092352
255	0xbdb23186	-0.08700852

model.rnn.weight_hh_l0 f4 [240, 60]
0	0xbd8ef06e	-0.06979452
1	0x3d4865a7	0.04892507
2	0xbc8884cb	-0.016664883
3	0x3db57fd4	0.08862272
4	0xbd586077	-0.05282637
5	0x3de42845	0.11140493
6	0xbe0678ab	-0.13131969
7	0xbd6b3bbe	-0.05743002
8	0x3d7d5b8d	0.061854888
9	0xbda4653e	-0.08027123
10	0x3dedece0	0.11617446
11	0xbd330be1	-0.0437125
12	0x3dae3c88	0.08507639
13	0xbd8a428c	-0.06750974
14	0xbe287c5a	-0.16453686
15	0xbd9472f7	-0.0724849
16	0x3d8ab37f	0.067725174
17	0x3c9e5f80	0.019332647
18	0xbbbaa29f	-0.0056956555
19	0xbcc5dcce	-0.02415314
20	0xbd7da76c	-0.061927244
21	0xbb316cc0	-0.0027072877
22	0xbdc8738d	-0.097876646
23	0x3d69dde6	0.057096384
24	0x3d9566f4	0.072950274
25	0x3d90a80d	0.07063303
26	0x3cc64402	0.02420235
27	0xbe0716f4	-0.1319235
28	0x3d17a1f0	0.03701967
29	0xbe011ec4	-0.12609392
30	0x3c195200	0.009357929
31	0xbdb0b922	-0.08629061
32	0xbda72673	-0.081616305
33	0x3b3dd49a	0.0028965832
34	0xbe13f2e4	-0.14448124
35	0xbbff959a	-0.0077998163
36	0x3e176f5d	0.14788575
37	0x3d169e09	0.036771808
38	0xbac6e5ad	-0.001517465
39	0x3da27f7b	0.07934471
40	0xbdb61895	-0.088914074
41	0x3c387e42	0.011260571
42	0x3b92965b	0.00447349
43	0xbe167a25	-0.14695032
44	0x3db72b56	0.089438125
45	0x3c9d2deb	0.019186934
46	0xbe0f6fd1	-0.14007498
47	0xbdc35e94	-0.09539524
48	0x3e2123de	0.15736338
49	0x3c92f284	0.017937906
50	0x3dd85a3e	0.10564087
51	0xbd911a32	-0.070850745
52	0x3daa485e	0.08314584
53	0xbd6b7f12	-0.05749423
54	0xbdbd9374	-0.0925664
55	0x3d499113	0.04921062
56	0x3dbf395a	0.09337111
57	0xbde7ad02	-0.113122955
58	0x3c69f2cc	0.014279079
59	0xbc5a9447	-0.013341016
60	0xbcf25e82	-0.02958608
61	0xbd6ce135	-0.05783196
62	0xbdb4e86e	-0.08833395
63	0xbdec842f	-0.115486495
64	0xbdd6d8f6	-0.10490601
65	0x3de4aa64	0.11165312
66	0xbd13c623	-0.03607763
67	0xbdca87ba	-0.09889169
68	0xbcf50125	-0.029907772
69	0x3e1469f0	0.14493537
70	0xbe0b9c6c	-0.13633889
71	0x3de6798e	0.112536535
72	0xbd5cfa2e	-0.053949527
73	0x3d3ddf5f	0.0463556
74	0x3d83c89f	0.0643475
75	0xbc53529c	-0.012898114
76	0x3d5abe8c	0.053404376
77	0xbc5a37b9	-0.013318949
78	0xbbb8d782	-0.005640925
79	0xbd036fb6	-0.032088958
80	0x3c77d95b	0.015127505
81	0x3d5d2142	0.053986795
82	0xbdfb05a5	-0.12256936
83	0xbd1e05ea	-0.03857986
84	0x3b4e6633	0.003149402
85	0xbcd962e2	-0.026536409
86	0xbc78dce4	-0.015189383
87	0x3c1fb6ea	0.0097482
88	0x3c6a112a	0.014286319
89	0x3d845193	0.064608715
90	0xbe02bb48	-0.12766755
91	0xbe036abe	-0.12833688
92	0xbdf5fb6c	-0.120108455
93	0xbd833c91	-0.064080365
94	0x3d420de4	0.04737653
95	0xbd9dd6cf	-0.07706987
96	0x3e0cb8aa	0.13742319
97	0x3dd0ea4e	0.1020094
98	0x39cdb856	0.00039237988
99	0xbc94f9af	-0.018185465
100	0x3d37508b	0.044754546
101	0x3b4aceb6	0.0030945963
102	0xbc4d6cda	-0.012538159
103	0xbd202adf	-0.039103385
104	0x3d85bfc7	0.06530719
105	0xbd13128f	-0.03590637
106	0xbe2239ac	-0.15842313
107	0x3d8e98fb	0.069627725
108	0x3e4ac436	0.19801411
109	0xbd5df53c	-0.05418895
110	0x3d497396	0.049182497
111	0xbd062c7c	-0.032757267
112	0x3dbb51cd	0.09146462
113	0xbd889eec	-0.06670937
114	0xbdfb4f3d	-0.12270973
115	0xbdac0499	-0.083993144
116	0x3d56c676	0.05243536
117	0x3da6282b	0.0811313
118	0x3d695428	0.056965023
119	0x3e03b930	0.12863612
120	0xbcf48ec1	-0.029853227
121	0xbdcdf3c9	-0.10056264
122	0x3de0f89f	0.10984921
123	0xbe2b2a96	-0.16715464
124	0x3d1a16a6	0.037619255
125	0xbdff6d5c	-0.124720305
126	0xbd98ea42	-0.07466556
127	0x3df66d56	0.12032573
128	0xbd975ff2	-0.07391347
129	0x3d667c52	0.056270905
130	0xbd0dd09f	-0.034622785
131	0x3da93892	0.08262743
132	0x3e4dc051	0.20092894
133	0xbd89d371	-0.067297824
134	0xbe375c19	-0.17906226
135	0xbe52b996	-0.20578608
136	0x3dc7e9f9	0.097614236
137	0xbbdf9d06	-0.0068241386
138	0x3e205d58	0.15660608
139	0x3bcb0c01	0.0061964993
140	0xbd3caa66	-0.046060942
141	0x3c97c80d	0.018528009
142	0xbd9a1a54	-0.07524553
143	0xbab0cf76	-0.0013489563
144	0xbd75ab36	-0.059977733
145	0xbb8442d6	-0.004036288
146	0xbcef9043	-0.029243594
147	0x3d7e0427	0.06201568
148	0xbe0c5cc7	-0.13707267
149	0x3c7c66f4	0.015405405
150	0xbe246988	-0.16055882
151	0x3d0fb0e8	0.03508082
152	0xbc764e1f	-0.015033274
153	0x3dd2c1a3	0.102908395
154	0xbdf1ab2c	-0.118002266
155	0xbd0f06a6	-0.03491845
156	0x3e53dbbe	0.20689294
157	0x3d89e02a	0.06732209
158	0x3e341452	0.17585877
159	0x3def7f01	0.11694146
160	0xbd34ece9	-0.044171248
161	0x3d8a252d	0.06745372
162	0xbc061aff	-0.008185147
163	0xbcfd0b7d	-0.030889267
164	0x3cfa0c78	0.030523524
165	0xbe008793	-0.12551717
166	0x3d539c5a	0.05166278
167	0xbd0605ad	-0.032720257
168	0x3d3ed009	0.046585117
169	0x3e078d36	0.13237461
170	0x3d9ab20a	0.075534895
171	0xbcfe4fb2	-0.031043861
172	0x3e37e0fa	0.17956915
173	0xbb9a726c	-0.004713347
174	0xbc9b6bc7	-0.01897229
175	0xbe0d0ac0	-0.13773632
176	0xbde78fa3	-0.113066934
177	0x3e0fdcb7	0.1404904
178	0x3d60f18c	0.054917857
179	0xbd1ef178	-0.0388045
180	0x3e03691f	0.1283307
181	0xbcf1f9ad	-0.029538
182	0x3ddabe95	0.10680882
183	0xbd6fe365	-0.05856647
184	0xbbee23b6	-0.0072674407
185	0xbd3c2fa9	-0.04594389
186	0xbe232393	-0.15931539
187	0xbd39dc2a	-0.04537598
188	0x3d12cb9a	0.0358387
189	0xbda9fff6	-0.08300774
190	0xbc21d4e3	-0.009877416
191	0x3dd2b95b	0.1028926
192	0x3de6c5f5	0.11268226
193	0x3e14b90d	0.14523716
194	0xbc99e29c	-0.018784814
195	0xbdd369fa	-0.10322948
196	0x3d5c2136	0.05374261
197	0x3b7526bc	0.003740712
198	0x3df0b508	0.11753279
199	0xbe101a6d	-0.1407258
200	0xbdefde3e	-0.11712311
201	0x3c5d7f23	0.013519081
202	0x3cfde01e	0.030990656
203	0xbc0cd874	-0.008596528
204	0xbda65562	-0.08121754
205	0x3d7d336f	0.06181663
206	0x3cf53942	0.02993453
207	0xbd27af95	-0.040938932
208	0xbe253289	-0.16132559
209	0x3cfc042f	0.030763714
210	0x3d5fa9cb	0.054605287
211	0xbdc0c10a	-0.09411819
212	0xbc816c51	-0.01579872
213	0x3e1f4117	0.15552174
214	0xbdaf7b46	-0.085684344
215	0x3d1da6a6	0.038489006
216	0x3d8d41b6	0.06897299
217	0xbcf9a553	-0.03047434
218	0x3c4d01b6	0.012512615
219	0xbcb244b8	-0.021761283
220	0x3d64527f	0.055742737
221	0x3e2d86b7	0.16945921
222	0xbd22dc3f	-0.039760824
223	0x3d3ec057	0.04657015
224	0xbe29a83b	-0.16568081
225	0xbdb052be	-0.08609532
226	0xbe260aed	-0.16215105
227	0xbe3712dd	-0.1787829
228	0x3e1ef5a3	0.1552339
229	0x3e2c5200	0.16828156
230	0xbd3a4235	-0.045473296
231	0x3e207a0c	0.15671557
232	0x3e466d77	0.19377695
233	0x3daf71ca	0.085666254
234	0x3d58cd81	0.05293036
235	0xbde0cc41	-0.10976458
236	0xbd4cdca9	-0.050015125
237	0xbd329b91	-0.04360539
238	0x3d486bcf	0.04893094
239	0x3dd4709c	0.10373041
240	0xbcc5277e	-0.024066683
241	0xbe11712f	-0.14203332
242	0xbcc5bfee	-0.02413937
243	0x3c9b9aca	0.018994708
244	0xbd076a85	-0.03306057
245	0x3d957a0a	0.07298668
246	0xbdc2b9f0	-0.09508121
247	0xbd1e7432	-0.03868503
248	0xbd1b0bb4	-0.037852958
249	0xbc446882	-0.011987807
250	0xbdc623ef	-0.096748225
251	0x3c5b4103	0.013382199
252	0xbdd95ffe	-0.10614012
253	0xbd8ba496	-0.06818502
254	0xbda659a6	-0.08122568
255	0xbda1b6f3	-0.07896223

model.rnn.bias_ih_l0 f4 [240]
0	0xbd348eb7	-0.044081416
1	0xbcd45cf7	-0.025923235
2	0x3e0eee15	0.13958009
3	0x3c8188a6	0.01581223
4	0xbdfd7d6b	-0.12377437
5	0x3e54da2b	0.2078635
6	0x3e19f8b8	0.15036285
7	0x3d8d2f66	0.06893806
8	0x3d5b5e3d	0.05355667
9	0x3d077a78	0.03307578
10	0xbd099308	-0.033587486
11	0x3d59f37a	0.053210713
12	0xbc308f98	-0.010776423
13	0x3c685594	0.01418056
14	0x3dea3d36	0.11437456
15	0x3d811ca8	0.06304294
16	0x3dbed2a8	0.09317523
17	0xbd48691e	-0.048928373
18	0x3e17f353	0.14838915
19	0x3dc2acda	0.09505625
20	0x3cd69536	0.026194196
21	0x3dbe4486	0.092904136
22	0xbd0fe9d9	-0.035135124
23	0xbcb18fcf	-0.021675019
24	0x3df1e731	0.118116744
25	0xbd07d5c8	-0.033162862
26	0xbd7c9b0d	-0.061671305
27	0xbdaba95e	-0.083819136
28	0xbd597cca	-0.053097524
29	0x3d56aca4	0.052410737
30	0x3ca028da	0.01955073
31	0x3c495238	0.012287669
32	0x3cb548c8	0.022129431
33	0xbd4a08d9	-0.049324844
34	0x3d978dfe	0.0740013
35	0x3e145df5	0.14488967
36	0x3d5c8a0d	0.053842593
37	0xbde472c2	-0.11154701
38	0xbc319519	-0.01083877
39	0x3de7527a	0.11295028
40	0xbd8a680c	-0.067581266
41	0xbd38268f	-0.044958647
42	0xbd87ad72	-0.06624879
43	0x3dd4a5d8	0.10383195
44	0x3cbd66ac	0.023120247
45	0xbcc89f3e	-0.024489995
46	0x3e2c2e43	0.16814522
47	0x3e3a4e98	0.18194044
48	0x3e242caf	0.1603267
49	0x3dcf29a6	0.10115366
50	0xbbc2951f	-0.005938187
51	0x3ce25c73	0.027631974
52	0x3d38c8dc	0.04511343
53	0xbd691867	-0.056908038
54	0x3de41e69	0.11138613
55	0x3cec50a8	0.028847054
56	0x3ce5103e	0.027961846
57	0xbcd62322	-0.0261398
58	0x3c7f64ee	0.015588028
59	0xbd89d560	-0.06730151
60	0x3e145621	0.1448598
61	0xbd99a76e	-0.07502638
62	0xbd391b39	-0.045191977
63	0xbd3e9bd4	-0.046535328
64	0xbdcb2f0c	-0.09921083
65	0xbc24803d	-0.01004034
66	0xbdec6c39	-0.11544079
67	0xbd83b8a6	-0.06431703
68	0xbcaa1a60	-0.02076453
69	0x3bdbf79f	0.0067128683
70	0x3d52f9fe	0.051507942
71	0x3d2af14d	0.04173403
72	0x3c60bbd7	0.0137166595
73	0xbdc84742	-0.09779216
74	0x3d5b51b5	0.05354472
75	0x3dd01125	0.1015952
76	0x3dbb7998	0.091540515
77	0x3c934398	0.017976567
78	0xbd4b31fd	-0.04960822
79	0xbd83aa6a	-0.06428988
80	0x3e005565	0.12532575
81	0x3dace9a2	0.084429994
82	0x3e0b8036	0.13623127
83	0xbd885819	-0.06657428
84	0x3da1329a	0.078709796
85	0x3e064a76	0.13114342
86	0xbcc361c8	-0.023850337
87	0xbdcb1fe6	-0.099181935
88	0x3dcf3247	0.101170115
89	0xbdcb4387	-0.09924989
90	0x3df207cd	0.11817894
91	0x3dcd8f02	0.10037042
92	0x3dcd765a	0.100323394
93	0xbd9416c4	-0.07230905
94	0xbdde8cb7	-0.10866683
95	0xbdc87c85	-0.09789375
96	0x3c068314	0.008209962
97	0x3d9998cf	0.07499849
98	0xbd48e677	-0.049047913
99	0xbdac5b6e	-0.08415876
100	0xbd16abbe	-0.03678488
101	0xbd839251	-0.06424392
102	0xbdb3b76f	-0.087752216
103	0xbd1d9035	-0.038467605
104	0x3c998880	0.018741846
105	0x3c0e9e26	0.008704698
106	0x3dc478ef	0.09593379
107	0xbd653e48	-0.0559676
108	0x3daf31da	0.0855443
109	0x3ddd9c69	0.108208485
110	0x3d744569	0.059636507
111	0xbd8eabc8	-0.069663584
112	0xbc993086	-0.018699896
113	0xbda7d478	-0.08194822
114	0xbda77304	-0.08176234
115	0xbd80781c	-0.06272909
116	0x3e02caed	0.12772723
117	0x3d50b5dd	0.05095469
118	0xbd69ca93	-0.057077955
119	0x3da13ddf	0.07873129
120	0x3da5fb01	0.08104516
121	0x3d797bfb	0.060909253
122	0x3d86de60	0.065853834
123	0xbccba936	-0.02486096
124	0xbde60315	-0.112310566
125	0x3b92ca5b	0.004479689
126	0xbd8477a0	-0.06468129
127	0x3d7065a6	0.05869069
128	0xbd863406	-0.065528914
129	0x3d8134d7	0.063089065
130	0xbe0769ed	-0.13224001
131	0xbd33dbb8	-0.043910712
132	0x3d8cab15	0.06868569
133	0xbe0353e9	-0.12824978
134	0xbdd5b7c5	-0.10435442
135	0xbde1da85	-0.110280074
136	0x3d94ec05	0.0727158
137	0xbdb3a74e	-0.08772145
138	0xbc84b677	-0.016200287
139	0x3d8ad477	0.06778806
140	0xbc2cce3b	-0.010547216
141	0x3d382263	0.04495467
142	0xbd6ead3a	-0.05827067
143	0xbdb3f84d	-0.08787594
144	0x3d5d0dca	0.05396823
145	0x3d5398fe	0.051659577
146	0xbe01dfae	-0.12682983
147	0xbc586bd4	-0.013209302
148	0x3be3a2de	0.0069469055
149	0xbbc7fb50	-0.006102957
150	0x3d4a2916	0.04935559
151	0x3c923db6	0.017851692
152	0xbdc546e3	-0.09632661
153	0xbd7abfae	-0.061217956
154	0xbdc4d72c	-0.09611353
155	0xbdd2948d	-0.1028224
156	0x3c0e956d	0.008702618
157	0xbcee0cfa	-0.029058922
158	0x3cdea7a8	0.027179554
159	0x3e133b82	0.14378169
160	0xbdb310fb	-0.08743473
161	0x3df11ec9	0.1177345
162	0xbdc0e012	-0.09417738
163	0x3c321d50	0.010871246
164	0x3cd93711	0.026515516
165	0xbe084531	-0.13307644
166	0xbc9650fb	-0.018349161
167	0xbd6c1fe8	-0.057647616
168	0xbd8fb256	-0.07016437
169	0x3cbfa643	0.02339471
170	0x3c803034	0.015647985
171	0x3d1c93be	0.038226835
172	0x3d11b7be	0.03557562
173	0xbdd2b29f	-0.102879755
174	0xbda2f125	-0.07956151
175	0xbc982960	-0.018574417
176	0x3df26257	0.11835163
177	0x3d6b989d	0.05751859
178	0x3dcbdc37	0.09954112
179	0x3d883a45	0.06651739
180	0x3d4071e9	0.046983633
181	0x3e12da45	0.14341076
182	0xbc60ff08	-0.013732679
183	0x3daf9172	0.08572663
184	0xbd790c32	-0.060802646
185	0x3decf4d6	0.11570136
186	0xbd612304	-0.054965034
187	0x3d91cba5	0.0711892
188	0x3df058bf	0.11735677
189	0x3d9ed400	0.077552795
190	0xb9e8600c	-0.0004432205
191	0x3bfef2c6	0.0077804057
192	0xbd782cf2	-0.06058974
193	0x3da59b25	0.08086232
194	0x3cb98fc2	0.022651557
195	0x3e0ef8e2	0.13962129
196	0x3cfb935c	0.030709915
197	0x3dace05d	0.084412314
198	0xbdb49771	-0.08817948
199	0x3de5eed6	0.11227195
200	0x3d6d4e11	0.057935778
201	0xbd19833f	-0.03747868
202	0xbc6438c5	-0.013929551
203	0x3d83032a	0.06397088
204	0x3e0f6183	0.14002042
205	0x3be90cff	0.007112145
206	0x3e1bc68b	0.15212457
207	0xbd4e5472	-0.050373502
208	0x3cedb45d	0.029016668
209	0x3de1c791	0.110243924
210	0xbd321315	-0.04347523
211	0xbd89f85f	-0.06736826
212	0x3d99bb70	0.07506454
213	0xbbc33f18	-0.005958449
214	0xbcdc017b	-0.026856175
215	0x3e064084	0.13110548
216	0x3dc0e29b	0.094182216
217	0xbd0d5c18	-0.034511656
218	0x3cbdd4fc	0.023172848
219	0x3d2cef6d	0.04222052
220	0x3dd95f3d	0.106138684
221	0x3dbf638c	0.09345159
222	0xbd2679be	-0.040643446
223	0xbd99293e	-0.074785694
224	0xbd2e0533	-0.042485427
225	0x3e083903	0.13302998
226	0xbce7b754	-0.02828566
227	0x3d8d3d94	0.06896511
228	0x3e2cf104	0.16888815
229	0x3e157e91	0.14599063
230	0x3dead2af	0.11465966
231	0x3cde8a62	0.027165595
232	0x3e1aed07	0.15129481
233	0xb95e32aa	-0.00021190444
234	0x3d9910cb	0.07473906
235	0xbc2576bf	-0.010099112
236	0x3df4397e	0.11925028
237	0xbc81d69b	-0.015849402
238	0x3d5775ca	0.052602567
239	0x3de88752	0.11353935

model.rnn.bias_hh_l0 f4 [240]
0	0x3cd4d236	0.025979143
1	0xbcdaeb9d	-0.026723677
2	0x3e0142af	0.12623094
3	0x3ca63ba1	0.020292105
4	0x3e003ded	0.12523623
5	0x3d18ffd9	0.03735337
6	0x3df01540	0.11722803
7	0x3da68070	0.08129966
8	0x3debb5cf	0.115092866
9	0xbd7e2161	-0.06204355
10	0xbb6429e5	-0.003481501
11	0x3c95dc2f	0.018293468
12	0x3e1b48f4	0.15164548
13	0xbcff1a4b	-0.031140467
14	0x3e2cb43a	0.16865626
15	0xbd93b72c	-0.07212672
16	0x3dae626a	0.08514865
17	0x3d8f2f50	0.06991446
18	0x3ce54ff8	0.027992234
19	0xbd1453dc	-0.036212787
20	0x3bfb68ea	0.007672419
21	0x3c122892	0.0089208055
22	0xbd601c12	-0.05471427
23	0x3cb6e98f	0.022328166
24	0xbdb63061	-0.08895946
25	0xbd88c98b	-0.06679066
26	0x3d9d276c	0.07673535
27	0x3e22b50c	0.15889376
28	0xbd84e2ff	-0.064886086
29	0xbd75a3ce	-0.05997067
30	0xbccfe308	-0.025376812
31	0x3c24e5ae	0.0100645255
32	0x3debeae8	0.11519414
33	0x3de49e30	0.11162984
34	0x3dc20ffa	0.094757035
35	0x3be1a378	0.006885942
36	0x3d0d5002	0.03450013
37	0xbd23c76a	-0.039985098
38	0x3c4e96e6	0.012609219
39	0x3d93e2e8	0.07221013
40	0xba4ef09e	-0.0007894131
41	0x3c66714e	0.0140651
42	0x3d6060c6	0.05477979
43	0x3e2a53f5	0.1663359
44	0x3cea47b1	0.028598638
45	0x3de181e9	0.110111065
46	0xbcc1b2a2	-0.02364475
47	0xbc8b94c9	-0.01703872
48	0x3c05bae7	0.008162237
49	0x3e35b3bc	0.17744344
50	0x3c635bb6	0.013876846
51	0xbd89976a	-0.06718333
52	0x3e3453f5	0.17610152
53	0x3e2bd7a8	0.16781485
54	0x3dbad13d	0.0912194
55	0x3e1c32dd	0.15253778
56	0x3cd878a7	0.026424719
57	0xbd503c10	-0.05083853
58	0x3ca541a1	0.020172896
59	0xbcb3933d	-0.021920795
60	0x3d7ff637	0.06249067
61	0x3d92268c	0.071362585
62	0xbdd15004	-0.1022034
63	0xbd928a0d	-0.07155237
64	0xbd91903a	-0.07107587
65	0x3cf1fd3a	0.029539693
66	0xbdd49950	-0.103808045
67	0x392f157c	0.00016697304
68	0xbbaeccdf	-0.005334481
69	0x3da0ea9e	0.0785725
70	0xbe053b8c	-0.13010997
71	0x3d46a7cc	0.048499867
72	0x3e0bfe1a	0.13671151
73	0xbd774ebe	-0.06037783
74	0x3e2b6028	0.167359
75	0x3d4069d4	0.046975926
76	0x3d700f7c	0.058608517
77	0x3db7aa0e	0.08967982
78	0x3d84e7a6	0.06489496
79	0xbb313117	-0.0027037316
80	0xbbdb6b59	-0.0066961464
81	0xbd47d15c	-0.048783645
82	0xbc489f84	-0.012245063
83	0xbd23b6a8	-0.039969116
84	0xbdeab53c	-0.11460349
85	0xbdccca7c	-0.09999558
86	0xbd952d04	-0.07283977
87	0xbd5943c6	-0.05304315
88	0x3dfe69a6	0.124224946
89	0xbd8453d0	-0.064612985
90	0x3e03a6d5	0.1285661
91	0xbdcb28b2	-0.099198714
92	0xbd97aa07	-0.07405477
93	0xbd974821	-0.07386804
94	0x3dba7fef	0.09106433
95	0xbdc9e3cf	-0.09857904
96	0x3dd9b8d8	0.10630959
97	0x3d4cdeb5	0.050017077
98	0xbd8cdb5c	-0.06877777
99	0x3e13a172	0.14417055
100	0xbd996360	-0.074896574
101	0x3d843154	0.06454721
102	0x3df8f05e	0.121552214
103	0xbd9e0859	-0.07716436
104	0x3dfe521f	0.12418007
105	0x3d8873b4	0.066626936
106	0xbd8c2185	-0.06842331
107	0x3dde0643	0.10841038
108	0xbb9f56bb	-0.004862634
109	0x3dbb0ff0	0.09133899
110	0x3e1b1e8d	0.15148373
111	0x3da8a90b	0.082353674
112	0x3c8110ce	0.015755083
113	0x3cd34e2f	0.025794117
114	0xbd0de90e	-0.034646086
115	0x3dc89c4c	0.09795436
116	0xbdb65339	-0.08902592
117	0xbdfaaa2b	-0.12239488
118	0xbdbf7bd4	-0.0934979
119	0xbcc5f256	-0.024163406
120	0xba6c5e71	-0.00090167584
121	0xbe268402	-0.16261294
122	0xbda0a9a8	-0.07844859
123	0x3b74392a	0.0037265518
124	0xbd93f636	-0.072246954
125	0x3d8b7e78	0.068112314
126	0xbde1a3c1	-0.11017562
127	0x3c49585b	0.012289132
128	0x3dc35a75	0.09538738
129	0xbde53007	-0.11190801
130	0xbe00c62d	-0.12575598
131	0xbdf6c25d	-0.120487906
132	0xbbebe9e2	-0.007199512
133	0xbd49d546	-0.04927566
134	0x3bd57b59	0.0065149483
135	0xbd451488	-0.048115283
136	0x3d7fec06	0.06248095
137	0x3dccf14b	0.100069605
138	0x3e0193ad	0.1265399
139	0xbde8d773	-0.11369219
140	0xbdb202ba	-0.08691926
141	0xbc0ed120	-0.0087168515
142	0x3dab0fa6	0.08352594
143	0xbd449c3f	-0.04800057
144	0x3dbd5b7b	0.09245964
145	0xbdd385b1	-0.10328234
146	0xbcde13a5	-0.027108977
147	0xbdc34893	-0.09535327
148	0x3d12fdeb	0.035886686
149	0xbe0981ef	-0.13428472
150	0x3cfc0df6	0.030768376
151	0xbde7d1b9	-0.11319298
152	0x3db3673a	0.08759923
153	0xbd8bbec2	-0.068234935
154	0xbdbf870e	-0.093519315
155	0xbd1d4221	-0.038393144
156	0xbb055881	-0.0020346942
157	0x3d4c95db	0.0499476
158	0x3df9747c	0.12180421
159	0xbd06986a	-0.032860197
160	0xbdc51141	-0.096224315
161	0x3d8727dc	0.065993994
162	0x3ccfd480	0.025369883
163	0xbd51f6f8	-0.05126092
164	0xbcc49eac	-0.024001442
165	0x3da6bde5	0.08141688
166	0x3df3ae17	0.118984394
167	0x3aaba94d	0.001309672
168	0x3d69eca9	0.057110462
169	0x3de8dbc3	0.11370041
170	0x3df18402	0.117927566
171	0x3dc1f418	0.09470385
172	0x3d2c4df8	0.042066544
173	0xbdb11b73	-0.08647814
174	0xbe05e9fb	-0.13077538
175	0xbc615519	-0.013753199
176	0xbdf3863a	-0.11890836
177	0x3b7a119d	0.003815747
178	0x3de3db9e	0.11125873
179	0x3ba24357	0.004951875
180	0x3d862b0c	0.06551179
181	0x3e110d21	0.14165165
182	0x3d38bc65	0.045101542
183	0x3d7d0115	0.06176861
184	0x3daecbf2	0.08534993
185	0x3e15066a	0.14553228
186	0xbc362e51	-0.011119441
187	0x3ca75272	0.020425055
188	0xbc7492b4	-0.014927555
189	0x3e3cf909	0.18454374
190	0x3e15ea70	0.14640212
191	0x3dd745af	0.10511338
192	0x3da746be	0.0816779
193	0x3da6d7a9	0.08146603
194	0xbbee88b9	-0.007279482
195	0x3d4a9df4	0.049467042
196	0xbc90aaad	-0.01765951
197	0x3c6f4693	0.014604229
198	0x3dc9d921	0.09855867
199	0x3db44aac	0.08803305
200	0xbd68e5e2	-0.05685986
201	0x3e07628f	0.13221191
202	0x3d62de9f	0.05538809
203	0x3e129293	0.14313726
204	0x3d054aa9	0.032541905
205	0x3dabca96	0.083882496
206	0xbce9ec39	-0.028555023
207	0x3d9c35a9	0.07627422
208	0xbd76d2f1	-0.060259763
209	0xbd991e1e	-0.074764475
210	0x3cf65242	0.03006852
211	0xbcf4e86a	-0.02989598
212	0x3da6a450	0.08136809
213	0xbd9ac23d	-0.07556579
214	0x3bf3aa93	0.0074361055
215	0x3e05e452	0.13075379
216	0x3d985528	0.07438117
217	0x3d54f3d6	0.051990353
218	0x3e24f565	0.16109236
219	0xbd755ea2	-0.059904702
220	0xbd53b66e	-0.05168765
221	0xbd0100e8	-0.031495005
222	0xbbc96192	-0.0061456645
223	0xbd2f3cfe	-0.042782776
224	0x3e3d4730	0.18484187
225	0xbc855ee4	-0.016280599
226	0xbc4bc02e	-0.012435956
227	0xbd586b60	-0.052836776
228	0x3b766dc6	0.003760205
229	0x3e103075	0.14080985
230	0x3cd5a2a3	0.026078528
231	0x3d235a65	0.03988113
232	0xba853058	-0.0010161502
233	0xbc9309f0	-0.017949075
234	0x3e19f99b	0.15036623
235	0x3e24b338	0.16083992
236	0xbc86872e	-0.01642188
237	0x3c1f1966	0.009710645
238	0xbd6d5397	-0.057941046
239	0x3e21a3f6	0.15785202

model.rnn.weight_ih_l1 f4 [240, 60]
0	0x3dd4dd23	0.10393741
1	0xbdbe757e	-0.092997536
2	0xbe337f89	-0.1752912
3	0x3db077c7	0.08616596
4	0xbdf6d56a	-0.12052424
5	0x3e06efeb	0.13177459
6	0x3c866c58	0.016409084
7	0xbcd215d3	-0.025645172
8	0x3ddc2575	0.10749332
9	0x3e2e0ca6	0.16997012
10	0xbcc6f337	-0.024285896
11	0x3bd12cfd	0.006383537
12	0xbdd4f524	-0.10398319
13	0xbe04610a	-0.12927642
14	0x3e57eff0	0.21087623
15	0x3abdd779	0.0014483772
16	0xbc490078	-0.012268178
17	0xbd54656d	-0.05185454
18	0xbcb0a386	-0.021562349
19	0x3d910038	0.0708012
20	0xbddae76c	-0.106886715
21	0x3d6ba07a	0.05752609
22	0x3c964bd9	0.018346714
23	0x3e009aa1	0.12558986
24	0x3db96b38	0.090536535
25	0xbe09e071	-0.13464524
26	0x3d4821c8	0.04886034
27	0x3db1c17a	0.08679481
28	0xbd4aa67e	-0.049475186
29	0x3d17c96a	0.037057318
30	0xbdb764bd	-0.08954761
31	0x3c61f443	0.013791147
32	0xbc67460c	-0.014115822
33	0x3ce2359d	0.027613455
34	0xbe0a3f3e	-0.13500687
35	0xbe371a9c	-0.17881244
36	0xbcad03a8	-0.021119907
37	0x3cb850df	0.0224995
38	0x3dd4b1ff	0.103855126
39	0xbd3a6dd2	-0.04551489
40	0xbdf8435c	-0.12122223
41	0x3df32763	0.11872747
42	0x3e2c1e4d	0.16808434
43	0xbd8dba46	-0.069202945
44	0xbd5a7699	-0.05333576
45	0x3e3d4aaa	0.18485513
46	0xbd950957	-0.07277172
47	0xbd4eeb3c	-0.050517306
48	0xbc3b1fc6	-0.01142115
49	0xbe21588b	-0.15756433
50	0xbcace990	-0.021107465
51	0x3dc25d93	0.09490504
52	0xbd9ab519	-0.07554073
53	0xbe02afec	-0.12762421
54	0xbdd6ab4c	-0.10481891
55	0xbc966b12	-0.018361602
56	0x3d15ad40	0.036542177
57	0xbd693b05	-0.05694105
58	0xbd9aafd3	-0.07553067
59	0xbd8210dd	-0.06350873
60	0x3b9cd848	0.004786525
61	0xbd485e2b	-0.04891793
62	0xbd469fcf	-0.04849225
63	0xbca92ddf	-0.020651756
64	0xbd956e3a	-0.07296415
65	0xbe258058	-0.1616224
66	0x3db8ddf7	0.090267114
67	0x3e1d3727	0.1535307
68	0x3dc3dc79	0.09563536
69	0xbe178cf1	-0.14799859
70	0xbe18055a	-0.14845791
71	0xbda55589	-0.08072955
72	0xbd6cc2e3	-0.057803046
73	0x3e284604	0.16432959
74	0xbd88435f	-0.06653475
75	0xbd79155b	-0.06081138
76	0x3c8ac907	0.01694156
77	0xbdc1afa8	-0.09457332
78	0xbc5128b9	-0.012766057
79	0x3c870c70	0.016485423
80	0x3bfb6ce9	0.007672895
81	0xbd3d7fa6	-0.046264313
82	0xbd8e0b19	-0.069357105
83	0xbde52159	-0.11188001
84	0x3def266e	0.11677252
85	0x3dd742f2	0.10510816
86	0xbbd8bc7b	-0.0066142655
87	0x38fc95b0	0.00012044178
88	0x3c89f680	0.016841173
89	0x3b40feb6	0.0029448695
90	0xbaaa0f09	-0.0012974452
91	0x3d58149a	0.052754022
92	0x3e272287	0.16321765
93	0xbccdaded	-0.025107348
94	0xbda823ff	-0.08209991
95	0xbcc8a155	-0.024490992
96	0x3dc18cac	0.09450659
97	0x3ddea474	0.10871211
98	0xbde15950	-0.11003363
99	0xbde93c6f	-0.1138848
100	0x3e088140	0.13330555
101	0xbd703408	-0.05864337
102	0xbd7c2f4c	-0.061568543
103	0x3e3ad616	0.1824573
104	0x3e02bb71	0.12766816
105	0xbe18a988	-0.14908421
106	0x3dc545a5	0.09632424
107	0x3e10d7e2	0.14144853
108	0xbc563de8	-0.013076283
109	0x3e2c382f	0.16818307
110	0x3b055519	0.0020344912
111	0x3d009c8d	0.0313993
112	0x3e43ecf4	0.19133359
113	0x3e4c8079	0.19970883
114	0x3da888db	0.08229228
115	0xbd6cc14b	-0.057801526
116	0xbc8d7ce4	-0.017271467
117	0xbb78d406	-0.0037968173
118	0x3c442fb6	0.011974266
119	0x3d7985ce	0.06091862
120	0xbd3b3522	-0.04570497
121	0xbe3f91cf	-0.18707965
122	0x3d468a3e	0.04847168
123	0xbdb8e8fe	-0.09028815
124	0xbca6c28b	-0.020356437
125	0x3db88daa	0.09011395
126	0xbd418e9b	-0.04725514
127	0xbccf1cf0	-0.025282353
128	0x3e3c4e18	0.18389165
129	0xbb944b71	-0.004525595
130	0xbc53aae5	-0.012919162
131	0xbe28a2e1	-0.16468383
132	0x3d5164f5	0.05112167
133	0x3d6b7a9c	0.057489976
134	0xbd95766f	-0.0729798
135	0xbc181630	-0.009282634
136	0x3e2e2edc	0.17010063
137	0xbd4fe535	-0.0507557
138	0xbcd11e28	-0.025527075
139	0xbbe94f62	-0.007120059
140	0x3cd375ab	0.025812944
141	0x3e215714	0.15755874
142	0x3d24e606	0.04025843
143	0x3d6a436d	0.05719321
144	0x3da4d980	0.08049297
145	0x3d53c209	0.05169872
146	0x3d80fc45	0.062981166
147	0xbd0f18c9	-0.034935746
148	0x3d67bad2	0.05657465
149	0xbdd5f19b	-0.10446473
150	0x3d247087	0.040146377
151	0x3d066e4a	0.032820024
152	0x3c2f3bce	0.010695411
153	0x3d0b357c	0.033986554
154	0xbe1e3e03	-0.15453343
155	0xbd625a0d	-0.05526166
156	0xbe143725	-0.14474161
157	0x3ddcde85	0.1078463
158	0xbcbe0ec0	-0.023200393
159	0x3e1b2b21	0.15153171
160	0x3cbf957b	0.023386708
161	0x3d0c2b89	0.034221206
162	0x3db9c9cf	0.09071695
163	0xbe2d106a	-0.16900793
164	0x3db4fd00	0.088373184
165	0x3cbcfbda	0.023069311
166	0xbe13460a	-0.14382187
167	0xbe17b57b	-0.14815323
168	0xbc0a71da	-0.008449996
169	0xbd77bdc1	-0.060483698
170	0xbd053085	-0.032516975
171	0x3c693a5a	0.0142351035
172	0xbdcdbc4a	-0.10045679
173	0x3d7607a5	0.060065884
174	0x391a16ac	0.0001469503
175	0xbdfb5bd0	-0.12273371
176	0xbe0d20d1	-0.1378205
177	0x3de76d51	0.11300147
178	0x3c216f8a	0.009853253
179	0x3e4163e3	0.1888576
180	0xbd8419bc	-0.06450221
181	0xbdf1841c	-0.11792776
182	0x3dd916fd	0.10600088
183	0xbc1aca6a	-0.009447673
184	0x3cbcbdbe	0.023039695
185	0xbe29854d	-0.16554756
186	0xbd89af9c	-0.06722948
187	0x3dc95ce6	0.09832172
188	0xbc728d9d	-0.014804271
189	0xbb9c85b4	-0.004776681
190	0xbd0ec4a0	-0.034855485
191	0x3d28b0d3	0.041184258
192	0x3d255429	0.040363465
193	0x3d5bbc64	0.05364646
194	0xbe538ad4	-0.20658427
195	0xbd965d5e	-0.07342027
196	0xbe118884	-0.14212233
197	0xbde7f3a7	-0.1132577
198	0x3dc572e1	0.09641052
199	0x3bbf13f3	0.0058312356
200	0xbd83a80b	-0.06428536
201	0xbdb13dbc	-0.08654353
202	0xbbadd501	-0.005304933
203	0xbc8cb38b	-0.017175457
204	0x3d5e6287	0.05429318
205	0xbd69b0b1	-0.05705327
206	0x3d7e08b8	0.062020034
207	0x3d91dd57	0.07122295
208	0xbd9740a6	-0.073853776
209	0x3d7ed293	0.062212538
210	0xbd53b3d2	-0.051685162
211	0xbda03de7	-0.07824307
212	0x3dc268c5	0.094926395
213	0xbda03dc7	-0.07824283
214	0x3cba6233	0.022751903
215	0xbd8231dc	-0.06357166
216	0xbcea2ab2	-0.028584812
217	0x3d4614b9	0.048359606
218	0x3c630e47	0.013858384
219	0x3d9ea8e7	0.07747059
220	0xbe1655cf	-0.14681171
221	0xbe03c476	-0.12867913
222	0xbe406ef7	-0.1879233
223	0xbc5e2a55	-0.013559897
224	0x3cf8f9d5	0.030392567
225	0x3d2e3417	0.042530145
226	0x3ca6ddcc	0.020369433
227	0x3c2b5944	0.010458294
228	0x3dae7db8	0.08520073
229	0x3c92ba67	0.01791115
230	0xbdd25979	-0.10270972
231	0x3e17ffd4	0.14843684
232	0xbbea6854	-0.00715355
233	0xbd865501	-0.06559182
234	0x3d5bf46a	0.05369989
235	0xbdaedf72	-0.085387126
236	0x3d6f1159	0.058366153
237	0x3ba689e6	0.0050823567
238	0xbdcd80ed	-0.10034356
239	0x3da7ccb9	0.081933446
240	0xbd1b9910	-0.03798777
241	0xbcc21c67	-0.023695184
242	0x3d407695	0.04698809
243	0xbe20af26	-0.15691814
244	0xbe2929ab	-0.16519801
245	0xbdca7884	-0.09886268
246	0xbcc1d655	-0.023661772
247	0xbdd8c310	-0.1058408
248	0x3c96efc7	0.018424882
249	0x3dcc7acf	0.099843614
250	0x3e0598e6	0.13046607
251	0xbcbcc90b	-0.023045084
252	0xbc8b24c5	-0.016985307
253	0xbb817d5e	-0.0039517125
254	0x3e2cc77b	0.16872971
255	0xbd39630b	-0.04526047

model.rnn.weight_hh_l1 f4 [240, 60]
0	0xbc78359e	-0.015149502
1	0x3dcaf721	0.09910417
2	0x3cbb617d	0.022873634
3	0x3d5615a5	0.052266736
4	0xbc81802d	-0.01580819
5	0x3e0a2438	0.13490379
6	0x3d88a5d6	0.06672256
7	0x3c54aeff	0.012981175
8	0x3db0c1ca	0.08630712
9	0x3dc059b6	0.09392111
10	0x3e0116b0	0.12606311
11	0xbdea61b4	-0.11444417
12	0xbdc084a1	-0.09400297
13	0x3cf78426	0.03021438
14	0xbd128e73	-0.03578038
15	0xbda223c4	-0.07916978
16	0xbd72c34c	-0.05926828
17	0x3c012021	0.007881195
18	0xbe076fda	-0.13226262
19	0x3e0a3552	0.13496903
20	0xbdc0351e	-0.09385131
21	0xbdd42da6	-0.10360269
22	0x3d95adae	0.073085174
23	0xbdd120ba	-0.1021132
24	0xbe17fdf6	-0.14842972
25	0x3c8450e3	0.016151851
26	0xbd68adff	-0.05680656
27	0xbc1f6833	-0.009729433
28	0x3e1a5b02	0.15073779
29	0xba9d6a97	-0.0012009916
30	0x3e03587f	0.12826727
31	0x3d49c858	0.04926333
32	0xbd9b1c41	-0.075737484
33	0x3d29cca1	0.041454915
34	0xbe16ad70	-0.14714599
35	0xbdcb4ca9	-0.09926731
36	0x3d91977d	0.07108972
37	0xbd94d40b	-0.072670065
38	0x3dd09c46	0.10186057
39	0xbcecd1bc	-0.028908603
40	0x3d572601	0.052526478
41	0xbdc9540a	-0.09830482
42	0xbde8f61f	-0.11375069
43	0xbda323fe	-0.07965849
44	0xbdc307b1	-0.095229514
45	0xbd04a36b	-0.03238241
46	0xbe007589	-0.12544836
47	0x3d15381a	0.036430456
48	0xbe0cac06	-0.13737497
49	0x3d8450b2	0.06460704
50	0xbddea887	-0.10871988
51	0x3cfdc251	0.030976446
52	0xbe109c1e	-0.14122054
53	0x3e00c723	0.12575965
54	0xbce74949	-0.028233187
55	0xbc55f692	-0.013059275
56	0x3ca3d7ae	0.020000305
57	0xbd0bec8d	-0.03416114
58	0x3d0a2ae3	0.033732306
59	0xbd2e5863	-0.04256476
60	0xbd798099	-0.060913656
61	0x3d151eab	0.0364062
62	0x3da3a64c	0.07990703
63	0xbdb23e3a	-0.08703275
64	0xbd3e057a	-0.04639194
65	0xbd682eb8	-0.05668518
66	0xbdd12f6a	-0.10214122
67	0xbda8f744	-0.08250287
68	0xbcc2a168	-0.023758605
69	0xbc48d5bf	-0.012257992
70	0x3b53e58d	0.0032332868
71	0xbdae9786	-0.085249946
72	0x3e0fd93a	0.14047709
73	0xbda78153	-0.081789635
74	0x3df24e33	0.118313216
75	0x3c355d0f	0.01106955
76	0x3d21ec9a	0.03953228
77	0x3db08a8a	0.08620174
78	0x3d8149e3	0.06312921
79	0x3c811697	0.015757842
80	0x3d4c7a55	0.049921352
81	0x3d1c5874	0.038170293
82	0x3d28cca1	0.041210774
83	0xbba808a2	-0.0051279822
84	0xbdf27aa6	-0.118397996
85	0x3d2721ca	0.040803708
86	0xbc8c5646	-0.017130982
87	0xbb7a2dc8	-0.003817426
88	0x3b8a1209	0.0042135757
89	0x3c9ead62	0.019369785
90	0x3b58aafd	0.0033060901
91	0x3d9680d6	0.07348792
92	0xbd9a84d9	-0.0754487
93	0xbdd6fd91	-0.10497583
94	0x3d607f65	0.054808993
95	0xbc0ec4f4	-0.0087139495
96	0xbd598d94	-0.053113535
97	0xbdb16bad	-0.08663116
98	0xbd91549d	-0.07096217
99	0x3dc60e4f	0.09670698
100	0x3def56df	0.11686491
101	0xbe02cea1	-0.12774135
102	0xbe074db8	-0.13213241
103	0xbd6d0d98	-0.057874292
104	0x3c48c0d6	0.012253007
105	0xbd76641f	-0.060154077
106	0x3b84211a	0.0040322663
107	0x3d169b2a	0.03676907
108	0xbc1de620	-0.009637386
109	0x3dc95a73	0.09831705
110	0x3d8dea4b	0.069294535
111	0x3d826994	0.06367794
112	0xbd923e8e	-0.071408376
113	0xbb8afb02	-0.0042413482
114	0xbe0566b1	-0.13027455
115	0x3d159ca2	0.03652633
116	0xbd3abc46	-0.045589708
117	0x3dcb9bf5	0.09941856
118	0x3da0dcf5	0.07854644
119	0x3e013e3c	0.12621397
120	0xbba502b6	-0.0050357236
121	0x3dd1631f	0.10223984
122	0x3e339a4f	0.17539333
123	0xbc545cea	-0.012961606
124	0xbaf1e8cf	-0.0018456223
125	0x3dcf4898	0.10121268
126	0x3d36cc1c	0.044628248
127	0x3cf7f2ed	0.030267203
128	0xbca0ec32	-0.019643877
129	0x3dafcd6c	0.08584103
130	0x3de838b5	0.11338941
131	0x3d2a3ab7	0.0415599
132	0x3da5c4e3	0.08094194
133	0xbd31b9d1	-0.0433901
134	0x3d71c6d8	0.059027523
135	0x3db9434a	0.090460375
136	0x3da26c07	0.07930761
137	0xbcc2ce7d	-0.023780102
138	0xbde8ce3e	-0.113674626
139	0x3e071017	0.13189732
140	0xbdee0716	-0.11622445
141	0xbe27c2d0	-0.16382909
142	0xbd5e8941	-0.054330114
143	0x3d8198bc	0.0632796
144	0x3d5dc280	0.054140568
145	0xbd83d42c	-0.06436953
146	0xbbf0b9b6	-0.007346357
147	0x3d973dfb	0.07384869
148	0x3e22464c	0.15847129
149	0xbdff3b40	-0.12462473
150	0x3df603ed	0.120124675
151	0xbcfeb2e9	-0.03109117
152	0xbc7a08df	-0.015260904
153	0xbdf159c7	-0.11784702
154	0xbd9d4049	-0.07678277
155	0x3dd19539	0.1023354
156	0xbc88a35b	-0.016679456
157	0x3d95dcdb	0.073175155
158	0xbd805506	-0.06266217
159	0xbdc8476b	-0.09779247
160	0xbd49f9c7	-0.04931047
161	0x3cab97fa	0.020946492
162	0xbd9a28ed	-0.07527337
163	0xbd10d5d5	-0.035360176
164	0x3d851df6	0.06499855
165	0x3e1cd3c7	0.15315162
166	0x3c967966	0.018368434
167	0xbce5cddd	-0.028052265
168	0xbddbe194	-0.10736385
169	0x3d734779	0.059394334
170	0xbe11b6ec	-0.14229935
171	0xbcf8fdb9	-0.030394422
172	0x3d081e66	0.033232115
173	0x3ddae9b5	0.10689107
174	0xbdda3427	-0.106544785
175	0xbcc1ad6f	-0.02364227
176	0xbd2da0ae	-0.042389564
177	0xbb1d3ffe	-0.002399444
178	0x3d5bc0b7	0.053650584
179	0xbda5656f	-0.080759875
180	0xbe0caec7	-0.13738547
181	0xbb520b63	-0.0032050244
182	0xbd6722c0	-0.056429625
183	0x3ddd5b4a	0.10808428
184	0x3d16826f	0.036745485
185	0x3dc20bfc	0.09474942
186	0xbc7953c6	-0.015217727
187	0xbdf9024c	-0.12158641
188	0x3d141255	0.036150295
189	0xbcb22852	-0.021747742
190	0xbdc7b4f5	-0.09751312
191	0xbd9d4d64	-0.07680777
192	0x3d41a0e5	0.04727258
193	0xbdba5e13	-0.090999745
194	0x3d8e4595	0.069468655
195	0x3d701c41	0.058620695
196	0xbd85e207	-0.06537252
197	0x3dd790e7	0.10525685
198	0x3bb6506d	0.0055637867
199	0x3e03837d	0.12843128
200	0xbcf9f7a1	-0.030513586
201	0xbdc98a5d	-0.09840844
202	0x3e17cabe	0.14823434
203	0x3dabf31d	0.083959796
204	0xbd4abfbb	-0.049499255
205	0x3dec8e49	0.11550576
206	0x3d300953	0.042977642
207	0xbd84f820	-0.064926386
208	0xbd9d2bec	-0.07674393
209	0xbdbf6b26	-0.09346609
210	0x3da922b5	0.08258573
211	0x3c24918c	0.010044467
212	0xbceb5812	-0.028728519
213	0x3cce61cc	0.025193118
214	0x3dd8407d	0.10559175
215	0xbde74f7c	-0.11294457
216	0x3da6713c	0.081270665
217	0xbe19b9a9	-0.1501223
218	0xbdd29cdb	-0.10283824
219	0x3debe415	0.115181126
220	0x3e0aa0a5	0.13537844
221	0xbdf86286	-0.12128167
222	0xbe1aa028	-0.15100157
223	0xbdab3f7f	-0.0836172
224	0xbc08bbb0	-0.008345529
225	0x3d45e34b	0.048312467
226	0x3d00eb3b	0.031474333
227	0xbdad4583	-0.08460524
228	0x3d06a6e4	0.032874003
229	0xbe2ac65b	-0.16677229
230	0x3d4596c5	0.04823949
231	0x3d8ce13b	0.06878897
232	0xbbc36326	-0.005962747
233	0xbaf4bbea	-0.0018671725
234	0xbd91f8e9	-0.07127554
235	0x3da45b14	0.08025184
236	0xbdcdf76e	-0.10056959
237	0x3de09e42	0.10967685
238	0xbdcbb8f0	-0.099473834
239	0xbd633edc	-0.05547987
240	0xbe2692b6	-0.16266903
241	0x3dc6d439	0.09708447
242	0x3e0f9c0e	0.14024374
243	0x3dcff179	0.10153479
244	0xbe0de151	-0.13855483
245	0x3d1964bd	0.037449587
246	0x3cfe47a0	0.031040013
247	0x3c1f55c5	0.009725039
248	0xbd33fdad	-0.043943096
249	0x3dafa335	0.08576051
250	0xbc98cdc4	-0.018652804
251	0xbe3b3bbd	-0.18284507
252	0x3d9c545e	0.07633279
253	0x3d4821c3	0.048860323
254	0xbc872f1a	-0.016501952
255	0x3d5c171b	0.053732973
