checkpoints/epoch=2-step=150-v6.ckpt (torch, 621663 bytes, 33 tensors)

model.param_proj.proj.0.weight f4 [1, 60]
-0.22110462 -0.049053095 -0.1726464 -0.21429119 -0.27146655 -0.2058713 -0.09139247 0.21685787
-0.14868647 -0.003474394 0.04015316 -0.055769224 -0.22947948 0.2781553 0.27138305 -0.2054513
0.1221751 0.069530286 0.17118838 -0.19273378 -0.0857646 0.029098459 -0.19528612 0.070275106
-0.026592283 -0.06565227 -0.22972803 0.19025111 0.1497361 0.03805577 -0.16306473 0.2650962
-0.06226125 -0.10925083 -0.06007255 -0.17727205 -0.09243934 -0.22448078 -0.21816745 -0.16573878
0.047183655 0.24993765 0.07639496 -0.065410785 0.0031824624 0.143113 0.16436741 -0.08434239
0.112936884 0.07433491 0.013389074 -0.1753366 -0.007637846 0.10984427 0.187914 0.1299114
0.043239404 -0.03886153 0.16860604 -0.11118956
00000000: 4069 62be e6eb 48bd 38ca 30be 266f 5bbe
00000010: aafd 8abe edcf 52be fa2b bbbd fd0f 5e3e
00000020: 4441 18be a9b2 63bb a477 243d 456e 64bd
00000030: abfc 6abe 5f6a 8e3e b8f2 8a3e d361 52be
00000040: f036 fa3d e565 8e3d 024c 2f3e 015c 45be
00000050: 5aa5 afbd e45f ee3c 16f9 47be 65ec 8f3d
00000060: 0fd8 d9bc b374 86bd d33d 6bbe 30d1 423e
00000070: 6c54 193e 5ee0 1b3d 71fa 26be b0ba 873e
00000080: a705 7fbd e6be dfbd a20e 76bd ce86 35be
00000090: d650 bdbd 4ade 65be 4a67 5fbe 6db7 29be
000000a0: a643 413d a8ef 7f3e f674 9c3d 17f6 85bd
000000b0: dc90 503b 378c 123e ee4f 283e b4bb acbd
000000c0: 744b e73d e73c 983d d95d 5b3c 708b 33be
000000d0: e546 fabb 08f6 e03d 876c 403e 7e07 053e
000000e0: cd1b 313d 452d 1fbd 10a7 2c3e 5ab7 e3bd

model.param_proj.proj.1.weight f4 [1, 60]
0.05246232 0.23265286 -0.03198132 -0.015179974 0.08631788 0.07067245 -0.06596 0.09986544
0.18798 -0.05833742 -0.11945737 -0.1635656 0.08077703 -0.124674514 -0.07028142 -0.04873447
-0.15463927 -0.19281355 0.173278 0.022106927 0.17561795 0.117423 -0.116654664 -0.19247438
0.08935299 -0.042431306 -0.004768385 -0.1287346 0.22018167 -0.04999505 0.20304483 0.19904657
-0.010871608 -0.0696307 -0.14671338 0.12980926 -0.17034581 0.119556375 -0.07245437 -0.07522883
-0.09065142 0.19656627 -0.12772703 0.1101409 -0.21049818 -0.004326532 0.17319866 0.123272724
-0.13265559 -0.1712781 0.09390906 0.17406324 -0.045788735 0.113677904 0.080312766 -0.13085447
0.09765698 -0.0925007 -0.11581805 0.16363037
00000000: bbe2 563d 8d3c 6e3e d8fe 02bd 6db5 78bc
00000010: 6ec7 b03d b8bc 903d 0916 87bd 4086 cc3d
00000020: d47d 403e 38f3 6ebd 11a6 f4bd be7d 27be
00000030: 6d6e a53d 5a55 ffbd b5ef 8fbd cc9d 47bd
00000040: c259 1ebe ea70 45be ca6f 313e 9619 b53c
00000050: 31d5 333e 787b f03d a4e8 eebd 0118 45be
00000060: b3fe b63d 73cc 2dbd 1d40 9cbb 01d3 03be
00000070: 4e77 613e 9cc7 4cbd fcea 4f3e ddd2 4b3e
00000080: d41e 32bc 8a9a 8ebd 083c 16be b8ec 043e
00000090: 226f 2ebe f9d9 f43d f562 94bd 9311 9abd
000000a0: 74a7 b9bd ab48 493e e0ca 02be 8d91 e13d
000000b0: d68c 57be 95c5 8dbb fd5a 313e 6976 fc3d
000000c0: ded6 07be 8763 2fbe 6553 c03d a23d 323e
000000d0: f88c 3bbd f6cf e83d 057b a43d b7fe 05be
000000e0: 6200 c83d 0271 bdbd 0432 edbd b88e 273e

model.param_proj.proj.2.weight f4 [1, 60]
-0.0964458 -0.09891117 0.062175475 -0.03815989 0.025289074 -0.10294266 -0.070293315 0.022727523
-0.07549465 -0.12558144 0.103075005 -0.06721486 -0.07685168 -0.08294655 0.020365544 -0.054966923
-0.15649019 -0.07280095 -0.025370033 -0.012929711 -0.051110722 -0.088144176 -0.021522868 -0.07763041
-0.095830575 0.0461038 0.12517266 -0.029101387 -0.11575058 -0.12086929 0.075815305 0.05089439
-0.15404442 0.13733986 0.12088873 -0.061350428 -0.073423356 -0.010873068 -0.024529122 -0.11785253
-0.07858882 0.06384099 0.0021909515 0.09962679 -0.11848084 0.04463094 0.13929167 -0.14509329
-0.02484423 -0.07424736 0.09992917 -0.0077994736 -0.11959047 0.079739936 0.09682494 -0.018782983
-0.106734775 0.036671143 0.06489701 -0.054528434
00000000: 6085 c5bd f191 cabd b6ab 7e3d 8b4d 1cbd
00000010: 082b cf3c 9ad3 d2bd f1f5 8fbd 122f ba3c
00000020: f09c 9abd 6c98 00be fd18 d33d f2a7 89bd
00000030: 6a64 9dbd e1df a9bd a4d5 a63c ff24 61bd
00000040: f73e 20be aa18 95bd d1d4 cfbc 23d7 53bc
00000050: 7a59 51bd ef84 b4bd ba50 b0bc b1fc 9ebd
00000060: d242 c4bd 57d7 3c3d 432d 003e 0866 eebc
00000070: a40e edbd 518a f7bd 0e45 9b3d a376 503d
00000080: d2bd 1dbe d2a2 0c3e 8394 f73d 964a 7bbd
00000090: fc5e 96bd f424 32bc 4cf1 c8bc ab5c f1bd
000000a0: 2df3 a0bd 11bf 823d 1196 0f3b 2109 cc3d
000000b0: 15a6 f2bd efce 363d 7aa2 0e3e 5693 14be
000000c0: 2086 cbbc 000f 98bd aaa7 cc3d ba92 ffbb
000000d0: d9eb f4bd b14e a33d 274c c63d c5de 99bc
000000e0: c397 dabd 7b34 163d b9e8 843d 3559 5fbd

model.rnn.weight_ih_l0 f4 [240, 24]
-0.1091735 -0.09805634 -0.20852543 0.108660005 -0.017235288 0.16058758 -0.18688254 0.051982258
-0.115501635 0.180693 0.03607853 -0.14347714 -0.17817199 0.043253787 0.025236817 0.08771445
-0.08516494 -0.044508494 -0.18673067 -0.018861992 -0.028639227 0.2355839 -0.1261848 0.009369974
-0.11463751 0.07526716 0.012837724 -0.039277047 0.018987184 0.084127836 -0.17889364 -0.13075593
-0.16724026 -0.17316462 0.2338841 -0.046709523 0.073465735 0.07081496 0.09058846 0.079487495
-0.025673313 -0.06135495 -0.00019604996 0.10986623 -0.1388958 0.040706012 -0.06286675 0.0029029306
0.055524025 -0.04594815 -0.074766956 -0.07312131 -0.15309605 0.1271867 0.041532952 -0.19447476
0.0024222299 -0.0061579193 -0.016435929 0.0672194 0.00024795957 0.019612035 0.08259565 -0.0007620829
-0.048048466 -0.006375889 0.020748017 0.07726703 -0.20668334 -0.015713762 0.034860637 0.052643977
0.1855286 -0.070904985 -0.043756127 -0.1245071 -0.16457461 -0.051057655 -0.11725661 0.050425
0.18586378 0.0074875564 0.00021174573 -0.03674409 -0.16001698 0.029402291 0.082504645 0.08754197
0.18333052 -0.12788543 -0.11976345 -0.05535381 0.019581338 -0.14579062 0.012404732 0.082404904
0.198442 0.010522448 -0.06262969 0.020749593 -0.19417787 0.11464377 0.13607052 -0.1107668
-0.06567364 0.10300766 -0.0012373658 -0.11004426 0.0057016853 0.018355493 0.038682014 -0.14516811
0.021576267 -0.06733291 -0.02595429 0.033257995 0.036020964 0.087925695 0.049121127 0.09676694
-0.18980469 0.0020355112 -0.16470817 0.040467292 -0.18670736 -0.026852138 0.124600455 -0.11431301
-0.007410618 0.048323378 0.049674857 -0.043335628 0.021844117 0.13914824 0.03904505 -0.22149526
0.098609954 -0.053592127 -0.042663116 -0.038001437 -0.1441884 0.2216424 0.09951431 0.10997397
0.100909285 -0.10141809 -0.033060025 0.12457376 0.07994517 0.1169065 -0.20145427 0.10295826
-0.100168526 -0.053979725 -0.04059553 -0.038430367 -0.046433773 -0.11000908 0.1938399 -0.10454388
-0.0799991 0.1708491 0.105269425 0.089117736 -0.05456566 -0.033639092 -0.2033241 0.043506578
-0.038700327 0.021824822 -0.123982534 -0.07318335 0.0040188967 -0.09322819 -0.15099253 0.010315101
0.12904543 -0.07050921 0.04387773 0.05234796 0.10312285 -0.094338864 -0.04916116 -0.0040610153
-0.10593654 0.058900665 0.030324277 0.019193113 0.06441294 -0.036790423 0.1484559 -0.009370768
-0.18613681 -0.1895028 -0.043719694 0.01726105 -0.0928642 -0.18709885 -0.153605 0.041038066
0.19494861 -0.07788372 0.08211136 -0.03797093 0.07035625 -0.049101926 0.04646873 -0.1800729
0.10648465 -0.045112718 0.022611622 0.066739164 -0.094029024 0.0029554255 -0.15526102 0.0810139
-0.044515327 -0.0358241 -0.04422274 -0.02329132 0.006397517 -0.048082165 0.11255833 0.053416334
0.0034205527 -0.07513619 0.0062304437 -0.0052390173 0.2041447 0.038791317 0.03308217 -0.028700838
-0.035099093 -0.14870684 0.029314023 -0.08059259 -0.040374793 -0.022975685 0.09802398 -0.01050517
0.17677923 -0.13593204 -0.03612062 0.05996237 -0.0705468 -0.033369046 -0.10261315 0.013300468
-0.030030817 0.19689654 -0.21713404 0.043523006 -0.038531143 -0.10288068 0.106210776 -0.03703629
00000000: 5b96 dfbd c3d1 c8bd b187 55be 2389 de3d
00000010: 0531 8dbc 1271 243e 235e 3fbe 59eb 543d
00000020: 1f8c ecbd 9607 393e 15c7 133d aceb 12be
00000030: b872 36be e22a 313d 71bd ce3c a2a3 b33d
00000040: f56a aebd 8a4e 36bd 5336 3fbe 7784 9abc
00000050: d09c eabc e83c 713e 9736 01be 8584 193c
00000060: 12c7 eabd ab25 9a3d 5155 523c f8e0 20bd
00000070: 038b 9b3c 374b ac3d e52f 37be e2e4 05be
00000080: 0841 2bbe 1152 31be 507f 6f3e 7c52 3fbd
00000090: 3475 963d 6f07 913d 7186 b93d 57ca a23d
000000a0: d750 d2bc 544f 7bbd c392 4db9 8c01 e13d
000000b0: b33a 0ebe 59bb 263d 48c0 80bd 183f 3e3b
000000c0: 296d 633d 2134 3cbd 6b1f 99bd a0c0 95bd
000000d0: 36c5 1cbe 3b3d 023e 751e 2a3d 6424 47be
000000e0: 46be 1e3b 5fc8 c9bb a4a4 86bc 53aa 893d
000000f0: 9200 8239 6ba9 a03c e827 a93d 85c6 47ba
00000100: 78ce 44bd d5ec d0bb bff7 a93c 2d3e 9e3d
00000110: cca4 53be 26ba 80bc 07ca 0e3d 36a1 573d
00000120: 36fb 3d3e a236 91bd a039 33bd 94fd febd
00000130: 3f86 28be d521 51bd 3c24 f0bd 728a 4e3d
00000140: 1353 3e3e 2d5a f53b 1008 5e39 f980 16bd
00000150: 7edb 23be 13dd f03c 32f8 a83d 3449 b33d
00000160: ffba 3b3e 66f4 02be 8a46 f5bd adba 62bd
00000170: 0b69 a03c 234a 15be 383d 4b3c e7c3 a83d
00000180: 6134 4b3e 5966 2c3c ff43 80bd 0dfb a93c
00000190: 90d6 46be 5aca ea3d 1256 0b3e b4d9 e2bd
000001a0: e77f 86bd aef5 d23d 1b2f a2ba e35e e1bd
000001b0: 34d5 ba3b 425e 963c 0871 1e3d f3a6 14be
000001c0: b6c0 b03c d6e5 89bd 179e d4bc 8939 083d
000001d0: b88a 133d 6312 b43d 3c33 493d bf2d c63d
000001e0: 295c 42be 3666 053b 42a9 28be 08c1 253d
000001f0: 3730 3fbe 04f9 dbbc 862e ff3d f01c eabd
00000200: c5d4 f2bb bcee 453d dd77 4b3d b380 31bd
00000210: 6ff2 b23c e07c 0e3e b4ed 1f3d a7cf 62be
00000220: 04f4 c93d 6b83 5bbd 85bf 2ebd 65a7 1bbd
00000230: 20a6 13be 3af6 623e 29ce cb3d 083a e13d
00000240: 87a9 ce3d 4ab4 cfbd f369 07bd 8720 ff3d
00000250: 4bba a33d ad6c ef3d 074a 4ebe c8db d23d
00000260: 2825 cdbd d819 5dbd 8047 26bd 2969 1dbd
00000270: 5731 3ebd 714c e1bd f77d 463e 1a1b d6bd
00000280: 91d6 a3bd 11f3 2e3e 7f97 d73d 5c83 b63d
00000290: 3e80 5fbd 25c9 09bd 3134 50be f433 323d
000002a0: 3c84 1ebd f8c9 b23c 8eea fdbd 27e1 95bd
000002b0: f3b0 833b 6cee bebd c99d 1abe ab00 293c
000002c0: 7c24 043e 2267 90bd 22b9 333d d16a 563d
000002d0: 1332 d33d bc34 c1bd 365d 49bd 4412 85bb
000002e0: 42f5 d8bd d341 713d 9e6a f83c e03a 9d3c
000002f0: eeea 833d 8eb1 16bd d304 183e da87 19bc
00000300: a69a 3ebe 060d 42be 6c13 33bd 0c67 8d3c
00000310: 962f bebd d796 3fbe a14a 1dbe 8817 283d
00000320: 9ca0 473e 8081 9fbd 002a a83d 6887 1bbd
00000330: f016 903d 1a1f 49bd ff55 3e3d 0865 38be
00000340: a014 da3d 1dc8 38bd 023c b93c 8bae 883d
00000350: 4a92 c0bd d0af 413b bffc 1ebe 9eea a53d
00000360: b455 36bd 4bbc 12bd e722 35bd 70cd bebc
00000370: 43a2 d13b cef1 44bd fb84 e63d 16cb 5a3d
00000380: 5a2b 603b 01e1 99bd c028 cc3b 10ac abbb
00000390: 4f0b 513e a5e3 1e3d 2b81 073d 051e ebbc
000003a0: 11c4 0fbd 9b46 18be f623 f03c ba0d a5bd
000003b0: 0a60 25bd 8137 bcbc ccc0 c83d e01d 2cbc
000003c0: 9d05 353e c531 0bbe 37f3 13bd 1a9b 753d
000003d0: d77a 90bd fbad 08bd d826 d2bd 35ea 593c
000003e0: 3003 f6bc 3f9f 493e 6358 5ebe 2e45 323d
000003f0: d5d2 1dbd 1bb3 d2bd 0985 d93d 5db3 17bd

model.rnn.weight_hh_l0 f4 [240, 60]
-0.11953211 -0.13152489 0.009197847 0.1253294 0.046188034 0.07139433 0.025306487 -0.09348072
0.050688494 0.13006976 0.1478658 0.057809267 -0.06744754 0.06627553 0.16710235 -0.088787414
0.059282362 0.0029344193 0.1159505 0.1491117 0.13786595 0.10215981 0.03266031 -0.010836353
0.07010818 0.08056103 0.11158019 -0.0345955 -0.006506333 -0.06625459 0.16091317 0.08492722
0.016590253 0.0070983297 -0.04970539 -0.010991236 -0.022809148 -0.050711934 -0.13682173 -0.016953807
0.007247111 -0.028267974 0.018120786 0.1256216 -0.03680124 0.051060766 0.06522323 -0.10670334
0.011548039 0.043215465 -0.080624215 -0.03091388 -0.08606493 -0.0015496488 0.011591773 -0.09205089
-0.09432012 0.19992244 0.071839266 0.11808776 -0.0039529097 0.015391241 -0.036599807 0.14969325
-0.07277434 -0.14345808 -0.10397474 0.058349393 0.09434319 0.14572306 0.08474909 0.25155914
-0.0046992498 0.037492067 0.096024685 0.043629814 -0.054882213 0.025116384 0.20919377 0.1377538
0.14022464 0.089915425 0.15495753 0.13390361 -0.058077697 0.1272477 -0.18047704 0.041556444
-0.1653744 0.09143705 0.033827044 -0.21131754 -0.083604425 -0.01529273 0.121500514 0.0509982
-0.018367298 0.1203052 -0.17472878 -0.19027655 -0.14265898 0.012162689 0.17595667 -0.100966275
-0.20364444 -0.0446676 -0.15977027 0.00898185 -0.0011971861 0.1355071 0.0055847685 -0.12868959
-0.1971413 0.1498025 0.075355135 0.0032117194 -0.025618002 0.021013299 0.03453627 -0.13665757
-0.012284328 -0.056257676 -0.037665114 0.16433696 0.006485098 -0.06157889 -0.050874047 -0.15507457
0.15757787 -0.030495271 0.19516799 0.11384196 -0.1202655 0.013748442 0.041282356 -0.066311754
-0.040275138 0.07048975 0.09597883 0.16371201 0.009118685 0.085303836 0.16969542 0.1049616
0.0010966255 0.15097289 0.1693052 -0.124562524 -0.028230641 -0.047263756 0.09659178 -0.19926707
-0.1764134 0.0080693625 -0.20773879 0.11432971 -0.062597655 0.07647314 -0.18105856 -0.17782134
-0.26174176 0.21299785 0.035730854 0.0075595826 -0.046588995 -0.063505284 -0.26120433 -0.1798695
-0.159552 -0.025980275 -0.18945733 -0.12328515 -0.08356128 0.19054775 -0.055968586 -0.0692157
0.047433298 0.106398046 0.15317622 0.055215124 -0.12783448 -0.12992074 -0.07087384 0.09677163
0.23278143 -0.033038843 -0.20633444 -0.19851942 -0.026560893 -0.051558793 0.1523352 0.005786496
-0.21275306 -0.15508327 0.025243245 0.0020083091 -0.053683974 -0.073455766 0.1657054 -0.07562956
-0.13930401 0.024935907 0.15173073 0.11841565 -0.13916495 -0.04365091 -0.06335038 -0.04843808
-0.18310636 -0.22494887 0.19369197 -0.08118326 -0.14399815 0.16724208 -0.099945724 0.097296916
-0.029898595 0.17101592 -0.18685198 -0.044174 -0.055851035 0.17409712 0.18533823 0.042578228
0.031615775 0.11043097 -0.19779809 0.041129466 -0.13824475 0.12688404 -0.13245837 -0.10224324
-0.17131999 -0.0035562874 -0.13777678 -0.15336363 -0.19964841 0.17805438 0.09469545 0.11039774
0.005607945 0.006845108 0.14645045 0.15613021 0.12083143 0.12839371 0.010042848 -0.055657946
0.042514678 0.07672067 -0.0164448 0.1323876 -0.16609026 0.07168882 0.16046184 0.01641026
00000000: 40cd f4bd 76ae 06be 91b2 163c 5a56 003e
00000010: aa2f 3d3d 3137 923d 8d4f cf3c d272 bfbd
00000020: bd9e 4f3d 0231 053e 226a 173e 69c9 6c3d
00000030: f021 8abd 77bb 873d e11c 2b3e 2dd6 b5bd
00000040: 10d2 723d 634f 403b 7577 ed3d bdb0 183e
00000050: bb2c 0d3e 2a39 d13d d1c6 053d f58a 31bc
00000060: e194 8f3d 2efd a43d 2884 e43d 03b4 0dbd
00000070: 1433 d5bb 7db0 87bd 6cc6 243e 53ee ad3d
00000080: 48e8 873c 1b99 e83b e197 4bbd 9614 34bc
00000090: 40da babc 51b7 4fbd ff1a 0cbe b6e2 8abc
000000a0: 2c79 ed3b 3d92 e7bc 0b72 943c f3a2 003e
000000b0: e6bc 16bd 1825 513d c293 853d 4887 dabd
000000c0: fc33 3d3c b302 313d 4f1e a5bd 1b3f fdbc
000000d0: cf42 b0bd 961d cbba 6beb 3d3c 2d85 bcbd
000000e0: e82a c1bd 78b8 4c3e 7720 933d ffd7 f13d
000000f0: 6987 81bb 8b2b 7c3c aee9 15bd 3049 193e
00000100: b70a 95bd ade6 12be b5f0 d4bd c6ff 6e3d
00000110: 0137 c13d 6d38 153e ee90 ad3d 5ccc 803e
00000120: 2afc 99bb 4891 193d 97a8 c43d 2db5 323d
00000130: 2ccc 60bd e0c0 cd3c e436 563e 550f 0d3e
00000140: 0c97 0f3e 9425 b83d 30ad 1e3e 071e 093e
00000150: e1e2 6dbd 394d 023e f9ce 38be 1737 2a3d
00000160: e857 29be 5943 bb3d 3a8e 0a3d a063 58be
00000170: cc38 abbd 5c8e 7abc 43d5 f83d 7de3 503d
00000180: 0477 96bc 9362 f63d 1aec 32be dbd7 42be
00000190: 3215 12be 0446 473c fc2d 343e 68c7 cebd
000001a0: 2b88 50be 60f5 36bd d19a 23be 9c28 133c
000001b0: e6ea 9cba 60c2 0a3e 6f00 b73b 34c7 03be
000001c0: 69df 49be d465 193e cb53 9a3d b67b 523b
000001d0: d8dc d1bc 1524 ac3c e775 0d3d f6ef 0bbe
000001e0: 3544 49bc 736e 66bd bc46 1abd f347 283e
000001f0: f280 d43b 253a 7cbd 4e61 50bd decb 1ebe
00000200: 185c 213e 38d1 f9bc 1eda 473e f925 e93d
00000210: c24d f6bd 2541 613c b017 293d 75ce 87bd
00000220: 8bf7 24bd ee5c 903d 8c90 c43d 1fa4 273e
00000230: 8966 153c c7b3 ae3d a3c4 2d3e 1bf6 d63d
00000240: a5bc 8f3a a398 1a3e 585e 2d3e a31a ffbd
00000250: f243 e7bc a497 41bd e9d1 c53d ab0c 4cbe
00000260: b7a5 34be 5c35 043c 7ab9 54be b225 ea3d
00000270: 3333 80bd f39d 9c3d 6a67 39be cc16 36be
00000280: 0403 86be 1c1c 5a3e 845a 123d 60b6 f73b
00000290: 1ad4 3ebd 0f0f 82bd 93bc 85be b62f 38be
000002a0: 9961 23be 96d4 d4bc 1a01 42be ed7c fcbd
000002b0: 2d22 abbd f31e 433e 513f 65bd f6c0 8dbd
000002c0: 6b49 423d 38e7 d93d 3ada 1c3e 4129 623d
000002d0: 0be7 02be f109 05be 4e26 91bd 3430 c63d
000002e0: 415e 6e3e bd53 07bd 5649 53be ad48 4bbe
000002f0: 3b96 d9bc 502f 53bd c2fd 1b3e a69c bd3b
00000300: f0db 59be 26ce 1ebe ecca ce3c d69d 033b
00000310: bae3 5bbd fa6f 96bd adae 293e ace3 9abd
00000320: b6a5 0ebe 6346 cc3c 4d5f 1b3e e883 f23d
00000330: 4281 0ebe 4ccb 32bd d8bd 81bd 0267 46bd
00000340: 3c80 3bbe ff58 66be 3057 463e 6943 a6bd
00000350: 4074 13be 8241 2b3e 58b0 ccbd 9b43 c73d
00000360: e6ed f4bc cc1e 2f3e 2056 3fbe ccef 34bd
00000370: 0ec4 64bd 8446 323e 4ec9 3d3e 8266 2e3d
00000380: 8b7f 013d a229 e23d 958b 4abe 5f77 283d
00000390: 0890 0dbe e4ed 013e 2ba3 07be e764 d1bd
000003a0: 826e 2fbe 9a10 69bb 5b15 0dbe 5b0b 1dbe
000003b0: a270 4cbe e353 363e b0ef c13d 3618 e23d
000003c0: dac2 b73b ed4c e03b 1bf7 153e 99e0 1f3e
000003d0: 7876 f73d a479 033e c28a 243c 96f9 63bd
000003e0: df23 2e3d ba1f 9d3d 3fb7 86bc 9d90 073e
000003f0: 9113 2abe 97d1 923d 1c50 243e cf6e 863c

model.rnn.bias_ih_l0 f4 [240]
-0.004862591 -0.035874218 0.003958053 -0.014368593 0.08903944 0.18828014 -0.07638101 -0.062149625
0.14284168 0.08503062 -0.07350622 0.10642705 0.030757526 0.012119212 0.11831938 0.11304931
0.039804384 0.14676017 0.02884686 0.08766688 0.07349694 0.04965155 0.021880789 0.015194268
-0.05610075 -0.052739467 0.04984799 0.055970408 0.011570733 0.10582526 -0.0014498173 0.09315699
0.04407718 -0.015834015 0.00022758724 0.13278401 0.10127796 0.02901425 0.030203681 0.17492266
0.12622 0.08434768 -0.009230168 -0.08906574 0.15712667 -0.055085983 -0.019164134 0.06120748
0.13607976 0.10905775 0.14765753 0.06495336 0.027350772 -0.06314167 0.035387166 -0.10676187
0.058662385 0.04650169 -0.04843747 0.112777114 0.023117 0.07866407 0.08678081 0.049193446
0.0689359 -0.0840997 0.12077018 -0.06404742 0.13734245 0.07838229 0.021218581 0.039814454
-0.107118614 -0.12436728 -0.07156215 -0.094119295 0.051828574 0.050988343 -0.112809435 0.060492568
-0.038753398 0.1435612 0.057973374 0.102846324 -0.072838716 0.045145344 0.104868166 0.0733399
-0.12044001 -5.6362373e-05 0.1359977 0.0285038 0.065703444 0.10582946 -0.037202146 0.066471554
0.12535399 0.011370999 0.056037653 -0.10722295 0.06724688 0.028158361 0.06788753 -0.1039664
-0.08596603 0.068724774 0.0057663047 0.07321513 -0.065372474 -0.1216686 -0.055627115 0.14605902
-0.07316908 -0.021518078 0.08682266 -0.06469208 0.13546391 0.10598427 0.044579465 -0.13632523
0.05751328 -0.0048145535 0.003870254 -0.046541486 0.12572588 0.051186267 0.08379206 0.055248715
0.08987125 0.010455533 0.13149625 0.0027938688 -0.0015263195 0.11408813 0.1112964 0.0873622
-0.019943543 0.05347066 0.0847664 -0.026460739 0.010291068 0.053834 -0.07473552 0.04033724
-0.085032575 -0.04415725 0.10889238 -0.07990612 -0.050618686 -0.06253535 0.14674345 0.092183955
0.09746326 -0.041350294 0.016186498 0.119942226 0.017818986 -0.003633655 -0.09072801 -0.07855374
-0.094381094 0.0990066 -0.07515969 0.043661624 -0.108744934 0.043381125 -0.046393707 -0.08731576
0.019657932 -0.101960264 -0.07188595 -0.044535566 0.0953421 0.04042789 -0.05072098 0.06277625
-0.143915 -0.010068437 0.09065212 -0.058067944 -0.037484854 0.0015118258 0.09250572 -0.008046565
0.11692684 0.11092005 0.037923824 0.13285461 -0.024206618 0.09024406 -0.006118685 0.039595425
0.06134574 0.15495202 0.06269994 0.06708663 -0.084025845 0.058724128 -0.02813783 0.03053962
0.09155929 0.20864512 0.0968044 -0.008785597 0.0031260937 -0.015574827 0.12541027 -0.06570595
0.08509892 0.058030754 0.065633975 -0.04847835 0.0077236574 0.06511516 0.16119312 -0.057006072
0.03726983 0.019518346 0.14042805 0.09470586 -0.05725423 0.0089217555 0.098996095 0.004477042
0.022372842 0.14827897 0.0027526766 -0.03502237 0.11684695 0.117928095 0.122904845 0.113773204
0.1494694 -0.02631158 -0.03770967 -0.051098447 0.056863606 -0.0151978135 0.03167157 0.17967995
00000000: 5f56 9fbb d8f0 12bd 8eb2 813b 3f6a 6bbc
00000010: 4f5a b63d 82cc 403e a66d 9cbd 9b90 7ebd
00000020: 1745 123e 8924 ae3d 6e8a 96bd 6df6 d93d
00000030: 35f7 fb3c a98f 463c 6e51 f23d 6686 e73d
00000040: ec09 233d 4c48 163e 4050 ec3c b18a b33d
00000050: 9085 963d 6c5f 4b3d 573f b33c 61f1 783c
00000060: e6c9 65bd 5705 58bd 682d 4c3d 3a41 653d
00000070: 2c93 3d3c eaba d83d cc07 beba 18c9 be3d
00000080: 468a 343d 56b6 81bc 7ca4 6e39 88f8 073e
00000090: d26a cf3d 4baf ed3c b66d f73c ed1e 333e
000000a0: d13f 013e 7abe ac3d 213a 17bc 1968 b6bd
000000b0: d0e5 203e d7a1 61bd 1afe 9cbc b2b4 7a3d
000000c0: 7e58 0b3e ab59 df3d 8933 173e 4406 853d
000000d0: ba0e e03c 6b50 81bd 22f2 103d f8a5 dabd
000000e0: f847 703d 8e78 3e3d 5e66 46bd b0f7 e63d
000000f0: dd5f bd3c a11a a13d 23ba b13d 117f 493d
00000100: 442e 8d3d 773c acbd 5b56 f73d 4b2b 83bd
00000110: 80a3 0c3e e586 a03d 97d2 ad3c 7b14 233d
00000120: 0161 dbbd 46b4 febd 2d8f 92bd 9ec1 c0bd
00000130: 334a 543d 27d9 503d a208 e7bd 0ec7 773d
00000140: e2bb 1ebd b501 133e 7d75 6d3d 18a1 d23d
00000150: 772c 95bd 53ea 383d 1fc5 d63d 3b33 963d
00000160: 41a9 f6bd a366 6cb8 fb42 0b3e cd80 e93c
00000170: 878f 863d 1ebd d83d 4761 18bd 3d22 883d
00000180: cc5c 003e 6d4d 3a3c bd87 653d b597 dbbd
00000190: bbb8 893d 5dac e63c 9e08 8b3d 56ec d4bd
000001a0: f50e b0bd 93bf 8c3d 45f3 bc3b d0f1 953d
000001b0: 01e2 85bd 632d f9bd 42d9 63bd 7f90 153e
000001c0: acd9 95bd ae46 b0bc 14d0 b13d 487d 84bd
000001d0: 0db7 0a3e 480e d93d f598 363d d798 0bbe
000001e0: 0c93 6b3d 67c3 9dbb 16a4 7d3b 49a2 3ebd
000001f0: 49be 003e b1a8 513d 2c9b ab3d 7a4c 623d
00000200: 6b0e b83d af4d 2b3c f4a6 063e 5719 373b
00000210: c90e c8ba 0aa7 e93d 5eef e33d f4ea b23d
00000220: a460 a3bc 0d04 5b3d 029a ad3d 31c4 d8bc
00000230: de9b 283c 0a81 5c3d f00e 99bd a938 253d
00000240: 8f25 aebd 3cde 34bd f802 df3d d2a5 a3bd
00000250: 8a55 4fbd 8912 80bd ea43 163e f1ca bc3d
00000260: d19a c73d ed5e 29bd 8c99 843c 45a4 f53d
00000270: 1ff9 913c 9d22 6ebb 9bcf b9bd c9e0 a0bd
00000280: e04a c1bd f9c3 ca3d 53ed 99bd 88d6 323d
00000290: aab5 debd 68b0 313d 5407 3ebd 9bd2 b2bd
000002a0: ac09 a13c 8bd0 d0bd f138 93bd ed6a 36bd
000002b0: b842 c33d b797 253d cdc0 4fbd d690 803d
000002c0: 745e 13be 16f6 24bc d2a7 b93d a7d8 6dbd
000002d0: b889 19bd 7528 c63a a473 bd3d bdd5 03bc
000002e0: 5777 ef3d 0d2a e33d 0356 1b3d 0a0b 083e
000002f0: f54c c6bc e1d1 b83d 407f c8bb d02e 223d
00000300: ac45 7b3d beab 1e3e d368 803d b764 893d
00000310: be15 acbd b688 703d 4e81 e6bc 3a2e fa3c
00000320: 7083 bb3d 11a7 553e 6341 c63d 77f1 0fbc
00000330: 26df 4c3b 8f2d 7fbc 8d6b 003e d790 86bd
00000340: 5848 ae3d a8b1 6d3d 1b6b 863d 3c91 46bd
00000350: bc16 fd3b 195b 853d cf0f 253e 337f 69bd
00000360: 40a8 183d f0e4 9f3c 5fcc 0f3e 25f5 c13d
00000370: 6983 6abd 8e2c 123c 77be ca3d 26b4 923b
00000380: 4047 b73c 71d6 173e 4066 343b 9e73 0fbd
00000390: 744d ef3d 4984 f13d 89b5 fb3d ed01 e93d
000003a0: 820e 193e 628b d7bc 7475 1abd 9b4c 51bd
000003b0: d0e9 683d 4000 79bc 0cba 013d 05fe 373e

model.rnn.bias_hh_l0 f4 [240]
0.0952439 0.17657927 0.1772024 0.049931146 0.0599461 0.13947818 -0.10025877 -0.021551695
0.13510789 0.057334855 -0.055698406 -0.034724303 0.01159672 -0.034505285 -0.017628651 0.18652572
0.013226049 0.14004809 0.107380636 0.05188802 -0.0008682301 0.13208972 0.053548135 0.022184838
0.022973588 -0.0062791486 0.08599752 0.0046420237 0.07231314 0.14615846 -0.06823107 0.040701058
0.1513086 -0.0017527901 -0.04695452 0.059320197 0.07460835 0.09509438 -0.08084045 -0.0017559081
-0.086965814 -0.06203825 0.15173957 0.00010854448 -0.061089538 0.006848296 0.1419068 -0.09864744
-0.05471877 0.1653698 -0.004827253 0.07651449 0.16438568 0.016044615 0.045091584 0.00956477
0.02840119 0.07667318 0.074475184 0.07192235 0.11620507 0.033600267 0.12981632 0.053060427
-0.099164076 0.022300962 0.10034316 -0.056442704 0.08735643 -0.07552872 -0.049872432 -0.020762179
0.058548447 -0.06283565 0.10205922 0.09578993 0.04332954 0.049657874 0.084510125 0.051767476
-0.0081183845 -0.07531704 0.0043757707 0.077703334 -0.088335514 -0.041551042 -0.09423757 -0.09712678
0.016664939 -0.058848813 0.14567207 -0.05075419 -0.0069367234 -0.00039594513 -0.06433322 -0.14282033
-0.067780785 0.019495847 0.09592397 -0.10359383 0.06463516 -0.016303528 -0.05318335 0.027127782
-0.13724467 -0.0786949 0.13124491 0.07437834 0.13124292 0.003608085 -0.08230804 0.076757565
-0.050514318 -0.046421 -0.093510896 0.013117182 -0.023290144 -0.012401243 0.0033108776 -0.027247595
0.10826988 -0.060012586 -0.03256394 -0.0938897 0.027249651 -0.039066914 0.034153834 0.06083471
0.1042246 0.03396743 -0.07463652 0.10216791 -0.07166663 0.07032219 -0.057673592 -0.14281686
-0.057509422 0.09931958 0.095383964 0.00921513 0.056409948 0.009014755 0.005923927 0.0411875
0.10578412 0.011939533 -0.05549547 -0.10469484 0.017187202 -0.018030392 0.14059621 -0.013023663
0.031518202 0.09269472 -0.0009300934 0.07792675 0.0088686915 0.07720574 -0.020876903 0.042473976
-0.13887748 0.04148665 0.14202899 -0.09581252 -0.09456525 0.10526645 0.037413377 -0.05935956
-0.09801659 -0.076732226 -0.030957013 0.054227147 -0.12753002 0.030798446 -0.07850087 -0.04058748
-0.13645118 0.008204287 -0.021154081 -0.053285517 -0.040322736 -0.016819382 0.029169342 0.0958917
0.10185982 0.15704216 -0.015276542 -0.07131013 -0.01711893 -0.062124006 0.07103303 0.1790928
-0.012111013 0.15633528 0.12234903 0.12832585 -0.034847584 0.18140322 -0.02319469 0.11837757
0.03009594 0.060756877 0.1603026 0.088677555 -0.07311275 -0.011095258 0.11714199 0.0717473
0.007658556 0.14147694 -0.038559686 0.071651325 -0.049971722 -0.010407291 -0.043730743 -0.0068817344
-0.0948488 0.09360556 -0.106221825 0.13806888 -0.00015893078 0.095334366 0.12312615 -0.04995877
0.006230964 0.17987838 0.036462642 0.0007177872 0.12774792 0.07022286 0.116497815 0.02118766
0.15178573 -0.013581588 0.13551548 0.0659238 0.0153897 0.050800364 0.029796395 0.17850864
00000000: 3c0f c33d 32d1 343e 8c74 353e 9a84 4c3d
00000010: 0b8a 753d 5ed3 0e3e 7854 cdbd 2e8d b0bc
00000020: b959 0a3e f4d7 6a3d 0324 64bd 123b 0ebd
00000030: 2b00 3e3c 6a55 0dbd f669 90bc 9900 3f3e
00000040: 12b2 583c c468 0f3e 61ea db3d 8888 543d
00000050: f099 63ba 8742 073e 4a55 5b3d fabc b53c
00000060: 1b33 bc3c 51c1 cdbb 781f b03d 1e1c 983b
00000070: e918 943d 90aa 153e bbbc 8bbd 27b6 263d
00000080: a4f0 1a3e e0bd e5ba 6253 40bd bcf9 723d
00000090: 43cc 983d d8c0 c23d ae8f a5bd 8026 e6ba
000000a0: 221b b2bd d21b 7ebd 9e61 1b3e 60a2 e338
000000b0: 0639 7abd ac67 e03b 0450 113e ab07 cabd
000000c0: ca20 60bd b356 293e ef2d 9ebb a1b3 9c3d
000000d0: b854 283e ff6f 833c f4b1 383d 8eb5 1c3c
000000e0: 9da9 e83c d406 9d3d 7286 983d 064c 933d
000000f0: ecfc ed3d 6fa0 093d 92ee 043e e455 593d
00000100: 8916 cbbd 82b0 b63c b780 cd3d 7730 67bd
00000110: eee7 b23d cdae 9abd 0947 4cbd 7215 aabc
00000120: 7fd0 6f3d faaf 80bd 6d04 d13d 832d c43d
00000130: 517a 313d 0e66 4b3d a513 ad3d 220a 543d
00000140: f902 05bc d23f 9abd a062 8f3b ed22 9f3d
00000150: 40e9 b4bd 6d31 2abd a1ff c0bd 68ea c6bd
00000160: e984 883c 740b 71bd 0f2b 153e a0e3 4fbd
00000170: 744d e3bb db96 cfb9 23c1 83bd 7e3f 12be
00000180: a7d0 8abd c1b5 9f3c c973 c43d 0029 d4bd
00000190: 705f 843d fa8e 85bc c9d6 59bd 153b de3c
000001a0: de89 0cbe cb2a a1bd 1165 063e ac53 983d
000001b0: 8b64 063e 9f75 6c3b 1e91 a8bd 1233 9d3d
000001c0: 1ae8 4ebd f223 3ebd a482 bfbd 73e9 563c
000001d0: f9ca bebc 952e 4bbc 4ffb 583b 5936 dfbc
000001e0: 99bc dd3d c2cf 75bd c461 05bd 3e49 c0bd
000001f0: a93a df3c a104 20bd e4e4 0b3d d12d 793d
00000200: b573 d53d 6f21 0b3d 08db 98bd 693d d13d
00000210: f4c5 92bd 1505 903d 253b 6cbd 953e 12be
00000220: 008f 6bbd 1068 cb3d ab58 c33d 0efb 163c
00000230: 1e0e 673d 9fb2 133c 801d c23b 39b4 283d
00000240: 58a5 d83d 089e 433c 384f 63bd 406a d6bd
00000250: 2dcc 8c3c 79b4 93bc 74f8 0f3e 3461 55bc
00000260: 3b19 013d bbd6 bd3d 83d1 73ba 0f98 9f3d
00000270: fd4d 113c 0b1e 9e3d 0a06 abbc 31f9 2d3d
00000280: e635 0ebe e8ed 293d 0c70 113e 5b39 c4bd
00000290: 6dab c1bd f095 d73d c53e 193d 0323 73bd
000002a0: ecbc c8bd c925 9dbd 9099 fdbc 491d 5e3d
000002b0: 3b97 02be 064d fc3c 10c5 a0bd 0f3f 26bd
000002c0: dcb9 0bbe 466b 063c 534b adbc ea41 5abd
000002d0: 7429 25bd cdc8 89bc 8bf4 ee3c de62 c43d
000002e0: e29b d03d a9cf 203e 764a 7abc 0c0b 92bd
000002f0: 003d 8cbc be75 7ebd c479 913d 1a64 373e
00000300: 456d 46bc 5b16 203e 2192 fa3d da67 033e
00000310: 57bc 0ebd c4c1 393e ca02 bebc f06f f23d
00000320: c38b f63c 34dc 783d 5d26 243e 949c b53d
00000330: 23bc 95bd e3c8 35bc 24e8 ef3d 40f0 923d
00000340: a0f4 fa3b 55df 103e c3f0 1dbd eebd 923d
00000350: 26af 4cbd 5883 2abc 021f 33bd 2c80 e1bb
00000360: 1640 c2bd 46b4 bf3d d48a d9bd ee61 0d3e
00000370: a8a6 26b9 aa3e c33d 9029 fc3d 91a1 4cbd
00000380: 1d2d cc3b 0a32 383e da59 153d e229 3c3a
00000390: 5ad0 023e 01d1 8f3d 6896 ee3d be91 ad3c
000003a0: b86d 1b3e 4f85 5ebc 92c4 0a3e 0f03 873d
000003b0: 1525 7c3c 0b14 503d 9217 f43c f8ca 363e

model.rnn.weight_ih_l1 f4 [240, 60]
0.15912548 0.022358596 -0.07460499 -0.06338845 -0.041616403 0.14253081 -0.04782057 0.094717056
-0.08725028 0.033051364 0.09592212 0.094308145 0.08036129 0.07482595 0.050845865 0.041330643
0.11603792 0.087012924 -0.07574298 0.090573065 0.06971718 -0.09042703 -0.017652722 0.039089166
0.0046819923 -0.01876878 0.09373548 -0.13256304 0.011844194 -0.120704144 -0.0040540616 0.04117161
-0.0876709 -0.034022182 -0.09226399 0.0023588133 -0.03822123 -0.026108403 -0.023110628 0.09557417
-0.040529158 -0.063839875 -0.022304801 0.13345622 0.111460686 0.04784266 -0.021788364 0.03013181
0.034195915 -0.11189395 0.14153606 -0.08597123 0.0074334643 -0.079771176 0.14184332 -0.08332504
-0.10442186 -0.12382782 -0.00579315 -0.0074111354 -0.10996138 -0.041991875 0.043818045 0.00079612306
0.0018474918 0.0562686 -0.082052626 -0.19824995 0.18299298 0.093299374 0.0667976 0.17026655
0.011175081 0.011544276 0.16501513 -0.17471911 -0.13224506 0.0015958225 0.14104322 -0.008425546
-0.08287501 0.06504326 0.009759731 0.16542909 -0.14613582 0.06489892 0.089155644 -0.11797919
-0.06855135 -0.04551338 0.055259973 -0.093986765 0.006201765 0.16291453 -0.08613378 0.024857156
-0.1682639 0.13712023 -0.18378955 -0.18116154 -0.012333906 0.03639287 0.08355917 -0.09321298
-0.05023753 -0.036853895 -0.19100563 -0.21192148 -0.05217471 0.008976086 -0.21080346 -0.17952421
-0.13423449 0.09552821 -0.1953586 -0.06204146 -0.17878684 0.120445624 0.1473768 -0.00883915
-0.072316006 -0.07351643 0.012794201 0.106215075 0.09563007 0.023269147 -0.1437332 0.023050481
0.16389322 -0.0018944097 0.023998432 0.06493334 -0.076922596 -0.10337022 0.1128152 -0.049202845
0.09776951 -0.07057643 -0.0026492483 -0.022647705 0.01766015 0.058225814 0.04627115 0.17283507
-0.039528072 0.10575307 0.13723278 -0.009091135 0.020576801 -0.06251409 0.15369235 -0.14256492
-0.119185574 0.047433786 0.03727304 0.15220436 -0.13936539 0.11692187 0.040186003 -0.054971486
-0.11138125 -0.060111683 0.14353122 -0.00052498106 -0.06419411 0.009487568 -0.10610811 0.05021188
0.04703538 0.13987972 -0.08879224 0.08946215 -0.058071714 -0.07942098 0.07854032 0.066641994
-0.029085254 -0.00043821242 -0.0660268 -0.0016045127 -0.052912362 -0.02523133 -0.16622435 -0.08036785
0.1444711 0.012028187 -0.13652278 0.11305881 0.0245377 0.05929878 0.040584154 0.19080234
-0.03646374 0.032332297 0.108303994 -0.015534438 -0.07369936 -0.11176454 0.15075848 0.09050829
-0.085984394 0.04594515 0.026619028 -0.02439968 0.07067939 0.10131356 -0.16691555 -0.12284355
0.050586123 -0.08945783 0.013820921 -0.08242167 -0.07213117 0.077091314 -0.025722662 0.11249444
0.034058303 0.17171712 0.0621674 -0.06734694 0.013416792 0.05181969 0.003220362 0.036173955
0.04196052 -0.07168144 0.030753968 -2.9720526e-05 0.032795366 0.11020132 -0.08967927 0.030085022
-0.039376415 0.057810552 0.07622934 -0.08382849 -0.047208473 -0.007077364 0.13724376 -0.035024606
-0.03246012 0.21477081 0.018807702 -0.03684382 0.22414854 0.115018494 -0.060066648 0.048538007
0.032962978 0.10948068 0.07507598 -0.042084858 -0.15917318 -0.00310259 0.015427152 -0.17588294
00000000: caf1 223e 6029 b73c 80ca 98bd ced1 81bd
00000010: f675 2abd 99f3 113e 81df 43bd 04fb c13d
00000020: 46b0 b2bd de60 073d d172 c43d a124 c13d
00000030: 7694 a43d 593e 993d c143 503d 524a 293d
00000040: 4aa5 ed3d d533 b23d 231f 9bbd 5f7e b93d
00000050: e2c7 8e3d cf31 b9bd 719c 90bc f61b 203d
00000060: 666b 993b fcc0 99bc 63f8 bf3d 9bbe 07be
00000070: 260e 423c bc33 f7bd efd7 84bb 90a3 283d
00000080: cd8c b3bd d85a 0bbd e7f4 bcbd 5296 1a3b
00000090: dd8d 1cbd 4ae1 d5bc 8052 bdbc 64bc c33d
000000a0: e701 26bd 7bbe 82bd 8fb8 b6bc bfa8 083e
000000b0: 8045 e43d aaf6 433d 837d b2bc fcd6 f63c
000000c0: 0411 0c3d a828 e5bd d4ee 103e af11 b0bd
000000d0: 6b94 f33b 125f a3bd 603f 113e 52a6 aabd
000000e0: 21db d5bd 7199 fdbd 77d4 bdbb 1cd9 f2bb
000000f0: 6f33 e1bd acff 2bbd 8d7a 333d eab2 503a
00000100: 8a27 f23a e779 663d 350b a8bd 0902 4bbe
00000110: 8362 3b3e be13 bf3d 2ecd 883d 5b5a 2e3e
00000120: b017 373c 3424 3d3c baf9 283e 91e9 32be
00000130: 406b 07be eb2a d13a a26d 103e 4d0b 0abc
00000140: 60ba a9bd 6735 853d 47e7 1f3c 3e66 293e
00000150: a1a4 15be bae9 843d 3c97 b63d 139f f1bd
00000160: a664 8cbd 3d6c 3abd 4858 623d 227c c0bd
00000170: 2d38 cb3b 11d3 263e e866 b0bd 3ca1 cb3c
00000180: 5f4d 2cbe 3f69 0c3e 5433 3cbe 6982 39be
00000190: 2714 4abc b110 153d 1221 ab3d 72e6 bebd
000001a0: dec5 4dbd 1cf4 16bd fb96 43be f201 59be
000001b0: 26b5 55bd 6f10 133c dddc 57be 32d5 37be
000001c0: c474 09be 4ba4 c33d 160c 48be 301f 7ebd
000001d0: e613 37be 32ac f63d f2e9 163e 15d2 10bc
000001e0: 6a1a 94bd c88f 96bd c59e 513c 4a87 d93d
000001f0: b3d9 c33d f09e be3c cc2e 13be 5dd4 bc3c
00000200: a0d3 273e d74d f8ba 5c98 c43c c5fb 843d
00000210: 9889 9dbd c4b3 d3bd a80b e73d ec88 49bd
00000220: 613b c83d 608a 90bd 039f 2dbb ae87 b9bc
00000230: 05ac 903c 317e 6e3d d186 3d3d adfb 303e
00000240: 30e8 21bd 1195 d83d c086 0c3e fcf2 14bc
00000250: ae90 a83c 6307 80bd 8761 1d3e 8afc 11be
00000260: 9117 f4bd ee49 423d 9dab 183d 76db 1b3e
00000270: cdb5 0ebe bc74 ef3d 149a 243d c829 61bd
00000280: da1b e4bd ab37 76bd d9f9 123e e29e 09ba
00000290: 3478 83bd bf71 1b3c 354f d9bd f9aa 4d3d
000002a0: 2ca8 403d a13c 0f3e b5d8 b5bd ef37 b73d
000002b0: 9bdc 6dbd 77a7 a2bd bfd9 a03d 997b 883d
000002c0: 3344 eebc e0bf e5b9 0f39 87bd 834e d2ba
000002d0: a2ba 58bd efb1 cebc b736 2abe e697 a4bd
000002e0: 3bf0 133e df11 453c a1cc 0bbe 618b e73d
000002f0: 4903 c93c 47e3 723d 923b 263d b061 433e
00000300: 015b 15bd df6e 043d 7cce dd3d 2884 7ebc
00000310: b1ef 96bd cfe4 e4bd 6e60 1a3e 695c b93d
00000320: 9618 b0bd fb30 3c3d 2610 da3c d6e1 c7bc
00000330: 5bc0 903d 7c7d cf3d e9eb 2abe 6695 fbbd
00000340: 6533 4f3d ab35 b7bd 2571 623c b1cc a8bd
00000350: 82b9 93bd 0de2 9d3d 55b8 d2bc 7c63 e63d
00000360: b880 0b3d 9dd6 2f3e 3ea3 7e3d 31ed 89bd
00000370: 1bd2 5b3c e240 543d b50c 533b 242b 143d
00000380: cbde 2b3d b8cd 92bd bfef fb3c 5850 f9b7
00000390: 6f54 063d 3bb1 e13d c4a9 b7bd dd74 f63c
000003a0: 2a49 21bd c2ca 6c3d 211e 9c3d 45ae abbd
000003b0: ac5d 41bd 3be9 e7bb a189 0c3e f675 0fbd
000003c0: e7f4 04bd e1ec 5b3e 9c12 9a3c 8ce9 16bd
000003d0: 3287 653e d18e eb3d 7208 76bd cacf 463d
000003e0: 3004 073d 6837 e03d 6fc1 993d 2c61 2cbd
000003f0: 4bfe 22be d354 4bbb 2ac2 7c3c a81a 34be

model.rnn.weight_hh_l1 f4 [240, 60]
-0.13366668 0.12586157 0.0030361905 0.06113557 0.06367706 0.11821608 0.040032864 0.029905483
0.09404295 -0.08758057 -0.14384565 0.05015976 0.10545976 -0.082947075 -0.09315369 0.012044649
0.05977673 0.043995958 0.029731391 0.08855763 -0.009052101 0.070012525 0.10958365 -0.108879976
0.0329281 0.08654173 -0.09054478 0.092876405 -0.014427994 -0.07862119 -0.0145176295 -0.02819431
-0.0358855 -0.04390223 -0.043237586 -0.1266391 -0.07068398 0.16097215 0.046485715 -0.12120956
0.031994708 0.01184264 0.06311612 0.02630363 -0.056110915 -0.028639523 0.0952273 0.10831237
0.058012653 0.0023156472 -0.1215115 -0.04056692 -0.043797895 -0.10693908 -0.011554169 -0.13436271
0.044375647 -0.0716739 -0.10370399 -0.09481207 -0.052533552 -0.0039405264 -0.14575069 -0.18106562
0.0397512 -0.066966146 -0.04124309 -0.05476972 -0.06280685 -0.08400296 0.022872096 -0.025196297
-0.008544002 0.19601241 0.08666963 -0.12705031 0.028364757 -0.10996136 0.019766845 -0.11454657
-0.19204353 0.06653622 0.030814033 -0.06296685 -0.12306901 0.06184264 -0.08856958 0.18934424
-0.046880584 0.046838097 -0.15876697 0.0012711065 -0.0015312384 -0.09775335 0.033019345 -0.082988694
-0.062278688 -0.12800193 -0.20891902 -0.143863 -0.16126177 -0.03311977 0.025067324 -0.059063625
-0.10143274 0.10114412 0.16138768 -0.13061777 -0.08458883 -0.0005066006 0.123107485 -0.20949261
0.010411605 0.0130174095 0.1236601 0.16148445 0.021110257 0.03399776 0.07226955 -0.076751545
-0.14789864 0.14167348 -0.054237038 0.03276962 0.087096535 -0.06215687 -0.026036365 0.020496452
-0.09601207 -0.08804733 -0.12511188 0.033346534 0.009716039 0.00517254 0.035871647 0.051920746
-0.040053397 -0.051944774 -0.07371764 -0.077415936 -0.07892099 -0.067521885 0.11809127 0.013036469
0.011331944 0.11291592 -0.11769712 0.08977369 -0.079897165 0.07452328 0.024893094 0.06747514
-0.10866932 -0.047209136 -0.042629313 0.034844216 -0.13583523 -0.06777398 -0.08574009 0.023274144
0.06675925 0.0009793453 0.02825073 -0.11952475 0.00034177452 -0.008326299 0.04350224 -0.08752938
0.08414938 0.014985186 0.056128316 0.081568666 -0.024806915 0.031163983 -0.09631828 -0.06670385
0.05647997 0.08930141 0.032591745 0.05226065 -0.03034334 -0.056790255 0.054902434 -0.09017957
-0.0087243235 -0.1412258 -0.013042902 -0.0025976286 0.055937678 0.104113355 -0.11756115 0.0056493203
0.031217897 -0.07825151 0.029002722 -0.15657194 -0.109458975 -0.03717653 -0.01618091 -0.15611334
0.09737481 0.09958146 -0.07079664 0.06896233 0.024260418 0.061057318 0.0017933757 0.14608368
-0.052295364 -0.06741245 -0.11332244 0.08648046 0.061267566 0.06981907 0.07362852 0.07175227
-0.14354372 -0.1256936 -0.07177739 0.07110251 -0.06562676 0.07475142 0.105427824 0.022126157
0.11525677 0.10251565 0.0057896627 0.05389015 0.030980859 0.12039948 0.10611673 -0.080637015
-0.07204603 0.1196857 0.15897165 0.08325562 0.03347862 0.06329871 0.14070874 -0.15055707
-0.13059789 0.045004852 -0.09570551 -0.009339293 -0.008393802 -0.08972696 -0.13330194 0.14028935
0.048489742 -0.15679543 -0.0043842527 -0.07406961 -0.037109498 0.171415 -0.04796452 0.031832222
00000000: ebdf 08be dbe1 003e d3fa 463b 4b69 7a3d
00000010: 1e69 823d 461b f23d 80f9 233d 58fc f43c
00000020: 9799 c03d 715d b3bd 464c 13be 5274 4d3d
00000030: 49fb d73d 28e0 a9bd 5dc7 bebd eb56 453c
00000040: 72d8 743d 1b35 343d 3f8f f33c b45d b53d
00000050: 434f 14bc ba62 8f3d 656d e03d 77fc debd
00000060: 9edf 063d ca3c b13d 8b6f b9bd fc35 be3d
00000070: 6563 6cbc 2504 a1bd 5adb 6dbc c1f7 e6bc
00000080: adfc 12bd d3d2 33bd e519 31bd aead 01be
00000090: c3c2 90bd e2d5 243e ce67 3e3d b83c f8bd
000000a0: e20c 033d a207 423c 0643 813d b67a d73c
000000b0: 8fd4 65bd 6f9d eabc 8806 c33d e0d2 dd3d
000000c0: ad9e 6d3d 1dc2 173b 05db f8bd 8029 26bd
000000d0: 6c65 33bd e002 dbbd b24d 3dbc 6196 09be
000000e0: 3dc3 353d c4c9 92bd c262 d4bd d52c c2bd
000000f0: 6c2d 57bd 881f 81bb ab3f 15be 4469 39be
00000100: 27d2 223d 8c25 89bd 84ee 28bd 3756 60bd
00000110: e1a0 80bd be09 acbd 435e bb3c 7768 cebc
00000120: 24fc 0bbc 7ab7 483e d97f b13d 7a19 02be
00000130: 355d e83c 6c33 e1bd 14ee a13c 6497 eabd
00000140: 0fa7 44be 2444 883d b66d fc3c c4f4 80bd
00000150: 9b0b fcbd b54e 7d3d f863 b5bd 75e3 413e
00000160: db05 40bd 4ed9 3f3d cf93 22be 429b a63a
00000170: d6b3 c8ba e932 c8bd 4b3f 073d faf5 a9bd
00000180: f017 7fbd f012 03be deee 55be d350 13be
00000190: ce21 25be 99a8 07bd fd59 cd3c b3ec 71bd
000001a0: f8bb cfbd a624 cf3d d042 253e aac0 05be
000001b0: e93c adbd 64cd 04ba c71f fc3d 3b85 56be
000001c0: 7095 2a3c f946 553c 8241 fd3d 2e5c 253e
000001d0: 6bef ac3c 3c41 0b3d 0f02 943d ea2f 9dbd
000001e0: be72 17be da12 113e a827 5ebd 7039 063d
000001f0: ab5f b23d 3498 7ebd 374a d5bc 2de8 a73c
00000200: faa1 c4bd 2952 b4bd 541d 00be 6096 083d
00000210: 0530 1f3c 697e a93b 26ee 123d d9aa 543d
00000220: 080f 24bd 0bc4 54bd 46f9 96bd 3f8c 9ebd
00000230: 54a1 a1bd ea48 8abd d6d9 f13d ea96 553c
00000240: 9ea9 393c 7640 e73d 300b f1bd 45db b73d
00000250: 20a1 a3bd a99f 983d 9aec cb3c 6830 8a3d
00000260: 058e debd 5e5e 41bd 139c 2ebd cfb8 0e3d
00000270: 6418 0bbe 16cd 8abd 8098 afbd 6ba9 be3c
00000280: 13b9 883d 605d 803a 136e e73c 64c9 f4bd
00000290: 3330 b339 076b 08bc 682f 323d 9b42 b3bd
000002a0: 8356 ac3d 6d84 753c cee6 653d 790d a73d
000002b0: df37 cbbc 9c4b ff3c 8542 c5bd 079c 88bd
000002c0: 8b57 673d a8e3 b63d ec7e 053d 430f 563d
000002d0: 9992 f8bc e69c 68bd 60e1 603d 11b0 b8bd
000002e0: 77f0 0ebc 7f9d 10be e5b1 55bc fa3c 2abb
000002f0: e81e 653d 6239 d53d e6c3 f0bd ef1d b93b
00000300: adbc ff3c 5442 a0bd 1e97 ed3c 6554 20be
00000310: 072c e0bd 6b46 18bd d48d 84bc 2ddc 1fbe
00000320: 726c c73d 5df1 cb3d d4fd 90bd 1f3c 8d3d
00000330: c9bd c63c 3d17 7a3d b40f eb3a f696 153e
00000340: aa33 56bd 8a0f 8abd 9815 e8bd ab1c b13d
00000350: b3f3 7a3d 4dfd 8e3d 8dca 963d dbf2 923d
00000360: 20fd 12be d3b5 00be 0600 93bd 319e 913d
00000370: 5367 86bd 4617 993d 8bea d73d ea41 b53c
00000380: be0b ec3d baf3 d13d 36b7 bd3b ebbb 5c3d
00000390: 92cb fd3c 0194 f63d ba53 d93d 0525 a5bd
000003a0: de8c 93bd c71d f53d 77c9 223e ec81 aa3d
000003b0: e120 093d c1a2 813d f415 103e a22b 1abe
000003c0: 74bb 05be 0257 383d 4001 c4bd d603 19bc
000003d0: 2886 09bc c5c2 b7bd 4e80 08be 03a8 0f3e
000003e0: 2e9d 463d fb8e 20be c7a9 8fbb cfb1 97bd
000003f0: 2100 18bd 6a87 2f3e 7276 44bd 8162 023d

model.rnn.bias_ih_l1 f4 [240]
-0.053865686 -0.012813427 0.029683243 0.009328644 -0.009671047 -0.0070680645 -0.0732403 0.1298089
0.02500596 -0.030732356 0.09155507 0.12760103 -0.023599476 -0.04945429 0.007200053 0.15146117
0.16602124 0.17996626 0.0861095 0.1268042 0.090885945 0.05892949 -0.015552078 0.14121768
-0.013125186 -0.12195662 0.06561232 0.045966085 0.16757686 0.13102151 0.11102125 0.16907427
-0.008170989 0.044091012 0.08847301 -0.00047862582 0.039762568 -0.009716789 0.07259197 0.008513567
-0.02466055 -0.058627248 0.05733763 -0.0318663 -0.03047024 -0.07674877 0.040874753 0.13396187
0.095712796 0.06526294 -0.013265268 0.09250151 0.1068607 0.14547049 0.048720088 -0.041830163
0.11399207 0.059392896 -0.092989035 0.18151617 -0.07186001 -0.03725216 -0.03125218 0.15405515
-0.06006438 -0.002645767 0.030534266 0.0978348 -0.09887131 -0.027728753 -0.024213865 0.08448909
0.0035692786 -0.060082067 0.10142805 0.055707894 -0.053494196 -0.0044436883 0.046921395 0.038552597
0.111833714 0.0877031 -0.10067082 0.024932923 -0.019524558 0.061850082 0.0046829316 0.049643647
0.05174838 0.08902333 -0.013483775 0.054091144 -0.046946194 -0.051431183 -0.0114041325 -0.10074239
0.023394939 0.07999819 -0.07882502 0.030042462 0.12219852 -0.09008219 -0.05737706 -0.15103088
-0.15455784 0.02785098 -0.0983497 -0.10639422 -0.09023971 -0.08431023 0.085035644 -0.02436802
0.06401012 0.073330574 0.0805266 0.050073836 -0.10811337 -0.061654687 0.11654734 0.023956655
0.009471109 0.048770566 0.04049759 0.0048452704 -0.115913555 -0.13753462 -0.13743633 -0.078996055
-0.053005863 -0.12488233 0.05061109 0.0061993967 0.08211014 0.048972156 0.1481735 -0.12754905
0.0825664 -0.10418363 0.07916589 -0.07796638 -0.04377092 -0.054926492 0.06528517 -0.031439155
-0.058505688 0.031746555 -0.08462853 0.028124154 -0.0151642505 -0.10773598 0.014362575 0.06831396
-0.128209 -0.058277242 0.06881996 -0.11669798 -0.06786607 -0.13018605 -0.08254932 -0.1161238
-0.05407258 0.040119052 0.09956416 -0.045533158 0.004785789 0.086644255 0.047706194 -0.12519282
-0.049349602 0.096517906 -0.067224 -0.023988064 -0.04888939 -0.0801514 0.09119112 0.1539498
-0.06775788 0.113745935 0.101632 -0.13739215 -0.05845426 0.058355734 0.07297582 -0.05169952
0.1162302 -0.1031846 0.14808714 0.0035724184 -0.005833388 -0.03292491 -0.018155297 0.1762996
-0.05156314 -0.032975536 0.15285847 -0.030670406 0.070395075 0.15808754 0.14954878 -0.02502173
-0.052610055 -0.111243725 0.11394737 -0.03571471 0.09994997 0.02214594 -0.1035298 0.06974031
0.0027533052 0.105925955 -0.027244465 0.050547786 0.014945954 0.1320058 -0.07811421 0.12245954
-0.003669243 0.10683418 -0.031674016 -0.02288062 -0.029682383 -0.05469707 0.12152489 0.02816074
0.14542748 -0.09203101 0.09449597 -0.09276576 0.013554157 -0.08573702 -0.073318526 -0.07789692
-0.09785102 0.060865525 0.09126743 0.07554857 -0.005931011 -0.04976848 -0.07804004 0.14349093
00000000: 44a2 5cbd 68ef 51bc 462a f33c 2bd7 183c
00000010: 5073 1ebc 399b e7bb 03ff 95bd a0ec 043e
00000020: 4dd9 cc3c 6cc2 fbbc 3981 bb3d d8a9 023e
00000030: b053 c1bc 9590 4abd 6cee eb3b a318 1b3e
00000040: 7901 2a3e 1349 383e 2d5a b03d f6d8 013e
00000050: 6922 ba3d 0d60 713d 25ce 7ebc 5e9b 103e
00000060: 050b 57bc 64c4 f9bd c15f 863d ef46 3c3d
00000070: 4599 2b3e 812a 063e 1c5f e33d ce21 2d3e
00000080: 9ddf 05bc c798 343d 5631 b53d 12f0 fab9
00000090: 13de 223d 2b33 1fbc 19ab 943d 7d7c 0b3c
000000a0: ec04 cabc 2023 70bd ddda 6a3d 3d86 02bd
000000b0: ba9c f9bc 762e 9dbd 496c 273d 4d2d 093e
000000c0: 1205 c43d 94a8 853d 9156 59bc 6f71 bd3d
000000d0: c8d9 da3d 37f6 143e b78e 473d 1b56 2bbd
000000e0: ad74 e93d f745 733d 0971 bebd 60df 393e
000000f0: 572b 93bd b995 18bd 4902 00bd a2c0 1d3e
00000100: 1106 76bd 9b64 2dbb ff22 fa3c 9d5d c83d
00000110: 0b7d cabd 6927 e3bc 285c c6bc 9e08 ad3d
00000120: 8fea 693b 9d18 76bd 82b9 cf3d f62d 643d
00000130: bb1c 5bbd 5c9c 91bb a630 403d 54e9 1d3d
00000140: 1309 e53d af9d b33d 812c cebd 2140 cc3c
00000150: f7f1 9fbc 8356 7d3d 4773 993b 2357 4b3d
00000160: 1cf6 533d dd51 b63d 0deb 5cbc ad8e 5d3d
00000170: a74a 40bd 81a9 52bd 66d8 3abc 0752 cebd
00000180: bea6 bf3c 17d6 a33d 036f a1bd 9c1b f63c
00000190: 3843 fa3d 037d b8bd 3504 6bbd d7a7 1abe
000001a0: 6944 1ebe bd27 e43c 916b c9bd 36e5 d9bd
000001b0: 99cf b8bd d8aa acbd 2b27 ae3d 719f c7bc
000001c0: bd17 833d 572e 963d 21eb a43d 391a 4d3d
000001d0: 8b6a ddbd a089 7cbd 5fb0 ee3d bf40 c43c
000001e0: b62c 1b3c a5c3 473d cde0 253d 13c5 9e3b
000001f0: 1664 edbd e0d5 0cbe 1cbc 0cbe afc8 a1bd
00000200: ad1c 59bd 4fc2 ffbd 934d 4f3d 4f24 cb3b
00000210: 5c29 a83d 0797 483d cbba 173e 389c 02be
00000220: 9318 a93d 3a5e d5bd ba21 a23d d6ac 9fbd
00000230: 2349 33bd 9afa 60bd 3bb4 853d 58c6 00bd
00000240: a9a3 6fbd ad08 023d b951 adbd a064 e63c
00000250: 7a73 78bc aea4 dcbd 0151 6b3c 31e8 8b3d
00000260: 3849 03be 1eb4 6ebd 7bf1 8c3d 5aff eebd
00000270: 5efd 8abd 7e4f 05be 9e0f a9bd 51d2 edbd
00000280: 367b 5dbd e053 243d 4be8 cb3d fa80 3abd
00000290: 1cd2 9c3b 8b72 b13d 9267 433d 8c32 00be
000002a0: cf22 4abd 2eab c53d bdac 89bd 9e82 c4bc
000002b0: 3e40 48bd 6b26 a4bd 69c2 ba3d 04a5 1d3e
000002c0: a5c4 8abd a1f3 e83d 7024 d03d 87b0 0cbe
000002d0: bc6d 6fbd 6c06 6f3d 5974 953d e0c2 53bd
000002e0: 190a ee3d 7352 d3bd 28a4 173e 3c1f 6a3b
000002f0: 0126 bfbb 45dc 06bd 6bba 94bc e287 343e
00000300: df33 53bd 5b11 07bd ee86 1c3e 8140 fbbc
00000310: 4b2b 903d b3e1 213e 5123 193e 5ffa ccbc
00000320: a47d 57bd c0d3 e3bd 3d5d e93d 9649 12bd
00000330: 92b2 cc3d 676b b53c 6f07 d4bd 02d4 8e3d
00000340: cc70 343b b5ef d83d c92f dfbc 320b 4f3d
00000350: e0df 743c 872c 073e 58fa 9fbd 11cc fa3d
00000360: af77 70bb e1cb da3d 9dbc 01bd 2370 bbbc
00000370: 7828 f3bc 090a 60bd 0be2 f83d 5ab1 e63c
00000380: f1ea 143e c17a bcbd 1a87 c13d fafb bdbd
00000390: 4112 5e3c e496 afbd 0628 96bd 6c88 9fbd
000003a0: 1e66 c8bd 214e 793d 6bea ba3d 35b9 9a3d
000003b0: ed58 c2bb 09da 4bbd 75d3 9fbd 49ef 123e
