checkpoints/epoch=2-step=150-v7.ckpt (torch, 621663 bytes, 33 tensors)

model.param_proj.proj.0.weight f4 [1, 60]
00000000: 8647 89be de88 7b3e a039 b3bd 5d83 57be
00000010: 40a1 30be 02bb 9cbc 1193 313e 39ff eabc
00000020: 246f 45be 3212 30be 128a 36be 5776 30be
00000030: 510b 18bd b47f a23d 5637 213e 523b 4b3e
00000040: b8fb 3ebe 788c fcbd 284e 7fbe f62e 10be
00000050: 13e4 213d 38b6 8c3d 2385 853d 4b52 65be
00000060: a57b 9b3d 992a 0e3e b54a 44be 9231 3dbe
00000070: e454 9d3d 3e8b 903e 6a63 2dbe ea2d 173e
00000080: 7558 d4bd acf1 283e ef29 f13d 3287 fd3d
00000090: 0fd6 1b3e 382d 243d 9c14 d6bd 832a 303e
000000a0: 6c9c 7fbd 989f 69be 8033 573d cd0b 603e
000000b0: 43fa 6dbe 447b 0a3e 5ffe 5d3e d988 4ebd
000000c0: 6169 ca3d 9e8c babd fb2b 23be a3af 153e
000000d0: e78f 063e 5d68 fa3d 1e2d 4a3e 13b2 1dbe
000000e0: 877f 9e3d 7a9f f33d 4481 453e f772 773e
-0.2681238 0.2456393 -0.087512255 -0.21046205 -0.17249012 -0.019132141 0.17341258 -0.028686153
-0.19280678 -0.17194441 -0.17826107 -0.17232643 -0.037120167 0.07934514 0.15743765 0.19846848
-0.1865071 -0.1233148 -0.24932158 -0.14080414 0.03952415 0.06870693 0.065195344 -0.22394674
0.07591943 0.13883437 -0.19169123 -0.18475941 0.07682207 0.28231233 -0.16932455 0.14763609
-0.10368434 0.1649844 0.11775576 0.12379302 0.15218376 0.040082186 -0.1045315 0.17203717
-0.062405035 -0.22814786 0.05253935 0.21879502 -0.23239999 0.13523585 0.21679066 -0.050423477
0.09883381 -0.09108852 -0.15934746 0.14617781 0.13140832 0.12226937 0.19743773 -0.15399961
0.07739168 0.11895652 0.19287592 0.2416495

model.param_proj.proj.1.weight f4 [1, 60]
00000000: 750a 22be f3ca 11be 99f1 86bc b0bf 36be
00000010: a288 fabd e024 ed3d 899a 323e 1268 19bd
00000020: bbec b5bd b6c7 fbbd 014c 2abe 3645 01be
00000030: e0e1 ddbd 363f 55be b36c 073c fc3c 07be
00000040: 1f05 8b3c 8ae2 e0bd 33eb 14be 06d0 003e
00000050: d808 29bd a4ce 153e 06ce 373e 833d 373e
00000060: 5ef1 1f3e 7e40 ebbd bb93 183e 0cb8 7fbd
00000070: a70d 47be 38fb 10be d5a0 633e 61a2 283e
00000080: 4692 293d 7bf3 1f3e 99d1 40be 9933 5bbe
00000090: cd9f f53d ac21 10be 626d 203e 7e60 5d3e
000000a0: 242b 05bd c339 083e b46f 41be 1d66 8e3d
000000b0: f794 1fbd 7d3f 673e 9c19 693d d503 2e3e
000000c0: e223 3cbe 695a 203c 2b5b 35be 211d 3a3e
000000d0: ab5b 0b3e 5460 fb3d 2ee4 743d 4d2c a9bd
000000e0: 705f ebbd e98e 29be 4b4d 19be a498 55be
-0.15824302 -0.14237575 -0.016472625 -0.1784656 -0.12233092 0.11579299 0.17441763 -0.037452765
-0.088830434 -0.12293951 -0.16630556 -0.12624058 -0.10834098 -0.20824894 0.008265662 -0.13206857
0.016970215 -0.10980709 -0.14542846 0.12579355 -0.0412682 0.14629608 0.17949685 0.17894559
0.15619418 -0.1148691 0.14900105 -0.06243138 -0.19438802 -0.14158332 0.22229321 0.16468193
0.041399263 0.15620224 -0.18829955 -0.21406402 0.1199337 -0.14075345 0.15666726 0.2161884
-0.032511845 0.13303284 -0.18890268 0.0695307 -0.038960423 0.22582813 0.05690919 0.1699365
-0.18373063 0.00978718 -0.17710559 0.18175174 0.13609187 0.122742325 0.05978792 -0.08260403
-0.11492813 -0.16558422 -0.14970891 -0.20859009

model.param_proj.proj.2.weight f4 [1, 60]
00000000: 8349 4e3d f8c2 b3bc 8ba2 4abd 534e da3c
00000010: ab1b d3bd 0a20 a4bd 5c98 a43c e2a9 d4bd
00000020: 05d6 c5bb 0605 bb3d 2915 ffbd 3461 bbbd
00000030: c581 113e 9637 87bd bb77 11be 6da0 cf3c
00000040: c6e7 923d c48b 05be 274b 0ebc 399d 003c
00000050: dde7 f6bd 91fe e03d d5b8 c03d fdc8 c4bd
00000060: f60a 04bd 2f42 11bc 870b adbd 6c61 00bd
00000070: eb3e 15be a698 cf3c 789b db3d f6db cd3c
00000080: e73d 8c3d d901 d63c 94cc b5bc d88f c63c
00000090: cf69 283d 482f 033d 6652 e1bc 1a25 fb3d
000000a0: fc99 843b 0957 56bb 25ba 963c d902 07bd
000000b0: 0dbe 8ebd c241 c53c 6071 ab3d ff07 53bd
000000c0: 568d 863d 88d2 98bd c041 16bd 0937 1fbd
000000d0: 7973 eebd ab86 ea3d 8539 f83d db08 0fbe
000000e0: 8796 bc3d 7fb6 8f3c d3ec af3b bd69 81bd
0.050363075 -0.021943554 -0.04947142 0.026648676 -0.103080116 -0.080139235 0.020092182 -0.10383965
-0.006037476 0.091318175 -0.12455208 -0.091493994 0.1420966 -0.06602399 -0.1420583 0.025345052
0.071731135 -0.13041598 -0.00868491 0.007849985 -0.12055943 0.10986055 0.09410254 -0.09608648
-0.032237016 -0.008865877 -0.08449464 -0.03134291 -0.14574783 0.025341343 0.10723013 0.0251293
0.068477444 0.026123928 -0.022192277 0.024238512 0.041116532 0.032027513 -0.027505111 0.12262936
0.0040466767 -0.0032705686 0.018399308 -0.0329617 -0.06969843 0.024079207 0.08371234 -0.051521298
0.065699264 -0.07462031 -0.036683798 -0.038870845 -0.116431184 0.11451467 0.12120346 -0.13968222
0.09208398 0.017543076 0.005368808 -0.06318996

model.rnn.weight_ih_l0 f4 [240, 24]
00000000: 3c05 b2bd e9c9 273e 0790 f1bd 6fe2 3abd
00000010: 187a de3d 8013 183e be59 35bd a68e 85bd
00000020: 5e4e 73be cf41 49be 4fa5 253e 5291 0abe
00000030: 29a1 013e 4735 473d 30a8 e6bd e196 8fbd
00000040: 94b1 49bd 133b 9f3c a3a9 2bbe 48b2 5dbd
00000050: 6e5b 633d 385c 46be ca6c a4bc bc0d 033e
00000060: fde5 9d3d aeeb 583d ed52 0abe 5c3b d43d
00000070: bed4 36bd e11b b23d 48e9 3f3c 2560 abbd
00000080: 41db 313d 6b36 3dbe 32bb 95bd 52eb 9f3d
00000090: ab2d 5dbe edec d6bd 847c 873e 0a49 9f3d
000000a0: e7d4 36be f25e 3b3e 1c75 12be 795c a3bd
000000b0: 3fdc 7c3d 4b8c 87bd 1874 e13c 0195 8fbd
000000c0: 0f45 a93d ae6f 9ebd 9aab 083d a977 d5bd
000000d0: 6c33 1dbc 1671 b2bd 9a08 7ebd e331 babd
000000e0: ea50 adbb f8fa 6d3d 19d3 4c3d 25de 473e
000000f0: 84a8 0dbd bf66 b5bd 0fb9 21bd 3b0b 283d
00000100: 89cf 1dbd 000e b2bc 37ae 36bd cfad a8bd
00000110: b8c4 8fbc 2682 16bd 6989 cb3d 3014 593d
00000120: 2e2f 073e ea91 e7bd bca9 bebc dc74 0fbd
00000130: be44 063e 43c8 8fbd 613f 29bc 4f63 183d
00000140: 6a17 f13b 7db7 d13d 00e8 8fbd e307 18be
00000150: a410 263d 81b4 be3d cf14 3ebe 4ab9 cc3d
00000160: ab0b d2bd b6a2 94bc d10f 87bc d922 b33c
00000170: b1a2 1bbe 900a 11be b70f d83d 92bc 8e3d
00000180: 8970 47bd 54fb d6bd 5204 0ebd 9026 12bd
00000190: f7f3 323d 6331 06bd e21d d5bc e902 7abd
000001a0: 3c8d acbd 427b 663c 3f01 ecbd 47c3 883d
000001b0: 5c6b ff3c c2f6 1abe 2938 293d 65d3 233d
000001c0: f553 79be a73b 37bb 3ccf b5bd 070d 94bb
000001d0: 3aab 0fbe f293 c53d 73a8 94bd acb2 003e
000001e0: 71c5 73bd 527b 14be 8301 de3d 1af3 0dbd
000001f0: 080d 77be f094 053e 7abb 4ebe 4125 633d
00000200: ae24 b03d 744c 18be 0a70 ac3d ca1d 06bd
00000210: 5671 e23d a553 1a3d 8874 da3b 65da bd3d
00000220: 5abf ea3d d12e 2bbe 40cd b4bd 0045 bdbd
00000230: dc56 353d 3092 913d e9a8 383c cd80 a3bc
00000240: 706c 49be 5c6b 22bd e13c eabd c0db 1fbe
00000250: 6a6a d13d 4bf9 57bd 70ce 43be 1587 a03d
00000260: 3dd5 a83d 27d8 e13d dc14 bb3d 5281 dabd
00000270: 1660 ed3d 3ef7 773d 5070 2f3e e451 743e
00000280: 2d60 74be 3494 693b 64e7 c9bd 4473 8ebd
00000290: ad63 06be fde2 1bbe 4a41 293e b5d3 af3d
000002a0: e230 afbd 2404 01be 3f1b 20be f949 1e3d
000002b0: d2b1 fabd a9be 133e 5755 46bd 2370 753c
000002c0: 360e 11be 7da2 25be 8c3e 73bd c42b 96bd
000002d0: 9463 02be b24f f1bc b677 1dbd e03d 953c
000002e0: c784 183d 312e 5c3c 0109 80bd 397e c9bd
000002f0: 3d18 333c 0a66 373e 2716 2ebe abab 94bd
00000300: 40ab 8cbe ddf0 0d3e c927 a13d 13d2 5f3c
00000310: c3f7 8f3c f5ec 21bd 8b91 f03c 1482 ddbd
00000320: 3f30 9abd f654 15be 9b46 58bd d575 05bd
00000330: 06a7 7d3d c2e7 3bbd 3d18 f7bb a43b 113e
00000340: a516 023d 7e69 12be 66a1 43bd 2233 96bd
00000350: 4d5f c83d e8c8 173d c6e9 d9bd 3440 8a3d
00000360: 8194 9cbd de0c 0c3d 70b4 27bd a716 8abd
00000370: 0e36 9cbd 0279 94bb 293c 0d3e 138d 11bc
00000380: ccce cfbc fe85 cbbd a4ae 613d 0051 1bbd
00000390: 21bb fdbd adac 5abd 355a b83c bc5b 8b3c
000003a0: 00a9 2c3e 5bd6 14be 1c44 93bc 8cd1 263d
000003b0: c708 09be c603 b63b cf0b 493e 179f 793d
000003c0: 34e5 833d b279 0dbe 3513 11be d90d b0bd
000003d0: d557 a6bd 9bd1 8fbd 01c3 223e 0b64 013e
000003e0: 0f3a ea3d 72d5 2a3d e199 66bc 40e1 16be
000003f0: 39b0 fc3d e509 d2bd 5042 0f3e 1eb9 4cbe
-0.08692405 0.16385616 -0.11795049 -0.0456261 0.10863131 0.14851189 -0.044275038 -0.06521349
-0.23760363 -0.1965401 0.16176341 -0.13531998 0.12659134 0.048634794 -0.11262548 -0.070112
-0.049241617 0.019437348 -0.1676393 -0.0541251 0.055507116 -0.19371116 -0.020071406 0.12798208
0.077098824 0.052959137 -0.13508196 0.103628844 -0.04463648 0.08696724 0.011713333 -0.083679475
0.043421987 -0.1847779 -0.07311095 0.07808556 -0.21599452 -0.10494409 0.26462185 0.07777603
-0.17854653 0.18297938 -0.14302486 -0.07976622 0.06173348 -0.06618556 0.027521178 -0.07010842
0.08265125 -0.07736145 0.033366777 -0.10423214 -0.009594779 -0.08712976 -0.06201992 -0.090915464
-0.0052891867 0.05810067 0.050006006 0.19518335 -0.034584537 -0.08857488 -0.039483126 0.041026335
-0.038528 -0.021735191 -0.044599738 -0.08236276 -0.017549857 -0.036745213 0.09938318 0.052997768
0.13201591 -0.11307128 -0.023274295 -0.035023555 0.1311216 -0.07020619 -0.010330052 0.037204083
0.0073575275 0.10240076 -0.07026672 -0.14846759 0.040543213 0.09311772 -0.18562625 0.099962786
-0.10256132 -0.018143993 -0.016487034 0.021867203 -0.1519878 -0.14164186 0.10549872 0.06969561
-0.048691306 -0.10497156 -0.03467209 -0.035681307 0.043689694 -0.032761943 -0.026015226 -0.06103793
-0.08425376 0.014067473 -0.11523675 0.06677871 0.031179123 -0.15133193 0.041313324 0.039996523
-0.24348433 -0.002795914 -0.088774174 -0.0045181545 -0.14030161 0.09647359 -0.07258692 0.12568158
-0.059514467 -0.14500168 0.10840132 -0.034655668 -0.24126065 0.13045096 -0.20188704 0.05545545
0.08600746 -0.14872915 0.08419807 -0.032743253 0.11056773 0.037677426 0.0066667236 0.09270171
0.11462279 -0.16717078 -0.08828211 -0.09241676 0.04427229 0.07107961 0.01127074 -0.019958878
-0.19670272 -0.039653167 -0.11437393 -0.15611172 0.10225375 -0.05272798 -0.19121718 0.07838265
0.08243797 0.11027556 0.09134838 -0.10669197 0.115905926 0.060538523 0.17132688 0.23859364
-0.23864813 0.0035641314 -0.098585874 -0.06955579 -0.13123961 -0.15223308 0.16528812 0.08585302
-0.085542455 -0.12599236 -0.15635394 0.038644765 -0.12240948 0.144282 -0.04842123 0.014980349
-0.14165577 -0.16175266 -0.05938582 -0.073325664 -0.12733299 -0.029456947 -0.038444243 0.01821798
0.037236 0.013438747 -0.06251717 -0.09838528 0.010931072 0.17910019 -0.17000638 -0.072593056
-0.27474403 0.13861413 0.078689165 0.013660925 0.017574197 -0.03953262 0.029366275 -0.10815826
-0.075287335 -0.14583191 -0.05280171 -0.032583077 0.061926864 -0.04587532 -0.007540731 0.14182907
0.031759877 -0.14298055 -0.047761343 -0.073339716 0.09783802 0.037056834 -0.10640292 0.06750527
-0.07645512 0.03419196 -0.040943563 -0.06742602 -0.076274976 -0.004531027 0.1379248 -0.008883732
-0.025367163 -0.09937666 0.05509819 -0.037919044 -0.12389208 -0.053387333 0.022503952 0.017011516
0.16861343 -0.14534895 -0.017976813 0.040727183 -0.13382255 0.005554649 0.19633411 0.060942736
0.064402014 -0.13815954 -0.14167483 -0.08596391 -0.081222214 -0.07022401 0.158947 0.1263582
0.11436855 0.041707464 -0.0140747735 -0.14734364 0.12338299 -0.102557935 0.1399014 -0.19992492

model.rnn.weight_hh_l0 f4 [240, 60]
00000000: e850 683e dcf8 ed3d b3a7 9c3d 1d3a a73d
00000010: 4eb0 5ebd 5b5f 1abe 7109 06be bb9f ba3d
00000020: 1d9e 9abd 3151 8b3b 2791 293e dc3c 333d
00000030: caa5 ff3c 3cc5 d3bd b64e 313e 78e1 49be
00000040: 9c6b 293c 2e2a a0bd 72d8 ec3d afa4 373d
00000050: 0e3b 1ebe f277 4f3c 2e97 17be ffb2 353e
00000060: 6ad1 da3d 1a63 1d3e 197e b8bc 5fd9 88bd
00000070: bbae e23c a39e 143d 694c 473d 8baa 1c3e
00000080: 33bc a63a 15f8 e8bc b9d4 f8bd 538c dbbd
00000090: b85f dbbd 8262 243e 2edc d13d 6820 ac3d
000000a0: 9197 5ebe bcfc 55bd 8330 8cbd a55b e73d
000000b0: 2f45 c7bd 6a0a 0f3e 5f57 893c ce56 323d
000000c0: f37d 0fbe 6a22 aebd e9e5 f53d fef3 f73c
000000d0: 00d3 98bb 83f9 0e3e 9ba1 48be 66ed adbd
000000e0: 7178 4a3c a841 38be 229d 29be e3cd b93d
000000f0: 2349 b63c 747d 38bd 1ec7 a5bd 393c 9c3d
00000100: 71f5 ea3d d6d0 37bc 24c5 0cbe c041 eb3d
00000110: cf05 893d 4003 953d 613f a73c 159c 01be
00000120: 1340 8fbd 3f1d 93bd 7580 b6ba 94af 39be
00000130: cc28 f03d 0b04 17bd cf7e b03d 3212 023e
00000140: 4986 6f3d a763 153e 434b 203d f0af 92bc
00000150: 91a7 1abe 1308 25bd 68e0 dfbd e486 303e
00000160: c541 313d 2c74 253d 01d6 2a3e 68cc da3c
00000170: e91b 4b3d ab4b d3bd acff 173d fb0e c23c
00000180: eaa4 5cbd 65e4 eabd 2142 9dbd 4083 f93d
00000190: 97a3 89ba 9fc6 273e 8734 833d 2ab6 85bd
000001a0: a4ef 503d edf7 a1bd 2db6 ccbc fd2d fa3c
000001b0: c02f a13d 87ae 003d 35b6 6bbd 1caa 89bd
000001c0: 26f0 e0bd 21c7 3cbc 5d9a 7b3c 9821 0c3c
000001d0: 6181 c03d 975d edbc c25c 33bd b0d2 db3b
000001e0: a9d8 e03c e272 acbd 0cae 003d c115 563d
000001f0: b187 70bd 9663 41bc 742a 833d 3239 7cbd
00000200: 2a9d 17bd 18ef bcbd 8ab9 cbbb 6f4a c0bb
00000210: 22be 5e3d a2cd a3bd deba 85bd 4eb8 d0bc
00000220: 4282 b83d e1ca 1fbe 465c 2bbd afb4 003e
00000230: f863 afbc 7ef7 1b39 ebbb a93d aa78 5bbd
00000240: 3a43 f3bb afb2 093d a234 1a3e 5d12 453c
00000250: c320 bfbc 6377 633d 2984 1b3d 4f3f 1cbd
00000260: 9f21 0abd 0c75 a23d 25bf 70bd 2db6 cabc
00000270: 513c 0abe 08e2 1c3d 522f 14be c815 1fbe
00000280: d2e9 25bc ac37 413d 723c bb3d 4c48 143d
00000290: 2641 e7bd 6ed4 373d d5d5 12bd 6599 863d
000002a0: bffb 0e3d 6ebb 52bd eeca a73d 7390 c4bc
000002b0: 0649 e43c 63fc 17be 2878 1a3d 08b0 2b3d
000002c0: d83e 12bc e041 b7bd 7276 903c cf4e 613d
000002d0: 633d fcbc 42d7 303e 93c8 073e 258f 643d
000002e0: f866 193d 98e1 1a3e 282f 5cbe ab04 2c3e
000002f0: ef5c 6cbd 2174 2b3d 1965 3d3e 1234 503c
00000300: 715d 473e 203f 31be cd2b f2bd 4865 923c
00000310: b57d bebd 25b5 fabd 0537 c53c 4267 ccbb
00000320: 348a abbd 434a 12be 4147 6ebc 1be2 9cbd
00000330: 161d 9ebc 7093 e43c dbd5 adbd 03d5 9a3d
00000340: 5850 113c 770f 58bd 9899 a43b f4af c63c
00000350: d261 e5bb 4aa7 d6bd 75ff 073e f76d 3dbe
00000360: 1ac7 f8bc a0fe 553e 0f10 05be 25e5 363e
00000370: 9ee2 233d fb97 b93d 9991 b6bd 23d0 163e
00000380: 85a3 f5bd 5758 7b3d 8d29 febd 637d 923d
00000390: ab7a c0bd 9201 903d ee69 b6bd aa60 22bb
000003a0: eb33 3c3e d422 f33d 208e e9bd 243f f43d
000003b0: dfce a3bd e8f3 8cbd 735e 573c 5718 93bd
000003c0: 70a3 52bd ba76 923d 6cac ff3d 8fef 8a3c
000003d0: adb3 21bb 49e9 1ebc 11af 9cbd a435 313e
000003e0: 4b81 e93d 4785 24bd 40d3 2b3e 4f43 003c
000003f0: 9fd4 263d ab4a ec3a 5362 003d 6536 c7bd
0.22687113 0.11619732 0.076491736 0.08165381 -0.054367356 -0.15075438 -0.13089539 0.091124974
-0.07549689 0.004251622 0.16559277 0.043759212 0.031206984 -0.10340354 0.17315182 -0.19714916
0.0103405975 -0.07820545 0.11564721 0.04483479 -0.15452215 0.012662875 -0.14803764 0.17744063
0.10684474 0.15369835 -0.022521066 -0.06682085 0.027671209 0.0362841 0.048656855 0.15299432
0.0012720883 -0.028438607 -0.121499486 -0.10720124 -0.10711616 0.16053203 0.10247074 0.084046185
-0.21737505 -0.05224298 -0.068451904 0.11296777 -0.097299926 0.13968816 0.016765295 0.043539815
-0.1401289 -0.08502658 0.120067425 0.030267712 -0.004663825 0.13962369 -0.19592898 -0.08492546
0.012357817 -0.17993796 -0.16563848 0.09072473 0.022251671 -0.045041516 -0.08094619 0.07628674
0.114725955 -0.011219224 -0.13747078 0.1148715 0.06690561 0.072760105 0.020415964 -0.12657197
-0.06994643 -0.071833126 -0.0013923781 -0.18133384 0.117265314 -0.03686909 0.08617937 0.12702253
0.058477674 0.14588796 0.039134275 -0.01790616 -0.15102984 -0.040290903 -0.10931474 0.17238957
0.043275613 0.040393993 0.16683199 0.026708797 0.049587164 -0.10317167 0.037109062 0.023688784
-0.05386821 -0.11469344 -0.07678629 0.12183237 -0.0010501024 0.16384362 0.06406503 -0.06528886
0.05100979 -0.07908616 -0.024989212 0.030539507 0.07870436 0.031416442 -0.057546813 -0.06721899
-0.10983305 -0.011522085 0.015356627 0.008552931 0.09399677 -0.028975291 -0.043789633 0.0067084655
0.027447062 -0.0842035 0.031415984 0.05226684 -0.058723155 -0.011803528 0.06404582 -0.061577983
-0.037015118 -0.09225291 -0.0062171863 -0.005868248 0.054380544 -0.07998206 -0.06529783 -0.025478508
0.0900922 -0.15604736 -0.041836046 0.12568925 -0.021409974 0.0001487415 0.08287796 -0.05358187
-0.0074237855 0.03361767 0.1505914 0.012028304 -0.023331052 0.055533778 0.037967835 -0.038146313
-0.03372347 0.07932481 -0.05877604 -0.024745071 -0.13499571 0.038301498 -0.14471176 -0.15535653
-0.010126548 0.047172233 0.091423884 0.03620176 -0.11291723 0.044880323 -0.035848457 0.065722264
0.034908053 -0.051448278 0.08193003 -0.02399466 0.027866852 -0.14842372 0.037712246 0.041915923
-0.008926116 -0.089481115 0.017634604 0.0550068 -0.03079099 0.17269614 0.13260107 0.055800576
0.037451714 0.1512512 -0.21502364 0.16798656 -0.057705816 0.041858796 0.18495597 0.012707727
0.19469239 -0.17309237 -0.118247606 0.01787056 -0.093013205 -0.12241582 0.024074087 -0.006237895
-0.083759695 -0.14286141 -0.014543355 -0.07660314 -0.019300979 0.027902335 -0.08488055 0.0756016
0.008869253 -0.052749123 0.0050231926 0.024253823 -0.0070001865 -0.104811266 0.13281043 -0.1849898
-0.030368377 0.20897913 -0.12994407 0.17860849 0.04001104 0.09062191 -0.08914489 0.14727835
-0.119940795 0.061363544 -0.12410269 0.07152822 -0.09398397 0.070315495 -0.08906923 -0.0024776855
0.1837918 0.11871877 -0.11404061 0.119261056 -0.07998442 -0.06882459 0.013145077 -0.07182377
-0.051425397 0.071515515 0.12484059 0.016959934 -0.0024673746 -0.009699174 -0.07650579 0.17305619
0.11401614 -0.040166166 0.16779804 0.007828548 0.040730115 0.0018027624 0.03134377 -0.09727172

model.rnn.bias_ih_l0 f4 [240]
00000000: e7ce d8bb 3b1d 083e 8100 1f3d 4d8f 2a3e
00000010: 680c 7d3d 2856 4c3e 21a1 2f3e e4c0 0e3e
00000020: a92e a8bd ce30 a4bb 47a2 f83d 3e01 76bd
00000030: d0ed 9c3d b163 673c 4c90 f2bb 70ab 443e
00000040: 5b24 3e3d 7604 a63d ce04 6dbd 8f73 47bd
00000050: 2e8a a93d af2e 2e3e c031 74bd 8fef 003e
00000060: 3179 abbc fb72 273d 9251 373c e566 203d
00000070: 569e 1ebd ec7a 0a3d 836c d33c da81 e33d
00000080: d263 9e3d d8f4 2a3e c1a4 afbd de0c 9cbd
00000090: f73b c83d 591b 423d fe69 943d 4141 eaba
000000a0: d9c8 033e f399 7f3d 7946 90bd 649f 063e
000000b0: 6726 273e ab55 b73d afe2 393e b661 1cbc
000000c0: 0334 e93d 78e7 803d 5458 ac3d b8eb 173d
000000d0: 60c1 433d 5f49 913d d2c3 333d e16b fe3d
000000e0: 84c6 c6bd ab3e 82bd ae43 f6bc df1b cc3d
000000f0: 19e1 803c b341 d53d bb14 40bd af1b 03be
00000100: 2c19 d03d b818 86bc 6650 e23d 8cf0 a0bd
00000110: 8a02 96bd 69f2 9d3c 5cfa fb3d 27c0 adbd
00000120: ad67 fbbc 9ead f93d 5241 d73d 10aa 9d3b
00000130: e42f 88bc 1567 03bd 05d1 35be bc6c 963d
00000140: 5bc5 283d c33d f43c c5a2 0d3e 3bf5 85bd
00000150: 1181 f4bc 61ae 163e 930d 5dbd 8c1c 133d
00000160: 9385 23bd 514d bf3d c48d 1c3d e3e1 87bd
00000170: bd13 74bd f53c d23d 2354 d33d 3390 e23d
00000180: 90c9 8a3d 0ad4 823d fbb4 66bd 443c d6bd
00000190: 4532 9fbc 7101 6eba 3dbf babd 6e43 5b3d
000001a0: 41bb 83bd 49fb 893c 91de 0e3e 5ffb 893d
000001b0: e015 79bd 6331 6d3d 928e 5a3d 7128 77bb
000001c0: 2df9 ba3c 8346 1abd e096 e8bc ba03 da3c
000001d0: cb06 b3ba c452 8ebd c5dc 9bbd 6086 9c3c
000001e0: 5a19 e3bd 8bfe b93d f667 1c3c f365 94bd
000001f0: 1de0 a7bb e952 f63c b397 b9bc af47 51bd
00000200: 4c07 4ebd f1ef 6ebd 4e33 123e 59f8 863d
00000210: 4f76 6cbc 7a9e d63d 2fa9 0ebc 7a65 73bd
00000220: a8dc efbc 6eb4 f53d 35a4 d3ba 7979 173d
00000230: b9bd e73c 1d14 32bd a057 ebbc 3a28 dd3d
00000240: f680 d93d ebf7 01bd 108a 1a3d b4de 10bb
00000250: ab6e e3bd 2bce 853d c40e 933c 2cc4 473d
00000260: d592 b33d ce0d 0fbc 638d 8fbd c591 233d
00000270: 6e5a 0bbe d3b5 1e3d f280 d6bd 4a5b c13d
00000280: 78a9 dcbd 60c6 88bd 3ef1 8f3d 7604 96bc
00000290: 0a48 a1bb 8dbd 0c3e 2b82 0c3d 203d a83c
000002a0: b465 57ba cc1f a5bd 1fad 393d d267 df3d
000002b0: 33fc b8bc 028e 033d 5c53 eabd 8589 69bd
000002c0: ca52 983c c75f e3bd a043 47bc f371 fe3d
000002d0: 64d9 103d fbb5 e73d c067 0d3e 22e6 7c3c
000002e0: dca5 81bd 0f45 353e 2a0b 943d 5572 ad3d
000002f0: 86a7 393d f07c b43d 76b7 b83d eb53 35bd
00000300: e46d 243e e442 f43d 75fd 4f3e e31d eebc
00000310: 4e9e 303e cd6d 7ebd 9773 b83d 9e5a 24bc
00000320: fbe8 41bb 9358 3e3e 1272 463d ecc0 633d
00000330: 3000 c93d cfaa fcbc f340 eb3c f76a e9bc
00000340: 86ab d0bd 123e 013e 641d 31bc 5e70 593d
00000350: 5b0b f83d d612 73bd 46c2 96bd 1fec d23d
00000360: b7bd fd3d 0859 713c b0bd 253e ca23 b33d
00000370: 3dd6 533d d489 a83c c101 78bd 24ad 0a3d
00000380: e4c8 cdbc 91b1 113e 3887 c13b b680 023d
00000390: ba12 af3d 213e e13d 17fe 9d3d ed00 b1bd
000003a0: 7759 b53d 5bc0 013e 2753 0d3e 8d1c e53d
000003b0: 114d a3bd d6f3 1b3e 82b5 f03d 3b79 9bbd
-0.0066164616 0.132924 0.03881884 0.16656227 0.06177941 0.19954741 0.1715131 0.1394077
-0.08212025 -0.005010701 0.12140327 -0.06005978 0.07662547 0.014122889 -0.0074024554 0.19206023
0.04642139 0.081063196 -0.05786591 -0.04869419 0.08278309 0.17009996 -0.059617758 0.12591384
-0.020931812 0.04088114 0.0111888815 0.039160628 -0.03872522 0.033808634 0.025808578 0.111087516
0.07733883 0.16694963 -0.08576346 -0.07619642 0.097770624 0.047389362 0.07246779 -0.001787223
0.12869586 0.062402677 -0.070446916 0.1314674 0.16323243 0.08951887 0.18152879 -0.0095447805
0.113868736 0.06294149 0.08415285 0.037090033 0.04779184 0.070940726 0.04388792 0.1242292
-0.097058326 -0.06359609 -0.030061569 0.099662535 0.015732335 0.10412922 -0.04689477 -0.12803529
0.10161051 -0.016369209 0.11050491 -0.07858381 -0.07324703 0.01928063 0.12303612 -0.08483916
-0.030689085 0.12191318 0.10510506 0.004811533 -0.016624399 -0.03208073 -0.17755516 0.07344958
0.041203838 0.029814607 0.13831623 -0.065409146 -0.0298467 0.14714958 -0.053968024 0.035915896
-0.03992231 0.09340919 0.038221136 -0.06634881 -0.059589136 0.10265533 0.10318782 0.1106266
0.06776726 0.063880995 -0.05632494 -0.104607135 -0.01943315 -0.0009079194 -0.09118507 0.053531103
-0.064322 0.016843455 0.1395209 0.06737398 -0.060811877 0.057908427 0.053358622 -0.0037713314
0.022823894 -0.0376649 -0.028392255 0.026613105 -0.0013658641 -0.0694938 -0.07610468 0.019107044
-0.1108882 0.09081753 0.009546271 -0.07246008 -0.005123152 0.030068832 -0.022655344 -0.051093753
-0.050299928 -0.058334295 0.14277384 0.06590337 -0.014432504 0.10479446 -0.008707329 -0.059422947
-0.029280022 0.11997305 -0.001614696 0.03698108 0.028288709 -0.043476213 -0.028728306 0.10798688
0.106203005 -0.031730574 0.037729323 -0.0022105398 -0.111050926 0.06533464 0.017951377 0.04877107
0.0876824 -0.008731319 -0.07009389 0.03993394 -0.13608715 0.03874762 -0.10473813 0.0944124
-0.10774511 -0.06678462 0.07028435 -0.018312674 -0.004921918 0.13744183 0.034303825 0.02053696
-0.0008216754 -0.080627054 0.045331117 0.10908474 -0.022581195 0.03211785 -0.11441681 -0.057015914
0.018594164 -0.111022525 -0.012162119 0.12424078 0.03536357 0.11314007 0.13809109 0.015435727
-0.06330463 0.17702125 0.07228692 0.08469073 0.04532578 0.088128924 0.090193674 -0.044269484
0.16057545 0.11926821 0.2031153 -0.029066985 0.17247888 -0.062116433 0.09006422 -0.01003137
-0.002958833 0.18588476 0.04844863 0.055603907 0.09814489 -0.030843167 0.028717494 -0.028493388
-0.101889655 0.12621334 -0.01081023 0.053085677 0.12111541 -0.059344135 -0.073612735 0.10298943
0.12389701 0.014730699 0.16185641 0.087470606 0.051717985 0.020573534 -0.060548548 0.033856526
-0.025120206 0.14227892 0.005906012 0.03186103 0.08548494 0.10998178 0.077144794 -0.08642755
0.08854955 0.12671034 0.13801251 0.11187086 -0.079736836 0.15229735 0.1175337 -0.07591482

model.rnn.bias_hh_l0 f4 [240]
00000000: 0805 f63d db3b 653d 5fc5 00bd 4383 8cbc
00000010: 2e4f 86bd e1d6 203e 7dfc bebc 4216 963c
00000020: c32b 4f3c 13ae 49bd 3f0e bdbb bf3f 0b3e
00000030: f14b 2c3e e566 4abd 77d1 e73d 1edd e03d
00000040: 90e3 8cbc e337 4b3c ff03 5f3c 0950 38bc
00000050: d760 d03d b5bf e83d 8428 c73d 3acd df3d
00000060: 8aa5 343d 45ed 2c3e 9231 b73d 1e19 2fbd
00000070: df54 42bc 9831 bb3d 9341 cebc 9d3f cd3c
00000080: 7f61 f63c 9246 503e 4354 143e 99c4 133d
00000090: 6e73 123e 8599 323e a5f3 ecb9 26dd b23d
000000a0: a13e 4dbd 6e60 2abd d5b2 d63d 90a2 e43c
000000b0: 33d2 133e c71e 87bd a275 093d a73a 373d
000000c0: 52e2 153c 4a42 c23d ecc9 ab3d 0382 a73d
000000d0: 9ba0 843d 58b0 4c3d be25 27bc 4c1e bf3d
000000e0: ab7b 963d b892 5c3d 437e f33c 9676 ec3d
000000f0: ac35 5b3d a83a 083e 3cbe 093e 75c0 bb3d
00000100: 2599 963c 4ee3 93bd 57b7 993d 7db3 d43d
00000110: a174 8abc 9dc8 e73d 5e7b a13d 7b30 f0bd
00000120: a2ab b83d 534c cd3d 681e 003e 8e57 ec3d
00000130: 03c6 9fbd c332 b8bd 02f1 783d cc3d d5bd
00000140: f39e e73d 5127 91bd 0550 3b3d 661e 40bd
00000150: 1a4c 073e 5121 b83d 8a97 8b3d d9ff 91bd
00000160: 07b1 a73d f204 e3bd a198 b03d 8095 0e3e
00000170: 4a39 fc3c ade5 233d b761 d53d 4187 a8bd
00000180: 7934 793a 63a0 d53d 749f bab8 6e85 b0bd
00000190: e9f1 9ebc 9e60 85bd 4cd9 97bd 44a0 013c
000001a0: 051f 2c3d 8fbc b23d c4e0 8cbd 86d3 18bd
000001b0: abd7 483c f678 b6bd 5c03 df3d 050d d7bd
000001c0: 2739 7a3d e993 273d c26c 773c 57ed 24bd
000001d0: a7b9 843d d01a aa3d f779 8a3d ec5a 76bc
000001e0: d749 06be 07f1 443d 83b0 31bd b6af dd3d
000001f0: 34b2 953c dfc1 a1bd 324e 403d 6e20 983c
00000200: c75b 1cbc 9346 82bd 38b4 133e 8856 ddb9
00000210: 33ef 0d3e 1957 603d daf2 e5bd ac09 123e
00000220: 7986 0fbd 6a89 803c 76fe af3c 2342 d0bc
00000230: 7f2a 083e 7ec4 51bd f8ce c63d 37be 0d3e
00000240: 8516 043e 0a08 c9bd 32ba b4bc 86b4 993c
00000250: 401a 17be 3bba dd3d 6f94 b63d 580e bb3c
00000260: e8f5 a7bb 4265 acbd 5c18 f0bd 5246 07be
00000270: 5977 3bbd f72a 03be 9826 d8bd 1274 1dbd
00000280: be0c bcbd f2c6 c3bd b260 053e c1a7 af3d
00000290: 1490 05be 5207 ebbd 8168 7f3d b902 273c
000002a0: 810d b0bd 9743 613c ba9f 3f3d b596 bf3d
000002b0: 83d8 e53d 003e d53d f0ba 303d 6fe4 f6bb
000002c0: 6f17 e43d ba85 73bd 4a73 26bd 0f83 303d
000002d0: 2e6c de3d 0e9e 933d bb70 043e 545d 393e
000002e0: 03da 14bb 5ae0 373e bd4e 173d 110d 033d
000002f0: 1dc9 fa3d e224 2ebd 3cdc 953c b317 1f3e
00000300: e7bc f13d f52d 983d 75b1 043e a184 343e
00000310: f2a4 843a 6d5d a6bc 562f 153e c857 9abb
00000320: 5fac 143e 9084 bb3a 64c8 44bd 8dba 8bbd
00000330: ce85 2a3e fd98 603d 44e0 82bd eeb8 10bd
00000340: 7f95 b83d 8a48 7f3d 2d02 c43c 5a00 08be
00000350: 3ac2 0c3d 9419 2e3d 4861 9b3d 4de8 043e
00000360: 0ed9 6c3d f51f b63d e087 063e 311e a23d
00000370: d226 823d 36d0 8a3d e09c 63bd 8565 5c3d
00000380: 4040 a93d d2b9 1cbd 202a ae3d 1eb1 5dbc
00000390: 634b ebbd 83cb 9ebd 65f6 87bd c8d1 763d
000003a0: 3742 9c3d 74e3 9d3d ba6c 073e f933 3cbd
000003b0: 390b a13c f33c 0a3e 4b51 af3d 4bb3 373d
0.120126784 0.055965286 -0.031438228 -0.017152434 -0.06558071 0.1570697 -0.023313755 0.01832116
0.012644711 -0.049238276 -0.0057695205 0.13598536 0.16825844 -0.049414534 0.11319249 0.10979675
-0.017198354 0.012403461 0.013611793 -0.011249551 0.10174721 0.1136469 0.097245246 0.10927816
0.044103183 0.16887386 0.08945002 -0.042748563 -0.011861055 0.09140319 -0.025177753 0.025054747
0.030075787 0.2033942 0.14485268 0.036076162 0.14301845 0.17441376 -0.00045194957 0.08733587
-0.050108556 -0.04159587 0.10483328 0.027909547 0.14435653 -0.06597667 0.03355945 0.04473367
0.009148197 0.094853 0.08388123 0.08179095 0.064759456 0.049972862 -0.0102018695 0.093319505
0.073478065 0.05385086 0.029723292 0.11546056 0.053517982 0.13303626 0.13451475 0.09167568
0.018383572 -0.07221089 0.075056724 0.10385797 -0.016901316 0.11317561 0.078848585 -0.11727997
0.09017111 0.10024323 0.12511599 0.11540137 -0.078014396 -0.08994057 0.060776718 -0.104121774
0.11309614 -0.07087577 0.04573061 -0.04690399 0.13212624 0.089907296 0.06816013 -0.07128877
0.08188062 -0.110849276 0.08622862 0.13924217 0.030789036 0.040013958 0.10419028 -0.08228923
0.0009506415 0.10430982 -8.8988716e-05 -0.086192 -0.019402461 -0.06512569 -0.07414493 0.007911745
0.04202177 0.08727371 -0.06878808 -0.0373111 0.0122584505 -0.0890979 0.108893126 -0.1050053
0.06108966 0.040912542 0.0151016135 -0.040265407 0.06480723 0.08305895 0.06761544 -0.015036326
-0.13114105 0.048081424 -0.043381225 0.1082453 0.01827345 -0.07898306 0.046949573 0.018570151
-0.009543366 -0.06361117 0.14424217 -0.00042216876 0.13860779 0.054770563 -0.11227961 0.14261502
-0.035040352 0.015690524 0.021483641 -0.025422161 0.13297461 -0.05121278 0.09707445 0.13842092
0.12899216 -0.098159865 -0.022061441 0.018762838 -0.14756107 0.10826536 0.0891503 0.022833988
-0.00512575 -0.08417751 -0.11723396 -0.13210419 -0.045768116 -0.12809359 -0.10554236 -0.03844077
-0.09182118 -0.0955943 0.13025168 0.085769184 -0.13043243 -0.114760056 0.062355522 0.01019352
-0.08596326 0.013749025 0.046783186 0.09354917 0.11222937 0.10412216 0.043147027 -0.0075345556
0.11137282 -0.059453703 -0.040637292 0.043093737 0.108604774 0.07207881 0.12933628 0.18102008
-0.0022712953 0.17956677 0.036940325 0.031994883 0.122453906 -0.042515643 0.018293492 0.15536384
0.118036084 0.074306406 0.1295832 0.17628719 0.0010119958 -0.02030822 0.14568838 -0.0047101714
0.1451888 0.0014306474 -0.04804267 -0.06822691 0.16652605 0.0548334 -0.063904315 -0.035332613
0.09012889 0.062325038 0.023926819 -0.13281384 0.034364916 0.042504862 0.07586914 0.1297924
0.057824187 0.08892814 0.1313777 0.07915915 0.06355061 0.06777994 -0.05556953 0.053807754
0.08264208 -0.03826315 0.085041285 -0.013530998 -0.11488988 -0.077536605 -0.06638793 0.060258657
0.07629817 0.07709399 0.1322507 -0.045948002 0.019658672 0.13499813 0.08560427 0.04484872

model.rnn.weight_ih_l1 f4 [240, 60]
00000000: 18e1 1e3e 61b2 093d b037 8b3d 0b64 b73d
00000010: f68f a73b fa75 3e3e 9e87 23be 2c1f 283e
00000020: 6e32 3cbe 426d 073e a9fc de3d 7e53 37be
00000030: 1c63 df3d a4c4 1c3d 86e8 b23c 34a5 45ba
00000040: 1040 00bd 04ab e1bd 8267 98bd c929 733d
00000050: c5ce 243c 3d52 e2bd 931c 39bd 35da b2bc
00000060: 432f 283e 0169 523c 36f3 ffbc f86b 993d
00000070: e84b b9bd dd1a 1a3e e666 f5bc 10a6 49bd
00000080: f347 8ebd e46f 6a3d 5920 143a a783 d8bd
00000090: 87c8 1ebe 218e aabc 617c 1f3d f5ff 123e
000000a0: 7afb b4bd f5ba 9abd 3cc2 af3d 7521 403e
000000b0: f5c1 c6bd 2611 cd3c eb3b 0b3e fec8 ebbd
000000c0: b3e4 22be fd8d 44be 192f fabb e264 b33d
000000d0: d6e2 0d3e ba26 f43c 3457 2abe b12d bc3d
000000e0: 010f cc3c 47bf 95bd 747c 49be f684 a53c
000000f0: 7adf 043d e049 5d3e 79e2 003e 15d9 81bd
00000100: 5efe 87bd 0688 be3c a638 59be 1f7e 983d
00000110: 6c6e d73c bb6f b53d deca 633d 284f 2c3d
00000120: 633a 553d 1a6f b1bd 707d d1bd 1164 4a3d
00000130: 2c92 03be 8c26 22bd e274 003d 1a68 8e3d
00000140: 0ad6 093e 8728 b6bd ab65 41bb f7aa 1e3e
00000150: 439c ef3d f7e1 763d ad63 af3d 294a e1bc
00000160: 8aea ffbd 3466 493d 81ce aa3c 1e34 5f3e
00000170: fa31 adbd 9234 0e3e bc54 31bd 16b4 66bd
00000180: 3648 4bbe f3f0 113e f29f 11bd 5b85 8cbc
00000190: 189a 4bbe 67fa b03b de44 ac3d 6056 683e
000001a0: 8a16 11be f5ab 4c3e 95bb a03d 0e85 f2bd
000001b0: ae8a 0c3d 4627 33be e76a 383e 2ba3 c8bc
000001c0: ef7e 8bbb bb0d 033e ebe2 3b3d d3f5 53bc
000001d0: 9b7e d5bd 9a62 aebd 4cec bdbd c43b 8e3d
000001e0: 0659 4f3d 4d92 b73d ab78 81bd 5c71 6a3d
000001f0: 151e bbbc 5ace 323d 50f1 01be 052b f03d
00000200: 14c6 fd3d 57d5 5d3d 63da 393d 8db9 603d
00000210: 5c74 823d 82d4 043e 169e 913b 8ae1 c2bb
00000220: 55f3 383e 6b54 3ebc 6d61 41bc 3165 9c3d
00000230: 1065 f0bd 890b 583d f0c8 f43d 14e8 15be
00000240: 328f c43d 2b57 8ebd 7135 69bd 72e4 163e
00000250: 465b c4bc caaf 593c 1229 d6bd 6f45 8abd
00000260: bca4 c63d bf8c 2d3d 13d9 56ba b977 d53d
00000270: 2af4 a8bd 7ef9 36bc 9e4d 693d fdab 023c
00000280: 7e69 01be 9967 0a3d 0a1d a53c d7fd 66bd
00000290: 5030 39bd 7fa5 073d 6b99 62bd fb27 273d
000002a0: 57fd c6bd 76e9 3dbd 5e66 d73d 1f97 b0bd
000002b0: 21f3 533c 9f5c dfbd 39c9 6f3d 2676 163d
000002c0: 534b 32bd 9ffd 903d abdb bfbd 0d1e b1bd
000002d0: 0ed3 d53d 76a0 4cbc d3b0 1f3c f6b3 8a3c
000002e0: 28f3 f73c dec2 a23d a4f7 b7bd 7ec5 743d
000002f0: 04ba 0cbe d432 803b 7765 ed3d 7205 06be
00000300: a1fa 26bd 33d1 90bd 0c8f dcba 0854 c3bc
00000310: 0925 81bd d4b5 44be d8dc 943d 0a1c 12bd
00000320: a0f3 ea3d 92e6 85bd 2006 26be b198 073e
00000330: 0aa4 fc3d 563b 363e 254c 4abd 2fef 19bd
00000340: 20e1 39bd 073b b73d 2173 013c c9fd 2cbd
00000350: 0f68 30be ce01 98bc 817a 3e3c b2d4 69bb
00000360: 6ec7 0ebe c527 3f3e 9a24 79bd 268a 253e
00000370: 94c0 3dbd 8de8 123e 53d4 c1bb c2c4 54bb
00000380: 596e b7bd f6b6 973d b044 df3c 0e68 06be
00000390: 410a 813d c9b8 c2bd 8fd7 78bd 6c95 1dbd
000003a0: f2b7 4e3e a24e af3d 6037 6cbe afb6 d53d
000003b0: 4cf4 41bd dc65 9cbd 32ba 12be 2580 0c3e
000003c0: 097d 34bd f538 aebd 1f2c 32bd b733 e5bc
000003d0: fa74 f23d ec45 a43d e7e7 efbd 40ae b33c
000003e0: 66b4 b03d 6b84 84bd 8462 a0bd 9dfa 12be
000003f0: 9b84 ed3a f44c 0ebc 1bbd 24be 6de2 9ebb
0.15515554 0.03361738 0.06797731 0.089546286 0.005113597 0.18599692 -0.15969703 0.16418141
-0.18378612 0.13225272 0.10888035 -0.17902943 0.109075755 0.03827347 0.021839391 -0.0007539571
-0.031311095 -0.11018947 -0.074416175 0.05936602 0.010059063 -0.11050842 -0.045193266 -0.021832565
0.16424279 0.012842418 -0.031243902 0.074912965 -0.09047681 0.1504931 -0.029956292 -0.049230635
-0.06947317 0.057235613 0.0005650572 -0.10571986 -0.15506183 -0.020819725 0.038936976 0.14355452
-0.08837028 -0.075551905 0.08581969 0.18762763 -0.09704963 0.025032591 0.13597076 -0.115129456
-0.15907554 -0.19194789 -0.007635009 0.08759476 0.13856062 0.029803623 -0.16634828 0.091884024
0.024909498 -0.07311874 -0.19676381 0.020205002 0.032439686 0.21610212 0.12586392 -0.06340233
-0.066403136 0.02325822 -0.21213016 0.07445931 0.02629777 0.088592015 0.05561339 0.042067677
0.052057635 -0.08663769 -0.102290034 0.049411837 -0.12848729 -0.039587542 0.031361468 0.069534495
0.13460556 -0.08894449 -0.0029510062 0.15494905 0.116997264 0.06027409 0.085639335 -0.027501183
-0.12495907 0.049169734 0.020850422 0.21797225 -0.08456798 0.13887241 -0.0432937 -0.056324087
-0.19851765 0.14252071 -0.035552926 -0.017153433 -0.19883001 0.005400944 0.08411573 0.226892
-0.14168754 0.19987471 0.078482784 -0.118417844 0.034311943 -0.1749545 0.1800953 -0.024491867
-0.004257075 0.12798207 0.045870703 -0.012937027 -0.10424539 -0.085149005 -0.09273586 0.06944993
0.05062201 0.089634515 -0.06321844 0.057237014 -0.022841493 0.043653823 -0.1268971 0.11726955
0.12391296 0.054158535 0.045374285 0.054864455 0.0636985 0.1297169 0.004443894 -0.0059472965
0.18061574 -0.0116168065 -0.011803013 0.07636488 -0.11738026 0.052745376 0.11952388 -0.14639312
0.09597625 -0.0695022 -0.05693573 0.14735582 -0.023969304 0.01328654 -0.10457052 -0.06751525
0.09699389 0.042370554 -0.0008195799 0.10423226 -0.082496956 -0.011167882 0.056958787 0.0079755755
-0.12637898 0.033790205 0.020155448 -0.056394424 -0.04521209 0.033116814 -0.055322092 0.040809613
-0.097162895 -0.046365224 0.10517572 -0.08622574 0.012936384 -0.10906338 0.05854151 0.03673377
-0.043528866 0.070796244 -0.0936807 -0.0864831 0.10440646 -0.012489429 0.009746748 0.016931515
0.030267313 0.07947324 -0.089827806 0.059758656 -0.13742834 0.003912309 0.115916185 -0.13088015
-0.040766362 -0.070711516 -0.0016827299 -0.02384378 -0.06305892 -0.19209987 0.07268685 -0.03567127
0.11472249 -0.065381184 -0.16213274 0.13241841 0.123359755 0.17796072 -0.049389023 -0.03758162
-0.04538071 0.089468054 0.007900984 -0.042234216 -0.17227195 -0.018555548 0.011625887 -0.0035679755
-0.13943264 0.18667515 -0.06082592 0.1616598 -0.046326235 0.14346524 -0.0059152036 -0.003246591
-0.08956594 0.07407944 0.027254432 -0.13125631 0.06300784 -0.09507901 -0.060752448 -0.038472578
0.20187357 0.0855992 -0.23067999 0.10435235 -0.04735212 -0.07636616 -0.1432884 0.13720758
-0.044064555 -0.085069574 -0.04349911 -0.027978761 0.11838718 0.08021149 -0.11714154 0.021933675
0.08628158 -0.06470569 -0.0783129 -0.14353414 0.0018121185 -0.008685339 -0.16087763 -0.0048487694

model.rnn.weight_hh_l1 f4 [240, 60]
00000000: c138 33be 0581 3e3e 848a 2bbd e608 82bb
00000010: b1e3 5dbd cf2b 8abd 2a14 3b3e 4c53 dbbc
00000020: 39ed 0ebe d441 1abd 7074 6dbd 559c c2bc
00000030: afc2 a1bd 3eae 293d 598d c23d 88a1 343c
00000040: 64bc 26bd 815d a1bd 1ce9 52bd 0a97 a43b
00000050: f34a 46bd 57fd 9e3d 7507 033d 8222 1dbd
00000060: 6cd1 1cbc 7e34 2c3d 4549 2fbe 421f f0bd
00000070: 3c7a 34bd abcc 273d 3bfc 1ebe ace8 b0bb
00000080: 2db5 fc3d 6e17 643d 6b70 403e c67c 0f3e
00000090: aca0 033e b368 343e 14e2 023d cc40 8a3d
000000a0: 30db 8fbd 8831 6abe e4bf 983c 83c6 903d
000000b0: cf2c acbd 7568 5f3e 9ab7 003e f458 1dbd
000000c0: d4e9 813d 4da9 edbd 1fa7 04bd 741d bdbd
000000d0: b460 30bd 811a 6abd 79f7 1ebc 4c54 3ebe
000000e0: cd04 213e 016e 9abd 47f7 573e 18bd 0cbd
000000f0: 29f6 debd 2bb5 a73d e08f 82bd f378 ffbd
00000100: e3f8 0cbe cbee 70bc 488a 5abb 1e7d f9bd
00000110: 4c29 29be 349f e7bd e8b7 11bd d349 cebc
00000120: 20ce 98bd c5f6 34bd 356a f93c 75eb 043e
00000130: 7e7e 9ebd c803 f7bd 2248 b3bd c542 09be
00000140: ac09 aebd fb55 bf3d 0b63 913d 49fe b7bd
00000150: 6556 703e 4c5d a73d f75e dcbc 2338 0abe
00000160: c6d9 dfbd 23ab c63d ee47 e5bd 75f4 98bc
00000170: a3f2 d03d f2ac 103d 8e7b a63d 161b 89bb
00000180: 4208 393d c8c7 2a3e 9ffb 71be ec56 633d
00000190: 4cbc af3d a30e bfbd 9ab4 a6bc 3a5c 1cbd
000001a0: 9255 9f3c f73c 4d3e 7f80 003d 304c cbbc
000001b0: 19fe 473e 8dd8 2dbe 9ccf 02bc 7255 483d
000001c0: dafb 6f3d 8896 d53d ac14 fa3d 085d 25be
000001d0: ca25 de3d 771b 6abd 434f 603e cab0 1e3d
000001e0: 6c11 d7bd 436d 683b 3063 44bd 0fa7 b2bb
000001f0: a0e4 f3bd 389e 0b3d a26c 903d 748a 92bd
00000200: a19d db3a 7a1f 153d aa57 24bd 766f bdbd
00000210: c82d a3bd 9084 af3d 5169 c1bd 693e 53bd
00000220: 61cd 64bd 6641 6cbc 3daa cdbd dd66 d8bc
00000230: 06c2 4c3d 366a d73c f19a 29bc edf7 cf3d
00000240: dab8 063e 3bfe f43c cfe5 a63c e43a d9bd
00000250: 463d ce3c 8998 e93d 36cb 98bd 45c9 d2bd
00000260: bf2a 663d 2c48 51bc 96ad ddbd fec0 11bc
00000270: b53f 943d 4cf2 803c 3e14 ddbd 614d 843d
00000280: e951 d93b b8f6 8a3d c997 df3b 68fb 9dbd
00000290: 31cf efbc da29 013e ad3a 213d 6ae1 f83d
000002a0: bb4e 11be ff46 d73d 3016 bcbd bf52 ba3c
000002b0: 8919 d83d cdd5 c0bd 59c4 ef3c 53fa 9f3d
000002c0: 02aa f03b a418 bb3c adef 66bd 5114 24bc
000002d0: 27e5 9abd 573c 803d 4f9f bfbc 0dd4 f1bd
000002e0: dfbf 32be 685b 9f3c 0486 f33d 0387 78bc
000002f0: e460 d2bd 4554 c8bc 2fc6 1a3d 8421 dfbd
00000300: c359 0cbc 8aa3 493c 6e32 683b 61e5 ab3d
00000310: 4e59 cbbd 91c4 b73d d667 8dbd 7c14 25be
00000320: bc89 643d 2692 9d3d c230 083e 5c64 4a3d
00000330: e6c0 073e db39 ecbd 258a 023d 5a41 ccbd
00000340: 0abc 29be c0f9 783d 94a0 de3d c100 c03d
00000350: 3e1b d33c 0801 f33d e9f1 e53d 99e1 d23d
00000360: d1c8 7d3c e3b1 133e 1c65 7d3c 2dff af3d
00000370: 22ce cebd 9183 8cbd 5115 013d 5afc 203e
00000380: bb78 d6bd 7a63 acbc 4f4f db3d 330d 073d
00000390: 7a03 fb3d e565 e0bb 3f95 af3c 1eaa 853d
000003a0: 277d be3c 04d8 c1bc e384 fcbc 0a04 e23c
000003b0: e639 293e c579 d13d bb94 453d c9c6 9c3c
000003c0: 344a 89bd c3e1 253d 6fd6 643d 791d 32be
000003d0: c6d8 27bc 878f 043e 2e52 c5bd f730 cabc
000003e0: 3391 1abe 49b3 e9bd f99d 053e e60b b63d
000003f0: b8e9 1b3d 3ef1 e8bd fe7e f43d 5bc0 84bd
-0.17502119 0.18603905 -0.041880146 -0.003968346 -0.05417222 -0.06746637 0.1826941 -0.026773117
-0.13957681 -0.037660435 -0.05797237 -0.023756186 -0.07898461 0.041425936 0.09499616 0.01102484
-0.040707007 -0.078791626 -0.05149184 0.005022888 -0.04841132 0.077631645 0.031989533 -0.038362987
-0.009571414 0.042042248 -0.17117794 -0.11724712 -0.044061884 0.04096667 -0.15525906 -0.0053988304
0.12339244 0.055686407 0.18792884 0.14012441 0.1285426 0.17618065 0.031953886 0.0675064
-0.070242286 -0.22870457 0.018646188 0.07069113 -0.08406984 0.21817191 0.12570038 -0.03841491
0.06343427 -0.11604557 -0.03238594 -0.09234133 -0.043060973 -0.057154182 -0.009702557 -0.18586844
0.15724488 -0.07540513 0.21090423 -0.03436002 -0.10886795 0.08188852 -0.06375098 -0.12474241
-0.13766818 -0.01470537 -0.0033346582 -0.12182067 -0.1651966 -0.113096625 -0.035575777 -0.025181687
-0.0746119 -0.04418065 0.030446151 0.12980445 -0.0773897 -0.12061268 -0.087539926 -0.13404377
-0.084979385 0.09342571 0.07098969 -0.08984048 0.23470457 0.08172092 -0.026900752 -0.13497977
-0.10930209 0.097006105 -0.1119536 -0.018671254 0.10202529 0.035321184 0.08129035 -0.004184137
0.04517389 0.16677773 -0.23631142 0.055502817 0.08580837 -0.093289636 -0.02034979 -0.03817389
0.019449983 0.20042787 0.031372543 -0.024816602 0.19530524 -0.16977139 -0.007984068 0.048909612
0.058589794 0.10429102 0.12210974 -0.1614877 0.108470514 -0.0571551 0.21905236 0.038742818
-0.1050137 0.0035465516 -0.047946155 -0.005452044 -0.11908841 0.034086436 0.0705197 -0.07155314
0.0016755351 0.03640697 -0.040122665 -0.09249775 -0.079677165 0.08570206 -0.09443916 -0.05157319
-0.055859927 -0.014419889 -0.10042236 -0.026416237 0.049989723 0.026295763 -0.010351882 0.1015471
0.13156453 0.029906383 0.020373253 -0.106069356 0.025175702 0.11406047 -0.074606344 -0.10292295
0.05619311 -0.012773555 -0.108241245 -0.008896111 0.07238714 0.015740536 -0.107948765 0.06460071
0.006632079 0.06785339 0.006823514 -0.077139676 -0.029273601 0.12613621 0.0393626 0.12152369
-0.1419019 0.10511588 -0.091839194 0.022744535 0.105517454 -0.09415779 0.02926843 0.078114174
0.0073444853 0.022838898 -0.056380916 -0.010014609 -0.075632386 0.06261509 -0.023391394 -0.118080236
-0.17456006 0.019452766 0.11890796 -0.015168908 -0.10272387 -0.024454245 0.03778666 -0.108950645
-0.008566323 0.012307057 0.003543045 0.0839336 -0.09929143 0.08973039 -0.06904571 -0.16121095
0.055795416 0.07693891 0.1329985 0.049412116 0.13257179 -0.115344726 0.031870026 -0.09973402
-0.16575637 0.060785055 0.108704716 0.09375144 0.025769826 0.11865431 0.11227781 0.102969356
0.015489773 0.14423327 0.015466001 0.08593593 -0.100979105 -0.06861032 0.03151447 0.15721264
-0.10472246 -0.021043528 0.10708486 0.032971572 0.122565225 -0.0068480843 0.02143347 0.06526588
0.023253037 -0.023662575 -0.030825084 0.027589817 0.16525993 0.10228304 0.048237544 0.019137757
-0.06703606 0.040498506 0.055868562 -0.17394055 -0.010244554 0.12945376 -0.09634815 -0.024681551
-0.15094452 -0.11411149 0.13048543 0.08888988 0.03806469 -0.11374138 0.11938284 -0.064820014

model.rnn.bias_ih_l1 f4 [240]
00000000: 466a c63b 0f65 733d 5e05 883d 7e5a 98bc
00000010: a24f 093e 3023 edbd 8126 953d 2865 993c
00000020: b59c cc3c 6860 833d df3f a33c 480e eb3d
00000030: c715 113e f8b2 bf3d 87e9 0f3d 0cc8 043e
00000040: 4a08 403c 0f5a d43d e26a 0f3e 8982 48bd
00000050: ad99 3bbd ba89 353e bbde 263e 2e8f 0d3e
00000060: 67e2 e43d a148 953d 8924 f0bc a9dc fa3d
00000070: c84c 15bd a703 c53d 548c 6cbc 0e91 4a3d
00000080: ec5c 0c3e 8369 0cbd 85ed 343e 67f0 da3d
00000090: d100 70bd bb25 6ebd 975d 963d 1af2 3e3e
000000a0: 4682 63bd 4eaf 87bd 2bc3 2d3e fe77 0dbd
000000b0: e2df eb3d cc8e 173e bf4a 8abc 4827 e03c
000000c0: 4067 81bb 00d3 b2bc 7801 4c3e 029e 4c3c
000000d0: 424e 053d c1e1 54bd e9b7 023e 46f1 f03d
000000e0: eb9a 143e 508f 643d a505 153e 2f77 193d
000000f0: 4030 bdbd c87f 563c d5df c63c 1196 993d
00000100: 3395 65bd 3597 0f3d af9c 193c 8d89 86bd
00000110: 601f 55bd a762 acbd 99ba 433d 5dfe ca3d
00000120: e216 c9bd 81d9 003e 9dae b43d f63c 5cbd
00000130: 95dd a33d a2e3 c83d 0db8 243d 5a26 2ebd
00000140: ed57 2f3c ed59 00be aee5 f73c bb4b 7dbd
00000150: b5c9 34bd 1e46 3cbd 5cd9 c8bd 2fc3 d23c
00000160: 708c eabd 067f 5f3c f31c 383d eb03 e43d
00000170: 8245 7ebd 65c9 d7bb d1f6 713d 1a50 9dbb
00000180: 349d a8bc 80b2 e9bd 9cd4 edbd 6a0a e6bd
00000190: 6540 c5bd 922c 1c3e 8f71 48bd 1969 3ebd
000001a0: 726c 0b3e ac9f e03d 8c2d dbbb f8ab 88bc
000001b0: 891a 2ebc cf37 1d3d d2de 5abd 2281 0e3c
000001c0: 777d 543d ef13 e0bd 513c 313d 2ca4 c0bd
000001d0: 5ba7 283d 13d5 283d 3bac d2bd 7e77 d0bc
000001e0: ebd2 3cbd b74b 093d 6015 0ebe bb79 f3bd
000001f0: 7282 bfbd 0a92 87bb 6606 e43c 3cb3 b0bd
00000200: 984e 18be 8105 933d 8213 8d3d 393f d5bc
00000210: 940c 993c 7653 6bbd d59a d5bd 2733 a23d
00000220: fea5 ad3c 15cf f0bd 94e3 0cbe 4ce5 f9bd
00000230: 92a5 c63d deda 43bd d4c1 fc3a 61be 8d3c
00000240: f88b 093e e923 98bc be95 f5bc d928 5a3d
00000250: 127e f03d 2068 b2bd 0241 d0bd 4074 8abd
00000260: bc04 f53c 0afd a93d 538d debd c169 79bd
00000270: b711 493d 1944 b6bb fcbe 28bc 486a a1bd
00000280: b41b de3d 2026 dbbd 1a40 9ebc a697 7f3c
00000290: 3917 993c 5ff0 edbd f172 c63c 1ae9 cebb
000002a0: abaf 0a3e 579f c7bb 44f5 d2bc 4fa2 85bc
000002b0: 4b2e b4bd fdb2 ca3d 038e 4abd 6784 a8bb
000002c0: 76f1 ac3d 2c27 cbbd 52a9 3d3d 2331 f13d
000002d0: c2b9 1c3e 6395 57bd 4315 913d 741e 313e
000002e0: 14e7 34bd aa8b c9bd d2de f13c e604 88bd
000002f0: d67d e5bb 0547 b13d 54de 123e bd43 8aba
00000300: f838 9abd 76d1 dbbc 188c c03d d0ed f73d
00000310: 787b 013e 2ba8 8339 2407 793d b65f 023e
00000320: f98f c8bc d37b 5d3d edca 1b3e 75ce a5bd
00000330: d1a0 6fbd bd45 a83c 43d5 ab3d db6f fe3d
00000340: 9407 86bd 099d 98bd de16 1e3e 9c17 0b3e
00000350: f94e 45bd 7457 403e 6f99 243e 40fe 303d
00000360: cd5b e93d 1878 8cbd 4e7d 9b3d b596 a13d
00000370: eec0 5dbc 4d07 89bc 5de3 353e d928 093e
00000380: f992 d03c f229 a43d b5b7 df3d d9c3 0a3e
00000390: fdb0 9bbd a011 cebd 23ec 6f3d 8319 e63d
000003a0: 9d31 e13d ac27 c8bd b0e8 303d 535a 3abb
000003b0: 5823 7fbd e284 333d ee53 193e 1fdb d1bc
0.0060551492 0.05942255 0.06641649 -0.018597838 0.13409284 -0.11578977 0.07282735 0.018724993
0.024977067 0.064148724 0.019927917 0.11477333 0.14168464 0.093603075 0.03513482 0.12966937
0.011720726 0.1036874 0.14005616 -0.048952613 -0.045800854 0.1772832 0.16295902 0.1382415
0.11175995 0.072892435 -0.029314296 0.12249119 -0.036450177 0.09619837 -0.014437754 0.04945474
0.13707322 -0.03428031 0.17668732 0.10690384 -0.05859453 -0.05814145 0.073420696 0.18647042
-0.05554416 -0.066252336 0.16968982 -0.03453826 0.11517312 0.14800566 -0.016881345 0.02736248
-0.003949076 -0.021829128 0.19922435 0.012488844 0.032545336 -0.05197311 0.12765469 0.11764769
0.14512222 0.055800736 0.14552934 0.037467178 -0.092377186 0.013091989 0.024276653 0.07499326
-0.05605049 0.03505631 0.009375735 -0.065692045 -0.052031875 -0.08417254 0.047785375 0.09911797
-0.09818818 0.12582971 0.08822367 -0.053769074 0.08001248 0.098090425 0.040214587 -0.042517044
0.0107021155 -0.12534304 0.030260887 -0.0618398 -0.044137675 -0.045965306 -0.09807083 0.025727836
-0.114525676 0.013641125 0.044949483 0.1113356 -0.062078007 -0.0065852874 0.059073273 -0.0048008086
-0.020582773 -0.11410999 -0.11612818 -0.11232455 -0.09631423 0.15251377 -0.048936423 -0.046486948
0.13615587 0.10967955 -0.006688779 -0.016683564 -0.010626444 0.0383833 -0.053435154 0.00869778
0.051877465 -0.10941302 0.043270413 -0.09406313 0.041175228 0.04121883 -0.102867566 -0.025447603
-0.046099585 0.033519473 -0.13875341 -0.118884526 -0.09351052 -0.0041372823 0.027835082 -0.08627936
-0.14873731 0.07178784 0.068884864 -0.026031123 0.018682756 -0.05745264 -0.104299225 0.07919913
0.021197315 -0.11758248 -0.13758689 -0.12201938 0.09699549 -0.04781615 0.001928384 0.017302694
0.134323 -0.01857181 -0.02997863 0.05326161 0.11742796 -0.087112665 -0.10168649 -0.06760454
0.029909484 0.083002165 -0.10866799 -0.06089187 0.04908916 -0.005562317 -0.0102994405 -0.078816
0.10845128 -0.10700631 -0.019317675 0.015600121 0.018687831 -0.11618113 0.02422473 -0.006314409
0.13543575 -0.006091993 -0.025751717 -0.016312746 -0.08797892 0.098974206 -0.04945184 -0.0051427367
0.084444925 -0.09919581 0.046304055 0.1177695 0.15305236 -0.0526327 0.070841335 0.17296773
-0.044165686 -0.09841092 0.029525194 -0.06641559 -0.007003526 0.08656124 0.14342624 -0.0010548752
-0.07530397 -0.026833277 0.09401721 0.12105906 0.12644756 0.00025111562 0.060797825 0.12731823
-0.024482714 0.054073166 0.15214129 -0.08096019 -0.058502976 0.020541066 0.08390286 0.124236785
-0.06544414 -0.07451827 0.1543841 0.13583225 -0.048171017 0.1878336 0.16074155 0.04321122
0.11394463 -0.068588436 0.07592259 0.07890073 -0.013534768 -0.016727114 0.17762513 0.13394488
0.025460707 0.08015813 0.10923711 0.13551272 -0.07602117 -0.100619555 0.058574807 0.11235335
0.10995791 -0.09773192 0.043190658 -0.0028435185 -0.062289566 0.0438279 0.14973423 -0.02561718
