checkpoints/epoch=1-step=100-v2.ckpt (torch, 621663 bytes, 33 tensors)

model.param_proj.proj.0.weight f4 [1, 60]
-0.173783 -0.056704827 -0.14778022 0.157799 0.0075683086 0.17871848 -0.07286906 0.059488982
0.11063001 -0.19351259 0.23996076 -0.14410688 -0.2170574 -0.10551489 -0.06046642 -0.023587903
-0.0036979013 0.02743518 -0.15231565 0.09252346 0.0025317676 0.096201226 -0.0055264547 -0.13668782
-0.09036626 -0.16482022 0.17109914 -0.14257163 0.22229455 0.12215985 0.13936166 0.025462935
0.12498806 -0.018536566 -0.17217956 0.13407046 0.17685176 -0.007780626 0.018716004 -0.0389942
-0.096175954 0.03630103 -0.18151136 -0.029933078 0.17326425 -0.11684884 0.13205485 -0.06675078
-0.07791986 0.09777971 -0.20658995 0.17216656 0.18847358 -0.17647025 -0.10902272 -0.14638004
0.10689489 -0.22143391 -0.21958418 0.12333495
00000000: 2cf4 31be 5243 68bd b353 17be 1096 213e
00000010: 93ff f73b fa01 373e 603c 95bd b8aa 733d
00000020: fd91 e23d 2a28 46be 46b8 753e c190 13be
00000030: 4c44 5ebe 3118 d8bd a3ab 77bd 6b3b c1bc
00000040: 7d58 72bb bebf e03c a2f8 1bbe f17c bd3d
00000050: 03ec 253b 2605 c53d 4317 b5bb e4f7 0bbe
00000060: f211 b9bd a2c6 28be 9d34 2f3e 4cfe 11be
00000070: 2fa1 633e f22e fa3d d3b4 0e3e a597 d03c
00000080: bdf9 ff3d ffd9 97bc d74f 30be c449 093e
00000090: a118 353e 9ff4 febb 4e52 993c 62b8 1fbd
000000a0: e6f7 c4bd 64b0 143d 1dde 39be 3736 f5bc
000000b0: 2f6c 313e 724e efbd 6339 073e a2b4 88bd
000000c0: 7394 9fbd bb40 c83d 518c 53be 6e4c 303e
000000d0: 38ff 403e 9eb4 34be 4e47 dfbd a6e4 15be
000000e0: b5eb da3d 92bf 62be adda 60be 0997 fc3d

model.param_proj.proj.1.weight f4 [1, 60]
-0.08072915 0.18312259 0.13440146 -0.08715659 0.12977031 0.07915427 -0.19695453 0.13540147
0.06683955 -0.21104874 0.1711321 0.08893039 0.16710865 -0.16875395 -0.16219005 -0.1177472
-0.11927511 -0.045525 -0.14239539 0.11817108 0.09612655 0.1779875 0.117918685 0.15758851
0.035142638 -0.13118257 0.013086605 -0.084787995 0.024199056 -0.04404702 -0.007931392 0.14362532
-0.15086758 0.06181335 0.09644515 -0.0013244617 0.038863625 -0.20386814 0.03484096 0.08810636
0.14235553 -0.11974866 0.044562314 -0.151419 -0.074586 -0.121797584 -0.07932548 0.15076733
0.15822673 -0.18094714 -0.09631377 -0.14699951 0.08301223 0.061753966 -0.19549836 0.15718614
0.016184978 -0.08857927 -0.12714072 -0.14222974
00000000: 5355 a5bd 7d84 3b3e 89a0 093e 277f b2bd
00000010: 82e2 043e a21b a23d 73ae 49be afa6 0a3e
00000020: 2de3 883d 291d 58be 413d 2f3e 2321 b63d
00000030: 881e 2b3e d6cd 2cbe 2615 26be 7225 f1bd
00000040: 8246 f4bd 6c78 3abd 19d0 11be ae03 f23d
00000050: ffdd c43d 5b42 363e 5a7f f13d e25e 213e
00000060: baf1 0f3d b954 06be 3369 563c 54a5 adbd
00000070: 193d c63c a66a 34bd abf2 01bc 8412 133e
00000080: 087d 1abe ff2f 7d3d 0985 c53d 8f99 adba
00000090: 772f 1f3d cfc2 50be 65b5 0e3d 1b71 b43d
000000a0: a6c5 113e c93e f5bd f986 363d 950d 1bbe
000000b0: 8bc0 98bd 0371 f9bd 6675 a2bd c062 1a3e
000000c0: 3006 223e 354a 39be 2740 c5bd 0a87 16be
000000d0: 5102 aa3d baf1 7c3d b930 48be 67f5 203e
000000e0: 5c96 843c 0c69 b5bd 2d31 02be aca4 11be

model.param_proj.proj.2.weight f4 [1, 60]
-0.07415886 -0.079301275 0.057273712 0.07916839 -0.07638642 0.0870456 -0.07868508 0.12016613
0.12220844 -0.13297102 0.07336712 0.10781063 0.098611556 0.021593504 0.062447514 -0.0016311649
0.13279666 -0.13861445 -0.07438535 0.09112129 0.04590398 -0.06715219 -0.11153341 0.029866314
-0.06636932 0.07241269 0.118172616 0.06884245 -0.007425486 0.08640332 -0.07148684 -0.085752256
0.02902059 0.08572077 0.0134642515 0.07459063 -0.0055071595 -0.06511926 0.11825608 0.111112356
-0.072797395 -0.10590478 0.113818355 -0.023987027 -0.035744455 -0.08444684 0.057483826 0.053217094
-0.020740185 -0.14082925 -0.04328557 0.040775586 0.05277612 0.041612025 -0.040894825 -0.041523643
-0.12149957 0.052070726 -0.11580797 0.014056232
00000000: 9ae0 97bd b568 a2bd d797 6a3d 0923 a23d
00000010: 7c70 9cbd f744 b23d a525 a1bd a919 f63d
00000020: 6b48 fa3d 8e29 08be 8041 963d d2cb dc3d
00000030: dbf4 c93d dce4 b03c f7c8 7f3d d0cc d5ba
00000040: d9fb 073e f2f0 0dbe 5957 98bd cd9d ba3d
00000050: d005 3c3d 1687 89bd a16b e4bd 33aa f43c
00000060: a3ec 87bd 1b4d 943d 7c04 f23d 45fd 8c3d
00000070: 7e51 f3bb 39f4 b03d b167 92bd e19e afbd
00000080: 97bc ed3c 5f8e af3d 2a99 5c3c f9c2 983d
00000090: 6775 b4bb 3f5d 85bd 3e30 f23d e08e e33d
000000a0: cd16 95bd 9be4 d8bd 9919 e93d 7180 c4bc
000000b0: c768 12bd 77f2 acbd 2974 6b3d 2bfa 593d
000000c0: 52e7 a9bc 8b35 10be 364c 31bd 4d04 273d
000000d0: c62b 583d 5f71 2a3d 5581 27bd b214 2abd
000000e0: c4d4 f8bd 1d48 553d bb2c edbd 1c4c 663c

model.rnn.weight_ih_l0 f4 [240, 24]
-0.031145146 0.017041234 0.04213476 0.024441289 -0.13801654 -0.08052813 -0.044782165 -0.027614092
0.03445252 -0.114413925 -0.2172426 0.120491475 -0.0066958647 0.16713202 -0.098107435 -0.00045110192
-0.07966407 0.01236721 0.04862705 0.114574656 -0.0387617 0.07111301 0.05741143 0.01832159
-0.07534908 -0.10866085 0.030170644 -0.047634624 0.10834496 -0.017201804 0.0629102 0.05207484
-0.047374677 0.06564358 0.14946875 -0.014434513 -0.022810718 0.10564495 -0.1682807 0.0629927
-0.0806563 -0.12200454 0.00465577 0.09248206 -0.084091015 0.10571755 0.03506001 -0.011398701
0.038250264 -0.096299864 0.07374176 0.106661625 -0.11550225 0.011398029 0.08850036 0.028604068
-0.19421314 -0.054169826 -0.089112744 -0.042246174 -0.09308483 0.017345758 0.123721644 -0.110377766
0.08849966 0.043473143 0.104285255 0.03431636 0.0025652535 -0.027507273 -0.009623779 -0.020524181
-0.17674468 -0.03637986 0.04802622 -0.07240954 -0.046876248 0.07002285 0.019339107 -0.015682297
0.07684221 -0.05354727 0.13605872 -0.05732117 0.04980445 -0.09104672 -0.0387411 0.04567212
-0.1287608 0.09633549 -0.04151121 0.07148205 -0.05541148 0.03624183 -0.081729226 0.095469795
0.1515908 0.0866237 -0.06926933 2.1275715e-05 -0.009074694 -0.10653192 -0.022506382 0.008508068
0.14052102 -0.041356757 0.06213652 -0.09082563 0.00028152956 -0.012900248 -0.008675797 -0.094115764
0.037326086 -0.19709413 -0.12785466 0.110950656 -0.14827672 -0.041480385 -0.091546066 0.015666477
-0.013458102 -0.026056804 -0.08621873 0.04484612 0.065927885 0.00445711 -0.17280908 0.11567424
0.09086795 -0.05054453 -0.035586774 -0.11747271 -0.08947235 0.072758526 -0.16384512 -0.049443208
0.14799817 -0.09647906 0.009885757 -0.064639404 0.08380004 0.20862503 0.1384709 0.0064650383
0.052530743 -0.10381128 0.016273608 -0.034392998 -0.043547023 0.08712327 -0.0012197501 -0.040043652
0.10356674 0.04881092 -0.07895311 0.078021444 0.008033778 0.04856043 -0.008316467 0.023992283
-0.113061525 -0.12840916 -0.15141208 0.070459545 0.068082996 -0.10132924 -0.074321605 0.12296392
-0.19644971 -0.12920715 -0.16573788 -0.071933575 -0.032673493 -0.16463736 -0.019585066 -0.062272515
-0.10242994 0.079487905 0.15286054 -0.024520803 0.07882913 0.02011434 -0.0776019 0.058654726
-0.08830023 -0.056748092 0.005555041 -0.083774015 0.07592832 0.015516733 -0.07510663 -0.10777563
-0.032676768 -0.20281678 -0.041461565 0.008448591 -0.10268298 0.034880158 0.102554664 -0.021627033
-0.13421959 -0.02070651 0.09825623 -0.091753855 -0.011580226 0.01374771 0.0060044657 -0.067343205
0.0074231275 -0.12251385 -0.15929706 -0.031858876 -0.103227295 0.12369932 -0.055177636 0.121967085
-0.012017627 -0.17854998 0.018227667 0.112132385 -0.17984802 0.0896812 -0.0017842482 0.097097374
0.079979874 -0.10987327 -0.03975203 0.13241701 -0.13379794 0.12027175 -0.03810091 0.015818935
0.13919336 -0.17517583 -0.014277761 0.02276592 0.05064389 -0.0035377257 0.09758745 -0.035786457
-0.04947089 -0.011600145 0.042338084 0.003209088 -0.052439924 -0.1156476 -0.045746192 -0.10457144
0.054043327 -0.011794851 -0.021423953 -0.12871271 -0.0884198 0.12510708 -0.09269429 -0.082288936
00000000: 1b24 ffbc 0f9a 8b3c 8095 2c3d 1939 c83c
00000010: 3554 0dbe efeb a4bd 816d 37bd f336 e2bc
00000020: 161e 0d3d d951 eabd d874 5ebe 3cc4 f63d
00000030: fc68 dbbb a824 2b3e 8dec c8bd e081 ecb9
00000040: ea26 a3bd d79f 4a3c 282d 473d 1ea6 ea3d
00000050: 97c4 1ebd b3a3 913d 3f28 6b3d 2917 963c
00000060: 9e50 9abd 9489 debd 6d28 f73c 861c 43bd
00000070: f6e3 dd3d ccea 8cbc 10d7 803d 6d4c 553d
00000080: f30b 42bd 2470 863d 560e 193e bc7e 6cbc
00000090: 8bdd babc 615c d83d c751 2cbe 5102 813d
000000a0: 212f a5bd 84dd f9bd 6e8f 983b 3c67 bd3d
000000b0: e937 acbd 7182 d83d 169b 0f3d 9ec1 3abc
000000c0: 4fac 1c3d dd38 c5bd eb05 973d 6971 da3d
000000d0: 728c ecbd ccbe 3a3c ad3f b53d 1453 ea3c
000000e0: cfdf 46be 2ee1 5dbd be80 b6bd 530a 2dbd
000000f0: 42a3 bebd b118 8e3c c661 fd3d bd0d e2bd
00000100: 4f3f b53d e510 323d 8293 d53d 508f 0c3d
00000110: d01d 283b ef56 e1bc 0ead 1dbc 5422 a8bc
00000120: 8ffc 34be 0c03 15bd 24b7 443d 744b 94bd
00000130: 4f01 40bd 2468 8f3d 0c6d 9e3c 2978 80bc
00000140: 735f 9d3d 6254 5bbd fa52 0b3e 9ac9 6abd
00000150: c0ff 4b3d b476 babd fdae 1ebd b012 3b3d
00000160: dfd9 03be 8b4b c53d a907 2abd 2e65 923d
00000170: 26f7 62bd 5072 143d a761 a7bd ab85 c33d
00000180: 9e3a 1b3e c467 b13d 14dd 8dbd 4079 b237
00000190: 06ae 14bc 682d dabd 4e5f b8bc 6c65 0b3c
000001a0: bee4 0f3e b465 29bd dd82 7e3d ca02 babd
000001b0: 429a 9339 905b 53bc ee24 0ebc c4bf c0bd
000001c0: 3de3 183d 0bd3 49be 55ec 02be 193a e33d
000001d0: dad5 17be 56e7 29bd 817c bbbd fc56 803c
000001e0: 5f7f 5cbc 1475 d5bc 7293 b0bd 91b0 373d
000001f0: 3305 873d f30c 923b ddf4 30be 9ee6 ec3d
00000200: fa18 ba3d c807 4fbd 70c3 11bd 8895 f0bd
00000210: 483d b7bd 6c02 953d 04c7 27be f684 4abd
00000220: d58c 173e d096 c5bd dff7 213c aa61 84bd
00000230: 5b9f ab3d cda1 553e 51cb 0d3e acd8 d33b
00000240: 7a2a 573d 029b d4bd 3b50 853c acdf 0cbd
00000250: 5d5e 32bd af6d b23d 06e0 9fba d004 24bd
00000260: cd1a d43d f6ed 473d 2bb2 a1bd b5c9 9f3d
00000270: 1ba0 033c 4de7 463d ca41 08bc 778b c43c
00000280: cd8c e7bd b17d 03be c50b 1bbe 184d 903d
00000290: 196f 8b3d b485 cfbd ed35 98bd 82d4 fb3d
000002a0: 1d2a 49be e14e 04be 31b7 29be e951 93bd
000002b0: a4d4 05bd b296 28be dc70 a0bc 7711 7fbd
000002c0: cac6 d1bd 8eca a23d 7987 1c3e dadf c8bc
000002d0: 2b71 a13d d4c6 a43c bfed 9ebd f03f 703d
000002e0: c0d6 b4bd b070 68bd 1007 b63b b691 abbd
000002f0: 4f80 9b3d e539 7e3c 81d1 99bd 78b9 dcbd
00000300: 13d8 05bd 34af 4fbe 9ad3 29bd f66b 0a3c
00000310: 744b d2bd 7fde 0e3d 2e08 d23d 2d2b b1bc
00000320: dc70 09be b3a0 a9bc 903a c93d 72e9 bbbd
00000330: fdba 3dbc 133e 613c 1cc1 c43b 3ceb 89bd
00000340: b53d f33b 8be8 fabd c51e 23be 747e 02bd
00000350: d568 d3bd 1256 fd3d f201 62bd e1c9 f93d
00000360: 95e5 44bc ced5 36be 3052 953c aaa5 e53d
00000370: 142a 38be c7aa b73d 6fdd e9ba fdda c63d
00000380: 7dcc a33d 3d05 e1bd 06d3 22bd 5398 073e
00000390: 5402 09be 0951 f63d b30f 1cbd b696 813c
000003a0: b488 0e3e 4b61 33be 45ed 69bc 987f ba3c
000003b0: f86f 4f3d 30d9 67bb eedb c73d d294 12bd
000003c0: fda1 4abd 890e 3ebc b36a 2d3d 904f 523b
000003d0: 3fcb 56bd a6d8 ecbd 5c60 3bbd 8d29 d6bd
000003e0: 895c 5d3d 313f 41bc 4981 afbc 44cd 03be
000003f0: 7115 b5bd 121c 003e 81d6 bdbd 1a87 a8bd

model.rnn.weight_hh_l0 f4 [240, 60]
-0.06910759 0.037385967 -0.07129567 -0.12542716 0.020247128 -0.101555444 0.13859938 0.0976769
0.12368328 -0.088451706 0.1413939 0.006221399 -0.10095437 -0.02754753 -0.02722982 -0.036127143
-0.009451781 0.06352158 -0.021292053 0.12596393 -0.0132926395 -0.16862765 -0.016636955 -0.07428834
-0.086684845 -0.08565339 -0.06656345 0.024527693 0.012700844 0.02031416 0.040646 0.063471645
-0.05009354 0.01884276 -0.07237906 0.07140087 -0.09050025 -0.11276181 -0.08503277 0.095095724
-0.09845162 -0.06755624 -0.03425406 0.12754002 -0.12867501 -0.022643344 0.065809384 -0.019323936
-0.014498576 0.11776969 0.047933843 0.1094828 -0.1390845 -0.019939162 0.123192206 0.06311118
-0.017211676 0.045310423 0.012160635 -0.041224267 0.11370468 0.059191212 -0.1567288 -0.0893429
-0.01691577 -0.19405536 0.12216857 -0.08714016 0.08424763 -0.14086719 0.13937496 0.06308485
-0.15364249 -0.09026509 0.076606095 -0.12035615 0.005933217 -0.1119412 0.02474898 -0.01451164
-0.04082581 -0.19602475 0.14132433 -0.02351301 0.14526606 -0.03862447 -0.16263816 -0.046374716
-0.19914089 -0.023827896 0.042639133 0.1857119 -0.07088994 -0.17157379 0.100089274 -0.12472653
-0.045821294 -0.005054999 -0.20800018 -0.045897037 -0.13602082 0.023243463 0.011163136 -0.13022588
-0.089063205 0.044859506 -0.085785925 -0.04497508 -0.1648234 0.027405892 -0.041026793 0.09446295
0.04028477 -0.085467495 0.11447599 0.11674876 0.10329494 0.15597853 0.06059617 -0.060757056
0.07821563 0.088364884 0.037380483 0.06296228 -0.040836174 0.0611453 0.03787633 0.04771227
-0.05776696 0.087232806 0.13887993 0.059561204 0.08010218 -0.05501626 -0.06036015 -0.12625095
-0.06421548 0.024817681 -0.10824881 -0.016697068 -0.026355486 -0.0074917697 0.047944177 0.06349
0.12093191 0.007231044 -0.09327927 0.08733209 -0.097680025 -0.04555848 0.12469255 0.08842897
-0.057440825 0.079394154 -0.1230288 0.085979566 -0.13675177 -0.110238284 -0.012291223 0.09119895
-0.067061424 0.12517521 -0.12122429 -0.070738494 -0.07755047 0.027981635 -0.07700648 0.060092393
0.030445848 -0.016591504 -0.12838677 0.11971118 -0.032418843 0.050945345 -0.053978942 0.0010167914
0.06393136 0.01511003 0.12852131 -0.031288028 -0.0825523 -0.12309881 0.042565305 0.10069714
-0.08261477 -0.049670357 -0.011768124 -0.053548288 0.07504969 0.05699236 -0.05017637 -0.113411106
0.076518506 -0.13439734 0.092325434 0.06968814 0.0084060915 0.048083432 0.06814937 -0.11809982
-0.12913097 -0.14420134 -0.114306256 -0.080226846 -0.050185505 0.02278418 0.042523354 -0.08816684
-0.003730649 0.091983706 -0.07412555 0.082662165 0.073903166 -0.098461926 0.027051311 0.12213999
-0.0063578514 0.117837675 -0.086742446 -0.09916304 0.077278174 0.12286813 0.033218924 0.1051159
-0.102166004 0.096879065 -0.103360936 -0.13890877 0.1060085 -0.082085595 -0.053390563 -0.00076861645
0.042993855 0.10763987 0.105488 -0.024080459 -0.032218162 -0.03917106 0.08138529 -0.08350119
0.018758647 -0.023964994 0.09134541 0.03644311 -0.005289299 -0.05273962 0.0896921 0.03664296
-0.039006397 0.09463356 0.086667985 0.08372452 -0.092951946 -0.123704456 0.13208273 0.046075586
00000000: 4888 8dbd 0722 193d 7703 92bd fa6f 00be
00000010: 4edd a53c 4dfc cfbd ffec 0d3e d40a c83d
00000020: a94d fd3d 2b26 b5bd 90c9 103e e1dc cb3b
00000030: 2ac1 cebd 5cab e1bc 1211 dfbc 0efa 13bd
00000040: a5db 1abc 9a17 823d ac6c aebc b0fc 003e
00000050: 5fc9 59bc baac 2cbe 394a 88bc 7c24 98bd
00000060: d387 b1bd 0b6b afbd 6b52 88bd 4dee c83c
00000070: 3317 503c e269 a63c 6c7c 263d 6cfd 813d
00000080: e22e 4dbd 225c 9a3c 793b 94bd 9f3a 923d
00000090: 3258 b9bd aaef e6bd a925 aebd 8cc1 c23d
000000a0: 01a1 c9bd ed5a 8abd fc4d 0cbd da99 023e
000000b0: 62c3 03be 897e b9bc 12c7 863d 3b4d 9ebc
000000c0: 6f8b 6dbc 3c31 f13d 4756 443d 8538 e03d
000000d0: 2b6c 0ebe 7457 a3bc 324c fc3d 6f40 813d
000000e0: 80ff 8cbc 6c97 393d 663d 473c c7da 28bd
000000f0: 00de e83d 7c72 723d 847d 20be 69f9 b6bd
00000100: f192 8abc 73b6 46be 8433 fa3d 8a76 b2bd
00000110: 058a ac3d 7d3f 10be 4fb8 0e3e a132 813d
00000120: 7554 1dbe e7dc b8bd a8e3 9c3d 497d f6bd
00000130: 6e6b c23b 6e41 e5bd 5fbe ca3c 3bc2 6dbc
00000140: f738 27bd b6ba 48be 53b7 103e 5b9e c0bc
00000150: a0c0 143e b134 1ebd 9e8a 26be 6af3 3dbd
00000160: 97eb 4bbe b832 c3bc 5fa6 2e3d 432b 3e3e
00000170: bf2e 91bd 0ab1 2fbe 9bfb cc3d 9f70 ffbd
00000180: 1caf 3bbd 68a4 a5bb 00fe 54be 88fe 3bbd
00000190: 0b49 0bbe 1369 be3c 96e5 363c ef59 05be
000001a0: c566 b6bd 9abe 373d 88b0 afbd ca37 38bd
000001b0: 77c7 28be 5282 e03c b60b 28bd cb75 c13d
000001c0: a501 253d 9509 afbd 6372 ea3d f919 ef3d
000001d0: 4c8c d33d d6b8 1f3e b133 783d 64dc 78bd
000001e0: 842f a03d a6f8 b43d 471c 193d 5ef2 803d
000001f0: d543 27bd 7e73 7a3d 3624 1b3d f16d 433d
00000200: 0c9d 6cbd 1da7 b23d 8a36 0e3e 73f6 733d
00000210: 9d0c a43d bb58 61bd 343c 77bd ee47 01be
00000220: 6883 83bd 734e cb3c 8db1 ddbd 4ac8 88bc
00000230: 76e7 d7bc 857d f5bb 1d61 443d 0c07 823d
00000240: 26ab f73d 65f2 ec3b 3409 bfbd 2bdb b23d
00000250: 770c c8bd 879b 3abd cf5e ff3d 3f1a b53d
00000260: 1247 6bbd 6799 a23d 86f6 fbbd 0e16 b03d
00000270: a808 0cbe 9cc4 e1bd 2061 49bc 84c6 ba3d
00000280: 8057 89bd ee2d 003e 7144 f8bd 58df 90bd
00000290: c8d2 9ebd be39 e53c 93b5 9dbd 7123 763d
000002a0: 9269 f93c e8ea 87bc d277 03be 232b f53d
000002b0: 9fc9 04bd 11ac 503d 0619 5dbd dc45 853a
000002c0: 72ee 823d 0f90 773c 179b 033e e027 00bd
000002d0: 2e11 a9bd 3b1b fcbd f558 2e3d 4d3a ce3d
000002e0: ef31 a9bd 2573 4bbd 17cf 40bc 7355 5bbd
000002f0: a7b3 993d d270 693d bd85 4dbd 1544 e8bd
00000300: bcb5 9c3d 759f 09be 1e15 bd3d a8b8 8e3d
00000310: b4b9 093c 22f3 443d e691 8b3d 52de f1bd
00000320: e93a 04be 84a9 13be 6619 eabd f94d a4bd
00000330: 518f 4dbd e3a5 ba3c f82c 2e3d d190 b4bd
00000340: e77d 74bb f461 bc3d 23cf 97bd c84a a93d
00000350: 8b5a 973d 68a6 c9bd b69a dd3c 8824 fa3d
00000360: 8655 d0bb e154 f13d 06a6 b1bd fe15 cbbd
00000370: 0544 9e3d 49a2 fb3d 9110 083d 0147 d73d
00000380: 693c d1bd 8868 c63d e6ae d3bd 1a3e 0ebe
00000390: fc1a d93d 7e1c a8bd 10b0 5abd fa7c 49ba
000003a0: 531a 303d 4b72 dc3d 180a d83d 6244 c5bc
000003b0: 31f7 03bd d571 20bd 55ad a63d ac02 abbd
000003c0: bcab 993c 3c52 c4bc 4d13 bb3d 5f45 153d
000003d0: db51 adbb 8005 58bd 7eb0 b73d ee16 163d
000003e0: 2cc5 1fbd 3dcf c13d fc7e b13d c377 ab3d
000003f0: 975d bebd c358 fdbd b240 073e c1b9 3c3d

model.rnn.bias_ih_l0 f4 [240]
-0.08713188 0.18883581 -0.081267074 0.024974348 -0.071230516 0.14473438 -0.048808116 0.076904334
0.05193729 0.16919045 0.019292714 0.11589302 -0.003172315 0.07251879 0.112190776 0.13645388
-0.055378437 -0.012417213 -0.029713884 -0.04000331 0.11882547 -0.049291268 0.00017810841 0.0041011525
0.12593554 0.0513823 0.1752692 0.024674531 0.10058126 -0.078764796 -0.02912213 0.13368085
-0.013130356 -0.061320093 -0.11504384 0.06057862 0.10119333 0.037059005 -0.035181142 -0.029480373
0.11714152 0.058606382 0.1718576 0.12224303 -0.005234445 0.10450226 -0.031182393 0.13717173
0.022085154 0.06273138 -0.007042135 -0.08310077 0.0977306 0.038786754 0.11871551 -0.043136198
0.12858614 -0.03907231 0.1851845 -0.019534275 -0.07693939 -0.052880097 0.09923972 -0.07583597
-0.06926814 0.09799032 0.047020137 0.07681989 0.018886616 -0.089541845 -0.08657957 -0.03128902
-0.032112926 -0.055926733 0.028637962 0.00012290833 0.12762512 -0.0029508714 0.020951482 -0.08990919
-0.06729441 -0.030366281 0.09965707 0.036821112 -0.0852412 -0.12260664 -0.010324429 -0.1115998
-0.052518014 0.11270336 -0.04093897 -0.04781913 -0.0074776057 -0.10172893 -0.0034207287 -0.007753399
0.094299264 -0.025312267 -0.090346664 -0.08367039 -0.07693059 -0.08469627 -0.070283346 0.053723603
0.062195614 0.04940259 0.067787096 0.16824102 -0.13394465 0.07597596 -0.032629244 -0.055350196
0.11996246 0.0035775458 0.07595324 0.015343611 -0.07859793 -0.08133904 -0.11556661 -0.09579199
-0.03810359 -0.027256625 -0.122476 -0.04254534 0.105303496 -0.14075619 0.008546156 -0.04949061
-0.05170788 -0.030923782 -0.117790796 0.0978049 -0.06820764 -0.054451946 0.061064363 0.07577553
-0.08194071 -0.07130254 0.055991482 0.0041130544 0.05685534 0.015300177 -0.03616206 0.06628166
0.12510644 -0.0707317 0.006091292 -0.11228503 -0.04336465 -0.055973504 0.122357175 0.08211846
0.005946124 -0.13278365 -0.06103413 -0.06621045 -0.060803454 -0.1047656 -0.118226476 -0.08565428
-0.122696124 -0.03537964 0.05368967 0.083037 -0.09228192 0.044937443 0.0414599 -0.15885729
-0.06240477 -0.089610025 -0.07323483 -0.04514232 0.0831557 0.014411218 0.07525218 0.05251625
0.028156722 -0.027193295 -0.13848476 -0.1094853 -0.10446302 0.0050130473 0.13001686 0.057294738
0.046873774 0.06845408 0.019763095 0.03223154 0.08966552 0.07479304 0.0553384 0.15715349
0.043485265 0.075943075 0.055584963 -0.030949576 0.15839718 0.016675863 0.05662378 0.173297
0.014967995 0.011055949 0.011279366 0.079700954 -0.032889064 0.13642243 0.18334979 0.061427608
-0.0133497575 0.09615249 0.14292313 -0.012640884 -0.042150695 0.065231025 0.015128893 0.11532937
0.16599526 0.076467894 -0.08646853 -0.1086471 -0.040771242 0.11946121 -0.0058214073 0.09506445
0.03464435 0.13444516 0.09592909 -0.03517892 0.13899337 -0.03470261 -0.04175733 0.09592216
0.090239435 0.16362096 0.01989993 0.028431436 0.11534327 -0.026405318 0.15289825 -0.04872975
00000000: 3372 b2bd 2d5e 413e 5a6f a6bd 0197 cc3c
00000010: 4ee1 91bd 4035 143e 05eb 47bd 0580 9d3d
00000020: 32bc 543d 4340 2d3e c10b 9e3c 5259 ed3d
00000030: 9de6 4fbb bb84 943d 47c4 e53d 91ba 0b3e
00000040: 80d4 62bd 9171 4bbc 886a f3bc 83da 23bd
00000050: c55a f33d a4e5 49bd 9dc2 3a39 f662 863b
00000060: 3ff5 003e 3f76 523d c579 333e 3e22 ca3c
00000070: 8cfd cd3d 704f a1bd 8891 eebc a2e3 083e
00000080: b420 57bc c72a 7bbd 1b9c ebbd 4921 783d
00000090: 733e cf3d 2fcb 173d 1a1a 10bd d380 f1bc
000000a0: e5e7 ef3d 3f0d 703d 70fb 2f3e 8e5a fa3d
000000b0: b585 abbb 4805 d63d 3872 ffbc bf76 0c3e
000000c0: edeb b43c 4f79 803d b6c1 e6bb bd30 aabd
000000d0: fb26 c83d dcde 1e3d 1e21 f33d 95af 30bd
000000e0: 16ac 033e 490a 20bd 01a1 3d3e 5806 a0bc
000000f0: 6692 9dbd cd98 58bd 323e cb3d e44f 9bbd
00000100: 74dc 8dbd 26af c83d 3098 403d bf53 9d3d
00000110: 1bb8 9a3c b761 b7bd a150 b1bd ea28 00bd
00000120: d888 03bd 6e13 65bd 299a ea3c f4e0 0039
00000130: 29b0 023e 6863 41bb 71a2 ab3c 4f22 b8bd
00000140: a7d1 89bd b5c2 f8bc 0219 cc3d bcd1 163d
00000150: f092 aebd 3119 fbbd cb27 29bc 708e e4bd
00000160: 211d 57bd 05d1 e63d 9faf 27bd fedd 43bd
00000170: b406 f5bb 4257 d0bd 4e2e 60bb 3a10 febb
00000180: f91f c13d ac5b cfbc ac07 b9bd 625b abbd
00000190: c98d 9dbd 3d75 adbd b7f0 8fbd 480d 5c3d
000001a0: d4c0 7e3d 5f5a 4a3d f6d3 8a3d 6047 2c3e
000001b0: c928 09be 4999 9b3d 3ea6 05bd e3b6 62bd
000001c0: e1ae f53d 4275 6a3b 5f8d 9b3d c563 7b3c
000001d0: f4f7 a0bd 1595 a6bd 30ae ecbd 972e c4bd
000001e0: 8312 1cbd 4949 dfbc b2d4 fabd 0644 2ebd
000001f0: 5ca9 d73d 6422 10be 2d05 0c3c aab6 4abd
00000200: a4cb 53bd df53 fdbc 4d3c f1bd ef4d c83d
00000210: 72b0 8bbd 0109 5fbd a01e 7a3d 3330 9b3d
00000220: 88d0 a7bd 1107 92bd 5357 653d cdc6 863b
00000230: 25e1 683d 98ad 7a3c ab1e 14bd aebe 873d
00000240: e71b 003e c8db 90bd 7699 c73b b2f5 e5bd
00000250: 229f 31bd 7944 65bd 6696 fa3d b92d a83d
00000260: b4d7 c23b 70f8 07be edfe 79bd 5899 87bd
00000270: 0b0d 79bd 598f d6bd b920 f2bd 836b afbd
00000280: 1b48 fbbd 3eea 10bd b3e9 5b3d 4d0f aa3d
00000290: 4efe bcbd 5310 383d dbd1 293d 7cab 22be
000002a0: 259c 7fbd 7685 b7bd 24fc 95bd 27e7 38bd
000002b0: 894d aa3d 081d 6c3c d11d 9a3d 481b 573d
000002c0: eda8 e63c 79c4 debc f3ce 0dbe d439 e0bd
000002d0: b5f0 d5bd 7d44 a43b 2423 053e e3ad 6a3d
000002e0: b7fe 3f3d a731 8c3d 37e6 a13c 3805 043d
000002f0: 8ea2 b73d 182d 993d 85aa 623d d8ec 203e
00000300: 9b1d 323d 0b88 9b3d 0fad 633d f789 fdbc
00000310: df32 223e d29b 883c 56ee 673d c574 313e
00000320: 523c 753c 0324 353c 17cd 383c 413a a33d
00000330: afb6 06bd 52b2 0b3e 0cc0 3b3e 849b 7b3d
00000340: f1b8 5abc 99eb c43d 715a 123e b61b 4fbc
00000350: 35a6 2cbd d897 853d 2ddf 773c ce31 ec3d
00000360: a9fa 293e 339b 9c3d 6a16 b1bd 5f82 debd
00000370: bfff 26bd 14a8 f43d 81c1 bebb 26b1 c23d
00000380: 3ce7 0d3d feab 093e 7976 c43d c517 10bd
00000390: 4754 0e3e 5324 0ebd bc09 2bbd d672 c43d
000003a0: 74cf b83d 418c 273e 2e05 a33c 0be9 e83c
000003b0: 1839 ec3d f74f d8bc 5c91 1c3e d998 47bd

model.rnn.bias_hh_l0 f4 [240]
-0.015526422 0.061334904 0.01145609 -0.0024462955 0.10117245 0.035689685 0.13620609 0.06652018
0.15365393 0.14817227 0.10065925 0.011311704 -0.03589549 0.041487288 -0.03397247 0.19106245
0.008561971 0.16805245 0.0086913705 -0.021143418 0.009709181 0.12209572 -0.061784986 0.015669813
-0.039222714 0.059365194 0.20348324 0.10695695 0.09745278 0.13054904 -0.032104187 0.096204095
-0.08513612 0.054493647 0.014605667 -0.10060299 0.13613415 0.10865047 -0.08435317 0.14273866
-0.05470614 0.13422538 -0.034491986 -0.024187036 0.1254993 0.0914921 0.032423504 -0.07113544
-0.057233583 0.1686248 -0.054048218 -0.017930089 0.080986686 0.1134395 -0.002669931 0.07928341
0.120481044 0.10330483 0.17109457 -0.042440467 -0.0804781 -0.108091466 0.112227105 0.081158765
-0.0005028073 -0.0083678765 -0.0011963141 0.08010162 0.0902192 0.12572779 -0.08817695 -0.042333975
-0.028497571 -0.08830239 0.09552524 0.09106504 -0.056235183 0.1607441 -0.09990272 0.036584176
-0.114776425 0.0651765 0.000107599364 0.12361972 -0.08318462 0.07390729 0.046989925 -0.08687878
-0.0102224825 0.10255206 0.1303628 0.06920246 0.09221545 -0.05348501 -0.04339333 0.016961247
-0.05521654 0.13411514 0.020387005 0.013574838 0.008734194 0.09866808 0.09328101 -0.06417104
0.052207794 0.07351309 0.03246783 -0.06542368 -0.096252516 -0.026211154 -0.052252725 0.0591637
0.12521888 0.057400476 -0.017472627 0.1269198 0.020876743 -0.08389379 0.026237315 0.07345011
0.060390152 0.120358385 0.03211676 0.10841624 -0.037448402 0.0008312613 -0.072993234 0.020370374
-0.050164796 -0.08194402 0.08890909 0.0060885823 -0.028381722 -0.09739307 0.09888472 -0.012784856
-0.013115342 0.040749338 0.10001685 0.09449689 -0.032837063 -0.12037451 -0.0058401143 0.1119059
0.09806473 0.11506751 0.09049264 -0.03922179 -0.06659801 -0.04245876 -0.0632156 -0.11823286
-0.09952546 -0.10191962 -0.012385643 -0.070522994 0.015923357 -0.09827552 -0.056650348 -0.096511655
-0.10697577 0.14518385 -0.05448989 -0.0115430625 0.024769584 0.09315854 -0.03542307 -0.13098581
0.025854578 -0.027525883 0.07878791 0.098873615 -0.10472157 0.023347022 -0.0084171435 -0.09097039
0.12431334 0.124557935 0.04599719 0.053978007 0.08734693 0.0051636235 -0.038851433 -0.068839334
0.12723856 -0.004192057 0.11174 0.110283814 0.1730361 0.12855953 0.036225304 0.08174442
0.11211335 0.039300032 -0.06500195 0.15780917 -0.004777162 0.15518974 0.08105147 0.07149939
-0.0044463915 0.024092015 0.09990375 0.15423095 -0.028698832 0.031576723 0.008548334 0.09809467
-0.062828995 0.065620914 0.12258144 0.08700211 0.050750665 0.10838607 0.090746105 0.01862315
0.006888669 0.034480907 -0.0014477299 0.08917271 0.049747072 -0.016824363 0.062353488 0.06132964
0.00059576647 0.07617686 -0.054349296 -0.06670585 -0.030774033 0.04762002 -0.0283229 -0.0076666055
-0.016904073 0.016396178 0.085328266 0.12274111 0.17799276 0.08765375 0.028496351 0.080903314
00000000: 8962 7ebc 4f3a 7b3d 53b2 3b3c 0752 20bb
00000010: 8033 cf3d 592f 123d 9c79 0b3e bb3b 883d
00000020: 7557 1d3e 79ba 173e 7026 ce3d ba54 393c
00000030: 2607 13bd 93ee 293d b726 0bbd e0a5 433e
00000040: 8247 0c3c f115 2c3e 4066 0e3c f634 adbc
00000050: 4213 1f3c 520d fa3d 4112 7dbd fb5d 803c
00000060: ffa7 20bd eb28 733d e95d 503e 3f0c db3d
00000070: 5395 c73d a6ae 053e ae7f 03bd a706 c53d
00000080: d95b aebd bb34 5f3d 9c4c 6f3c f108 cebd
00000090: c066 0b3e 2384 de3d 5bc1 acbd 152a 123e
000000a0: 8c13 60bd 6172 093e 7847 0dbd e423 c6bc
000000b0: e382 003e 3660 bb3d 82ce 043d 75af 91bd
000000c0: c36d 6abd fbab 2c3e aa61 5dbd 1fe2 92bc
000000d0: 59dc a53d f852 e83d 02fa 2ebb 575f a23d
000000e0: c4be f63d 7c91 d33d 6a33 2f3e 0ed6 2dbd
000000f0: b4d1 a4bd 0f5f ddbd 53d7 e53d 9136 a63d
00000100: d4ce 03ba 6b19 09bc a4cd 9cba 510c a43d
00000110: d8c4 b83d c9be 003e 1e96 b4bd 6466 2dbd
00000120: bd73 e9bc e2d7 b4bd bda2 c33d 4f80 ba3d
00000130: dd56 66bd 1a9a 243e cc99 ccbd 4ad9 153d
00000140: e70f ebbd 427b 853d f8a6 e138 562c fd3d
00000150: b35c aabd b55c 973d 8278 403d 80ed b1bd
00000160: 337c 27bc d006 d23d d37d 053e 05ba 8d3d
00000170: 74db bc3d 1913 5bbd 34bd 31bd 50f2 8a3c
00000180: bd2a 62bd 7b55 093e a602 a73c ff68 5e3c
00000190: dd19 0f3c 7e12 ca3d 1d0a bf3d 1b6c 83bd
000001a0: d7d7 553d 088e 963d fdfc 043d dafc 85bd
000001b0: 0a20 c5bd c6b8 d6bc f406 56bd a355 723d
000001c0: 6139 003e c31c 6b3d c122 8fbc 44f7 013e
000001d0: b405 ab3c 82d0 abbd a3ef d63c 036d 963d
000001e0: aa5b 773d 757e f63d dd8c 033d 5509 de3d
000001f0: 7f63 19bd 00e9 593a 7a7d 95bd c5df a63c
00000200: 9a79 4dbd 44d2 a7bd f815 b63d bb82 c73b
00000210: c980 e8bc 0576 c7bd 1284 ca3d 9377 51bc
00000220: bbe1 56bc c7e8 263d a2d5 cc3d 9687 c13d
00000230: 2880 06bd e986 f6bd 6e5e bfbb ec2e e53d
00000240: 29d6 c83d 84a8 eb3d 3554 b93d 07a7 20bd
00000250: 8a64 88bd 3de9 2dbd 2e77 81bd 1224 f2bd
00000260: 01d4 cbbd 3cbb d0bd 27ed 4abc 5c6e 90bd
00000270: b371 823c ad44 c9bd 320a 68bd e7a7 c5bd
00000280: 1d16 dbbd 13ab 143e ca30 5fbd 1d1f 3dbc
00000290: 95e9 ca3c e8c9 be3d c817 11bd 2521 06be
000002a0: fbcc d33c f67d e1bc 8e5b a13d 407e ca3d
000002b0: 4378 d6bd 4142 bf3c 0fe8 09bc af4e babd
000002c0: fe97 fe3d 3b18 ff3d 8d67 3c3d 0b18 5d3d
000002d0: f2e2 b23d 9d33 a93b ae22 1fbd a3fb 8cbd
000002e0: d34a 023e 865d 89bb f1d7 e43d 7bdc e13d
000002f0: 6030 313e 1ca5 033e fc60 143d 9e69 a73d
00000300: af9b e53d 12f9 203d be1f 85bd ba98 213e
00000310: bd89 9cbb 0fea 1e3e 50fe a53d 466e 923d
00000320: 09b3 91bb 9e5c c53c 569a cc3d b8ee 1d3e
00000330: d019 ebbc 9856 013d 500e 0c3c dce5 c83d
00000340: 7dac 80bd 4264 863d fa0b fb3d 2a2e b23d
00000350: eedf 4f3d 84f9 dd3d 18d9 b93d 948f 983c
00000360: 58ba e13b da3b 0d3d c1c1 bdba 2fa0 b63d
00000370: 96c3 4b3d 3fd3 89bc 5f66 7f3d ca34 7b3d
00000380: 362d 1c3a 9d02 9c3d 5e9d 5ebd 149d 88bd
00000390: d319 fcbc 360d 433d 6d05 e8bc 2638 fbbb
000003a0: 697a 8abc 4751 863c 96c0 ae3d b15f fb3d
000003b0: bc43 363e cf83 b33d 2e71 e93c a3b0 a53d

model.rnn.weight_ih_l1 f4 [240, 60]
0.15498933 -0.14347558 0.01875855 -0.16952306 0.15051647 0.005369369 -0.0011955204 -0.03319001
0.07461449 0.066821665 0.09538119 -0.13979028 -0.16500643 -0.17049061 0.1276852 0.034930635
-0.013983863 0.084262416 -0.12445322 -0.057409607 -0.057691485 0.058394983 -0.0034599348 -0.08402978
-0.044889852 -0.1882495 0.07045192 0.041528456 0.024477832 0.07551991 0.1382705 0.039888408
0.02040051 -0.096754596 0.10060238 -0.061695024 -0.11792061 0.037129506 0.047402605 -0.13162123
-0.092977 -0.0019167846 0.060363423 0.01958249 0.025075333 0.14185263 -0.11509578 -0.04844673
-0.065894246 0.12181569 0.03086279 0.046011705 0.08299961 -0.10597364 0.11344715 -0.13571177
0.116774395 -0.057544693 0.108483694 0.016427398 -0.033959325 0.0037789827 0.0061862897 -0.11613745
-0.052138746 -0.11767229 -0.05656077 -0.1562963 -0.063058816 -0.17989281 0.0939089 0.07524704
0.012343946 0.04440556 0.052678153 0.010851004 0.072139025 0.0657897 -0.080534294 0.06527326
-0.15140499 -0.117886804 0.06590661 0.07051959 0.03214483 0.15797691 -0.043372538 0.02531572
-0.13223593 -0.118143305 -0.079498656 0.13744453 0.014016124 -0.11174548 0.09694365 0.09410641
0.16116394 0.039335545 0.053155605 0.024838658 -0.06832279 0.073846966 -0.09634835 0.1125011
-0.06639785 -0.013482539 0.12727429 0.10563048 -0.044457555 -0.0213774 0.14420226 0.037137337
-0.108491674 -0.080207154 0.16176996 -0.06922036 -0.06899222 -0.008853901 -0.0062591108 0.046090048
-0.02776247 0.007634759 -0.068455294 -0.079654574 0.048931878 -0.13782248 0.06458122 0.014730899
0.095829375 -0.11830125 0.0739394 -0.015481379 -0.17226826 -0.16750732 -0.06187717 0.029576473
0.05776831 -0.10828992 -0.14172097 -0.04215495 -0.018057276 -0.150868 0.075491294 -0.07142484
0.16534568 0.08591409 0.041147012 -0.07276526 -0.12654482 -0.03285938 -0.03383503 -0.09675202
-0.03926481 0.049552884 -0.10015589 -0.096033186 0.079376765 -0.05238396 -0.078590594 0.08660127
-0.10397994 -0.07610124 0.011763575 -0.1308457 -0.13932723 0.038209558 -0.1233302 -0.012328578
0.030192088 -0.026597226 0.044174016 -0.035883937 -0.013846404 0.060747605 0.00822861 0.075794004
-0.02753429 -0.03378135 -0.07188532 -0.0062479796 0.062434822 -0.06809024 -0.06357474 -0.12299877
0.069253 0.09164127 0.049680214 0.02461558 -0.0047657476 -0.17233703 -0.016206773 0.02027895
0.067566246 -0.01857379 0.054350194 0.16444772 0.034882516 0.14267617 -0.0006219734 0.10189643
0.017658867 -0.017655004 0.029780097 0.15042154 -0.055274446 0.15331924 -0.14740832 0.08597624
0.06817228 -0.06593121 0.016509775 0.08016058 0.048512947 0.026831143 0.10586994 -0.051979013
0.008130725 -0.08031177 -0.06277079 0.06808952 0.075501546 0.13652672 -0.14190716 -0.017071621
0.10468331 0.026580017 0.1465561 0.055044234 0.13765739 -0.033077862 0.08978545 -0.049641863
-0.07762045 -0.0972073 0.019754194 -0.10042477 -0.06479816 -0.031779464 -0.06321984 -0.12044505
0.09642143 -0.040597413 -0.012386474 0.050960947 0.037279144 -0.018933484 0.0769145 -0.12841192
0.08577018 -0.11885944 -0.06426808 -0.14649683 -0.0068560643 0.014110634 -0.07416775 0.1216389
00000000: 86b5 1e3e 43eb 12be 88ab 993c 7497 2dbe
00000010: fd20 1a3e 88f1 af3b 02b3 9cba 3ff2 07bd
00000020: 7bcf 983d ccd9 883d 3757 c33d 2f25 0fbe
00000030: 72f7 28be 1795 2ebe e9bf 023e 6d13 0f3d
00000040: 931c 65bc c691 ac3d 54e1 febd 5626 6bbd
00000050: e84d 6cbd 942f 6f3d 13c0 62bb ce17 acbd
00000060: 6cde 37bd 7ac4 40be 1949 903d be19 2a3d
00000070: bc85 c83c 2faa 9a3d c896 0d3e 0762 233d
00000080: f81e a73c 4627 c6bd 9f08 ce3d ecb3 7cbd
00000090: 5c80 f1bd 1c15 183d 3c29 423d b7c7 06be
000000a0: ba6a bebd 9e3c fbba a33f 773d 756b a03c
000000b0: c96a cd3c d141 113e 56b7 ebbd 1470 46bd
000000c0: 90f3 86bd 817a f93d f6d3 fc3c c576 3c3d
000000d0: b3fb a93d b508 d9bd fb56 e83d 07f8 0abe
000000e0: 6a27 ef3d fcb3 6bbd b32c de3d c092 863c
000000f0: ef18 0bbd cfa8 773b 5cb6 ca3b 79d9 edbd
00000100: 708f 55bd 2bfe f0bd 44ac 67bd 230c 20be
00000110: fb24 81bd d235 38be 4f53 c03d 1f1b 9a3d
00000120: 433e 4a3c 9be2 353d 0cc5 573d 69c8 313c
00000130: a0bd 933d c0bc 863d 2aef a4bd fdad 853d
00000140: e909 1bbe a36e f1bd 0bfa 863d 936c 903d
00000150: 4caa 033d b3c4 213e 67a7 31bd ea62 cf3c
00000160: db68 07be 1ef5 f1bd 31d0 a2bd 42be 0c3e
00000170: e3a3 653c d0da e4bd 648a c63d ddba c03d
00000180: 2908 253e 4f1e 213d b1b9 593d 717a cb3c
00000190: d2ec 8bbd 143d 973d 4952 c5bd fa66 e63d
000001a0: 99fb 87bd dee5 5cbc 3154 023e cb54 d83d
000001b0: 2019 36bd a81f afbc c2a9 133e 521d 183d
000001c0: e230 debd a643 a4bd 06a7 253e 67c3 8dbd
000001d0: cb4b 8dbd f40f 11bc 3a19 cdbb ebc8 3c3d
000001e0: 1f6e e3bc 002d fa3b 4a32 8cbd f021 a3bd
000001f0: cb6c 483d 5621 0dbe 2943 843d de59 713c
00000200: 3142 c43d ed47 f2bd 8a6d 973d 9ca5 7dbc
00000210: 1767 30be 0a87 2bbe ea72 7dbd 5c4a f23c
00000220: 779e 6c3d 1bc7 ddbd 4d1f 11be abaa 2cbd
00000230: daec 93bc 247d 1abe 2e9b 9a3d 3047 92bd
00000240: 6150 293e baf3 af3d c589 283d f405 95bd
00000250: f794 01be 8f97 06bd 9a96 0abd ec25 c6bd
00000260: 23d4 20bd f7f7 4a3d 881e cdbd 0cad c4bd
00000270: 4990 a23d 9090 56bd 1bf4 a0bd 025c b13d
00000280: 6ff3 d4bd f8da 9bbd 02bc 403c 6afc 05be
00000290: ccab 0ebe a081 1c3d 8b94 fcbd cefd 49bc
000002a0: 6655 f73c 6de2 d9bc d0ef 343d 09fb 12bd
000002b0: 07dc 62bc 7bd2 783d 4bd1 063c e339 9b3d
000002c0: 978f e1bc 505e 0abd 9c38 93bd dabb ccbb
000002d0: a8bb 7f3d e572 8bbd 7933 82bd c7e6 fbbd
000002e0: 84d4 8d3d 6bae bb3d 7b7d 4b3d 9da6 c93c
000002f0: fd29 9cbb 1e79 30be 11c4 84bc 0a20 a63c
00000300: 2c60 8a3d 1028 98bc 4f9e 5e3d fc64 283e
00000310: f8e0 0e3d b419 123e ee0b 23ba 13af d03d
00000320: 54a9 903c 3aa1 90bc 64f5 f33c 1b08 1a3e
00000330: 7567 62bd b8ff 1c3e 35f2 16be 5014 b03d
00000340: e99d 8b3d f106 87bd 823f 873c 3b2b a43d
00000350: 83b5 463d fccc db3c 57d2 d83d f2e7 54bd
00000360: bb36 053c 7f7a a4bd f98d 80bd 8572 8b3d
00000370: 8ea0 9a3d a9cd 0b3e 1c50 11be c9d9 8bbc
00000380: 3464 d63d 56be d93c cd12 163e 1076 613d
00000390: 0ff6 0c3e a77c 07bd 6fe1 b73d 4455 4bbd
000003a0: 78f7 9ebd 9f14 c7bd 8cd3 a13c 80ab cdbd
000003b0: e6b4 84bd 2f2b 02bd 6779 81bd e5ab f6bd
000003c0: 9978 c53d 7949 26bd a3f0 4abc 6dbc 503d
000003d0: 04b2 183d 651a 9bbc 5985 9d3d 6a7e 03be
000003e0: 47a8 af3d 946c f3bd fc9e 83bd 4403 16be
000003f0: d6a8 e0bb 4a30 673c 43e5 97bd d11d f93d

model.rnn.weight_hh_l1 f4 [240, 60]
0.025512353 -0.13135362 -0.039426792 0.07106997 0.07397578 -0.06690962 0.02813981 0.0711847
0.15453088 -0.031184003 -0.10535669 -0.029531384 -0.111780144 -0.07883349 0.080697715 0.15788373
0.055575065 -0.08949854 -0.011840031 -0.038622994 0.021994362 0.071807854 0.024212517 0.016502246
0.072289556 -0.013182868 -0.027170192 -0.060382172 0.0013477546 0.058933247 0.013625051 -0.0040461677
0.022364147 -0.028374255 -0.12928516 0.17245163 0.11588209 -0.12129602 0.086162806 0.16421346
-0.056797076 -0.011824397 -0.12516166 -0.16217184 0.00041694602 -0.0042308937 0.08699264 -0.10049113
-0.067193076 0.061242547 0.031024287 -0.024714047 0.12831666 -0.04728653 0.08513749 -0.17573237
0.11655738 0.06694215 -0.030986173 0.026933553 -0.16858469 -0.02409024 -0.069655545 0.035612233
0.053968716 0.008011094 -0.041717064 0.16513066 0.040959105 0.056753814 -0.078163154 0.08772958
-0.084656715 0.081311904 0.09813473 0.13199227 -0.04894566 0.05899503 -0.05982613 -0.07853335
-0.0029878088 -0.047502756 -0.02206793 -0.08760373 -0.055735357 0.006449591 0.013196949 -0.010819418
-0.04325558 -0.062587164 0.06442884 -0.14709395 -0.110256925 0.07449504 0.050837677 -0.08369464
-0.02380214 -0.082967274 -0.04541677 0.03612222 -0.09841999 -0.1372995 -0.038947467 -0.12937774
0.10735091 -0.15068989 0.041663814 -0.081677854 0.12422444 0.06938826 0.0074572186 -0.05177925
-0.096239656 -0.10808263 -0.116261184 -0.056811888 0.001201789 0.054487307 0.06550635 0.014458132
-0.11274633 -0.101603314 0.06669374 0.13923961 -0.07296988 -0.075546086 -0.15225115 0.17346083
-0.06810683 -0.012028655 -0.03861896 0.046744686 -0.03472221 -0.089668155 0.025824746 0.050955083
-0.049419258 0.038990986 -0.057885963 -0.004685093 0.066874266 -0.11129454 -0.08775877 -0.12429557
-0.04808735 -0.10874528 0.07053609 -0.060110424 -0.05520187 0.0036101681 -0.018602958 0.051027622
-0.011974637 0.0457607 0.010073221 -0.0030352515 0.022232464 0.026198966 0.08363727 0.04682494
-0.027454961 -0.06652416 -0.10196816 -0.09643802 0.117477536 0.057478033 -0.014511951 -0.11022163
0.0730494 0.0012326397 -0.065282196 0.017477253 0.144292 0.050797954 -0.052536912 -0.09187078
0.04938191 -0.08655755 0.069455855 0.0126373535 0.07927117 -0.073853746 -0.076660424 -0.108803734
-0.07731054 0.070484534 -0.085008256 -0.031426623 0.06385717 -0.049442388 -0.097636275 -0.09022449
0.024831785 0.021409782 -0.123213544 -0.08391373 0.12330521 0.10642524 -0.114128955 0.01821979
-0.09215156 0.048156884 -0.1375141 -0.09299606 0.08461612 -0.06271674 -0.081262484 -0.006931828
0.013772417 0.09186174 0.11351174 -0.13455823 0.10210001 0.13991632 -0.035599448 -0.061716285
-0.11235893 0.029716155 0.13761659 0.03094288 0.061629403 -0.11859286 0.06351597 0.044026382
-0.08336461 -0.10025556 -0.061960563 -0.03648498 0.07305794 -0.10711782 0.05650571 -0.02446028
0.06662922 -0.067425944 -0.121077 0.09857203 0.07659117 -0.009747768 0.08080501 0.08998656
0.0069087604 -0.11240555 0.018028356 0.1359744 -0.15541755 -0.020904545 0.06671493 0.02844685
-0.034578983 -0.033744525 0.15084706 -0.0034120656 0.03204823 0.0069915582 0.04805553 0.015624051
00000000: 48ff d03c 9081 06be fd7d 21bd 228d 913d
00000010: 9d80 973d e907 89bd 7585 e63c 49c9 913d
00000020: 583d 1e3e 9875 ffbc 40c5 d7bd cdeb f1bc
00000030: fdec e4bd 7473 a1bd d844 a53d 46ac 213e
00000040: aea2 633d 034b b7bd b0fc 41bc 2533 1ebd
00000050: 852d b43c ff0f 933d 5459 c63c b82f 873c
00000060: 8c0c 943d f5fc 57bc 0694 debc 4c53 77bd
00000070: 24a7 b03a fd63 713d 9b3b 5f3c b795 84bb
00000080: 0435 b73c 2071 e8bc 5463 04be 2997 303e
00000090: 9753 ed3d 0c6a f8bd 2076 b03d 9327 283e
000000a0: 0da4 68bd 1ebb 41bc 612a 00be 6010 26be
000000b0: 8c99 da39 4fa3 8abb 3229 b23d 4bce cdbd
000000c0: 869c 89bd 77d9 7a3d a526 fe3c 1d75 cabc
000000d0: 7165 033e 85af 41bd 905c ae3d 30f3 33be
000000e0: a3b5 ee3d f718 893d b7d6 fdbc c1a3 dc3c
000000f0: 77a1 2cbe e558 c5bc 91a7 8ebd 22de 113d
00000100: 4d0e 5d3d f740 033c 83df 2abd 0318 293e
00000110: bcc4 273d b076 683d 0114 a0bd 91ab b33d
00000120: 8060 adbd db86 a63d dcfa c83d fb28 073e
00000130: 3f7b 48bd c6a4 713d 3e0c 75bd 18d6 a0bd
00000140: 1dcf 43bb 4092 42bd cec7 b4bc 9669 b3bd
00000150: c24a 64bd 1757 d33b 0438 583c ee43 31bc
00000160: c32c 31bd b32d 80bd 45f3 833d cc9f 16be
00000170: 62ce e1bd db90 983d 2b3b 503d 1868 abbd
00000180: b5fc c2bc bfea a9bd ef06 3abd e5f4 133d
00000190: 6b90 c9bd 3d98 0cbe 6187 1fbd 997b 04be
000001a0: cbda db3d 734e 1abe ada7 2a3d b846 a7bd
000001b0: 6269 fe3d 6f1b 8e3d af5b f43b 7b16 54bd
000001c0: 4c19 c5bd 6d5a ddbd 581a eebd 95b3 68bd
000001d0: 5985 9d3a 152e 5f3d 3128 863d cde1 6c3c
000001e0: 8ce7 e6bd 6615 d0bd ba96 883d d494 0e3e
000001f0: 3c71 95bd e8b7 9abd bae7 1bbe b79f 313e
00000200: 987b 8bbd d613 45bc ea2e 1ebd 5b77 3f3d
00000210: e038 0ebd f0a3 b7bd 6b8e d33c 47b6 503d
00000220: d96b 4abd 03b5 1f3d d519 6dbd 6985 99bb
00000230: 60f5 883d 64ee e3bd dfba b3bd ad8e febd
00000240: 3ef7 44bd d8b5 debd 3a75 903d 5936 76bd
00000250: 5b1b 62bd 9298 6c3b 3b65 98bc 5702 513d
00000260: 4531 44bc 926f 3b3d 270a 253c 12eb 46bb
00000270: db20 b63c 379f d63c 044a ab3d 82cb 3f3d
00000280: 3ae9 e0bc d23d 88bd afd4 d0bd 4c81 c5bd
00000290: 1098 f03d 166e 6b3d 89c3 6dbc e1bb e1bd
000002a0: ec9a 953d 8690 a13a acb2 85bd 752c 8f3c
000002b0: 48c1 133e 8411 503d f230 57bd bf26 bcbd
000002c0: b044 4a3d 1645 b1bd df3e 8e3d e70c 4f3c
000002d0: ec58 a23d a240 97bd 2400 9dbd 7ed4 debd
000002e0: fd54 9ebd 325a 903d cf18 aebd 34b9 00bd
000002f0: 8cc7 823d 1a84 4abd 87f5 c7bd 9ec7 b8bd
00000300: 076c cb3c 9163 af3c 6257 fcbd f6da abbd
00000310: 7187 fc3d 7af5 d93d 71bc e9bd ab41 953c
00000320: f5b9 bcbd 2740 453d 7fd0 0cbe b874 bebd
00000330: 374b ad3d a271 80bd f26c a6bd 6324 e3bb
00000340: b4a5 613c 0222 bc3d d878 e83d a2c9 09be
00000350: cf19 d13d 3946 0f3e bad0 11bd 37ca 7cbd
00000360: 701c e6bd 4b6f f33c 5deb 0c3e ec7b fd3c
00000370: 1d6f 7c3d d0e0 f2bd a914 823d 0255 343d
00000380: 11bb aabd c952 cdbd 5cca 7dbd 4671 15bd
00000390: 679f 953d 9660 dbbd 8872 673d ed60 c8bc
000003a0: e774 883d 9d16 8abd 38f7 f7bd 22e0 c93d
000003b0: d5db 9c3d 1ab5 1fbc 197d a53d e04a b83d
000003c0: e262 e23b e234 e6bd 34b0 933c e03c 0b3e
000003d0: c725 1fbe 0240 abbc d6a1 883d 5e09 e93c
000003e0: b1a2 0dbd b337 0abd a777 1a3e f69c 5fbb
000003f0: 0145 033d 7119 e53b e0d5 443d 05fc 7f3c

model.rnn.bias_ih_l1 f4 [240]
-0.03522232 0.09006739 0.09486579 0.09357536 0.12097085 -0.08562842 0.05479243 0.15227273
0.02647422 0.09557593 -0.03305614 -0.053641453 0.01376948 -0.012622293 -0.10935777 0.011043027
-0.01941013 -0.03374213 -0.00011470846 0.013941617 0.08600445 0.14803231 0.08406288 0.106501006
-0.08737652 -0.01156975 -0.037777655 -0.020460853 -0.046802167 -0.10985324 0.058546126 0.13708587
-0.042359702 -0.016209602 0.0005346293 -0.089756615 0.11184932 0.15176728 0.100882314 -0.0045032552
-0.097237095 -0.039766055 -0.035361793 -0.057664018 -0.027704407 0.083170585 -0.11196031 -0.026843362
0.0018291343 0.17159174 -0.076701954 0.11813408 0.036047254 0.166877 -0.07160412 0.14764838
-0.00044562132 -0.03277513 9.137148e-06 0.13102141 -0.009694154 -0.015495582 -0.0009625094 0.03497422
-0.10285329 0.037774954 -0.016421942 0.09853567 0.014354549 0.07880942 0.08956827 -0.12138213
-0.0113764135 0.035416897 0.09566698 -0.10102419 -0.024760697 -0.09740493 -0.087133616 0.039412316
-0.13243508 0.07119248 -0.0490627 0.035641875 -0.09715035 0.0027808605 -0.010193361 0.116717964
0.1286418 -0.04506588 -0.014792907 0.016009472 0.03909344 -0.020429062 0.10969581 -0.011732836
0.14851448 -0.04146036 -0.074299276 -0.11250657 0.12219819 -0.1010547 0.11412145 0.05270496
0.1307434 0.06561452 0.004557753 0.044872656 0.094449766 -0.0052856402 -0.017702792 0.052510437
0.008970521 0.00073398557 -0.012028179 0.091146186 -0.0753185 0.020656435 -0.076492116 -0.094273716
-0.082925946 0.027884854 -0.13457997 0.057767197 0.100342706 0.08839299 0.0060265437 -0.053501733
0.07566219 -0.058374345 -0.026937207 -0.1314964 -0.012567791 -0.058295406 -0.011228906 0.14154473
0.10924399 -0.10232018 -0.101307474 -0.08808149 0.10921589 0.118122965 -0.053489935 -0.057022348
-0.07264515 0.029039871 -0.07024329 0.0014281222 0.06173402 0.12509644 0.041906774 0.01838966
-0.04917764 0.038760815 -0.03159314 0.1485478 -0.08721082 -0.13305223 -0.018179735 0.037502874
-0.03570918 0.11035421 0.07441062 0.012466583 0.07981644 -0.052403234 -0.024248732 -0.15062612
-0.0018289379 -0.062840424 0.006634539 0.10173928 -0.08000067 -0.15434873 0.06503766 -0.11044285
-0.0021283198 -0.088183224 0.030419633 -0.06757542 -0.00644315 -0.08135541 0.018759558 0.073460765
0.099875145 -0.0030033737 0.18704867 0.08618663 -0.011571438 0.13117015 -0.08459509 0.071086176
0.17132251 -0.044890385 -0.02270474 0.0050904527 0.044407647 -0.029187383 0.13396682 0.034916196
0.035282478 0.100678824 0.093926445 0.05503445 0.033836253 -0.07408253 -0.04383593 0.0006736572
0.0007155618 0.13023527 -0.042789634 0.134704 0.071602724 0.12044078 0.15195343 0.0526163
0.18151663 0.094497725 0.10112298 0.08993206 0.0520718 -0.027165106 -0.01899082 0.17533898
-0.0012536668 0.017376125 0.101825394 -0.0038724337 0.02999108 0.17599222 0.15900669 -0.047998685
0.050955974 -0.015306775 0.12803365 -0.0024449273 -0.016266398 0.019023746 -0.07497696 0.13208912
00000000: 4845 10bd 4075 b83d ff48 c23d 70a4 bf3d
00000010: 91bf f73d f45d afbd 076e 603d 62ed 1b3e
00000020: 77e0 d83c 50bd c33d e065 07bd 24b7 5bbd
00000030: 6399 613c bccd 4ebc f7f6 dfbd d0ed 343c
00000040: fe01 9fbc 3035 0abd a38f f0b8 616b 643c
00000050: 1a23 b03d c895 173e 2929 ac3d 331d da3d
00000060: 76f2 b2bd 0c8f 3dbc bebc 1abd 859d a7bc
00000070: a1b3 3fbd bcfa e0bd 10ce 6f3d 3d60 0c3e
00000080: 5e81 2dbd 00ca 84bc 5d26 0c3a 51d2 b7bd
00000090: 4211 e53d e268 1b3e 639b ce3d 0b90 93bb
000000a0: 3e24 c7bd bbe1 22bd 87d7 10bd 1b31 6cbd
000000b0: 5af4 e2bc 5755 aa3d 724b e5bd 9ce6 dbbc
000000c0: 90bf ef3a bfb5 2f3e ea15 9dbd 48f0 f13d
000000d0: 49a6 133d cee1 2a3e 2ea5 92bd 2331 173e
000000e0: 48a2 e9b9 373f 06bd c04b 1937 7a2a 063e
000000f0: 3bd4 1ebc 2ee1 7dbc ea50 7cba 2141 0f3d
00000100: bfa4 d2bd e9b9 1a3d 4f87 86bc 12cd c93d
00000110: 582f 6b3c d566 a13d 926f b73d 3297 f8bd
00000120: 2364 3abc 4f11 113d 0ded c33d c5e5 cebd
00000130: f2d6 cabc 3c7c c7bd 1c73 b2bd cf6e 213d
00000140: 109d 07be 5dcd 913d f8f5 48bd 37fd 113d
00000150: c3f6 c6bd 193f 363b 0e02 27bc d409 ef3d
00000160: adba 033e 0097 38bd f35d 72bc 4c26 833c
00000170: 7120 203d d95a a7bc 32a8 e03d 153b 40bc
00000180: 2e14 183e 57d2 29bd 382a 98bd d869 e6bd
00000190: 0b43 fa3d c4f5 cebd 82b8 e93d 28e1 573d
000001a0: 99e1 053e e860 863d 3459 953b 64cc 373d
000001b0: e16e c13d 2a33 adbb 7205 91bc 2f15 573d
000001c0: 18f9 123c f068 403a d711 45bc daaa ba3d
000001d0: 9640 9abd af37 a93c e6a7 9cbd 9412 c1bd
000001e0: 14d5 a9bd c76e e43c 55cf 09be 4c9d 6c3d
000001f0: 7a80 cd3d 6207 b53d 507a c53b a224 5bbd
00000200: c7f4 9a3d f019 6fbd 6bab dcbc fea6 06be
00000210: 23e9 4dbc 2ac7 6ebd 72f9 37bc 1af1 103e
00000220: 50bb df3d 3e8d d1bd 4b7a cfbd 1164 b4bd
00000230: 95ac df3d 74ea f13d 4318 5bbd 4490 69bd
00000240: fbc6 94bd 06e5 ed3c b7db 8fbd d42f bb3a
00000250: d0dc 7c3d 4819 003e 70a6 2b3d eaa5 963c
00000260: 7e6e 49bd a9c3 1e3d cf67 01bd ea1c 183e
00000270: 969b b2bd d83e 08be abed 94bc 9d9c 193d
00000280: ca43 12bd 6301 e23d 9864 983d a440 4c3c
00000290: cd76 a33d c6a4 56bd 47a5 c6bc bc3d 1abe
000002a0: f9b8 efba 7bb2 80bd 8c66 d93b af5c d03d
000002b0: 64d7 a3bd 980d 1ebe 7732 853d dc2f e2bd
000002c0: 487b 0bbb 6899 b4bd 9832 f93c fb64 8abd
000002d0: 0f21 d3bb aa9d a6bd a5ad 993c 9972 963d
000002e0: 578b cc3d 40d4 44bb b089 3f3e 9e82 b03d
000002f0: 2196 3dbc 7851 063e 3140 adbd a195 913d
00000300: 2b6f 2f3e fbde 37bd 4aff b9bc d0cd a63b
00000310: cbe4 353d 611a efbc 992e 093e 4904 0f3d
00000320: 5c84 103d b330 ce3d 825c c03d ce6b 613d
00000330: e297 0a3d 95b8 97bd 4e8d 33bd 5f98 303a
00000340: 8a94 3b3a 655c 053e 2f44 2fbd d8ef 093e
00000350: 73a4 923d a8a9 f63d ae99 1b3e 3084 573d
00000360: 7fdf 393e 0688 c13d 9119 cf3d 4d2e b83d
00000370: 3d49 553d 5b89 debc a392 9bbc 108c 333e
00000380: 1452 a4ba 6058 8e3c d589 d03d a8c8 7dbb
00000390: daaf f53c 4e37 343e a6d2 223e 459a 44bd
000003a0: 36b7 503d 45c9 7abc 411b 033e 133b 20bb
000003b0: 1c41 85bc b0d7 9b3c 858d 99bd 5f42 073e
