checkpoints/epoch=1-step=100-v27.ckpt (torch, 621663 bytes, 33 tensors)

model.param_proj.proj.0.weight f4 [1, 60]
0.21748304 -0.010605473 -0.039989058 -0.06266488 -0.074878916 -0.05504994 0.1928357 -0.18176909
0.22059028 -0.19613239 -0.004225091 0.13486187 0.1649912 -0.071921684 0.18777035 -0.16447893
0.028521933 0.07267591 0.05626755 -0.066823944 -0.21458563 -0.21733262 0.06965459 0.20918202
-0.11338173 0.034289703 0.06251702 0.23139007 0.06510567 0.1283846 -0.06414007 -0.14924313
0.06890992 0.09244906 -0.04850542 0.018528339 0.1599399 0.14297648 -0.086609095 0.00019806894
0.025019994 0.14206728 -0.17950808 0.060150996 0.090618275 0.18656076 0.16583218 0.17795713
0.057396132 -0.10530184 -0.21737692 0.12727538 -0.05649567 0.014565707 -0.043321162 -0.10261145
-0.031062944 -0.18215063 -0.09107194 -0.06543514
00000000: e0b3 5e3e 94c2 2dbc 91cb 23bd 7256 80bd
00000010: 1e5a 99bd 0c7c 61bd b976 453e ad21 3abe
00000020: 6be2 613e eed6 48be a272 8abb 3b19 0a3e
00000030: 74f3 283e ad4b 93bd df46 403e 2a6d 28be
00000040: d4a6 e93c 1cd7 943d cd78 663d feda 88bd
00000050: 56bc 5bbe 718c 5ebe 11a7 8e3d d033 563e
00000060: ae34 e8bd 5c73 0c3d ec08 803d 85f1 6c3e
00000070: 1f56 853d 4177 033e de5b 83bd 31d3 18be
00000080: a520 8d3d ef55 bd3d 9fad 46bd bec8 973c
00000090: 49c7 233e 6d68 123e 1c60 b1bd bab0 4f39
000000a0: bbf6 cc3c 167a 113e f7d0 37be e460 763d
000000b0: 1396 b93d c909 3f3e e9cf 293e 653a 363e
000000c0: 3518 6b3d 7ea8 d7bd 0e98 5ebe 7a54 023e
000000d0: 0168 67bd 01a5 6e3c 8871 31bd f425 d2bd
000000e0: b777 febc b285 3abe ed83 babd dc02 86bd

model.param_proj.proj.1.weight f4 [1, 60]
0.03970367 -0.06464652 0.1550223 0.11002154 0.16104338 0.1822682 0.11814727 -0.16486214
0.032677405 -0.099472314 -0.024551017 -0.067406185 0.16142063 -0.10677137 -0.13355802 -0.050675154
-0.08306243 0.06775405 0.1850919 -0.051061656 -0.07548429 0.028716672 -0.2040441 0.15150782
0.21602544 -0.17746696 -0.026674189 0.117427014 -0.0842419 -0.10199404 -0.078079574 0.061790347
-0.119448505 0.033066444 0.08707077 -0.1220599 0.06937575 -0.0941885 0.19350627 0.18733835
0.011815636 0.1349799 0.04932419 0.15428652 0.04826027 -0.15570681 0.18221122 0.0778361
0.100827046 0.069728546 -0.11397212 -0.09800241 0.17504057 -0.18351029 -0.14255159 0.091071084
-0.14567466 -0.1479541 0.20302871 0.05483532
00000000: 51a0 223d 6565 84bd 2abe 1e3e f952 e13d
00000010: 8ee8 243e 84a4 3a3e 32f7 f13d 9fd1 28be
00000020: bed8 053d 24b8 cbbd 371f c9bc 410c 8abd
00000030: 734b 253e f3aa dabd 6fc3 08be c090 4fbd
00000040: a31c aabd a3c2 8a3d bb88 3d3e 0726 51bd
00000050: 8297 9abd 3a3f eb3c f0f0 50be de24 1b3e
00000060: c635 5d3e e6b9 35be d483 dabc 937d f03d
00000070: 0487 acbd 40e2 d0bd 2fe8 9fbd e017 7d3d
00000080: 6ba1 f4bd ae70 073d 2952 b23d 8afa f9bd
00000090: e014 8e3d e6e5 c0bd 8226 463e a0d5 3f3e
000000a0: 5f96 413c 2c38 0a3e 2908 4a3d 49fd 1d3e
000000b0: 90ac 453d 9b71 1fbe 9495 3a3e 8868 9f3d
000000c0: 697e ce3d d7cd 8e3d 376a e9bd 7db5 c8bd
000000d0: d63d 333e 1fea 3bbe 0bf9 11be 7a83 ba3d
000000e0: bd2b 15be 4881 17be c2e6 4f3e 009b 603d

model.param_proj.proj.2.weight f4 [1, 60]
-0.0023990786 0.056908883 -0.003591831 -0.016875068 -0.0431609 0.09179672 -0.04596921 -0.08113081
0.015621632 -0.066618055 -0.10767961 -0.056476813 0.057645403 -0.01993308 0.04812484 -0.100004874
-0.095848836 -0.030552432 -0.02867254 -0.10485606 -0.021823604 -0.03261946 0.04663791 -0.05036259
0.15023151 -0.12570177 0.06532208 0.068662025 0.0060034506 -0.015666597 0.08337606 0.021117624
-0.12172859 0.110782675 0.018752063 -0.033645395 0.090367876 0.051696856 -0.057440978 0.05248083
-0.095213845 0.12237106 0.031304292 -0.081787646 0.11315263 -0.02924134 -0.07948323 0.117183045
-0.0755252 -0.061159633 -0.0024484429 -0.1472093 0.031576578 -0.13979366 0.13704681 -0.11122027
0.085919686 0.03325424 0.013686025 0.0578257
00000000: dc39 1dbb 4a19 693d ed64 6bbb 953d 8abc
00000010: 7cc9 30bd ebff bb3d 364a 3cbd e927 a6bd
00000020: e0f1 7f3c 0c6f 88bd 2187 dcbd 3b54 67bd
00000030: 961d 6c3d b34a a3bc 8d1e 453d 5bcf ccbd
00000040: 654c c4bd 1849 fabc ade2 eabc c6be d6bd
00000050: 6ac7 b2bc fc9b 05bd 6507 3f3d 0149 4ebd
00000060: 4ad6 193e f7b7 00be 95c7 853d ad9e 8c3d
00000070: 98b8 c43b 3c57 80bc 11c1 aa3d defe ac3c
00000080: d74c f9bd 07e2 e23d ed9d 993c c1cf 09bd
00000090: cb12 b93d 15c0 533d 3b47 6bbd 24f6 563d
000000a0: 7aff c2bd ae9d fa3d ee38 003d 4880 a7bd
000000b0: 91bc e73d 898b efbc 1bc8 a2bd aafd ef3d
000000c0: f5ac 9abd 8682 7abd 0e76 20bb 09be 16be
000000d0: 7156 013d 1226 0fbe 0056 0c3e 74c7 e3bd
000000e0: a9f6 af3d 9935 083d 593b 603c a4da 6c3d

model.rnn.weight_ih_l0 f4 [240, 24]
-0.08811559 0.079662055 0.0039602807 -0.049961116 -0.12734462 -0.08744547 0.077953 -0.07583668
-0.008793915 -0.012172509 0.11962001 -0.16451155 -0.047301944 -0.050017394 0.029035117 -0.112848066
-0.10459839 0.1392502 0.07887436 -0.017442413 0.0631145 0.06728987 0.056326434 -0.0562138
0.0685954 -0.14679034 0.018623717 0.05911161 -0.00023874862 0.15141894 -0.048015483 -0.16084923
-0.108598545 -0.08273978 -0.08601203 -0.09334201 -0.05890919 -0.015497156 0.05316756 -0.01730636
0.014560695 0.08218677 -0.07733741 -0.11793928 0.046038613 -0.04145005 -0.10468944 -0.12294583
-0.17267555 -0.11513658 0.047778443 0.00080777076 -0.105802506 -0.056467175 0.116671585 0.0027879595
0.04840793 -0.12874185 0.17070611 -0.044472594 -0.00018816767 0.1514531 0.18768187 -0.13313529
0.014508206 0.09128435 0.070651606 0.07818714 -0.08937355 -0.016269235 -0.08479336 -0.06759205
-0.055389572 0.10271877 0.1633966 -0.0139331715 0.041855503 -0.075490355 0.09047895 0.055896252
0.11839458 0.011423612 -0.16414465 0.096800596 0.01606026 -0.053005654 -0.101326406 0.05580333
0.027578542 -0.062428765 0.099649705 -0.0057302476 -0.13393523 0.13685414 -0.027197218 -0.0076019587
0.039033756 0.0858585 0.0096517475 0.020514343 -0.07987197 -0.055593465 -0.09306583 0.060387917
-0.06637268 0.06431601 -0.05892753 0.08344464 -0.14543022 0.108091265 0.08725941 0.13283226
-0.058018826 -0.11869457 0.1723665 -0.024292532 0.030091723 0.073729515 -0.06887775 0.07316227
0.06733926 -0.16508417 -0.0791046 -0.08885099 -0.14492878 -0.017075486 0.13020149 0.06927553
-0.10092941 0.10791324 0.036079377 0.07279295 -0.1536143 0.14056629 -0.00076585176 0.022811586
-0.014361682 0.009963304 -0.02495289 -0.073217146 -0.07243845 0.03105351 -0.03179458 0.09707024
0.14054729 0.09721993 -0.1554547 0.0006141829 -0.034546364 0.01183263 0.07327939 0.08015171
0.061366566 0.0041988357 -0.16019447 0.1314737 -0.021363081 -0.052002765 -0.005048047 0.041557882
0.05484168 0.045694415 0.13171093 -0.0767227 -0.09718636 0.20735718 0.00026581337 0.15096685
0.06755592 -0.06356892 -0.12224971 0.02125297 0.123697884 -0.12209193 -0.15879393 -0.049170006
0.04939134 0.013490436 0.00606688 0.14383057 0.08280977 0.081749365 -0.09435132 0.12693922
-0.037891835 -0.09635266 0.09858707 -0.11625001 -0.042435564 -0.11617689 -0.06984506 0.114568315
-0.14502464 0.09923256 -0.18888864 0.16621195 -0.18019402 -0.052460093 0.064590916 -0.057852134
-0.048477925 -0.0026771226 0.06301024 0.16111912 -0.14448659 0.053502075 0.05075208 0.100875184
0.0679985 -0.007862412 0.13546437 0.006588619 0.0018045167 0.07059375 -0.052832466 0.15291688
-0.022982856 -0.1883926 0.088340424 0.061804254 0.086176015 0.0061671967 -0.17540163 0.10063325
-0.03895756 0.18878366 0.087283984 -0.023533577 -0.1899795 0.005764304 0.043095715 -0.057252362
0.012959587 0.11576847 -0.023812639 0.031779587 0.08531191 0.17829314 0.0030231697 -0.002793523
-0.19306771 -0.044721268 -0.015699804 -0.010575421 0.07908464 0.11347472 -0.11877316 0.09584417
-0.15983006 -0.15363877 0.08456745 0.03156795 0.06209337 -0.13511011 0.06981305 0.08574127
00000000: f275 b4bd dc25 a33d 3ec5 813b 07a4 4cbd
00000010: a166 02be 9c16 b3bd d3a5 9f3d 4350 9bbd
00000020: 5a14 10bc 346f 47bc 56fb f43d b775 28be
00000030: afbf 41bd 0adf 4cbd 0edb ed3c e31c e7bd
00000040: ae37 d6bd 9b97 0e3e e188 a13d 64e3 8ebc
00000050: 2d42 813d 45cf 893d 8cb6 663d 7140 66bd
00000060: bf7b 8c3d 3550 16be c490 983c 041f 723d
00000070: 9858 7ab9 910d 1b3e e2ab 44bd a9b5 24be
00000080: ea68 debd 7973 a9bd 1327 b0bd 192a bfbd
00000090: c34a 71bd c9e7 7dbc 3ac6 593d 11c6 8dbc
000000a0: fb8f 6e3c 8a51 a83d 1363 9ebd 268a f1bd
000000b0: fc92 3c3d 87c7 29bd 6b67 d6bd 06cb fbbd
000000c0: dcd1 30be bacc ebbd 54b3 433d 94c0 533a
000000d0: fcae d8bd 204a 67bd 83f1 ee3d 33b6 363b
000000e0: 6547 463d e7d4 03be 95cd 2e3e e528 36bd
000000f0: e04e 45b9 8516 1b3e ad2f 403e 9e54 08be
00000100: d4b3 6d3c 4af3 ba3d cab1 903d 9420 a03d
00000110: 7b09 b7bd 0f47 85bc 24a8 adbd b36d 8abd
00000120: 2de0 62bd 385e d23d 7051 273e f547 64bc
00000130: ad70 2b3d b09a 9abd 074d b93d 78f3 643d
00000140: dc78 f23d 1a2a 3b3c 8915 28be 643f c63d
00000150: ce90 833c 751c 59bd 3884 cfbd 0892 643d
00000160: 65ec e13c 4eb5 7fbd 2515 cc3d cdc4 bbbb
00000170: 5126 09be 7e23 0c3e b3cc debc da19 f9bb
00000180: dce1 1f3d 95d6 af3d 5d22 1e3c b20d a83c
00000190: ea93 a3bd f9b5 63bd 4c99 bebd 5259 773d
000001a0: 66ee 87bd 1db8 833d fe5d 71bd 06e5 aa3d
000001b0: a9eb 14be f45e dd3d 10b5 b23d 2e05 083e
000001c0: 26a5 6dbd 2416 f3bd d880 303e 2201 c7bc
000001d0: eb82 f63c 80ff 963d c70f 8dbd 1ad6 953d
000001e0: 2ae9 893d d30b 29be 9801 a2bd 82f7 b5bd
000001f0: 3668 14be e4e1 8bbc 8a53 053e 54e0 8d3d
00000200: 14b4 cebd 9e01 dd3d f8c7 133d 7814 953d
00000210: 114d 1dbe 9cf0 0f3e 71c3 48ba 5ddf ba3c
00000220: 434d 6bbc 203d 233c 016a ccbc dff2 95bd
00000230: 9c5a 94bd ee63 fe3c 093b 02bd c3cc c63d
00000240: a1eb 0f3e 3e1b c73d 842f 1fbe 1e01 213a
00000250: 7d80 0dbd a6dd 413c 8113 963d 9426 a43d
00000260: 825b 7b3d 6396 893b 050a 24be 0ba1 063e
00000270: a101 afbc da00 55bd 166a a5bb 9938 2a3d
00000280: aba1 603d 112a 3b3d 3bdf 063e ca20 9dbd
00000290: a409 c7bd 7155 543e de5c 8b39 0e97 1a3e
000002a0: c25a 8a3d 6c30 82bd 0e5e fabd b51a ae3c
000002b0: 5155 fd3d 550b fabd e09a 22be 7d66 49bd
000002c0: 934e 4a3d fd06 5d3c aecc c63b 5248 133e
000002d0: 2b98 a93d 366c a73d 443b c1bd 5bfc 013e
000002e0: 7834 1bbd 8b54 c5bd 05e8 c93d 7c14 eebd
000002f0: ead0 2dbd 26ee edbd ed0a 8fbd cba2 ea3d
00000300: 5781 14be 713a cb3d 066c 41be 7733 2a3e
00000310: c884 38be 65e0 56bd 3e48 843d 5cf6 6cbd
00000320: ca90 46bd aa72 2fbb 830b 813d 69fc 243e
00000330: 4bf4 13be fe24 5b3d 6ae1 4f3d a697 ce3d
00000340: cc42 8b3d 59d1 00bc 2cb7 0a3e 58e5 d73b
00000350: 8885 ec3a 7593 903d db66 58bd 3e96 1c3e
00000360: 8b46 bcbc fde9 40be d3eb b43d 7526 7d3d
00000370: 0d7d b03d 3216 ca3b 7c9c 33be ce18 ce3d
00000380: f691 1fbd 8150 413e f2c1 b23d 7dc9 c0bc
00000390: fc89 42be 7de2 bc3b 2285 303d 7481 6abd
000003a0: 7354 543c 0518 ed3d b912 c3bc 502b 023d
000003b0: 03b8 ae3d 7a92 363e 5f20 463b 8a13 37bb
000003c0: 8bb3 45be a62d 37bd e09c 80bc 8844 2dbc
000003d0: 21f7 a13d 6f65 e83d 583f f3bd f349 c43d
000003e0: 7eaa 23be 7b53 1dbe b331 ad3d 654d 013d
000003f0: 9e55 7e3d 4e5a 0abe 25fa 8e3d 1e99 af3d

model.rnn.weight_hh_l0 f4 [240, 60]
-0.12759706 -0.07899983 -0.11589492 -0.048365187 -0.11214225 0.03298472 0.083736695 0.021197652
-0.049024243 -0.008474946 0.07311624 0.043362632 -0.026513085 -0.012505991 0.16550118 -0.10512123
-0.07065494 0.09084959 -0.13309221 -0.08684304 0.13517754 0.052608956 -0.03038584 0.12681818
0.08657081 0.022910325 -0.011548168 -0.14563705 0.07557338 -0.10951709 0.09713401 -0.08613525
0.02903476 0.06665547 0.0014207654 0.11029028 0.0217014 -0.14353146 -0.01141451 -0.07679418
0.0431245 -0.12673154 0.056044076 0.019801442 -0.019547364 0.044140473 0.02890276 0.022095157
0.1291114 0.09254537 0.04292007 -0.049784806 0.10286918 0.09144386 0.006537589 0.066693805
0.18734021 -0.059119448 -0.14918318 -0.054370426 0.07499621 -0.10583116 0.10399337 -0.110517286
0.004245319 -0.08483643 -0.02146885 -0.026582606 0.09701042 0.010070103 -0.06856915 0.064773284
0.051601842 -0.014954469 0.00092433917 -0.052895743 0.032800723 0.1323753 -0.072349995 -0.032431193
0.14690784 -0.081849985 -0.113549516 0.03665054 0.018274184 0.029524196 -0.050000872 -0.0053551467
0.036787067 -0.057623394 -0.13798021 0.105695926 -0.05883645 0.03476965 -0.08674416 0.015254203
-0.13540491 -0.0026858398 0.11383316 0.057559233 0.12608007 0.00632739 0.0656549 -0.017876407
0.06959499 -0.031156596 0.00873197 -0.0526882 0.013305068 0.059421547 -0.02900351 0.04243076
-0.0593998 -0.012811515 0.015947253 -0.13757567 0.14027618 0.04598288 -0.07711683 0.009782664
-0.059404753 0.13788389 -0.0064510386 0.12855187 0.031875145 -0.07669143 0.028225426 0.06912517
0.02098234 0.008911437 -0.11788443 0.08228898 -0.14197172 -0.03668835 0.008220293 0.078366466
0.08581848 0.031105455 0.037723996 -0.04573949 -0.037735805 -0.04008541 -0.044884037 0.12285638
-0.02297574 -0.086841226 0.06877795 -0.08904891 0.14634168 -0.0585641 -0.041289184 0.10586078
-0.035118803 0.1402886 0.018495565 -0.065028384 0.061582003 -0.116093814 -0.044312373 0.11565998
0.034832224 0.117722504 -0.017325519 0.03505614 0.09328182 -0.10286783 -0.06666615 0.022011306
-0.07942974 -0.10104732 0.12124295 -0.112999745 0.015313213 -0.01971946 0.023058964 0.06634227
0.08414218 -0.022415131 -0.052535567 0.07822628 -0.0021983401 0.07593601 -0.12180889 -0.029184178
0.122332014 -0.054827113 0.08244863 -0.080449276 0.04521462 -0.14203665 0.079333365 0.12904917
-0.062390484 0.08954896 -0.009647788 -0.09710853 -0.0018095935 -0.03742331 -0.08728218 -0.09108465
0.007801312 0.05868194 0.15658972 -0.0062316046 0.117277294 0.1313366 -0.13066776 0.08361591
0.08297367 -0.058186334 -0.027793614 -0.029511306 0.039711513 0.05740631 0.111574724 0.106339134
0.031832304 -0.02002419 0.07523646 -0.077323034 -0.036473703 -0.05332603 0.054047097 0.026500154
-0.009822474 0.10194987 -0.042117473 -0.060024884 0.035860687 0.14320889 0.019548547 0.07489258
0.0170098 0.09088226 0.04611564 -0.14487858 -0.1003114 0.055750072 0.017742792 0.042048797
0.03382046 -0.020513793 -0.040296942 -0.036075193 -0.07472424 0.056416463 0.10146405 0.016316237
-0.039017104 -0.09665755 -0.08727793 0.03819156 -0.080578215 -0.18302733 -0.073605746 -0.05397759
00000000: cea8 02be aaca a1bd 515a edbd 931a 46bd
00000010: d6aa e5bd fc1a 073d 257e ab3d b3a6 ad3c
00000020: a5cd 48bd 80da 0abc f8bd 953d 049d 313d
00000030: f831 d9bc eee5 4cbc 2479 293e cd49 d7bd
00000040: 8ab3 90bd 5a0f ba3d 5349 08be c4da b1bd
00000050: fb6b 0a3e 7d7c 573d baeb f8bc a0dc 013e
00000060: 094c b13d 6fae bb3c 8734 3dbc e121 15be
00000070: 37c6 9a3d 7f4a e0bd 32ee c63d ae67 b0bd
00000080: 4eda ed3c aa82 883d fa38 ba3a dfdf e13d
00000090: 22c7 b13c e9f9 12be ed03 3bbc 4446 9dbd
000000a0: 51a3 303d eac5 01be 798e 653d a236 a23c
000000b0: cb21 a0bc a4cc 343d 7bc5 ec3c e700 b53c
000000c0: c735 043e 6d88 bd3d f5cc 2f3d 27eb 4bbd
000000d0: 14ad d23d eb46 bb3d 4539 d63b c396 883d
000000e0: 1dd6 3f3e 3c27 72bd 7ac3 18be 86b3 5ebd
000000f0: 9d97 993d 02be d8bd 7afa d43d e356 e2bd
00000100: 511c 8b3b b9be adbd 71df afbc c4c3 d9bc
00000110: 66ad c63d 13fd 243c fc6d 8cbd dba7 843d
00000120: 745c 533d 9703 75bc 5a4f 723a 35a9 58bd
00000130: 0d5a 063d 648d 073e 3c2c 94bd 92d6 04bd
00000140: 026f 163e f7a0 a7bd a68c e8bd e01e 163d
00000150: beb3 953c badc f13c b7cd 4cbd 3a7a afbb
00000160: 09ae 163d 8206 6cbd af4a 0dbe 1b77 d83d
00000170: 7dfe 70bd 9f6a 0e3d eca6 b1bd c4ec 793c
00000180: 96a7 0abe ea04 30bb 5c21 e93d 3bc3 6b3d
00000190: 221b 013e ff55 cf3b 1476 863d 8b71 92bc
000001a0: d187 8e3d 1e3c ffbc 8910 0f3c 95cf 57bd
000001b0: 80fd 593c 0264 733d c598 edbc e0cb 2d3d
000001c0: 344d 73bd 63e7 51bc d0a3 823c a3e0 0cbe
000001d0: 8fa4 0f3e 8b58 3c3d 6eef 9dbd 7747 203c
000001e0: 6652 73bd 6f31 0d3e 3c63 d3bb 1aa3 033e
000001f0: 838f 023d 6510 9dbd 0239 e73c 7f91 8d3d
00000200: 28e3 ab3c 4701 123c 646d f1bd 2087 a83d
00000210: 0961 11be 8646 16bd 68ae 063c 997e a03d
00000220: 99c1 af3d ded0 fe3c 7a84 1a3d 5559 3bbd
00000230: dc90 1abd 9930 24bd 53d8 37bd 209c fb3d
00000240: 9e37 bcbc d0d9 b1bd 74db 8c3d 465f b6bd
00000250: 98da 153e e9e0 6fbd d91e 29bd 89cd d83d
00000260: bcd8 0fbd d1a7 0f3e 0384 973c 9a2d 85bd
00000270: 693d 7c3d 98c2 edbd e480 35bd 24df ec3d
00000280: 3cac 0e3d 7f18 f13d 3fee 8dbc 0797 0f3d
00000290: 8a0a bf3d 5eac d2bd 4388 88bd 0e51 b43c
000002a0: 0fac a2bd e6f1 cebd 394e f83d 696c e7bd
000002b0: 45e4 7a3c b48a a1bc 27e6 bc3c 75de 873d
000002c0: bc52 ac3d f09f b7bc 892f 57bd 1a35 a03d
000002d0: 0712 10bb 5784 9b3d f076 f9bd a813 efbc
000002e0: 3589 fa3d 6592 60bd d4da a83d 97c2 a4bd
000002f0: f732 393d 0e72 11be 8879 a23d 7725 043e
00000300: 2a8d 7fbd 7265 b73d c111 1ebc d6e0 c6bd
00000310: e22f edba 2f49 19bd 00c1 b2bd 978a babd
00000320: 26a2 ff3b 795c 703d 0e59 203e 7d32 ccbb
00000330: 142f f03d 1a7d 063e c5cd 05be d13e ab3d
00000340: 19ee a93d cb54 6ebd 6faf e3bc b2c1 f1bc
00000350: 8aa8 223d e122 6b3d 4a81 e43d 55c8 d93d
00000360: 9762 023d c509 a4bc 9315 9a3d 8a5b 9ebd
00000370: 7365 15bd 656c 5abd 7d60 5d3d da16 d93c
00000380: 71ee 20bc 18cb d03d 5f83 2cbd a7dc 75bd
00000390: a8e2 123d 5aa5 123e 4624 a03c 4861 993d
000003a0: 2358 8b3c 7a20 ba3d c1e3 3c3d 0d5b 14be
000003b0: 1070 cdbd 305a 643d 5559 913c 5c3b 2c3d
000003c0: 5387 0a3d 8b0c a8bc 680e 25bd 95c3 13bd
000003d0: 0609 99bd f314 673d 62cc cf3d a1a9 853c
000003e0: 66d0 1fbd 65f4 c5bd c5be b2bd c16e 1c3d
000003f0: 3106 a5bd 846b 3bbe 9cbe 96bd 9b17 5dbd

model.rnn.bias_ih_l0 f4 [240]
-0.05039374 -0.025146892 -0.05295082 -0.051600732 0.09067484 0.13246194 -0.0029686603 0.09805569
-0.00068061944 -0.020492455 -0.0890294 0.15474726 0.03800294 -0.04956074 -0.018572062 -0.024136506
0.1405922 -0.025645347 0.02123642 -0.051893424 0.17765279 -0.08677121 0.15448125 -0.036561314
0.024109624 0.14900042 0.07858422 0.012361341 -0.09702643 0.2016211 -0.08441034 -0.019617401
0.13056843 0.12309172 0.15285939 -0.0500205 -0.06141463 -0.05638162 0.032424275 0.151477
0.03426665 -0.06563143 -0.06915799 0.061402984 0.07411498 -0.045895066 0.08616371 0.07133314
0.048769813 0.048741594 0.02038448 -0.007471206 -0.08316261 0.14292656 0.15677983 -0.069745235
-0.017974727 0.050962977 0.010246493 -0.04942015 0.029346801 0.1254039 0.042355362 0.04795416
-0.128556 -0.12445687 0.03119765 -0.12015136 -0.03442563 -0.08782373 0.11844767 -0.125091
0.009075018 0.011615174 -0.07134908 0.020914163 0.019676141 0.02552907 -0.07857011 0.09383985
-0.09846753 -0.019513855 -0.042516544 0.121665455 0.0818705 -0.14104626 0.058657262 -0.082909934
-0.08720886 -0.063488275 0.1617271 -0.10202252 0.107100055 0.12679508 0.0705505 -0.028434852
-0.0016342212 0.12496089 -0.041555 0.10382371 0.029506814 0.0735377 -0.054878443 -0.0581864
-0.122899674 -0.060570046 0.12809987 -0.0037715454 0.056119855 -0.05388766 0.05910441 0.12599912
-0.10208684 0.010422194 -0.048336323 0.02317201 0.029282387 0.11330312 0.043557838 0.086701356
0.0077261315 0.053906284 -0.08827457 0.110820405 -0.093640484 -0.039040826 0.00028919816 -0.0295777
0.044780284 -0.03240112 0.054777868 0.095731154 -0.11450438 -0.008312358 0.0064682458 0.023784561
-0.061761174 0.1086632 -0.042279862 0.12128477 -0.11424296 -0.04102382 0.12609017 0.025697235
0.080717735 -0.022043852 0.06907008 -0.05576901 0.10245518 0.019079577 -0.12357459 -0.08317055
0.021033045 -0.0956093 0.070622884 0.12927753 0.11169296 -0.03783181 0.052231655 0.07288802
-0.01860059 0.07643027 0.1372637 -0.031881075 0.103916235 0.0852635 0.06511738 -0.052050684
-0.11233394 0.14508675 -0.09365335 0.01958887 -0.1625146 -0.017204244 -0.006453119 -0.09981202
-0.027994866 0.049392413 -0.05491076 0.11243179 -0.07600219 -0.00040006725 0.16336165 0.00039128086
0.17235814 -0.004367922 -0.09243043 -0.041209523 -0.023538444 0.022223214 0.12556319 0.068094306
-0.0648918 -0.022354463 0.10697595 -0.05804165 0.12742747 0.090629354 -0.012261584 0.01973893
-0.013444817 0.08926364 0.09430038 -0.017184045 -0.027190438 0.050423753 -0.042427592 0.101811215
-0.05278923 -0.04465042 0.10065419 0.041456617 0.20526099 -0.1078558 0.13857451 -0.09032403
0.030317316 2.2226319e-05 0.08605127 0.13653597 -0.12042118 -0.10169266 -0.024888448 -0.07535173
0.022465814 0.11470939 -0.09729398 0.040178936 0.07051406 -0.005367968 -0.022486713 -0.033259325
0.14950302 -0.007362463 0.14554359 -0.011511396 -0.054865632 0.0024045669 -0.071827896 -0.03446289
00000000: ab69 4ebd db00 cebc f6e2 58bd 4a5b 53bd
00000010: bbb3 b93d 1aa4 073e db8d 42bb 6cd1 c83d
00000020: 996b 32ba cbdf a7bc 0c55 b6bd 1176 1e3e
00000030: f9a8 1b3d 3400 4bbd 7024 98bc ecb9 c5bc
00000040: 67f7 0f3e 3116 d2bc 00f8 ad3c 338e 54bd
00000050: 9dea 353e 1bb5 b1bd 5530 1e3e 51c1 15bd
00000060: 8c81 c53c 9193 183e c3f0 a03d 3987 4a3c
00000070: cbb5 c6bd c375 4e3e 54df acbd acb4 a0bc
00000080: bbb3 053e 8317 fc3d 2c87 1c3e 4ce2 4cbd
00000090: e88d 7bbd 6af0 66bd 51cf 043d c91c 1b3e
000000a0: 305b 0c3d c569 86bd b4a2 8dbd b281 7b3d
000000b0: 98c9 973d 77fc 3bbd 9976 b03d 1c17 923d
000000c0: dbc2 473d 44a5 473d 5afd a63c 05d1 f4bb
000000d0: 2951 aabd 575b 123e e48a 203e 97d6 8ebd
000000e0: bc3f 93bc 8ebe 503d e8e0 273c c96c 4abd
000000f0: b468 f03c e169 003e d17c 2d3d 956b 443d
00000100: 2fa4 03be 3ee3 febd 3792 ff3c eb11 f6bd
00000110: e401 0dbd eedc b3bd b194 f23d db17 00be
00000120: 62af 143c 924d 3e3c 771f 92bd 2e54 ab3c
00000130: dc2f a13c 5722 d13c 5ee9 a0bd 1b2f c03d
00000140: 58a9 c9bd 85db 9fbc d425 2ebd bd2b f93d
00000150: b9ab a73d 6e6e 10be 9942 703d afcc a9bd
00000160: 8f9a b2bd 2406 82bd ca9b 253e 2ff1 d0bd
00000170: 4657 db3d 92d6 013e c87c 903d 35f0 e8bc
00000180: 5d33 d6ba 7feb ff3d 9335 2abd 86a1 d43d
00000190: 46b8 f13c ef9a 963d 38c8 60bd dd54 6ebd
000001a0: d3b2 fbbd 4c18 78bd 9d2c 033e 082c 77bb
000001b0: efdd 653d 4fb9 5cbd 7717 723d ea05 013e
000001c0: e812 d1bd dac1 2a3c 4ffc 45bd 3ad3 bd3c
000001d0: 9ee1 ef3c 770b e83d b469 323d 7b90 b13d
000001e0: 7d2b fd3b d6cc 5c3d 4cc9 b4bd cff5 e23d
000001f0: 95c6 bfbd 46e9 1fbd 859f 9739 ef4c f2bc
00000200: 886b 373d 09b7 04bd c25e 603d b20e c43d
00000210: 4681 eabd 8e30 08bc 94f3 d33b d7d7 c23c
00000220: 49f9 7cbd d08a de3d a62d 2dbd 2664 f83d
00000230: 37f8 e9bd 9808 28bd c81d 013e 0283 d23c
00000240: 574f a53d 4f95 b4bc 9d74 8d3d 0c6e 64bd
00000250: 05d4 d13d c64c 9c3c ad14 fdbd 5255 aabd
00000260: 7e4d ac3c cfce c3bd bba2 903d 5461 043e
00000270: 47bf e43d 87f5 1abd dcf0 553d 5046 953d
00000280: 4460 98bc 7987 9c3d db8e 0c3e bb95 02bd
00000290: 09d2 d43d a19e ae3d 435c 853d 1933 55bd
000002a0: 560f e6bd 9f91 143e 54cd bfbd d778 a03c
000002b0: 3a6a 26be eaef 8cbc b074 d3bb 3f6a ccbd
000002c0: 7d55 e5bc b34f 4a3d 1bea 60bd a342 e63d
000002d0: 09a7 9bbd 1ec0 d1b9 4748 273e d424 cd39
000002e0: a77e 303e c920 8fbb 2a4c bdbd 51cb 28bd
000002f0: b2d3 c0bc 750d b63c a393 003e 0775 8b3d
00000300: fee5 84bd b520 b7bc 3516 db3d 15bd 6dbd
00000310: 597c 023e e29b b93d d0e4 48bc 89b3 a13c
00000320: a647 5cbc dbcf b63d 8f20 c13d 8ec5 8cbc
00000330: 7bbe debc 2389 4e3d 8ec8 2dbd 6682 d03d
00000340: 8539 58bd 5ce3 36bd c923 ce3d 6ace 293d
00000350: f02f 523e 80e3 dcbd 7ae6 0d3e cefb b8bd
00000360: 055c f83c a872 ba37 a63b b03d 16d0 0b3e
00000370: 619f f6bd 3e44 d0bd dce2 cbbc 0252 9abd
00000380: 3a0a b83c c2ec ea3d 1142 c7bd ab92 243d
00000390: ad69 903d c8e5 afbb 0e36 b8bc ee3a 08bd
000003a0: 5217 193e d140 f1bb 6109 153e 4b9a 3cbc
000003b0: c9ba 60bd f095 1d3b 811a 93bd f628 0dbd

model.rnn.bias_hh_l0 f4 [240]
-0.010573415 -0.070709415 0.11690389 0.13791935 0.15339744 0.17956509 0.12511025 -0.08093657
0.09898416 0.040072992 -0.07396679 -0.061156705 0.0600204 -0.07816424 0.04859641 0.016199553
0.027234461 0.16203023 0.1703467 -0.045339823 0.185327 0.036835004 0.07315749 -0.023798343
-0.019652102 0.05493904 -0.0575914 0.18077187 0.009858004 0.17436284 0.13800414 0.20235625
0.17798114 0.13982506 0.17200944 0.04673182 0.06669042 0.13597049 -0.058838595 -0.033909228
0.046716623 0.11409179 -0.032176655 0.149434 0.053261362 -0.084194034 0.12282046 0.021042293
0.19933105 -0.039320037 -0.005997763 -0.002120762 -0.11258449 -0.028732514 -0.026828233 0.12735961
0.19039129 -0.019317577 -0.024984103 0.07512503 0.05902625 -0.07588298 0.13244565 -0.0408438
-0.120471254 0.07908903 -0.055985704 -0.023913765 0.016350033 -0.07494868 0.12609494 -0.14646088
-0.018987462 0.082742274 -0.03193249 -0.030661093 -0.050817877 -0.018102214 -0.0641671 -0.041170083
-0.02286881 0.007870574 -0.08524938 0.072143905 0.023433654 0.040341336 0.06263408 -0.012340142
0.027694138 -0.08477261 -0.018363012 0.09798598 -0.024686674 -0.041625846 0.14032263 0.011471422
0.044816382 0.11539042 -0.08286293 -0.09189499 -0.12059794 -0.023922728 -0.025004646 0.0646664
0.0228047 -0.024607461 -0.010934633 0.12233526 -0.056601703 0.046308115 -0.12081234 0.05118046
0.0227836 -0.107627675 -0.07458621 -0.015487679 0.0024383226 0.040989857 -0.05992347 0.12339742
-0.13992846 -0.09464327 0.09258079 -0.033885457 -0.13294923 0.12279934 -0.042127565 -0.001695276
-0.046672273 -0.10585907 -0.03593083 -0.13453212 -0.12673712 -0.09176511 -0.021166494 0.11295473
0.0982352 -0.0030503157 -0.08903145 -0.08355646 -0.080585204 0.06561361 0.09495531 0.11398245
0.081134714 0.01973841 -0.09165802 -0.0047417823 0.08269473 -0.053206827 -0.09091068 -0.04929636
0.060928784 -0.011941114 0.011880648 0.04522342 -0.12583019 0.031067705 0.07141653 -0.07025562
0.008279039 -0.03558132 0.111513704 -0.038164195 0.09511745 0.0970624 0.048935205 0.12843606
0.021925353 -0.09649228 -0.06610885 -0.030889772 -0.14335957 0.0056480966 -0.08863019 -0.07763012
0.027239768 -0.07803371 0.041186526 -0.044696942 0.12732679 -0.0041092606 -0.00497528 0.099533044
-0.0040640878 -0.03732581 0.105646394 -0.06943964 0.060969155 -0.041747067 0.10731616 0.115678966
0.15684514 -0.0389542 0.049260177 0.14165343 -0.04757548 0.18418825 -0.056321498 0.08495771
-0.06179307 0.08971778 0.058727838 0.11462154 0.10334431 0.10186498 -0.053232808 0.083719954
-0.05203406 0.15999496 0.04438019 -0.027128547 0.19279839 -0.094868034 0.1142643 -0.04432553
0.17551532 0.11652533 -0.046738025 0.00574694 0.040048752 -0.026079461 -0.0034179345 0.14176273
0.13395543 0.020255102 -0.0738892 0.15215598 0.05694146 0.082036234 0.10802036 0.017169014
0.108751655 0.15595606 0.005239264 0.13125394 0.0765642 0.047358286 0.16080813 0.12691611
00000000: 1e3c 2dbc 19d0 90bd 4f6b ef3d bb3a 0d3e
00000010: 3814 1d3e e9df 373e e71c 003e 13c2 a5bd
00000020: 35b8 ca3d 9423 243d e77b 97bd 747f 7abd
00000030: f3d7 753d 9314 a0bd 070d 473d edb4 843c
00000040: ce1a df3c 41eb 253e 5e6f 2e3e 40b6 39bd
00000050: 5cc6 3d3e 4de0 163d 98d3 953d bef4 c2bc
00000060: 72fd a0bc c207 613d f6e4 6bbd 431c 393e
00000070: 7783 213c 2c8c 323e f550 0d3e 7a36 4f3e
00000080: b040 363e 4d2e 0f3e 3e23 303e dd69 3f3d
00000090: fd94 883d d93b 0b3e bd00 71bd 67e4 0abd
000000a0: ee59 3f3d f5a8 e93d abcb 03bd 3a05 193e
000000b0: 9628 5a3d ec6d acbd 4b89 fb3d e360 ac3c
000000c0: 701d 4c3e 0c0e 21bd e288 c4bb 7bfc 0abb
000000d0: b292 e6bd 7360 ebbc e2c6 dbbc 8f6a 023e
000000e0: eff5 423e e53f 9ebc 76ab ccbc 27db 993d
000000f0: 82c5 713d 8968 9bbd d59f 073e d44b 27bd
00000100: a2b9 f6bd 6ef9 a13d 4451 65bd cde6 c3bc
00000110: 81f0 853c b27e 99bd 081f 013e d7f9 15be
00000120: 988b 9bbc c874 a93d a5cb 02bd f92c fbbc
00000130: 6826 50bd 184b 94bc 0a6a 83bd f6a1 28bd
00000140: 5f57 bbbc 94f3 003c 3a97 aebd 2fc0 933d
00000150: eff7 bf3c f53c 253d 4c46 803d 4f2e 4abc
00000160: d1de e23c 439d adbd 076e 96bc e0ac c83d
00000170: b53b cabc dd7f 2abd bcb0 0f3e a2f2 3b3c
00000180: 6291 373d d051 ec3d 0ab4 a9bd 7133 bcbd
00000190: 0efc f6bd 99f9 c3bc 8bd6 ccbc d16f 843d
000001a0: ecd0 ba3c 9695 c9bc 2d27 33bc e98a fa3d
000001b0: 30d7 67bd 94ad 3d3d 766c f7bd 9aa2 513d
000001c0: aca4 ba3c e66b dcbd a8c0 98bd 09c0 7dbc
000001d0: 44cc 1f3b fbe4 273d 5072 75bd c9b7 fc3d
000001e0: 6849 0fbe 55d4 c1bd ff9a bd3d 7acb 0abd
000001f0: d823 08be 387e fb3d f48d 2cbd 0634 deba
00000200: 6d2b 3fbd a4cc d8bd 352c 13bd cac2 09be
00000210: 60c7 01be 59ef bbbd 5b65 adbc cf54 e73d
00000220: 892f c93d cee7 47bb 1f56 b6bd a61f abbd
00000230: db09 a5bd 6e60 863d ee77 c23d a16f e93d
00000240: f529 a63d 72b2 a13c 33b7 bbbd f460 9bbb
00000250: db5b a93d 67ef 59bd 612f babd fbea 49bd
00000260: 7690 793d aaa4 43bc 0da7 423c 313c 393d
00000270: a1d9 00be b381 fe3c d442 923d 2ee2 8fbd
00000280: cea4 073c b8bd 11bd 4c61 e43d 0f52 1cbd
00000290: f0cc c23d a7c8 c63d 4870 483d be84 033e
000002a0: cc9c b33c bf9d c5bd 1464 87bd 8c0c fdbc
000002b0: dacc 12be ab13 b93b bf83 b5bd 8afc 9ebd
000002c0: ef25 df3c 23d0 9fbd 34b3 283d 2414 37bd
000002d0: f461 023e faa6 86bb ac07 a3bb fbd7 cb3d
000002e0: 0a2c 85bb f3e2 18bd 235d d83d 5f36 8ebd
000002f0: cbba 793d f9fe 2abd 93c8 db3d 18e9 ec3d
00000300: 039c 203e 708e 1fbd 0ac5 493d 990d 113e
00000310: 82de 42bd d89b 3c3e 5fb1 66bd 4ffe ad3d
00000320: bb1a 7dbd f5bd b73d 9a8c 703d b3be ea3d
00000330: 2ea6 d33d 969e d03d a50a 5abd 5e75 ab3d
00000340: ab21 55bd b8d5 233e 01c8 353d b03c debc
00000350: f16c 453e 2c4a c2bd 6703 ea3d b08e 35bd
00000360: 4aba 333e d5a4 ee3d 5f70 3fbd d450 bc3b
00000370: 290a 243d 98a4 d5bc 6dff 5fbb 402a 113e
00000380: 9d2b 093e 07ee a53c 3953 97bd c7ce 1b3e
00000390: 733b 693d 9d02 a83d c739 dd3d 08a6 8c3c
000003a0: 30b9 de3d f2b2 1f3e 22ae ab3b 6f67 063e
000003b0: b1cd 9c3d c3fa 413d e3aa 243e 4cf6 013e

model.rnn.weight_ih_l1 f4 [240, 60]
0.016411498 -0.17564803 -0.103973106 0.1971511 0.06378763 0.05686746 0.07716948 -0.0035397906
0.03535577 -0.13669159 -0.06935933 0.018664163 -0.15336443 -0.08877796 0.19758065 0.14653651
0.024060387 0.022546547 -0.18144076 0.1227565 0.14945638 0.19037041 0.16904552 0.053630598
0.0032791537 0.05484051 -0.032690026 -0.09729828 0.16089682 0.16358419 0.05027099 0.016522165
0.17189288 0.06122788 0.15748288 0.08631855 0.031857744 -0.030591365 -0.020479377 -0.13332278
0.05230402 -0.03167497 0.008189034 0.034257006 0.1897042 0.16970968 0.13588136 0.086622484
0.00559083 0.064180404 0.054613136 -0.19477756 -0.14689517 -0.020284103 0.1517759 -0.07113552
-0.08114678 -0.11256825 -0.17092185 -0.045985177 -0.10653612 0.08470775 -0.050587565 0.031000396
0.041014697 0.15271328 0.10485154 0.09976991 0.08339123 0.055427052 -0.00040267443 -0.05273401
-0.08809505 -0.03381032 0.042227555 0.0009369617 0.107190974 0.019164093 -0.043756314 -0.027975768
-0.09625682 0.06417658 0.034272138 -0.013568155 -0.085393295 -0.12757516 0.04496967 -0.0015742173
0.006183961 0.09765403 -0.084643945 -0.101513855 -0.07693926 -0.02256973 0.046474807 0.049818583
-0.15232994 -0.09245747 -0.047481224 -0.01876931 0.08815769 0.084331185 -0.08419556 0.06008406
0.13522348 0.10706346 0.1376461 0.03311542 -0.0012492428 -0.029307177 -0.011385058 -0.08173786
0.0734198 -0.052574154 -0.12228608 -0.046434764 0.037710752 -0.0966019 0.02023018 0.12033983
-0.004269773 0.045592286 -0.16827379 -0.067389585 -0.056928243 0.0068793907 -0.028014494 0.10718183
0.080812305 -0.0060525476 -0.06455825 -0.019497396 -0.16164078 -0.059253607 -0.14660715 0.10953461
-0.006025237 0.027838413 0.085354805 0.08375505 0.03616063 0.123021625 0.09130108 0.05850482
-0.0072322907 -0.08301701 0.0789871 -0.17768356 0.044028707 0.117978565 -0.028153807 -0.09336749
0.05774428 0.030920234 -0.07512463 0.052551784 -0.002605652 0.07284111 0.113467254 0.110323384
-0.12921861 0.026563589 0.057068594 0.08556915 0.037430286 0.11145042 0.017617231 0.007646526
0.05612774 0.11267344 -0.053560894 0.027416151 -0.16692406 0.055588398 0.047304813 0.0074210046
0.19779834 0.06983109 0.026477968 -0.12431673 -0.09470451 0.02929277 -0.063546844 -0.013310155
-0.11546378 0.15553568 -0.024024444 0.03643599 0.024927888 -0.09733347 -0.07090121 -0.035562053
-0.16031022 0.047853507 0.029400006 0.015391377 -0.036579426 -0.00902477 -0.18376364 0.16076846
-0.074135125 0.065620005 0.022998126 0.07847886 0.0072549595 -0.038973298 -0.042000614 -0.12469282
0.12956455 -0.122016706 -0.16134699 -0.14513347 -0.0667507 -0.033275936 -0.047747727 0.16675675
-0.108310804 0.05893978 0.0045061586 0.04406966 0.039601944 -0.05315415 0.15219921 -0.063881084
-0.02132176 -0.01635162 0.13716806 0.04943405 0.016609062 -0.020395674 0.037003275 0.028998753
0.05164783 0.18662108 0.018886425 0.049065758 0.027401427 0.003657193 -0.11775752 -0.11892111
0.028422823 -0.0719092 -0.037150636 -0.035604883 -0.19039077 0.17492588 0.043798678 0.05607566
-0.066313386 -0.002380773 0.0015969134 0.11373375 0.061349656 -0.05340397 0.032489683 0.0026640533
00000000: 6871 863c 14dd 33be daef d4bd fae1 493e
00000010: 17a3 823d dbed 683d 080b 9e3d d5fb 67bb
00000020: 36d1 103d e1f8 0bbe 440c 8ebd 96e5 983c
00000030: 910b 1dbe 38d1 b5bd 9552 4a3e ab0d 163e
00000040: 4a1a c53c 89b3 b83c 9bcb 39be c367 fb3d
00000050: 180b 193e 76f0 423e 451a 2d3e c2ab 5b3d
00000060: 12e7 563b 71a0 603d fae5 05bd 5244 c7bd
00000070: 23c2 243e 9d82 273e f4e8 4d3d 7e59 873c
00000080: b004 303e 16ca 7a3d 3143 213e c8c7 b03d
00000090: 447d 023d be9a fabc 5ec4 a7bc c485 08be
000000a0: bd3c 563d 9dbd 01bd 4c2b 063c 1351 0c3d
000000b0: d141 423e 60c8 2d3e 7c24 0b3e 2167 b13d
000000c0: 4833 b73b 0471 833d 06b2 5f3d c573 47be
000000d0: b06b 16be d92a a6bc 246b 1b3e 80af 91bd
000000e0: 4830 a6bd 2f8a e6bd 2306 2fbe f45a 3cbd
000000f0: 9c2f dabd 427b ad3d e834 4fbd 8bf4 fd3c
00000100: 07ff 273d df60 1c3e 67bc d63d 2b54 cc3d
00000110: 05c9 aa3d 7a07 633d 0c1e d3b9 9eff 57bd
00000120: 2d6b b4bd b17c 0abd cdf6 2c3d 6f9e 753a
00000130: f186 db3d 04fe 9c3c d239 33bd 702d e5bc
00000140: 4c22 c5bd 036f 833d f160 0c3d f74c 5ebc
00000150: aee2 aebd 10a3 02be 1e32 383d f855 ceba
00000160: d3a2 ca3b d6fe c73d ce59 adbd 7fe6 cfbd
00000170: 5592 9dbd 28e4 b8bc 5e5c 3e3d 920e 4c3d
00000180: 61fc 1bbe 585a bdbd ac7b 42bd 19c2 99bc
00000190: 058c b43d d4b5 ac3d b96e acbd b41a 763d
000001a0: 0678 0a3e 1644 db3d 19f3 0c3e 09a4 073d
000001b0: a2bd a3ba 9b15 f0bc 6588 3abc 2e66 a7bd
000001c0: 1f5d 963d ff57 57bd 2071 fabd 6132 3ebd
000001d0: 9776 1a3d 38d7 c5bd c3b9 a53c bb74 f63d
000001e0: 74e9 8bbb fabe 3a3d f74f 2cbe 8d03 8abd
000001f0: 972d 69bd 836c e13b a77e e5bc 2682 db3d
00000200: ec80 a53d 7354 c6bb 1e37 84bd 01b9 9fbc
00000210: 2985 25be e9b3 72bd 2f20 16be ae53 e03d
00000220: 5a6f c5bb 620d e43c 80ce ae3d c587 ab3d
00000230: 2b1d 143d c3f2 fb3d 10fc ba3d c0a2 6f3d
00000240: dafc ecbb d204 aabd fdc3 a13d aef2 35be
00000250: 7257 343d bf9e f13d d0a2 e6bc 7437 bfbd
00000260: 4485 6c3d 6e4c fd3c f1da 99bd 8a40 573d
00000270: 96c3 2abb b82d 953d 8561 e83d 3af1 e13d
00000280: e251 04be e29b d93c c2c0 693d e13e af3d
00000290: 8050 193d 1e40 e43d 0352 903c b68f fa3b
000002a0: 33e6 653d 55c1 e63d ab62 5bbd d697 e03c
000002b0: 24ee 2abe a9b0 633d b1c2 413d e62b f33b
000002c0: a68b 4a3e 9a03 8f3d 53e8 d83c c599 febd
000002d0: 70f4 c1bd 64f7 ef3c d924 82bd d612 5abc
000002e0: 4678 ecbd bf44 1f3e e9ce c4bc e83d 153d
000002f0: 9235 cc3c c556 c7bd a734 91bd 84a9 11bd
00000300: 5d28 24be 0a02 443d 48d8 f03c 1d2c 7c3c
00000310: 4fd4 15bd a1dc 13bc 892c 3cbe 7da0 243e
00000320: 28d4 97bd c863 863d 9166 bc3c 86b9 a03d
00000330: 03bb ed3b 77a2 1fbd d608 2cbd f35e ffbd
00000340: 92ac 043e e5e3 f9bd 2538 25be de9d 14be
00000350: 97b4 88bd 594c 08bd 1f93 43bd 48c2 2a3e
00000360: 0ed2 ddbd d76a 713d 66a8 933b 6382 343d
00000370: a635 223d 2ab8 59bd 1cda 1b3e 16d4 82bd
00000380: f9aa aebc d5f3 85bc c975 0c3e 5c7b 4a3d
00000390: ba0f 883c d414 a7bc bf90 173d cb8e ed3c
000003a0: ad8c 533d 9919 3f3e b4b7 9a3c 2df9 483d
000003b0: f578 e03c 84ad 6f3b db2a f1bd e98c f3bd
000003c0: fbd6 e83c 2145 93bd 442b 18bd 6dd6 11bd
000003d0: ccf5 42be c51f 333e 3e66 333d 97af 653d
000003e0: 50cf 87bd be06 1cbb 864f d13a 3eed e83d
000003f0: c749 7b3d 1fbe 5abd e713 053d 6697 2e3b

model.rnn.weight_hh_l1 f4 [240, 60]
0.06949549 0.15712786 -0.050245903 -0.0014193226 -0.069984466 -0.020257983 0.024948554 -0.07603872
0.05704775 -0.09473469 -0.17323084 0.17270981 0.029694904 -0.046095803 0.03733356 -0.16189037
-0.1482902 -0.037918154 0.07919421 -0.14792792 0.0013595702 -5.8278994e-05 0.025434364 0.13850029
0.16479252 -0.029630778 0.002784117 0.055125546 -0.013922194 -0.006461296 0.0631422 -0.053238448
0.049151663 -0.046804644 0.12584025 -0.058873903 0.059441898 -0.0061325068 0.021338772 0.041177195
-0.09727218 -0.010586009 -0.08763354 -0.07404548 -0.009420783 0.118103236 0.16930103 0.12319923
-0.0077488935 -0.12163051 -0.16161884 -0.14154229 -0.083595745 -0.041893087 0.015409673 -0.14733997
0.11674059 -0.06256666 -0.14247808 0.18305999 -0.12657271 0.10500686 0.07360706 0.019671805
0.069297455 0.087340385 0.084644236 0.00066398375 -0.03860867 -0.072123274 -0.035601553 -0.07384949
0.10482716 -0.059398253 -0.08406659 -0.029842101 -0.051129278 -0.07691069 0.12202959 0.04180711
-0.061295778 0.049352538 -0.13479745 0.048931763 0.06976007 0.020570433 0.09220111 -0.13620035
0.06412801 0.07111245 -0.10916494 0.10517405 -0.02962842 0.11432535 0.101743765 -0.124463044
0.13087076 0.0057671163 0.09936411 0.077992104 -0.08929989 0.0428146 0.06855761 -0.12216007
-0.10172023 0.0043711187 0.10683768 0.08267878 0.053970687 0.10932593 0.02906377 -0.16416056
0.08475963 -0.016122444 -0.008473844 0.03222533 -0.118128896 -0.01374729 -0.06308901 -0.10614873
0.050009027 -0.034543857 -0.0025065893 0.028575536 -0.043546334 0.013565799 0.1044246 0.05993903
0.03995244 0.0081380885 -0.14719677 0.00022964485 -0.07624475 -0.052303404 0.054757264 0.032199148
-0.05873565 0.08866178 0.107126206 -0.09708294 -0.0878259 -0.004142734 -0.016038598 0.19560918
0.07767714 -0.14416565 0.18235047 0.080303445 -0.07490283 0.11238463 0.11893361 0.032974403
0.017163157 0.05410544 0.044712547 0.07564248 -0.072623484 0.009322783 0.027304726 -0.089267366
-0.03380007 0.117610574 0.0066933776 -0.03274085 -0.04687332 0.107516274 0.011362343 0.10825623
-0.15235983 0.05959841 -0.098435 -0.10961222 0.0013236603 -0.12803558 0.17761077 -0.09746456
0.05072628 -0.110103585 0.057893034 0.070848264 0.049073465 -0.059049826 -0.06453559 -0.05925775
-0.18693003 0.032089535 -0.022159865 -0.16433688 0.14633717 0.075989395 0.056536756 -0.046293937
0.09083834 0.0007122174 0.101613484 -0.017295515 -0.042317368 0.07035261 0.07372608 0.030930156
-0.1501358 -0.17161505 0.07377894 0.07441404 -0.06758507 0.106963284 -0.02768876 0.18305276
0.045619488 0.03871121 -0.091158375 -0.1532142 -0.03405223 0.15136214 0.047633614 -0.14621018
0.113958076 -0.044221826 0.065811 -0.09817075 -0.15186888 0.11690283 -0.12212599 0.13380323
0.09859154 -0.017401354 0.073525004 -0.04224229 -0.043005947 -0.000358864 -0.0005174072 0.12726402
-0.0858175 0.04141728 0.12918271 -0.041538328 0.13949266 -0.12944967 0.0019178148 -0.077278204
-0.041485023 0.16222365 -0.029655678 0.033815008 -0.037473537 -0.06302214 -0.02117213 0.051592
0.033306975 -0.12054086 -0.041882057 0.08629547 -0.00495861 0.0005792511 0.14607118 -0.11289996
00000000: a753 8e3d 20e6 203e a6ce 4dbd 9008 baba
00000010: 0454 8fbd 12f4 a5bc e960 cc3c 30ba 9bbd
00000020: e7aa 693d 4304 c2bd 6d63 31be d7da 303e
00000030: ba42 f33c f4ce 3cbd 13eb 183d 97c6 25be
00000040: 63d9 17be 1150 1bbd 9330 a23d 6b7a 17be
00000050: 9b33 b23a 9870 74b8 ba5b d03c 05d3 0d3e
00000060: 5fbf 283e 3fbc f2bc bb75 363b 53cb 613d
00000070: ea19 64bc 48b9 d3bb b350 813d 8f10 5abd
00000080: 4153 493d 3ab6 3fbd 44dc 003e c325 71bd
00000090: 5979 733d 32f3 c8bb a6ce ae3c 6ba9 283d
000000a0: a336 c7bd f170 2dbc 3779 b3bd 28a5 97bd
000000b0: a159 1abc 1ce0 f13d 405d 2d3e e14f fc3d
000000c0: 6eea fdbb 6b19 f9bd 697f 25be 76f0 10be
000000d0: 3f34 abbd 1698 2bbd da78 7c3c 4ae0 16be
000000e0: b115 ef3d f322 80bd c6e5 11be 1474 3b3e
000000f0: 479c 01be d60d d73d 4cbf 963d c426 a13c
00000100: d3eb 8d3d 84df b23d f559 ad3d 320f 2e3a
00000110: 2024 1ebd 5eb5 93bd efd2 11bd 673e 97bd
00000120: 9faf d63d 954b 73bd 1b2b acbd 6c77 f4bc
00000130: ef6c 51bd 5a83 9dbd a6ea f93d ef3d 2b3d
00000140: 4811 7bbd e325 4a3d 5808 0abe ac6c 483d
00000150: 5ede 8e3d 5383 a83c f0d3 bc3d 1b78 0bbe
00000160: 8c55 833d 67a3 913d de91 dfbd 7e65 d73d
00000170: 4db7 f2bc 6923 ea3d 095f d03d 7be6 febd
00000180: fc02 063e 14fa bc3b 697f cb3d 53ba 9f3d
00000190: dce2 b6bd 5d5e 2f3d ef67 8c3d 0f2f fabd
000001a0: b252 d0bd 9a3b 8f3b b7cd da3d 7e53 a93d
000001b0: 5e10 5d3d 46e6 df3d 2517 ee3c b519 28be
000001c0: 7596 ad3d 3713 84bc e1d5 0abc b5fe 033d
000001d0: 90ed f1bd 503c 61bc d034 81bd 8164 d9bd
000001e0: 44d6 4c3d dc7d 0dbd 9745 24bb 3e17 ea3c
000001f0: a45d 32bd 1643 5e3c 91dc d53d a182 753d
00000200: 2ba5 233d 9e55 053c c0ba 16be d2cc 7039
00000210: 3526 9cbd 183c 56bd 2749 603d 41e3 033d
00000220: cb94 70bd 4f94 b53d fc64 db3d 6cd3 c6bd
00000230: 11de b3bd c6bf 87bb 6163 83bc c64d 483e
00000240: 3115 9f3d 29a0 13be 15ba 3a3e 2276 a43d
00000250: a866 99bd ea29 e63d 7793 f33d 2b10 073d
00000260: c099 8c3c aa9d 5d3d 8124 373d 72ea 9a3d
00000270: 9fbb 94bd 96be 183c 29ae df3c cfd1 b6bd
00000280: f171 0abd d0dd f03d 1f54 db3b 451b 06bd
00000290: 3dfe 3fbd 7e31 dc3d 1f29 3a3c 71b5 dd3d
000002a0: 3704 1cbe 761d 743d 4a98 c9bd 5f7c e0bd
000002b0: ab7e ad3a c21b 03be 99df 353e 809b c7bd
000002c0: 5cc6 4f3d fd7d e1bd 3f21 6d3d e518 913d
000002d0: 4201 493d 3bde 71bd 3c2b 84bd 41b8 72bd
000002e0: 966a 3fbe 5170 033d 9b88 b5bc ed47 28be
000002f0: 69d9 153e 54a0 9b3d 1693 673d b69e 3dbd
00000300: 7409 ba3d 1ab4 3a3a bb1a d03d 53af 8dbc
00000310: fa54 2dbd 0715 903d b3fd 963d 3d61 fd3c
00000320: 33bd 19be dbbb 2fbe 6a19 973d 6366 983d
00000330: 0b6a 8abd 910f db3d 8ad3 e2bc 2f72 3b3e
00000340: 80db 3a3d a58f 1e3d 3eb1 babd 2fe4 1cbe
00000350: 5a7a 0bbd adfe 1a3e 771b 433d 1fb8 15be
00000360: da62 e93d f221 35bd ebc7 863d bf0d c9bd
00000370: 8483 1bbe c06a ef3d 311d fabd b703 093e
00000380: 5cea c93d 498d 8ebc 4794 963d 4006 2dbd
00000390: 0127 30bd e925 bcb9 9ca2 07ba 8051 023e
000003a0: 16c1 afbd 2aa5 293d 7948 043e 1824 2abd
000003b0: 2ad7 0e3e 748e 04be 305f fb3a 0944 9ebd
000003c0: 33ec 29bd f51d 263e 77f0 f2bc 9b81 0a3d
000003d0: da7d 19bd c011 81bd 2d71 adbc 2252 533d
000003e0: e56c 083d 20de f6bd 858c 2bbd aebb b03d
000003f0: d67b a2bb e2d8 173a af93 153e 1838 e7bd

model.rnn.bias_ih_l1 f4 [240]
0.08199307 0.016445737 0.1501515 -0.016934475 0.07870344 0.07894257 0.049266785 0.1560768
-0.06336516 -0.05679033 0.04308415 0.11447274 0.1253997 0.15135354 0.11323075 -0.013822784
0.029026238 -0.03288151 -0.071250595 0.044838395 -0.033640083 0.086518735 0.16009021 0.119825765
-0.01853018 0.115662456 0.032553192 0.15487808 -0.01735135 0.1184984 -0.08993652 0.11487174
-0.022995632 0.028758084 0.1141949 -0.022603603 0.1402653 -0.090217635 0.049044747 0.0064092837
0.104989134 -0.08247148 -0.012104061 0.10520247 0.069272846 0.034620333 -0.016109975 0.10346496
-0.027397655 -0.038408983 -0.06477256 0.14734977 0.076463625 0.0680463 -0.081616625 0.0017823857
-0.001484069 0.029283648 -0.012896738 -0.026284978 0.109566286 0.090146 0.028700436 0.04398449
0.026567178 0.054335784 0.032810796 -0.048020057 -0.061978012 -0.12828693 0.038420733 0.018368857
0.080553465 0.13481258 -0.02129947 0.08796942 0.0719745 -0.122670785 0.03190754 -0.048444774
-0.012408826 -0.014850828 0.029899614 0.101887666 0.09683646 -0.081103034 -0.0878823 0.0870853
0.001768357 0.0668607 0.00037165693 0.07170779 0.035845887 -0.11557963 0.07504743 0.027680136
0.070992835 0.059693232 -0.06324123 0.094279535 0.10511687 0.104637355 0.012536353 0.017049808
-0.08155939 0.0655236 -0.01965733 -0.056482628 0.084360994 -0.035397414 0.08688908 0.093674734
-0.016450325 -0.08822998 0.10459932 0.13853353 0.06603983 0.055533517 -0.08113161 -0.103445865
0.06972457 -0.025262954 -0.10492557 -0.0802978 -0.019178439 -0.02367029 0.12563069 -0.10887455
0.0002664357 0.09659152 0.070640855 0.118700765 -0.00065665157 -0.09616424 -0.049324866 -0.05298249
-0.004470322 -0.109295115 -0.09974443 -0.09999845 -0.0041517955 0.0022246027 -0.083859675 0.07488173
0.09918238 0.001718371 0.03160992 0.057539526 0.058518924 0.069859974 0.09127621 0.06917916
0.029363463 0.0549 0.10397118 -0.07160123 0.078125946 0.08384294 -0.14746615 0.09056326
-0.056144774 0.09484583 0.04062523 -0.063415445 0.095913835 -0.060355067 0.03829965 -0.04852455
0.018554296 -0.056271914 -0.10929888 -0.02562863 -0.08141565 -0.021222932 0.13081092 -0.1349408
-0.06311869 0.022640487 -0.040682547 0.03209293 0.1903731 -0.034441248 -0.014213499 0.029571852
-0.07426249 0.016201502 -0.017617337 0.09305281 0.005752802 -0.07003009 0.089202866 0.06847007
0.052712925 0.07677621 0.16470304 -0.095663525 0.14599733 -0.090431854 0.09527825 0.016519573
0.030102096 -0.040077064 0.008577684 0.103936784 0.09182528 0.14477038 0.044818304 -0.010227723
-0.04847058 0.13265719 0.089544356 0.08827918 0.022833189 0.085896865 0.15573107 0.00506608
0.072436236 0.12779893 0.16522941 0.008998528 -0.049963724 0.11272707 0.039693434 0.028093794
0.09376028 -0.026685227 0.0025495023 0.08361491 -0.09822078 -0.042470183 0.08845268 0.1339158
-0.03287716 0.16159344 -0.007106817 0.0075010173 0.12841922 0.11209551 -0.02089784 -0.10916639
00000000: fceb a73d 36b9 863c 51c1 193e 2bba 8abc
00000010: 452f a13d a4ac a13d f8cb 493d 99d2 1f3e
00000020: 98c5 81bd fa9c 68bd 0179 303d af70 ea3d
00000030: c768 003e 6cfc 1a3e 86e5 e73d f578 62bc
00000040: 6fc8 ed3c c3ae 06bd d5eb 91bd 77a8 373d
00000050: 2fca 09bd bc30 b13d b0ee 233e 3667 f53d
00000060: 9bcc 97bc 70e0 ec3d 7f56 053d 5c98 1e3e
00000070: 6b24 8ebc 4aaf f23d a330 b8bd e041 eb3d
00000080: 5661 bcbc 1396 eb3c 04df e93d 312b b9bc
00000090: b5a1 0f3e 06c4 b8bd 25e3 483d f804 d23b
000000a0: 8b04 d73d cfe6 a8bd 1d50 46bc 6574 d73d
000000b0: ecde 8d3d 0dce 0d3d 11f9 83bc 70e5 d33d
000000c0: 0c71 e0bc bd52 1dbd 7aa7 84bd dce2 163e
000000d0: f698 9c3d dc5b 8b3d 9e26 a7bd f19e e93a
000000e0: 1885 c2ba 43e4 ef3c d74c 53bc 9853 d7bc
000000f0: 4a64 e03d 779e b83d 2d1d eb3c 1529 343d
00000100: 69a3 d93c 338f 5e3d 9d64 063d aeb0 44bd
00000110: a8dc 7dbd a65d 03be 0f5f 1d3d 497a 963c
00000120: 37f9 a43d 4f0c 0a3e 3a7c aebc 5029 b43d
00000130: 5e67 933d d23a fbbd 7bb1 023d 076e 46bd
00000140: 634e 4bbc e350 73bc 09f0 f43c 7baa d03d
00000150: 3252 c63d 5919 a6bd a3fb b3bd c759 b23d
00000160: 37c8 e73a 43ee 883d f3da c239 89db 923d
00000170: 23d3 123d 03b5 ecbd 78b2 993d 74c1 e23c
00000180: b164 913d e480 743d 9e84 81bd a115 c13d
00000190: 8347 d73d 1c4c d63d 4765 4d3c 0aac 8b3c
000001a0: 9c08 a7bd 3d31 863d 6908 a1bc 545a 67bd
000001b0: 75c5 ac3d e1fc 10bd e7f2 b13d 8ad8 bf3d
000001c0: d5c2 86bc ebb1 b4bd 2b38 d63d bcdb 0d3e
000001d0: e43f 873d 1d77 633d 5428 a6bd 6ddb d3bd
000001e0: c1cb 8e3d 41f4 cebc 38e3 d6bd 2c73 a4bd
000001f0: 1a1c 9dbc 32e8 c1bc 55a5 003e 9ff9 debd
00000200: 65b0 8b39 c6d1 c53d 27ac 903d 6319 f33d
00000210: 2423 2cba c2f1 c4bd df08 4abd 2b04 59bd
00000220: c77b 92bb 1ed6 dfbd cf46 ccbd fdcb ccbd
00000230: c90b 88bb a4ca 113b 9fbe abbd 985b 993d
00000240: 2220 cb3d f63a e13a 6779 013d 91ae 6b3d
00000250: 8ab1 6f3d bf12 8f3d 06ef ba3d cead 8d3d
00000260: a58b f03c d3de 603d d8ee d43d aaa3 92bd
00000270: 7f00 a03d d9b5 ab3d 5e01 17be 3b79 b93d
00000280: 10f8 65bd 883e c23d a466 263d f5df 81bd
00000290: 796e c43d e036 77bd 18e0 1c3d aec1 46bd
000002a0: 2eff 973c 617d 66bd 17d8 dfbd 22f3 d1bc
000002b0: 40bd a6bd b7db adbc 4cf3 053e ec2d 0abe
000002c0: 5f44 81bd 8b78 b93c bea2 26bd e073 033d
000002d0: 2af1 423e 4412 0dbd bcdf 68bc ab40 f23c
000002e0: ef16 98bd 03b9 843c 3c52 90bc 7992 be3d
000002f0: 0082 bc3b f06b 8fbd feaf b63d 093a 8c3d
00000300: 82e9 573d d83c 9d3d eaa7 283e 3deb c3bd
00000310: 5380 153e 5634 b9bd 3e21 c33d 0e54 873c
00000320: ac98 f63c d927 24bd 6a89 0c3c cfdc d43d
00000330: e40e bc3d b03e 143e 6693 373d 2e92 27bc
00000340: 1689 46bd 49d7 073e 0863 b73d b7cb b43d
00000350: ab0c bb3c b2ea af3d f777 1f3e 5c01 a63b
00000360: 7359 943d b9dd 023e e631 293e 906e 133c
00000370: c3a6 4cbd 73dd e63d 9595 223d f524 e63c
00000380: 6405 c03d fa9a dabc 8d15 273b 4b3e ab3d
00000390: fa27 c9bd 37f5 2dbd ae26 b53d 3921 093e
000003a0: 33aa 06bd c078 253e 4de0 e8bb 18cb f53b
000003b0: 5480 033e 5592 e53d f231 abbc a192 dfbd
