checkpoints/epoch=1-step=100-v25.ckpt (torch, 621663 bytes, 33 tensors)

model.param_proj.proj.0.weight f4 [1, 60]
0	0xbe0a6802	-0.13516238
1	0xbe36fd1b	-0.1786999
2	0xbd630390	-0.05542332
3	0x3df9ac3a	0.12191053
4	0x3db99e67	0.09063416
5	0x3e60e451	0.21962096
6	0x3e0bffcb	0.13671796
7	0xbe476763	-0.19473033
8	0x3e69b8da	0.22824422
9	0x3d041288	0.032244235
10	0x3c7e34c0	0.015515506
11	0x3e297b8d	0.16551037
12	0xbe4db79d	-0.20089574
13	0xbc6b84e3	-0.014374944
14	0xbcb38e0b	-0.021918317
15	0xbe4f94f7	-0.2027167
16	0xbdbf580d	-0.09342966
17	0xbd164035	-0.036682326
18	0x3d338ac2	0.0438335
19	0x3e262fcb	0.16229169
20	0x3e697be0	0.22801161
21	0x3e393326	0.18085918
22	0xbd7d4673	-0.061834764
23	0xbddc4cfd	-0.10756872
24	0xbe07f2fb	-0.13276283
25	0xbdfc8bc8	-0.12331349
26	0x3d0bf7f4	0.034172013
27	0x3dbbfcbe	0.09179066
28	0x3cd0b733	0.025477981
29	0xbe4c2915	-0.19937547
30	0xbe521ea4	-0.20519501
31	0xbd077764	-0.033072844
32	0xbcb0b9f4	-0.021573044
33	0x3e4919d8	0.19638765
34	0x3ddb3b05	0.107046165
35	0xbe41186b	-0.18856971
36	0x3d7bffcb	0.06152324
37	0xbe583f7c	-0.21117967
38	0x3daa92d5	0.08328787
39	0xbe1300c1	-0.14355756
40	0xbc4a7d02	-0.012358906
41	0x3dbcc6af	0.092175834
42	0xbd38c3b2	-0.045108505
43	0xbdd932f1	-0.106054194
44	0xbe58fb21	-0.21189548
45	0xbd3da317	-0.046298113
46	0x3de08393	0.10962596
47	0x3de1b152	0.11020149
48	0xbe4f9f01	-0.20275499
49	0xbb8aa3e4	-0.004230963
50	0x3d8b8005	0.06811527
51	0xbe1e9428	-0.15486205
52	0xbd1b4cc3	-0.037915003
53	0xbe3701fa	-0.17871848
54	0x3e4eec33	0.2020729
55	0x3e577830	0.21041942
56	0x3e49510c	0.19659823
57	0x3d5dacef	0.05412
58	0xbc49afab	-0.012309949
59	0xbe0858ff	-0.133152

model.param_proj.proj.1.weight f4 [1, 60]
0	0x3db59862	0.08866955
1	0xbdee8929	-0.11647255
2	0x3d69b8dd	0.057061065
3	0x3e03b614	0.12862426
4	0xbe1bb5bf	-0.1520605
5	0xbe0de2b9	-0.13856019
6	0x3d09f834	0.03368397
7	0xbe1c2339	-0.15247811
8	0x3d7dd9c6	0.061975263
9	0x3e1ffb6d	0.15623255
10	0xbe22ac1b	-0.15885966
11	0xbd2c61cf	-0.042085465
12	0xbd36d742	-0.04463888
13	0x3d97db22	0.07414843
14	0x3a4b59a4	0.0007757193
15	0x3df7e906	0.121049926
16	0x3e171705	0.14754875
17	0x3d7561fa	0.05990789
18	0xbe1cd115	-0.15314133
19	0xbe37d474	-0.17952138
20	0xbe2092ab	-0.1568095
21	0xbe50888e	-0.20364591
22	0xbcc1fe9c	-0.023680978
23	0xbe48f720	-0.1962552
24	0xbd501887	-0.05080464
25	0x3e3cdbb4	0.18443185
26	0x3e530a67	0.20609437
27	0xbe3f7bf2	-0.18699625
28	0xbdca2ed6	-0.098722145
29	0x3dbd134b	0.092321955
30	0xbe1fc91b	-0.1560406
31	0x3db3122f	0.087437026
32	0xbd5ae625	-0.05344214
33	0xbd68d09e	-0.056839578
34	0x3e4bc649	0.19899859
35	0x3dca6e00	0.09884262
36	0x3cb46c8a	0.022024412
37	0x3d3964f4	0.045262292
38	0x3d6314c6	0.055439733
39	0xbd262c63	-0.040569674
40	0x3e3e69bc	0.18595022
41	0x3e426b3d	0.1898622
42	0xbe11ca73	-0.14237384
43	0xbdd859b9	-0.10563988
44	0xbc7742c0	-0.015091598
45	0x3e474175	0.19458564
46	0xbd12dbf0	-0.03585428
47	0x3d0deb1e	0.034648053
48	0xbda3ae4e	-0.0799223
49	0xbe0b0dcf	-0.13579486
50	0xbd5fa701	-0.054602627
51	0xbe3462a5	-0.17615755
52	0xbe36a267	-0.17835389
53	0xbe2f3733	-0.171109
54	0xbcd828fa	-0.026386727
55	0x3e073203	0.13202672
56	0x3d346450	0.044040978
57	0xbe0cd579	-0.13753308
58	0x3d93c0a3	0.07214477
59	0xbdf4b6a7	-0.11948901

model.param_proj.proj.2.weight f4 [1, 60]
0	0xbca2cd79	-0.019873368
1	0xbd2f363b	-0.042776328
2	0xbd831d0b	-0.06402024
3	0x3e0f4a27	0.1399313
4	0x3c265dc9	0.010154196
5	0xbcd19adc	-0.025586538
6	0x3b9c789e	0.004775121
7	0xbca939ea	-0.020657498
8	0x3d15305a	0.036423065
9	0x3ddee5a9	0.10883648
10	0xbd9bd0c6	-0.0760818
11	0xbd990b59	-0.074728675
12	0xbe04fd57	-0.12987266
13	0x3dc8bd81	0.0980177
14	0x3e09cf26	0.13457927
15	0xbddc8338	-0.107672155
16	0xbc70773b	-0.014676864
17	0x3ce13b75	0.027494172
18	0xbd8f696e	-0.07002531
19	0x3d462c2a	0.048381962
20	0xbdbfed13	-0.0937139
21	0xbd2d1b84	-0.04226257
22	0x3da33b5b	0.079703055
23	0x3ca647de	0.02029794
24	0xbce45f61	-0.027877511
25	0xbda4c990	-0.080462575
26	0x3c5a56bd	0.013326344
27	0xbdfa6e32	-0.12228049
28	0x3d764dc7	0.060132768
29	0x3db3f246	0.08786444
30	0x3bf2db1c	0.007411374
31	0xbcd965f7	-0.026537878
32	0xbe12fc29	-0.14354004
33	0x3df32538	0.11872333
34	0x3dda8565	0.10669974
35	0xbce0393b	-0.02737104
36	0xbdc68c8f	-0.09694778
37	0x3d858c61	0.06520916
38	0x3e011a60	0.12607718
39	0x3db8ed84	0.090296775
40	0xbdc8e4b5	-0.098092474
41	0x3d5aa8f5	0.053383786
42	0x3ddb324d	0.107029535
43	0xbc5ba6a9	-0.013406434
44	0x3d909736	0.07060091
45	0xbd4a008b	-0.049316924
46	0x3da6741b	0.08127614
47	0xbd8296c5	-0.06376413
48	0xbde38a6a	-0.11110385
49	0xbdc27cb8	-0.094964445
50	0x3d6a2a12	0.057169028
51	0xbdd4bd0f	-0.103876226
52	0x3da25f5a	0.07928343
53	0xbd9dc1a1	-0.077029474
54	0xbda3d137	-0.07998889
55	0xbd846420	-0.0646441
56	0x3dc95445	0.09830526
57	0xbdf11cd1	-0.117730744
58	0x3d4e34d2	0.050343342
59	0xbd34f133	-0.044175338

model.rnn.weight_ih_l0 f4 [240, 24]
0	0xbe542e6f	-0.20720838
1	0xbd8daf33	-0.06918182
2	0xbd800890	-0.06251633
3	0x3dc4eb3a	0.096151784
4	0x3d242f6c	0.040084288
5	0x3df7b077	0.12094205
6	0xbe424a23	-0.18973593
7	0xbdde6121	-0.108583696
8	0x3d7ff953	0.062493633
9	0x3deb958d	0.11503134
10	0xbd0e1df6	-0.03469654
11	0xbdbd1044	-0.09231618
12	0xbdef02ed	-0.1167048
13	0x3dc6acc6	0.09700923
14	0x3e07ac51	0.13249327
15	0x3b5e1cae	0.0033891606
16	0x3c03ca4f	0.00804384
17	0xbdd8bfff	-0.10583495
18	0x3d159dd2	0.036527462
19	0xbccff93a	-0.025387395
20	0xbe116fa4	-0.14202744
21	0x3e05a71f	0.13052033
22	0xbd8e1874	-0.06938258
23	0x3ca1e504	0.019762523
24	0x3db77399	0.089575954
25	0xbd6ef574	-0.05833955
26	0x3da00f17	0.07815378
27	0xbde366e3	-0.111036085
28	0x3e093e42	0.13402656
29	0xbe3837c3	-0.17990021
30	0xbde027f4	-0.109451205
31	0x3b3e561e	0.002904303
32	0xbdafada6	-0.08578043
33	0xbd37944f	-0.044819172
34	0x3dd65bc5	0.104667224
35	0xbd7ced44	-0.06174971
36	0x3bea9d14	0.0071598385
37	0xbdfe37de	-0.124129996
38	0x3e18e5d5	0.14931424
39	0xbca1aa41	-0.019734504
40	0x3d0d3c23	0.03448118
41	0x3d48534e	0.04890757
42	0xbd148279	-0.03625724
43	0x3db1a51f	0.086740725
44	0x3d84e3da	0.06488772
45	0x3c07c373	0.008286345
46	0xbcccd23c	-0.025002591
47	0xbd832c62	-0.0640495
48	0x3d9bf5d2	0.07615246
49	0xbd093965	-0.033502
50	0x3db3a0b0	0.08770883
51	0xbd371969	-0.044701967
52	0xbe02bb22	-0.12766698
53	0x3d9c99ca	0.076465204
54	0x3d28fb56	0.041255318
55	0xbddd1514	-0.10795036
56	0x3d78aac4	0.06070973
57	0xbd780c9c	-0.0605589
58	0x3c9288c0	0.017887473
59	0xbd7e6151	-0.062104527
60	0xbe551a2b	-0.20810764
61	0x3da23a13	0.07921233
62	0xbdf87c1e	-0.121330485
63	0x3d8c601e	0.068542704
64	0xbcdb5b5f	-0.026776968
65	0xbd08e13a	-0.033417918
66	0x3dc7e372	0.097601786
67	0x3dc69e5c	0.096981734
68	0xbdfd09e3	-0.12355401
69	0x3d8febce	0.07027398
70	0x3d4537c8	0.0481489
71	0x3d8de5c4	0.0692859
72	0xbe2a9ad2	-0.16660622
73	0xbdf78190	-0.12085259
74	0xbe371625	-0.17879541
75	0x3d28d879	0.04122207
76	0x3db86806	0.09004216
77	0xbcaad153	-0.020851767
78	0xbdad53ad	-0.084632255
79	0x3d179208	0.0370045
80	0xbd37e570	-0.044896543
81	0xbbc8c6b9	-0.006127205
82	0x3e199389	0.14997686
83	0xbde356ae	-0.11100517
84	0x3d03c80d	0.032173205
85	0xbd984c1b	-0.07436391
86	0xbc9fbde1	-0.019499721
87	0xbda11668	-0.07865602
88	0x3cb2bd65	0.021818826
89	0x3da77ccd	0.08178101
90	0x3dc475c0	0.095927715
91	0xbcfd3b78	-0.030912146
92	0xbd67fe79	-0.05663917
93	0x3dbb6c2d	0.09151492
94	0xbd724e21	-0.05915654
95	0x3d801588	0.06254107
96	0xbd8b65c3	-0.06806519
97	0x3ddc250d	0.107492544
98	0xbde69a94	-0.11259952
99	0xbcf74ccd	-0.030187989
100	0x3bac2e2a	0.0052545266
101	0x3de7144e	0.1128317
102	0x3d8e5af3	0.06950941
103	0x3e57f738	0.210904
104	0x3d1061c4	0.035249487
105	0x3dc52dd4	0.09627882
106	0x3c96e453	0.01841942
107	0xbd83bd13	-0.064325474
108	0x3c1345d5	0.008988817
109	0x3d0d439e	0.034488313
110	0x3c729b86	0.0148075875
111	0xbda03d5d	-0.07824204
112	0x3d167c05	0.036739368
113	0x3cefcd32	0.02927265
114	0xbd844417	-0.064582996
115	0x3c9afb67	0.018918706
116	0xbdf3ce30	-0.119045615
117	0x3d83666c	0.0641602
118	0xbdfbc3bb	-0.12293192
119	0xbca3a6f2	-0.019977067
120	0x3e0c0606	0.13674173
121	0x3e08ff28	0.13378584
122	0x3cf2c40b	0.029634496
123	0xbd33c22a	-0.04388634
124	0x3b87a7e4	0.004139887
125	0xbd90dd51	-0.07073463
126	0x3cf70685	0.030154476
127	0x3d8d378e	0.06895362
128	0xbb57d869	-0.0032935387
129	0xbd2433e9	-0.040088568
130	0x3c41cda3	0.011828813
131	0xbdea8273	-0.114506625
132	0x3de90f37	0.11379855
133	0xbe16fd8c	-0.14745158
134	0xbc2d82d0	-0.01059027
135	0x3de28954	0.110613495
136	0x3cb8fdc5	0.022581944
137	0x3d9d3a2a	0.076771095
138	0x3c359805	0.011083608
139	0x3daa122b	0.083042465
140	0x3c049583	0.008092287
141	0x3c4751d8	0.012165509
142	0x3be3fd1b	0.0069576628
143	0x3da3b6bc	0.07993838
144	0x3db5ce1f	0.08877205
145	0xbccc8c9a	-0.024969388
146	0xbda45661	-0.08024288
147	0x3d2b41b4	0.041810706
148	0xbd5f03a9	-0.05444685
149	0x3d091f7d	0.033477295
150	0xbd7151a0	-0.058915734
151	0x3d7da51a	0.06192503
152	0x3dafc9b1	0.085833915
153	0x3d6655d2	0.05623419
154	0xbc73653d	-0.01485568
155	0x3d3e6e18	0.046491712
156	0x3cb548d6	0.022129457
157	0x3dfeb6e2	0.12437226
158	0x3d0775cf	0.033071335
159	0x3e0516a3	0.12996916
160	0x3db77f2d	0.08959804
161	0x3cd80d78	0.02637361
162	0xbe1d8956	-0.15384421
163	0xbdc9b488	-0.09848887
164	0x3d51c098	0.051209062
165	0xbe17d5c6	-0.14827642
166	0x3da1ffe6	0.07910137
167	0x3e1cbae6	0.15305671
168	0x3de50627	0.11182814
169	0xbe2c84e7	-0.16847573
170	0x3e1df085	0.15423782
171	0x3cdff0ca	0.027336497
172	0xbd57882f	-0.05262011
173	0xbc9d397b	-0.019192448
174	0x3e152ce8	0.14567912
175	0xbe119052	-0.1421521
176	0x3daaf2bc	0.08347079
177	0x3d2ecb87	0.042674568
178	0xbdfd6e38	-0.12374538
179	0xbdd08593	-0.10181727
180	0xbc8b2760	-0.016986549
181	0xbb46b2f8	-0.0030319076
182	0x3c8bdb49	0.017072337
183	0xbc99d876	-0.018779974
184	0xbdcdf0ac	-0.1005567
185	0x3d80871c	0.0627577
186	0x3c198422	0.009369882
187	0x3d5e0497	0.054203596
188	0xbda65701	-0.081220634
189	0x3d019056	0.03163179
190	0xbddad041	-0.106842525
191	0xbd53e47a	-0.051731564
192	0x3dc44396	0.095832035
193	0xbdd0517f	-0.10171794
194	0x3c782647	0.015145845
195	0x3dd49519	0.103800006
196	0xbdb843a7	-0.08997279
197	0xbdb1dd6b	-0.0868481
198	0xbdbd5c09	-0.0924607
199	0x3e04f118	0.12982595
200	0xbe3fd70e	-0.1873438
201	0x3d1fa0b3	0.038971614
202	0xbc142455	-0.009041865
203	0xbe3ac86f	-0.18240522
204	0xbe23855f	-0.15968846
205	0x3d468eb9	0.048475955
206	0x3caa62a0	0.020798981
207	0xbd47a4cc	-0.048741147
208	0xbda08327	-0.07837515
209	0x3de67ee0	0.11254668
210	0xbdcf75d7	-0.10129898
211	0x3b8949d7	0.0041897106
212	0xbe3e3a01	-0.18576814
213	0x3db6999a	0.08916016
214	0x3dcf2512	0.101144925
215	0x3c680955	0.014162381
216	0x3d39aef9	0.045332883
217	0x3dff1079	0.12454314
218	0x3ca64b74	0.02029965
219	0xbdf899bc	-0.121386975
220	0x3c944787	0.018100513
221	0x3d595e5a	0.053068496
222	0x3e044425	0.1291662
223	0xbdbb0e6d	-0.09133611
224	0xbd875f7e	-0.066100106
225	0x3d7a9c5d	0.061184276
226	0x3d456e96	0.048201166
227	0x3dab59b6	0.083667204
228	0x3c78cc99	0.015185499
229	0x3dbc8be4	0.092063695
230	0xbe26a344	-0.16273218
231	0xbcc12063	-0.023575014
232	0xbce0c458	-0.027437374
233	0x3d6635d3	0.056203675
234	0x3d9e730a	0.07736786
235	0x3d14ca45	0.03632571
236	0x3db93754	0.09043756
237	0x3de3c076	0.111206934
238	0x3c4760a5	0.012169038
239	0x3dc49fcf	0.096007936
240	0xbd294626	-0.041326664
241	0xbe12309b	-0.14276354
242	0xbdf58209	-0.11987693
243	0x3d93e836	0.07222025
244	0xbd61cff3	-0.055129956
245	0x3d8e3488	0.06943613
246	0xbd89ed90	-0.067347646
247	0xbd3ed86a	-0.046593107
248	0xbe3bd98a	-0.18344703
249	0x3d228639	0.039678786
250	0x3e0e0173	0.1386774
251	0x3d1feae6	0.039042376
252	0xbcc09189	-0.023506897
253	0x3dd07868	0.10179216
254	0x3d2ccefc	0.042189583
255	0x3d4c316d	0.049851824

model.rnn.weight_hh_l0 f4 [240, 60]
0	0xbdddbe32	-0.108272925
1	0xbdc0a615	-0.09406678
2	0x3e0250e4	0.1272617
3	0xbd805533	-0.062662505
4	0x3de4508e	0.11148177
5	0x3d895cca	0.06707151
6	0x3d15f9fa	0.03661535
7	0x3d9c4db0	0.07632005
8	0xbdbd29c0	-0.09236479
9	0xbcef0cc5	-0.029180894
10	0x3d2a3dfb	0.041563015
11	0x3e19625e	0.1497893
12	0x3d86812e	0.06567608
13	0x3c9deda5	0.019278357
14	0x3dce3bed	0.10070024
15	0x3b7c0075	0.003845242
16	0x3dab4dd3	0.08364453
17	0xbdf617a5	-0.120162286
18	0x3dc683ca	0.096931055
19	0xbd0bd739	-0.0341408
20	0x3d549081	0.051895622
21	0x3b3dc268	0.0028954986
22	0xbda293e4	-0.07938364
23	0xbdd558ac	-0.104173034
24	0xbda74022	-0.08166529
25	0xbe144f72	-0.14483431
26	0x3c8a7a5c	0.016904049
27	0x3d6e591c	0.05819045
28	0xbdc11b85	-0.09429077
29	0x3d128068	0.03576699
30	0x3dc685da	0.09693499
31	0x3da97fa5	0.082762994
32	0xbc5dc709	-0.013536223
33	0x3da6f383	0.08151915
34	0x3df35d38	0.118830144
35	0xbc345797	-0.011007211
36	0xbd856604	-0.065135986
37	0xbd926613	-0.07148375
38	0xbd787e94	-0.06066759
39	0x3d7466ab	0.059668224
40	0x3cf22dc5	0.02956284
41	0xbdf22fc2	-0.11825515
42	0x3e040b1f	0.12894867
43	0x3d4b7b59	0.04967818
44	0xbd4e99d0	-0.050439656
45	0x3ddcfa0e	0.10789882
46	0x3dcfd2e4	0.10147646
47	0xbddadb36	-0.106863424
48	0x3d2391a9	0.039933834
49	0xbdc2de2d	-0.09515033
50	0xbdbb0260	-0.09131312
51	0xbcbb090b	-0.02283146
52	0xbdcad9e1	-0.09904838
53	0x3d9a2da9	0.0752824
54	0xbb711204	-0.003678442
55	0xbcc03a89	-0.023465412
56	0xbdc6cac8	-0.09706646
57	0xbc23200a	-0.009956369
58	0x3d666fc8	0.056258947
59	0x3d387aa5	0.045038838
60	0x3d8ee070	0.06976402
61	0xbe448d2c	-0.19194478
62	0xbc8c114a	-0.017098088
63	0xbd40a38b	-0.047030967
64	0xbd5fb64e	-0.05461722
65	0x3c4fc38c	0.012680899
66	0x3cfde4f2	0.030992959
67	0xbd92083d	-0.071304776
68	0xbb3653ea	-0.0027821013
69	0xbc00c92d	-0.007860464
70	0xbd841c1b	-0.06450673
71	0x3e193b26	0.1496397
72	0xbd11bfa9	-0.035583172
73	0xbe1da5ec	-0.15395325
74	0xbc099759	-0.0083979005
75	0xbe0b3f17	-0.13598286
76	0x3e3ae62e	0.18251869
77	0x3bb718de	0.005587681
78	0xbd9d1d40	-0.076715946
79	0x3db10abc	0.086446255
80	0xbd8949f8	-0.067035615
81	0xbe2f709c	-0.17132801
82	0x3da0d93c	0.07853934
83	0xbd647b69	-0.055781756
84	0xbe0c200a	-0.13684097
85	0xbd7ad6b5	-0.061239917
86	0x3dc5cc6a	0.096581295
87	0x3e43d2bf	0.19123362
88	0xbd597f8e	-0.05310016
89	0x3df84e58	0.12124318
90	0x3d296e80	0.041365147
91	0x3d4b4b02	0.04963208
92	0xb6ad3b00	-5.1626703e-06
93	0x3df0a18e	0.11749564
94	0xbd37fa3a	-0.04491637
95	0x3c93b0f2	0.01802871
96	0x3dd53ff0	0.10412586
97	0xbe353e8a	-0.17699638
98	0xbdf36d05	-0.11886028
99	0xbe454bcb	-0.19267194
100	0x3cbe67e7	0.023242904
101	0x3cacc1de	0.021088537
102	0x3e317edd	0.17333551
103	0xbc1de60b	-0.009637366
104	0xbc3c8adb	-0.011507715
105	0x3e0c28eb	0.13687484
106	0x3d8764a9	0.06610996
107	0xbcc8db81	-0.02451873
108	0x3dc76ac2	0.09737159
109	0x3b8d19d0	0.0043060556
110	0x3d667fb0	0.056274116
111	0x3db82cf3	0.089929484
112	0xbd6c3cd0	-0.057675183
113	0xbe0b1e30	-0.13585734
114	0x3be4ae42	0.006978781
115	0x3dc704ca	0.0971771
116	0x3d5d025f	0.05395734
117	0x3e06ed78	0.13176525
118	0x3d27d4ba	0.040974356
119	0xbcd43427	-0.025903774
120	0xbdc1d2a3	-0.09464004
121	0xbbab5455	-0.005228559
122	0x3d8b8ee0	0.068143606
123	0xbb696da4	-0.003561833
124	0xbb984ce4	-0.004647838
125	0x3d89f90b	0.06736954
126	0xbd5bcf4d	-0.053664494
127	0xbe00e1df	-0.12586163
128	0x3d6f1f63	0.058379542
129	0xbd687015	-0.056747515
130	0x3d6bef8f	0.057601508
131	0x3d6984e0	0.057011485
132	0x3d7e6726	0.06211009
133	0xbe117478	-0.14204586
134	0x3d26f6a6	0.040762566
135	0x3d8cdebb	0.0687842
136	0x3da98d6f	0.082789294
137	0xbdc16e89	-0.09444911
138	0xbdc05bd8	-0.09392518
139	0xbc04ec2b	-0.008112947
140	0x3d157229	0.036485825
141	0x3d04b3ef	0.03239816
142	0x3d6af24a	0.05735997
143	0xbd6b17e3	-0.057395827
144	0x3d746653	0.059667896
145	0xbd609a7f	-0.05483484
146	0x3b17dc42	0.0023172055
147	0x3d8c6154	0.06854501
148	0xbddc0f2b	-0.107450806
149	0x3daf23e4	0.085517675
150	0xbb94649a	-0.004528594
151	0xbbe92511	-0.0071150144
152	0x3d693fdf	0.056945678
153	0x3dc0bd58	0.094111145
154	0x3d9214ea	0.07132895
155	0xbd98745d	-0.074440695
156	0xbc3c8a4c	-0.011507582
157	0x3daa2d0a	0.08309372
158	0x3dc5b3f0	0.09653461
159	0x3d6423ba	0.055698134
160	0xbe1f6fa5	-0.15569933
161	0x3d30c877	0.04315993
162	0x3d0df0f6	0.034653626
163	0x3db3bcbf	0.08776235
164	0xbc130aa9	-0.00897471
165	0x3d8658c2	0.06559898
166	0xbe1082a3	-0.14112334
167	0xbddf487b	-0.109024964
168	0xbd147b3d	-0.03625034
169	0xbdff8bff	-0.12477874
170	0xbdaa3369	-0.08310587
171	0x3cd87c77	0.026426537
172	0xbdddb79e	-0.10826038
173	0x3ca46355	0.020066896
174	0x3db5db33	0.088796996
175	0x3d76a640	0.060217142
176	0xbd73c30e	-0.05951219
177	0x3dfff0c3	0.124970935
178	0x3e280f8f	0.16412185
179	0xbe27ada7	-0.16374837
180	0xbe1b3100	-0.15155411
181	0x3e024cfb	0.12724678
182	0xbc872948	-0.016499177
183	0x3d8c324d	0.068455316
184	0xbdc943a4	-0.098273546
185	0x3dd9298c	0.106036276
186	0x3b6800bd	0.003540083
187	0xbd6888a9	-0.056770954
188	0x3d96655e	0.07343553
189	0xbde609ee	-0.11232363
190	0x3da529d1	0.080646165
191	0x3e1c7ca8	0.15281928
192	0xbdc15aae	-0.09441124
193	0x3d8bbd0a	0.06823166
194	0x3de0865e	0.109631285
195	0xbd3fc505	-0.04681875
196	0x3e1b1cd0	0.1514771
197	0x3d4892dd	0.048968185
198	0xbd9673b6	-0.07346289
199	0xbdf7259b	-0.120677195
200	0x3dae1b86	0.085013434
201	0x3df275b1	0.11838854
202	0x3e003210	0.12519097
203	0x3d4d79e4	0.050165072
204	0xbd8141f1	-0.063114055
205	0xbdd73498	-0.10508078
206	0x3deb5faf	0.114928596
207	0xbe178f9f	-0.14800881
208	0xbd8bcd37	-0.06826251
209	0x3d90d4b0	0.07071817
210	0xbb452d49	-0.0030086807
211	0xbd99e903	-0.075151466
212	0x3d01f49e	0.031727426
213	0xbc1675a7	-0.009183324
214	0xbd93b066	-0.0721138
215	0x3e0cd00b	0.13751237
216	0xbe059ab7	-0.130473
217	0x3d915513	0.07096305
218	0x3da52ca6	0.08065157
219	0xbc314e66	-0.010821914
220	0x3c99d6f2	0.018779252
221	0x3d0760ab	0.033051174
222	0x3c2fdb58	0.010733448
223	0x3de23834	0.11045876
224	0xbde03d10	-0.10949147
225	0x3cb3c04d	0.021942282
226	0xbcdf0836	-0.027225595
227	0xbd247578	-0.04015109
228	0x3d393fdd	0.04522692
229	0x3c89936d	0.01679393
230	0x3d8588d3	0.06520238
231	0xbe318092	-0.17334202
232	0xbdfabf31	-0.12243498
233	0x3e190906	0.14944848
234	0x3dbafebb	0.09130617
235	0x3d89760b	0.06711968
236	0x3d22df1e	0.039763562
237	0x3d6bbf07	0.057555225
238	0x3d3f0c03	0.046642315
239	0x3e3db247	0.18525039
240	0x3dbb2f9f	0.091399424
241	0xbde196b8	-0.110150754
242	0x3d853db5	0.0650591
243	0xbe17a75b	-0.14809935
244	0xbdd44022	-0.10363795
245	0x3b45c5de	0.0030177752
246	0x3cc62f02	0.024192337
247	0xbde73bf8	-0.11290735
248	0x3d2c4c10	0.042064726
249	0xbd23a4e1	-0.039952163
250	0x3c8a1264	0.016854472
251	0xbce46d31	-0.027884098
252	0xbd907e2c	-0.070553154
253	0x3cb8f02f	0.022575466
254	0x3c9f5149	0.01944794
255	0x3bca9b25	0.0061830455

model.rnn.bias_ih_l0 f4 [240]
0	0x3b3fa9eb	0.0029245566
1	0xbcdf55c6	-0.02726258
2	0x3ce1ec47	0.027578486
3	0xbda2f215	-0.0795633
4	0x3d613221	0.054979447
5	0x3d84ea5c	0.06490013
6	0x3c9a2f42	0.018821362
7	0xbd1c4f02	-0.038161285
8	0x3de62895	0.11238209
9	0xbd10671a	-0.035254575
10	0x3ce8efad	0.028434599
11	0xbd9e7fee	-0.077392444
12	0xbd876026	-0.06610136
13	0xbd2725e3	-0.040807616
14	0xbd9be281	-0.076115616
15	0xbc155ea5	-0.009116803
16	0x3dd180b8	0.10229629
17	0x3c9b01ab	0.018921694
18	0xbd58d26a	-0.05293504
19	0x3e02e62d	0.12783118
20	0x3d200ae1	0.039072875
21	0x3d464a4b	0.048410695
22	0x3e0ea1f0	0.13928962
23	0x3db1d1b3	0.08682575
24	0xbdba9891	-0.09111131
25	0xbd9663af	-0.07343232
26	0xbdb1fb60	-0.08690524
27	0xbde24ce7	-0.11049824
28	0x3c697f83	0.014251593
29	0x3d93cfb5	0.07217351
30	0x3e237374	0.1596201
31	0x3de96cfd	0.11397741
32	0x3d194d9f	0.03742754
33	0xbccb2fe4	-0.02480311
34	0xbc930d29	-0.017950611
35	0x3d18331b	0.037158113
36	0x3e0e47c8	0.1389457
37	0xbd32b39a	-0.043628313
38	0x3dd2dc3a	0.10295911
39	0x3db09cc2	0.08623649
40	0xbd27ce80	-0.040968418
41	0xbc862d23	-0.016378945
42	0x3cbc93d9	0.023019718
43	0x3e09990f	0.13437293
44	0xbd1c8775	-0.03821512
45	0x3e042405	0.12904365
46	0x3d932a7d	0.07185838
47	0x3d418b35	0.0472519
48	0x3d62c226	0.055360936
49	0x3df3b7f2	0.11900319
50	0x3d2d4f9c	0.04231225
51	0x3dc189c3	0.09450104
52	0x3cf1e683	0.029528862
53	0x3df0faa0	0.11766553
54	0x3c72a53c	0.014809903
55	0xbcbeb770	-0.02328083
56	0xbd1dc6df	-0.038519736
57	0x3d613a12	0.05498702
58	0x3d9e4fa8	0.07730037
59	0x3e128291	0.1430762
60	0x3cc53204	0.0240717
61	0x3e25465e	0.16140124
62	0x3d736bb9	0.059428904
63	0x3df7af86	0.12094025
64	0xbd4beed0	-0.049788296
65	0xbd810db5	-0.063014425
66	0xbb848985	-0.004044714
67	0xbd887570	-0.066630244
68	0x3cc4bed8	0.024016783
69	0x3d174198	0.03692779
70	0x3d84ba83	0.06480887
71	0x3cfc9c58	0.03083627
72	0xbda6fd1e	-0.08153747
73	0xbd18f59d	-0.03734361
74	0xbcca4681	-0.024691822
75	0x3df04b73	0.11733141
76	0x3d6cfe31	0.057859603
77	0x3e02f357	0.1278814
78	0xbd4f00be	-0.050537817
79	0xbdcb4a50	-0.09926283
80	0xbdccfc6a	-0.10009082
81	0x3cbe4ec1	0.023230912
82	0x3bd5aef5	0.0065211006
83	0xbe172568	-0.14760363
84	0xbcf4b53a	-0.029871572
85	0x3da35e3c	0.07976958
86	0xbc70b46d	-0.014691454
87	0xbe05847c	-0.1303882
88	0x3d97da27	0.07414656
89	0xbcdf3e50	-0.027251393
90	0xba80a93a	-0.0009816058
91	0x3abf6a08	0.0014603743
92	0xbca78f4e	-0.020454075
93	0x3df64992	0.12025751
94	0x3c9915e6	0.0186872
95	0xbdb4dd2a	-0.08831246
96	0x3d60cfa8	0.054885536
97	0x3dbc2f37	0.09188693
98	0xbc33f559	-0.010983788
99	0xbdb413cc	-0.087928385
100	0x3d7084ad	0.05872028
101	0x3c94e18b	0.018173954
102	0x3c5a2f7d	0.013316986
103	0x3e09ebd4	0.13468868
104	0xbd67155b	-0.05641685
105	0x3d1aa77b	0.037757378
106	0xbd398e0b	-0.04530148
107	0xbda07c40	-0.07836199
108	0xbdf19f03	-0.11797907
109	0x3d21571c	0.039389715
110	0x3d7e89cc	0.062143132
111	0xbdd95132	-0.1061119
112	0x3d3909e8	0.045175463
113	0x3dc9dc05	0.098564185
114	0x3d1da725	0.03848948
115	0xbc172da5	-0.009227191
116	0x3d944502	0.07239725
117	0xbcae2143	-0.021256095
118	0x3d9a413b	0.07531973
119	0xbcc552df	-0.024087368
120	0x3de51a16	0.11186616
121	0xbc3b2d2d	-0.011424345
122	0xbd4c31e7	-0.049852278
123	0x3d3df523	0.04637636
124	0xbdde0dd2	-0.1084248
125	0x3dc65eec	0.09686074
126	0x3c4ce6b6	0.012506178
127	0xbd58d5e8	-0.052938372
128	0x3c844b42	0.016149167
129	0xbda6970e	-0.0813428
130	0xbc248469	-0.010041335
131	0x3d5f969b	0.054586988
132	0xbdc50677	-0.09620374
133	0xbe0fe8d0	-0.14053655
134	0xbb920ce8	-0.004457105
135	0x3cb22bb7	0.02174936
136	0xbd883d15	-0.066522755
137	0xbdcfb902	-0.10142709
138	0x3d98e2a0	0.074651
139	0xbcb5f083	-0.022209411
140	0xbddd54b6	-0.10807173
141	0x3abd473a	0.0014440783
142	0x3d496cb6	0.04917594
143	0x3da5e951	0.08101142
144	0xbdf9d313	-0.12198462
145	0xbdf2a2e8	-0.11847478
146	0x3da125b7	0.07868522
147	0xbcce4490	-0.025179178
148	0x3df8541d	0.12125418
149	0x3ddb8157	0.10718029
150	0xbdc35fe7	-0.09539776
151	0xbd9a5ca4	-0.07537201
152	0xbd44ec5e	-0.04807698
153	0xbdbc8d5a	-0.09206648
154	0xbd0a42d1	-0.033755127
155	0x3de20579	0.110362
156	0xbdd2caf1	-0.10292614
157	0xbde01ed1	-0.10943378
158	0xbd6f2ba4	-0.05839123
159	0xbd687985	-0.056756515
160	0xbd9ef7d7	-0.077621154
161	0xbe133e73	-0.14379291
162	0x3ddcc42d	0.10779605
163	0xbb14d20c	-0.0022708206
164	0xbdfdeda6	-0.123988435
165	0xbce1a9f3	-0.027546858
166	0x3d014cc0	0.031567335
167	0xbdbc0781	-0.09181119
168	0x3c241212	0.010014074
169	0x3e021661	0.1270385
170	0xbd196146	-0.037446283
171	0xbd9e5b70	-0.07732284
172	0xbcb3f009	-0.021965044
173	0x3cdd0390	0.026979238
174	0x3d580bd3	0.05274565
175	0x3c28fe4d	0.010314536
176	0xbdc4af5d	-0.096037604
177	0x3d4f4e44	0.05061175
178	0x3e1193f7	0.142166
179	0xbd4def6d	-0.050277162
180	0x3af5dede	0.0018758436
181	0x3e354066	0.17700347
182	0x3c3c1dec	0.011481743
183	0x3e0a0bec	0.1348111
184	0x3de28768	0.11060983
185	0xbd2978cc	-0.041374967
186	0x3b5b4069	0.003345514
187	0xbd541234	-0.051775172
188	0x3d7e6e87	0.062117126
189	0x3d83416c	0.064089626
190	0xbc101cf9	-0.00879597
191	0x3cddd7d5	0.027080456
192	0x3d5772e5	0.052599806
193	0x3e09d059	0.13458385
194	0xbde0c83b	-0.10975691
195	0x3d451517	0.048115816
196	0x3e301726	0.1719633
197	0x3e077267	0.13227235
198	0x3cb3c6de	0.021945413
199	0x3d62ba5a	0.0553535
200	0x3e0bab43	0.1363955
201	0x3b945bbc	0.004527537
202	0x3d724dff	0.059156414
203	0x3e049042	0.12945655
204	0xbd993474	-0.07480708
205	0x3e03e68c	0.12880915
206	0xbdf8e302	-0.12152673
207	0xbd1c2ba1	-0.038127545
208	0x3e4471f8	0.191841
209	0x3ca155ad	0.019694174
210	0xbd88e3db	-0.06684085
211	0xbd37c5a4	-0.04486622
212	0x3dbc0ea1	0.09182478
213	0xbd0f0230	-0.034914196
214	0x3e084bf3	0.13310222
215	0x3d8f5cb4	0.070001036
216	0xbcdba7ae	-0.026813354
217	0x3d8e81b5	0.069583334
218	0x3e02a65b	0.12758772
219	0x38e31a2a	0.00010829077
220	0x3e41ec8e	0.18937895
221	0x3e193433	0.14961319
222	0xbd9116ca	-0.07084425
223	0x3dd76f7f	0.10519313
224	0x3e1c0ac1	0.15238477
225	0xbd8bee84	-0.068326026
226	0xbda54084	-0.08068946
227	0x3e023854	0.127168
228	0x3decac4e	0.11556302
229	0xbc849557	-0.016184492
230	0x3e25bae7	0.16184579
231	0xbc89e339	-0.016831981
232	0xbb577002	-0.0032873158
233	0x3c8f1004	0.017463692
234	0x3d9c4445	0.07630209
235	0xbdbea90e	-0.093095884
236	0x3e23bb88	0.15989506
237	0x3de31f96	0.11090009
238	0x3c89b706	0.016810905
239	0xbd6db7d7	-0.05803665

model.rnn.bias_hh_l0 f4 [240]
0	0x3dec15da	0.11527605
1	0x3c08f078	0.0083581135
2	0x3d8812b1	0.0664419
3	0x3de2961d	0.11063788
4	0xbdc10be4	-0.09426096
5	0x3dabddf4	0.083919436
6	0x3e2f86ba	0.17141238
7	0xbd4198b2	-0.047264762
8	0x3e3d3c71	0.18480088
9	0xbd3c4dba	-0.045972563
10	0xbb8d26d5	-0.0043076077
11	0xbb86542d	-0.00409939
12	0x3d9f5927	0.07780676
13	0x3e2ef8cf	0.170871
14	0xbd3b2398	-0.04568824
15	0xbbf3645b	-0.007427735
16	0x3e4cc302	0.19996265
17	0x3de9d9a0	0.11418462
18	0xbd612192	-0.054963656
19	0x3e19268a	0.14956108
20	0xbd3a092c	-0.045418903
21	0x3d828984	0.06373885
22	0x3d9af42f	0.075661056
23	0xbc9a03c2	-0.01880062
24	0x3d1dc9ab	0.038522404
25	0x3dc5e5eb	0.09662994
26	0xbd8320bb	-0.06402727
27	0xbd9b61e2	-0.07587029
28	0xbd056212	-0.03256423
29	0x3dec542f	0.11539494
30	0x3d48cb3e	0.04902195
31	0xbd176293	-0.036959242
32	0xbd8402b0	-0.06445825
33	0x3deb0de3	0.11477258
34	0xbc0b9219	-0.008518719
35	0xbab736c8	-0.0013978118
36	0x3e2ff514	0.17183334
37	0x3d523cd0	0.051327527
38	0x3e06ea15	0.13175233
39	0xbd389c2c	-0.045070812
40	0x3ce05ed4	0.027388968
41	0x3dae333a	0.085058644
42	0xbd0dcdd0	-0.034620106
43	0xbd1c6b04	-0.038187996
44	0xbdb727f1	-0.08943165
45	0xb9d63bd3	-0.00040861833
46	0x3e088a8f	0.13334106
47	0x3db56137	0.08856433
48	0xbcd8710a	-0.026421089
49	0xbd3e35c9	-0.046438012
50	0xba0f67fa	-0.0005470511
51	0x3d75c9ef	0.060007032
52	0x3d58d4e0	0.05293739
53	0x3d5c720a	0.053819694
54	0xbd52418d	-0.051332045
55	0x3d2de092	0.042450495
56	0x3e0f7685	0.14010055
57	0x3d8fac6e	0.0701531
58	0x3db848b2	0.089982405
59	0x3df6a0d8	0.12042397
60	0x3b884039	0.0041580466
61	0x3ca5808b	0.020202896
62	0xbd0186cb	-0.03162269
63	0xbc87c85a	-0.016575027
64	0x3db91d04	0.090387374
65	0x3da760d8	0.08172768
66	0x3d890353	0.06690087
67	0xbdc2769e	-0.09495281
68	0xbd5cc1bc	-0.053895697
69	0xbcf89fce	-0.030349638
70	0x3abde796	0.0014488574
71	0xbcbaa9e0	-0.02278608
72	0x3d973778	0.07383627
73	0x3e00a299	0.12562026
74	0x3e0b78b3	0.13620262
75	0x3d25e70b	0.040503543
76	0x3d33d552	0.04390461
77	0x3d9d7d3d	0.07689903
78	0xbd2feda5	-0.042951245
79	0xbb4f9054	-0.003167172
80	0x3d9cde2d	0.07659564
81	0xbda4f337	-0.08054202
82	0xbe08d1fd	-0.13361354
83	0x3c11fb3d	0.0089099975
84	0x3d8078e9	0.06273062
85	0x3da26b9a	0.079306796
86	0xbdaf015d	-0.08545182
87	0x3ddf74b8	0.10910934
88	0x3db6e29f	0.08929943
89	0x3d85df21	0.06536699
90	0xbda72319	-0.08160991
91	0xbda7d2b9	-0.08194489
92	0x3e07ef3a	0.13274851
93	0x3e12c103	0.1433144
94	0xbe26346e	-0.16230938
95	0x3d9843ba	0.07434793
96	0x393f803c	0.0001826295
97	0xb85a5850	-5.2057498e-05
98	0x3db7105d	0.08938668
99	0x3d5a44b8	0.05328819
100	0xbce4b875	-0.027919987
101	0xbd6dbee1	-0.058043364
102	0xbc9735b4	-0.018458225
103	0xbc6bb967	-0.014387465
104	0x3c3fc5c2	0.011704864
105	0xbc621fb9	-0.013801509
106	0x3dd69c41	0.10479022
107	0x3d88ebf4	0.066856295
108	0xbd8226e4	-0.06355074
109	0x3d93e1e9	0.07220823
110	0xbdf06b07	-0.11739164
111	0x3d99154c	0.07474765
112	0xbda22495	-0.07917134
113	0x3dafa70e	0.08576785
114	0xbd4cd314	-0.050005987
115	0xbd1fcf53	-0.03901608
116	0xbdad4dd4	-0.0846211
117	0x3d2e3652	0.042532273
118	0xba50e514	-0.00079687056
119	0x3d5dbc27	0.054134514
120	0xbca9be06	-0.020720493
121	0x3c5c6811	0.013452546
122	0xbd89d810	-0.06730664
123	0x3d4247f7	0.047431912
124	0x3d9c559e	0.07633518
125	0x3d47d670	0.048788488
126	0x3c64fce1	0.013976307
127	0x3d0c6cc1	0.034283403
128	0xbdf8f0a5	-0.12155274
129	0xbd9b4bc0	-0.075828075
130	0x3d1302ed	0.035891462
131	0xbde70322	-0.112798944
132	0x3d1cba0a	0.03826336
133	0x3c9f16d6	0.019420069
134	0xbd1ab7df	-0.03777301
135	0x3cb98ddd	0.022650653
136	0x3d8c212f	0.06842267
137	0xbd35711f	-0.044297334
138	0xbd6c16b8	-0.057638854
139	0xbd40775e	-0.046988837
140	0x3da7d7a5	0.08195428
141	0x3dcfeb0f	0.10152256
142	0xbd2172ce	-0.039416127
143	0xbdbcc069	-0.09216387
144	0x3da1b5bb	0.078959905
145	0xbd84a331	-0.06476439
146	0xbd3cd12e	-0.046097927
147	0xbcf86c45	-0.030325064
148	0xbd855197	-0.06509703
149	0xbccc84d6	-0.024965685
150	0xbae372ff	-0.0017352997
151	0xbdf2fe91	-0.11864961
152	0xbd88a179	-0.066714235
153	0x3d3a95ac	0.045552894
154	0x3d148c54	0.03626664
155	0xbdaf1f13	-0.08550849
156	0xbd779365	-0.0604433
157	0xbdbe22ee	-0.09284006
158	0x3e056c09	0.13029493
159	0xbdb8bd46	-0.09020476
160	0x3d8c8b3e	0.06862496
161	0xbd275ebb	-0.040861826
162	0xbd11f960	-0.035638213
163	0x3c367a79	0.011137598
164	0x3db32fd6	0.08749358
165	0x3ddb37a4	0.10703972
166	0x3c165d37	0.009177498
167	0x3cd9a1b7	0.02656637
168	0x3da4a778	0.08039755
169	0xbd7946c9	-0.06085852
170	0xb902d35a	-0.000124765
171	0x3e029fe1	0.12756301
172	0xbda2d4d2	-0.079507485
173	0xbda649e5	-0.08119563
174	0x3d793272	0.060839124
175	0xbdf1f581	-0.11814404
176	0xbdb7bab4	-0.08971158
177	0x3d2b6b6a	0.041850485
178	0xbd8b5d97	-0.0680496
179	0x3d2ddf5f	0.04244935
180	0xbcf3594c	-0.029705666
181	0xbd10c8b3	-0.03534765
182	0xbdd02a3e	-0.10164307
183	0x3e2c92a2	0.16852811
184	0x3bfd00ed	0.0077210576
185	0x3d97bca9	0.07409031
186	0xbd15f63b	-0.036611777
187	0x3d97ad0e	0.074060544
188	0x3e177e2f	0.14794229
189	0x3d92eb19	0.071737476
190	0xbd264b3f	-0.040599104
191	0x3df1398d	0.11778555
192	0xbddf0bc6	-0.108909175
193	0x3daf9175	0.085726656
194	0x3d34424e	0.044008546
195	0x3d232bb1	0.03983659
196	0x3e3d38e1	0.18478729
197	0x3b165482	0.0022938554
198	0xbb03739f	-0.002005793
199	0x3dc3b4e2	0.09555985
200	0x3cb078a4	0.021541901
201	0xbd204fd3	-0.039138626
202	0x3dfa04ab	0.122079216
203	0x3ab5520b	0.0013833655
204	0x3df4c917	0.11952417
205	0x3d68e25c	0.056856498
206	0xbde15142	-0.11001827
207	0x3dbb1284	0.09134391
208	0xbd1d90c2	-0.03846813
209	0x3e33c9a4	0.17557389
210	0xbce3cb68	-0.027806953
211	0x3de8be9d	0.113644816
212	0xbd045847	-0.03231075
213	0x3e0faf3d	0.14031692
214	0x3d0d6f42	0.03452993
215	0x3e1cd8a9	0.15317024
216	0xbd86f8a8	-0.06590396
217	0x3d9348c7	0.071916156
218	0x3d37c6ee	0.04486745
219	0x3e147103	0.14496236
220	0x3e1be27a	0.15223113
221	0x3d619727	0.05507579
222	0x3d332d47	0.04374435
223	0xbb85e1b8	-0.0040857457
224	0xbd409d3a	-0.047024943
225	0xbd98fc96	-0.07470052
226	0x3e0d2ea3	0.13787322
227	0x3d1c2b9c	0.038127527
228	0x3d8bd58f	0.068278424
229	0x3db47285	0.08810905
230	0xbca44445	-0.020052085
231	0x3cd548e0	0.026035726
232	0x3d54c562	0.05194605
233	0x3d76776f	0.060172495
234	0x3d78a16f	0.06070083
235	0x3caddcc3	0.021223431
236	0x3c86320b	0.016381284
237	0xbd8f9010	-0.070098996
238	0x3e043893	0.12912206
239	0x3d0bbe96	0.034117304

model.rnn.weight_ih_l1 f4 [240, 60]
0	0x3d761f6b	0.060088556
1	0xbe4450fc	-0.19171518
2	0x3e04eb99	0.12980498
3	0x3d706ea2	0.058699258
4	0xbd2edec2	-0.042692907
5	0x3c2e101d	0.010623959
6	0xbd99ec36	-0.07515757
7	0xbd0b452d	-0.034001518
8	0x3cd2c647	0.025729312
9	0xbd5bad0d	-0.05363183
10	0xbd042241	-0.03225923
11	0x3c384b1f	0.011248379
12	0xbd360212	-0.04443557
13	0xbd876ed7	-0.06612938
14	0x3daa2a5c	0.08308861
15	0xbcc3e3e2	-0.023912374
16	0xbd996617	-0.07490175
17	0xbd3d2892	-0.04618127
18	0x3e4047a0	0.18777323
19	0xbd29e56c	-0.04147856
20	0xbd6e1832	-0.058128543
21	0xbd0737c5	-0.03301217
22	0x3cd46d62	0.025931064
23	0x3e0a5070	0.13507247
24	0x3cac7184	0.021050222
25	0x3dc51c8e	0.09624587
26	0x3cea675e	0.028613742
27	0xbcd5b2ee	-0.026086297
28	0x3d8c76f6	0.068586275
29	0x3dcb35b8	0.099223554
30	0xbdb1af44	-0.086760074
31	0xbd9adf4a	-0.0756212
32	0xbdf562f1	-0.11981762
33	0xbd673870	-0.056450307
34	0xbe09640f	-0.13417076
35	0xbc839707	-0.016063226
36	0x3dd02019	0.10162372
37	0x3bbcf14f	0.005766071
38	0xbe06e680	-0.13173866
39	0x3ddb95c8	0.10721928
40	0xbd5719a8	-0.052514702
41	0x3d0f3b8a	0.03496889
42	0x3c90eb7e	0.017690416
43	0x3d5ce921	0.053933267
44	0x3d901aee	0.070363864
45	0x3e063658	0.13106668
46	0xbd065c32	-0.032802768
47	0xbdf7efc9	-0.12106282
48	0xbdaaf73f	-0.0834794
49	0x3c59a4ca	0.013283918
50	0x3d1fdbc2	0.039027937
51	0x3d6753ee	0.056476526
52	0xbd8c315f	-0.06845354
53	0x3b9ee64e	0.004849232
54	0xbd960126	-0.07324438
55	0x3d0d29ed	0.03446381
56	0x3db5d6e1	0.088788755
57	0x3b963b63	0.004584716
58	0xbe09cb53	-0.13456468
59	0x3d50be19	0.05096254
60	0xbdb693e8	-0.0891493
61	0x3ced5401	0.02897072
62	0x3dfc4a52	0.12318863
63	0xbbaecf42	-0.0053347657
64	0x3ccf1c78	0.02528213
65	0x3d7291e2	0.059221156
66	0xbc70cddf	-0.014697521
67	0xbde952b3	-0.11392727
68	0xbdfe2c4f	-0.12410795
69	0xbdce90b5	-0.100861944
70	0xbddf261d	-0.108959414
71	0x3c4e6ef2	0.012599694
72	0xbdcaff18	-0.099119365
73	0xbd486c98	-0.048931688
74	0x3d2e4e64	0.042555228
75	0xbd31fb1a	-0.04345236
76	0x3e3c256e	0.18373653
77	0xbe1af616	-0.15132937
78	0x3ca2f9a6	0.019894432
79	0x3d43bb23	0.04778589
80	0xbe21b225	-0.15790613
81	0x3d9ac0c3	0.07556298
82	0x3d765211	0.06013686
83	0xbca03fcc	-0.01956167
84	0xbde87994	-0.11351314
85	0x3d48f75f	0.049064036
86	0x3de632b8	0.112401426
87	0x3d40e3e7	0.047092345
88	0x3d0b2852	0.033974
89	0xbd3ad2b8	-0.045611113
90	0xbd9aa760	-0.075514555
91	0xbdccbc2a	-0.09996827
92	0xbc7657d2	-0.015035586
93	0xbcf60ae3	-0.030034488
94	0x3b627244	0.003455297
95	0x3e08ecc6	0.13371572
96	0xbc2daa93	-0.01059975
97	0xbd2bc0bf	-0.041931864
98	0x3c9d6d33	0.01921711
99	0xbdfb19bd	-0.122607686
100	0xbc77434d	-0.015091729
101	0x3c46d546	0.012135809
102	0x3dec9238	0.115513265
103	0x3d89b4f4	0.06723967
104	0x3d865772	0.065596476
105	0xbd4b7fb1	-0.049682323
106	0xbba788b0	-0.00511273
107	0xbd73315c	-0.059373245
108	0x3e26a5c4	0.16274172
109	0xbd9f32ab	-0.07773336
110	0xbe0ea132	-0.13928679
111	0xbdb4c4a9	-0.088265724
112	0xbdbe50fb	-0.092927895
113	0x3da71e81	0.08160115
114	0x3b0288cb	0.001991796
115	0xbdf5e154	-0.120058686
116	0x3b837a79	0.0040124026
117	0x3d6c670f	0.05771547
118	0x3c9fc22b	0.019501766
119	0x3e07248b	0.13197534
120	0xbd195322	-0.037432797
121	0xbe492d97	-0.19646297
122	0xbda243df	-0.07923102
123	0xbe05badd	-0.13059564
124	0xbc6c2fc4	-0.014415685
125	0x3d8a9a36	0.06767695
126	0x3d62f108	0.055405647
127	0x3dd0df65	0.10198859
128	0x3df672c3	0.12033608
129	0xbd30f0a6	-0.04319825
130	0x3c939bec	0.018018685
131	0xbdf3eb96	-0.11910169
132	0xbaaba5b3	-0.0013095647
133	0xbd3e40da	-0.046448566
134	0xbbe6606c	-0.0070305374
135	0x3d94e168	0.07269555
136	0x3d82aa31	0.06380118
137	0xbe057e89	-0.1303655
138	0xbd5b93db	-0.053607803
139	0xbe11690f	-0.14200233
140	0xbc90ae92	-0.017661367
141	0x3cd4dd78	0.02598451
142	0x3e0eb748	0.13937104
143	0xbd4b846b	-0.04968683
144	0xbdc8a036	-0.09796183
145	0x3d26e2fd	0.040743817
146	0x3e0655f7	0.1311873
147	0xbdbe8887	-0.09303384
148	0x3d90f6d7	0.07078331
149	0x3da568ff	0.08076667
150	0x3d35db77	0.04439875
151	0x3c151d3e	0.00910121
152	0xbd02f893	-0.03197534
153	0x3d42de47	0.04757526
154	0xbaa671ce	-0.0012698711
155	0xbd280690	-0.041021883
156	0xbd323484	-0.043507114
157	0x3d225225	0.03962912
158	0x3d90effc	0.070770234
159	0xbcd2a5d4	-0.025713839
160	0xbcc5c8bc	-0.02414357
161	0x3c304a8c	0.010759961
162	0x3d9ac70c	0.075574964
163	0xbcd17a01	-0.025570871
164	0x3c2c210b	0.010505925
165	0x3d4d46d0	0.05011636
166	0xbde9db0f	-0.11418735
167	0xbe2fe929	-0.17178787
168	0xbd8cf765	-0.06883124
169	0x3daa64f7	0.08320039
170	0x3d8fa728	0.070143044
171	0x3e0aec5b	0.13566725
172	0x3c36e754	0.011163551
173	0xbd8a2707	-0.06745725
174	0xbd2cddf8	-0.042203873
175	0xbd4cb8ab	-0.0499808
176	0xbd6cb529	-0.057789955
177	0x3d2cbdbe	0.04217314
178	0x3dae79e1	0.0851934
179	0xbd28a0cd	-0.041168977
180	0x3c633591	0.013867752
181	0xbe1dcb22	-0.1540952
182	0xbe153f74	-0.14574987
183	0x3bc4711a	0.005994928
184	0xbafb932a	-0.0019193639
185	0xbd6c542a	-0.057697453
186	0x3d98f841	0.07469226
187	0x3c98c989	0.018650787
188	0xbcbf27e2	-0.023334447
189	0x3d1d7e62	0.038450606
190	0xbe12cc6c	-0.14335793
191	0x3bd52127	0.006504196
192	0x3dcd08aa	0.10011418
193	0xbd91d28f	-0.07120239
194	0x3d12eaec	0.03586857
195	0xbc2fbc1f	-0.010726004
196	0x3d8686a6	0.06568651
197	0xbd6e7f62	-0.05822695
198	0x3d09a674	0.033606008
199	0x3c85406d	0.016266072
200	0x3b809a9e	0.003924682
201	0xbe2eacec	-0.17058152
202	0xbe23a059	-0.15979137
203	0xbdc7682d	-0.09736667
204	0xbd83ff04	-0.06445125
205	0xbe08e73b	-0.13369457
206	0x3e399192	0.18121937
207	0x3d67b1b4	0.056565955
208	0x3d4cd50f	0.050007876
209	0x3d6d6269	0.05795518
210	0xbe53b0b7	-0.2067288
211	0xbdf84c33	-0.12123909
212	0xbe10f97b	-0.14157669
213	0xbc3bdb03	-0.011465791
214	0xbda4b2da	-0.08041926
215	0x3e4296cf	0.19002841
216	0x3d72f326	0.059313916
217	0x3d384dd6	0.044996105
218	0x3d5efa2d	0.054437805
219	0x3ce3d35d	0.027810747
220	0xbdd40dce	-0.103541955
221	0xbc437daa	-0.011931816
222	0xbc671a74	-0.014105428
223	0x3d5f0f2d	0.054457832
224	0x3d0a1b39	0.033717368
225	0x3e1b7714	0.15182143
226	0xbd9adbfa	-0.075614884
227	0x3da81333	0.08206787
228	0x3d08f131	0.033433143
229	0xbdad7eee	-0.084714755
230	0x3d359d76	0.04433962
231	0x3daa5fc4	0.08319047
232	0xbe2c23dc	-0.16810554
233	0x3ddb6090	0.10711777
234	0x3df7686e	0.12080465
235	0xbdd48314	-0.10376564
236	0xbc7d2590	-0.01545085
237	0x3d758bea	0.059947886
238	0x3cd8fe4f	0.026488451
239	0x3e292921	0.16519596
240	0xbd0bb4cb	-0.034107964
241	0x3db9b7bd	0.090682484
242	0xbd691cd8	-0.056912273
243	0x3dc66427	0.09687071
244	0xbd2ed21a	-0.042680837
245	0x3d0cc503	0.034367573
246	0x3d8d3ed2	0.06896748
247	0xbdae0a53	-0.08498063
248	0xbd58c47e	-0.052921765
249	0x3af78cce	0.0018886568
250	0x3d3c1357	0.04591688
251	0x3d0f763c	0.035024866
252	0xbe1eba48	-0.15500748
253	0xbd84a5e2	-0.06476952
254	0x3e2b7615	0.16744263
255	0xbd28b72e	-0.04119032

model.rnn.weight_hh_l1 f4 [240, 60]
0	0xbdcc1f61	-0.099669226
1	0xbda32c1f	-0.079674
2	0xbb00fd5b	-0.0019682262
3	0x3df5231d	0.11969588
4	0x3aad6a36	0.0013230506
5	0x3e1129cd	0.14176102
6	0xbbd76eee	-0.006574503
7	0xbdc1bc17	-0.094597034
8	0x3cd56246	0.026047837
9	0xbc8b5b7c	-0.017011397
10	0x3d034518	0.032048315
11	0x3d99acfb	0.075036965
12	0xbd4de55d	-0.050267566
13	0x3df352b9	0.118810125
14	0x3d65e63a	0.056127764
15	0xbe1a3ab2	-0.15061453
16	0xbdcd4ccb	-0.10024413
17	0xbdaed09c	-0.08535883
18	0xbc1a6a49	-0.009424754
19	0xbcf1d2da	-0.029519487
20	0x3e3232ab	0.17402141
21	0x3c9ac96f	0.01889488
22	0x3d9ee52b	0.07758554
23	0xbd9162e5	-0.07098941
24	0xbd9b0cf0	-0.07570827
25	0x3d44035a	0.04785476
26	0xbd3fc3be	-0.046817534
27	0xbdf216f8	-0.11820787
28	0xbd95579d	-0.072921015
29	0xbdadca86	-0.08485894
30	0xbd861cb9	-0.06548447
31	0x3c092bc8	0.008372255
32	0x3d7f14e8	0.062275797
33	0xbc449bd5	-0.012000044
34	0xbceaee25	-0.02867801
35	0xbe0737f1	-0.13204934
36	0x3e021989	0.12705053
37	0x3a81f702	0.0009915533
38	0xbd634896	-0.055489145
39	0x3db26740	0.087110996
40	0xbe04562c	-0.12923497
41	0xbc92cf8a	-0.017921228
42	0x3b424a6b	0.0029646407
43	0x3d21010a	0.03930763
44	0xbd3c1a50	-0.04592353
45	0xbe119486	-0.14216813
46	0x3b2a809c	0.0026016599
47	0x3dd6e89a	0.10493584
48	0x3d4df438	0.050281733
49	0x3dd50f7c	0.10403344
50	0xbc696bd3	-0.014246899
51	0xbd783e4f	-0.060606297
52	0x3a97687e	0.0011551527
53	0xbd0a77f5	-0.033805806
54	0x3d9cc7d4	0.07655302
55	0xbd3fe56a	-0.046849646
56	0xbde3899a	-0.1111023
57	0x3d3c1013	0.045913767
58	0x3d4d58eb	0.050133627
59	0x3c2e5973	0.010641444
60	0xbe249a8c	-0.1607458
61	0x3c284c16	0.010272047
62	0xbe0806ca	-0.1328384
63	0xbd377b8b	-0.044795554
64	0xbdafa409	-0.08576209
65	0x3d990e23	0.074733995
66	0x3d9cfe25	0.07665662
67	0x3cae0144	0.021240838
68	0x3de9d6e7	0.114179425
69	0x3dd41067	0.10354691
70	0x3db93909	0.09044082
71	0x3d1735de	0.036916606
72	0xbe0cd571	-0.13753296
73	0xbc8c453f	-0.017122863
74	0xbd46651d	-0.048436273
75	0xbe209089	-0.15680136
76	0xbd737788	-0.059440166
77	0x3d12988f	0.035790022
78	0xbce0fb7e	-0.02746367
79	0x3ba76a1d	0.0051090852
80	0x3dc1441b	0.09436818
81	0x3b8cbca0	0.004294947
82	0x3dfbf225	0.12302045
83	0xbd804866	-0.06263809
84	0xbdefe6b0	-0.11713922
85	0xbd0d9069	-0.03456155
86	0xbd0a7cd1	-0.03381044
87	0x3d5f741c	0.05455409
88	0xbd228c11	-0.03968436
89	0xbd9012f9	-0.07034869
90	0xbde198a7	-0.11015444
91	0x3cbf15e6	0.023325872
92	0x3d46710b	0.04844765
93	0xbc9588c1	-0.018253686
94	0x3e11752b	0.14204852
95	0xbe0e53e0	-0.13899183
96	0x3d9e1ad6	0.07719962
97	0xbc6db95d	-0.014509526
98	0xbd4bc174	-0.04974504
99	0xbc11ac32	-0.008891152
100	0xbccd8863	-0.025089448
101	0xbd83937a	-0.06424613
102	0xbd6d959e	-0.058004014
103	0xbe0fb666	-0.14034423
104	0xbe10b34e	-0.141309
105	0xbc78440a	-0.0151529405
106	0x3e0166ea	0.12636915
107	0x3c8c611d	0.017136151
108	0x3b7b7e52	0.0038374853
109	0xbd95627c	-0.07294175
110	0x3de2cfb7	0.11074775
111	0x3da57072	0.08078088
112	0x3d9bf476	0.076149866
113	0xbd922caf	-0.07137429
114	0x3d9f1cd4	0.077691704
115	0xbd4e4155	-0.050355274
116	0xbd1e5e2f	-0.03866404
117	0x3c8bac07	0.017049802
118	0xbc7d0d01	-0.015444995
119	0xbdabb0b9	-0.083833165
120	0xbc807434	-0.01568041
121	0xbc909375	-0.017648438
122	0x3cc2d4f7	0.02378319
123	0xbda28d26	-0.07937078
124	0xbdabffd4	-0.08398405
125	0xbd3f365e	-0.046682708
126	0x3d9d46d9	0.07679529
127	0xbdc5aebd	-0.09652469
128	0xbb8142a2	-0.003944711
129	0x3d8fbecf	0.07018816
130	0x3df0cb6f	0.11757552
131	0xbcd62094	-0.026138581
132	0x3d975e59	0.07391042
133	0xbdc55997	-0.096362285
134	0x3df98f3e	0.121855244
135	0xbe020709	-0.12697996
136	0x3ca5aee2	0.020224992
137	0x3df899d2	0.12138714
138	0x3ddb9922	0.10722567
139	0xbd6f6019	-0.058441255
140	0xbd925cba	-0.071465924
141	0x3dd9e363	0.10639074
142	0xbd1e3594	-0.038625315
143	0x3de8deef	0.11370646
144	0xbdfc9364	-0.123328
145	0xbe125991	-0.1429198
146	0x3db1604a	0.08660944
147	0xbd3ea352	-0.046542473
148	0x3d41c4f1	0.04730696
149	0xbcd16596	-0.025561135
150	0x3da4abe1	0.08040596
151	0x3d9f7ea3	0.07787826
152	0x3d1b49a4	0.037912026
153	0xbcb512ce	-0.022103693
154	0xbdc3f889	-0.09568889
155	0xbd972938	-0.07380909
156	0x3ded29e5	0.115802564
157	0xbb704f79	-0.0036668463
158	0xbd952aff	-0.072835915
159	0x3cb541df	0.022126136
160	0x3dc97035	0.09835855
161	0xbdc144d6	-0.094369575
162	0x3e01c79d	0.12673803
163	0xbdc0002e	-0.09375034
164	0xbe23dd6a	-0.16002432
165	0x3dd87153	0.1056849
166	0x3d802691	0.06257356
167	0x3d76f446	0.06029155
168	0x3d836565	0.06415824
169	0xbad70d4a	-0.0016407159
170	0x3c9e55b4	0.019327976
171	0xbd214f3a	-0.039382197
172	0x3e11e034	0.14245683
173	0x3be9cac7	0.0071347686
174	0x3e0d408e	0.13794157
175	0x3df0fdbc	0.11767146
176	0x3de1dbb2	0.11028232
177	0xbdc91dee	-0.09820162
178	0xbd65759c	-0.056020364
179	0xbc9a0b06	-0.018804085
180	0xbd086710	-0.033301413
181	0xbe134a65	-0.14383848
182	0x3c486f13	0.012233513
183	0xbc84f827	-0.01623161
184	0x3e2e1851	0.17001463
185	0x3e1e21a0	0.15442514
186	0x3e4134b4	0.18867761
187	0xbe157c52	-0.14598206
188	0xbccc9dc2	-0.024977569
189	0x3e2c2398	0.16810453
190	0x3d439230	0.047746837
191	0x3e37fb26	0.179669
192	0xbe204fbd	-0.15655418
193	0x3db168d0	0.086625695
194	0xbdc9efb8	-0.09860176
195	0xbdaaa3f9	-0.083320566
196	0xbd00a8d6	-0.031411014
197	0xbbad6900	-0.005292058
198	0x3d7d5bf8	0.061855286
199	0x3dbaf75b	0.091292106
200	0x3d49b717	0.049246874
201	0xbd583a50	-0.052789986
202	0xbd8148e2	-0.063127294
203	0xbe2adf90	-0.16686845
204	0xbdfa7b6c	-0.12230572
205	0x3cfa89b5	0.030583242
206	0xbd19cb83	-0.0375476
207	0xbe1fb4e2	-0.15596345
208	0xbd0b6041	-0.03402734
209	0xbe0db789	-0.13839544
210	0xbe028093	-0.1274436
211	0x3d278d1e	0.040906064
212	0xbd616dfd	-0.055036534
213	0xbcb6908c	-0.022285722
214	0x3dc721da	0.097232535
215	0xbdf58b7c	-0.11989495
216	0xbd4d840d	-0.05017476
217	0xbdce8cf9	-0.10085482
218	0xbd998155	-0.07495371
219	0x3d587e50	0.052854836
220	0xbe16ca19	-0.14725532
221	0xbb1aca17	-0.002361899
222	0x3df04a91	0.117329724
223	0xbdbba54b	-0.091623865
224	0xbe13b52c	-0.1442458
225	0xbda4d807	-0.080490164
226	0xbcd96946	-0.026539456
227	0x3e1eb771	0.15499665
228	0x3d9c7c9d	0.076409556
229	0xbd4d7e5a	-0.050169326
230	0xbd0593e1	-0.03261173
231	0xbdce68fa	-0.100786164
232	0x3de861dd	0.11346791
233	0xbd107d25	-0.035275597
234	0x3d40c136	0.04705926
235	0x3d8585a9	0.06519634
236	0xbd98053f	-0.074228756
237	0x3d80f583	0.06296828
238	0xbde8aaab	-0.11360677
239	0x3d32c8ee	0.043648653
240	0x3d7a0ceb	0.061047476
241	0xbdc02144	-0.09381345
242	0xbdd3cd5a	-0.10341902
243	0x3e2fa17e	0.17151448
244	0xbdb79325	-0.089636125
245	0x3e2af5f6	0.16695389
246	0x3c73847d	0.014863131
247	0xbd03043b	-0.031986456
248	0x3e1d7e67	0.1538025
249	0xbc1fa5b7	-0.009744099
250	0xbcb69110	-0.022285968
251	0x3e05a687	0.13051806
252	0x3c723bc2	0.014784755
253	0x3de0a671	0.10969246
254	0x3d30ec6f	0.04319423
255	0xbd003438	-0.0312998
