checkpoints/epoch=1-step=100-v20.ckpt (torch, 621663 bytes, 33 tensors)

model.param_proj.proj.0.weight f4 [1, 60]
0	0x3d4d4acd	0.050120164
1	0xbd144256	-0.036196075
2	0x3dc6f22c	0.09714159
3	0x3bb2a1d4	0.0054514203
4	0x3db5826f	0.08862769
5	0xbe72a100	-0.23694229
6	0xbbe4b82d	-0.0069799633
7	0x3e572fbc	0.21014303
8	0xbb298b48	-0.0025870372
9	0xbe5437e9	-0.20724453
10	0x3dca98fe	0.09892462
11	0xbe693807	-0.22775279
12	0xbdb25902	-0.08708383
13	0x3d4acf64	0.04951419
14	0xbe417e47	-0.18895827
15	0x3e56b52b	0.20967548
16	0x3e1b6751	0.15176131
17	0xbbfc9093	-0.0077076643
18	0xbd73b433	-0.059498023
19	0xbdb39dec	-0.087703556
20	0x3e510f7c	0.20416063
21	0xbe0b82db	-0.13624136
22	0xbdad1a83	-0.08452322
23	0xbe6508e9	-0.2236668
24	0xbcdd612b	-0.027023872
25	0x3dc22d2b	0.09481271
26	0x3e66fcc4	0.2255736
27	0x3d1110be	0.035416357
28	0x3dd80354	0.1054751
29	0xbe27c684	-0.16384321
30	0xbd514f4f	-0.051101025
31	0x3c05d84f	0.008169248
32	0xbd77cc2e	-0.060497455
33	0x3e59922d	0.21247168
34	0xbcb6992f	-0.02228984
35	0x3e2a4a70	0.16629958
36	0x3e56dbb5	0.20982249
37	0x3de152b0	0.110020995
38	0x3e4d984e	0.20077631
39	0xbd9954a2	-0.074868456
40	0xbe524b2a	-0.20536485
41	0x3c10a5ff	0.008828639
42	0x3de37f64	0.11108282
43	0x3db78b8f	0.089621656
44	0xbe285f85	-0.16442688
45	0x3e60e16e	0.21960995
46	0x3e1cd0bf	0.15314005
47	0x3d08d542	0.033406503
48	0xbc6bb8b0	-0.014387295
49	0xbe49dd60	-0.19713354
50	0xbdbf8a42	-0.093525425
51	0x3d34540a	0.04402546
52	0xbe06e4ab	-0.13173167
53	0xbd66f68e	-0.056387477
54	0xbca1e670	-0.019763201
55	0x3d88a8dd	0.06672833
56	0x3e2b5565	0.16731794
57	0x3dd370c3	0.10324242
58	0xbcb76802	-0.022388462
59	0x3e2249dc	0.15848488

model.param_proj.proj.1.weight f4 [1, 60]
0	0xbe30b2aa	-0.17255655
1	0x3d42370c	0.047415778
2	0x3dbe9c79	0.093071885
3	0x3b301887	0.0026870088
4	0xbe56bf76	-0.20971474
5	0x3c148a2a	0.009066144
6	0x3d90bf86	0.0706778
7	0xbcb3024d	-0.021851683
8	0x3e5a4043	0.21313576
9	0x3df55025	0.11978177
10	0x3e52872c	0.20559376
11	0xbde1ff42	-0.11035015
12	0xbd9af9c5	-0.07567171
13	0xbe1f1dcd	-0.15538712
14	0x3e05194f	0.12997936
15	0x3d69242a	0.056919254
16	0xbe132b95	-0.14372094
17	0xbe0110e2	-0.12604097
18	0xbe06e9f5	-0.13175185
19	0xbe1bbd97	-0.15209042
20	0xbdaf7234	-0.085667044
21	0xbdd0de20	-0.10198617
22	0xbda9b6b6	-0.082868025
23	0x3cad2c4c	0.021139286
24	0x3c8218f8	0.015881047
25	0xbdca9925	-0.09892491
26	0xbd46c944	-0.048531786
27	0xbd8a2b0d	-0.067464925
28	0x3b94a8c2	0.004536719
29	0xbc75eb35	-0.015009691
30	0xbdd84337	-0.10559695
31	0x3e22fe4a	0.15917316
32	0xbdab261d	-0.08356879
33	0xbde9c16f	-0.11413848
34	0x3e4cb673	0.19991474
35	0x3de1b942	0.11021663
36	0xbdeaf796	-0.114730045
37	0x3daa3d2a	0.08312447
38	0xbd4dbc5e	-0.05022847
39	0xbd823efc	-0.063596696
40	0x3e009bb0	0.1255939
41	0xbe0d8057	-0.13818489
42	0x3e2573f9	0.16157521
43	0xbc8b52b3	-0.017007207
44	0xbe202a7d	-0.15641208
45	0x3e2b350c	0.16719455
46	0xbe056776	-0.13027748
47	0xbd271e7c	-0.040800557
48	0xbc9ccd4f	-0.019140868
49	0x3dbccacf	0.0921837
50	0xbc773b5e	-0.015089838
51	0x3dec9b79	0.115530916
52	0xbbd2e8a0	-0.0064364225
53	0xbe316cf5	-0.1732672
54	0xbe251ff4	-0.1612547
55	0xbdb63b7c	-0.088980645
56	0xbe226da6	-0.1586214
57	0xbe34f1b8	-0.17670333
58	0xbdad0af1	-0.084493525
59	0xbdbea615	-0.093090214

model.param_proj.proj.2.weight f4 [1, 60]
0	0xbb43d321	-0.0029880481
1	0x3dbf89c6	0.0935245
2	0x3e109513	0.14119367
3	0xbda578a7	-0.08079653
4	0x3c5a1a6b	0.013311963
5	0x3d0e06b0	0.034674346
6	0x3d235cee	0.039883547
7	0x3d0b931f	0.034075852
8	0x3d02c775	0.0319285
9	0xbdf62414	-0.120186
10	0x3d5d209a	0.05398617
11	0x3d4af4d2	0.049549885
12	0x3d862db7	0.06551688
13	0x3e01e8f4	0.12686521
14	0xbdb22f41	-0.08700419
15	0x3ccb64a3	0.02482826
16	0x3c8ffa8f	0.01757553
17	0x3ca9e66b	0.020739755
18	0x3bdec88d	0.00679881
19	0xbd70b81c	-0.05876933
20	0xbc8fe121	-0.017563405
21	0x3de7f64a	0.11326273
22	0x3d4444aa	0.047917046
23	0xbd84e151	-0.06488288
24	0x3dbe541e	0.09293388
25	0xbddfaa3e	-0.10921143
26	0xbd87cd4a	-0.06630953
27	0x3d48b60c	0.04900174
28	0xbd00772e	-0.03136366
29	0xbc80e655	-0.01573483
30	0xbdf569cb	-0.11983069
31	0x3dce787c	0.10081574
32	0x3c7c7eff	0.015411138
33	0x39241efd	0.00015651803
34	0x3de01cbd	0.109429814
35	0xbbc43a8a	-0.0059884237
36	0xbd9dac6e	-0.07698904
37	0x3d996590	0.07490075
38	0x3d63e0c0	0.05563426
39	0x3d5baf48	0.053633958
40	0xbd37fc15	-0.04491814
41	0xbbd2ea07	-0.0064365896
42	0xbc020a48	-0.007937022
43	0x3d240f40	0.040053606
44	0xbe1b8396	-0.15186915
45	0x3d51c236	0.051210605
46	0x3cf451ad	0.029824102
47	0x3df89a66	0.12138824
48	0xbc585957	-0.013204894
49	0xbc94cbca	-0.01816358
50	0x3d85c985	0.065325774
51	0x3d9e82b8	0.077397764
52	0x3dc61ce8	0.09673482
53	0xbd44f6c3	-0.048086893
54	0xbc772501	-0.015084506
55	0x3d1cd158	0.038285583
56	0xbcf850ed	-0.030312026
57	0x3ce2efc2	0.027702216
58	0xbd39a7df	-0.04532611
59	0xbdc8289a	-0.09773369

model.rnn.weight_ih_l0 f4 [240, 24]
0	0x3e1fc947	0.15604125
1	0x3cfc4acd	0.030797387
2	0x3e1337e0	0.14376783
3	0x3daa4f9e	0.08315967
4	0x3c743f23	0.014907631
5	0x3c681d8a	0.014167199
6	0xbd88e18e	-0.06683646
7	0x3cb071d9	0.021538662
8	0x3db247f7	0.087051325
9	0xbda6602c	-0.08123812
10	0xbdba255d	-0.09089158
11	0x3d631d89	0.05544809
12	0x3e020452	0.1269696
13	0xbd9b0663	-0.075695775
14	0xba734562	-0.0009280053
15	0x3e01ac3f	0.12663363
16	0x3d8e82f2	0.069585696
17	0xbe099b62	-0.1343818
18	0x3e12085a	0.14260998
19	0xbdb0a2c2	-0.086247936
20	0xbe48d6e4	-0.19613224
21	0xbdcba9e1	-0.09944511
22	0xbe1da031	-0.1539314
23	0x3d27222c	0.040804073
24	0x3e2f4c7b	0.17119019
25	0x3d20f394	0.039294794
26	0xbe53ecee	-0.2069585
27	0x3ddbe6ba	0.10737367
28	0x37eb63e8	2.8060706e-05
29	0x3d822406	0.06354527
30	0xbd7450ef	-0.059647497
31	0xbd3cefb7	-0.046127047
32	0xbe681417	-0.22663914
33	0x3dd70c70	0.10500419
34	0x3c1e7809	0.009672173
35	0x3cb3b2f2	0.021935914
36	0xbe2151e3	-0.15753894
37	0x3d2de998	0.0424591
38	0xbb9945a0	-0.0046774894
39	0x3d0581da	0.03259454
40	0x3cfb28f1	0.03065917
41	0x3d30d1b1	0.043168727
42	0x3c29df17	0.01036813
43	0x3d60b0d2	0.05485613
44	0x3d08f9d4	0.03344138
45	0xbd810eac	-0.063016266
46	0xbcd0c507	-0.025484575
47	0x3e14f2d0	0.1454575
48	0xbc8206fb	-0.01587247
49	0x3c6f003e	0.01458746
50	0xbdad995f	-0.08476519
51	0xbd7bfa4b	-0.061517995
52	0xb8407c40	-4.5892084e-05
53	0xbdc676de	-0.09690641
54	0xbdf0001a	-0.11718769
55	0xbdb90733	-0.09034576
56	0xbe25820c	-0.1616289
57	0x3dce1593	0.10062709
58	0xbdd14e33	-0.102199934
59	0xbc861769	-0.016368585
60	0x3dc0a914	0.09407249
61	0x3bacab78	0.005269464
62	0xbe08d8d3	-0.13363962
63	0xbd124f83	-0.03572036
64	0x3bda9c0c	0.0066714343
65	0xbc716dc8	-0.014735647
66	0x3d45d651	0.04830009
67	0xbc7f6269	-0.015587428
68	0x3d6f9f12	0.05850131
69	0xbe01f41d	-0.12690778
70	0xbe09e8bf	-0.13467692
71	0xbd71d0f9	-0.059037182
72	0xbd816743	-0.06318524
73	0xbd7f4abc	-0.06232713
74	0x3dcbf3e2	0.09958626
75	0xbd0d6f05	-0.034529705
76	0x3d8783c7	0.066169314
77	0xbd9aa23f	-0.07550477
78	0x3cbe6716	0.023242515
79	0x3e31de7c	0.17370027
80	0x3e295adb	0.16538565
81	0x3e20157f	0.156332
82	0x3dcdd69a	0.100506976
83	0x3ccdd465	0.025125692
84	0xbe039d32	-0.12852934
85	0xbca240a7	-0.01980622
86	0xbdc73dd8	-0.09728593
87	0x3dc9cdb5	0.09853689
88	0x3e3b2499	0.1827568
89	0xbe083b13	-0.13303785
90	0x3b8433fa	0.0040345164
91	0xbcf90383	-0.030397182
92	0xbdb3cf84	-0.08779815
93	0xbe2bfa0f	-0.16794609
94	0x3e60ba3f	0.21946047
95	0xbbdc4ca6	-0.0067230044
96	0x3ce1fa4f	0.027585177
97	0xbc11f989	-0.0089095915
98	0xbccfa26e	-0.025346007
99	0x3cf6e789	0.030139701
100	0xbb2e2588	-0.0026572663
101	0x3dda4d08	0.10659224
102	0xbc8e6ce5	-0.01738591
103	0x3e0c3b57	0.13694511
104	0x3e11a533	0.14223175
105	0x3db67275	0.0890855
106	0x3c6df53e	0.014523802
107	0xbdafc6b7	-0.08582824
108	0x3cd7aab9	0.026326524
109	0xbe140174	-0.1445368
110	0x3dca59a9	0.098803826
111	0x3db8fa68	0.09032136
112	0xbda90452	-0.08252777
113	0xbe102ef0	-0.14080405
114	0x3d83125c	0.06399986
115	0x3cd4a3d1	0.02595702
116	0xbbfdd843	-0.0077467277
117	0xbd80ce27	-0.062893204
118	0x3e38c065	0.18042143
119	0x3cc902ff	0.024537561
120	0x3dda4a66	0.106587216
121	0xbddd11ae	-0.10794388
122	0x3d362b47	0.044474866
123	0xbcb097ba	-0.021556724
124	0x3d092589	0.033483062
125	0xbe1ce48e	-0.15321562
126	0xbdb92557	-0.09040325
127	0xbcd49477	-0.0259497
128	0xbdd1873a	-0.102308705
129	0x3d344976	0.04401537
130	0xbd174486	-0.036930583
131	0xbd3a38f0	-0.045464456
132	0x3e0d59ed	0.13803835
133	0xbdb29957	-0.087206535
134	0xbe009fac	-0.1256091
135	0xbd491f41	-0.04910207
136	0x3c2ee3d6	0.0106744375
137	0xbdd4e2b4	-0.10394803
138	0x3d910e6a	0.070828274
139	0x3dc9116e	0.098177776
140	0x3dc4c884	0.09608558
141	0xbc09c8b4	-0.008409668
142	0x3b8f5c50	0.004375018
143	0x3d58217c	0.05276631
144	0x3d296134	0.041352466
145	0xbda5d3c6	-0.08097033
146	0x3df04861	0.11732555
147	0xbd846c16	-0.06465928
148	0x3e04c414	0.12965423
149	0xbdf6fcea	-0.12059958
150	0x3e0b8ec1	0.13628675
151	0x3d79951e	0.060933225
152	0xbcdc1ce5	-0.026869247
153	0xbdaf4f7c	-0.08560082
154	0xbc77687e	-0.0151005965
155	0x3ddd57d9	0.10807771
156	0x3ddaa11a	0.10675259
157	0x3cfc0a6d	0.03076669
158	0x3dedefd2	0.11618008
159	0xbd6145f8	-0.054998368
160	0xbc382f18	-0.011241697
161	0x3de72e88	0.11288172
162	0xbdcfd12b	-0.101473175
163	0x3c91d4bb	0.017801633
164	0x3deb4dfe	0.11489485
165	0x3cf9ea5c	0.03050726
166	0x3d96d118	0.073641
167	0xbd1bb1bc	-0.038011298
168	0xbdacc2a4	-0.08435562
169	0x3da507b3	0.08058109
170	0xbe18d067	-0.14923249
171	0x3e187d20	0.14891481
172	0xbda9bdb0	-0.08288133
173	0x3dd2443c	0.10266921
174	0xbd8d21d6	-0.06891219
175	0xbd3bae3e	-0.045820467
176	0xbdc62fe9	-0.09677107
177	0x3dc404a8	0.095712006
178	0x3d62166b	0.05519716
179	0x3e03a6ab	0.12856548
180	0xbc179207	-0.009251124
181	0x3e3a3ee6	0.18188056
182	0xbc1a8a77	-0.009432427
183	0x3d0c1346	0.034198068
184	0x3d839879	0.06425566
185	0x3d6bd887	0.057579543
186	0x3db2d0de	0.087312445
187	0xbd01d3de	-0.031696193
188	0x3c6ee274	0.014580358
189	0x3e31abc5	0.17350681
190	0xbdb87e45	-0.09008459
191	0xbcf1cd1f	-0.029516755
192	0xbd3de72a	-0.046363033
193	0x3d174a67	0.03693619
194	0x3dc83e93	0.0977756
195	0x3ac1ac24	0.0014776033
196	0xbd9f0487	-0.077645354
197	0xbd30f958	-0.043206543
198	0x3e0e2002	0.13879398
199	0x3dd0addf	0.10189413
200	0xbe227d28	-0.15868056
201	0x3e17e8a4	0.14834839
202	0xbd0d0750	-0.034430802
203	0xbc826763	-0.01591844
204	0xbe4e9b9e	-0.20176551
205	0xbde3f1ce	-0.11130105
206	0x3e0ac6d0	0.13552403
207	0x3c706433	0.014672327
208	0xbbd3ef8b	-0.0064677647
209	0x3cc6623b	0.024216762
210	0xbdab4c32	-0.083641425
211	0xbd99bd87	-0.075068526
212	0xbd738997	-0.059457388
213	0x3e38c86b	0.18045203
214	0x3db5d7c2	0.08879043
215	0xbd82b0aa	-0.06381352
216	0x3d84af65	0.06478766
217	0xbd977032	-0.073944464
218	0xbdca7531	-0.09885634
219	0x3cb00f53	0.021491682
220	0x3d87d334	0.06632081
221	0x3e152318	0.14564168
222	0xbbce57d0	-0.006297089
223	0xbdfe358e	-0.124125585
224	0xbd028494	-0.031864718
225	0xbce5d968	-0.028057769
226	0xbd2dca67	-0.042429354
227	0xbcfa950e	-0.030588653
228	0x3c7ceddb	0.015437569
229	0x3d978133	0.0739769
230	0x3d1c9202	0.03822518
231	0xbdc2e9ca	-0.09517248
232	0x3e3e26fd	0.1856956
233	0xbe221549	-0.15828432
234	0x3dfb3ad0	0.12267077
235	0x3d80c8f7	0.06288331
236	0xbe4243cb	-0.18971173
237	0xbbba7c7f	-0.0056911106
238	0xba382304	-0.00070242607
239	0xbd2a5118	-0.041581243
240	0xbabba5db	-0.0014316397
241	0xbd2d5c67	-0.04232445
242	0xbcf85f26	-0.030318808
243	0x3d01c4c6	0.0316818
244	0x3cbfe19e	0.023423012
245	0x3c202e8e	0.0097767245
246	0xbde6832b	-0.11255487
247	0xbd8a4f68	-0.06753427
248	0xbbff19a3	-0.0077850386
249	0xbce2ffb4	-0.02770982
250	0x3dbc5072	0.09195031
251	0x3d81b7e8	0.063339055
252	0xbd6743f3	-0.056461286
253	0x3c132f22	0.008983405
254	0x3c4512d9	0.012028419
255	0x3e1d3d17	0.15355335

model.rnn.weight_hh_l0 f4 [240, 60]
0	0x3d9b9fdc	0.0759885
1	0xbb8dc7fd	-0.004326819
2	0xbd9f4c16	-0.07778184
3	0xbd1bf593	-0.038075995
4	0x3e29bdb0	0.16576266
5	0x3d6d680a	0.057960548
6	0x3d9a8182	0.07544233
7	0x3d28b638	0.041189402
8	0x3d836b4e	0.06416951
9	0xbbd17844	-0.0063925106
10	0xbe162380	-0.1466198
11	0x3df6ea51	0.12056411
12	0xbbb62db9	-0.00555965
13	0x3aa0450c	0.0012227609
14	0x3d0f96ed	0.035056043
15	0xbe1f0e2e	-0.15532753
16	0xbcb27b0f	-0.021787195
17	0x3d84cdbe	0.06484555
18	0x3c8b4849	0.017002242
19	0xbd39e354	-0.045382813
20	0xbe109222	-0.14118245
21	0x3d9c6c30	0.07637823
22	0x3d1fa73d	0.03897785
23	0xbbeceb39	-0.007230189
24	0xbd603194	-0.05473478
25	0xbe1f9664	-0.15584713
26	0x3ce71ff4	0.028213479
27	0xbe3a508c	-0.18194789
28	0x3dcd4c39	0.10024304
29	0x3db6a5b1	0.08918322
30	0x3ce31385	0.027719269
31	0x3db4cc86	0.08828072
32	0xbd88468d	-0.066540815
33	0x3df0eb4a	0.11763628
34	0x3c8900a6	0.016723942
35	0xbce7dc15	-0.028303185
36	0xbdd0a9c0	-0.10188627
37	0x3e41b1fe	0.18915555
38	0x3de7e131	0.11322249
39	0xbcc1b350	-0.023645073
40	0x3e072dd6	0.13201079
41	0x3deab60b	0.11460503
42	0x3cacb398	0.02108173
43	0x3e02aa5c	0.127603
44	0xbe1e9820	-0.15487719
45	0xbded33f7	-0.11582177
46	0x3db862b6	0.090032026
47	0xbe68d6d0	-0.22738194
48	0xbdb4b6dc	-0.0882394
49	0x3c8bbf51	0.017059
50	0x3d11b697	0.035574522
51	0x3c5aafb1	0.013347552
52	0x3d4d6810	0.05014807
53	0x3d91a8af	0.07112252
54	0x3e1543fb	0.14576714
55	0xbd9adb2b	-0.07561334
56	0xbd130ff7	-0.035903897
57	0x3cc4ee41	0.02403939
58	0xbe389b54	-0.18028003
59	0x3bb7cac8	0.00560889
60	0xbde86139	-0.11346669
61	0x3e2be6eb	0.16787307
62	0xbd8f484e	-0.06996213
63	0xbd618d42	-0.055066355
64	0x3d8bf955	0.06834666
65	0xbd8ddc21	-0.06926752
66	0x3ddefd5d	0.10888169
67	0x3d61bf45	0.05511405
68	0xbcaad81c	-0.020855002
69	0x3e055043	0.13018899
70	0x3ddda884	0.108231574
71	0x3c7f737b	0.0155914975
72	0x3dbeafbe	0.09310864
73	0x3cbf9392	0.023385797
74	0xbd277ecf	-0.04089242
75	0xbdd9bb0a	-0.10631378
76	0x3e28d09a	0.16485825
77	0x3d1363ad	0.03598373
78	0x3e20120f	0.15631889
79	0xbdf17b08	-0.117910445
80	0xbca08ff0	-0.019599885
81	0x3dfb8002	0.12280275
82	0xbd4dc7d4	-0.0502394
83	0xbdb7d599	-0.089762874
84	0x3d498bda	0.04920564
85	0x3c8749bd	0.016514653
86	0x3bb7e28d	0.0056117238
87	0x3d891a99	0.06694526
88	0x3e0373ec	0.1283719
89	0xbc1fb132	-0.0097468365
90	0x3d26946f	0.0406689
91	0xbcb24bc3	-0.021764642
92	0xbdacf074	-0.084443
93	0x3dfc7a53	0.12328019
94	0x3d13602f	0.0359804
95	0xbdf7d2cf	-0.121007554
96	0x3d9becbc	0.07613513
97	0xbb721fd2	-0.0036945236
98	0x3d9c2996	0.076251194
99	0xbe1ff0ac	-0.15619153
100	0x3cbde7b4	0.023181774
101	0xbd37d2eb	-0.04487888
102	0xbe31b2b7	-0.1735333
103	0x3d9fd320	0.07803941
104	0x3d20c3b8	0.039249152
105	0x3d423541	0.047414068
106	0x3d931205	0.07181171
107	0xbe06837b	-0.13136093
108	0xbde2db70	-0.11077011
109	0x3a78fca4	0.00094980956
110	0x3e33ec58	0.17570627
111	0x3b95925b	0.004564566
112	0xbdfbcdc8	-0.12295109
113	0xbd52d9f3	-0.051477384
114	0x3de7f1dd	0.11325429
115	0xbe1113b9	-0.1416768
116	0xbd4f2bbf	-0.05057883
117	0xbda66f5a	-0.081267074
118	0x3b852021	0.004062668
119	0x3bd0358c	0.0063540395
120	0x3d3f9358	0.046771377
121	0xbd8f0c09	-0.069847174
122	0x3cfd9db5	0.03095899
123	0x3dd094f1	0.10184658
124	0x3dd86e72	0.10567941
125	0x3d002a2c	0.03129022
126	0x3d87c76b	0.06629833
127	0x3d2908d1	0.041268174
128	0xbd5ba9ef	-0.05362886
129	0x3af992ef	0.0019040982
130	0x3d1bc1b2	0.03802652
131	0x3d4069bf	0.046975847
132	0xbc116981	-0.008875252
133	0x3d87e7ff	0.066360466
134	0xbdead3a6	-0.1146615
135	0xbd87ab91	-0.066245206
136	0xbdabfe1f	-0.08398079
137	0x3dc86b7b	0.09786125
138	0x3def25b3	0.116771124
139	0xbdaaee2d	-0.0834621
140	0xbd9a3a87	-0.075306945
141	0xbdc75666	-0.09733276
142	0x3da7b17f	0.081881516
143	0x3ac6cfd2	0.0015168136
144	0x3dc7e185	0.09759811
145	0xbcc24b57	-0.023717565
146	0x3d538852	0.051643677
147	0x3dff27d0	0.124587655
148	0xbd76b499	-0.060230825
149	0x3e0f9893	0.14023046
150	0x3c37189f	0.011175304
151	0x3d49674c	0.049170777
152	0x3d029d5c	0.03188835
153	0xbd82ff0c	-0.063963026
154	0xbda57808	-0.08079535
155	0xbdb9f4d0	-0.090798974
156	0x3c91c7bb	0.017795434
157	0x3d715021	0.058914308
158	0x3dfcdf9f	0.1234734
159	0xbd52b03a	-0.051437594
160	0x3d9b0170	0.075686336
161	0x3da07d58	0.078364074
162	0xbda68cc8	-0.08132321
163	0x3d9a05ee	0.07520662
164	0x3983bc2a	0.0002512646
165	0xbd960fff	-0.0732727
166	0xbd7d6db6	-0.061872207
167	0x3de76893	0.11299243
168	0xbdf2d5c7	-0.11857181
169	0x3e0f62f5	0.14002593
170	0x3e1a8284	0.1508885
171	0xba965b0c	-0.0011471226
172	0xbe183cdc	-0.14866966
173	0xbdda833b	-0.106695615
174	0x3ccd3ec3	0.025054341
175	0xbd50554e	-0.050862603
176	0xbcb5a637	-0.022173984
177	0xbca55b49	-0.02018513
178	0xbdb53013	-0.0884706
179	0x3c65bbfe	0.014021872
180	0x3c34c625	0.011033569
181	0x3cd81214	0.026375808
182	0x3e300594	0.17189628
183	0x3d2f0d37	0.042737212
184	0x3e1a07be	0.15042016
185	0x3cc09325	0.023507664
186	0x3d9b82d9	0.075933166
187	0xbd0246b3	-0.031805705
188	0x3d4d1930	0.05007285
189	0x3cf27da1	0.02960092
190	0xbe28c04f	-0.1647961
191	0x3e13f902	0.14450458
192	0xbd530e20	-0.051527143
193	0x3d7b5ae8	0.06136599
194	0xbe154354	-0.14576465
195	0xbe20a4f4	-0.15687925
196	0xbcd32b92	-0.025777612
197	0x3d124fb1	0.03572053
198	0x3d9ae303	0.0756283
199	0xbd9c3983	-0.07628157
200	0xbe5e985f	-0.21737812
201	0xbd137910	-0.036004126
202	0xbbbaddd9	-0.005702716
203	0xbe4272f6	-0.18989167
204	0xbe45b6f9	-0.1930808
205	0xbcdcb0e0	-0.02693981
206	0xbc1a9674	-0.009435285
207	0xbd75a90f	-0.05997568
208	0x3df1e03c	0.118103474
209	0xbca512f4	-0.02015064
210	0xbe35653a	-0.17714396
211	0x3d969c27	0.073540024
212	0xbdecbcd0	-0.115594506
213	0x3dd308f9	0.10304446
214	0x3df0e9b7	0.117633276
215	0xbe267411	-0.16255213
216	0x3d8fa637	0.07014125
217	0x3c81c68f	0.01584175
218	0x3d9fba2e	0.07799183
219	0x3c8c6fea	0.017143209
220	0x3e54014a	0.20703617
221	0xbc6852d5	-0.014179905
222	0xbde34ec5	-0.110990085
223	0x3dd3a9b1	0.103351004
224	0xbdf992cc	-0.121862024
225	0xbe47d5eb	-0.19515197
226	0xbd2fa8e1	-0.042885665
227	0x3aa6315e	0.0012679507
228	0xbe1e2632	-0.15444258
229	0x3e34a368	0.1764046
230	0x3da17336	0.07883303
231	0x3e119767	0.14217912
232	0x3da6688c	0.081254095
233	0xb9deed0e	-0.0004251976
234	0x3d8b0a25	0.06789044
235	0x3d0aa2c9	0.03384665
236	0xbc966078	-0.018356547
237	0xbcb543da	-0.02212708
238	0xbe1e6950	-0.15469861
239	0x3e191b9c	0.14951938
240	0x3db1d8fd	0.08683965
241	0x3b154b13	0.0022780343
242	0xbd01a54f	-0.03165179
243	0xbc01630f	-0.007897153
244	0x3cc409c0	0.02393043
245	0x3d17d189	0.037065063
246	0xbc304e8e	-0.010760916
247	0xbcc2af6e	-0.023765292
248	0x3e20b7f4	0.15695173
249	0xbc361e2b	-0.011115591
250	0xbc825617	-0.015910191
251	0x3d4349f5	0.047677953
252	0x3bf65b34	0.0075181965
253	0xbd964ed5	-0.07339255
254	0xbda9606a	-0.08270343
255	0xbd3964e6	-0.04526224

model.rnn.bias_ih_l0 f4 [240]
0	0x3cea0c81	0.028570415
1	0xbd540c14	-0.05176933
2	0x3d6d8489	0.057987723
3	0x3c3f5f47	0.011680431
4	0xbc841a45	-0.016125808
5	0xbce07d52	-0.027403507
6	0xbdac5ee9	-0.0841654
7	0x3e4776d3	0.19478922
8	0x3da47580	0.08030224
9	0x3e29c58e	0.16579267
10	0xbdcf65b5	-0.10126821
11	0x3c5454b0	0.012959644
12	0x3de73cd1	0.11290897
13	0x3dd3cd00	0.10341835
14	0x3daca4b6	0.084298536
15	0x3da1bde7	0.07897549
16	0xbc19276c	-0.009347778
17	0x3e22506b	0.1585099
18	0x3d957c20	0.072990656
19	0x3d9eb75b	0.07749816
20	0x3cd40d04	0.025885113
21	0xbd9fd19b	-0.07803651
22	0xbd824d9b	-0.06362458
23	0xbdc32896	-0.095292255
24	0x3d5cdcc2	0.05392147
25	0x3d089830	0.033348262
26	0x3e0cdc38	0.13755882
27	0x3e235eaf	0.15954088
28	0xbd0b8f7e	-0.03407239
29	0x3d1681c4	0.036744848
30	0x3c69604f	0.014244153
31	0xbd247ef7	-0.040160146
32	0x3c8be954	0.017079033
33	0x3e07fb12	0.1327937
34	0xbc3e0d95	-0.011599918
35	0xbc076100	-0.008262873
36	0x3b843a52	0.0040352726
37	0x3cbd89ae	0.02313694
38	0x3e39ce08	0.18145001
39	0x3d1de69e	0.03855001
40	0x3c94b3d4	0.018152155
41	0x3e13f692	0.14449528
42	0x3d3af6cc	0.04564552
43	0xbdb5cc2f	-0.088768356
44	0x3d668832	0.05628223
45	0xbcc28181	-0.023743393
46	0x3e16d861	0.1473098
47	0x3db686e0	0.08912444
48	0xbd3e7185	-0.04649498
49	0x3e1099f6	0.14121231
50	0x3d927670	0.071514964
51	0x3e190fb9	0.14947404
52	0xbd94fd5d	-0.07274888
53	0x3d70dc14	0.058803633
54	0xbdbdd065	-0.09268264
55	0xbd091e4c	-0.03347616
56	0xbda96bfb	-0.08272549
57	0x3b889558	0.004168194
58	0x3e12894b	0.14310186
59	0xbd229dd5	-0.0397013
60	0x3de3ade5	0.11117152
61	0x3dbe93ab	0.09305509
62	0x3e05f135	0.13080294
63	0x3e0c6e75	0.13714011
64	0xbda42c21	-0.080162294
65	0xbce3d11d	-0.027809674
66	0x3e0be730	0.1366241
67	0x3dd0067c	0.10157487
68	0x3c298def	0.010348781
69	0xbd378b52	-0.0448106
70	0x3d47bc2b	0.048763435
71	0xbd2ee589	-0.04269937
72	0xbcc48197	-0.023987575
73	0xbde79c38	-0.11309093
74	0xbdb06112	-0.08612265
75	0xbd860edd	-0.06545804
76	0xbda30d9a	-0.07961579
77	0xbccd2563	-0.025042241
78	0xbde235ff	-0.11045455
79	0xbca8b740	-0.020595193
80	0x3df18530	0.117929816
81	0x3db95532	0.09049453
82	0xbcb21965	-0.021740625
83	0xbd9714d3	-0.07377019
84	0xbdbc19c8	-0.09184605
85	0x3ddd6489	0.10810191
86	0x3d8b1faa	0.06793149
87	0x3de1bb9a	0.1102211
88	0x3dba7dd0	0.09106028
89	0x3c40b6a7	0.011762298
90	0xbd6adf70	-0.057341993
91	0x3dbc306a	0.09188922
92	0xbdbd8872	-0.092545405
93	0x3c3c6847	0.011499471
94	0x3cafa743	0.021442061
95	0xbc7ede29	-0.015555897
96	0xbd396788	-0.04526475
97	0x3d5541e9	0.05206481
98	0x3db85a14	0.09001556
99	0xbdd0b987	-0.101916365
100	0x3cc09c2e	0.023511972
101	0x3e0d42fe	0.13795087
102	0xbd19502d	-0.037429977
103	0xbc62378c	-0.013807189
104	0xbc9b7efc	-0.01898145
105	0xbbf3a653	-0.007435599
106	0xbde69c95	-0.112603344
107	0xbdd16b33	-0.10225525
108	0x3cce9e70	0.025222033
109	0x3db7395a	0.08946486
110	0x3e1c26b7	0.15249144
111	0x3daabb2f	0.08336484
112	0xbcd08782	-0.02545524
113	0x3d0a13cd	0.03371029
114	0x3b79db64	0.0038125152
115	0xbd837e44	-0.06420568
116	0xbcffed33	-0.031241035
117	0x3c9acad2	0.01889554
118	0xbcb6b917	-0.022305055
119	0x3dabc787	0.08387666
120	0x3da0bb69	0.07848246
121	0x3d939ef6	0.07208054
122	0x3d71544b	0.05891828
123	0xbdad9348	-0.08475357
124	0xbdc65a5a	-0.09685202
125	0x3d43476d	0.04767554
126	0xbdcae8c6	-0.09907679
127	0xbb6299b8	-0.0034576487
128	0x3d84a39c	0.064765185
129	0x3e0d8dea	0.13823667
130	0xbd22489a	-0.03962002
131	0xbac566ba	-0.0015060522
132	0xbda010f7	-0.07815736
133	0xbdbe95af	-0.09305894
134	0x3db0f33a	0.08640142
135	0xbe03225a	-0.12806073
136	0x3df3cdd5	0.11904494
137	0x3de38ff8	0.11111444
138	0x3db28c29	0.0871814
139	0xbb9dbca6	-0.0048137484
140	0x3c57c496	0.013169428
141	0x3dad13b6	0.08451025
142	0xbe113c95	-0.14183266
143	0xbdb21692	-0.08695711
144	0xbdd40b04	-0.103536636
145	0xbdaef30f	-0.085424535
146	0xbd40b366	-0.047046088
147	0xbd678327	-0.05652156
148	0x3ccc5734	0.024943925
149	0xbdc5abeb	-0.096519314
150	0x3d59fa3d	0.05321716
151	0x3dd4e381	0.103949554
152	0x3cd498a2	0.025951687
153	0x3defc04e	0.11706601
154	0xbd32bf03	-0.043639194
155	0xbdbb7b4e	-0.09154378
156	0xbd8853bf	-0.06656598
157	0xbb88c8cb	-0.004174327
158	0xbd9179eb	-0.07103332
159	0x3d6796ed	0.05654042
160	0x3c93a1d6	0.018021505
161	0x3dc9a271	0.09845436
162	0xbdb81712	-0.08988775
163	0x3e041c74	0.12901479
164	0x3db3af6a	0.08773692
165	0xbe14f405	-0.14546211
166	0x3d8b1c79	0.0679254
167	0xbd71a4e6	-0.05899515
168	0xbde551c6	-0.11197238
169	0x3de3f6af	0.111310355
170	0xbde7b007	-0.113128714
171	0x3e0bad6b	0.13640372
172	0x3d9a2d10	0.07528126
173	0xbbbf8804	-0.0058450717
174	0xbc86347e	-0.016382452
175	0xbd905de1	-0.07049156
176	0x3d6b67e8	0.05747214
177	0x3de3c64b	0.11121806
178	0xbd8a0b1f	-0.067404024
179	0x3dc7c0ee	0.09753595
180	0x3d398ab6	0.0452983
181	0x3e2bbf38	0.16772163
182	0xbcfdf367	-0.030999852
183	0x3da79b5d	0.0818393
184	0x3b65fd61	0.0035093653
185	0xbdb79a13	-0.08964934
186	0x3d7f2e55	0.062300045
187	0x3dcf1df9	0.10113139
188	0x3d2d0cf6	0.04224869
189	0x3d10f2ec	0.03538792
190	0x3d15d63d	0.036581267
191	0x3e4162f1	0.188854
192	0x3d5c02ff	0.053713795
193	0xbc62c362	-0.013840528
194	0xbb76f82f	-0.003768455
195	0x3def266d	0.11677251
196	0xbd1d12ad	-0.03834789
197	0x3c9808b1	0.018558832
198	0x3d92e657	0.0717284
199	0x3dd4918f	0.103793256
200	0x3e1a9687	0.15096484
201	0xbdde73ca	-0.10861929
202	0x3c75a510	0.014992967
203	0x3dc2fe02	0.095211044
204	0xbd345bf2	-0.044033
205	0x3e10b67d	0.14132114
206	0x3bb09d7a	0.0053898664
207	0xbd9e4c06	-0.07729344
208	0x3dcaf341	0.09909678
209	0x3c83f246	0.016106736
210	0x3db7a8c9	0.0896774
211	0xbceec50d	-0.029146696
212	0xbc64eb32	-0.013972091
213	0xbd157dcf	-0.036496934
214	0xbcad1f1a	-0.021132994
215	0xbd4e5e29	-0.050382767
216	0xbd07e492	-0.033176966
217	0xbb922f4e	-0.0044612056
218	0x3d9bb5c1	0.07603026
219	0xbd4a1fd1	-0.04934675
220	0x3e0bd998	0.13657224
221	0x3d0adde9	0.033903036
222	0xbc2b406b	-0.01045237
223	0xbd0e2e7d	-0.034712303
224	0xbd80654d	-0.062693216
225	0xbd46125e	-0.04835736
226	0x3dc73b7e	0.09728144
227	0xbc399f42	-0.011329474
228	0x3d455d27	0.04818454
229	0xbce6af26	-0.02815969
230	0xbd69a34c	-0.057040498
231	0xbd3b6f88	-0.04576066
232	0x3db56996	0.088580295
233	0x3dd2f971	0.103014834
234	0x3ca4c720	0.020114481
235	0x3d358c06	0.04432299
236	0xbb9b0c1b	-0.0047316677
237	0x3d42574b	0.04744653
238	0x3e3e58d7	0.18588577
239	0xbd089404	-0.033344284

model.rnn.bias_hh_l0 f4 [240]
0	0x3e1bd031	0.15216137
1	0x3d16ede5	0.036847968
2	0xbc4fb178	-0.012676589
3	0x3dd4b495	0.10386006
4	0x3d956962	0.07295491
5	0x3d8d2c05	0.06893162
6	0xbb4f0860	-0.0031590685
7	0x3d59d3d7	0.05318054
8	0x3cedccb0	0.029028267
9	0x3d7691d3	0.060197663
10	0x3dd11970	0.1020993
11	0x3d0e2003	0.034698498
12	0x3d6c778d	0.0577312
13	0x3d7f9a5d	0.06240307
14	0x3d6a1375	0.057147462
15	0x3ddd0da4	0.10793617
16	0xbb6db6f3	-0.0036272376
17	0xbd6873f4	-0.056751207
18	0xbd698910	-0.05701548
19	0x3dd1a2fa	0.102361634
20	0x3dd0c41c	0.10193655
21	0xbc758fa9	-0.0149878645
22	0xbd92aa7c	-0.071614236
23	0x3b367ae8	0.0027844254
24	0xbd1eada4	-0.038739815
25	0x3e11a49b	0.14222948
26	0xbdb52551	-0.08845008
27	0x3d12e01f	0.03585827
28	0x3a935e99	0.0011243402
29	0x3d04f581	0.032460693
30	0x3c48a64d	0.01224668
31	0xbc06fe80	-0.0082393885
32	0x3dc2ff63	0.095213674
33	0x3d9c15ee	0.0762137
34	0x3e27799c	0.16354984
35	0x3d8409d5	0.06447188
36	0x3e3096af	0.17244981
37	0x3e0cdf59	0.13757075
38	0x3e166e25	0.14690454
39	0x3d1d6ee8	0.038435847
40	0x3e2557ae	0.16146728
41	0x3dab130a	0.08353241
42	0x3d55ae4c	0.052168176
43	0xbd8e4b23	-0.06947925
44	0x3e037938	0.1283921
45	0x3d107aed	0.03527348
46	0xbc5bf7f2	-0.013425814
47	0xbcce5a0d	-0.025189424
48	0x3dc50a02	0.096210495
49	0x3da7dc82	0.081963554
50	0x3d9250e4	0.07144335
51	0x3d25f1fb	0.040513974
52	0x3e00f976	0.12595162
53	0x3e1da247	0.15393935
54	0x3de01157	0.10940807
55	0x3d9eb23b	0.077488385
56	0x3dc46831	0.095901854
57	0x3d9465fe	0.07246016
58	0xbc0a7830	-0.0084515065
59	0x3d332282	0.04373408
60	0xbda23026	-0.0791934
61	0x3d9e08c7	0.07716518
62	0x3c4af000	0.012386322
63	0xbd3e60b2	-0.046478935
64	0xbcaf3a47	-0.021390093
65	0xbd598516	-0.053105436
66	0x3d6b0cf8	0.057385415
67	0xbd93add7	-0.07210892
68	0xbd70d907	-0.058800723
69	0xbcfdf701	-0.03100157
70	0x3d149475	0.036274392
71	0x3da0acc7	0.07845455
72	0xbd9f636a	-0.077826336
73	0xbda30b59	-0.07961149
74	0xbd4732ac	-0.04863231
75	0x3db46ddf	0.08810019
76	0xbdde3764	-0.10850409
77	0xbd83b9a0	-0.064318895
78	0x3df3b880	0.11900425
79	0x3df0d7c7	0.11759906
80	0xbddc877f	-0.10768031
81	0x3d071822	0.032982
82	0x3c1ccf18	0.009570859
83	0x3de7e5f1	0.11323155
84	0x3d8187a1	0.06324697
85	0xbcbbde63	-0.02293319
86	0x3d8e962f	0.06962239
87	0xbcfce2d1	-0.030869873
88	0xbd6e3188	-0.058152705
89	0x3d770dc2	0.060315855
90	0x3d26ff81	0.04077101
91	0xbe13ee53	-0.14446382
92	0x3dd1876d	0.102309085
93	0x3d837fcb	0.06420859
94	0xbd3979db	-0.045282226
95	0xbd17f495	-0.037098486
96	0xbde3c478	-0.11121458
97	0xbc360691	-0.011109964
98	0x3e14b685	0.1452275
99	0x3e164c41	0.14677526
100	0xbd977491	-0.0739528
101	0x3df6f7aa	0.12058957
102	0x3da9d66e	0.08292852
103	0x3d60f82c	0.054924175
104	0xbcfc17f9	-0.03077315
105	0xbd7622f6	-0.060091935
106	0x3d1e79be	0.03869032
107	0xbd2a5552	-0.041585274
108	0x3d7850ba	0.06062386
109	0x3deb4f0a	0.11489685
110	0x3e20fd68	0.15721667
111	0x3e08b72b	0.13351123
112	0xbe195a82	-0.14975932
113	0x3d806b71	0.06270493
114	0x3d7e704a	0.062118806
115	0xbde5c949	-0.11220033
116	0x3c0ea96a	0.008707384
117	0x3d497207	0.04918101
118	0xbd078017	-0.03308114
119	0xbd3cdd53	-0.04610951
120	0x3d8314ef	0.06400477
121	0xbdc5ee29	-0.09664566
122	0x3dc379e8	0.09544736
123	0x3a067d0d	0.00051303284
124	0x3dd065d2	0.10175671
125	0x3dc5cd61	0.096583135
126	0xbd99c942	-0.0750909
127	0x3da943e0	0.08264899
128	0x3e0d2c97	0.13786541
129	0x3d87b4f4	0.06626311
130	0x3cd39867	0.025829507
131	0xbd49c0c3	-0.049256098
132	0x3deb84c1	0.1149993
133	0x3c0641db	0.008194412
134	0xbdff6b59	-0.12471647
135	0xbdb9930e	-0.090612516
136	0x3e12f496	0.14351115
137	0xbc6afc13	-0.014342326
138	0x3db6e0f3	0.089296244
139	0xbdafe86b	-0.08589252
140	0xbd8dfd70	-0.06933105
141	0x3e0f455b	0.13991301
142	0xbdc38314	-0.095464855
143	0x3c891529	0.016733723
144	0x3c373d08	0.011183985
145	0xbc5d7136	-0.013515761
146	0xbd9efb67	-0.07762795
147	0x3d91fe9d	0.07128642
148	0x3dd984ac	0.10621008
149	0x3d6801ce	0.056642346
150	0xbd2fb96e	-0.04290145
151	0x3dbd4fb7	0.0924372
152	0x3d0b1d02	0.03396321
153	0x3d427553	0.04747517
154	0x3ded5700	0.115888596
155	0xbd3decd4	-0.046368435
156	0x3de3a584	0.11115554
157	0x3d87cba5	0.06630639
158	0xbd89ab5f	-0.067221396
159	0xbe096152	-0.13416031
160	0xbdd8e79b	-0.1059105
161	0x3de67f39	0.112547345
162	0x3d6f4c02	0.058422096
163	0x3ca37039	0.019950973
164	0xbe0df69e	-0.13863608
165	0x3d479de4	0.04873456
166	0xbdc3cd27	-0.09560614
167	0xbdaf3e11	-0.0855676
168	0xbe179373	-0.14802341
169	0xbc20d7bf	-0.009817063
170	0xbd3e19f6	-0.046411477
171	0x3b40277a	0.0029320405
172	0xbe01d50c	-0.12678927
173	0xbd1a3216	-0.037645422
174	0xbda78faa	-0.081816986
175	0xbdb2fe9f	-0.08739971
176	0xbd945a97	-0.07243841
177	0x3c2fe665	0.010736083
178	0xbe0352ee	-0.12824604
179	0x3e020215	0.12696107
180	0xbd8c4bf4	-0.068504244
181	0x3c729cf6	0.01480793
182	0x3bf95772	0.0076093012
183	0x3c80d445	0.015726218
184	0x3e44a01f	0.19201706
185	0xbd3db35b	-0.046313625
186	0xbdb5c044	-0.088745624
187	0x3da44706	0.08021359
188	0x3d99c0ba	0.07507463
189	0xbbf563ed	-0.0074887187
190	0x3dd4ef96	0.1039726
191	0x3e0afac5	0.13572223
192	0x3d13940b	0.036029857
193	0xbd2f1446	-0.042743944
194	0x3d0e62a4	0.03476204
195	0x3c5795fb	0.013158317
196	0xbd2ecf96	-0.042678438
197	0x3cc1f9f7	0.023678763
198	0xbdcef780	-0.10105801
199	0x3d6a6eeb	0.057234686
200	0x3d1b6e28	0.03794685
201	0x3d9d8993	0.07692256
202	0xbdc75eec	-0.09734902
203	0x3dce3b8d	0.10069952
204	0xbc656dbc	-0.0140032135
205	0xbce1e4b6	-0.027574878
206	0x3dca0fd3	0.098662995
207	0x3d9e077c	0.07716271
208	0x3e19d962	0.15024331
209	0x3dc9b87c	0.09849641
210	0xbb8f53be	-0.0043739965
211	0x3dbffd09	0.093744345
212	0x3e029ec0	0.12755871
213	0xbca572b6	-0.0201963
214	0x3dafdb34	0.085867316
215	0x3d87824c	0.06616649
216	0xbca0cf98	-0.019630238
217	0xbd8bf33b	-0.06833502
218	0x3e0d5725	0.13802774
219	0xbb1ce207	-0.0023938434
220	0xbc8da83f	-0.01729214
221	0x3d1f9de4	0.038968936
222	0xbd1767e1	-0.0369643
223	0x3c07b922	0.008283885
224	0x3e2454d8	0.1604799
225	0x3dfe65bb	0.12421747
226	0x3e162acd	0.14664765
227	0xbc2e0d4d	-0.010623288
228	0x3c9f065e	0.019412216
229	0x3e0bedfc	0.13665003
230	0x3d4d123e	0.050066225
231	0xbd250985	-0.04029228
232	0x3e00a397	0.12562405
233	0xbd64dce2	-0.055874713
234	0x3d97f541	0.07419825
235	0xbc67e27a	-0.014153117
236	0x3c6024cd	0.013680649
237	0x3d6d4e7c	0.057936177
238	0x3c9746d4	0.01846639
239	0x3e0b6297	0.13611828

model.rnn.weight_ih_l1 f4 [240, 60]
0	0xbdc42e7e	-0.0957918
1	0xbd10b651	-0.03533012
2	0x3d45dbe1	0.048305396
3	0xbe2d9699	-0.1695198
4	0x3d92844d	0.071541406
5	0x3d2b8ee9	0.041884337
6	0x3d893dd7	0.06701248
7	0x3c34fdb0	0.011046812
8	0x3d614de1	0.05500591
9	0x3d4da6ba	0.05020783
10	0xbdbda142	-0.09259273
11	0xbd1bacee	-0.038006715
12	0xbcd2b8b1	-0.025722833
13	0xbdc58097	-0.09643667
14	0xbe339b6e	-0.1753976
15	0x3b08b662	0.0020860662
16	0x3e52ed52	0.20598343
17	0x3d5a084a	0.05323056
18	0xbd1d9b17	-0.038477983
19	0xbdd9b792	-0.106307164
20	0xbda33e46	-0.07970862
21	0x3dbbd3d3	0.09171262
22	0x3d3d56d3	0.04622538
23	0xbd8fe1a9	-0.07025463
24	0xbdbfb40a	-0.093605116
25	0x3c8fd4e6	0.017557573
26	0xbc676593	-0.014123338
27	0x3d176534	0.03696175
28	0x3d8e44d6	0.06946723
29	0x3d4cc8d8	0.049996227
30	0xbd493636	-0.049123965
31	0x3da77b4d	0.08177815
32	0x3dbf28b7	0.093339376
33	0x3e14deae	0.1453807
34	0x3db7f3f1	0.08982075
35	0xbd5cfb72	-0.053950734
36	0xbbe64cf6	-0.0070282174
37	0xbcf4eae6	-0.029897165
38	0x3d4f5306	0.050616287
39	0xbe445221	-0.19171955
40	0x3e349775	0.17635901
41	0x3ce6798f	0.028134136
42	0xbe1cb03d	-0.15301605
43	0xbccbf88b	-0.024898788
44	0x3d3313f4	0.0437202
45	0xbd4a59c3	-0.04940201
46	0x3e2d552a	0.16927019
47	0xbe1aafbc	-0.151061
48	0xbe30fa9a	-0.17283097
49	0x3d154442	0.03644205
50	0xbd3dcdd5	-0.046338875
51	0xbbeade43	-0.007167609
52	0xbd8c46d4	-0.06849447
53	0x3d522db4	0.051313117
54	0x3de87b28	0.11351615
55	0xbe5155b6	-0.20442852
56	0xbd407523	-0.04698671
57	0x3d9ede6d	0.07757268
58	0xbdccbfae	-0.099974975
59	0x3df94cf0	0.12172878
60	0xbdee50d4	-0.116365105
61	0xbd64e504	-0.05588247
62	0x3da43b5c	0.080191344
63	0xbdfff6f8	-0.124982774
64	0xbd7baa01	-0.061441425
65	0x3e018ba5	0.12650926
66	0xbd027a15	-0.031854708
67	0xbdd8a175	-0.105776705
68	0xbd4a3989	-0.049371276
69	0x3da71711	0.081586964
70	0xbc7d465c	-0.0154586695
71	0xbdb46eb0	-0.088101745
72	0xbc411bcf	-0.011786415
73	0x3e1d25cc	0.1534645
74	0xbdc1bacb	-0.09459456
75	0xbd79d42d	-0.060993362
76	0x3d4094b7	0.047016826
77	0xbc995ebe	-0.018721934
78	0xbda419e8	-0.08012754
79	0x3e4cb4ef	0.19990896
80	0xbd672578	-0.056432217
81	0xbd84141c	-0.06449148
82	0x3dd214cc	0.10257873
83	0x3ca29162	0.019844715
84	0xbcc00ab8	-0.023442611
85	0x3df52da0	0.11971593
86	0xbd1bf185	-0.038072128
87	0xbe0199f9	-0.12656392
88	0x3db95972	0.090502635
89	0xbd996392	-0.07489695
90	0x3d253e10	0.04034239
91	0xbe2571b8	-0.16156662
92	0x3d80a45f	0.06281351
93	0x3ddaf5f1	0.10691441
94	0x3dc1f46e	0.094704494
95	0xbdb66f89	-0.089079924
96	0xbe0cc3fa	-0.13746634
97	0x3ceb93ee	0.028757062
98	0x3dc43fc7	0.09582477
99	0xbd31a27e	-0.043367855
100	0xbd252ed0	-0.040327847
101	0xbc850d1d	-0.016241604
102	0x3c8ebf01	0.017425062
103	0x3d80af6c	0.06283459
104	0x3bfb0439	0.0076604155
105	0xbc02a5b0	-0.007974073
106	0xbcc32442	-0.023821
107	0xbd9de544	-0.077097446
108	0x3c9eb8fa	0.019375313
109	0x3c5b7c4b	0.013396333
110	0x3d04fb20	0.032466054
111	0x3cdbeb03	0.02684546
112	0xbdf5483e	-0.1197667
113	0xbd90212f	-0.07037579
114	0xbdc55095	-0.096345104
115	0xbd902a83	-0.070393585
116	0xbdbbdfbe	-0.09173535
117	0xbdd78396	-0.10523145
118	0x3d3bfc94	0.045895174
119	0x3ddff9a1	0.10936285
120	0x3dfe1878	0.12407011
121	0x3d18ce4c	0.037306115
122	0x3d974fea	0.07388289
123	0x3cc3703f	0.023857234
124	0xbd7c116d	-0.061540056
125	0x3de1c264	0.11023405
126	0xbdcc3b20	-0.09972215
127	0x3e1b0a14	0.15140563
128	0x3db347c7	0.08753925
129	0xbb24e740	-0.002516225
130	0xbdf683dc	-0.12036869
131	0xbddef961	-0.10887409
132	0xbd34b375	-0.044116456
133	0x3d1e2671	0.03861088
134	0x3de32984	0.11091903
135	0x3d3fece0	0.04685676
136	0xbc42b0ec	-0.011883002
137	0xbdabccb9	-0.08388657
138	0xbd87bd5a	-0.06627913
139	0x3df0b145	0.117525615
140	0x3ca14c22	0.019689623
141	0xbc54cfa0	-0.012988955
142	0x3b8f5b61	0.004374907
143	0xbdb5980b	-0.088668905
144	0x3d02ca2f	0.0319311
145	0x3d5073ea	0.050891794
146	0xbdedb504	-0.116067916
147	0xbd9959c4	-0.074878246
148	0x3dc25b60	0.09490085
149	0xbdd42b6c	-0.103598446
150	0x3d16d594	0.036824778
151	0xbdb6be6d	-0.089230396
152	0xbdd21928	-0.102587044
153	0x3d87ca9c	0.066304415
154	0x3e2f3c37	0.17112814
155	0x3d9d8296	0.07690923
156	0xbd8dc440	-0.06922197
157	0x3e13cf4a	0.14434543
158	0x3da892e8	0.08231145
159	0xbc4eca2f	-0.0126214465
160	0xbdf2c763	-0.11854436
161	0xbd334edc	-0.043776378
162	0xbd18892b	-0.03724019
163	0x3dd99ad6	0.10625236
164	0x3cb20d14	0.021734752
165	0x3c9ae937	0.018910034
166	0xbdf06dab	-0.117396675
167	0xbd24acfc	-0.040204033
168	0x3d8de8cf	0.0692917
169	0xbdd4f985	-0.103991546
170	0xbe20200d	-0.15637226
171	0x3d7a32fd	0.061083782
172	0xbc176f30	-0.009242818
173	0xbdd0b76d	-0.10191236
174	0xbd87def0	-0.06634319
175	0xbd7cb57e	-0.061696522
176	0xbe0e7241	-0.13910772
177	0x3dd2a40b	0.10285195
178	0x3cf3339a	0.029687691
179	0x3d3ba6a6	0.045813225
180	0xbd967cd5	-0.073480286
181	0xbe06214c	-0.13098639
182	0x3d8def97	0.06930464
183	0x3ce151ab	0.027504763
184	0x3b8241e2	0.003975139
185	0x3d793fd6	0.060851894
186	0x3c98e75a	0.018665005
187	0x3d60d821	0.054893617
188	0x3d69784b	0.056999486
189	0xbda4abe2	-0.080405965
190	0x3de30948	0.11085755
191	0xbda92aa3	-0.082600854
192	0xbdbb4315	-0.09143654
193	0x3d92b9b9	0.0716433
194	0xbda1cf1f	-0.07900833
195	0x3cdec0d9	0.027191566
196	0xbdda9fbd	-0.10674999
197	0x3d9eed13	0.07760062
198	0x3ab98937	0.0014155273
199	0x3e280775	0.16409095
200	0xbd78abe4	-0.060710803
201	0xbdf532d7	-0.119725876
202	0x3da997a6	0.08280878
203	0xbcca76da	-0.024714876
204	0xbd9442c3	-0.07239296
205	0x3c5d3823	0.013502154
206	0xbda4a8a7	-0.080399804
207	0x3b896d45	0.004193934
208	0xbe0941a1	-0.13403942
209	0x3b5cb8f4	0.0033679577
210	0xbc28b2ed	-0.0102965655
211	0x3dd48b95	0.10378186
212	0xbc185b96	-0.00929918
213	0xbde91aff	-0.11382102
214	0x3d26e44d	0.04074507
215	0x3d96fb1b	0.07372113
216	0xbd926570	-0.07148254
217	0x3d5630d0	0.052292645
218	0x3d903a9e	0.0704243
219	0x3dc24b71	0.094870456
220	0x3cd9bd43	0.026579505
221	0xbd369ce4	-0.044583216
222	0xbb46bce1	-0.0030324983
223	0xbdc3402b	-0.095337234
224	0xbd20a2b9	-0.039217684
225	0x3d8efa33	0.069813155
226	0xbcd06d02	-0.025442604
227	0xbd1cbfa3	-0.038268697
228	0x3c49a78b	0.012308012
229	0x3d801286	0.06253533
230	0x3d279eca	0.040922917
231	0x3dd79d6f	0.10528075
232	0xbde2b32c	-0.110693306
233	0xbd24807e	-0.040161602
234	0x3d62c4e5	0.055363555
235	0x3db68e5d	0.089138724
236	0x3d4aca3f	0.049509283
237	0x3cc2b6d6	0.023768824
238	0x3de11527	0.109903626
239	0x3d10d8a8	0.03536287
240	0xbd423aa0	-0.04741919
241	0xbd6e176c	-0.058127806
242	0x3db23dfe	0.0870323
243	0x3be2c178	0.006920036
244	0xbd4e0fbf	-0.050307985
245	0x3e3fb82c	0.187226
246	0x3e3c91ca	0.18414989
247	0x3e082a88	0.13297474
248	0x3e2bc397	0.1677383
249	0xbcb32129	-0.021866398
250	0xbc2e72a9	-0.010647454
251	0xbcad4782	-0.021152262
252	0xbc8c2b53	-0.017110502
253	0xbda71c5d	-0.08159707
254	0xbe0424f6	-0.12904724
255	0xbdbb7762	-0.0915363

model.rnn.weight_hh_l1 f4 [240, 60]
0	0x3e3a90f5	0.18219359
1	0x3d7830f6	0.060593568
2	0xbc83d5c5	-0.016093144
3	0xbdae19b8	-0.08500999
4	0x3d633547	0.05547073
5	0xbe49ff0b	-0.19726197
6	0x3dfd8593	0.12378993
7	0x3e2a1af2	0.16611841
8	0x3e2baabb	0.16764347
9	0xbcb8ead4	-0.022572912
10	0x3e425b21	0.18980075
11	0xbc6f823d	-0.014618454
12	0xbb9b5b80	-0.0047411323
13	0xbd0a045b	-0.03369556
14	0xbda03a4d	-0.0782362
15	0xbc8c662d	-0.017138565
16	0x3e3d2f5e	0.184751
17	0x3d4ac4d6	0.049504124
18	0xbe04323b	-0.12909786
19	0xbc36e8a8	-0.011163868
20	0x3d8574eb	0.06516441
21	0x3c442624	0.011971984
22	0x3e37e58c	0.17958659
23	0xbd7f633f	-0.062350508
24	0xbc971ee3	-0.018447345
25	0x3e14c593	0.14528494
26	0x3de1c233	0.11023369
27	0x3c3443d6	0.0110025015
28	0x3caa3fcb	0.020782372
29	0xbd320c79	-0.043468926
30	0xbe1608d6	-0.14651808
31	0xbd9953f7	-0.07486718
32	0xbe0fc38e	-0.14039442
33	0x3d0359ae	0.032067947
34	0xbca3204f	-0.019912867
35	0x3e377940	0.17917347
36	0x3e2a18ef	0.16611074
37	0xbb6c97bd	-0.0036101185
38	0xbd3ef0e7	-0.04661646
39	0x3df34058	0.11877507
40	0xbd01a31c	-0.031649694
41	0x3c928b7b	0.017888775
42	0x3b1e1375	0.0024120484
43	0xbd3dd7b4	-0.04634829
44	0xbda2b422	-0.07944514
45	0xbd00bc7f	-0.031429764
46	0x3e44c22b	0.19214694
47	0x3d54f3df	0.051990386
48	0xbd8cd745	-0.06876997
49	0xbe06fac5	-0.13181598
50	0xbdc1671c	-0.09443495
51	0x3e3aa714	0.18227798
52	0x3d2be42c	0.04196565
53	0xbd35d340	-0.044390917
54	0x3e10134b	0.1406986
55	0x3e32eb28	0.17472517
56	0x3d1a3112	0.037644453
57	0xbc507ddf	-0.0127253225
58	0x3cd6b29a	0.02620821
59	0x3df271ff	0.11838149
60	0x3dc8d440	0.098061085
61	0xbd4297ed	-0.04750817
62	0x3c42d8e1	0.011892528
63	0x3d766b4e	0.060160927
64	0xbce47a16	-0.027890246
65	0xbe037ce9	-0.12840618
66	0xbd156f50	-0.03648311
67	0xbd29d37d	-0.041461457
68	0x3d98c6c0	0.074597836
69	0xbdfd2f4d	-0.123625375
70	0x3d70d61d	0.058797944
71	0xbdc2a61b	-0.09504338
72	0xbdcfddfd	-0.10149763
73	0x3d86ec7e	0.06588076
74	0xbddc4d74	-0.107569605
75	0xbc4784b0	-0.012177631
76	0xbe01cfb9	-0.12676896
77	0x3db19201	0.08670426
78	0x3d8c9827	0.06864958
79	0xbd3110d8	-0.043228954
80	0x392a8bb4	0.00016264507
81	0xbdbabaa7	-0.09117632
82	0x3d31eda1	0.04343951
83	0x3e081549	0.1328937
84	0xbcda51a1	-0.026650252
85	0xbddb6543	-0.107126735
86	0xbd663d54	-0.05621083
87	0xbd3c37f7	-0.04595181
88	0x3d533cf2	0.051571794
89	0x3d5b7af9	0.053584073
90	0x3c998f63	0.01874513
91	0x3df5a46a	0.1199425
92	0xbdffa263	-0.12482145
93	0x3e006ab6	0.12540707
94	0x3c32ff69	0.010925152
95	0x3dbe6d5e	0.09298204
96	0x3e07a889	0.13247885
97	0xbd5a7d62	-0.05334223
98	0x3bce34fb	0.006292937
99	0x3d0aa9bb	0.033853274
100	0x3c10eacb	0.0088450415
101	0xbe1ee7a5	-0.15518053
102	0x3dc3d0b8	0.09561294
103	0x3c9dc2e9	0.01925798
104	0xbdfe8dcb	-0.124293886
105	0x3dbd510e	0.092439756
106	0xbcaaf34d	-0.020867968
107	0xbdcdb331	-0.10043944
108	0xbdd5d8ae	-0.10441719
109	0x3dcb73b2	0.099341765
110	0x3c14e21c	0.009087112
111	0xbd091d43	-0.03347517
112	0x3cf567bd	0.029956693
113	0x3dc2c616	0.09510438
114	0x3d691610	0.056905806
115	0xbda26623	-0.07929637
116	0x3db42cf7	0.08797639
117	0xbdbc5709	-0.09196288
118	0xbd645331	-0.0557434
119	0x3c0c20d3	0.008552748
120	0x3dcdcc7f	0.1004877
121	0x3df1034e	0.117682084
122	0x3c592d21	0.0132553885
123	0x3d184025	0.037170548
124	0xbd439ef5	-0.047759015
125	0xbe2504e0	-0.16115141
126	0x3da0da7f	0.07854175
127	0xbd7739ff	-0.060358044
128	0x3c038dc2	0.008029403
129	0x3d3d0845	0.046150465
130	0x3bbe16c2	0.005801053
131	0x3d6defe1	0.058090094
132	0x3d76ff43	0.06030203
133	0x3d3be269	0.04587022
134	0xbd9bc45a	-0.076058105
135	0xbd43c9b0	-0.047799766
136	0xbda9e130	-0.08294904
137	0xbcc09a1f	-0.02351099
138	0xbb6f5d8e	-0.0036524269
139	0xbdf7d9e4	-0.12102106
140	0xbcd60ecb	-0.0261301
141	0xbd9b6e54	-0.07589403
142	0xbb9b4cf4	-0.004739398
143	0x3dc2652e	0.09491955
144	0x3d4b7e56	0.04968103
145	0xbd3a8f8b	-0.04554705
146	0x3d61d6e6	0.055136584
147	0x3d4a9b84	0.049464718
148	0xbe1395c0	-0.14412594
149	0x3ddd594a	0.10808046
150	0xbdcb95db	-0.09940692
151	0x3d7ecab4	0.06220503
152	0xbe0ddd12	-0.13853863
153	0x3d86ab96	0.06575696
154	0x3e175678	0.14779079
155	0x3bdf8ecf	0.006822444
156	0x3db126c7	0.08649974
157	0xbde56217	-0.1120035
158	0xbc5a872d	-0.0133378925
159	0x3ccc6707	0.024951471
160	0x3dc2c489	0.09510142
161	0xbd651973	-0.055932473
162	0xbcd8f433	-0.02648363
163	0xbda65efc	-0.081235856
164	0x38fa323b	0.00011930285
165	0x3cbd8163	0.023132985
166	0x3d80190b	0.062547766
167	0x3c6fea63	0.0146432845
168	0xbe05ac87	-0.13054095
169	0x3bd75a6c	0.0065720584
170	0x3dade196	0.08490293
171	0xbdb29e07	-0.087215476
172	0x3df602c8	0.12012249
173	0xbd7ec02a	-0.06219498
174	0xbd827a76	-0.06371014
175	0xbd10d0c1	-0.035355333
176	0x3d970709	0.07374389
177	0x3d4eeae7	0.05051699
178	0xbd8fc8ae	-0.070206985
179	0x3de6ed5c	0.112757415
180	0x3d1eb39c	0.038745508
181	0xbde07fa1	-0.10961843
182	0x3d97892c	0.0739921
183	0x3c0436ca	0.008069703
184	0x3d162c4a	0.03666333
185	0xbc90bf21	-0.017669262
186	0x3c767780	0.015043139
187	0x3df21544	0.11820462
188	0xbd92ec00	-0.0717392
189	0x3d817886	0.06321816
190	0x3affe01c	0.0019521746
191	0xbda16769	-0.07881052
192	0xbdd5f7e0	-0.10447669
193	0x3cdbb124	0.026817866
194	0xbdd4fc86	-0.103997275
195	0xbe15392a	-0.14572588
196	0xbc568d77	-0.013095251
197	0xbe0d3d12	-0.13792828
198	0xbd80741f	-0.06272148
199	0x3dcf0991	0.101092465
200	0xbd02f8fa	-0.031975724
201	0x3d2d31d4	0.042283848
202	0x3dcf326e	0.101170406
203	0xbd8f27ba	-0.06989999
204	0x3d971d63	0.07378652
205	0xbdbc60bc	-0.09198138
206	0xbd31be39	-0.0433943
207	0xbbced4dd	-0.0063119964
208	0xbd9ff980	-0.0781126
209	0x3d8d3773	0.06895342
210	0x3d362898	0.044472307
211	0xbdaaa2fb	-0.08331867
212	0x3cce6999	0.025196837
213	0xbdae64b7	-0.085153036
214	0xbd51ca32	-0.05121822
215	0xbd17111c	-0.03688155
216	0x3d1739c7	0.036920335
217	0x3cb3a13a	0.021927465
218	0xbe02aa2f	-0.12760232
219	0xbcb1bd9c	-0.021696858
220	0x3ca74a6a	0.020421226
221	0x3a027934	0.0004977167
222	0x3dafbd23	0.08580997
223	0xbca9184c	-0.020641468
224	0x3df1829c	0.1179249
225	0xbbcf0eef	-0.006318919
226	0x3da7e9f1	0.08198918
227	0xbd91a505	-0.07111553
228	0xbd2cdec2	-0.042204626
229	0x3d42df48	0.04757622
230	0xbd2c8138	-0.04211542
231	0x3d2ead1d	0.042645562
232	0xbda14bfd	-0.07875822
233	0xbc776589	-0.015099891
234	0xbdabd7a6	-0.08390741
235	0x3dacd53c	0.08439109
236	0xbde9114f	-0.113802545
237	0x3dd7f025	0.10543851
238	0x3cf5e439	0.030016052
239	0xbde49892	-0.11161913
240	0x3d2693a8	0.04066816
241	0x3dfc0788	0.12306124
242	0xbd3c048c	-0.045902774
243	0xbe011ddd	-0.12609048
244	0x3e04997d	0.12949176
245	0xbda8c988	-0.08241564
246	0x3e2777d7	0.16354309
247	0x3dc9475a	0.09828062
248	0x3e127feb	0.1430661
249	0xbe4a05ca	-0.19728771
250	0x3e17475c	0.14773315
251	0xbe03d2dc	-0.12873405
252	0xbe207958	-0.15671289
253	0x38b03a87	8.4032356e-05
254	0xbe0d29cf	-0.1378548
255	0x3dbcffef	0.09228503
