checkpoints/epoch=1-step=100-v24.ckpt (torch, 621663 bytes, 33 tensors)

model.param_proj.proj.0.weight f4 [1, 60]
0	0xbe2d5470	-0.16926742
1	0x3e38a56a	0.1803185
2	0x3df7f557	0.12107342
3	0x3d917851	0.07103027
4	0x3e26e458	0.16298044
5	0x3d8a2a82	0.06746389
6	0xbe6be26c	-0.23035592
7	0xbe63d921	-0.22250797
8	0x3e1ad3e7	0.15119897
9	0xbdca251a	-0.09870358
10	0xbe05db41	-0.1307192
11	0x3c1a92f1	0.009434448
12	0xba42f842	-0.0007437506
13	0x3df51e51	0.11968673
14	0x3e1fe57e	0.15614888
15	0xbe0917cc	-0.13387984
16	0x3e6df85b	0.23239271
17	0x3d3cd00f	0.046096858
18	0xbe77654b	-0.24159734
19	0x3e2ea48e	0.1705496
20	0x3d910c60	0.070824385
21	0x3dca442e	0.098762855
22	0x3e05a01f	0.13049363
23	0x3e50ca36	0.20389637
24	0x3e2aad4a	0.16667667
25	0x3d82752c	0.06370005
26	0xbe369fa1	-0.17834331
27	0xbdb7237a	-0.089423135
28	0xbe6e54a4	-0.23274475
29	0x3dc4d3b8	0.09610695
30	0xbd6cc8de	-0.05780875
31	0x3e11cf5a	0.14239255
32	0x3c4832c1	0.012219132
33	0x3d1e1389	0.03859285
34	0xbdbf47ee	-0.093398914
35	0x3e48eafe	0.19620892
36	0xbe1871c6	-0.14887151
37	0xbb65f14a	-0.0035086446
38	0x3de3212a	0.1109031
39	0x3e3d39a8	0.18479025
40	0x3d896415	0.06708542
41	0xbcd4607a	-0.02592491
42	0x3e1c53b4	0.15266305
43	0x3ddb151e	0.10697387
44	0x3d9ce58f	0.07660972
45	0xbcd173f4	-0.025567986
46	0x3dc0a778	0.09406942
47	0xbe3b1a8e	-0.18271849
48	0x3ce85658	0.028361484
49	0x3d04d209	0.032426868
50	0x3de374c0	0.11106253
51	0xbe1d70ea	-0.15375105
52	0xbda5418b	-0.08069142
53	0xbd2e2357	-0.04251417
54	0x3cea98fc	0.028637402
55	0xbe28ef0a	-0.16497436
56	0x3e73987c	0.23788637
57	0xbe3c1f93	-0.1837142
58	0x3e2ddb0d	0.16978092
59	0x3def1b12	0.11675085

model.param_proj.proj.1.weight f4 [1, 60]
0	0x3a9de4f6	0.0012046385
1	0xbe3b1b30	-0.1827209
2	0x3b024927	0.0019880028
3	0x3e250bfc	0.16117853
4	0xbe181f7c	-0.1485576
5	0x3ddef85b	0.10887214
6	0xbe16d029	-0.14727844
7	0x3e5315e6	0.20613822
8	0xbde0f244	-0.109837085
9	0x3c0f0bea	0.008730868
10	0xbe184f52	-0.14874008
11	0xbc264cfb	-0.0101501895
12	0x3e19967a	0.14998809
13	0x3c9fcd19	0.019506978
14	0x3dc12545	0.09430937
15	0xbd8700e4	-0.06591967
16	0x3db314eb	0.08744224
17	0x3e017321	0.12641574
18	0xbcebfa9f	-0.028806029
19	0x3e11feb7	0.14257322
20	0x3d771a68	0.060327917
21	0xbe2f814a	-0.17139164
22	0x3e31d1db	0.1736521
23	0xbd78c0f4	-0.06073089
24	0xbcf45ea7	-0.02983029
25	0xbe2c282d	-0.16812201
26	0xbdec8d44	-0.11550382
27	0xbc815949	-0.015789645
28	0xbe3c51f4	-0.18390638
29	0xbe143fb0	-0.1447742
30	0x3e206dee	0.15666935
31	0x3df2b368	0.11850625
32	0xbe411269	-0.18854679
33	0xbd30d502	-0.04317189
34	0xbd97361a	-0.07383366
35	0x3e01c933	0.12674408
36	0xbdd73f27	-0.10510092
37	0x3e04eb7e	0.12980458
38	0xbdfe19a4	-0.12407234
39	0xbe0e5f9d	-0.13903661
40	0x3e15d21d	0.14630933
41	0xbd25b7e8	-0.04045859
42	0xbe1d03a1	-0.15333416
43	0xbe267f98	-0.1625961
44	0x3e0ad8d8	0.13559282
45	0xbe057f2f	-0.13036798
46	0xbd5bb062	-0.05363501
47	0x3e04bd42	0.12962821
48	0xbb5a2185	-0.003328414
49	0xbe1c5f3a	-0.15270701
50	0x3dc0efd6	0.09420745
51	0xbc1e4018	-0.009658836
52	0x3ddf0a26	0.108906075
53	0xbe221de1	-0.1583171
54	0x3e1a1468	0.15046847
55	0xbe2b5db0	-0.16734958
56	0x3caa0eeb	0.020759067
57	0x3d47e44d	0.04880171
58	0xbe618c0b	-0.22026078
59	0x3db65c4c	0.08904323

model.param_proj.proj.2.weight f4 [1, 60]
0	0x3e009783	0.12557797
1	0xbd83242f	-0.06403386
2	0xbccaa4d2	-0.024736796
3	0x3db4d148	0.0882898
4	0xbdd8908f	-0.10574447
5	0x3de82928	0.11335975
6	0xbbb514ba	-0.0055261524
7	0xbd7573af	-0.059924778
8	0xbe0d89a3	-0.13822035
9	0xbdc19776	-0.09452717
10	0xbdd0f40e	-0.102028
11	0x3db0f6b1	0.08640803
12	0xba069ede	-0.00051353674
13	0x3dfb4407	0.122688346
14	0xbd0f179b	-0.03493462
15	0xbdc0857a	-0.09400459
16	0x3d9c2c51	0.0762564
17	0x3d951840	0.07280016
18	0xbdb17ae3	-0.08666017
19	0x3dc70b50	0.097189546
20	0xbde8968f	-0.11356842
21	0x3d5fa751	0.054602925
22	0x3dd73c9a	0.10509606
23	0xbdd50c88	-0.10402781
24	0x3dc5b57c	0.09653756
25	0x3c289033	0.010288286
26	0xbd4dcdc7	-0.050245073
27	0xbd4bcaa1	-0.04975379
28	0xbd240fcd	-0.04005413
29	0xbc78bd72	-0.015181886
30	0xbd314193	-0.043275427
31	0x3d035dda	0.032071926
32	0xbd826fb7	-0.06368964
33	0xbdf00718	-0.11720103
34	0x3d567e81	0.052366737
35	0x3da1f4f8	0.07908052
36	0xbdaa8cdb	-0.08327647
37	0xbdde7cb0	-0.10863626
38	0x3df0bd4e	0.11754857
39	0xbc8256ba	-0.015910495
40	0xbcc99875	-0.02460883
41	0xbde5ebcd	-0.11226616
42	0xbddb9c23	-0.1072314
43	0xbbe331ec	-0.0069334414
44	0xbde9dda4	-0.11419228
45	0x3cb6f305	0.022332678
46	0xbb833ec2	-0.004005284
47	0xbd81b125	-0.06332616
48	0xbdcf2a5e	-0.10115503
49	0xbda55726	-0.08073263
50	0x3df990e5	0.121858396
51	0xbdadedf3	-0.08492651
52	0xbdab8ca1	-0.08376432
53	0xbe00bcdf	-0.12572049
54	0xbd321dc6	-0.043485425
55	0xbd61a66a	-0.055090345
56	0xbba18a25	-0.004929798
57	0xbda6f1a8	-0.08151561
58	0xbd8b6f90	-0.06808388
59	0x3dda5ed8	0.10662621

model.rnn.weight_ih_l0 f4 [240, 24]
0	0x3d37b92c	0.044854328
1	0xbd6e39d7	-0.05816063
2	0xbd1b7b46	-0.03795936
3	0x3d60d5e9	0.0548915
4	0xbcab697f	-0.020924328
5	0xbdbc0974	-0.091814905
6	0x3db5482f	0.088516586
7	0x3de3a7c8	0.11115986
8	0xbd9ac248	-0.075565875
9	0x3de029ad	0.10945449
10	0x3c17a8ef	0.0092565855
11	0xbddef6f2	-0.10886945
12	0xbda14b11	-0.07875646
13	0x3d699bac	0.057033226
14	0xbd742501	-0.059605602
15	0x3cd543cb	0.026033303
16	0xbe34611e	-0.17615172
17	0xbdac6b0d	-0.08418856
18	0x3dc70769	0.0971821
19	0xbde45e1c	-0.111507624
20	0x3d73fcbc	0.0595672
21	0x3ddee9bc	0.10884425
22	0x3aaf507b	0.0013375425
23	0x3d5b79ea	0.053583063
24	0x3d9de555	0.07709757
25	0x3d9450d8	0.07241982
26	0xbdea196b	-0.11430629
27	0x3dc5e4a2	0.09662749
28	0x3d8aa252	0.067692414
29	0x3e27aaa8	0.16373694
30	0x3e335375	0.17512305
31	0xbe0ea418	-0.13929784
32	0xbda37ab0	-0.07982385
33	0xbda2e468	-0.07953721
34	0xbdda5db3	-0.10662403
35	0x3d68bf62	0.056823142
36	0xbe2cb8b2	-0.1686733
37	0x3e0722a2	0.13196805
38	0xbdea4e5c	-0.11440727
39	0xbdf331b9	-0.11874718
40	0xbca4b2b4	-0.020104744
41	0xbcd1a247	-0.025590075
42	0x3de2e02b	0.11077913
43	0xbd040bd6	-0.03223785
44	0x3d275142	0.040848978
45	0x3df67d3f	0.120356075
46	0xbb59e900	-0.003325045
47	0x3b87c0e2	0.0041428665
48	0x3c3d527d	0.011555311
49	0x3e280cfa	0.164112
50	0x3bf16bad	0.0073675723
51	0x3dbd9815	0.09257523
52	0xbc4c048d	-0.012452257
53	0xbc52130e	-0.012821926
54	0x3cc41d0d	0.023939634
55	0x3d1dee9a	0.038557626
56	0x3d801334	0.06253663
57	0xbd1069a4	-0.035256997
58	0x3c962c81	0.018331768
59	0xbe26d7a9	-0.16293205
60	0x3d0775cb	0.03307132
61	0xbdbaac4d	-0.09114895
62	0x3e3af76f	0.18258451
63	0x3d94cfbd	0.072661854
64	0xbc3e2319	-0.011605048
65	0xbd3da2b0	-0.04629773
66	0x3d6fd5b5	0.058553416
67	0x3de9df4a	0.11419542
68	0xbde63dc8	-0.112422526
69	0xbe292a1f	-0.16519974
70	0xbdcb68e3	-0.09932115
71	0xbda714bf	-0.08158254
72	0xbdd539f3	-0.104114436
73	0xbe2fee55	-0.1718076
74	0xbd2b3977	-0.04180285
75	0x3d8b0122	0.067873254
76	0xbe0fe297	-0.14051281
77	0x3de371f0	0.11105716
78	0xbe22e307	-0.15906917
79	0xbd3c024a	-0.04590062
80	0xbe2db9d6	-0.16965422
81	0xbe06ecd4	-0.1317628
82	0x3e21eb4f	0.1581242
83	0x3b80ea1a	0.003934157
84	0xbdc6c22d	-0.09705005
85	0x3d6f9c8b	0.0584989
86	0xbe02b4e7	-0.12764321
87	0xbc4b7b3e	-0.01241952
88	0x3d3a4186	0.045472644
89	0xbe119fd5	-0.14221127
90	0x3df5aa89	0.119954176
91	0xbd94f57f	-0.07273387
92	0xbe0ae901	-0.13565446
93	0x3d7693c3	0.06019951
94	0x3db3a6f6	0.0877208
95	0xbdbc5188	-0.09195238
96	0x3d0bda6f	0.03414386
97	0x3dee13bb	0.11624857
98	0xbdd3d5b6	-0.103434965
99	0xbd5ddd84	-0.054166332
100	0x3c801179	0.015633332
101	0x3db7fe52	0.089840546
102	0x39c0ade8	0.00036750664
103	0x3daa23b6	0.083075926
104	0xbe6a442f	-0.22877572
105	0xbd331ef8	-0.043730706
106	0x3dd0ba2c	0.101917595
107	0xbc6efae6	-0.014586186
108	0xbe01066e	-0.12600109
109	0x3e1c6eab	0.15276591
110	0x3d0c9022	0.034317143
111	0xbc4239be	-0.011854587
112	0xbd876a41	-0.06612063
113	0xbdd6b91e	-0.10484527
114	0x3cfc2d85	0.030783424
115	0x3cd0c0bf	0.025482533
116	0x3c88a9d3	0.016682541
117	0xbcd5ce48	-0.02609934
118	0xbe0a86bf	-0.13527964
119	0x3dca7862	0.098862424
120	0xbddad5b6	-0.106852934
121	0x3e1507e7	0.14553796
122	0x3db1aebb	0.08675905
123	0xbd910d8c	-0.07082662
124	0xbd110c3d	-0.035412062
125	0x3d1f6ab3	0.038920116
126	0x3d488747	0.048957136
127	0xbc469b4a	-0.012121985
128	0x3c54f4aa	0.012997786
129	0xbe2cf737	-0.1689118
130	0x3dbb1bda	0.09136172
131	0xbda45346	-0.08023696
132	0xbcdd988e	-0.027050283
133	0x3d45d1de	0.048295848
134	0xbde8f05c	-0.1137397
135	0x3dff1891	0.124558575
136	0xbe064011	-0.13110377
137	0xbcefa9d6	-0.029255789
138	0x3e3a7c65	0.18211515
139	0xbdba3e04	-0.0909386
140	0xbdfc2d23	-0.12313297
141	0x3dda2dc8	0.10653263
142	0xbd69476c	-0.05695288
143	0x3e1007f4	0.14065534
144	0x3e48fc55	0.19627507
145	0xbbc5742e	-0.0060258126
146	0xbd3b2764	-0.045691863
147	0xbc8af198	-0.016960904
148	0xbde85244	-0.11343816
149	0xbd860c03	-0.0654526
150	0xbe106022	-0.14099172
151	0xbd9d441f	-0.07679009
152	0x3b5a8bfe	0.0033347602
153	0xbb5441b2	-0.003238779
154	0xbe26c07e	-0.16284367
155	0x3dcbaa2d	0.09944568
156	0x3cc5209b	0.024063399
157	0xbc2674b6	-0.010159662
158	0x3ca0e186	0.019638788
159	0xbd522d07	-0.051312473
160	0x3b87bf07	0.0041426453
161	0x3c247d36	0.010039618
162	0x3e0012e1	0.12507202
163	0xbce4facb	-0.027951619
164	0xbccbb9d1	-0.024868878
165	0x3d85277f	0.06501674
166	0x3c76b7a8	0.0150584355
167	0x3e156a43	0.14591317
168	0xbdb6c729	-0.089247055
169	0xbd8a89bb	-0.06764551
170	0x3d462976	0.048379384
171	0xbd178260	-0.03698957
172	0xbd56c5c4	-0.052434698
173	0x3d5463f9	0.051853154
174	0x3db58bb9	0.088645406
175	0xbd8a2778	-0.06745809
176	0xbdf0131c	-0.11722395
177	0x3df7011f	0.12060761
178	0xbd840425	-0.06446103
179	0xbddb2e84	-0.107022315
180	0xbdf68307	-0.1203671
181	0x3dcdf121	0.10055757
182	0xbd7253b7	-0.059161868
183	0x3d62b895	0.055351812
184	0x3dc2b91c	0.09507963
185	0xbd664dfe	-0.056226723
186	0xbd7013a1	-0.05861247
187	0xbd231586	-0.03981545
188	0x3d8599b4	0.06523457
189	0xbd68c091	-0.05682427
190	0x3d0c2f11	0.034224574
191	0x3c0e3576	0.008679738
192	0xbe1c623d	-0.1527185
193	0xbd9c3811	-0.07627881
194	0xbe0975a4	-0.13423783
195	0x3dccb696	0.09995763
196	0x3d5f0231	0.05444545
197	0x3d8e5995	0.0695068
198	0xbd6dc2c8	-0.058047086
199	0xbc1ba151	-0.00949891
200	0x3df403e4	0.119148046
201	0x3cdde592	0.027087007
202	0x3dd7bfa8	0.105346024
203	0x3dc55368	0.09635049
204	0xbd403ead	-0.046934772
205	0xbde28888	-0.110611975
206	0x3dbdf708	0.09275633
207	0x3d20b618	0.039236158
208	0x3dd2a3b6	0.10285132
209	0xbcbd661e	-0.023119982
210	0x3e18d1a9	0.14923729
211	0xbbd7c1dc	-0.006584389
212	0xbd6c5635	-0.0576994
213	0x3e5f46ea	0.21804395
214	0x3d3d70f0	0.046250284
215	0x3d4d5805	0.05013277
216	0xbc02515f	-0.007953971
217	0x3d28b192	0.04118497
218	0x3b3b7c57	0.0028608048
219	0x3d40ead9	0.04709897
220	0x3d3160e7	0.043305304
221	0xbc577b76	-0.013151994
222	0x3e0221c0	0.12708187
223	0x3db527d4	0.08845487
224	0x3ddd1a66	0.10796051
225	0x3dda9b06	0.106740996
226	0x3d0dd098	0.03462276
227	0xbc4fb3c1	-0.012677134
228	0xbde7d254	-0.11319414
229	0x3e3418a5	0.17587526
230	0xbc6b8370	-0.014374599
231	0x3e16d37b	0.14729111
232	0xbc1b3110	-0.009472147
233	0xbe1fbd51	-0.15599562
234	0x3db2421c	0.087040156
235	0xbddb7272	-0.10715188
236	0xbe095c61	-0.13414146
237	0x3d961061	0.07327343
238	0x3d5a343f	0.053272482
239	0xbd433bf7	-0.04766461
240	0x3e1490f2	0.14508417
241	0x3ddafec4	0.10693124
242	0xbe020fe7	-0.12701379
243	0xbd7997bd	-0.060935725
244	0x3ced742a	0.028986055
245	0x3c45fedd	0.01208469
246	0x3d2b1295	0.041765768
247	0x3c5b689e	0.013391642
248	0xbdb93f2c	-0.09045252
249	0xbd7f838a	-0.062381305
250	0x3d5eed93	0.054425787
251	0xbd520343	-0.051272642
252	0xbdfa5656	-0.122234985
253	0xbd7eb0a0	-0.06218016
254	0x3e167420	0.14692736
255	0x3b5fbf82	0.0034141247

model.rnn.weight_hh_l0 f4 [240, 60]
0	0xbda3b21a	-0.079929546
1	0xbe18f99c	-0.14938968
2	0x3c9374aa	0.017999966
3	0x3c2b72ce	0.010464383
4	0x3d7a298e	0.061074786
5	0xbccb3113	-0.024803674
6	0xbcd4b758	-0.025966331
7	0x3e3873b7	0.18012892
8	0xbd4bde9f	-0.049772855
9	0xbd450ab8	-0.048105925
10	0xbd13ec61	-0.0361141
11	0xbdb58ab9	-0.0886435
12	0xbd8a4e2a	-0.0675319
13	0xbd6a41a1	-0.057191495
14	0xbd07db3f	-0.033168074
15	0x3e1e166d	0.15438242
16	0x3da48156	0.08032481
17	0xbe3c61be	-0.1839666
18	0x3d52c6d2	0.05145914
19	0x3d89455c	0.067026824
20	0xbdd71b64	-0.10503271
21	0xbcf8aa14	-0.030354537
22	0x3e361469	0.17781223
23	0x3e083c18	0.13304174
24	0xbe2e8fe8	-0.17047083
25	0x3e0c8f09	0.13726439
26	0xbdec043b	-0.115242444
27	0xbd827361	-0.06369663
28	0xbd7aa2cd	-0.061190415
29	0xbd06862e	-0.032842807
30	0x3d573cb6	0.052548133
31	0xbdd382b6	-0.103276655
32	0x3dfa32da	0.122167304
33	0xbdb711f0	-0.08938968
34	0x3e47ef18	0.19524801
35	0xbde015c6	-0.10941653
36	0xbdfd93b1	-0.123816855
37	0xbce6742a	-0.028131563
38	0x3d9470a6	0.072480485
39	0xbd1c2255	-0.03811868
40	0xbdfe89fb	-0.124286614
41	0x3e162f94	0.14666587
42	0x3c6d1090	0.014469281
43	0x3b78a60c	0.0037940769
44	0xbd0411ad	-0.03224342
45	0xbe11d6d0	-0.142421
46	0xbda107bd	-0.07862804
47	0xbd6500e7	-0.055909064
48	0x3c07acd8	0.008280955
49	0x3d7eb4c8	0.062184125
50	0x3e23ee5d	0.16008897
51	0x3d218db0	0.039441764
52	0xbe339096	-0.17535624
53	0x3d2c9559	0.042134617
54	0x3d1df73c	0.03856586
55	0x3e031376	0.12800393
56	0x39ed3f3a	0.0004525127
57	0xbcce92ef	-0.025216548
58	0xbe04d2ba	-0.12971011
59	0x3d7913bf	0.060809847
60	0xbc92364d	-0.017848158
61	0xbe5426aa	-0.20717874
62	0x3de37b0e	0.11107455
63	0xbd82dfbb	-0.063903295
64	0xbe0e0831	-0.13870312
65	0xba6d0baa	-0.00090425706
66	0xbaa6d060	-0.0012726896
67	0x3df709c9	0.12062413
68	0xbd1b3efd	-0.037901867
69	0xbe244fbf	-0.16046046
70	0x3d686786	0.056739353
71	0x3d5b7f8c	0.053588435
72	0x3d46d1e1	0.04854
73	0x3e069074	0.13141042
74	0xbdbf364a	-0.09336527
75	0x3da878a9	0.08226139
76	0xbd9b4aa6	-0.075825974
77	0xbe0d6257	-0.13807045
78	0xbe2b8ce9	-0.16752972
79	0x3ce1366f	0.027491776
80	0xbd8fcaa3	-0.07021072
81	0xbd35f19e	-0.044419877
82	0xbda45d8d	-0.08025656
83	0x3c873a8c	0.01650741
84	0x3ba1fb77	0.004943307
85	0x3bf51966	0.0074798344
86	0x3d8ca489	0.0686732
87	0xbe0e3513	-0.13887434
88	0x3caeb3b7	0.02132593
89	0xbd1bcbe0	-0.038036227
90	0xbe1c9d02	-0.15294269
91	0xbda6dbca	-0.0814739
92	0x3dea8fee	0.11453234
93	0xbd098a8b	-0.03357939
94	0xbc91a442	-0.01777852
95	0xbd9698eb	-0.073533855
96	0xbda37db9	-0.07982964
97	0xbd7e3e25	-0.062070984
98	0xbd482e98	-0.04887256
99	0xbd0ead94	-0.034833506
100	0xbe123962	-0.14279702
101	0x3e37e8ad	0.17959853
102	0x3e252bf8	0.16130054
103	0xbd9b1e68	-0.07574159
104	0xbdac3bdf	-0.08409857
105	0x3d90ffcf	0.070800416
106	0xbca277bd	-0.019832486
107	0x3daabb48	0.08336502
108	0x3c57ced8	0.013171874
109	0xbc926cf3	-0.017874217
110	0x3df2d170	0.11856353
111	0xbd32d342	-0.043658502
112	0xbdab5168	-0.083651364
113	0xbe12549d	-0.1429009
114	0x3d9b12bd	0.075719334
115	0xbd5e322b	-0.054247063
116	0x3cfeb9fb	0.031094542
117	0xbe157f01	-0.1459923
118	0x3df2dd93	0.11858668
119	0xbe2d56a1	-0.16927578
120	0xbac748d7	-0.0015204203
121	0xbd91b4d8	-0.07114571
122	0x3bd19dff	0.0063970084
123	0xbd072e0d	-0.0330029
124	0x3da0525a	0.07828207
125	0xbd013380	-0.031543255
126	0x3e1075b2	0.14107397
127	0x3de4fbf5	0.111808695
128	0x3b5491df	0.0032435579
129	0xbd84eed0	-0.06490862
130	0x3d291daf	0.041288074
131	0x3cb518c2	0.022106532
132	0xbda5150c	-0.08060655
133	0xbd5e3ec3	-0.054259073
134	0xbda65d91	-0.08123315
135	0x3e05369c	0.13009113
136	0xbcd883b7	-0.026429994
137	0x3d7eeac4	0.06223561
138	0xbcaaef9c	-0.020866208
139	0x3d68b17d	0.05680989
140	0x3d927a82	0.07152273
141	0xbdda9dc9	-0.106746264
142	0xbdd29047	-0.10281425
143	0xbd5e4c03	-0.05427171
144	0xbddc1f0e	-0.10748111
145	0x3d7f11c2	0.062272795
146	0x3d2e0a7d	0.04249047
147	0xbc955ccc	-0.018232726
148	0xbd0ef0ff	-0.0348978
149	0xbdb25c81	-0.0870905
150	0x3c3c8dde	0.011508433
151	0x3d83bee4	0.06432894
152	0xbd6460de	-0.055756442
153	0x3db3a2ae	0.08771263
154	0xbd8de5a9	-0.0692857
155	0xbd418984	-0.047250286
156	0xbd19849e	-0.03747999
157	0x3da8b089	0.082367964
158	0x3d0b5c19	0.034023378
159	0x3e194209	0.14966597
160	0x3b81634d	0.003948605
161	0x3dff293d	0.124590375
162	0xbcdbe9b1	-0.026844831
163	0x3d9a5a56	0.075367615
164	0xbe05e105	-0.1307412
165	0xbd3b712a	-0.04576222
166	0xbcb80f5c	-0.022468261
167	0x3dc1ff4e	0.09472524
168	0xbba0e0dd	-0.0049096183
169	0x3df5d9c5	0.12004427
170	0xbd040e53	-0.032240223
171	0x3da55fbb	0.080749
172	0x3d2e2297	0.042513456
173	0xbde73b92	-0.11290659
174	0x3d9e359f	0.07725071
175	0x3d184378	0.03717372
176	0xbc4b50bb	-0.012409384
177	0x3d183019	0.037155244
178	0xbdf87146	-0.1213098
179	0x3d4edcaa	0.05050341
180	0x3c69c95b	0.014269198
181	0xbcf119b9	-0.02943121
182	0x3e3a3c62	0.18187097
183	0xbd942464	-0.072335035
184	0x3d9b75f4	0.07590857
185	0x3c06a7db	0.008218731
186	0xbdf55265	-0.11978606
187	0x3cbee256	0.023301285
188	0x3de6ae0b	0.11263665
189	0xbdf7d384	-0.1210089
190	0xba9c8db4	-0.0011944086
191	0xbc8e38e1	-0.017361106
192	0xbdddd729	-0.10832054
193	0xbd442d64	-0.04789485
194	0x3d2f9677	0.042868104
195	0xbcb0b730	-0.021571726
196	0x3dfcfc08	0.12352759
197	0xbd4a064f	-0.049322423
198	0x3dfac07e	0.12243746
199	0x3c28b417	0.010296843
200	0x3d29f2e3	0.0414914
201	0x3e274b85	0.16337402
202	0x3e34f00b	0.17669694
203	0x3d74e0d5	0.05978473
204	0x3dc05e27	0.09392958
205	0xbde78bfe	-0.11305998
206	0x3d8396d1	0.0642525
207	0x3c9d087b	0.019169083
208	0x3e218ea1	0.15777065
209	0xbd1cd794	-0.03829153
210	0xbdeca57f	-0.115550034
211	0x3ce1ae48	0.027548924
212	0x3dde4363	0.10852697
213	0x3d79dbea	0.061000742
214	0x3d866f3f	0.06564187
215	0xbde65fb9	-0.112487264
216	0x3ce76e70	0.028250903
217	0x3c6af53b	0.014340694
218	0xbcee001f	-0.029052792
219	0x3e10c859	0.14138927
220	0xbd26ed2f	-0.04075354
221	0x3ae64330	0.0017567631
222	0x3d9f37a4	0.077742845
223	0xbda97276	-0.08273785
224	0xbdb8e9a8	-0.090289414
225	0x3d8ee7b6	0.06977789
226	0xbca983b1	-0.020692678
227	0x3d39cf57	0.04536375
228	0xbe1bc0cb	-0.15210263
229	0x3de5f4c5	0.11228327
230	0x3c1f0d02	0.009707691
231	0xbe01152b	-0.12605731
232	0x3c946291	0.018113406
233	0xbd022373	-0.03177209
234	0xbc59eb36	-0.013300708
235	0xbd37773e	-0.044791453
236	0x3d81ff17	0.06347483
237	0x3dc4e48c	0.09613904
238	0xbcf2a787	-0.029620899
239	0xbd132be1	-0.035930518
240	0xbcb49f90	-0.022048742
241	0xbde958fd	-0.11393926
242	0x3dd24845	0.102676906
243	0xbd9aab21	-0.075521715
244	0xbe18fba6	-0.14939746
245	0x3dfaea31	0.122517
246	0x3e30ff46	0.17284879
247	0xbd5cca62	-0.053903945
248	0x3d673ab4	0.056452468
249	0xbc99cf2c	-0.018775545
250	0x3de30aa2	0.110860124
251	0x3cf76107	0.030197633
252	0x3d3e8405	0.046512622
253	0xbc994904	-0.018711574
254	0x3d2b174d	0.04177027
255	0xbc75b31a	-0.014996314

model.rnn.bias_ih_l0 f4 [240]
0	0x3dbc29c9	0.091876574
1	0x3d7a69fe	0.06113624
2	0xbdc9758f	-0.09836876
3	0x3e0b74f2	0.1361883
4	0x3c202bd7	0.009776077
5	0x3d9f0cc9	0.077661105
6	0xbd1614ab	-0.036640804
7	0xbde546b6	-0.11195128
8	0xbda6f8ad	-0.081529
9	0x3e116800	0.14199829
10	0x3d2722f9	0.040804837
11	0x3db2062c	0.086925834
12	0x3cc9fa06	0.024655353
13	0xbd62fbd0	-0.05541593
14	0x3d371208	0.04469493
15	0x3d4c48ff	0.049874302
16	0x3c052f8c	0.008129012
17	0x3bf2f0c9	0.0074139577
18	0x3e44a1ac	0.19202298
19	0xbcfd6b6a	-0.030935008
20	0x3e1dba7c	0.1540317
21	0x3bb97da0	0.0056607276
22	0x3e06df7f	0.13171194
23	0x3c8371f9	0.016045557
24	0xbd5212a4	-0.05128731
25	0xbd8818d8	-0.066453636
26	0xbd9dfec2	-0.07714607
27	0x3d7b2e18	0.061323255
28	0xbbef5cd0	-0.0073047653
29	0x3d5e6f12	0.054305144
30	0xbcb3628c	-0.021897577
31	0x3dce46a2	0.10072066
32	0xbdc7ae17	-0.09750002
33	0xbd60612d	-0.054780174
34	0x3dc5b694	0.09653965
35	0xbd195875	-0.037437875
36	0x3d487485	0.048939247
37	0x3e34a4ed	0.17641039
38	0x3df7b577	0.120951585
39	0x3d618504	0.055058494
40	0x3ddff2a5	0.10934953
41	0xbd848a60	-0.064717054
42	0x3b8a214b	0.0042153946
43	0x3ddc3f42	0.10754253
44	0x3e039833	0.12851028
45	0xbdb18ff7	-0.08670037
46	0x3c952c1b	0.018209508
47	0xbd38792b	-0.04503743
48	0xbcdbd3fa	-0.026834477
49	0x3d1b803b	0.037964087
50	0xbb8bad74	-0.0042626206
51	0xbcfff610	-0.031245261
52	0xbdbc4d91	-0.09194482
53	0xbc4b1658	-0.012395464
54	0xbd813426	-0.06308775
55	0xbd4a95ab	-0.04945914
56	0x3db2fe5b	0.08739921
57	0x3d9d3a07	0.076770835
58	0x3d6f559e	0.05843126
59	0x3cf11cbe	0.02943265
60	0x3dc292f7	0.095006876
61	0xbd925f9b	-0.071471415
62	0xbdd2dd8b	-0.10296162
63	0xbcf715d0	-0.030161768
64	0xbe01846f	-0.12648176
65	0x3e0575c9	0.13033213
66	0xbddeab9f	-0.10872578
67	0xbd65f8c0	-0.05614543
68	0xbd9d9dd0	-0.07696116
69	0xbc57f93c	-0.013181981
70	0xbd8a0e78	-0.06741041
71	0x3e004c60	0.12529135
72	0x3d01d571	0.031697694
73	0xbd1d9419	-0.038471315
74	0x3df52d4e	0.11971532
75	0x3d667ba0	0.05627024
76	0x3e05bd83	0.13060574
77	0xbd33915d	-0.0438398
78	0x3d489938	0.048974246
79	0x3d8e5f07	0.06951719
80	0x3db73159	0.08944959
81	0xbd112b73	-0.035441827
82	0x3e1f644a	0.15565601
83	0x3af74db4	0.0018867762
84	0x3e08f28e	0.13373777
85	0xbd8842a2	-0.06653334
86	0xbc874299	-0.016511248
87	0x3dc81929	0.09770424
88	0xbd8f032c	-0.06983027
89	0x3d9217fd	0.07133482
90	0xbcc1efed	-0.023673976
91	0xbd3ede5b	-0.046598773
92	0xbdcc586c	-0.09977803
93	0x3d83acc4	0.06429437
94	0x3c8e6c26	0.017385554
95	0x3da921da	0.0825841
96	0xbd755476	-0.059895
97	0xbddd4bd2	-0.10805477
98	0x3dc5a1bf	0.09649991
99	0xbc7424c2	-0.014901342
100	0x3db771da	0.08957262
101	0x3e1a41d1	0.1506417
102	0xbd6c9ee1	-0.057768706
103	0xbc17cf07	-0.009265668
104	0x3d2ad1eb	0.0417041
105	0xbe0626e7	-0.13100778
106	0x3e0f501a	0.139954
107	0x3cef6fb1	0.029228063
108	0x3da39422	0.079872385
109	0x3c688138	0.014190964
110	0x3e0c805f	0.13720845
111	0xbddecb19	-0.108785816
112	0xbd93f6be	-0.07224797
113	0xbdb7292b	-0.08943399
114	0x3dbf6a9e	0.093465075
115	0x3d98cfa9	0.07461483
116	0xbcdd55b5	-0.027018407
117	0xbb2e52bd	-0.0026599609
118	0xbda481cd	-0.0803257
119	0x3e08e036	0.1336678
120	0x3d5ba590	0.05362469
121	0xbbd82536	-0.0065962328
122	0xbd8b9a33	-0.068165205
123	0xbd640c2f	-0.05567568
124	0xbd18eac7	-0.037333276
125	0xbddad96d	-0.10686002
126	0x3d7f3e84	0.06231548
127	0x3c2e0b34	0.010622788
128	0x3dc09b74	0.0940465
129	0xbd0de29a	-0.034639932
130	0xbcf57ca1	-0.029966654
131	0x3dcc555f	0.09977221
132	0x3b89db80	0.0042070746
133	0x3e23b476	0.15986809
134	0xbc09807a	-0.008392448
135	0x3dd274b3	0.10276165
136	0xbdb48cdf	-0.088159315
137	0xbe250e9e	-0.16118857
138	0x3dc9ea2b	0.09859117
139	0xbc8378c0	-0.016048789
140	0x3b24e849	0.0025162867
141	0x3dbd3305	0.09238247
142	0xbdc4b62a	-0.096050575
143	0xbdd114d9	-0.102090545
144	0x3d9ec35a	0.07752104
145	0x3dabcd15	0.08388726
146	0xbe0d6de6	-0.13811454
147	0xbd432064	-0.047638312
148	0x3ca93323	0.020654267
149	0x3dfc7cc1	0.123284824
150	0x3c9ca0d5	0.01911966
151	0x3db1298d	0.08650503
152	0xbd18bf43	-0.037291776
153	0xbc3aa12c	-0.011390965
154	0xbd47adfc	-0.04874991
155	0xbdda2e3d	-0.106533505
156	0xbd59f3aa	-0.05321089
157	0x3d734aa0	0.05939734
158	0xbd739d5f	-0.059476253
159	0x3cb8d68a	0.022563238
160	0xbcce9204	-0.02521611
161	0x3cb9e649	0.022692816
162	0x3da9683a	0.08271833
163	0xbd33a3af	-0.043857273
164	0xbde5899f	-0.1120789
165	0xbe07d66e	-0.13265392
166	0x3da1c6e3	0.07899263
167	0x3d9db65c	0.07700798
168	0xbe132180	-0.14368248
169	0x3d4170a1	0.047226552
170	0x3d8a6029	0.06756622
171	0x3cfdde6a	0.030989844
172	0xbda3ed56	-0.080042526
173	0x3c0f3922	0.008741649
174	0xbdf45dc7	-0.11931949
175	0x3e06ea33	0.13175277
176	0x3d820f85	0.06350616
177	0x3d054acc	0.032542035
178	0xbdf0fbba	-0.11766763
179	0xbc921444	-0.017831929
180	0xbd6f7ac9	-0.058466706
181	0xbc45bb4b	-0.01206858
182	0xbc7796e0	-0.015111655
183	0xbc3a3776	-0.011365762
184	0x3ddfd496	0.109292194
185	0x3d3e74ad	0.04649799
186	0x3dab38b5	0.083604254
187	0x3cc88a6c	0.024480067
188	0xbd845191	-0.0646087
189	0x3dffd066	0.12490921
190	0xbdd3b063	-0.103363775
191	0x3d5df95b	0.054192882
192	0x3d52c497	0.051457014
193	0x3b16fd5b	0.0023039195
194	0x3dfee25e	0.1244552
195	0x3d98ffc1	0.07470656
196	0x3d8b2339	0.067938276
197	0x3de328db	0.11091777
198	0xbd3598e9	-0.04433528
199	0x3deffd2d	0.11718211
200	0xbd143466	-0.036182784
201	0x3df19248	0.11795479
202	0x3df60d06	0.12014203
203	0x3e33fa18	0.17575872
204	0x3e24274f	0.1603062
205	0xbd29c426	-0.041446827
206	0x3d859b12	0.06523718
207	0x3d2c94a5	0.042133946
208	0xbda359d5	-0.079761185
209	0xbc074b57	-0.0082577085
210	0x3d8513b4	0.06497899
211	0x3dff1022	0.12454249
212	0xbda18601	-0.07886887
213	0xbdcb0e56	-0.09914844
214	0x3e002fb8	0.12518203
215	0x3dc74581	0.09730054
216	0xbc858f31	-0.01630363
217	0x3dca4233	0.09875908
218	0x3e2bfc71	0.16795518
219	0xbc5e03f2	-0.013550745
220	0x3d01afce	0.0316618
221	0x3dc277ed	0.0949553
222	0x3db3b90f	0.087755315
223	0x3cdc1161	0.026863756
224	0xbd4ee3b5	-0.050510127
225	0x3d98c4e4	0.07459429
226	0xbd776e5c	-0.06040798
227	0x3e1ca1c9	0.15296091
228	0x3cbbe89a	0.022938062
229	0x3d813301	0.06308556
230	0xbd285549	-0.04109696
231	0xbd90c2b1	-0.070683844
232	0x3d59e5cf	0.05319768
233	0x3ce489da	0.027897764
234	0x3e13e92e	0.1444442
235	0x3dca5924	0.098802835
236	0xbd967fea	-0.073486164
237	0x3db534f3	0.0884799
238	0x3e2132c4	0.15742022
239	0x3dfc9de0	0.123348

model.rnn.bias_hh_l0 f4 [240]
0	0x3d806cb9	0.06270737
1	0x3e178966	0.14798507
2	0x3c85e400	0.01634407
3	0x3e0a6052	0.13513306
4	0x3e0bbc13	0.13645963
5	0x3e3f9aa9	0.18711342
6	0x3da4bd33	0.080438994
7	0xbde76a56	-0.11299579
8	0xba959df0	-0.0011414867
9	0x3e131240	0.1436243
10	0xbdb39d41	-0.08770228
11	0xbd3c8567	-0.04602566
12	0xbce1d197	-0.02756576
13	0x3de6cfa1	0.11270071
14	0x3d4279e0	0.04747951
15	0x3da6b988	0.08140856
16	0xbd044cbc	-0.032299742
17	0x3df7ce4a	0.120998934
18	0x3e09ba93	0.13450079
19	0xbda113ec	-0.07865128
20	0x3d5e5b2e	0.054286174
21	0xbd03c763	-0.032172572
22	0x3d137cb8	0.036007613
23	0xbcf01679	-0.02930759
24	0x3de6b5a3	0.11265113
25	0x3c7f2e0f	0.015574946
26	0xbda42c90	-0.08016312
27	0x3e15715a	0.14594021
28	0xbd7681ae	-0.060182266
29	0x3dc44284	0.09582999
30	0x3d8258d9	0.063646026
31	0xbb077951	-0.0020671675
32	0x3d080173	0.033204507
33	0xbd4f8c91	-0.050671164
34	0x3dc9c4e4	0.09852007
35	0x3dec1d15	0.115289845
36	0xbbb5c811	-0.0055475314
37	0x3debf662	0.11521603
38	0xbd7c1413	-0.06154258
39	0xbd56c8e5	-0.05243768
40	0x3cd29e6c	0.025710307
41	0x3dde5c69	0.108574696
42	0xbb9f5a7d	-0.004863082
43	0x3d3ea76e	0.046546392
44	0x3de3bda0	0.111201525
45	0x3c5991df	0.013279407
46	0x3dc85de0	0.0978353
47	0x3be4aa6a	0.0069783228
48	0x3d74ebec	0.059795305
49	0x3c300fcc	0.010745954
50	0x3d9e584e	0.077316865
51	0xbd01a2d9	-0.031649444
52	0xbcdf3eb7	-0.027251584
53	0x3d9b0b58	0.07570523
54	0x3c9d5e4e	0.019210007
55	0xbcb7e79c	-0.022449307
56	0x3de268b6	0.11055128
57	0xbdadfa6e	-0.08495031
58	0x3de4d235	0.11172906
59	0x3e160b50	0.14652753
60	0x3dd8a929	0.1057914
61	0xbdbf29ee	-0.09334169
62	0xbd7bd69a	-0.061483957
63	0xbcb0d803	-0.021587377
64	0x3dfa3d5c	0.122187346
65	0xbd939356	-0.072058365
66	0x3d025f52	0.031829186
67	0x3c3a34ef	0.011365159
68	0xbdc8d834	-0.098068625
69	0xbd6ebf31	-0.058287803
70	0x3b72f1aa	0.0037070313
71	0x3d09b38b	0.03361849
72	0xbd91d09e	-0.07119869
73	0xbd2ae7b5	-0.04172488
74	0xbd492be8	-0.049114138
75	0x3c2675fa	0.010159964
76	0x3dcfbbca	0.1014324
77	0x3cc09497	0.023508353
78	0x3b8f785a	0.0043783607
79	0x3dfd33de	0.123634085
80	0x3c401479	0.011723631
81	0x3e0986c9	0.13430323
82	0x3dbc7b39	0.0920319
83	0xbd9d0064	-0.0766609
84	0x3ce2174c	0.027599
85	0xbd832dd9	-0.06405229
86	0xbcbd827f	-0.023133514
87	0xbd99fcbb	-0.07518908
88	0xbdbf08eb	-0.09327873
89	0xbcf1d3d2	-0.02951995
90	0xbdc33742	-0.09532024
91	0xbdf83ec9	-0.1212135
92	0x3de0b4ed	0.10972009
93	0xbcdfd506	-0.027323257
94	0x3ab0bfe5	0.0013484923
95	0xbd21db29	-0.039515648
96	0xbbfa7e97	-0.007644485
97	0x3e0428e7	0.12906228
98	0xbdb39b96	-0.0876991
99	0x3d512610	0.05106169
100	0xbc692738	-0.014230542
101	0xbd40466b	-0.046942156
102	0x3d1e0919	0.038582895
103	0xbca49eaa	-0.020095188
104	0x3dc3f505	0.09568218
105	0x3d458b52	0.04822857
106	0xbd8a8e04	-0.067653686
107	0x3c690182	0.014221551
108	0x3d61c88c	0.055122897
109	0x3e051648	0.12996781
110	0x3d2ab6b3	0.04167814
111	0x3d830822	0.063980356
112	0x3dabad0a	0.08382614
113	0x3c0a7330	0.008450314
114	0xbd37902e	-0.044815235
115	0x3dd3b3cf	0.1033703
116	0xbc1fa829	-0.009744682
117	0x3d7b4996	0.061349474
118	0xbd694f2d	-0.056960274
119	0x3d370d79	0.044690583
120	0xbd48f815	-0.049064714
121	0xbdd70746	-0.10499434
122	0x3b9592d3	0.004564622
123	0x3ddb6fe0	0.10714698
124	0xbde3b507	-0.111185126
125	0xbde20835	-0.110367216
126	0xbdafb823	-0.08580043
127	0x3d2c87c1	0.042121653
128	0xbddc6b03	-0.10762598
129	0x3dce3ebb	0.10070559
130	0x3dbdebdb	0.092735015
131	0x3d1094e9	0.03529826
132	0xbd0f8258	-0.035036415
133	0x3df23097	0.11825674
134	0x3d8bda4f	0.068287484
135	0x3e00f92e	0.12595055
136	0x3d5d0d0e	0.053967528
137	0xbbbd229a	-0.005771947
138	0xbd723485	-0.059132118
139	0x3ab88960	0.0014079027
140	0xbdfba920	-0.122881174
141	0x3ddc50eb	0.107576214
142	0x3dbca0fe	0.09210394
143	0x3e065d66	0.13121566
144	0xbd9593f3	-0.0730361
145	0xbd8ea486	-0.06964974
146	0x3dd251d6	0.10269515
147	0x3ca116f6	0.019664269
148	0xbe08c060	-0.13354635
149	0xbda51e12	-0.08062376
150	0xbe07a75c	-0.13247436
151	0x3d305d7b	0.0430579
152	0x3d7963ea	0.0608863
153	0xbd011438	-0.031513423
154	0x3dbcc80e	0.09217845
155	0x3d9eba9b	0.07750436
156	0xbd4261ef	-0.047456678
157	0xbd2765b6	-0.040868483
158	0x3c9103c2	0.017701987
159	0xbcc3155f	-0.023813901
160	0xbd2b69f2	-0.041849084
161	0x3b9573fd	0.004560946
162	0xbd8cc518	-0.0687353
163	0x3dbcf4b5	0.09226362
164	0xbdfceed6	-0.12350242
165	0xbc5a06f2	-0.01330732
166	0x3e0c64bd	0.13710304
167	0x3d1de8d8	0.038552135
168	0x3bea9187	0.0071584615
169	0xbdab7215	-0.08371369
170	0x3de56848	0.11201531
171	0xbd11fd0e	-0.035641722
172	0xbcae09b6	-0.021244865
173	0xbdc0b426	-0.094093606
174	0x3d04ad73	0.032391977
175	0x3e058a7c	0.13041109
176	0xbd26acc5	-0.04069211
177	0x3db41538	0.0879311
178	0x3db02c50	0.08602202
179	0xbd901498	-0.07035178
180	0x3e488148	0.19580567
181	0x3e1f8b82	0.15580562
182	0x3bb05ba5	0.0053820186
183	0xbd61b2e2	-0.055102237
184	0xbd851d70	-0.064997554
185	0x3dcae764	0.099074155
186	0xbcc194a2	-0.023630444
187	0x3d815f0a	0.063169554
188	0x3e02d3ca	0.12776104
189	0x3e0e8c40	0.13920689
190	0xbcfdae30	-0.030966848
191	0x3d02d7dd	0.031944145
192	0x3e2aebb0	0.1669147
193	0x3d8709db	0.06593677
194	0x3df79545	0.12089018
195	0x3da5c4ca	0.08094175
196	0x3cb01491	0.021494182
197	0x3e03f7a5	0.12887438
198	0x3e0e7aaf	0.13913988
199	0x3de0dd36	0.10979693
200	0x3c3d5f2e	0.011558337
201	0x3dc74c8a	0.097313955
202	0x3e391df2	0.1807783
203	0x3cb79ea9	0.022414522
204	0x3e0c5828	0.13705504
205	0x3dcf76a0	0.10130048
206	0xbd9b2c33	-0.0757679
207	0x3e12a91b	0.14322321
208	0xbcfb7f06	-0.030700218
209	0x3d8e6eed	0.06954751
210	0xbb8460ff	-0.004039883
211	0xbd8a17de	-0.067428336
212	0xbde65fea	-0.11248763
213	0x3e10e8ac	0.14151257
214	0x3d43d722	0.04781259
215	0xbd38455d	-0.044988025
216	0x3e0d0da5	0.13774736
217	0x3df96391	0.12177194
218	0xbd76c4f8	-0.060246438
219	0x3e225559	0.1585287
220	0x3db1097c	0.08644387
221	0x3cd07623	0.025446957
222	0x3de034a8	0.109475434
223	0x3e07643a	0.13221827
224	0xbd986a4e	-0.07442151
225	0x3b3e3036	0.0029020435
226	0x3ddd6f9c	0.108123034
227	0x3d5b50b9	0.05354378
228	0x3dcb06ae	0.099133834
229	0x3e27495a	0.16336575
230	0x3ce04efa	0.027381409
231	0xbd1f3fe5	-0.038879294
232	0xbcb646f5	-0.022250632
233	0x3d9171f6	0.071018144
234	0x3d455b71	0.04818291
235	0xbdc09747	-0.09403854
236	0xbd965890	-0.07341111
237	0x3d8c3b7b	0.068472825
238	0x3dd2d06f	0.10293662
239	0x3e1bb437	0.15205465

model.rnn.weight_ih_l1 f4 [240, 60]
0	0xbd47af73	-0.048751306
1	0x3d913f50	0.07092154
2	0x3e1ecae5	0.15507086
3	0x3d4e42c3	0.050356638
4	0xbc21a27c	-0.009865399
5	0xbe0cbc51	-0.13743712
6	0x3de9b5b9	0.11411614
7	0xbd7a37a6	-0.061088227
8	0x3d9446ea	0.07240088
9	0xbd4657a7	-0.048423436
10	0xbdebd362	-0.115149274
11	0x3c570e80	0.013126016
12	0x3d01d6e8	0.03169909
13	0x3db0ab14	0.086263806
14	0x3dbfcd93	0.09365382
15	0x3e09e7a9	0.13467278
16	0x3d10a286	0.035311244
17	0xbad6c571	-0.0016385746
18	0xbaeb37ea	-0.0017945741
19	0xbdbbbb63	-0.091666006
20	0xbc74e270	-0.014946565
21	0xbbb5e96d	-0.005551508
22	0xbd44c0f1	-0.048035566
23	0xbd94cfbb	-0.07266184
24	0x3d9057e7	0.07048016
25	0x3d4a97ba	0.049461104
26	0xbd810cc2	-0.063012615
27	0x3d971bf4	0.073783785
28	0xb6329780	-2.6612252e-06
29	0xbc10310e	-0.008800758
30	0x3db86986	0.09004502
31	0xbdc4ecdd	-0.096154906
32	0xbdfbbc08	-0.122917235
33	0xbd6fa1a7	-0.058503773
34	0x3dfa94c2	0.122354046
35	0xbd905a07	-0.07048421
36	0xbccac540	-0.02475226
37	0xbdee0547	-0.116221
38	0xbd879efa	-0.06622119
39	0xbd055475	-0.032551248
40	0xbd57ab88	-0.05265382
41	0xbd661025	-0.05616774
42	0xbdda4d09	-0.106592245
43	0xbd213c04	-0.039363876
44	0x3d893b69	0.06700785
45	0x3d4622d7	0.04837307
46	0x3d8fe12c	0.0702537
47	0x3d2740ce	0.040833287
48	0xbe36d1a3	-0.17853408
49	0x3b25a06f	0.0025272628
50	0x3dbf83fd	0.09351347
51	0xbcfd56d4	-0.030925192
52	0xbd6ca72f	-0.057776626
53	0xbdb58c9c	-0.0886471
54	0xbc9cef23	-0.019156998
55	0x3d982697	0.074292354
56	0xbd16f8e2	-0.036858447
57	0xbd5370db	-0.0516213
58	0xbd106b51	-0.035258595
59	0xbe075e26	-0.13219509
60	0xbdfda6d9	-0.12385339
61	0xbe001e04	-0.1251145
62	0xbcba2d08	-0.02272655
63	0xbe42cf8d	-0.19024487
64	0xbcd490d9	-0.025947975
65	0xbd6e5c14	-0.05819328
66	0x3e07f86a	0.13278356
67	0x3e137fd0	0.14404225
68	0x3e40bb39	0.1882142
69	0xbe1d9d39	-0.15392007
70	0x3e4aa71e	0.19790313
71	0xbe4c809a	-0.19970933
72	0xbe1503b3	-0.14552192
73	0x3e3018f7	0.17197023
74	0x3cfa04e0	0.030519903
75	0x3c076a37	0.00826507
76	0x3ce0e226	0.027451586
77	0xbd97db88	-0.07414919
78	0x3c59b8ee	0.01328872
79	0xbdaba706	-0.083814666
80	0xbe48c783	-0.19607358
81	0xbe27d363	-0.16389231
82	0x3d92fadb	0.07176753
83	0x3d5f059b	0.054448705
84	0xbe17b721	-0.14815952
85	0xbb6bf02d	-0.003600131
86	0xbd76071f	-0.060065385
87	0xbd288466	-0.04114189
88	0x3dcfc84a	0.10145624
89	0xbd4f79ef	-0.050653394
90	0xbdf05ae3	-0.11736085
91	0xbd962476	-0.07331173
92	0xbc383187	-0.011242277
93	0xbdd6e217	-0.10492342
94	0x3ded5944	0.11589292
95	0x3d20b60d	0.039236117
96	0xbde53d15	-0.11193291
97	0x3b666fa6	0.0035161762
98	0xbe5cb43d	-0.2155313
99	0x3cbe1c2c	0.023206793
100	0x3cd6b5c6	0.026209723
101	0xbbaabadf	-0.005210265
102	0xbc6abea6	-0.014327681
103	0xbd2d09d3	-0.042245697
104	0xbe418b80	-0.18900871
105	0xbdeb3141	-0.11484004
106	0xbce9eab6	-0.028554302
107	0x3d213ca6	0.03936448
108	0xbdb8dc91	-0.09026445
109	0x3e146615	0.14492066
110	0x3d820138	0.06347889
111	0x3d98301d	0.07431052
112	0x3cb6a354	0.022294678
113	0xbdcfc76d	-0.10145459
114	0xbe1d2db2	-0.15349463
115	0x3e1cabfa	0.15299979
116	0x3e3c06e9	0.18362011
117	0x3dce9817	0.100876026
118	0xbdb14015	-0.08654801
119	0xbc8c6dfc	-0.017142288
120	0xbe3431dc	-0.17597145
121	0xbd6b51f5	-0.057451207
122	0x3d96de82	0.07366659
123	0x3a803f11	0.000978442
124	0xbdeaf8b6	-0.11473219
125	0xbe4a8598	-0.19777524
126	0xbdbc277a	-0.09187217
127	0xbdace0c9	-0.08441312
128	0x3d8ffb90	0.070304036
129	0x3dbec7ad	0.09315429
130	0x3db1a86a	0.086747006
131	0x3abf5361	0.0014596992
132	0x3d4ddad6	0.050257526
133	0xbcb16763	-0.021655744
134	0xbca9631d	-0.020677144
135	0x3de81eb8	0.11333984
136	0xbcacedce	-0.021109488
137	0xbd5f042d	-0.05444734
138	0xbdee84e6	-0.11646442
139	0xbdb4959d	-0.08817599
140	0xbde50324	-0.1118224
141	0x3bda739c	0.0066666137
142	0xbdf12979	-0.117754884
143	0x3c9df52c	0.019281946
144	0xbdb3ee27	-0.08785658
145	0x3d8654c3	0.06559136
146	0x3df33027	0.11874419
147	0x3dcbdf4a	0.099546984
148	0x3df88830	0.12135351
149	0xbde288c9	-0.11061246
150	0xbd0d8dc9	-0.034559045
151	0xbdbead60	-0.093104124
152	0x3d0b08cb	0.033943933
153	0x3dda0b6f	0.10646712
154	0x3d840fab	0.06448301
155	0xbd5840da	-0.052796222
156	0xbdfca84b	-0.12336787
157	0x3d955d59	0.07293195
158	0x3c651766	0.013982629
159	0x3d8b8dfe	0.06814192
160	0x3dd0665b	0.10175773
161	0xbdd7fbd7	-0.105460815
162	0xb98f3665	-0.00027315613
163	0x3d816f8c	0.06320104
164	0xbdebcd73	-0.11513796
165	0x3d0c9241	0.034319166
166	0x3d23b394	0.03996618
167	0x3d19decc	0.03756599
168	0xbe1ff6ab	-0.1562144
169	0x3d81e3a0	0.06342244
170	0x3d04b168	0.03239575
171	0x3dd3558e	0.10319053
172	0xbc7daf06	-0.015483623
173	0x3da30fe3	0.079620145
174	0xbdc72d7d	-0.09725473
175	0x3e1294a8	0.1431452
176	0xb9fd00bc	-0.00048256468
177	0x3dc163c7	0.09442859
178	0x3c2270e3	0.00991461
179	0xbdbd03ea	-0.09229262
180	0xbdb78e47	-0.08962684
181	0x3d062b8a	0.032756366
182	0xbc70f414	-0.01470663
183	0xbd098486	-0.03357365
184	0xbe2087d6	-0.15676817
185	0x3e1a0d7c	0.15044206
186	0xbd01583f	-0.0315783
187	0x3d46c7a7	0.048530247
188	0xbd41347e	-0.0471692
189	0xbd667715	-0.05626591
190	0xbc9f5215	-0.01944832
191	0x3d6e1643	0.0581267
192	0xbce3eb01	-0.02782202
193	0x3d480d72	0.048840947
194	0x3c2dc930	0.010607049
195	0x3e313ae4	0.17307621
196	0x3b89cd06	0.004205349
197	0xbdf8ec71	-0.121544726
198	0x3e131123	0.14362006
199	0x3c85faa9	0.016354876
200	0xbdd02212	-0.101627484
201	0xbe4c8ed6	-0.19976363
202	0x3e1bcb80	0.15214348
203	0x3d76a2b0	0.060213745
204	0xbd71976d	-0.0589823
205	0xb879f35c	-5.9592872e-05
206	0xbe5138e5	-0.2043186
207	0xbd79990a	-0.060936965
208	0x3d48563d	0.04891037
209	0xbd2c0a55	-0.04200204
210	0xbd5ea4b7	-0.054356303
211	0x3d197760	0.03746736
212	0xbd6262ef	-0.05527013
213	0xbda7e989	-0.0819884
214	0x3d926700	0.07148552
215	0xbd6cd2f7	-0.05781838
216	0x3ba1d214	0.0049383733
217	0xbdf50a62	-0.11964871
218	0xbe39ca2e	-0.18143532
219	0x3b2ff373	0.0026847988
220	0x3ce293c3	0.027658349
221	0x3d60827a	0.054811932
222	0x3de97b31	0.1140045
223	0x3def99a3	0.11699226
224	0x3d5c2a41	0.053751234
225	0xbe1084e1	-0.1411319
226	0xbb36327b	-0.0027801085
227	0x3b5e20fd	0.0033894174
228	0x3d2646bb	0.040594798
229	0x3b26dc18	0.0025460776
230	0x3e016e98	0.12639844
231	0x3cfeb0de	0.031090196
232	0xbe63d552	-0.22249344
233	0xbe32d57d	-0.17464252
234	0xbc96f29b	-0.01842623
235	0x3dbeb5cd	0.093120195
236	0x3df6e87a	0.1205606
237	0x3dc68e1c	0.09695074
238	0xbc4735d3	-0.012158829
239	0xbdef9a15	-0.11699311
240	0xbdf5da05	-0.120044746
241	0xbda95c0c	-0.0826951
242	0x3d0bf011	0.034164492
243	0xbdae0d09	-0.0849858
244	0xbe2840dd	-0.16430993
245	0xbdb45642	-0.08805515
246	0x3d938db2	0.072047606
247	0x3d833647	0.06406837
248	0xbc36646b	-0.01113234
249	0xbd984c42	-0.0743642
250	0x3e1c1472	0.15242174
251	0xbd812b47	-0.063070826
252	0x3c5a8d48	0.013339348
253	0xbd89a8a8	-0.06721622
254	0xbdf3255c	-0.1187236
255	0x3cacd703	0.02109862

model.rnn.weight_hh_l1 f4 [240, 60]
0	0x3d3bf326	0.04588618
1	0xbcd4677d	-0.025928253
2	0xbc7c991b	-0.015417363
3	0xbb795a91	-0.0038048367
4	0xbd9eef67	-0.07760506
5	0x3d1a6d35	0.037701804
6	0xbd399284	-0.045305744
7	0xbd818412	-0.063240185
8	0x3ddd0475	0.10791866
9	0x3d84395d	0.06456254
10	0x3dba5829	0.090988465
11	0xbda0045f	-0.07813334
12	0xbd888803	-0.06666567
13	0x3db7fb57	0.08983486
14	0xbd9a6379	-0.07538504
15	0xbd4a5edd	-0.049406875
16	0x3ddade34	0.10686913
17	0xbd6b51cc	-0.057451054
18	0x3c1b97ef	0.009496673
19	0xbd8d18c6	-0.06889491
20	0xbd4ba80e	-0.049720816
21	0x3d8b82fb	0.06812092
22	0x3dd71570	0.10502136
23	0x3dbb8806	0.09156804
24	0xbdf109a1	-0.11769415
25	0x3dbf8d1f	0.093530886
26	0xbde2583a	-0.11051984
27	0xbce6dea2	-0.028182331
28	0xbd62f3c5	-0.055408258
29	0xbd225432	-0.039631076
30	0xbdf97ef8	-0.121824205
31	0xbc5db917	-0.013532898
32	0x3db11c78	0.08648008
33	0x3de4cadf	0.11171507
34	0x3cf8f156	0.030388515
35	0x3d0b1176	0.0339522
36	0xbcebf761	-0.028804483
37	0xbd2f38df	-0.042778846
38	0x3bca3812	0.006171235
39	0x3c714745	0.014726465
40	0xbdfab9b1	-0.12242449
41	0xbdd288c0	-0.10279989
42	0x3df109ba	0.11769433
43	0x3e04a8d4	0.12955028
44	0xbd8cfdc6	-0.06884341
45	0xbdc3f2b5	-0.09567777
46	0x3e09213b	0.13391583
47	0xbe0b03f0	-0.13575721
48	0x3d9cf7c9	0.07664449
49	0x3ce80d9b	0.0283268
50	0x3d37a5d9	0.0448359
51	0xbbea2ace	-0.007146216
52	0xbdfa10b2	-0.12210216
53	0x3e205804	0.15658575
54	0xbd96bc87	-0.073601775
55	0x3d728bdc	0.05921541
56	0x3d2bcd2e	0.04194372
57	0x3da208c2	0.07911827
58	0xbcd5ae58	-0.02608411
59	0x3d0d4b05	0.034495372
60	0xbe60b382	-0.21943477
61	0xbd4a9c59	-0.04946551
62	0x3e269638	0.16268241
63	0xbd23e8c7	-0.040016916
64	0x3d96bc05	0.07360081
65	0x3e414f6f	0.18877958
66	0xbdd53480	-0.10410404
67	0xbc8bcdb2	-0.017065857
68	0xbcc39a21	-0.023877205
69	0xbd0cf832	-0.034416385
70	0xbe3782fc	-0.1792106
71	0xbba6363e	-0.005072384
72	0x3cbade3d	0.02281105
73	0xbd3ac59e	-0.04559862
74	0x3dbfb1a5	0.09360055
75	0xbbef3b53	-0.007300773
76	0x3db6de6b	0.089291416
77	0x3d0d91ae	0.03456276
78	0xbdf855b8	-0.121257246
79	0x3e3fed72	0.18742922
80	0xbe2ad8dc	-0.16684288
81	0x3e2b6ae6	0.16739997
82	0xbc7c10de	-0.015384881
83	0x3d791ad3	0.060816597
84	0x3e0387f4	0.12844831
85	0x3d4ec71a	0.050482847
86	0xbdd66cdb	-0.10469981
87	0xbd096464	-0.033543006
88	0x3baefde7	0.005340326
89	0x3d8f1761	0.06986881
90	0xbe280577	-0.16408335
91	0x3dd97b8c	0.10619268
92	0xbd2ee7fa	-0.0427017
93	0x3d80300b	0.062591635
94	0xbdf34b3a	-0.11879583
95	0x3dbf2ff4	0.09335318
96	0x3d7079c6	0.058709882
97	0x3d4037c0	0.046928167
98	0x3dd04550	0.1016947
99	0x3e1599ec	0.14609498
100	0x3d09bf0e	0.03362947
101	0xbe357f16	-0.1772426
102	0xbcb65876	-0.022258978
103	0x3dbf0262	0.09326626
104	0x3e6b3f9c	0.22973484
105	0xbd1732fa	-0.03691385
106	0x3e52ffbc	0.20605367
107	0xbcaf0493	-0.021364486
108	0xbe442798	-0.19155729
109	0x3d3d5f66	0.046233557
110	0x3e034cd0	0.1282227
111	0xbddba508	-0.107248366
112	0xbe0ea2bf	-0.1392927
113	0xbd89e2ac	-0.06732687
114	0x3dc0d1f9	0.09415049
115	0xbe029b2a	-0.12754503
116	0x3e55f77e	0.20895192
117	0xbd34eb30	-0.044169605
118	0x3e2145d4	0.15749294
119	0x3e1fe605	0.15615089
120	0xbdf20a87	-0.11818414
121	0x3da7989a	0.08183403
122	0x3da193df	0.07889532
123	0x3cf68854	0.030094303
124	0x3de99140	0.11404657
125	0xbdc2c325	-0.09509877
126	0xbd8b003a	-0.067871526
127	0xbd2b9bb8	-0.04189655
128	0xbdaa7618	-0.08323306
129	0xbcb8b44c	-0.02254691
130	0xbddddd49	-0.108332224
131	0x3dae6852	0.08515991
132	0xbe0952c2	-0.13410476
133	0x3d6df58a	0.058095492
134	0x3c406609	0.011743077
135	0x3d8874a0	0.066628695
136	0x3e25314c	0.16132087
137	0x3df0e510	0.1176244
138	0x3ba0c44f	0.0049062143
139	0xbdee0acb	-0.11623152
140	0xbdde5a45	-0.10857061
141	0x3d2d5f64	0.0423273
142	0x3d85c456	0.06531589
143	0x3d8d1cfe	0.068902954
144	0x3d5aa613	0.053381037
145	0x3d5314cd	0.05153351
146	0xbd1ed80e	-0.038780265
147	0xbdde9f11	-0.10870183
148	0xbd29e664	-0.041479483
149	0x3dad059a	0.08448334
150	0x3caa2768	0.020770743
151	0x3da7920f	0.08182155
152	0x3d012d20	0.031537175
153	0xbdedffb3	-0.116210364
154	0xbd89359e	-0.0669968
155	0xbcd57d86	-0.02606083
156	0xbe172bce	-0.14762804
157	0x3dfd07a1	0.12354971
158	0xbd91c4f8	-0.07117647
159	0x3db0e320	0.08637071
160	0x3d547970	0.051873624
161	0xbe03b0fb	-0.12860481
162	0xb9ce3ef0	-0.00039338274
163	0x3e018339	0.12647714
164	0x3d036215	0.03207596
165	0xbde6dfc9	-0.112731524
166	0xbd9e1b52	-0.07720055
167	0xbcd91f54	-0.026504196
168	0xbc73d7fc	-0.014883038
169	0x3d446072	0.04794354
170	0xbde3b65f	-0.11118769
171	0xbdf4075c	-0.11915466
172	0x3d86517d	0.065585114
173	0xbcd2e57e	-0.025744196
174	0xbe07b2c4	-0.13251787
175	0xbddf5d21	-0.10906435
176	0x3e1fa705	0.15591057
177	0x3addd7d1	0.001692528
178	0x3b7a9f28	0.0038241837
179	0xbd0fb196	-0.03508147
180	0xbdb0a475	-0.08625118
181	0x3cf9b07f	0.030479668
182	0x3d8ce778	0.06880087
183	0x3d9bb971	0.076037295
184	0x3d1be728	0.038062245
185	0x3e217ca1	0.15770198
186	0xbe3ebe42	-0.18627265
187	0xbd2d5919	-0.0423213
188	0x3dc2b7c8	0.0950771
189	0xbe1caf9f	-0.15301369
190	0xbe02f217	-0.12787662
191	0x3e0af68a	0.1357061
192	0x3dd9dff8	0.10638422
193	0x3dc3c25e	0.09558557
194	0x3e3b3a69	0.18284
195	0xbe2cac0b	-0.16862504
196	0x3d41821f	0.047243234
197	0x3e2963c0	0.16541958
198	0xbd915771	-0.07096756
199	0x3c8c0692	0.017092977
200	0xbe0907b2	-0.13381842
201	0x3d16a8b7	0.036781993
202	0x3dfec21b	0.124393664
203	0x3d7e7fa9	0.062133465
204	0x3dab8f30	0.0837692
205	0xba4d77a4	-0.0007837957
206	0x3c8182c3	0.015809422
207	0xbdc6a396	-0.0969917
208	0xbda6c88c	-0.0814372
209	0x3d4a9f31	0.049468223
210	0xbdda912c	-0.106722206
211	0x3b9f9abc	0.0048707407
212	0xbdbdc08e	-0.092652425
213	0xbd5752b7	-0.052569117
214	0xbce11f8b	-0.027480861
215	0x3dddadf5	0.10824195
216	0xbdf91415	-0.121620335
217	0x3d284ec9	0.04109076
218	0x3df2785c	0.11839363
219	0x3c67d10f	0.014148965
220	0x3dda1c4d	0.10649929
221	0xbe2f7351	-0.17133833
222	0x3d7f6cd2	0.06235964
223	0x3e43453d	0.19069381
224	0x3e12a0db	0.14319174
225	0x3c83e9b5	0.016102651
226	0x3dca9480	0.098916054
227	0xbe297a1c	-0.16550487
228	0xbdec154e	-0.11527501
229	0xbe0f9876	-0.14023003
230	0x3dfab224	0.12241009
231	0xbe375d99	-0.17906798
232	0xbd8ad7d2	-0.06779446
233	0xbdaaa943	-0.08333065
234	0x3b7bd9ea	0.0038429447
235	0xbdbec515	-0.09314934
236	0x3e1dfd50	0.15428662
237	0x3de06bfb	0.10958096
238	0x3e0a17fe	0.13485715
239	0xbb80d6a4	-0.003931837
240	0xbd9539e6	-0.07286434
241	0xbd195d3f	-0.037442442
242	0x3e0d7242	0.13813117
243	0x3d8ded69	0.06930048
244	0xbdba56b5	-0.09098569
245	0x3e1977ad	0.14987059
246	0x3cacd9a5	0.021099875
247	0xbbf1ce66	-0.007379341
248	0x3df2a6f8	0.11848253
249	0xbdeedbd1	-0.116630204
250	0xbe2ba5a5	-0.16762407
251	0xbd178b37	-0.036998
252	0x3c58e418	0.013237976
253	0x3d8b9440	0.06815386
254	0x3e00442e	0.12526008
255	0xbdfc2f82	-0.12313749
