checkpoints/epoch=1-step=100-v69.ckpt (torch, 621663 bytes, 33 tensors)

model.param_proj.proj.0.weight f4 [1, 60]
0.033308133 -0.027507298 0.20361458 0.094525345 -0.17408556 -0.13111067 0.17474812 -0.16787505
0.0038691496 -0.10850122 0.20535077 0.08664091 -0.24108823 -0.060326926 -0.092446476 -0.07019796
0.09830362 -0.22547798 0.0128601445 -0.10910093 -0.099504516 -0.13520819 -0.113821544 0.026303733
-0.062020566 0.054692104 -0.03508841 0.1785298 -0.102854244 0.17200096 -0.2033936 -0.06943448
-0.11631408 -0.020637533 0.05884124 0.08818889 -0.19029485 -0.15491629 -0.18454416 -0.08685434
-0.12669706 -0.16969362 -0.14493097 0.039805382 -0.13482983 0.028912308 -0.15119289 0.16134469
-0.022044066 0.2219891 -0.11966215 -0.13028373 -0.08362088 0.19665739 0.104923636 0.118885905
0.111440755 -0.056909494 0.06733907 -0.032435372
00000000: 1c6e 083d fc56 e1bc 5780 503e 8196 c13d
00000010: 7c43 32be e041 06be 2cf1 323e 70e7 2bbe
00000020: 8f91 7d3b e335 debd 7947 523e ca70 b13d
00000030: d5df 76be 5e19 77bd 9454 bdbd f3c3 8fbd
00000040: 6953 c93d b3e3 66be 5bb3 523c 4f70 dfbd
00000050: 06c9 cbbd 0474 0abe 451b e9bd ed7a d73c
00000060: 4709 7ebd d404 603d ddb8 0fbd 84d0 363e
00000070: 3fa5 d2bd 0521 303e 6946 50be aa33 8ebd
00000080: 1436 eebd 0b10 a9bc 8303 713d 609c b43d
00000090: a7dc 42be 60a2 1ebe 25f9 3cbe b0e0 b1bd
000000a0: e0bc 01be 2ac4 2dbe c968 14be f80a 233d
000000b0: d510 0abe 81d9 ec3c 4fd2 1abe 8b37 253e
000000c0: c295 b4bc 1c51 633e 6e11 f5bd 1969 05be
000000d0: 6d41 abbd 8e60 493e 34e2 d63d 747a f33d
000000e0: 0d3b e43d ee19 69bd 11e9 893d f4da 04bd

model.param_proj.proj.1.weight f4 [1, 60]
0.17553464 0.20944807 -0.053477403 0.19473445 0.03578825 0.0012967383 -0.19469048 -0.16993305
-0.14133671 -0.10395793 -0.1501562 0.13046858 -0.12119326 0.108761765 -0.12140015 0.18173845
-0.07071576 0.18373878 0.18436058 -0.18677051 -0.118004575 -0.10941813 0.11835102 0.11305954
-0.12407639 -0.098953776 0.17315781 0.07074185 -0.0023358997 0.20077838 0.00543389 0.16852447
-0.12812954 -0.10270703 0.029592412 -0.0014977787 -0.094035596 0.1014311 -0.17086506 0.13587888
0.110868655 0.1218308 -0.10623589 0.1812644 -0.1916162 0.22649759 0.15595193 -0.05876058
-0.12070367 0.12901358 0.060744256 0.115401454 0.06520983 -0.114175744 0.11665569 0.15019368
-0.035496283 0.13205448 -0.1851538 0.027425088
00000000: 5abf 333e 8e79 563e 1f0b 5bbd 7868 473e
00000010: b396 123d 51f7 a93a f15c 47be ee02 2ebe
00000020: 92ba 10be e5e7 d4bd 8cc2 19be 8e99 053e
00000030: 2c34 f8bd 7dbe de3d a4a0 f8bd a519 3a3e
00000040: 6dd3 90bd 0526 3c3e 05c9 3c3e c540 3fbe
00000050: 62ac f1bd 9d16 e0bd 0562 f23d c38b e73d
00000060: c31b febd 47a8 cabd 4850 313e 1ae1 903d
00000070: e515 19bb d998 4d3e c60e b23b ae91 2c3e
00000080: 6434 03be 1058 d2bd c96b f23c 1d51 c4ba
00000090: bc95 c0bd 1cbb cf3d 40f7 2ebe d523 0b3e
000000a0: 1b0f e33d 6d82 f93d 3492 d9bd 609d 393e
000000b0: 0a37 44be fcee 673e ddb1 1f3e efae 70bd
000000c0: 7c33 f7bd 231c 043e f8ce 783d 9957 ec3d
000000d0: bb8c 853d f9d4 e9bd 2ee9 ee3d 5fcc 193e
000000e0: 8d64 11bd 4a39 073e f598 3dbe 94aa e03c

model.param_proj.proj.2.weight f4 [1, 60]
0.12267913 -0.017994825 -0.15857956 0.11573328 -0.09015188 0.16272445 0.04943729 0.0069098114
0.09189259 0.008349276 -0.05276587 0.13652977 -0.0014248267 -0.0648625 -0.07041606 0.11366142
-0.07907542 0.022195453 -0.0985601 -0.11982394 -0.07756715 -0.07238504 -0.1209673 0.08443805
0.04630124 0.046994545 0.024718208 0.0676754 0.04611572 0.07095289 -0.059936 0.15305206
-0.11152164 0.12240811 0.12804413 0.098823376 -0.1270503 0.051267117 -0.079656474 -0.077523366
0.14018972 0.0006844954 -0.040022157 0.08263892 -0.07919943 -0.04793377 -0.036137007 0.012189234
-0.018636849 0.041822378 0.025245361 -0.11988254 -0.050848514 -0.11157908 0.015136055 0.041882783
0.040474087 -0.04662135 -0.020779163 -0.07430707
00000000: 323f fb3d e269 93bc ae62 22be 9205 ed3d
00000010: 8da1 b8bd 3da1 263e c17e 4a3d b36b e23b
00000020: 2f32 bc3d 67cb 083c 0621 58bd 76ce 0b3e
00000030: 40c1 baba a1d6 84bd 4c36 90bd 52c7 e83d
00000040: 4bf2 a1bd 3dd3 b53c e1d9 c9bd 4166 f5bd
00000050: 87db 9ebd 9c3e 94bd b4bd f7bd dbed ac3d
00000060: 5ea6 3d3d 5a7d 403d d77d ca3c 6699 8a3d
00000070: d6e3 3c3d c04f 913d 737f 75bd aeb9 1c3e
00000080: 7565 e4bd 1ab1 fa3d 001e 033e e963 ca3d
00000090: 7919 02be 78fd 513d ef22 a3bd 92c4 9ebd
000000a0: e58d 0f3e b56f 333a 46ee 23bd 983e a93d
000000b0: 5033 a2bd 3356 44bd 6604 14bd 5ab5 473c
000000c0: 4eac 98bc f14d 2b3d 5ccf ce3c fa84 f5bd
000000d0: 8846 50bd 9383 e4bd 37fd 773c 488d 2b3d
000000e0: 28c8 253d 07f6 3ebd 1039 aabc 4e2e 98bd

model.rnn.weight_ih_l0 f4 [240, 24]
-0.08829361 0.017938431 0.032758143 -0.11116197 -0.08989975 0.12847544 0.13865021 0.059094246
-0.03149827 0.10995974 -0.10798548 0.021035112 0.068204716 0.15730383 0.016820164 -0.08849004
-0.06833219 -0.07380125 0.09845714 0.110936545 0.012660339 0.069619946 0.19499089 0.018347126
-0.07032689 -0.09850797 0.030376498 0.13952214 0.05311852 -0.11163784 -0.08685651 -0.018164897
0.12670738 -0.044317883 -0.20478357 0.13144879 -0.06465191 0.025903968 0.00598225 0.021576114
-0.06933178 -0.081265084 0.15807538 0.037131976 -0.022498457 -0.09057484 -0.10614432 0.076971665
0.03939086 -0.15277557 -0.04601637 0.03399802 -0.14034612 -0.031660754 -0.16384305 0.12112854
-0.1438151 0.15791331 -0.1001034 -0.06620063 -0.16361633 -0.12848638 -0.0382995 0.024705261
-0.005887307 0.05311805 -0.0005514046 0.08486642 -0.098334774 -0.17694625 0.05474167 0.052294265
-0.02854457 -0.064197704 0.05001878 0.08612237 -0.016516218 -0.123433925 0.06065332 -0.10635317
-0.06110832 -0.028167965 -0.117331296 0.07288707 0.041549012 -0.07309128 0.13531534 0.023691917
0.07139178 -0.031734895 0.056789067 0.079266205 0.017153556 -0.04029331 -0.12499943 0.012509413
-0.11258025 0.033026442 -0.029278062 0.01791401 -0.1405119 0.11258991 -0.15526964 0.09167194
-0.13121635 -0.0797876 0.05788842 -0.07433973 -0.026627896 0.14820564 0.01441968 0.11643812
0.08378288 0.06848559 0.12991315 0.046302054 0.08924153 -0.062312275 -0.047067754 0.059352584
-0.049961783 -0.08514895 -0.027330752 -0.033493478 -0.047223065 -0.07072937 -0.045872852 -0.117937945
-0.001372931 0.08244584 0.12517732 -0.10269052 0.090454265 -0.021178974 0.012714182 0.10537933
-0.08902159 0.037763547 -0.016261596 0.06900541 -0.029468061 0.19987802 0.1706137 0.003513195
0.024389092 -0.1288414 0.13329133 0.09619839 -0.12472983 -0.053466983 0.11858086 -0.082889594
-0.098934844 0.2032195 -0.042269513 0.050291836 -0.09162741 -0.066537105 -0.01518575 -0.04430629
-0.044022616 -0.037050545 -0.028207991 0.04687147 0.053258874 0.13876306 0.10800584 0.047865152
0.054103076 -0.020043682 -0.08644011 -0.045159094 0.08196092 0.08410601 -0.057398267 -0.014121539
0.055861868 -0.013251025 -0.03810551 0.028970435 -0.027295941 -0.090844594 0.056810107 0.080379985
-0.02571271 -0.033115458 0.01607669 0.09443279 -0.10640458 -0.022449374 -0.03263461 0.1893134
-0.20558485 -0.08711927 0.016689263 0.025456924 0.051756755 0.05575495 0.104848325 0.038982015
0.048558358 0.01700946 -0.04877626 -0.032159686 0.046332125 -0.07492736 -0.049140744 -0.036963955
-0.0532647 -0.005630443 -0.030792018 -0.1154832 -0.13406242 0.19617465 0.09240569 -0.10261465
-0.010548712 -0.04097327 -0.039850425 -0.11980873 -0.02430294 0.10562341 0.07860156 -0.08306491
0.17439932 0.1985093 -0.0697715 0.12001777 -0.036431994 0.10100447 -0.1820011 0.057760622
-0.083284415 0.10629584 0.01401918 -0.021615088 -0.025360208 0.013127136 -0.008279842 -0.056261383
0.16833359 -0.051867023 -0.066553555 0.13055247 0.0392278 0.012941923 0.08361952 0.047854844
0.017811183 0.1934799 -0.00073372095 -0.06630735 -0.0127204945 0.12752469 0.035717577 -0.109461784
00000000: 48d3 b4bd 9ef3 923c 672d 063d e3a8 e3bd
00000010: 5c1d b8bd 118f 033e 52fa 0d3e cf0c 723d
00000020: 5404 01bd 9232 e13d 7e27 ddbd d451 ac3c
00000030: eaae 8b3d 4114 213e 71ca 893c 443a b5bd
00000040: bff1 8bbd 1c25 97bd e6a3 c93d b332 e33d
00000050: 4f6d 4f3c e794 8e3d b1ab 473e b64c 963c
00000060: 8b07 90bd 8cbe c9bd 22d8 f83c e4de 0e3e
00000070: ce92 593d 61a2 e4bd d3e1 b1bd 8dce 94bc
00000080: 94bf 013e ab86 35bd c9b2 51be 839a 063e
00000090: 3868 84bd 8f34 d43c c006 c43b 64c0 b03c
000000a0: d2fd 8dbd 4f6e a6bd 83de 213e b317 183d
000000b0: af4e b8bc 4d7f b9bd 3162 d9bd 52a3 9d3d
000000c0: 4f58 213d 3371 1cbe a97b 3cbd 8241 0b3d
000000d0: e5b6 0fbe b5ae 01bd 79c6 27be 3d12 f83d
000000e0: 4444 13be 07b4 213e 0303 cdbd 3294 87bd
000000f0: 0a8b 27be ef91 03be f0df 1cbd b062 ca3c
00000100: 50ea c0bb 5092 593d 238c 10ba 72ce ad3d
00000110: be63 c9bd 6631 35be cd38 603d 8332 563d
00000120: 4dd6 e9bc 167a 83bd 7ee0 4c3d ed60 b03d
00000130: 054d 87bc edca fcbd 9e6f 783d b1cf d9bd
00000140: b84c 7abd 81c0 e6bc 644b f0bd d145 953d
00000150: 4c2f 2a3d e2b0 95bd 1b90 0a3e 8d15 c23c
00000160: db35 923d 73fc 01bd a79b 683d 5256 a23d
00000170: 9d85 8c3c 990a 25bd b3ff ffbd 48f4 4c3c
00000180: 7990 e6bd bc46 073d 8cd8 efbc 67c0 923c
00000190: 5ae2 0fbe 8a95 e63d 01ff 1ebe 80be bb3d
000001a0: 945d 06be ae67 a3bd 681c 6d3d 6e3f 98bd
000001b0: bf22 dabc 38c3 173e 8640 6c3c 1c77 ee3d
000001c0: 5c96 ab3d 2c42 8c3d f407 053e 39a7 3d3d
000001d0: 43c4 b63d 283b 7fbd 1eca 40bd b21b 733d
000001e0: baa4 4cbd 9362 aebd bee4 dfbc 7530 09bd
000001f0: f96c 41bd 8fda 90bd 2ce5 3bbd 7389 f1bd
00000200: ebf3 b3ba 5dd9 a83d 7c2e 003e 684f d2bd
00000210: 1640 b93d 877f adbc 254f 503c 1ed1 d73d
00000220: f450 b6bd f3ad 1a3d 0a37 85bc b552 8d3d
00000230: 0167 f1bc d3ac 4c3e 5cb5 2e3e a23d 663b
00000240: a2cb c73c 00ef 03be 867d 083e a903 c53d
00000250: 5a72 ffbd 3200 5bbd 86da f23d 05c2 a9bd
00000260: 5a9e cabd c618 503e cc22 2dbd d0fe 4d3d
00000270: 27a7 bbbd 9b44 88bd a7cd 78bc 837a 35bd
00000280: 0f51 34bd 50c2 17bd 7214 e7bc 4cfc 3f3d
00000290: fa25 5a3d e717 0e3e 2a32 dd3d 400e 443d
000002a0: 309b 5d3d a632 a4bc 8307 b1bd bef8 38bd
000002b0: 20db a73d c63f ac3d 721a 6bbd 075e 67bc
000002c0: 6acf 643d d41a 59bc 8614 1cbd 6853 ed3c
000002d0: bd9b dfbc bb0c babd b7b1 683d 439e a43d
000002e0: 76a3 d2bc 13a4 07bd 43b3 833c fb65 c13d
000002f0: a5ea d9bd c0e7 b7bc deab 05bd 5fdb 413e
00000300: d684 52be 966b b2bd ecb7 883c 0a8b d03c
00000310: e4fe 533d 4d5f 643d b8ba d63d 9bab 1f3d
00000320: 21e5 463d 6c57 8b3c 9ec9 47bd e0b9 03bd
00000330: c1c6 3d3d 8473 99bd ce47 49bd 8467 17bd
00000340: 162c 5abd 947f b8bb 8b3f fcbc 7582 ecbd
00000350: a947 09be 02e2 483e 323f bd3d a127 d2bd
00000360: 81d4 2cbc 96d3 27bd 333a 23bd 485e f5bd
00000370: f616 c7bc 1651 d83d dbf9 a03d ef1d aabd
00000380: bc95 323e 0646 4b3e 5ce4 8ebd e0cb f53d
00000390: b739 15bd 6edb ce3d 7f5e 3abe 6796 6c3d
000003a0: 0591 aabd a2b1 d93d b4b0 653c 2012 b1bc
000003b0: 36c0 cfbc 3313 573c 2da8 07bc 5672 66bd
000003c0: a45f 2c3e 8472 54bd 3b4d 88bd 8caf 053e
000003d0: 54ad 203d 5c0a 543c b640 ab3d 7103 443d
000003e0: c2e8 913c 981f 463e 2e57 40ba 26cc 87bd
000003f0: 9f69 50bc d595 023e 984c 123d 802d e0bd

model.rnn.weight_hh_l0 f4 [240, 60]
-0.07583421 0.030361282 0.067167394 0.07062216 -0.045224514 0.05526437 0.08862532 0.049265105
0.004377311 0.025532363 0.07087774 0.033792187 0.014781133 -0.10747721 -0.027366232 -0.11388879
0.13212267 -0.1139171 -0.070881836 -0.12273563 0.09021594 -0.023307912 0.098035514 -0.023989948
-0.05836827 0.0011399064 -0.068784684 0.09060549 0.1658911 -0.098526776 0.020980401 0.07990766
-0.09670008 0.097558275 0.043560263 0.0609637 -0.03524382 -0.06514162 -0.15716168 0.038214516
-0.007422728 -0.07787282 0.07906727 -0.038275324 0.043297 0.010103808 -0.11082775 0.055932134
0.083238535 0.067953974 -0.07108474 -0.0006744298 0.0072193895 -0.042085297 0.12513037 0.08799979
0.10635689 -0.07937591 -0.10293387 -0.01343832 -0.05188788 0.04866153 -0.0080398 0.06554358
0.13281992 0.16665977 -0.009321565 -0.1306074 -0.05377461 0.097526126 -0.15625884 0.052975368
-0.029287813 0.06447496 0.0666699 -0.13624904 -0.045820564 0.011427842 -0.08114572 -0.028397098
0.055666734 0.12015298 0.025375854 0.08475651 -0.11793148 -0.07091517 -0.01762352 0.011811822
0.12381834 0.086648114 0.13021094 -0.10720294 0.05162282 0.01999819 0.12471196 0.044975284
-0.017138297 -0.09208827 -0.03812965 0.015591807 -0.14542398 -0.016764224 0.03451344 0.008022356
0.094150156 0.0130714355 0.017611064 0.12276422 0.08439482 0.13122565 -0.0067588836 -0.056448534
0.06491252 0.16626696 -0.063268356 -0.070033476 0.083098546 0.04659892 -0.10672838 -0.13083887
0.023313228 0.116748735 -0.017599855 -0.15068826 0.10319666 0.14681634 -2.4743713e-05 -0.0040379297
-0.09713879 -0.067683496 -0.10955386 -0.027270775 -0.14241347 -0.21019079 -0.072472595 0.07456578
0.06321181 -0.06840564 0.07703906 0.111268245 0.058900278 -0.013267949 0.03705081 -0.13840754
-0.012426414 -0.1825694 0.009779199 -0.13630591 0.093523316 -0.0018693337 -0.034624193 0.035006043
-0.011425081 -0.10457849 0.08207464 -0.062486883 -0.11683467 -0.053842254 -0.01123604 0.046020754
-0.14634843 -0.036552075 -0.0013870307 -0.052224547 -0.008693139 -0.08735087 -0.08078484 0.05325389
-0.12829092 0.22087945 -0.062053453 0.0552442 -0.120775715 -0.14501584 -0.06810107 0.098076046
0.086439215 0.11354224 0.054718893 0.0088520525 0.103495434 0.040716317 0.015904063 0.027743418
-0.0031905905 0.14077099 -0.09331922 0.06778698 -0.03005042 0.1298958 0.035260513 0.14825484
0.09735292 0.055796187 0.10144798 0.08498788 -0.06416372 0.05252578 0.07351353 -0.11658006
0.0041432516 -0.11262497 0.06975786 0.057839654 -0.13274045 -0.12922707 0.021252412 -0.0037522754
-0.020767262 -0.091611154 0.0073128594 -0.014709165 -0.10620259 -0.1408019 0.1697737 0.023348674
0.20481081 -0.01905304 -0.081494264 0.007894779 0.060433127 -0.024396779 -0.035888754 0.15051174
-0.053622663 0.01580563 -0.08979725 0.12777187 -0.13966498 0.07119314 0.07690359 -0.074915126
-0.016841928 -0.005242754 0.012324333 0.074658245 0.02608469 -0.090523966 -0.048135735 0.017344827
0.10384282 0.08693936 0.0044060564 -0.052554067 0.11252484 0.13754602 -0.01072816 0.13979843
0.090125814 -0.037923265 -0.0026273977 0.0025486606 -0.057505924 -0.03910065 -0.12604162 0.041401174
00000000: f74e 9bbd 39b8 f83c 0f8f 893d 5aa2 903d
00000010: 573d 39bd e45c 623d 3181 b53d 35ca 493d
00000020: 8c6f 8f3b 3f29 d13c 5928 913d ad69 0a3d
00000030: 912c 723c 031d dcbd 262f e0bc 873e e9bd
00000040: 2a4b 073e 5e4d e9bd 7f2a 91bd d15c fbbd
00000050: 22c3 b83d 3cf0 bebc d8c6 c83d 9186 c4bc
00000060: 9113 6fbd e968 953a fcde 8cbd 5f8f b93d
00000070: 5bdf 293e 68c8 c9bd 17df ab3c a1a6 a33d
00000080: b10a c6bd a2cc c73d 3f6c 323d 13b5 793d
00000090: d35b 10bd f868 85bd feee 20be d386 1c3d
000000a0: 5b3a f3bb c97b 9fbd 05ee a13d 96c6 1cbd
000000b0: 3258 313d 718a 253c a9f9 e2bd 1819 653d
000000c0: f778 aa3d 742b 8b3d e094 91bd 38cc 30ba
000000d0: a190 ec3b a261 2cbd 2d22 003e 3c39 b43d
000000e0: a4d1 d93d d68f a2bd fece d2bd 662c 5cbc
000000f0: 6388 54bd 5051 473d 5eb9 03bc b63b 863d
00000100: f201 083e dca8 2a3e 7ab9 18bc f2bd 05be
00000110: c442 5cbd c7bb c73d 5102 20be b3fc 583d
00000120: ffec efbc 730b 843d 3b8a 883d de84 0bbe
00000130: 58ae 3bbd d83b 3b3c ba2f a6bd 08a1 e8bc
00000140: cd02 643d c412 f63d 06e1 cf3c d294 ad3d
00000150: 0f86 f1bd f93b 91bd 335f 90bc 5f86 413c
00000160: 7894 fd3d 9174 b13d 0456 053e 378d dbbd
00000170: 7372 533d 3fd3 a33c fc68 ff3d 0138 383d
00000180: 9d65 8cbc c698 bcbd d62d 1cbd c774 7f3c
00000190: 06ea 14be 2055 89bc f75d 0d3d 3370 033c
000001a0: ccd1 c03d 9329 563c 1445 903c cf6b fb3d
000001b0: 31d7 ac3d 0460 063e a079 ddbb 9436 67bd
000001c0: dbf0 843d e341 2a3e d792 81bd b66d 8fbd
000001d0: 922f aa3d 82de 3e3d 6994 dabd a0fa 05be
000001e0: 62fb be3c f619 ef3d 922d 90bc 064e 1abe
000001f0: c558 d33d 0657 163e b890 cfb7 9c50 84bb
00000200: b4f0 c6bd a59d 8abd c65d e0bd f666 dfbc
00000210: d6d4 11be 413c 57be 836c 94bd f2b5 983d
00000220: 3275 813d 4218 8cbd a8c6 9d3d 9be0 e33d
00000230: 6b41 713d d061 59bc 97c2 173d b5ba 0dbe
00000240: 2898 4bbc 79f3 3abe ef38 203c c793 0bbe
00000250: 2789 bf3d 6e04 f5ba 19d2 0dbd 7f62 0f3d
00000260: 4330 3bbc 3f2d d6bd c016 a83d 3ff2 7fbd
00000270: 0447 efbd b289 5cbd 5e17 38bc 4280 3c3d
00000280: 5ddc 15be a1b7 15bd 07cd b5ba 68e9 55bd
00000290: ab6d 0ebc 03e5 b2bd 8672 a5bd c020 5a3d
000002a0: b25e 03be 392e 623e c32b 7ebd be47 623d
000002b0: 4259 f7bd 087f 14be 9378 8bbd 18dc c83d
000002c0: 0b07 b13d d588 e83d eb20 603d 3308 113c
000002d0: 6af5 d33d 27c6 263d 3d49 823c 2a46 e33c
000002e0: 3a19 51bb 4526 103e 261e bfbd e6d3 8a3d
000002f0: 4c2c f6bc 6803 053e 546d 103d 1ed0 173e
00000300: f860 c73d 8b8a 643d f5c3 cf3d 200e ae3d
00000310: 4568 83bd 4625 573d 438e 963d 87c1 eebd
00000320: 1dc4 873b eca7 e6bd 35dd 8e3d 46e9 6c3d
00000330: 1ded 07be 1a54 04be 8a19 ae3c bce8 75bb
00000340: 1b20 aabc a19e bbbd b6a0 ef3b b6fe 70bc
00000350: be80 d9bd 602e 10be 28d9 2d3e b845 bf3c
00000360: edb9 513e 1f15 9cbc 77e6 a6bd 1a59 013c
00000370: ba88 773d c1db c7bc 1600 13bd c01f 1a3e
00000380: 70a3 5bbd cf7a 813c 9fe7 b7bd a1d6 023e
00000390: 5604 0fbe b5cd 913d a17f 9d3d 1a6d 99bd
000003a0: 15f8 89bc 68cb abbb 00ec 493c 6ce6 983d
000003b0: 8faf d53c a164 b9bd fa29 45bd bd16 8e3c
000003c0: 8bab d43d 430d b23d ae60 903b ef42 57bd
000003d0: 6c73 e63d ddd8 0c3e 2ac5 2fbc 5227 0f3e
000003e0: e293 b83d 6d55 1bbd 6b30 2cbb 6e07 273b
000003f0: 558b 6bbd 0128 20bd 0e11 01be 4794 293d

model.rnn.bias_ih_l0 f4 [240]
-0.09241026 -0.04940512 0.007485302 0.10203615 0.095715895 0.1428505 -0.053692188 0.20174694
0.08789187 0.07911748 -0.048387744 -0.024236044 -0.03316404 0.077107444 0.03534949 0.08958447
0.13320617 0.16122341 0.14725973 0.17704712 0.16659082 0.20884633 0.082604 0.05740425
0.042678036 0.13492423 0.09737303 -0.08234887 0.046669286 -0.05473023 0.19591083 -0.08997989
-0.06741037 0.11103721 0.18898943 -0.091361485 0.017705508 0.14627059 0.059840396 0.121390276
-9.1881986e-05 0.074148335 0.15985683 -0.034104794 -0.04209896 0.07834873 0.13791864 -0.026620653
-0.0045159142 0.0728274 -0.07202936 0.08146545 0.034565702 0.038961474 0.22227469 0.022222554
0.015700111 0.110676825 0.11919853 -0.036608968 0.08958574 0.1074799 0.028621545 0.08639006
-0.06309578 0.022153877 0.0011089257 0.041427158 0.06196591 0.036649182 0.096410476 0.11831278
0.026496679 0.06834726 -0.104977176 0.0981176 -0.019710742 -0.012061305 0.124114074 0.0038812729
0.043975677 0.08403934 -0.060904782 0.15211059 -0.107352264 -4.1582884e-05 0.011323197 -0.10229332
0.14982319 0.12943555 0.056133885 0.030434107 -0.08323844 0.048522342 -0.06989319 0.118079655
0.071615204 0.0080323275 -0.10095991 0.10361892 -0.05148811 0.016682193 0.034387324 0.12253709
-0.0069436473 0.03664701 -0.019955149 0.005066465 -0.10351738 0.060375493 -0.11418605 0.018914029
-0.10767095 0.08613404 -0.09946928 0.12135789 0.10750884 -0.13304216 0.057943262 0.07762569
0.058302663 0.09684485 -0.017832909 -0.07211908 -0.077130206 0.044532068 0.074166656 0.041060537
-0.09276788 0.021484002 -0.15015604 -0.04374731 0.041058034 0.085627206 -0.050852492 0.019434515
-0.1167311 0.112996995 -0.09424586 0.049532052 0.10146942 0.1030283 -0.047987513 -0.11376946
0.047424067 -0.11895565 0.10067577 -0.119100325 -0.091596216 -0.11696655 0.10844904 -0.006184577
-0.08891465 -0.083043925 -0.014189575 -0.029735573 -0.107246324 -0.04863531 0.08180024 -0.093241245
0.02515839 -0.057835057 -0.079802774 0.063254684 0.06857267 0.022569075 0.0013109035 -0.072942175
0.010276163 0.087835714 -0.07313985 0.05150719 -0.0432114 -0.06676149 0.02407468 -0.013444579
-0.03606328 -0.004581195 -0.011056032 0.012760423 0.12307475 0.08704778 0.051477496 0.09885428
0.051754065 0.055572115 0.110883154 0.10903304 0.020324335 0.09644816 -0.070334524 -0.07436024
-0.003378651 -0.06670097 0.0648807 -0.11072963 -0.025520869 0.1823516 0.10872375 0.15437517
0.09355151 0.054470707 0.060684767 0.006565997 0.1062402 -0.01603334 0.15717036 -0.000853876
0.138501 -0.0162191 0.036898315 -0.05024737 0.061096523 0.052455496 -0.042477652 -0.070660114
-0.018020125 -0.036423866 0.052089963 0.10865303 0.0844651 0.16242568 -0.05742851 -0.0017384607
0.17182362 -0.015722139 0.11336935 0.11553783 0.032667983 0.15261988 0.113569774 -0.10271947
-0.10182887 0.15193966 0.13099658 0.05006996 0.013139078 0.032796092 0.1341097 0.016606893
00000000: 9741 bdbd 065d 4abd 4447 f53b 54f8 d03d
00000010: b206 c43d 6747 123e 57ec 5bbd c096 4e3e
00000020: a700 b43d 5808 a23d 3a32 46bd ab8a c6bc
00000030: 04d7 07bd 82ea 9d3d a0ca 103d 1078 b73d
00000040: 3367 083e c017 253e 41cb 163e d74b 353e
00000050: c996 2a3e d0db 553e 492c a93d b820 6b3d
00000060: 2acf 2e3d 9429 0a3e 836b c73d 86a6 a8bd
00000070: 4b28 3f3d ce2c 60bd d99c 483e 6047 b8bd
00000080: 730e 8abd 7a67 e33d 7286 413e bb1b bbbd
00000090: 240b 913c f5c7 153e 341b 753d 779b f83d
000000a0: c4b0 c0b8 15db 973d 82b1 233e 78b1 0bbd
000000b0: f66f 2cbd 4d75 a03d 8b3a 0d3e 8e13 dabc
000000c0: 3cfa 93bb 8826 953d 2184 93bd 5cd7 a63d
000000d0: c494 0d3d 1196 1f3d fa9b 633e 130c b63c
000000e0: 859d 803c 88aa e23d 5c1e f43d 49f3 15bd
000000f0: ba78 b73d 6c1e dc3d bb77 ea3c 46ed b03d
00000100: 5c38 81bd 0c7c b53c 5f59 913a 86af 293d
00000110: f7cf 7d3d 741d 163d db72 c53d f94d f23d
00000120: 900f d93c a6f9 8b3d 46fe d6bd e1f1 c83d
00000130: 6c78 a1bc c89c 45bc 852f fe3d f45c 7e3b
00000140: d71f 343d d11c ac3d 4b77 79bd e1c2 1b3e
00000150: 81db dbbd 4869 2eb8 ee84 393c 297f d1bd
00000160: 406b 193e c18a 043e a5ec 653d f350 f93c
00000170: ea78 aabd 5dbf 463d 2924 8fbd bfd3 f13d
00000180: feaa 923d 069a 033c 12c4 cebd 2836 d43d
00000190: 32e5 52bd 18a9 883c b9d9 0c3d baf4 fa3d
000001a0: 8987 e3bb 2d1b 163d fb78 a3bc 9704 a63b
000001b0: ec00 d4bd 4b4c 773d 60da e9bd 98f1 9a3c
000001c0: 9682 dcbd 0b67 b03d 8db6 cbbd 7c8a f83d
000001d0: 982d dc3d 343c 08be ea55 6d3d 38fa 9e3d
000001e0: c6ce 6e3d 9856 c63d 5216 92bc 2bb3 93bd
000001f0: 71f6 9dbd 4267 363d b0e4 973d 182f 283d
00000200: 16fd bdbd 38ff af3c 81c2 19be 6130 33bd
00000210: 782c 283d 515d af3d b44a 50bd 2235 9f3c
00000220: b710 efbd f86a e73d f903 c1bd 1fe2 4a3d
00000230: 33cf cf3d 8000 d33d 8e8e 44bd f6ff e8bd
00000240: bd3f 423d 059f f3bd 192f ce3d dfea f3bd
00000250: cc96 bbbd 298c efbd 881a de3d fea7 cabb
00000260: e218 b6bd ef12 aabd 647b 68bc 0498 f3bc
00000270: f6a3 dbbd d235 47bd e286 a73d 44f5 bebd
00000280: f818 ce3c 74e4 6cbd a36f a3bd ac8b 813d
00000290: d46f 8c3d c8e2 b83c 9fd2 ab3a b562 95bd
000002a0: 5a5d 283c 36e3 b33d 58ca 95bd 34f9 523d
000002b0: 70fe 30bd 40ba 88bd 4338 c53c a746 5cbc
000002c0: 17b7 13bd d91d 96bb 5c24 35bc 1811 513c
000002d0: 9d0e fc3d 1b46 b23d 11da 523d 1d74 ca3d
000002e0: 12fc 533d 969f 633d b516 e33d b74c df3d
000002f0: 387f a63c 9d86 c53d 8c0b 90bd 2e4a 98bd
00000300: 5c6c 5dbb 859a 88bd 2ce0 843d 37c6 e2bd
00000310: 2411 d1bc 61ba 3a3e 8faa de3d 8614 1e3e
00000320: ef97 bf3d ad1c 5f3d 9790 783d 9327 d73b
00000330: 7694 d93d 5a58 83bc 44f1 203e a6d6 5fba
00000340: 35d3 0d3e ebdd 84bc b022 173d 30d0 4dbd
00000350: 5940 7a3d 93db 563d 0cfd 2dbd 40b6 90bd
00000360: f19e 93bc 3131 15bd 495c 553d 7b85 de3d
00000370: 0afc ac3d eb52 263e 283a 6bbd 10dd e3ba
00000380: 88f2 2f3e b7cb 80bc 312e e83d 199f ec3d
00000390: ddce 053d 6348 1c3e 4597 e83d 965e d2bd
000003a0: a88b d0bd 1296 1b3e f823 063e 2916 4d3d
000003b0: 4a45 573c 3255 063d 0e54 093e 2e0b 883c

model.rnn.bias_hh_l0 f4 [240]
0.12669186 0.09207574 0.12274222 -0.09289482 0.09344136 0.11339458 -0.076007016 0.20543955
0.12452563 0.05252229 -0.015259767 0.025247063 0.13017634 0.06990879 0.026367104 0.043416973
-0.07409539 0.09549981 0.018720126 0.1223684 -0.021579113 0.14245164 0.07943334 -0.07770483
-0.05095843 0.040400296 0.02470543 -0.0889924 0.025190314 0.077457584 0.1803624 0.06721995
0.15099014 -0.088059776 0.13762768 -0.059825074 0.025086313 0.13889818 0.004464366 -0.07723409
0.05189405 0.02194892 0.15620492 0.16026497 0.06774855 0.14760266 0.056769 0.13798557
0.0019172728 0.15989251 -0.12199654 0.11015892 0.12294647 0.13482536 0.091237135 -0.05905079
-0.02161293 0.040960386 -0.080414094 0.011113229 0.05365073 0.07313865 -0.09838355 0.07024247
-0.06913207 0.08079931 0.1128787 0.13554789 0.058337867 0.05009408 -0.09233674 0.04426233
-0.07233336 -0.015700804 -0.08729971 -0.01675465 -0.037586965 -0.04061328 0.13728519 0.028725956
0.07935426 0.07507388 0.11491749 0.12487163 -0.14976183 -0.05875693 -0.042981207 -0.02653698
-0.0051140958 0.041647654 -0.07602853 0.024912871 0.01401365 0.04232357 -0.12265029 0.095727004
-0.046554413 -0.00065908895 0.12669195 -0.09189626 -0.022342384 -0.0076314365 0.010744044 -0.040810473
-0.047848094 -0.066986576 0.07108412 0.05446384 0.090256795 -0.054733906 0.042553272 -0.07042455
-0.06280314 0.10434052 0.041836426 0.08074473 -0.018335884 0.032516584 0.01122684 -0.09012444
-0.1242263 -0.08738822 -0.012236619 0.016353745 0.03511066 -0.019092048 -0.08053654 -0.1258774
-0.04475145 -0.045975205 -0.0928131 0.040558673 0.08583135 -0.04948384 0.013861635 -0.09458801
0.114972755 0.0016529136 -0.08847269 -0.049121805 -0.044097494 -0.116937965 0.009496927 0.071516946
0.00801267 -0.11080463 0.11736228 -0.13913643 0.034497697 -0.106352754 0.028191416 -0.11252805
-0.06670682 0.031732887 -0.10112363 0.0618608 0.028336814 -0.10123609 0.020208368 0.059467897
0.07093169 -0.068477 -0.009878225 0.090791374 -0.11845964 0.077397674 0.03303814 -0.055539273
0.11802178 -0.033039693 0.054870006 0.04196505 -0.046373103 0.074810594 0.03183173 -0.01075864
-0.057776544 -0.034390695 -0.09338329 -0.12678137 0.13078213 0.06789802 0.17791326 -0.040517632
0.10027822 -0.03097165 0.15356065 0.07543892 0.11135962 0.08585351 -0.09774358 -0.07139957
-0.030791739 0.007054477 -0.052653182 -0.020731984 0.13374065 0.08718679 0.039129775 -0.04643609
-0.018693093 0.115008615 0.061954662 -0.08834919 0.11284468 -0.0206892 0.13889383 0.008291824
-0.04443801 -0.05668296 0.00016546372 -0.048210982 0.109877445 -0.055543423 -0.038371243 0.079956554
0.010844039 -0.031991683 -0.084429964 0.07769684 -0.062452096 0.1930767 0.08957501 -0.018005976
-0.031980775 0.10538086 0.07273576 -0.06698164 0.14819919 0.0027669834 0.006134922 -0.12144263
0.023517905 0.13371144 0.105182834 0.059283823 0.05743613 -0.0043485686 -0.024319703 -0.02719718
00000000: 83bb 013e 3592 bc3d 4660 fb3d a43f bebd
00000010: 2f5e bf3d 6b3b e83d 91a9 9bbd bf5e 523e
00000020: 4b07 ff3d 9d21 573d 1a04 7abc eed2 ce3c
00000030: f24c 053e 572c 8f3d d3ff d73c ffd5 313d
00000040: 53bf 97bd 6895 c33d f35a 993c 499c fa3d
00000050: aec6 b0bc d8de 113e f2ad a23d b623 9fbd
00000060: c9b9 50bd c87a 253d 0b63 ca3c a641 b6bd
00000070: eb5b ce3c 15a2 9e3d ecb0 383e 9daa 893d
00000080: 299d 1a3e af58 b4bd 45ee 0c3e 230b 75bd
00000090: d081 cd3c 533b 0e3e d149 923b e82c 9ebd
000000a0: db8e 543d 39ce b33c 2ff4 1f3e 801c 243e
000000b0: c0bf 8a3d 2725 173e 9c86 683d 174c 0d3e
000000c0: 004d fb3a ddba 233e 52d9 f9bd 009b e13d
000000d0: 5ccb fb3d a90f 0a3e 89da ba3d 3edf 71bd
000000e0: 990d b1bc 14c6 273d 25b0 a4bd 4314 363c
000000f0: dec0 5b3d b7c9 953d 517d c9bd 49db 8f3d
00000100: 1d95 8dbd 1c7a a53d f32c e73d 11cd 0a3e
00000110: b0f3 6e3d 732f 4d3d 0b1b bdbd 6b4c 353d
00000120: 8323 94bd f99e 80bc 31ca b2bd 0c41 89bc
00000130: caf4 19bd 1c5a 26bd 7d94 0c3e b252 eb3c
00000140: 7c84 a23d 56c0 993d dc59 eb3d b2bc ff3d
00000150: 2a5b 19be 1bab 70bd 100d 30bd 1564 d9bc
00000160: 2594 a7bb bb96 2a3d d9b4 9bbd 1416 cc3c
00000170: 8299 653c 7b5b 2d3d 1330 fbbd 850c c43d
00000180: d7af 3ebd b6c6 2cba 89bb 013e 1b34 bcbd
00000190: 6007 b7bc 2111 fabb c907 303c e228 27bd
000001a0: 5dfc 43bd 4230 89bd 8d94 913d 7a15 5f3d
000001b0: 8ed8 b83d a930 60bd 574c 2e3d bf3a 90bd
000001c0: ef9e 80bd 7cb0 d53d ac5c 2b3d 7e5d a53d
000001d0: 2335 96bc 1c30 053d c8f0 373c 2a93 b8bd
000001e0: 5c6a febd 98f8 b2bd 1a7c 48bc 4af8 853c
000001f0: 32d0 0f3d ed66 9cbc 57f0 a4bd 01e6 00be
00000200: 4c4d 37bd 7f50 3cbd cb14 bebd da20 263d
00000210: 59c8 af3d 91af 4abd e91b 633c 5cb7 c1bd
00000220: d676 eb3d 94a6 d83a 2b31 b5bd f233 49bd
00000230: 939f 34bd 2c7d efbd 0099 1b3c 7a77 923d
00000240: 9347 033c 8aed e2bd a35b f03d c879 0ebe
00000250: 754d 0d3d 79cf d9bd aff1 e63c 1b75 e6bd
00000260: 969d 88bd 58fa 013d e819 cfbd c061 7d3d
00000270: 9b22 e83c de54 cfbd 058c a53c 9c94 733d
00000280: a244 913d ab3d 8cbd 47d8 21bc d4f0 b93d
00000290: f89a f2bd ac82 9e3d 0053 073d 267d 63bd
000002a0: 67b5 f13d a154 07bd 5fbf 603d 8be3 2b3d
000002b0: b9f1 3dbd 4c36 993d fd61 023d 0245 30bc
000002c0: 19a7 6cbd 42dd 0cbd bd3f bfbd fad2 01be
000002d0: c0eb 053e 1e0e 8b3d e52e 363e d1f5 25bd
000002e0: ab5e cd3d 42b8 fdbc 013f 1d3e b87f 9a3d
000002f0: 8310 e43d f7d3 af3d c92d c8bd f039 92bd
00000300: f53e fcbc 3e29 e73b ddaa 57bd 1fd6 a9bc
00000310: 4ff3 083e fd8e b23d 8b46 203d c533 3ebd
00000320: 4222 99bc a389 eb3d 2cc4 7d3d 6cf0 b4bd
00000330: 1d1b e73d 667c a9bc 2f3a 0e3e 6eda 073c
00000340: a104 36bd 642c 68bd 5480 2d39 e178 45bd
00000350: 6d07 e13d 8081 63bd 2a2b 1dbd 43c0 a33d
00000360: 32ab 313c b609 03bd 9ee9 acbd 851f 9f3d
00000370: c5cd 7fbd e6b5 453e 1a73 b73d 4581 93bc
00000380: 46fe 02bd ecd1 d73d 7cf6 943d ac2d 89bd
00000390: 87c1 173e 4756 353b 7507 c93b eab6 f8bd
000003a0: 9fa8 c03c a7eb 083e 196a d73d 98d3 723d
000003b0: 2642 6b3d 707e 8ebb 1d3a c7bc 9fcc debc

model.rnn.weight_ih_l1 f4 [240, 60]
0.033841677 0.0510542 0.008083153 0.008671427 0.106829636 0.025160832 0.05180692 -0.09958901
-0.12248447 -0.048090734 -0.16241588 0.06081525 0.16136122 -0.09680673 -0.11758371 0.010609386
0.17726976 0.18638226 -0.0019236698 0.044320818 -0.09367537 0.19031617 -0.10175347 -0.003105673
0.10583697 -0.10318998 0.015621891 0.024165653 0.027186219 0.20157823 -0.058199383 -0.050330304
0.03599849 -0.05667851 0.10452422 -0.06427702 -0.12270994 0.0062608724 -0.05314138 -0.034961544
0.007579219 -0.0029114007 0.04623799 -0.13050818 -0.004407106 -0.13871466 0.10822728 0.0045888834
0.062623695 0.18652803 -0.11523692 0.019406285 0.059161365 0.14391926 -0.01782153 0.10907494
0.1507015 0.09243388 -0.16237661 -0.13235208 0.11620395 0.05436978 0.107525 -0.19978133
0.12558419 0.18199728 -0.07682472 0.07316096 -0.12587266 0.01959954 0.002409744 -0.003457556
-0.07813221 -0.042715494 -0.06618118 -0.15167193 -0.02991343 0.048832983 0.11489746 0.08025361
-0.045098044 -0.068124264 0.07310982 0.026064921 -0.16903475 -0.032233045 -0.015763074 0.027379261
0.06961514 0.15654929 0.06719399 -0.16176832 -0.06970458 -0.18116538 0.0041772947 -0.1067041
-0.03221224 -0.01605786 0.05490702 -0.08219359 -0.1321811 -0.0938982 0.05859185 0.02849298
0.04293019 -0.015003116 -0.17154886 -0.005938559 -0.16230108 0.03751019 -0.023822227 0.10868035
-0.12571698 -0.0004152104 0.0008669615 0.17325622 0.095102444 0.06251923 -0.16600409 -0.08566639
-0.021554176 -0.121225655 0.012412615 0.0019243732 0.12550807 0.060200185 -0.08628253 0.061102375
-0.11181051 0.0054390486 -0.013923382 0.05224238 -0.088833734 -0.12541969 -0.07726509 0.027344208
0.053193875 -0.08308247 0.12865354 -0.06858041 0.06890287 -0.12237137 -0.101077974 0.071832314
0.04048055 0.02759308 0.046756685 0.020813068 0.0341211 -0.05765456 -0.16886657 0.04990931
0.0116056185 -0.053661533 0.13311362 -0.087657236 0.13833329 0.0707065 -0.03883017 -0.120368615
0.06555242 -0.1381211 0.099590614 -0.11954548 0.02647682 -0.07962006 -0.005122494 0.17406042
0.037325133 0.08853315 -0.0045834063 0.061581347 -0.08002491 -0.029287525 0.10386599 0.1286872
0.15705208 -0.10739915 -0.1644141 -0.018931724 0.073376946 0.10051287 -0.014520493 0.10003954
0.10400378 0.036285892 -0.041848544 0.0015028131 -0.07433638 0.055862837 0.017124172 0.05767429
-0.050524577 -0.06575155 0.0131226415 -0.023792287 0.058402482 -0.037952844 0.104881495 -0.06158483
-0.036324475 0.17407015 0.117881544 0.0638377 0.09320129 -0.18486065 0.18506835 0.03416308
0.10291101 -0.03780981 0.09772527 0.0056009693 0.1624656 -0.073658615 -0.02151527 -0.11741972
0.015349828 -0.12651968 -0.08512247 -0.1706963 0.015165694 -0.0036920568 0.011604909 0.03446385
-0.08306793 -0.16081102 0.11856216 0.007404815 -0.11206924 0.08088011 -0.14060153 0.030187717
0.005793303 0.07707741 -0.09427694 0.04508394 -0.022359058 0.10885257 -0.13603821 -0.093762144
0.02811747 0.10334211 0.0862944 -0.10599166 0.1390207 0.104120515 0.016394906 0.011522912
-0.14722286 -0.03109714 -0.061122585 0.088087924 -0.044123605 -0.15506607 0.09652095 0.08963493
00000000: 929d 0a3d 351e 513d 336f 043c 9a12 0e3c
00000010: 7fc9 da3d 171e ce3c 7e33 543d 53f5 cbbd
00000020: 23d9 fabd cafa 44bd 5950 26be 6919 793d
00000030: e03b 253e 9b42 c6bd bacf f0bd fdd2 2d3c
00000040: 3486 353e feda 3e3e a623 fcba bf89 353d
00000050: dfd8 bfbd 3ee2 423e 2064 d0bd 8c88 4bbb
00000060: 0ec1 d83d 4555 d3bd f6f2 7f3c 0cf7 c53c
00000070: a2b5 de3c 866a 4e3e 7a62 6ebd 2627 4ebd
00000080: 2773 133d ba27 68bd cb10 d63d aca3 83bd
00000090: 594f fbbd 0128 cd3b c7aa 59bd d633 0fbd
000000a0: 195b f83b 33cd 3ebb 0c64 3d3d f0a3 05be
000000b0: 7c69 90bb 370b 0ebe 44a6 dd3d 585e 963b
000000c0: da40 803d 3401 3f3e 5601 ecbd eef9 9e3c
000000d0: 3053 723d 925f 133e 75fe 91bc af62 df3d
000000e0: 7e51 1a3e f94d bd3d 0e46 26be 4e87 07be
000000f0: 56fc ed3d d9b2 5e3d 1136 dc3d 7a93 4cbe
00000100: 2499 003e 7f5d 3a3e 4756 9dbd 6ad5 953d
00000110: c3e4 00be 378f a03c ccec 1d3b 2a98 62bb
00000120: c803 a0bd 71f6 2ebd 008a 87bd e34f 1bbe
00000130: 020d f5bc 1805 483d 5c4f eb3d 015c a43d
00000140: bab8 38bd bc84 8bbd 9aba 953d 1a86 d53c
00000150: 7217 2dbe cc06 04bd 9021 81bc 794a e03c
00000160: 6292 8e3d 754e 203e 019d 893d 98a6 25be
00000170: 46c1 8ebd 6b83 39be b0e1 883b ae87 dabd
00000180: fbf0 03bd c68b 83bc 2fe6 603d 1d55 a8bd
00000190: 7b5a 07be b34d c0bd 02fe 6f3d 1c6a e93c
000001a0: 91d7 2f3d a1cf 75bc 81aa 2fbe 3e98 c2bb
000001b0: 4132 26be 49a4 193d d526 c3bc ce93 de3d
000001c0: f4bb 00be 99b0 d9b9 cd44 633a 146a 313e
000001d0: 12c5 c23d 150a 803d fafc 29be dc71 afbd
000001e0: 6292 b0bc 2845 f8bd 485e 4b3c 403b fc3a
000001f0: 3085 003e 7894 763d e5b4 b0bd 7c46 7a3d
00000200: e9fc e4bd 0c3a b23b e61e 64bc 1bfc 553d
00000210: 76ee b5bd 056e 00be 293d 9ebd f600 e03c
00000220: d2e1 593d 2427 aabd c1bd 033e e373 8cbd
00000230: f31c 8d3d d79d fabd f801 cfbd d21c 933d
00000240: efce 253d e20a e23c f083 3f3d 2b80 aa3c
00000250: 91c2 0b3d 3027 6cbd 5ceb 2cbe b46d 4c3d
00000260: 7e25 3e3c 32cc 5bbd f04e 083e a385 b3bd
00000270: 3ea7 0d3e 92ce 903d 620c 1fbd d283 f6bd
00000280: 5940 863d 9e6f 0dbe 2af6 cb3d 43d4 f4bd
00000290: ebe5 d83c d80f a3bd 98da a7bb e53c 323e
000002a0: 3de2 183d de50 b53d 6630 96bb b93c 7c3d
000002b0: 1ae4 a3bd 64ec efbc b1b7 d43d 94c6 033e
000002c0: 43d2 203e 16f4 dbbd 2b5c 28be b416 9bbc
000002d0: a746 963d b1d9 cd3d 5de7 6dbc 88e1 cc3d
000002e0: efff d43d 84a0 143d 6169 2bbd 0afa c43a
000002f0: ac3d 98bd 6ed0 643d fe47 8c3c e03b 6c3d
00000300: dcf2 4ebd c0a8 86bd 5900 573c 0be8 c2bc
00000310: 7137 6f3d 7174 1bbd 1ccc d63d 6040 7cbd
00000320: f9c8 14bd 723f 323e e16b f13d 57bd 823d
00000330: 51e0 be3d 1c4c 3dbe 8f82 3d3e 96ee 0b3d
00000340: 02c3 d23d 76de 1abd 3024 c83d 5688 b73b
00000350: 625d 263e 54da 96bd cb40 b0bc c079 f0bd
00000360: d87d 7b3c 608e 01be b154 aebd 03cb 2ebe
00000370: 8879 783c 6ff6 71bb 8422 3e3c f729 0d3d
00000380: 851f aabd a5ab 24be b8d0 f23d 17a4 f23b
00000390: 8f84 e5bd 79a4 a53d d9f9 0fbe 3b4c f73c
000003a0: bfd5 bd3b c3da 9d3d 4514 c1bd f0a9 383d
000003b0: 582a b7bc 19ee de3d 9a4d 0bbe 5e06 c0bd
000003c0: 9c56 e63c 07a5 d33d 1ebb b03d 2812 d9bd
000003d0: 715b 0e3e 233d d53d 9c4e 863c 99ca 3c3c
000003e0: 97c1 16be 6ebf febc ad5b 7abd 7167 b43d
000003f0: f4ba 34bd a4c9 1ebe c7ac c53d 8592 b73d

model.rnn.weight_hh_l1 f4 [240, 60]
0.13298106 0.028578693 -0.034377042 -0.09593238 0.028172934 -0.07374713 -0.0014693654 -0.07717817
0.07731783 0.044394698 0.017084815 0.054242488 -0.15490921 0.037013225 -0.04690656 0.029768378
0.08852949 0.040768623 -0.11132402 -0.03651851 -0.009977206 -0.12641859 -0.09233307 0.12791407
-0.04717828 0.026981873 0.061897524 -0.0011346202 -0.057810355 0.014962474 -0.14867543 0.13614768
-0.061598707 0.032506477 -0.05469757 -0.062712505 -0.1655788 -0.038141806 -4.149208e-05 -0.010368125
0.08487955 0.016395716 0.012475394 0.098250195 -0.047628358 -0.101550005 -0.13339104 0.05755063
0.041329596 0.09262712 -0.040687483 -0.07731056 0.0008993679 -0.063748434 -0.018922014 0.10223756
-0.03345765 0.07575909 -0.09179164 0.04989013 0.026095929 -0.049491357 0.023800036 0.11272737
-0.1655003 -0.016612062 0.12999257 -0.072168835 0.12486895 -0.13835382 -0.06184304 0.15273345
0.017700473 -0.1359075 -0.11170566 -0.0060017155 -0.014961334 0.026459297 0.14971668 -0.13107525
-0.11988517 -0.07709881 -0.03167478 0.065220825 -0.032466974 -0.011543251 0.17655359 0.103534244
-0.1559932 -0.044688888 0.018219601 0.1722262 -0.053412188 0.037076395 -0.023882411 0.08534467
-0.07995397 0.005915359 -0.067207895 -0.007404042 -0.031565655 -0.13744263 0.013073603 0.07362348
-0.15467526 0.009720567 -0.18226309 -0.036280707 -0.03789667 0.12312123 -0.15137196 -0.1894304
-0.10754769 -0.0077673993 0.08069766 0.061663512 -0.038710285 -0.13462095 -0.089905515 -0.024057712
0.1621304 -0.07862962 -0.011423875 -0.06914621 -0.10229807 -0.11146815 0.021941995 -0.04849096
0.06517362 0.032351103 0.058898747 -0.08795593 -0.0960234 -0.14698903 0.03657983 -0.022150401
-0.04558926 -0.1329668 -0.014422206 0.041105904 -0.09323694 0.050868817 -0.010152844 0.026448313
-0.030408192 -0.03298989 0.12132731 -0.08566932 -0.16746093 0.06323429 -0.15674461 -0.10566868
-0.00950527 0.1274046 0.08139051 -0.032294016 -0.16214857 -0.09443094 0.09176025 -0.005250027
-0.08176081 -0.102179945 -0.14196636 -0.06986821 0.05298976 0.07955803 -0.09330885 -0.063427396
-0.06194823 0.16118824 -0.13758732 0.050581757 -0.054785855 -0.039100807 0.09004342 -0.041521158
0.101375684 -0.15846224 -0.09640191 -0.096090384 0.13201252 -0.06256196 -0.045579962 -0.06848923
-0.14365675 -0.087181896 0.08821542 -0.047579713 0.013963212 -0.10550767 0.092925586 0.002119612
0.009333544 -0.06585466 -0.14207107 -0.027564708 -0.012403365 -0.18951258 -0.01678095 0.07940089
-0.03170438 0.00840485 0.09144725 0.092458345 -0.01683942 0.0196782 0.1705269 0.12302176
-0.025035273 0.02129868 -0.08197732 0.13194777 -0.012390463 -0.06804592 0.10677798 0.1106074
-0.1244363 -0.057058785 -0.14993565 -0.13392462 0.0300808 -0.09005446 -0.1515873 0.051466383
-0.14597528 -0.02219373 -0.14749214 0.09027266 0.030158881 0.07870928 -0.016913421 -0.120823435
-0.15754855 -0.07885895 -0.033527654 0.037569307 0.03689516 0.05729657 -0.12675716 -0.12578446
0.08473506 -0.12071454 0.025120096 0.070579015 0.09809795 0.015442793 0.096203946 0.038224183
0.012180931 -0.11891667 0.100977585 0.09028103 0.0058078486 -0.033674352 -0.15281329 0.017678808
00000000: 302c 083e dd1d ea3c f1ce 0cbd 3278 c4bd
00000010: edca e63c bc08 97bd b997 c0ba 970f 9ebd
00000020: cf58 9e3d 37d7 353d 74f5 8b3c 5f2d 5e3d
00000030: 85a0 1ebe 2e9b 173d 1821 40bd d0dc f33c
00000040: f34e b53d 00fd 263d d9fd e3bd 6f94 15bd
00000050: 6f77 23bc e073 01be 1f19 bdbd e8fb 023e
00000060: 033e 41bd 1709 dd3c 4288 7d3d 89b7 94ba
00000070: 8dca 6cbd 2a25 753c 5f3e 18be 4c6a 0b3e
00000080: ed4e 7cbd 8325 053d 8f0a 60bd 6a6f 80bd
00000090: 7d8d 29be 953a 1cbd c807 2eb8 11df 29bc
000000a0: 54d5 ad3d 4f50 863c 9865 4c3c 6637 c93d
000000b0: f415 43bd 73f9 cfbd a997 08be 36ba 6b3d
000000c0: 3949 293d 4ab3 bd3d eba7 26bd 0055 9ebd
000000d0: 8fc3 6b3a 8a8e 82bd 5702 9bbc ed61 d13d
000000e0: e40a 09bd 9527 9b3d 41fd bbbd 9859 4c3d
000000f0: 21c7 d53c 73b7 4abd 4bf8 c23c 9bdd e63d
00000100: e978 29be 0516 88bc c61c 053e 41cd 93bd
00000110: 4bbb ff3d a0ac 0dbe 214f 7dbd 2866 1c3e
00000120: 9500 913c 562b 0bbe f0c5 e4bd 0aaa c4bb
00000130: 6220 75bc 2bc1 d83c 544f 193e 9738 06be
00000140: 5b86 f5bd fbe5 9dbd 6abd 01bd 7f92 853d
00000150: 17fc 04bd e71f 3dbc 77ca 343e c309 d43d
00000160: aebc 1fbe b20b 37bd 4641 953c 115c 303e
00000170: bdc6 5abd 6bdd 173d 0ca5 c3bc 30c9 ae3d
00000180: e8be a3bd a1d5 c13b 4ba4 89bd 9b9d f2bb
00000190: fd4a 01bd c3bd 0cbe aa32 563c e8c7 963d
000001a0: 3163 1ebe 0343 1f3c 2da3 3abe 149b 14bd
000001b0: 8a39 1bbd fc26 fc3d 4001 1bbe 0bfa 41be
000001c0: f741 dcbd ab85 febb d144 a53d e192 7c3d
000001d0: ad8e 1ebd 13da 09be 6220 b8bd ae14 c5bc
000001e0: 8305 263e 9108 a1bd 342b 3bbc 879c 8dbd
000001f0: a781 d1bd 6a49 e4bd b3bf b33c 759e 46bd
00000200: bf79 853d 9782 043d d03f 713d 3d22 b4bd
00000210: eba7 c4bd 4b84 16be bbd4 153d c274 b5bc
00000220: cebb 3abd 7328 08be 1e4b 6cbc aa5e 283d
00000230: 02f3 bebd d25b 503d 1d58 26bc 22aa d83c
00000240: 9a1a f9bc 6820 07bd 747a f83d 6573 afbd
00000250: e17a 2bbe fb80 813d a981 20be d268 d8bd
00000260: febb 1bbc 5a76 023e 11b0 a63d bb46 04bd
00000270: 460a 26be 0265 c1bd ccec bb3d 6b08 acbb
00000280: 3672 a7bd b843 d1bd a15f 11be 1017 8fbd
00000290: ca0b 593d 52ef a23d b618 bfbd 39e6 81bd
000002a0: 6dbd 7dbd 880e 253e b1e3 0cbe d12e 4f3d
000002b0: 2267 60bd 2b28 20bd af68 b83d 1712 2abd
000002c0: 0e9e cf3d ed43 22be 5d6e c5bd 09cb c4bd
000002d0: 4a2e 073e 7c20 80bd 0eb2 3abd 1544 8cbd
000002e0: c11a 13be 6c8c b2bd 49aa b43d f2e2 42bd
000002f0: f5c5 643c 6814 d8bd c54f be3d 30e9 0a3b
00000300: b9eb 183c cfde 86bd 147b 11be 62cf e1bc
00000310: 7c37 4bbc 960f 42be 3478 89bc ef9c a23d
00000320: 74dc 01bd 7fb4 093c b248 bb3d cd5a bd3d
00000330: d3f2 89bc 2d34 a13c 9b9e 2e3e d5f2 fb3d
00000340: c616 cdbc 927a ae3c bae3 a7bd 511d 073e
00000350: 5e01 4bbc a95b 8bbd 6aae da3d 2286 e23d
00000360: 75d8 febd 79b6 69bd bb88 19be 8923 09be
00000370: 036c f63c 796e b8bd b339 1bbe 6ace 523d
00000380: 8b7a 15be a0cf b5bc 2e08 17be dfe0 b83d
00000390: c20f f73c 5532 a13d 048e 8abc 4772 f7bd
000003a0: 6854 21be cd80 a1bd 4b54 09bd 46e2 193d
000003b0: 611f 173d cfaf 6a3d a1cc 01be a4cd 00be
000003c0: 9389 ad3d 2f39 f7bd a9c8 cd3c bb8b 903d
000003d0: 94e7 c83d c503 7d3c 9306 c53d f690 1c3d
000003e0: 8792 473c 958a f3bd 56cd ce3d 43e5 b83d
000003f0: c44f be3b 1eee 09bd 167b 1cbe 26d3 903c

model.rnn.bias_ih_l1 f4 [240]
0.15230305 0.023929358 0.04020835 0.02935708 0.13297975 0.074642316 -0.0057123327 -0.03439393
0.12796535 0.1146927 0.111052714 -0.03704239 0.064448014 0.10415596 0.17333123 0.09400368
-0.022987789 0.07884246 -0.015939735 0.061415166 0.050833303 0.13932446 -0.028981354 -0.027152555
-0.101491705 -0.02049848 0.10597747 0.03724699 0.04278391 0.059067693 -0.017434606 0.13976516
0.10377554 -0.09991332 0.076334275 -0.072396435 0.17066829 -0.040839735 0.14815627 0.032842092
-0.09092358 0.064907864 0.066821046 0.10707247 0.13882887 0.02579449 0.079636194 0.14159697
0.11827945 0.107421964 -0.101752505 0.03599315 -0.0035147157 0.14169662 -0.07148445 0.12347489
0.012800865 -0.040652115 0.11024601 -0.070473336 -0.1324521 0.04072419 -0.017360263 -0.13067965
-0.087094486 -0.09231747 -0.13431111 0.029012814 0.08850628 0.0056812107 0.07322185 0.09178907
-0.089691855 -0.029211681 -0.09615098 0.07125122 0.03233851 -0.07754848 -0.07723398 0.013975004
-0.0064361794 -0.03741804 0.12863234 -0.028529303 0.10409978 -0.063720845 -0.026576038 -0.07210002
0.12124657 0.106957145 0.076068364 0.060315114 0.018152347 0.11972541 0.048995346 0.054297417
-0.0033581762 -0.048005775 -0.04334731 0.09218009 0.087866195 0.017613905 0.1185351 -0.074036896
0.12420258 0.09450202 -0.082211435 0.03932241 -0.11543935 -0.07303273 -0.087469146 0.121852994
0.088263504 0.0465611 0.103840835 0.10323258 -0.08619516 0.07529057 0.074529454 -0.09423333
-0.0017846513 0.09914385 0.030107342 0.07499259 -0.12217385 0.009904991 -0.0077478443 0.10923976
-0.06998295 0.013995967 0.09441668 0.07847678 0.06975493 -0.076711 -0.09936813 0.10850043
0.04384325 -0.019752722 0.07290458 0.06719121 -0.0968681 -0.12321553 0.03141854 0.119355336
-0.008251471 -0.043431617 -0.045309853 0.1039088 -0.0062783514 0.10831345 -0.041818973 -0.09025545
0.1018458 0.090145 0.0067972406 -0.11060723 0.01345778 -0.049840577 0.107756406 -0.08371436
-0.065949775 -0.15056004 0.11427899 -0.004588675 -0.107580334 -0.007086912 -0.08015603 0.13636217
-0.10324347 0.12588409 -0.13203713 -0.054107163 -0.1299114 0.09462109 0.057388335 -0.023013573
0.15594594 -0.10013202 -0.05659461 -0.085288085 0.12832554 0.0595115 0.016962646 0.044282097
-0.058356494 0.09185886 0.08094923 0.017529797 -0.04833236 0.1457085 0.09027948 -0.0211224
0.18141666 0.08529397 0.09775492 0.039670046 0.1177951 0.17383875 0.12931675 0.15892941
0.069502845 0.11239428 0.033163365 0.015400481 -0.122754745 -0.047814835 0.10651028 -0.003435493
-0.037137233 0.11063062 0.14055598 -0.060585532 0.11281587 -0.107331865 0.07782406 0.025907775
-0.04833388 0.035665035 0.06662232 0.010530329 0.12486256 0.13616805 0.1829584 0.008610241
-0.0007230856 -0.01388513 -0.08903187 -0.0562458 0.10187836 -0.022318607 -0.06337799 0.036684647
0.116656296 0.10234088 0.04119762 0.0065054544 0.11818145 0.017331777 0.013393771 -0.114821605
00000000: 55f5 1b3e 8007 c43c 83b1 243d 427e f03c
00000010: d82b 083e 12de 983d 852e bbbb a6e0 0cbd
00000020: 5909 033e 02e4 ea3d 9b6f e33d c3b9 17bd
00000030: 52fd 833d b84f d53d be7d 313e 0085 c03d
00000040: e350 bcbc 2878 a13d 0c94 82bc 788e 7b3d
00000050: 9536 503d 12ab 0e3e 4e6a edbc 096f debc
00000060: e2da cfbd 6eec a7bc b70a d93d 4d90 183d
00000070: 2e3e 2f3d f7f0 713d 05d3 8ebc 991e 0f3e
00000080: 4588 d43d 5b9f ccbd 2555 9c3d 9544 94bd
00000090: abc3 2e3e 9147 27bd 47b6 173e 6e85 063d
000000a0: 2436 babd 6aee 843d 79d9 883d d048 db3d
000000b0: 2829 0e3e f74e d33c 4d18 a33d ccfe 103e
000000c0: 7f3c f23d 0c00 dc3d 9e63 d0bd 8e6d 133d
000000d0: 2557 66bb eb18 113e 7066 92bd 67e0 fc3d
000000e0: b8ba 513c d582 26bd a9c8 e13d 5354 90bd
000000f0: 86a1 07be 69ce 263d 1c37 8ebc e3d0 05be
00000100: 985e b2bd f110 bdbd da88 09be 48ac ed3c
00000110: c842 b53d 7329 ba3b 56f5 953d e8fb bb3d
00000120: 5db0 b7bd 564d efbc ceea c4bd 29ec 913d
00000130: 6375 043d bdd1 9ebd d92c 9ebd 6af7 643c
00000140: 96e6 d2bb a943 19bd 32b8 033e 49b6 e9bc
00000150: 4432 d53d 1380 82bd feb5 d9bc 2da9 93bd
00000160: 1f50 f83d 590c db3d bbc9 9b3d fb0c 773d
00000170: 3bb4 943c 9932 f53d 58af 483d f866 5e3d
00000180: d914 5cbb b4a1 44bd f38c 31bd eac8 bc3d
00000190: 31f3 b33d 094b 903c 88c2 f23d a8a0 97bd
000001a0: ec5d fe3d 468a c13d 785e a8bd 8910 213d
000001b0: 776b ecbd 2f92 95bd 0623 b3bd 108e f93d
000001c0: 7fc3 b43d dab6 3e3d 81aa d43d 9a6b d33d
000001d0: 1787 b0bd f131 9a3d e6a2 983d 67fd c0bd
000001e0: f6ea e9ba ee0b cb3d aca3 f63c b795 993d
000001f0: 4936 fabd 8b48 223c a1e1 fdbb 18b9 df3d
00000200: 3953 8fbd 574f 653c 885d c13d 6fb8 a03d
00000210: acdb 8e3d a81a 9dbd 8581 cbbd 7935 de3d
00000220: fb94 333d 76d0 a1bc ff4e 953d 8c9b 893d
00000230: c862 c6bd 6c58 fcbd bab0 003d 9270 f43d
00000240: 2e31 07bc 5ae5 31bd d396 39bd 23ce d43d
00000250: a1ba cdbb 71d3 dd3d 5f4a 2bbd d9d7 b8bd
00000260: 8894 d03d f19d b83d 63bb de3b 0b86 e2bd
00000270: 057e 5c3c a225 4cbd 64af dc3d 6f72 abbd
00000280: ad10 87bd 692c 1abe 1a0b ea3d 995c 96bb
00000290: 1453 dcbd 5439 e8bb d828 a4bd 86a2 0b3e
000002a0: 5071 d3bd c2e7 003e be34 07be 799f 5dbd
000002b0: 7e07 05be b4c8 c13d 0810 6b3d f686 bcbc
000002c0: 4bb0 1f3e 0412 cdbd c0cf 67bd 85ab aebd
000002d0: c567 033e 55c2 733d 3ff5 8a3c 2561 353d
000002e0: 3807 6fbd 7f20 bc3d b6c8 a53d a69a 8f3c
000002f0: 27f8 45bd 9c34 153e 73e4 b83d e208 adbc
00000300: 4ac5 393e 9bae ae3d bb33 c83d 0f7d 223d
00000310: 8f3e f13d c902 323e 9c6b 043e 64be 223e
00000320: 8257 8e3d f92e e63d 4fd6 073d 4d52 7c3c
00000330: d766 fbbd 7dd9 43bd 1022 da3d 0226 61bb
00000340: 361d 18bd 4e92 e23d e8ed 0f3e 8928 78bd
00000350: 020c e73d cfd0 dbbd 3962 9f3d 8b3c d43c
00000360: bff9 45bd 8015 123d 4871 883d 6787 2c3c
00000370: f1b7 ff3d a36f 0b3e 7259 3b3e f811 0d3c
00000380: 748d 3dba 757e 63bc 5756 b6bd ff61 66bd
00000390: 9aa5 d03d 83d5 b6bc 52cc 81bd a442 163d
000003a0: 7fe9 ee3d 1898 d13d d6be 283d b52b d53b
000003b0: 1e09 f23d 5ffb 8d3c 8c71 5b3c 9727 ebbd
