checkpoints/epoch=1-step=100-v42.ckpt (torch, 621663 bytes, 33 tensors)

model.param_proj.proj.0.weight f4 [1, 60]
00000000: e892 6a3d c578 a9bd 25ab 783b c8f2 0f3e
00000010: 5c24 c3bd 36cc f73d 5f15 fbbd c507 1ebe
00000020: c94f 053d b059 7c3c 0217 db3d e21a 67be
00000030: 08eb 2cbe 1aa5 bf3c a808 563e 307e f83d
00000040: 9704 58be 7edb 00be 9c78 cfbd 9866 973d
00000050: 7d7e 1bbe d682 83bd aee9 083e 519d 05be
00000060: f21f 753e 122d 09be d663 8ebd 7655 1fbe
00000070: 6f5e 303b 6291 d43d 9f39 89bc 1149 0cbe
00000080: 34dc 573d ec41 3b3e 328b aebd a106 443e
00000090: 101a fabd c585 10be 19b7 27be d0fb 353c
000000a0: 76a0 85bd ded9 813d ec3c 5bbc adb2 18bc
000000b0: 7200 3f3e c9dd 9f3d 852c 55be 8d65 063e
000000c0: 2283 56be 0d8c 6bbc 89a7 363e 4b3f db3d
000000d0: d256 08be c90d 103e e7f8 f33d bfad 133e
000000e0: 5621 91bc 2b5e 0c3e 6742 c23c 3344 d0bd
0.057269007 -0.08274988 0.0037943807 0.14057457 -0.095284194 0.12099497 -0.122599356 -0.15432651
0.032546792 0.015402243 0.10697748 -0.22568849 -0.16886532 0.023394156 0.2090174 0.12133443
-0.21095501 -0.1258373 -0.10130426 0.07392615 -0.1518497 -0.06421439 0.13370392 -0.13048293
0.23937967 -0.13396099 -0.06952636 -0.15559945 0.0026911756 0.10379292 -0.016751109 -0.13699748
0.052700236 0.18286866 -0.08522643 0.19143154 -0.12212002 -0.14113529 -0.1637844 0.0111074
-0.06524746 0.06340383 -0.013381224 -0.009319943 0.18652514 0.07805974 -0.20817764 0.13124676
-0.2094846 -0.014376652 0.17837347 0.107054316 -0.1331437 0.14067759 0.11912709 0.14421748
-0.017716091 0.13707797 0.023713304 -0.10169258

model.param_proj.proj.1.weight f4 [1, 60]
00000000: 4486 793d 33d8 cf3d 9b73 a9bd 67c3 5b3d
00000010: fd71 cb3d cfc7 e6bd 4d97 96bd f972 6bbd
00000020: c8f8 113e 2dc7 e93d 4e53 67be 086d e83d
00000030: 6f8c d53a c06a 0b3e 7d80 98bb b9bd 043e
00000040: b6a5 9ebd f47a 263d d9ee d03d 6c02 413e
00000050: 130c 4f3e c59b 113e d0e0 213e 0286 e0bd
00000060: 2b0d d43d 2007 0f3d a76a 423e 504c 013d
00000070: a050 0d3e 8445 f83c 68e0 523e e239 213e
00000080: a0f9 f33d 7483 153e 01b6 abbd 70da e9bc
00000090: 1715 b83a 4685 a6bd 78b8 e93d 4ccb 44be
000000a0: 5088 14be 3831 593e 2abf 33be 826f 103e
000000b0: 9dbf a23d 48e0 2f3e a895 233e 2ad3 f3bd
000000c0: 8570 39bd 9708 4c3e d950 163d 3ce3 d9bd
000000d0: da9f 09be 524c c8bd 0296 51bd c599 d53d
000000e0: 020b 09be cd97 fcbd d01f 8bbd f2fb 66bd
0.06091906 0.101486586 -0.08274003 0.053653147 0.09933851 -0.11268579 -0.07353077 -0.057482693
0.14255059 0.11414943 -0.22590372 0.11348921 0.0016292463 0.1361494 -0.004653989 0.12962998
-0.077464506 0.0406446 0.102018066 0.1884858 0.2021945 0.14219578 0.15808415 -0.1096306
0.10354074 0.034918904 0.18985997 0.031566918 0.13800287 0.030306585 0.20593417 0.15744737
0.119128466 0.14600927 -0.08384324 -0.028546542 0.0014044371 -0.08130889 0.11412138 -0.19218177
-0.14505124 0.21210182 -0.17553392 0.14105037 0.079467036 0.171754 0.15975058 -0.11905511
-0.045273323 0.19925152 0.036698196 -0.10639045 -0.13439885 -0.09780182 -0.05116845 0.1042972
-0.13383105 -0.12333641 -0.06793177 -0.056392618

model.param_proj.proj.2.weight f4 [1, 60]
00000000: 27ba a43c 4683 d2bd e7ba 92bc fe73 a63d
00000010: de33 c33c 81e4 c9bd 24f9 c4bd 82bc a3bc
00000020: b56b 953b 7344 75bd 476e 36bd e462 adbc
00000030: 894f a4bd 8ce5 86bd 97af 19bd f351 933d
00000040: 026e 073c 3f89 f23c b944 d83d 157a e73d
00000050: 8f91 b83d 8e03 79bd 4f10 873d a116 f2bc
00000060: c9c9 583c cbcc ccbd a753 dd3d 9324 c2bc
00000070: 63a3 88bd d5c6 933d 39f4 103c a2ab 233d
00000080: 9f49 b8bd 8265 0dbb bc08 04be 0e3e 00bd
00000090: d4b6 aabc d568 85bd 1092 babd 952f 2bbd
000000a0: 8213 e7bc 6c09 9f3d ddc4 85bd 09ae d83d
000000b0: 0483 25bd 9c3f 95bd 93e2 373c e3ca 39bc
000000c0: 7cd4 03bd b9df b33d c060 9b3d 2491 8bbd
000000d0: 86c4 943d 2dee 4bbd 6987 a3bd 8d2a 6a3d
000000e0: fae2 0ebe 6667 133e 475a d33d c1d9 e3bd
0.020108296 -0.10278945 -0.017911388 0.081275925 0.023828443 -0.09858037 -0.09617832 -0.019987348
0.004559959 -0.05987973 -0.044538762 -0.021165319 -0.080229826 -0.06586751 -0.03752097 0.07193365
0.008265974 0.02960646 0.10559983 0.11302582 0.09012138 -0.060794406 0.065949075 -0.029551806
0.013231703 -0.09999999 0.10806971 -0.02369908 -0.066717885 0.072156586 0.00884729 0.039958604
-0.08998417 -0.0021575396 -0.12893957 -0.03130918 -0.020839132 -0.06514136 -0.091098905 -0.041793425
-0.028207544 0.07765469 -0.06531689 0.105800696 -0.04040815 -0.07287523 0.011223453 -0.011339876
-0.032185063 0.08782906 0.07586813 -0.06814793 0.07264046 -0.04978769 -0.07984812 0.057169486
-0.13953772 0.14394912 0.103199534 -0.11125518

model.rnn.weight_ih_l0 f4 [240, 24]
00000000: 2017 4cbe d777 32bc 7db2 0cbe 6891 d9bd
00000010: b09c aebd 61d5 ad3d 2fa3 69bc 250e 133d
00000020: a2d6 70bd 58e6 1abe 97c1 e73d ef21 113d
00000030: eaae 1fbe 3a2c 513d 0733 b0bc 2b94 d4bd
00000040: 2a1f ef3d 184f 873d 6e96 193d 80b5 bf3d
00000050: 8f45 25bd 20f7 0e3e 08a4 533d a393 d03c
00000060: be71 203e 059d 05bd ad4c 9e3d fb78 9c3d
00000070: 1ce3 0fbc e05e 0b3d f1b9 4cbd 0df9 253c
00000080: 8ce6 ac3c bc32 223d c802 c9bd 6bc7 0c3d
00000090: 9b2e a43d 739e d7bd 3922 5b3d 46a2 883c
000000a0: 6cf8 713d 5c90 a6bd 91d0 cabd 9185 64bd
000000b0: 40ba a0bd bb48 b53d 83e8 1c3d 4764 3e3d
000000c0: 5e6a d53c 2620 ac3d 1d23 0abe ac06 8dbd
000000d0: c5b9 93bd 6180 0abd d2cf 893d 1393 33be
000000e0: bcc4 833b 1b34 b83d 1de6 443d 2bdd 833d
000000f0: 39e3 abbd b457 643d de2e 8dbc 7684 2d3d
00000100: 46b3 e83d 4e1f 6cbd 5f6e 8b3c 9116 d6bd
00000110: 436f aebb b269 6e3d 2b21 1a3e 6ff5 053e
00000120: 3f0c fa3b ea03 fbbd 2000 05be b0cb ba3d
00000130: 0a94 183d a8c2 1e3e 21e9 2cbd 9a62 0fbe
00000140: 362f 0fbd b8e4 b8bd 8903 143d c0e0 203e
00000150: 6ceb afbb 6df8 23be 558e 38bd 1b2d 873d
00000160: 6c04 45bd 81b3 a43d 3952 37be 2345 a23b
00000170: c7e5 353d c7ad 12be c301 843d dd97 bd3d
00000180: 9852 e6bd 8ba4 bdbd a5c2 f7bd c450 583b
00000190: cad6 1bbd 3064 99bd 65eb 49be a840 06be
000001a0: 7ac8 1fbd 8836 0cbe f431 f23d 64a6 243e
000001b0: 909b c8bd 8aad 663d ba2a dbbc 7049 173e
000001c0: b8df dcbd 239e 8d3d dce3 e93c c9ff a2bc
000001d0: 86fe d9bc 366b f83d 4917 3e3d b4fd 453c
000001e0: 19e8 03be 7702 ad3d b7dd 91bc ac7f 0c3e
000001f0: a89c cb3d 1417 7a3d 1f52 ebbc 63a1 a93c
00000200: 204e 8ebd cf38 0c3e 6c87 7f3d 0d6b 16bc
00000210: c53d 733d a2eb a73d 35a9 f1bd 4fd5 793d
00000220: 3447 89ba 2758 8d3d a86d bebd cb74 9fbd
00000230: 651c b63d dc31 423e d9b9 aebd 8082 093e
00000240: cde3 cd3c ccac 0d3d 5edb 303d 88c4 e53c
00000250: 9ff7 873d 1819 a53c 2f50 023d 8ec5 bfbc
00000260: fdb3 0d3d 7b2c 2f3e 3e3c fabd 7283 d83d
00000270: cac0 17be 54a7 4e3d 195b fb3b 33ba ba3d
00000280: 5c89 27be 5c16 ffbc 8fe9 5d3c 0ab5 b73c
00000290: 6a1f a3bd 0210 e9bb 5652 a8bd 5b03 163e
000002a0: 3e9b 32bd 0a6d 71bd 64e5 093d d15a 0abe
000002b0: 51fe bebb dc31 19bd 16dc 023e fdf7 d8bd
000002c0: e95b 85bb be8b de3d 51a8 18bd 7da7 d6bd
000002d0: f8c6 cebd 4a53 01be 4940 b03d 3ef4 db3c
000002e0: 9d74 9f3c 5df9 c9bb fe6a 9d3d 26cc 953d
000002f0: 7c92 c2bd 0fd8 0a3d aa21 ba3d 9391 ce3c
00000300: ab6c 2ebd 2fb1 723d 4db6 863d 11bb db3d
00000310: 6497 06be 0802 9b3d 1260 71bd 58af 3dbd
00000320: 3271 053e 5781 753e bbf6 fb3d c955 653d
00000330: 6bec 05be ccfa a13d 1b2c f13c 9b7c 2fbd
00000340: 766a cc3c a814 43bd f66e b03c 846e 11bd
00000350: b5a9 913d 835f 06bc 247c e1bd ab56 993d
00000360: e309 86bd 31a2 193c 04e0 8bbd 2d57 95bd
00000370: 6a1f dfbd 190d 073d 8ea3 30bd b178 c3bc
00000380: 2c2a 06be 4f07 003e 7217 3c3e 2b92 15bd
00000390: a55e 8abd 06fe 08be 6311 833d fca5 e33d
000003a0: 4693 193d f3d0 29be 5738 15bc ae56 b13d
000003b0: a281 1abe c3a3 553c 1d31 c3bb 77b0 33bd
000003c0: 7f81 6c3d daae 343d 04fc 9ebc 41a9 ebbd
000003d0: e240 a3bd 6b44 8f3d 45a6 f03d 3bc6 49be
000003e0: a6ec 98bd 10bd 4fbd b2ca 47bd 9c37 223e
000003f0: 43f2 cabd 2345 a43d 0aac 07bc 41e8 f13d
-0.19930696 -0.01089283 -0.13739963 -0.10623437 -0.085259795 0.084879644 -0.014260097 0.03590216
-0.05879844 -0.15126932 0.11316221 0.035432752 -0.15594068 0.05106757 -0.021508707 -0.10379823
0.11675866 0.06606883 0.037496977 0.0936079 -0.04034954 0.13961458 0.051670104 0.025461024
0.15668389 -0.03262045 0.077294685 0.07640263 -0.008782174 0.034026027 -0.049982015 0.010130179
0.021106027 0.039599165 -0.098149836 0.034369867 0.08016702 -0.10528269 0.053499434 0.01667894
0.059074804 -0.08133003 -0.09903062 -0.05579144 -0.07848024 0.08851763 0.038307678 0.04648235
0.026051696 0.08404569 -0.13489957 -0.06886038 -0.07213167 -0.033813838 0.06729092 -0.17536573
0.0040212553 0.08994313 0.048071016 0.06438669 -0.08392949 0.055747703 -0.017234262 0.042362653
0.11362319 -0.057647042 0.017020402 -0.10453523 -0.005323322 0.058206268 0.15051715 0.13081907
0.0076308544 -0.12256606 -0.12988329 0.091208816 0.037250556 0.15503943 -0.042214517 -0.14002457
-0.034957133 -0.09028 0.036136184 0.15710735 -0.0053686406 -0.16012736 -0.045057613 0.066004
-0.04809992 0.0804205 -0.17902459 0.0049520894 0.044408586 -0.14324103 0.064456485 0.09257481
-0.11246222 -0.092599 -0.120976724 0.0033007124 -0.038046636 -0.074898124 -0.19718702 -0.13110602
-0.03900955 -0.13692677 0.11825934 0.16079098 -0.09795296 0.056317843 -0.026753772 0.14774108
-0.107848585 0.06914928 0.028551035 -0.019897358 -0.026610624 0.12129824 0.046408925 0.012084413
-0.12881507 0.08447736 -0.017805917 0.13720578 0.09941989 0.061057165 -0.028725682 0.020706838
-0.06948495 0.13693546 0.062385008 -0.009180796 0.05938508 0.0819924 -0.11799852 0.060994443
-0.0010473491 0.06901579 -0.09298259 -0.07785948 0.088921346 0.18964332 -0.085315414 0.13428688
0.025133038 0.03458862 0.043177955 0.028047815 0.06639027 0.020153567 0.03181475 -0.023409631
0.03459548 0.17106812 -0.122185215 0.10571946 -0.14819637 0.050452545 0.007670772 0.09117546
-0.16360992 -0.031138591 0.013544454 0.022425193 -0.07964976 -0.007112504 -0.08218829 0.14649718
-0.04360508 -0.05894188 0.03366603 -0.13511206 -0.0058286567 -0.037401065 0.12779269 -0.10594175
-0.0040697944 0.108664975 -0.037269894 -0.104811646 -0.10096544 -0.12629429 0.086060114 0.026849862
0.019464785 -0.0061637596 0.07686423 0.07314329 -0.09500596 0.033897456 0.09088452 0.0252159
-0.042584103 0.059251007 0.0657774 0.107290395 -0.13143688 0.07568747 -0.05892951 -0.0463098
0.13031462 0.2397512 0.123029195 0.055990014 -0.13078468 0.07909164 0.029439976 -0.042843442
0.024953108 -0.04762712 0.021537285 -0.035505787 0.07112447 -0.008201483 -0.11010006 0.07487234
-0.065448545 0.009377048 -0.06829837 -0.07292018 -0.10894664 0.032971475 -0.043124728 -0.023861261
-0.13102025 0.12502788 0.18368319 -0.03651635 -0.06756333 -0.13378152 0.06399801 0.111156434
0.037493967 -0.16583614 -0.009107671 0.08659111 -0.15088513 0.013039532 -0.0059567825 -0.043869462
0.057740685 0.044112064 -0.01940728 -0.11506892 -0.0797136 0.069954716 0.117504634 -0.19704525
-0.07467012 -0.050717413 -0.04877729 0.15841526 -0.09909489 0.08020999 -0.008280763 0.11811877

model.rnn.weight_hh_l0 f4 [240, 60]
00000000: e73f 74bd d775 5cbc b302 f93d cfed 5abc
00000010: 0785 84bd 8e88 883c 502e 2fbd 8dec 83bd
00000020: 9b36 79bd cd65 413d a681 cdbd 55d0 e23d
00000030: 16e7 a0bd 71a5 f63d eaef dfbd 7d64 37bd
00000040: 7f88 163d 7192 d03d 98a8 c63c 558e d4bb
00000050: e402 6dbd ece1 dfbd 698b 763c 3392 aabd
00000060: 6b54 3c3d 0b08 cabd d187 503b 3533 003e
00000070: a118 debd b772 1abc 4d28 bb3c 3b82 ffbc
00000080: fb92 e13d 22e2 66bb a172 b73d 934f d53d
00000090: 00c9 e43c 1b80 b8bd a184 06be b309 923d
000000a0: 4afe a7bd 0b85 9ebd 52f1 d03d 0f3d 683d
000000b0: 79ad 97bc 3029 d13d 56fa 213d cf10 55bd
000000c0: 38cd 0c3e 118a 073d b0bc b93c 3bb2 be3d
000000d0: 4001 eebc 4f5f a53d d3b7 743d a1dc 983d
000000e0: 7ef4 81bd b258 8e3d 14fe 553d c78c 633d
000000f0: 5dbf 99ba 273a 49ba dfa0 f43d b702 853d
00000100: 909e babd f486 813d d674 17bd 98d9 3bbd
00000110: 421e cbbd a32d a73c bcf9 853c 471f 45bd
00000120: 5907 e2bc 230c 723d 7e4e b6bd bb4e da3d
00000130: e956 903d 13fd 143e 2247 123d cc7f cbbd
00000140: 736d 1d3e e46e fa3c 5a56 f8bd 8a89 88bd
00000150: ef49 c93b e29c 003e 9488 c23d 3d35 5fbd
00000160: f99c 19bc d957 793d e613 0f3b 1535 1ebd
00000170: d4d0 11be 57b9 91bc 7575 7ebc bfeb b6bd
00000180: 5e48 9abc 4aed 07be 6fc2 16be c730 92bd
00000190: 324c 823d 1786 9c3d fc4f 633d 4ebf 8f3d
000001a0: 56fc 0b3e e414 c0bd 3213 dabd 9b5d 8ebb
000001b0: b06e 213e a057 48bc bf91 e63c ee14 4bbd
000001c0: 6ee7 3cbb b9da cfbd c96a 033e 5297 50bd
000001d0: d994 babd 99e8 2c3d f70a 7a3c 6693 cbbc
000001e0: c414 15bd 66ec 36bd 5e62 f9bd 7c42 ac3d
000001f0: dc47 febb e78d 473e 2a60 bfbd 1c64 bcbc
00000200: 5c23 193d df76 4d3e 0bab ee3d bb64 923c
00000210: 50f5 0d3e 50e3 993d 76c3 95bc c0fa aabd
00000220: c514 0a3d ece3 eb3d 64b6 683d 5cd8 23bd
00000230: 3aee e5bc 4921 89bd ed66 c9bd 717f ee3b
00000240: 51b8 a4bc edf4 00be 48f4 07be 2052 293a
00000250: f3cb 34be f146 073e 7907 9abd f5ea 40be
00000260: cfb4 69bd 26ac 063e b339 fdbd 719e 423e
00000270: ac7d b7bc 1472 50bd fd05 1dbd 98ff 52bc
00000280: 5b04 03be c561 0fbe 8c1b 0f3e 3660 273e
00000290: afdb 3dbd 0f75 0d3e 35ad 663d ffa3 30bd
000002a0: 4dc9 1c3e 8810 a33d 1254 ea3c 477e e13d
000002b0: 5c0d cb3c 8ca6 d43c a40e 743d cf5a b43d
000002c0: 0136 ecbd 1349 71bd 8916 4b3c dc3c 273d
000002d0: 2475 173c 1ae8 8bbd f9df 95bc 336b ef3d
000002e0: 3d3d f93d b75d e13d e1f1 42be 0fea 0b3e
000002f0: f82c 19be f766 493e a819 e13d 883a a43d
00000300: d89c 08bd 68bb 983d 37f1 1d3c 57e0 e6bd
00000310: c34b e9bc 1340 bd3d 4f4a fcbc bf0e 76bd
00000320: 6edf 5abc 1eef 3cbe dcc3 2c3d 8fd5 073e
00000330: 5176 13bd 9072 57bd 476a 0c3c 70b1 13bd
00000340: c0a4 93bc 59f7 363e 8e6e dabc f5ad 2dbe
00000350: ad6d 103c 235a 393d 49a3 b4bc a4bf a83d
00000360: e528 acbc 7643 0fbe ae60 eabd 1112 603e
00000370: 70f3 d1bd 797c cfbd 5d09 e83d 05a1 083e
00000380: fee3 2abd 3526 af3c 2b45 0bbe a280 083d
00000390: 903b fb3d 1850 1ebd 128c 08be 0c8e a63c
000003a0: 3fe9 513d d021 743e 49c1 c03d 4f3e f83d
000003b0: 1185 0bbe f7f6 ecbc 2ae0 4dbe fac3 0a3c
000003c0: eabc 02bd af4c 31be 33d9 503c 7c29 87bb
000003d0: 1794 1b3e 4515 5cbd f62c 873d 93e8 55bd
000003e0: 4443 553d 6ae1 a03d 2e74 54bd 2191 1dbd
000003f0: 005e fa3d 50a9 d13d ace1 a4bd fea9 2d3c
-0.059631255 -0.01345583 0.12158718 -0.013362362 -0.064706855 0.016666677 -0.042768776 -0.06441603
-0.06084309 0.047216225 -0.10034494 0.110748924 -0.07856576 0.12043274 -0.10934432 -0.044773567
0.036751267 0.101841815 0.024250314 -0.006486694 -0.057864085 -0.10931763 0.015047886 -0.083286665
0.045978945 -0.09864815 0.0031819234 0.12519534 -0.10844541 -0.009426764 0.022846365 -0.031190028
0.110143624 -0.003523 0.089574106 0.10415568 0.027927876 -0.09008809 -0.13136531 0.07130756
-0.08202799 -0.0774022 0.10202278 0.056698855 -0.018515335 0.10212934 0.03954538 -0.052017983
0.1375016 0.033090655 0.022672981 0.093113385 -0.02905333 0.08074819 0.05974562 0.074639566
-0.06345461 0.06950511 0.05224426 0.055554178 -0.0011730004 -0.0007676207 0.11944746 0.064946584
-0.09112275 0.063245684 -0.036976658 -0.04586181 -0.099178806 0.020407503 0.016354434 -0.04812553
-0.027591394 0.059093606 -0.0890169 0.10659548 0.07047827 0.14549665 0.03571237 -0.09936485
0.15373783 0.030570455 -0.12125845 -0.066668585 0.006142847 0.12559846 0.094987065 -0.05449413
-0.009375804 0.060874794 0.0021831929 -0.03862484 -0.14239818 -0.017788572 -0.015530934 -0.08931684
-0.018833335 -0.13274112 -0.14722608 -0.0713821 0.06362189 0.07642763 0.0554962 0.0701891
0.13670477 -0.093789846 -0.106481925 -0.0043446547 0.1576488 -0.012227923 0.028145669 -0.049580507
-0.0028824466 -0.1014914 0.12833704 -0.05092556 -0.09110422 0.04221401 0.015261403 -0.024850558
-0.036396757 -0.04465904 -0.12176965 0.084111184 -0.007760031 0.19487725 -0.09344514 -0.022996955
0.037387237 0.20064877 0.116537176 0.017870298 0.1386311 0.075140595 -0.01828168 -0.08348608
0.033711214 0.11518082 0.056814566 -0.04000126 -0.028067697 -0.06695802 -0.09834085 0.007278376
-0.02010742 -0.12593432 -0.1327678 0.0006459076 -0.17655925 0.13210656 -0.075209565 -0.18839629
-0.057057198 0.13151607 -0.12364521 0.19005753 -0.022398792 -0.050890043 -0.03833579 -0.012878321
-0.1279463 -0.1400214 0.13975352 0.16345295 -0.046352085 0.13814186 0.056317527 -0.04312515
0.15311165 0.079621375 0.028604541 0.110104136 0.024786644 0.025958322 0.059584275 0.08806383
-0.11533738 -0.05890758 0.0123955095 0.040829524 0.009244237 -0.06831379 -0.018295275 0.116903685
0.121698834 0.11004203 -0.19037582 0.13663505 -0.1495856 0.19668184 0.10991222 0.080189764
-0.033352703 0.0745762 0.00964003 -0.11273258 -0.028478509 0.09240737 -0.030797152 -0.060072657
-0.013358934 -0.18450591 0.042178974 0.1326506 -0.036001507 -0.05259949 0.00857026 -0.03605789
-0.018022895 0.17867793 -0.026664045 -0.1696089 0.008815211 0.045251977 -0.022050517 0.082396775
-0.021015594 -0.13990578 -0.114442214 0.21881892 -0.1025151 -0.10131163 0.11329911 0.13342674
-0.041721337 0.021380523 -0.13600604 0.0333258 0.1226722 -0.038650602 -0.13334683 0.020331405
0.05124783 0.23841023 0.09411866 0.121212594 -0.1362498 -0.028926356 -0.20105043 0.008469576
-0.031918444 -0.17314409 0.012747097 -0.0041248184 0.1519321 -0.05373122 0.066003725 -0.052223753
0.052066103 0.07855494 -0.05186861 -0.038468484 0.1222496 0.10237372 -0.08050856 0.010599611

model.rnn.bias_ih_l0 f4 [240]
00000000: 3fc7 86bb 41e6 b13d 772e 053d 74cb 913d
00000010: 027e 883d 1d02 5c3d fe0c a93c 0a60 1bbc
00000020: 183d 663d 3d51 c83c ab65 613d 51a0 fe3d
00000030: 5de9 213e b199 113e 7290 91bd c316 1a3e
00000040: bfa0 c43d 02db 573d d224 083e 6674 323e
00000050: c9e4 d73d bb7a ca3d 14ad 033e 2d70 dd3d
00000060: df44 c73c 5e2b e53d 4c21 c8bd 22ab 2cbd
00000070: 458e 513b 6aa6 413d b73f bd3d 034e 073d
00000080: 82c9 6e3d 3ac1 983d 77b5 ab3d 2372 80bd
00000090: 494e b23d 717d 2c3d 5ce4 2c3e 97c7 1d3e
000000a0: bac7 503d e24b 963d 78c8 2d3d ac6a f63c
000000b0: a240 9a3d 0590 063e 5df9 d33d 37c3 40bd
000000c0: ec61 1b3e ac57 0e3e 9a80 563c 29bd 3fbb
000000d0: 8bbe 023e 291e 073e 0c85 1b3d bf1f f23d
000000e0: 9092 64bd 2888 c83d 7e74 abb8 defb 593e
000000f0: 3c91 81bc 7106 213d b775 a3bd e701 fc3c
00000100: 5b74 ec3d dabc 94bc e4bb b3bd 7ba8 1f3c
00000110: c270 a13d 9afa 943d 04dd ad3d b724 a0bd
00000120: b075 2d3d 8fdf 32bd 8ace 4cbd 42d6 88bc
00000130: b6ad 113d 9306 013e 9c21 dd3d 9b2e a0bd
00000140: 200c 8ab8 6822 a23d d1cf df3d dbbd 63bd
00000150: c36d 3e3d 0675 f73d 6cb2 73bd 4992 1f3d
00000160: fa9e 3abd 81b0 15be 5384 f83d 88d8 0ebe
00000170: cbe6 cdbd 478a a03d e4d1 d73d 8b23 a2bd
00000180: afe0 34bd eacb 62bd 187d a9bd f9fc 3b3d
00000190: 8f95 013e 5893 943d 0768 193d a37d c23d
000001a0: bb53 5f3d 452f 9e3d ec07 c93c 5aaf 3d3d
000001b0: f78c 803d 98c5 11bd 5b6c 823d d4f3 9fbd
000001c0: 830f e93b 8d65 95bd 39ea d63d 3502 80bd
000001d0: 36b2 9bbd 3ffc 523d dab5 d33d 725b e7bc
000001e0: 8aa3 ee3d 1b17 aabd b815 4c3b 04a0 dd3d
000001f0: a14d 8fbd 9c6d 283d 210b 2ebd 4864 8bbd
00000200: 03c0 ddbd bb19 3dbc 1a93 313d ef57 d5bd
00000210: 5775 3b3c df90 8c3d 0730 8d3d 81ce 01be
00000220: 17f3 a3bc 0d44 99bb f374 e63d 3cc3 14be
00000230: 3eb9 63bd 44c4 a53d 7a2e 043e 53ef 8bbc
00000240: b03f 023e 07e4 bcbd efdb 9f3b 6e1a 20bd
00000250: 0ca5 b6bd 4565 2cbb 3407 d43d 572d d23c
00000260: a464 ecbd 1e88 b7bd 929c 913d 13f3 1dbc
00000270: ce86 f13d 1014 7ebd 338a d83d 1c89 ba3c
00000280: 6700 b4bc 4ec4 98bc 5a28 2fbd 98da 23bd
00000290: cbe8 c1bd f31d 153e 1913 8d3d b04b 07bc
000002a0: 5632 303d fa50 e23d 7a1e abbd 6f5e 043e
000002b0: 19e1 cd3d e042 54bc 3d36 9dbc e170 d83b
000002c0: 44c2 7abc c0d2 eebd 53a3 b3bc 8cc8 cdbd
000002d0: 3049 ef3d ab63 dcbd ab2e 43bd 2b9b 26bc
000002e0: 2151 1c3d 3277 9a3d 1f13 8abc 7820 133c
000002f0: a77a b03d ab3b b33d f76a e13d f9f8 5b3d
00000300: f76b d63d 83fb ef3d 7301 203c 5c22 b6bc
00000310: 65e0 f0bc f41e d03d d933 003d c5a3 ff3d
00000320: 84f4 e03d e842 17bd ce60 c8bc 6ea2 933b
00000330: 0f96 6abd 8ef8 f5bc 90a2 1ebd 3b9e eebd
00000340: 7f58 523d d2f0 9b3c 40e9 5fbd 9297 d13d
00000350: a7f7 50bd b497 fcbc 925a bc3d f956 063e
00000360: 5cc3 283d a2b3 aebc 43dd 173e 7e19 9e3d
00000370: ae5b 61bd 1159 8f3d 4535 f33d 7000 bf3d
00000380: 07bc 383e 6311 92bd 7f16 d63c 94ce 6abd
00000390: 512b 313e 0612 a9bd 9cfb 70bd 916f bebc
000003a0: 7a96 553d 5d5f d4bc 892e 0a3e 682d 5bbc
000003b0: d783 043e 2676 8d3d 6052 163e 7c39 65bc
-0.0041131075 0.086864956 0.032515015 0.07118884 0.06664659 0.053712953 0.020636078 -0.009483347
0.056210607 0.0244528 0.0550286 0.12432922 0.15811677 0.14218785 -0.07107629 0.15047745
0.096009724 0.052699097 0.13295296 0.17427215 0.10541684 0.0988669 0.12858993 0.108124115
0.024324832 0.11189912 -0.09771976 -0.042155392 0.0031975668 0.047277845 0.09240668 0.033033382
0.05829764 0.0745873 0.08384221 -0.0627177 0.08706338 0.042111818 0.16883987 0.15408169
0.050971724 0.07338692 0.04242751 0.030080162 0.07531859 0.13140877 0.10350297 -0.04706117
0.15174073 0.13900632 0.013092184 -0.0029257035 0.12767999 0.13195099 0.03796868 0.11822461
-0.055803835 0.09791595 -8.175614e-05 0.21287486 -0.015816323 0.039312784 -0.07981437 0.030762626
0.115456305 -0.018156458 -0.08776072 0.009744759 0.07882835 0.07274361 0.08489421 -0.07819503
0.042348564 -0.043670233 -0.05000166 -0.016703729 0.035566054 0.12600164 0.10797426 -0.07821389
-6.582611e-05 0.07916719 0.1092831 -0.055600982 0.046491396 0.12082867 -0.05949633 0.038957868
-0.045561768 -0.14618112 0.12134614 -0.13949788 -0.10053786 0.07838874 0.1053808 -0.079169355
-0.044159587 -0.05537025 -0.08275813 0.04589555 0.12654708 0.07254666 0.037452724 0.094966196
0.05452321 0.0772386 0.02453991 0.046309806 0.06276887 -0.03558883 0.063683234 -0.078101784
0.007112445 -0.0729476 0.10493893 -0.06250421 -0.076023504 0.051510092 0.1033742 -0.028241847
0.11652286 -0.08305188 0.0031140875 0.10821536 -0.069972284 0.041120157 -0.042491082 -0.068062365
-0.10827639 -0.011541779 0.043353178 -0.104171626 0.01144155 0.068635695 0.06893926 -0.12676431
-0.020013375 -0.0046773017 0.11252775 -0.14527601 -0.055596583 0.08094075 0.12908354 -0.017081892
0.12719607 -0.0922318 0.004878513 -0.039087705 -0.08918199 -0.0026305479 0.103529364 0.025656385
-0.11542633 -0.08961509 0.071099415 -0.009640473 0.1179329 -0.06203085 0.105732344 0.022770457
-0.021972848 -0.018648293 -0.04276309 -0.04000339 -0.0946823 0.14562206 0.06888408 -0.008257791
0.043016754 0.11050601 -0.08355422 0.12926649 0.100526996 -0.012955397 -0.019190902 0.006605253
-0.015305106 -0.11661291 -0.021928465 -0.10048017 0.11683881 -0.10761198 -0.047651928 -0.010168831
0.038163308 0.07542266 -0.01685482 0.008979909 0.08617144 0.08751615 0.1100673 0.053704236
0.104698114 0.11717894 0.0097659705 -0.02223318 -0.029403875 0.10162154 0.031299446 0.124824084
0.10984138 -0.03692904 -0.024460223 0.004505447 -0.057272013 -0.030025747 -0.03872925 -0.11651274
0.051353928 0.01903573 -0.054665804 0.10233988 -0.05101743 -0.030834056 0.091969624 0.13119115
0.041201934 -0.02132589 0.14830498 0.07719706 -0.055019073 0.0699941 0.11875395 0.09326255
0.18040477 -0.071322225 0.026133774 -0.057325915 0.1730168 -0.08255391 -0.058833703 -0.023246558
0.05214546 -0.025924379 0.13494314 -0.013377525 0.12940918 0.06907301 0.14679861 -0.013990756

model.rnn.bias_hh_l0 f4 [240]
00000000: 269b afbd 9a6f 8dbc 9a6c 1a3e 0e32 35bc
00000010: 7edd 8dbd 50ce a6bd ac72 c6bd d1fe 213e
00000020: 94ea 0dbc 14a9 0c3e 3688 abbc a26e 89bc
00000030: a4e6 853c 67ce b43d 49c9 513d 536f 40bc
00000040: 56fb 9e3d 9c14 2b3d 6f30 bdbb 34b1 6239
00000050: ad8c 363d 3c11 6fbb 62ce 343e 969c 9bbc
00000060: 8eed f43d 4891 21bd 1272 4abd 3339 7f3c
00000070: 174c 96bc 2946 1c3d 5ae3 fc3b c6a2 233e
00000080: bf4c 193e 0f9d c6bd 504f 8c3d 764f a4bd
00000090: e794 9a3d a298 e63d 0316 6d3d fb63 103d
000000a0: 7fb1 103e cc98 66bd bde9 a63d be35 8d3d
000000b0: cf94 373e 834a 2c3d dcff 063e f4e9 31bc
000000c0: b036 1c3e 2520 a4ba 1489 283d a9d1 15bc
000000d0: ee4b a1bd 0af1 113d dc02 b7bc d2b0 dabd
000000e0: 5899 103e 6c4a e7bd 839d 9abd 7361 3aba
000000f0: 81dc 94bd 5f15 27bd c7a9 87bb 571f f23c
00000100: db49 eb3c 4b51 a53b 7f4b 97bd 35ce ae3d
00000110: c151 bf3d 6e4f 94bd f20d 93bd 2728 a03d
00000120: 11ed 943d f0e0 cbbd a5ef f13a ef24 45bd
00000130: 92e7 87bd 8582 153d 8a74 05be 2c76 463c
00000140: 3ac7 143e cd0a b23a 82b4 04be 06d0 f43d
00000150: 447d 75bd 8ac3 4a3c 9a28 b93d 1342 f53d
00000160: f0fa 723d b0fb 15be a3b2 c93b 6d5f f1ba
00000170: ea17 c73d c2c9 16bd 08d0 fdbd f370 25bb
00000180: 7bef 103e 641c 4a3c 7d37 de3d 33eb ba3d
00000190: dd46 8cbd 2d94 99bc 5bcd 0e3e d03c 963d
000001a0: 39ce 1e3e d6a8 603d e03f 8e3b 2587 0bbd
000001b0: e18f 8abd 81f8 86bd f3af 8f3d ee52 1cbe
000001c0: ecb8 04bd a6df bc3d 2c72 ed3d 0e07 dd3d
000001d0: a7cf 663c c4b7 803d 445c cb3b 206e f43d
000001e0: 6b91 6abc 25cd 7bbd cc2d b53d 9cc2 aabc
000001f0: 938b 1ebb 57c4 333e c9eb b6bd fb0e 21bd
00000200: e5b8 b03d ef16 f13d 8ee4 433d 3e91 44bb
00000210: fe9e fb3c b643 83bd a362 153e c659 94bd
00000220: e1cd f4bd 63f3 7ebc 8d01 a93d 3da6 cf3c
00000230: a464 f83d bd8e 8ebd ae43 41bd 7b17 89bd
00000240: 1a22 173e 7e70 e838 cac3 e2bc 99d1 f13c
00000250: 6d9d 35bd 739b 003c 60bd 2ebc 3056 f2bd
00000260: 0754 513c b4a3 f03c 2804 11be 0d82 053e
00000270: 0984 563d fa16 f9bd 0971 903d 368e ccbd
00000280: 1a97 05be 2770 083c 0089 dd3d e73e 7f3c
00000290: 028b 28bc c185 843b cf9c f9bd 53e9 263d
000002a0: d8fd d83d 1d31 31bd 22fb 92bd b6f4 fb3d
000002b0: 3803 4ebd 7550 d53d 1e1b bf3d 418e fd3d
000002c0: 0b0e 94bd 06cc bebd 2163 92bd 36b5 e63c
000002d0: eed3 b8bd 6898 bebd 21f1 e0bc 5781 67bc
000002e0: b4b5 47bd 9f06 1bbd da1e aa3b 269e ac3d
000002f0: 35a5 c9bd 2a5d cebd 5c8e 4f3e f3f8 203e
00000300: e2fe acbc fb3f 573d 2766 393c 0a5f fd3d
00000310: 5109 4fbc 387c 1e3e 9b34 383d 6846 073d
00000320: 9192 dc3d 8f1f 713d 1886 0f3e ca5c fcbc
00000330: 5e5f 823d 3d07 0ebd c391 14bd 2654 8cbd
00000340: 9494 a33d 273f a43d a922 9fbd fd9f 143e
00000350: df79 21bd a17f 10bd 49d5 883d 9890 bf3d
00000360: 860e 653d 7d11 b7bd b30a c23d 811c ad3d
00000370: 7bb0 99bd 7e87 8cbc a978 fa3d 01cc 73bd
00000380: 7f85 203e 5da3 a3bc c2fa 1a3e 7970 f43d
00000390: 22fc 1e3e 19df 6dbd 089e c3bd 15ed 8abd
000003a0: 99d6 66bd e3ce 78bd d1d7 4cbd 628f 12bd
000003b0: 0431 173e 0c68 b33d b544 923d 7a0d 433d
-0.08574514 -0.01726513 0.1508049 -0.011059297 -0.06927012 -0.0814482 -0.09689841 0.15819861
-0.008661885 0.13736373 -0.020938974 -0.016776387 0.01634533 0.088284306 0.05121735 -0.011745292
0.07762782 0.0417677 -0.005773596 0.00021619053 0.044567753 -0.0036478778 0.17656854 -0.018995564
0.119593725 -0.03944519 -0.049425192 0.015577602 -0.01834683 0.038152847 0.007717532 0.15980062
0.14970683 -0.09697925 0.06851065 -0.080229685 0.07547932 0.11259581 0.05788232 0.0352516
0.1413021 -0.056298062 0.08150051 0.06895016 0.1792786 0.042063247 0.1318354 -0.010859001
0.15255237 -0.0012521787 0.041146353 -0.009144225 -0.078758106 0.035630263 -0.02234023 -0.10678257
0.14120996 -0.11293492 -0.07549574 -0.0007109858 -0.0726862 -0.040791865 -0.004140112 0.02955596
0.02872174 0.0050450913 -0.073874466 0.085354246 0.09341765 -0.072417125 -0.07180394 0.078201585
0.07271779 -0.09955013 0.001845826 -0.048130926 -0.066359654 0.036501426 -0.13032737 0.012113135
0.14529124 0.0013583541 -0.12959483 0.1195374 -0.059933916 0.012375722 0.09040947 0.11975493
0.059321344 -0.14646792 0.0061553284 -0.001841528 0.09721358 -0.036813505 -0.123931944 -0.0025244325
0.14153855 0.01233587 0.10850427 0.09126892 -0.068494536 -0.018747414 0.13945524 0.07335818
0.15508355 0.054848514 0.0043411106 -0.03406443 -0.06765724 -0.06590367 0.070159815 -0.1526601
-0.032402918 0.09222345 0.11594042 0.10792361 0.014087594 0.062850505 0.0062060673 0.11935067
-0.014316897 -0.061474938 0.08846626 -0.02084475 -0.002419208 0.17555366 -0.08931691 -0.039320927
0.08629016 0.11771952 0.04782539 -0.0029993798 0.030715462 -0.06409399 0.14588408 -0.072436854
-0.11953331 -0.015560958 0.08252249 0.025347823 0.12128571 -0.06960819 -0.047183685 -0.06693932
0.14759102 0.000110835754 -0.02768125 0.02951889 -0.044339586 0.007849562 -0.010665268 -0.11832845
0.012776381 0.029374935 -0.14161742 0.13037892 0.052372012 -0.121625856 0.0705281 -0.09988062
-0.13045922 0.00832752 0.10817146 0.015578962 -0.010287048 0.004044265 -0.12188112 0.04074986
0.10595292 -0.04325973 -0.07176806 0.12302534 -0.05029604 0.104157366 0.09331344 0.123806484
-0.07229241 -0.09316258 -0.071478136 0.02816258 -0.090247974 -0.09306413 -0.02745873 -0.014129958
-0.04875727 -0.03784811 0.005191666 0.08428602 -0.09845964 -0.100763634 0.2026915 0.15719967
-0.021117631 0.05255125 0.011315859 0.12371643 -0.012636499 0.15477073 0.044972043 0.03302613
0.10770143 0.058867987 0.14015996 -0.030805964 0.06365846 -0.03467487 -0.03627182 -0.068519875
0.079873234 0.08019858 -0.07770283 0.14514156 -0.039422866 -0.035277966 0.06681306 0.09353751
0.055922054 -0.089388825 0.09474697 0.08452702 -0.07504364 -0.017154451 0.12230045 -0.059520725
0.15675925 -0.019975359 0.15134719 0.11935515 0.15525869 -0.05807409 -0.095516264 -0.06783501
-0.056357 -0.060744178 -0.050010506 -0.03578127 0.14764792 0.0876008 0.07142011 0.047620274

model.rnn.weight_ih_l1 f4 [240, 60]
00000000: cb0c 0cbd 756c 713c 1226 033e f4e5 03be
00000010: 0386 903d 3b00 0f3e d05f 24be 64af 1abc
00000020: 25d6 99bd 4f2d 003e 171f 743d f61c f83d
00000030: 674e 3d3e f5ba 943d df1e af3b db31 963d
00000040: 60ab 3ebd da7d 193d 1430 853d 569d 2cbd
00000050: 6311 f83d 7669 d2bc 0657 d6bd dee4 0abd
00000060: ec71 133e 3168 53bd d6e8 983c a48b dabd
00000070: 8fa0 4dbd edbd 83bd cca0 733d fe40 38be
00000080: 842b 86bd 9ee1 b2bc 351a 08be 009e cc3d
00000090: 1f41 1b3e e457 8f3d f2a9 45bd 966e 853d
000000a0: 40e2 8fbd 1d33 a5bc c91d 0e3e 3d1e cf3d
000000b0: d629 a13d ef10 0d3e 318b 6ebc c457 063e
000000c0: 1687 be3d bf72 113e fd17 07bd 06b1 18be
000000d0: 6bc5 52bd ae8b 7a3d c928 243e cff6 123e
000000e0: f1ac eabc b586 b03c aa2f 4bbd 6ef7 143e
000000f0: b6a3 c83d 3ad9 9dbb dddf 09be 1069 33bc
00000100: b6db 3a3d b305 713d 4706 da3d 922c b7bd
00000110: 3129 143e 7f21 973d 94dd e43c f505 003e
00000120: f665 d33c fa36 c4bd b31d a93b 2ab5 f2bc
00000130: c6ca f8bc 9114 f63d 1a31 c13c 1c89 08be
00000140: 5c4f dc3d 986b 703d ca9e 7c3d 766d e83c
00000150: 0e6f a53d 03ad 1cbd 0ee9 e43d 4c6e c2bd
00000160: 0272 81bd 3ca0 f2bc fe7c b0bd d699 333e
00000170: 6ecb 823d 6d2a 5dbd f189 10be bd84 1c3d
00000180: 6c45 073e d866 993d 133a 4dbd 946c 7c3c
00000190: 80f7 67bd 6e2f 023d 5b68 56bd b9dc bc3d
000001a0: 74c8 0a3e 0143 cdbd 794d 07be 910f 903c
000001b0: 0f27 973d d2eb 99bd 497c 2bbd bf1b e23d
000001c0: b7f1 49bd 1c84 3c3d a7ad 993d 36b1 ffbd
000001d0: 08af 863d 826a 98bd 7dac e73d 3960 d6bd
000001e0: f068 09be f840 44bb 6f88 e93d 24da 8bbd
000001f0: 8043 bf3d 8729 8a3d 406a fa3c 5f50 10be
00000200: 763c cc3c 0f32 a1bd fc08 1c3e 3543 493d
00000210: c9a4 f83c ed35 db3d a7f0 87bd 43d8 43be
00000220: cab4 783c 9473 293e ca06 e23d b6e3 f73d
00000230: fe3d 4eba a584 07be 6563 94bd 41db 13bb
00000240: e3ea 983c ec57 cdbd 7476 c6bd eac0 853c
00000250: f6ac c6bd 8540 00be a406 573e c6ef f1bd
00000260: df57 833d 941e a3bd 49bf 9bbd d773 c83d
00000270: d845 29b8 9945 ddbc 30b7 fabd 4fb2 993d
00000280: 4fc9 abbd 2790 953c 35b0 ea3d 731d 30be
00000290: b4f0 9f3d 1c6d d9bd 12b0 8b3d 7f70 233d
000002a0: bc55 9dbd f6dc 10bd 7dfb 9d3d 3941 35be
000002b0: 8ab8 02be 70d9 b23d 7c9d fabd 370e fe3d
000002c0: 95e1 f23c cfd7 973d e616 09be 12d7 133e
000002d0: 7cf7 c2bd c351 673d d343 63bc df72 f0bd
000002e0: 9e1f 183c 8d1c dd3c 6cfe e2bc d10d d73d
000002f0: 8a5b fabd 213e be3c 7ecf 58bd c9f6 a53c
00000300: 7598 80bd 7bed 923b f149 08be 749e 28bc
00000310: ac4a dbbd e960 173e cbac 36ba 7e3b 8b3b
00000320: b15c 773d 2001 f2bd 2457 d8bd efa6 80bd
00000330: da03 d13d 837d 953d fd8d 07be b23a 6f3c
00000340: b326 33bd 593e c1b9 da80 973d 38c3 463d
00000350: 965e 11be 1f41 85bd 4c03 b43d 0d73 04bc
00000360: fc8f 893d 2d5d 25be 8547 efbd a15b de3d
00000370: 454e 33bd 409b e33d 05af 69bd f0fb 13bd
00000380: 93db 463d b0e4 81bd 64f7 01be 58ec a2bd
00000390: 16b3 9f3d 6846 b13d 91e8 e33c fc60 1abe
000003a0: b79c d23c d800 da3d b461 183d e29f 053d
000003b0: a6e2 bfbd 874a 6bbd 9e5e 64bd 6085 10bd
000003c0: 858d 22be 6cba b1bd 6280 863d 1f8a e93d
000003d0: b369 0a3e ea40 053e dbde 0bbe 602b 843b
000003e0: 1c29 373d a676 90bc 30fc fcbd ffc1 233e
000003f0: f9b3 043d 8e3a 643c f071 a73d f3ff 873d
-0.034191888 0.014735331 0.12807491 -0.12880689 0.07056811 0.13964932 -0.16052175 -0.00944123
-0.07511548 0.12517284 0.059599962 0.12114899 0.1848694 0.07262222 0.0053442563 0.07333728
-0.046550155 0.037473537 0.06503311 -0.042142235 0.12112691 -0.025685053 -0.10465817 -0.03390967
0.14398926 -0.051613037 0.018665712 -0.106711656 -0.05020195 -0.0643271 0.05947952 -0.17993543
-0.06551269 -0.021836098 -0.13291247 0.099910736 0.1516156 0.06999186 -0.048257776 0.06515233
-0.07025576 -0.020165974 0.1387855 0.10113189 0.07869308 0.13775991 -0.014559553 0.13119417
0.09303109 0.14203928 -0.03298186 -0.14911279 -0.051457804 0.061168365 0.16031183 0.14351963
-0.028646918 0.021548608 -0.049606003 0.14547512 0.097968504 -0.004817155 -0.13464303 -0.010950342
0.04561969 0.058843326 0.106457286 -0.08944048 0.14468838 0.07379436 0.027937688 0.12502272
0.025805455 -0.095807984 0.005161011 -0.029627401 -0.030370127 0.120156415 0.023582984 -0.13333553
0.10757324 0.05869636 0.06167487 0.028372508 0.080778226 -0.038250934 0.11177264 -0.09493694
-0.063205734 -0.029617421 -0.0861759 0.17539153 0.063864574 -0.05399554 -0.1411512 0.038212527
0.13210076 0.07490319 -0.050104212 0.015406746 -0.05663252 0.031783514 -0.052345615 0.09221787
0.1355303 -0.100225456 -0.13213147 0.017585548 0.07380497 -0.07515682 -0.041866574 0.110404484
-0.049302783 0.046024427 0.07503825 -0.12484972 0.06576353 -0.0744219 0.113121964 -0.10467572
-0.13418937 -0.002994595 0.11402976 -0.068287164 0.093390465 0.06746202 0.030568242 -0.14093159
0.024931174 -0.07870876 0.15237802 0.04913636 0.030352013 0.10703645 -0.06637698 -0.19125466
0.015179822 0.16547996 0.11036451 0.12103979 -0.0007867514 -0.13234194 -0.072455205 -0.0022561105
0.01866669 -0.100265354 -0.09690562 0.01632734 -0.097009584 -0.12524612 0.20998627 -0.11813311
0.064132445 -0.07964817 -0.07604844 0.0978772 -4.0357787e-05 -0.027010726 -0.122419715 0.07504713
-0.08388006 0.018257214 0.1145939 -0.17198734 0.07809582 -0.10616514 0.06820692 0.039902207
-0.07682368 -0.035366975 0.07713983 -0.17700662 -0.12765709 0.08732879 -0.12237069 0.12405055
0.029648582 0.07414209 -0.13387641 0.14437512 -0.0951986 0.05647446 -0.013871151 -0.1174066
0.009284882 0.026991153 -0.027709208 0.10500682 -0.12224491 0.023222985 -0.052932255 0.020259278
-0.06279079 0.0044838763 -0.13309456 -0.010291684 -0.10707602 0.14783062 -0.0006968497 0.0042490354
0.06039113 -0.11816621 -0.10563496 -0.0628184 0.10205813 0.0729933 -0.13237758 0.014601396
-0.04373808 -0.0003685828 0.07397623 0.04852602 -0.14196238 -0.065065615 0.08789691 -0.008084071
0.06716916 -0.16148825 -0.11683563 0.108573206 -0.043775816 0.11113596 -0.057051677 -0.03612894
0.048549246 -0.06342447 -0.12692028 -0.07955235 0.0779783 0.08656007 0.027820857 -0.15076059
0.025709493 0.10644692 0.037202552 0.03262318 -0.09369402 -0.05744412 -0.055754296 -0.035283446
-0.15874298 -0.08678135 0.06567456 0.11403298 0.13516884 0.13013044 -0.13659231 0.004033491
0.04471694 -0.017634701 -0.123527884 0.15991972 0.032398198 0.013929976 0.08176029 0.06640615

model.rnn.weight_hh_l1 f4 [240, 60]
00000000: 5be2 58bc ff1e 38bc 1df6 82bd 6392 82bd
00000010: 7e91 513c 8b5e a7bc 0251 5dbb 2a44 763c
00000020: fe22 fabd 79e2 573b ac96 03bd fab4 053d
00000030: f311 cd3c 3350 b4bc 92e5 28bd b3e9 5e3d
00000040: b692 873d a14f 5abc 3443 acbd 336b 813d
00000050: 9163 dfbd f9c7 763c 8f9a ba3d 846c dfbc
00000060: 74d1 f3ba 3406 babb 159f a33d 9008 02bd
00000070: 4f9f 993d a6bd 903d ef2b 8fbd 1124 e83c
00000080: b664 5bbd 1b41 1e3e be9b 33bd 0a67 093e
00000090: bf17 bc3d 52d1 3bbd c0ec 01be 8443 ca3d
000000a0: bae1 07bd fe11 95bd 0fa7 0abe 7435 073c
000000b0: cc91 003e 873e 1b3d e7bc 02be 1c4d d7bd
000000c0: 613b 9c3b e061 d6bd 91b0 c6bb bce6 d63d
000000d0: fa29 31be fd37 9bbc 308c c33d 9149 febb
000000e0: 7ace 033d 71c0 b4bc f8b6 bebd 9994 853d
000000f0: 1dc2 7cbd 526a d8bd 47a3 f53b a472 b63d
00000100: d3ce 433d ad0b e23c 071b e2bc 7662 53bd
00000110: 42a5 ef3d 9565 9cbd 6307 f23d a157 bcbc
00000120: 6070 653d bae6 853d 0ccf 1cbd 144d efbb
00000130: ad0e 4d3d 084c a7bd 28bc 613c 055b d73d
00000140: 7136 973d fbe1 b4bd 9ed3 65bd da16 21be
00000150: 4339 2b3d 8139 7ebd 33e6 e93c 5532 c1bd
00000160: 8ded c53d aaaa cf3d 581a d5bd 6ff2 cdba
00000170: 8cdb 503d 91a8 393d 198a f73d 1533 4fbd
00000180: 8043 89bd 263c d7bc 75a3 aebd e5d4 603d
00000190: 3905 9c3d ba21 e53d 5825 223d 624a 873d
000001a0: ec63 84bd 98e1 cabd 4be0 cf3d 3c65 803d
000001b0: 0555 6ebd 93f8 823d 0814 f13d 8590 78bd
000001c0: e594 0abe 68bc 86bd 57ab 003d 932a 26bd
000001d0: 985b ab3a a963 a33d 766e 57bc a6cc 363d
000001e0: 1640 aa3d 8613 293c 1754 babb 27e4 a33d
000001f0: 4c00 663d 8482 c1bd b483 d23d 8fce 52bd
00000200: 4d91 bfbd dd64 073e 8ee7 d8bd 2dfa c23d
00000210: 0542 853d ec98 d0bb 1b91 10bd 0355 c73d
00000220: fe4e 1dbd 6239 aebc 2080 01bc b5ef c2bd
00000230: 9d6b b7bd e3a3 5fbd 67c3 39bc 8eee 813d
00000240: 6e51 62bd f260 cebd 1226 d0bc 7492 b0bd
00000250: 50f9 fabb 0a3b f63b 71e0 0dbd f05e 14be
00000260: 59ad acbc 5e4c 923d d978 763d 556e a43a
00000270: b880 46bd 08b8 2dbc db8a e03b a798 a9bd
00000280: d218 dd3d c460 133e fcbe 07bd 64a0 e6bd
00000290: b800 433a 6f37 afbd 947e c63d 67d5 f3bc
000002a0: 4e36 013c 83a6 953d e791 85bd de01 bfbc
000002b0: d814 b43c 5e6b a73c e3a3 983b 76d4 54bd
000002c0: 9002 88bd fa43 a1bd 1c74 0c3e a6a2 40bd
000002d0: 956d 95bd e6a8 493d b9f1 8ebc 666a bb3c
000002e0: 9f3c 5fbd 2374 7c3d 85dc 403d 6c6d 613c
000002f0: 8bd0 4b3d f45b ddbc 17a6 4fbd 9450 ec3c
00000300: 7094 823d f9c0 a9bd 12b1 69bd 6ba5 f93d
00000310: a1e4 88bd 2c9b 0e3d 15fa a73d c8ae 013e
00000320: 63e4 d0bd 8db7 67bd d114 cb3d 5eee 873d
00000330: 77ea 763d 7f73 243d f78a 5c3d 19e0 e5bd
00000340: 6b51 f4bd 240e eb3d a18a ecbd 0b8f 38bd
00000350: f3a3 ed3c 7fca 7f3c f043 69bd 5585 11bd
00000360: b252 683d 717c 7e3d 24b4 a23c 49e4 863d
00000370: 26e4 a8ba 1d4a 413d f758 703d a772 1f3d
00000380: 5cd6 063e bd90 953c fb78 853d 2e38 afbd
00000390: 1f1b 01be 6ae2 02bd d198 373c 9d22 0b3e
000003a0: 2de9 4e3d 8070 b83b 3eee 9a3d 7ddf ac3c
000003b0: bec1 c53c aec0 073e efc9 62bd 5d32 293b
000003c0: 081f f6bc f60a a6bc 02fa 2cbe 386f 10bc
000003d0: 9e63 523d 10f7 eb3c 1e35 e6bd 9726 46be
000003e0: 3181 8bbd faaf 14be f52a 263e 3c26 17be
000003f0: 9ddd 343d fadd 463d 9ff8 873c 0492 943d
-0.013237561 -0.011237859 -0.06394599 -0.06375577 0.012791036 -0.020430824 -0.0033770208 0.0150309
-0.122137055 0.0032941385 -0.032126114 0.032643296 0.025032973 -0.022010898 -0.04123456 0.05442209
0.0661978 -0.013324649 -0.084112555 0.06319275 -0.10907663 0.015062326 0.09111511 -0.027273424
-0.0018601851 -0.005677009 0.07989327 -0.031746447 0.07501089 0.070674226 -0.069908015 0.02833751
-0.053562842 0.15454523 -0.0438497 0.13418213 0.09184217 -0.04585392 -0.12687969 0.09876159
-0.033174254 -0.07278822 -0.1354029 0.00825249 0.12555617 0.037901428 -0.12767373 -0.10512754
0.0047678207 -0.10467887 -0.006063529 0.10493228 -0.17301169 -0.018947596 0.09548223 -0.0077602346
0.032179333 -0.02206442 -0.09312242 0.065224834 -0.06170856 -0.10567154 0.007496271 0.08908585
0.047804665 0.027593458 -0.027600778 -0.05160757 0.11701442 -0.07636563 0.11817815 -0.022991003
0.056015372 0.06538148 -0.038283393 -0.0073028896 0.050062824 -0.08168799 0.01377777 0.105154075
0.07383431 -0.08832165 -0.056110017 -0.15731373 0.041802656 -0.06206656 0.02855215 -0.09433428
0.0966445 0.101399735 -0.10405415 -0.001571251 0.050990626 0.045326773 0.12086887 -0.050585825
-0.06702328 -0.026273798 -0.08527271 0.054890532 0.07618184 0.111880735 0.039586395 0.06605984
-0.06464371 -0.0990631 0.10150202 0.06269309 -0.05818655 0.06395068 0.11771399 -0.0606847
-0.13533361 -0.065789044 0.031413402 -0.040567946 0.0013073562 0.07977993 -0.0131488945 0.04462876
0.08313005 0.010319596 -0.005686294 0.08002501 0.056152627 -0.09448722 0.10279027 -0.05146652
-0.09353886 0.1322207 -0.105910406 0.095203735 0.06506733 -0.006365886 -0.035294633 0.097330116
-0.03840541 -0.021267597 -0.007904083 -0.09518377 -0.089560725 -0.054599654 -0.011338091 0.06344329
-0.05525344 -0.100770846 -0.025408778 -0.08621684 -0.007659115 0.007514362 -0.034637872 -0.14489341
-0.021078752 0.07143472 0.060173843 0.0012545089 -0.0484626 -0.0106029585 0.0068524904 -0.08281069
0.1079575 0.14392382 -0.03314112 -0.11261061 0.0007438767 -0.08555495 0.096921116 -0.029764844
0.007886482 0.0730715 -0.06521969 -0.02331632 0.021982595 0.020436939 0.0046582087 -0.05196043
-0.06641114 -0.078742936 0.13716167 -0.047030114 -0.07296292 0.04923334 -0.017449247 0.022877883
-0.054501172 0.061634194 0.047085304 0.013758998 0.04975943 -0.027021386 -0.050695505 0.028847016
0.063759685 -0.0828876 -0.057053633 0.12189754 -0.066842325 0.034815952 0.08201996 0.1266433
-0.10199811 -0.056571532 0.0991608 0.06637262 0.060282197 0.04014921 0.053843465 -0.11224384
-0.11929592 0.114773065 -0.11549879 -0.04505829 0.029008841 0.015612244 -0.056949556 -0.035527546
0.05671949 0.062130395 0.019861288 0.06586511 -0.0012885376 0.04718982 0.058678593 0.0389277
0.13167709 0.018257493 0.06517216 -0.08555637 -0.12608002 -0.031954207 0.011205868 0.13587423
0.050515343 0.0056286454 0.07564972 0.021102661 0.024140235 0.13257095 -0.05536836 0.0025817372
-0.030044094 -0.020268898 -0.16892245 -0.008815579 0.051364534 0.028804332 -0.112406 -0.19350658
-0.06811751 -0.14520255 0.16227324 -0.14760679 0.04415666 0.048551537 0.016598044 0.07254413

model.rnn.bias_ih_l1 f4 [240]
00000000: 80ed 85bd 7f0e dd3c e78c 00be bb58 5c3d
00000010: 2737 883d a07e f33d 33a0 b6bd d2e0 ae3d
00000020: 7baf ac3d 1f89 a33d ed8f f23c e687 f13c
00000030: e92d bbbd 14aa 573c d85b 45bd 27ff 143e
00000040: 5b42 483d b21b af3d c3b1 193e 5f8e 2b3e
00000050: cd18 db3c 5d02 04bd c16e f63d b417 c13d
00000060: 25e2 c53d f8eb 36b9 775b d33d e391 0b3e
00000070: c56e ad3d 117f b5bd 1afc 133e 75c6 4abd
00000080: 2a50 1b3c e1a5 073e 15fd d1bd afcb a53d
00000090: 6ed1 fb3c 0abd c03d a0e9 c03d 913f 533e
000000a0: 8666 0f3e 255d 0a3e 8562 d93d 8cfd ee3d
000000b0: d43b 2a3d 1dc2 e43c 87b2 513d 6fa7 91bc
000000c0: cab2 893d fcd1 e33d c709 243e 0c1a d3bc
000000d0: da31 4a3d 439a a1bb ca65 1a3e db84 a33d
000000e0: bebc 8abd fba2 213e 3617 e7bd ac74 a6bd
000000f0: 2808 b7bd b5ca 22bd c5fb 803c 0758 91bd
00000100: e9db 793d 7db0 b63b b57e 90bb 64cc debc
00000110: a3f7 17bd 87e8 593d 082d d6bd c912 fd3d
00000120: 8652 833d 2d6a 923d eb05 093e 4a56 523d
00000130: 4bd9 9ebb c008 a53c 96fd 3f3b 4c0c 973d
00000140: 19db c8bd 1934 e0bc 2843 c33b e1ac b8bd
00000150: 8422 fabc e7b2 19bc 9618 37bd fea0 2abd
00000160: fc59 82bc d1b2 e8bd 6a96 4a3c 3ec3 98bd
00000170: e07c 813c f8ff 0dbc d853 e73d f085 abbc
00000180: b0b7 d53d 1798 513c f881 efbd 9376 f2bc
00000190: b448 eebc 6e10 c63c 908b ccbd 37a8 bd3d
000001a0: bc62 eabd 8794 cdbd c204 6039 7d39 bf3c
000001b0: c5ac 383d 4696 a93d 710d 513d 62c0 a4bd
000001c0: 8b5f 89bc 3a54 aa3d a15f be3d 78bc 06bd
000001d0: 7949 ee3d bdbb c33d 5c5f 883d 711d 003d
000001e0: d00a b83c ce4c e3bd a297 9e3c c29e 0e3e
000001f0: c979 9fbb a472 61bd 5fed 12bd d9ac 01be
00000200: a012 b3bd 3e2e 11be 2b88 42bd 7c6e df3c
00000210: ddba 13be 519a cebc 9f3b abbd 0934 c73d
00000220: bde1 b8bd bc91 623d 5c44 463d 51e7 e6bd
00000230: 310f 14bd bbd1 f6bb 458e 37bd de47 02be
00000240: 70f3 1c3d 43b0 13be 517d e93c 2c2b 6d3d
00000250: 257f 63bb a9e6 093d 50d1 933d 3021 c23d
00000260: 174a 943b 673e 42bc d7f6 38bd f264 3c3d
00000270: 9e4b debc 73a2 f4bd 2891 883d a6e2 3d3c
00000280: 2e6f 06be 9790 a93d 0ed4 a6bc b33a db3d
00000290: 43d3 04bd b3b8 ec3d 54e1 cebd 360a f93d
000002a0: 17a2 8abd e1e1 d13d 1bea e23c 6165 1cbd
000002b0: 3825 c7bd fd1d 97bc 164b 9cbd 03f5 fa3c
000002c0: 43cb 88bd 9ea8 043e bfd5 5c3b c950 9abd
000002d0: 8aed a5bd 48d5 1ebd 043d 7b3d c014 c73d
000002e0: 0cc1 0c3d ec05 573d 9e5a d13b 28ee 103e
000002f0: be82 c6bd f570 833c 5767 513e d711 afbc
00000300: aad1 ce3d 9f80 b23d c593 353e 7666 15bc
00000310: 5ef0 203d c986 233e cdce 4c3c a12d cfbc
00000320: ce21 8abc 093c e13d 2ed4 97bd 3b6d 9ebd
00000330: 7c61 92bc b1de 9bbd 076a 1bbd 6f16 22bc
00000340: 48ed 5cbd 2ddc f83d 9fdd f03d 328c 283d
00000350: c83c a43d 7823 ba3d 8c0c e63c 7aeb a43d
00000360: 1495 b33d 5cd3 3e3d 93a3 013e 27fb c13c
00000370: 3371 cb3c d4f6 453e a9cb 223e 9bae 3ebd
00000380: 39eb acbc e9f7 e93d d56f cd3d 47e0 7fbd
00000390: a8e9 183e cd9f b53a bee3 7abd be13 d33b
000003a0: 941f d83c 5fe9 f73d d191 4ebd d61e da3d
000003b0: 101b c5bd 9940 0d3e 765d b0bc 3b9b 863d
-0.0653944 0.026984451 -0.1255375 0.053795557 0.066511445 0.11889386 -0.08917274 0.08538975
0.08431908 0.07985138 0.029609645 0.029483747 -0.09139616 0.013163108 -0.048183292 0.14550458
0.048891407 0.08550204 0.15009217 0.16753529 0.026745224 -0.032228816 0.120328434 0.09428349
0.09662274 -0.00017444778 0.1032018 0.1362987 0.08468393 -0.088621266 0.14451638 -0.04950567
0.009479562 0.13246872 -0.1025335 0.0809549 0.030739512 0.09411056 0.094195604 0.20629717
0.14003953 0.13512094 0.10614494 0.11669454 0.041560963 0.027924592 0.051195648 -0.017780034
0.067235544 0.11124036 0.16019355 -0.025769256 0.04936395 -0.0049317195 0.15077892 0.079843245
-0.06774281 0.15784828 -0.11283724 -0.08127722 -0.089371026 -0.039744098 0.015745053 -0.07096868
0.06100074 0.0055752383 -0.004409636 -0.02719707 -0.0371014 0.05320027 -0.10457808 0.123570986
0.064122245 0.07149158 0.13381164 0.051351823 -0.0048476807 0.020145774 0.0029295436 0.07375392
-0.098074146 -0.027368592 0.0059589334 -0.09017349 -0.030534036 -0.009381033 -0.04470118 -0.04165744
-0.015912049 -0.113622315 0.012364963 -0.074591145 0.015806615 -0.008666985 0.11295289 -0.02093789
0.10435426 0.012792609 -0.116947114 -0.029597556 -0.029087402 0.024177756 -0.09987557 0.092606
-0.11444613 -0.10038095 0.00021364077 0.023342842 0.04508664 0.082806155 0.05103821 -0.080445066
-0.016769191 0.08316846 0.092955835 -0.03289458 0.116351075 0.095572926 0.06658813 0.031278078
0.022466093 -0.11098634 0.019359414 0.13927749 -0.004866813 -0.05504097 -0.035870906 -0.12663592
-0.08743787 -0.14177796 -0.04749314 0.027274363 -0.14426751 -0.025220068 -0.08360981 0.09726722
-0.09027431 0.055314764 0.048405036 -0.11274589 -0.0361473 -0.007532326 -0.044813413 -0.12722728
0.038318098 -0.14422707 0.028502138 0.0579025 -0.0034713235 0.03366724 0.072176576 0.09478986
0.0045254338 -0.011855698 -0.04515728 0.045994706 -0.027135666 -0.11945047 0.06668311 0.011589682
-0.13128349 0.082795314 -0.020364787 0.10704555 -0.032428037 0.11558666 -0.10101572 0.12160151
-0.067691974 0.10248161 0.02769952 -0.03818262 -0.09723896 -0.018446917 -0.07631509 0.030634409
-0.06679394 0.12954947 0.0033696739 -0.0753494 -0.081019476 -0.03877762 0.061337486 0.097207546
0.03436379 0.052495882 0.0063889762 0.1415335 -0.09692906 0.016045073 0.20449577 -0.021370811
0.10098584 0.08715939 0.17732151 -0.009118667 0.039291732 0.15969385 0.012500477 -0.025290312
-0.016861822 0.10997779 -0.07413517 -0.07735678 -0.01786875 -0.076108344 -0.037942912 -0.009893044
-0.053937227 0.1215137 0.11761021 0.041149326 0.080194056 0.090887964 0.028082155 0.08052726
0.08768669 0.046588287 0.12660055 0.02367933 0.024834251 0.19332439 0.15898003 -0.046553236
-0.021108257 0.11424238 0.10031096 -0.062469747 0.14932883 0.0013856828 -0.061252348 0.0064415624
0.026382245 0.12105059 -0.05043203 0.10650413 -0.096243024 0.13794173 -0.02152894 0.065725766
